models/joint/joint_model2.pth (torch, 471106 bytes, 12 tensors)

g_model.conv1.weight f4 [32, 1, 3, 3]
0	0xbe33d9d4	-0.17563564
1	0xbecd3147	-0.40076658
2	0xbcbbd9c3	-0.022930985
3	0xbe91e055	-0.28491464
4	0xbdda7d91	-0.10668481
5	0x3eee2215	0.46510378
6	0x3e88c12d	0.2670988
7	0x3e6852ed	0.22687884
8	0x3e33818b	0.17529885
9	0x3eb33a1f	0.3500528
10	0x3ef35832	0.47528225
11	0x3e203e84	0.15648848
12	0xbe518adb	-0.20463125
13	0xbe36fe37	-0.17870413
14	0xbe712168	-0.235479
15	0xbe54513a	-0.2073411
16	0xbec313a1	-0.38100913
17	0xbe01f12b	-0.12689655
18	0x3ee6405c	0.44970977
19	0x3e14ffa5	0.14550646
20	0xbe882ba9	-0.2659581
21	0x3edb67b9	0.42852572
22	0x3ec81924	0.3908168
23	0x3e105e84	0.14098555
24	0x3ed53ab1	0.4164634
25	0xbce2e57c	-0.027697317
26	0x3e29e938	0.16592872
27	0x3ec9a8e7	0.39386675
28	0x3ec3f6d7	0.3827426
29	0x3edc729d	0.43056193
30	0xbe0801a1	-0.13281871
31	0x3e8abff3	0.2709957
32	0xbdbad44a	-0.09122522
33	0x3ede4a22	0.43415934
34	0x3dddfeaf	0.10839593
35	0x3e8a4aa3	0.27010068
36	0xbe7e599c	-0.24838871
37	0xbe617a2e	-0.22019264
38	0xbe6b4a4d	-0.22977562
39	0x3e017d07	0.1264535
40	0xbe592418	-0.21205175
41	0xbeba674f	-0.36406943
42	0x3f04df8b	0.519036
43	0x3ee84b70	0.45370054
44	0xbce8ff71	-0.028442116
45	0xbed57491	-0.41690496
46	0xbdd2ceab	-0.10293325
47	0xbe81e878	-0.25372672
48	0xbe2aa554	-0.1666463
49	0xbda8fb65	-0.08251075
50	0xbe4b73bb	-0.19868366
51	0x3ec4e6ca	0.38457328
52	0xbd9d8a2f	-0.07692372
53	0x3e8b4f9d	0.27209178
54	0x3e18b5c9	0.14913096
55	0x3e06ea57	0.13175331
56	0x3ef297a3	0.47381315
57	0x3f0caade	0.5494822
58	0xbdb40301	-0.087896354
59	0xbdcecfcf	-0.1009823
60	0x3cb2f78b	0.021846553
61	0xbe8705ea	-0.263717
62	0x3e72cc9d	0.23710866
63	0xbeff7805	-0.49896255
64	0xbeb0d40c	-0.3453678
65	0x3edc7210	0.43055773
66	0xbeb46737	-0.35234997
67	0xbe82303e	-0.2542743
68	0x3e07cb37	0.13261114
69	0xbcbdd302	-0.023171905
70	0x3eb2eda0	0.34946918
71	0x3e839b74	0.2570454
72	0xbc3b1cd3	-0.011420446
73	0x3e96dcc7	0.29465315
74	0x3ecc6bcb	0.3992599
75	0x3db84a2d	0.08998523
76	0x3dd3990a	0.10331924
77	0x3e9c4d9a	0.30527955
78	0x3eed6166	0.46363372
79	0x3ee6cfa6	0.45080298
80	0xbcaf52f3	-0.021401858
81	0x3ea834ae	0.3285269
82	0x3dc1318d	0.09433279
83	0xbdf76014	-0.12078872
84	0x3e73bd32	0.23802641
85	0xbe3eedc3	-0.18645386
86	0x3eb164d3	0.34647235
87	0xbeaad4ed	-0.33365574
88	0x3eaa71b1	0.33289865
89	0x3eb9d0cc	0.36292112
90	0xbe8fd240	-0.28090096
91	0xbef80cff	-0.48447415
92	0xbe956094	-0.29175246
93	0xbe893ab5	-0.26802602
94	0x3dc4c4fc	0.09607884
95	0x3c103fd7	0.008804283
96	0xbe359727	-0.17733441
97	0x3e2419f7	0.1602553
98	0x3ef9144c	0.48648298
99	0x3e07601d	0.13220258
100	0xbe0e8222	-0.13916829
101	0xbf070de8	-0.52755594
102	0xbe52de10	-0.20592523
103	0xbed9cd1c	-0.425393
104	0x3e0e2e27	0.13884793
105	0xbed8795c	-0.4228009
106	0xbd208bd5	-0.039195854
107	0x3b639e2d	0.0034731731
108	0x3e855b20	0.26046085
109	0xbe890078	-0.2675817
110	0x3d8204d2	0.06348576
111	0x3e75d97e	0.24008748
112	0x3e8ed9c9	0.27900532
113	0x3dd0e804	0.102005035
114	0x3ea5b3a4	0.32363617
115	0x3e752f22	0.23943761
116	0x3ed3016c	0.41212022
117	0x3e6fb1c0	0.2340765
118	0x3ec7d458	0.39029193
119	0x3cdb848d	0.026796604
120	0x3ded956a	0.11600764
121	0x3e234924	0.1594587
122	0x3f1268b9	0.57191044
123	0xbccdab57	-0.025106115
124	0x3b967810	0.0045919493
125	0x3ef9f411	0.4881902
126	0x3ed90200	0.42384338
127	0x3e6c370e	0.23067877
128	0xbe6df788	-0.23238957
129	0x3ea67b79	0.32516077
130	0x3ef48add	0.47762194
131	0x3e2d6f6e	0.16937038
132	0xbe96e7d6	-0.29473752
133	0x3e5a889c	0.21341175
134	0x3e92018e	0.2851681
135	0x3e19a8ee	0.15005848
136	0x3e853c56	0.26022595
137	0x3ed6cc80	0.41952896
138	0x3d82a546	0.0637918
139	0x3ecd8dd4	0.4014727
140	0xbcdd1d37	-0.02699147
141	0xbe52c8a2	-0.20584348
142	0xbf01c16c	-0.50685763
143	0xbea9c242	-0.3315602
144	0x3d91f119	0.07126064
145	0x3e3ed5e2	0.18636277
146	0x3ef37d88	0.4755671
147	0xbe021728	-0.12704146
148	0xbe3abb75	-0.18235572
149	0x3ec18513	0.3779684
150	0xbea62bcd	-0.32455292
151	0xbedc10f6	-0.4298169
152	0xbe5919f1	-0.21201302
153	0x3dc9f59b	0.09861299
154	0xbec45284	-0.38344204
155	0xbe5ba957	-0.21451317
156	0x3ee1b3ea	0.44082576
157	0xbe758074	-0.23974782
158	0xbe990214	-0.29884398
159	0x3ea8ccc1	0.32968715
160	0x3d91b36c	0.071143
161	0xbe1d343a	-0.15351954
162	0xbcbfe52f	-0.023424713
163	0xbeab6a12	-0.33479363
164	0xbe557757	-0.20846306
165	0x3dc17f2b	0.094480835
166	0xbe59e5b6	-0.21279034
167	0xbe00f324	-0.12592751
168	0x3f0bccf9	0.5460964
169	0x3c523019	0.01282885
170	0x3ea484d7	0.321326
171	0x3eed659c	0.46366584
172	0x3f21c21b	0.63186806
173	0x3ea0865c	0.31352508
174	0xbe083938	-0.13303077
175	0x3f2fd37c	0.68682075
176	0x3ed69d7c	0.41917026
177	0xbcff9ca7	-0.031202627
178	0xbd13f79b	-0.036124807
179	0x3e3ed396	0.18635401
180	0x3f004b6f	0.501151
181	0xb91dc9ab	-0.00015047814
182	0x3eb7e13d	0.3591403
183	0x3ef7ead2	0.4842134
184	0x3d3cf9bd	0.046136606
185	0xbe59de03	-0.21276097
186	0x3ec1d630	0.37858725
187	0x3eec6f92	0.4617887
188	0x3e2e3794	0.17013389
189	0x3d2c87dc	0.042121753
190	0xbe98089e	-0.29694074
191	0xbe7f3854	-0.24923831
192	0xbe016e30	-0.1263969
193	0xbe51fac6	-0.20505819
194	0xbd33f456	-0.04393419
195	0x3eb22372	0.34792668
196	0x3eba6492	0.36404854
197	0x3e2a4907	0.1662942
198	0x3d2f7ca1	0.042843465
199	0xbde1206b	-0.10992511
200	0x3f01f226	0.50760114
201	0xbec572c4	-0.38564122
202	0xbe5eaa30	-0.21744609
203	0x3d549389	0.051898513
204	0x3ddb4089	0.107056685
205	0xbe0b4635	-0.13601
206	0x3e7b1172	0.24518374
207	0x3e81d32f	0.25356433
208	0x3e698e61	0.2280822
209	0x3eaf1f11	0.3420339
210	0x3edb0234	0.42775118
211	0x3e837f2a	0.25682956
212	0xbe22e7a9	-0.15908684
213	0x3e5e9bfd	0.21739192
214	0x3ecb41ab	0.39698538
215	0xbc55e8b0	-0.013055965
216	0xbe4cbf3d	-0.19994827
217	0x3ee1dfe4	0.44116127
218	0x3edc6984	0.43049252
219	0xbe83ef6d	-0.25768605
220	0x3ed16788	0.408993
221	0x3eb5f18f	0.35535857
222	0xbe9495b6	-0.2902047
223	0x3dcfb32d	0.10141597
224	0x3eb2a74a	0.34893256
225	0x3d972e9c	0.07381937
226	0x3e920eef	0.28527018
227	0x3eefd047	0.4683859
228	0x3ef7f921	0.48432258
229	0x3b46a6e9	0.0030311889
230	0x3d44c408	0.048038512
231	0x3f038392	0.51372635
232	0x3f016aff	0.5055389
233	0xbd9e66fa	-0.07734485
234	0x3e0d9a98	0.13828504
235	0xbc2113c8	-0.009831376
236	0xbed18853	-0.4092432
237	0x3ecb2402	0.3967591
238	0x3e9a5fef	0.30151317
239	0xbde84ef9	-0.11343188
240	0xbb25f737	-0.0025324353
241	0x3ea4638a	0.32107192
242	0xbe2bd785	-0.16781433
243	0xbe3eedbf	-0.1864538
244	0xbee0413d	-0.43799773
245	0xbeb7a5ea	-0.3586877
246	0x3df83ad1	0.12120593
247	0x3eaa5a97	0.3327224
248	0x3e4a9bbe	0.19785973
249	0x3ed91eb9	0.42406252
250	0x3e4b1cba	0.19835177
251	0x3e50c5a5	0.20387895
252	0xbde5ad42	-0.11214687
253	0x3e3638b4	0.17795068
254	0x3d7c8594	0.061650828
255	0x3ebc20c3	0.36743745

g_model.conv1.bias f4 [32]
0	0x3d35feb6	0.044432364
1	0x3e95a5ff	0.29228207
2	0x3d9efbfa	0.077629045
3	0x3e06b660	0.13155508
4	0x3db272d4	0.08713308
5	0x3e2f4a77	0.1711825
6	0x3df1e493	0.11811175
7	0x3e9ae734	0.3025452
8	0x3e8b3bca	0.27194053
9	0xbddf488f	-0.10902511
10	0x3ddc0d1f	0.1074469
11	0x3ebd3973	0.36957893
12	0x3e08e622	0.13369039
13	0xb9782223	-0.0002366384
14	0xb96eb158	-0.00022763514
15	0x3c6ef8b0	0.014585659
16	0x3e264bb7	0.1623982
17	0x3eb83715	0.35979524
18	0xbbf1dee0	-0.007381305
19	0xbca2e713	-0.019885575
20	0xbde1199b	-0.10991212
21	0x3c0827a0	0.008310229
22	0xbdd354e8	-0.10318929
23	0x3d8a1a4f	0.06743299
24	0x3e17a21c	0.14807934
25	0xbda9aa19	-0.08284397
26	0xba9cbb65	-0.0011957703
27	0xbde0d28f	-0.10977661
28	0x37f205a6	2.8851278e-05
29	0xba09ad3f	-0.0005251951
30	0x3dfbeb20	0.12300706
31	0xb9db305e	-0.0004180697

g_model.conv2.weight f4 [32, 32, 3, 3]
0	0xbca9e5a7	-0.02073939
1	0x3cf89e31	0.030348869
2	0xbda0ab51	-0.07845176
3	0xbe085774	-0.1331461
4	0xbe4870c3	-0.19574265
5	0xbdf55483	-0.1197901
6	0x3dacf2df	0.084447615
7	0xbdc04d9f	-0.09389805
8	0xbd965822	-0.07341029
9	0xbe1fd679	-0.15609159
10	0xbe3d9779	-0.18514813
11	0xbdb46861	-0.08808971
12	0xbd9f496f	-0.07777678
13	0xbcc9bd3b	-0.024626365
14	0xbdea1933	-0.114305876
15	0xbcf6072a	-0.030032713
16	0xbd8623f0	-0.06549823
17	0xbe13e5d1	-0.14443137
18	0x3d39134f	0.04518443
19	0x3d933ff5	0.07189933
20	0xbc91714c	-0.01775422
21	0x3c291ce6	0.010321831
22	0xbcb28dcd	-0.021796132
23	0x3d882c11	0.0664903
24	0x3cfb568c	0.030680917
25	0xbceac0f4	-0.02865646
26	0x3d45539b	0.048175436
27	0x3cf04d22	0.029333655
28	0xbc644b19	-0.01393392
29	0xbd619235	-0.055071075
30	0xbc42ae0a	-0.011882314
31	0x3d8ba8b5	0.06819288
32	0xbd47eadc	-0.048807964
33	0x3cfbefe1	0.030754032
34	0x3d61d253	0.05513222
35	0x3d92adaf	0.07162034
36	0x3e293174	0.16522771
37	0x3e2ebbd6	0.17063841
38	0x3d5aed04	0.053448692
39	0xbbe6f7dc	-0.00704859
40	0x3d55c6ba	0.052191474
41	0x3d79c092	0.060974665
42	0xbe139af9	-0.14414586
43	0xbd3c7ad5	-0.04601558
44	0x3cb6cab9	0.022313463
45	0xbddbf749	-0.10740525
46	0x3d99d201	0.07510758
47	0xbca3e35e	-0.020005878
48	0xbe083067	-0.13299714
49	0xbd4f5a62	-0.050623305
50	0x3bbb9c4f	0.0057254205
51	0xbd922873	-0.07136621
52	0xbdc14223	-0.09436443
53	0xbdf291f4	-0.118442446
54	0x3d44f869	0.048088465
55	0xbdc07310	-0.093969464
56	0xbde87a51	-0.11351455
57	0x3d70101e	0.05860912
58	0xbd322a50	-0.043497384
59	0xbdd74ae2	-0.1051233
60	0xbcb1581d	-0.021648461
61	0xbce0c6d7	-0.027438564
62	0x3d3c135d	0.045916904
63	0xbd9f2988	-0.07771593
64	0x3d161e5e	0.036650054
65	0xbd2f1255	-0.042742092
66	0xbdb21643	-0.08695652
67	0xbdd3deb4	-0.103452116
68	0xbdc7e6cc	-0.09760818
69	0xbd4a678c	-0.049415156
70	0xbbdb6f41	-0.006696612
71	0xbe1b1fab	-0.15148799
72	0xbce88c71	-0.02838728
73	0x3cf4dc43	0.029890185
74	0xbda130a6	-0.07870607
75	0x3a2ac62b	0.00065145147
76	0xbd8128ef	-0.063066356
77	0x3ce449dc	0.02786725
78	0xbccfb0dd	-0.02535289
79	0x3c37c8e2	0.011217328
80	0xbd0ec3c0	-0.03485465
81	0x3dc8be03	0.09801867
82	0x3d8c59f7	0.06853097
83	0xbd071755	-0.032981236
84	0x3d1cff2e	0.038329296
85	0x3bff8eef	0.0077990214
86	0x3dafa4f9	0.08576388
87	0xbd80a30f	-0.06281101
88	0x3da5f403	0.08103182
89	0x3d9f0fdf	0.07766699
90	0xbe6ef07a	-0.23333922
91	0xbe2981eb	-0.16553466
92	0xbe72c02d	-0.23706122
93	0xbe8728ee	-0.26398414
94	0xbe82cb67	-0.2554581
95	0xbe534155	-0.20630391
96	0x3da1261a	0.078685954
97	0xbdcdba63	-0.10045316
98	0xbd0578bd	-0.032585848
99	0xbda6bbad	-0.08141265
100	0xbe1aa2d6	-0.1510118
101	0xbd4becdf	-0.049786445
102	0xbe190e91	-0.14946963
103	0xbe23e2a7	-0.1600443
104	0xbe10dc32	-0.14146498
105	0xbc5dc1da	-0.013534987
106	0xbced4777	-0.028964741
107	0xbdc82925	-0.09773473
108	0x3db1738f	0.08664619
109	0x3da6fbf9	0.08153529
110	0xbb138580	-0.0022509992
111	0xba4367cd	-0.0007454127
112	0x3d488436	0.04895421
113	0x3d0f6c1d	0.035015214
114	0x3c8413d0	0.016122729
115	0x3bf0018a	0.007324402
116	0x3d5b1075	0.05348249
117	0x3c153a0b	0.009108077
118	0xbcd89dfd	-0.026442522
119	0xbdd93bb9	-0.10607094
120	0x3c8aefb8	0.01696001
121	0x3d885587	0.06656938
122	0xbd335619	-0.04378328
123	0xbcb7ca6d	-0.022435391
124	0x3d157476	0.03648802
125	0x3c959bb5	0.018262723
126	0x3e003e5d	0.1252379
127	0x3daf175f	0.085493796
128	0x3c9629f5	0.018330554
129	0x3b69b7a1	0.003566243
130	0x3dd28790	0.10279763
131	0x3d804730	0.06263578
132	0xbd629109	-0.055314098
133	0x36de368e	6.6224666e-06
134	0x3d73c935	0.059518058
135	0xbd8e7ac1	-0.06957007
136	0xbe5d20b6	-0.2159451
137	0xbe17155d	-0.14754243
138	0x3d466f1b	0.048445802
139	0xbbe726ae	-0.0070541715
140	0xbc9990eb	-0.01874586
141	0xbb3e5500	-0.0029042363
142	0x3d6bfb1d	0.057612527
143	0xbd2caadd	-0.042155135
144	0x3d22eafa	0.039774872
145	0xbd91a541	-0.07111598
146	0xbd55bf32	-0.05218429
147	0x3d02e8fe	0.03196048
148	0x3c83a7cc	0.016071223
149	0xbd974dd4	-0.073878914
150	0xbdba2a7a	-0.09090133
151	0x3d2c553b	0.04207347
152	0x3c8eeb6c	0.017446242
153	0xbc1be2d6	-0.009514531
154	0x3df0ba95	0.11754338
155	0x3d578b49	0.052623067
156	0xbdcbae06	-0.09945302
157	0x3d3a2811	0.045448367
158	0x3db73d20	0.089472055
159	0xbe0a8f49	-0.13531221
160	0xbd3b2f0f	-0.045699175
161	0xbda704f2	-0.0815524
162	0x3e0d8568	0.13820422
163	0x3dcc7868	0.09983903
164	0x3cd48e25	0.025946686
165	0xbd664245	-0.056215543
166	0x3d4906a7	0.04907861
167	0x3d3370e6	0.04380884
168	0xbde4e514	-0.11176506
169	0xbdbf9f6c	-0.09356579
170	0x3d4cabe0	0.0499686
171	0x3cffe759	0.031238245
172	0xbc73b590	-0.014874831
173	0xbd068f3a	-0.032851435
174	0x3d695173	0.05696244
175	0x3c07e3ea	0.008294085
176	0xbc40356f	-0.01173149
177	0xbc940b2c	-0.018071733
178	0xbc1b2344	-0.009468857
179	0x3ae0cfc6	0.0017151765
180	0x3db4d555	0.08829752
181	0x39612625	0.00021471882
182	0xbafba3a5	-0.001919855
183	0xbd88f811	-0.0668794
184	0xbd19a739	-0.03751299
185	0x3d674fbd	0.05647253
186	0xbd1b00e6	-0.037842654
187	0xbd467b5a	-0.04845748
188	0x3d921d05	0.07134441
189	0x3e0e4218	0.138924
190	0x3d3a5057	0.045486774
191	0xbda215b9	-0.079142995
192	0xbdb9d651	-0.09074081
193	0xbb171cbb	-0.0023057896
194	0x3d7b8b84	0.06141235
195	0x3d2af93a	0.041741587
196	0x3bed6507	0.0072447094
197	0x3c3e461b	0.011613394
198	0x3d7e0078	0.062012166
199	0x3d693249	0.05693272
200	0x3c9366b2	0.017993305
201	0x3df20304	0.118169814
202	0x3e1c2f12	0.15252331
203	0xbdc8189c	-0.09770319
204	0xbc2a0169	-0.010376313
205	0x3dc589e0	0.09645438
206	0x3d9a7728	0.075422585
207	0x3b552586	0.0032523586
208	0x3c8388e6	0.01605649
209	0xbd0147a2	-0.031562455
210	0x3c7b7878	0.015348546
211	0x3d3b3a0a	0.045709647
212	0x3d1f42b7	0.038881984
213	0x3cd4970f	0.025950937
214	0xbad06939	-0.00159005
215	0x3c28a113	0.010292309
216	0xbd025d06	-0.031826995
217	0xbcbf36ce	-0.023341563
218	0xbd95f8b9	-0.07322831
219	0xbd3d996b	-0.04628889
220	0x3dac319d	0.084079005
221	0xbd07a0fc	-0.03311251
222	0xbcd3a819	-0.025836991
223	0xbd328450	-0.043583214
224	0x3a462253	0.00075582153
225	0x3d0c8bc2	0.03431297
226	0x3bd86f9c	0.0066051017
227	0xbcae1dad	-0.021254385
228	0xbcbeb3b6	-0.023279052
229	0xbd1512bd	-0.036394823
230	0xbd236b7e	-0.039897434
231	0x3c96ea74	0.018422343
232	0x3a2ef43e	0.0006673968
233	0xbc9e528c	-0.01932647
234	0x3e42d007	0.19024669
235	0x3de6ea18	0.112751186
236	0x3c2cdcc3	0.010550681
237	0xbd105f5f	-0.035247203
238	0x3d1903bc	0.037357077
239	0x3d24b155	0.04020818
240	0xbda084c2	-0.078378215
241	0x3d2a1f51	0.041533772
242	0x3dcac1da	0.099002555
243	0x3d9029c6	0.07039218
244	0x3d004a4c	0.031320855
245	0xbc4eca2f	-0.0126214465
246	0xbd2da068	-0.042389303
247	0xbd0b790a	-0.03405098
248	0xbca667ee	-0.02031323
249	0x3e04adca	0.1295692
250	0xbd137f2b	-0.03600995
251	0x3dadd31f	0.08487534
252	0x3c1c5fe8	0.00954435
253	0x3ca365f2	0.019946072
254	0xbc877172	-0.016533587
255	0x3c469f40	0.012122929

g_model.conv2.bias f4 [32]
0	0x3cb40465	0.021974752
1	0xbd312528	-0.043248326
2	0x3cb731a5	0.02236254
3	0xbd5eed5e	-0.05442559
4	0x3d2cea02	0.042215355
5	0x3d6a9588	0.05727151
6	0xbd0ed7dd	-0.034873832
7	0x3d013744	0.031546846
8	0xbd622f74	-0.055221036
9	0x3c386832	0.011255311
10	0xbd866fc4	-0.06564286
11	0x3cb4f25f	0.022088228
12	0x3d04cc0c	0.032421157
13	0x3cacc2a5	0.021088907
14	0x3d21e633	0.039526176
15	0xbd0ab525	-0.03386416
16	0x3cf9a166	0.030472469
17	0x3bb78a32	0.005601191
18	0x3c8e673e	0.017383214
19	0x3d5bb8dc	0.053643093
20	0xbd13b8e8	-0.036065012
21	0xbd6bb5da	-0.057546474
22	0xbbada3a2	-0.0052990476
23	0xbd86cb74	-0.06581774
24	0x3cec5a72	0.028851721
25	0xbd81296f	-0.06306731
26	0x3d70a848	0.058754236
27	0x3d3c6c8a	0.04600195
28	0xbd6ef940	-0.058343172
29	0xbd3caa5c	-0.046060905
30	0x3d450b45	0.04810645
31	0x3c078553	0.008271533

g_model.fc1.weight f4 [128, 800]
0	0x3c86227e	0.016373869
1	0xbc57b301	-0.013165236
2	0xbcac8544	-0.02105964
3	0xbd45b5e6	-0.048269175
4	0x3cc38484	0.0238669
5	0x3c452873	0.01203357
6	0xbaad1712	-0.0013205728
7	0xbcc58bc1	-0.024114491
8	0x3b8cace8	0.004293073
9	0x3ab01a7f	0.0013435631
10	0x3ce81a88	0.028332964
11	0x3c8af1c1	0.01696098
12	0x3b6248c9	0.0034528247
13	0x3b968dcc	0.00459454
14	0x3bf5e915	0.007504592
15	0x3cd980bb	0.026550641
16	0xbd0b397d	-0.033990372
17	0xbbbc9f0e	-0.0057562655
18	0x3b98d490	0.0046640113
19	0x3bf97134	0.007612372
20	0xbccc596b	-0.024944982
21	0xbcd22a6b	-0.025654992
22	0xbc9e3a38	-0.01931487
23	0xbcb23f8d	-0.021758819
24	0xbc2dd5e9	-0.010610082
25	0x3d0b7e1a	0.034055807
26	0xbccf1339	-0.02527772
27	0x3d15bbc8	0.036556035
28	0x3d361e6e	0.044462614
29	0xbcb1da8e	-0.02171066
30	0xbc8d1c8c	-0.017225526
31	0x3cc190f9	0.023628699
32	0xbd2bacf9	-0.041913006
33	0x3cf8d37f	0.030374287
34	0xbc62bb73	-0.013838637
35	0x3cab5292	0.020913396
36	0x3cb0943f	0.021555064
37	0xbc360f4b	-0.011112045
38	0xbcd8114d	-0.026375437
39	0x3be4832b	0.0069736443
40	0xbcf79f8b	-0.030227443
41	0xbbb5a091	-0.0055428226
42	0x3ca8d32e	0.02060851
43	0xbc550725	-0.013002192
44	0xbc9ea954	-0.019367851
45	0xbc563b4c	-0.013075661
46	0x3c98a981	0.018635513
47	0xbc1ac346	-0.009445971
48	0xbda1b653	-0.07896104
49	0xbd9e54ad	-0.077309944
50	0xbcaf2dea	-0.021384198
51	0xbd2f1c7e	-0.04275178
52	0x3bb37cfd	0.0054775462
53	0x3c77a369	0.015114644
54	0xbd29ecad	-0.041485477
55	0x3cea2d66	0.0285861
56	0xb9b744ba	-0.00034955685
57	0xbb2f2a2b	-0.0026728015
58	0xbbe48f56	-0.006975095
59	0x3ca5d66a	0.020243842
60	0x3caf198d	0.021374488
61	0x3bbe69d3	0.005810955
62	0x3c349836	0.011022618
63	0xbbdfb310	-0.006826766
64	0x3c7ed0de	0.0155527275
65	0x3c8a4077	0.016876442
66	0xbcfbf55b	-0.030756643
67	0x39ec07dc	0.00045019283
68	0x3c87443f	0.016512034
69	0x3d3890fe	0.04506015
70	0xbcb5aaac	-0.02217611
71	0xbd30bc8d	-0.043148566
72	0xbc9e47f3	-0.019321417
73	0x3cc4f906	0.024044525
74	0x3ce1b949	0.027554171
75	0x3d05fbc4	0.032710806
76	0xbca3f3db	-0.02001374
77	0xbc588eb5	-0.013217618
78	0xbd5d555e	-0.05403649
79	0xbd5d9c20	-0.05410397
80	0x3d12e648	0.035864145
81	0x3d6cf714	0.05785282
82	0xbc828baf	-0.015935747
83	0x39589948	0.00020656467
84	0x3d23b7f4	0.039970353
85	0x3ce674a0	0.028131783
86	0x3d169371	0.036761705
87	0x3c34547e	0.011006473
88	0xbc154562	-0.00911078
89	0x3d38f577	0.04515597
90	0xbd0324e0	-0.03201759
91	0xbcfc66d5	-0.030810753
92	0xbd3f9496	-0.046772562
93	0xbd5d881a	-0.054084875
94	0xbbeffceb	-0.0073238513
95	0xbcce9324	-0.025216646
96	0xbce1aae0	-0.0275473
97	0xbdac313b	-0.084078275
98	0xbc99aaf8	-0.018758282
99	0x3c822804	0.015888222
100	0xbd172788	-0.036902934
101	0xbcb23ce1	-0.021757545
102	0xbd556221	-0.052095536
103	0xbd483fb8	-0.048888892
104	0x3c1f4e27	0.009723223
105	0x3bac9eb1	0.005267941
106	0x3b3f0097	0.0029144639
107	0x3ca6420b	0.020295164
108	0xbcb1de48	-0.021712437
109	0x3c83ac10	0.016073257
110	0x3ceaced1	0.02866307
111	0x3c97edf2	0.018546078
112	0xbd480ba8	-0.04883924
113	0x3ba51f5b	0.0050391383
114	0x3d31464d	0.043279935
115	0xbce964a2	-0.028490368
116	0x3c9ceafc	0.019155018
117	0xbd9a68a9	-0.075394936
118	0x3c91343b	0.0177251
119	0x3d25b6f9	0.0404577
120	0xbc04df62	-0.008109899
121	0x3ccdfc8a	0.025144834
122	0x3c67cdd3	0.014148193
123	0x3c0fd8f0	0.008779749
124	0x3c93fd28	0.01806505
125	0xbd269d50	-0.04067737
126	0xbc62a915	-0.013834258
127	0xbd4c4c19	-0.04987726
128	0xbd236dcf	-0.039899644
129	0xbc634964	-0.013872478
130	0x3d2dd564	0.042439833
131	0x3d3db6d5	0.04631694
132	0xbc137d29	-0.0090020085
133	0xbcb3f8e9	-0.021969276
134	0xba6595fa	-0.0008758005
135	0x3d46c215	0.048524935
136	0x3cb11f97	0.021621509
137	0x3a7702ed	0.0009422738
138	0x3c2e1178	0.010624282
139	0x3d2d651d	0.042332757
140	0x3c8b6d2a	0.017019827
141	0xbd061885	-0.032738227
142	0xbd80595a	-0.062670425
143	0xbc91358c	-0.017725728
144	0xbc2fb406	-0.010724073
145	0xbc9f96cc	-0.019481085
146	0xbcf28e9e	-0.02960902
147	0x3db218b6	0.086961195
148	0x3c37d60a	0.0112204645
149	0x3cc06c2c	0.02348908
150	0x3aed5a60	0.0018108599
151	0xbcc44cba	-0.023962367
152	0x3c038294	0.008026738
153	0xbc9251f5	-0.017861346
154	0x3b3eb8a0	0.0029101744
155	0xbcde1936	-0.02711163
156	0xbc9edfdd	-0.019393856
157	0x3c02f6e4	0.007993434
158	0xbc9a6ab1	-0.018849703
159	0xbc55d10c	-0.013050329
160	0xbcd634e8	-0.026148275
161	0x3babe1a8	0.005245406
162	0xbc695510	-0.014241472
163	0xbd0c4077	-0.034241166
164	0xbbe23750	-0.0069035664
165	0x3b599370	0.0033199452
166	0x3c85259e	0.016253289
167	0x3c5d6a4c	0.013514113
168	0xbc96a74b	-0.018390318
169	0x3cc1c70c	0.023654483
170	0x3b08b5c0	0.0020860285
171	0xbd08fdd4	-0.033445194
172	0xbcb5e79e	-0.02220517
173	0xbcdb479a	-0.02676754
174	0x3d106477	0.03525206
175	0x3d317bf5	0.043331105
176	0x3ad300d8	0.0016098274
177	0xbbbfc733	-0.005852604
178	0xbc436f92	-0.011928456
179	0x3d3c2c70	0.045940816
180	0xbc9c4be5	-0.019079158
181	0x3d207634	0.039175227
182	0xbcf9cff8	-0.030494675
183	0x3cd58c18	0.026067778
184	0x3b99e4f0	0.004696481
185	0x3c949dbe	0.018141624
186	0xbd104383	-0.035220634
187	0xbd1d4ae2	-0.038401492
188	0xbccb555b	-0.024820974
189	0x3c88ad82	0.016684297
190	0xbca3f176	-0.020012598
191	0xbc73649b	-0.014855529
192	0x3cd9ba77	0.026578171
193	0xbb7a69ef	-0.0038210114
194	0xbadfc258	-0.0017071469
195	0xbc85f9a7	-0.016354395
196	0x3cf62bb7	0.030050142
197	0x3be1e7c0	0.006894082
198	0xbca61aae	-0.020276394
199	0xbd55d6d7	-0.05220684
200	0xbcfb787c	-0.0306971
201	0x3cdfabf9	0.027303683
202	0xbd4c04a4	-0.049809113
203	0xbd5487d8	-0.051887363
204	0xbd7b0672	-0.061285444
205	0xbc9152cb	-0.017739674
206	0x3d6c78d6	0.057732426
207	0x3cbcf1df	0.023064552
208	0x3c796e1b	0.015224005
209	0x3c907d0f	0.017637758
210	0xbcc5e8ad	-0.0241588
211	0x3a2b898c	0.00065436284
212	0xbd2b3b92	-0.041804858
213	0x3cae7a6a	0.021298606
214	0xbb143e87	-0.0022620277
215	0xbd1b60de	-0.037934177
216	0x3d0aecb8	0.03391716
217	0xbc823dd4	-0.015898623
218	0xbc278cca	-0.010226438
219	0x3d10b248	0.035326272
220	0x3c80024b	0.015626093
221	0x3ca46185	0.020066032
222	0x3c13d15a	0.009022081
223	0xbcfd05e0	-0.03088659
224	0x3c5139d7	0.012770138
225	0x3cf534f6	0.02993248
226	0x3cd00c88	0.0253966
227	0xbb522f26	-0.003207156
228	0xbc91c73c	-0.017795198
229	0x3cc0f6a5	0.02355511
230	0x3c3f369c	0.011670735
231	0x3d6e7cac	0.058224365
232	0x3d1d8971	0.038461152
233	0xbc11f4d5	-0.00890847
234	0x3d386972	0.045022435
235	0x3c7e0f77	0.015506617
236	0x39f5b0be	0.00046861725
237	0x3cb8224c	0.022477292
238	0x3b057ef0	0.002036985
239	0x3ca650a2	0.02030212
240	0xbc8c8c5e	-0.017156776
241	0xbcbcb46f	-0.023035256
242	0xbc2c7f61	-0.010528416
243	0xbd622bc0	-0.055217505
244	0xbc3b7d0a	-0.011443386
245	0xbcc8c8bd	-0.024509782
246	0x3c906924	0.01762826
247	0xbd719985	-0.0589843
248	0xbd57f49b	-0.05272351
249	0x3d410ab7	0.04712936
250	0xbd027b36	-0.031855784
251	0xbc90d3d7	-0.017679138
252	0x3d128b22	0.03577722
253	0x3d7118d2	0.05886156
254	0x3d8994cb	0.06717833
255	0xbc2386c8	-0.009980865

g_model.fc1.bias f4 [128]
0	0x3ca6d21e	0.020363864
1	0x3cb72ae0	0.022359312
2	0x3cc18992	0.023625169
3	0x3d2d5c38	0.042324275
4	0xbc73e3bd	-0.01488584
5	0xbcde2ebf	-0.0271219
6	0xbc82a225	-0.015946457
7	0xbb257a20	-0.0025249794
8	0x3c922d5e	0.017843898
9	0xbcf6ef4b	-0.0301434
10	0xbc3a52ae	-0.011372251
11	0x3bfff4b9	0.0078111556
12	0xbc0f1e6e	-0.008735282
13	0x3cf29521	0.029612126
14	0x3b5fb402	0.0034134393
15	0xbcdeea0f	-0.027211217
16	0xba9b96ee	-0.0011870542
17	0x3bd626f7	0.0065354067
18	0x3c71ec62	0.014765831
19	0xbc99fa78	-0.01879619
20	0xbca54b65	-0.020177552
21	0xbc1470c0	-0.009060085
22	0xbc9a6107	-0.018845094
23	0x3cf5f2b3	0.030022955
24	0xbb84a6c4	-0.0040482003
25	0x3c14b6f3	0.009076822
26	0xbc85d652	-0.016337547
27	0xbc8e6519	-0.017382191
28	0x3d4a6f0b	0.049422305
29	0x3cc961a3	0.02458269
30	0xbb8e9598	-0.004351329
31	0xb7e29ca8	-2.7014248e-05
32	0x3c9ea279	0.019364582
33	0x3d2141b5	0.039369304
34	0x3bec1e2f	0.0072057466
35	0xbd35ba1b	-0.044366937
36	0xbd142add	-0.03617369
37	0xbcde689c	-0.027149491
38	0xb9b7918e	-0.00035012927
39	0x3c01f4a1	0.007931859
40	0x3cf343cf	0.02969542
41	0xbc33ba18	-0.010969661
42	0xbc7b4e80	-0.01533854
43	0xbce7e661	-0.028308095
44	0xbc701923	-0.014654431
45	0x3ce4f137	0.027947051
46	0x3d056f5c	0.032576904
47	0xbc948ff5	-0.01813505
48	0xbd1563a3	-0.036471974
49	0x3c25ec0e	0.010127081
50	0xbcda6282	-0.0266583
51	0xbc90cf72	-0.017677043
52	0x3cb4684f	0.022022394
53	0x3967ae24	0.00022094749
54	0xbb8be4e6	-0.00426923
55	0x3d0f683d	0.03501152
56	0x3cba3dd2	0.022734556
57	0x3cde3f73	0.027129864
58	0x3d1080e3	0.035279166
59	0xbc99904d	-0.018745566
60	0x3c292d74	0.010325778
61	0x3c3cd4f2	0.0115253795
62	0xbc3c71f1	-0.011501775
63	0x3c8b58c6	0.017010104
64	0xbc7491ee	-0.0149273705
65	0xbc1e1ed0	-0.009650901
66	0xbcb3ccb0	-0.021948189
67	0xbc3476fc	-0.011014696
68	0x3b90c40f	0.0044179033
69	0x3d37a765	0.044837374
70	0xbd20a7a2	-0.039222367
71	0x3c0d7c44	0.008635584
72	0xbcf94eee	-0.030433144
73	0xbc8816fa	-0.016612519
74	0xbd005fe1	-0.031341437
75	0xbc5692be	-0.0130965095
76	0x3c8e0fa1	0.017341437
77	0x3d00523e	0.031328432
78	0xbd1a6c9c	-0.037701234
79	0x3cd511cc	0.026009463
80	0x3ccae6d4	0.02476827
81	0x3ccb1881	0.024791958
82	0xbbc63723	-0.0060490533
83	0xbc31391c	-0.010816839
84	0xbd1453d8	-0.036212772
85	0x3ca677b7	0.020320756
86	0x3d0ee825	0.03488936
87	0xbbfcc2c1	-0.007713646
88	0xbd0cafcc	-0.03434734
89	0x3c6ae79f	0.014337449
90	0xbbc804af	-0.006104074
91	0x3c53aec7	0.012920088
92	0x3d0a09c8	0.033700734
93	0x3ce589db	0.028019836
94	0xbccbdb94	-0.024884976
95	0xbd7497a6	-0.059714936
96	0x3b56e4ae	0.0032790112
97	0x3d172f09	0.03691009
98	0x3c3d3aaa	0.011549631
99	0xbbc2b2b2	-0.0059417123
100	0x3cc31a45	0.023816237
101	0x3d025fd0	0.031829655
102	0x3a0e3e84	0.00054261857
103	0x3c0cf568	0.008603431
104	0xbd3e2380	-0.046420574
105	0xbcbc5911	-0.022991689
106	0x3d5a7c60	0.05334127
107	0xbcba64d0	-0.02275315
108	0x3b5808de	0.003296427
109	0xbb6135b7	-0.0034364292
110	0xbca2e86a	-0.019886214
111	0xbc35b47a	-0.011090392
112	0xbc541814	-0.012945194
113	0xbb91e6ac	-0.004452547
114	0xbcfe0e74	-0.031012751
115	0xbaf983cc	-0.0019036471
116	0xbcdff722	-0.027339522
117	0xbd171fd8	-0.036895603
118	0x3c217d93	0.009856599
119	0x3c877c27	0.016538693
120	0xbd1ad47e	-0.037800305
121	0x3b7a523e	0.0038195993
122	0x3bbd3005	0.0057735466
123	0xbcdebf51	-0.027190836
124	0xbb54bca5	-0.0032461074
125	0x3c5d4e3c	0.013507422
126	0x3cd64c3a	0.026159395
127	0xbc4468e0	-0.011987895

g_model.fc2.weight f4 [26, 128]
0	0xbe364fec	-0.17803925
1	0x3dd592d1	0.10428394
2	0xbd699769	-0.05702916
3	0x3e09d0c3	0.13458543
4	0x3dfb76c9	0.12278516
5	0xbd0f3c0a	-0.034969367
6	0xbd5257df	-0.05135333
7	0x3da202ee	0.07910715
8	0xbdcb645c	-0.099312514
9	0xbe702735	-0.23452456
10	0x3cdf6df6	0.027274113
11	0xbcb1870b	-0.021670839
12	0xbc686fd5	-0.014186819
13	0x3d093147	0.03349426
14	0xbe01c9df	-0.12674664
15	0x3c9a37f1	0.018825503
16	0xbdb53266	-0.08847503
17	0x3ded02ce	0.115728006
18	0x3d1cca1c	0.038278684
19	0xbc374097	-0.011184833
20	0x3d4e6595	0.050389845
21	0xbe0735a8	-0.13204062
22	0x3d32e6d7	0.043677177
23	0x3d3176ad	0.04332607
24	0xbd8a009e	-0.06738399
25	0x3d8a815e	0.06762956
26	0xbc183718	-0.009290479
27	0xbe4a5a1a	-0.19760934
28	0x3dd6e60c	0.10493097
29	0xbe0e38e8	-0.13888896
30	0xbaea79b4	-0.0017889054
31	0x3cfa0f4b	0.03052487
32	0xbd89dda5	-0.067317285
33	0x3dcf68b3	0.10127392
34	0xbd297b5b	-0.041377407
35	0xbdffbc54	-0.124870926
36	0xbdab12b0	-0.08353174
37	0x3d477491	0.04869515
38	0xbcabd0e4	-0.02097363
39	0x3d5d6a6d	0.054056574
40	0xbd0cf381	-0.03441191
41	0x3d887bb5	0.0666422
42	0xbcc63cbb	-0.02419888
43	0xbe1f2087	-0.15539752
44	0xbcb34a89	-0.021886127
45	0x3d95095c	0.07277176
46	0x39b29405	0.0003406109
47	0x3d107f3b	0.035277586
48	0xbd9994f8	-0.07499117
49	0x3d3cac17	0.046062555
50	0xbd70bf77	-0.058776345
51	0x3d8f205a	0.069885924
52	0x3def4128	0.116823494
53	0x3d1c64df	0.038182136
54	0xbe2a14af	-0.16609453
55	0xbd74d9a0	-0.059777856
56	0xba264515	-0.00063426915
57	0xbdf298c7	-0.11845546
58	0x3d07e545	0.033177633
59	0x3cb10e36	0.021613222
60	0xbd04f256	-0.032457672
61	0x3dd5c77b	0.104384385
62	0x3d41dfd1	0.04733259
63	0x3dc7814d	0.09741459
64	0x3dda6104	0.106630355
65	0xbde5ff2a	-0.11230309
66	0x3de26978	0.11055273
67	0xbe271874	-0.16317922
68	0xbdfe681f	-0.12422203
69	0x3c319fb0	0.010841295
70	0xbe035963	-0.12827067
71	0x3d1a1720	0.03761971
72	0xbc6d8795	-0.014497657
73	0xbdd804af	-0.10547768
74	0xbc47cbf5	-0.012194623
75	0x3c05df0c	0.008170854
76	0xbdb5e689	-0.08881862
77	0x3ccdcdcb	0.025122544
78	0xbd4eba77	-0.050470795
79	0x3d147791	0.03624684
80	0x3ce5cf64	0.028052993
81	0xbc757577	-0.014981619
82	0x3d2cfef0	0.042235315
83	0xbcd2b0ab	-0.025719007
84	0xbd1d31d5	-0.0383776
85	0x3d61bfb0	0.055114448
86	0xbccd6660	-0.02507323
87	0x3ceac2f0	0.028657407
88	0x3da29885	0.07939247
89	0xbdedcd2e	-0.116114005
90	0xbd85b301	-0.06528283
91	0x3dbd402e	0.09240757
92	0xbdad393e	-0.08458184
93	0xbd7c1eec	-0.061552927
94	0x3d8da239	0.06915707
95	0xbe9b0bd5	-0.30282465
96	0x3db11106	0.08645825
97	0x3dd5b531	0.1043495
98	0xbd66b3de	-0.05632388
99	0x3cb8d1ec	0.022561036
100	0xbe448683	-0.19191937
101	0xbdfe3e8e	-0.12414275
102	0xbd8a67dc	-0.06758091
103	0xbdeb7239	-0.114963956
104	0x3c94f670	0.018183917
105	0xbc4587e1	-0.012056322
106	0x3d80fb17	0.062978916
107	0x3dae4f2c	0.085111946
108	0xbd8becd8	-0.06832284
109	0x3cb543ad	0.022126997
110	0xbaaeb97a	-0.0013330423
111	0xbd4ad888	-0.049522907
112	0xbc61d330	-0.013783261
113	0xbdf6f3b7	-0.12058204
114	0x3ccdb6a0	0.025111496
115	0xbd844229	-0.064579315
116	0xbd9c9c95	-0.07647053
117	0xbdae5e38	-0.085140646
118	0x3d42beba	0.047545172
119	0xbcb14bc9	-0.021642582
120	0x3d82ad7a	0.06380744
121	0x3d0a6760	0.033789992
122	0xbda7331f	-0.081640474
123	0x3ddd3fe8	0.10803205
124	0xbd666602	-0.056249626
125	0xbd6da578	-0.05801913
126	0xbb43d0b3	-0.0029879033
127	0x3c896f1b	0.016776612
128	0xbd5ea536	-0.054356776
129	0x3d772aa4	0.0603434
130	0x3d322cac	0.043499634
131	0x3d6fc594	0.058538035
132	0x3de761bf	0.112979405
133	0x3d1dd1aa	0.03853003
134	0x3dbe77ec	0.09300217
135	0xbdec3ed6	-0.115354225
136	0xbc5265f2	-0.0128416885
137	0xbdaabe3b	-0.08337065
138	0x3dc73667	0.09727173
139	0x3e04d6bd	0.12972541
140	0xbdcf72ba	-0.10129304
141	0xbdabc366	-0.08386879
142	0x3dccc1af	0.0999788
143	0xbd84108a	-0.06448467
144	0xbe051280	-0.12995338
145	0xbc994c99	-0.018713282
146	0xbe036022	-0.1282964
147	0xbd31142f	-0.04323214
148	0xbc2617b3	-0.010137486
149	0x3d9a3239	0.075291105
150	0x3da748cd	0.081681825
151	0x3ce01ceb	0.02735754
152	0xbb9dbb3d	-0.0048135803
153	0x3dead123	0.11465671
154	0x3de1cf0f	0.110258214
155	0x3e6fe2b5	0.23426326
156	0xbe0a9df1	-0.13536812
157	0xbc4e7d27	-0.012603081
158	0xbcd4e4c6	-0.025987994
159	0xbdc33aad	-0.09532676
160	0x3d866735	0.06562654
161	0xbcc3beb1	-0.02389464
162	0x3d222e92	0.039595194
163	0x3d8b6f70	0.068083644
164	0xbd8cb8e1	-0.068712
165	0xbd8df856	-0.06932132
166	0xbde339e3	-0.110950254
167	0x3d7e6979	0.062112305
168	0x3d08b014	0.033371046
169	0xbd94a8ba	-0.072587445
170	0x3cd764a8	0.026293114
171	0x3de7d76d	0.11320386
172	0x3d0ec026	0.034851216
173	0xbdc53727	-0.0962966
174	0xbd87e470	-0.06635368
175	0x3dbe33de	0.09287237
176	0xbdae59c7	-0.085132174
177	0xbdbccea8	-0.09219104
178	0x3cdf774a	0.027278561
179	0x3d9fbffb	0.07800289
180	0xbc9284d4	-0.017885603
181	0x3d90eff2	0.07077016
182	0x3d9cdd9a	0.07659455
183	0x3d03da59	0.032190654
184	0xbdf6a595	-0.12043301
185	0x3e1f7771	0.15572907
186	0xbd843e3f	-0.06457185
187	0x3d19750d	0.037465144
188	0x3da614a5	0.081094064
189	0xbd10b15f	-0.035325404
190	0xbde0a92c	-0.10969767
191	0xbe04816a	-0.12939993
192	0x3db70b13	0.08937659
193	0xbd9aa161	-0.07550312
194	0x3cd2549c	0.02567511
195	0x3d2c5424	0.04207243
196	0x3d8fd551	0.07023109
197	0xbde34ef4	-0.110990435
198	0x3d9002df	0.070317976
199	0x3daad174	0.08340731
200	0xbdc95156	-0.09829967
201	0x3d9f0da9	0.07766277
202	0xbdaab85f	-0.08335947
203	0xbc8b6d49	-0.017019885
204	0xbcec9d1f	-0.028883515
205	0xbde42748	-0.11140305
206	0x3dd325b5	0.103099264
207	0xbe29c3ce	-0.165786
208	0xbc9d8c28	-0.01923187
209	0xbc2d59b6	-0.010580471
210	0x3c884482	0.01663423
211	0xbc45d244	-0.012074057
212	0x3dc5f1b8	0.09665245
213	0x3d5e5fad	0.054290462
214	0x3d521c47	0.0512965
215	0xbd9d8e4c	-0.076931566
216	0xbccb7b48	-0.024839059
217	0xbd7506c9	-0.059820924
218	0x3d7b84f3	0.061406087
219	0xbdf4782a	-0.11936982
220	0x3e034deb	0.12822692
221	0xbda1b783	-0.0789633
222	0x3da90313	0.082525395
223	0xbcfea2ca	-0.031083483
224	0x3d5f4eb2	0.05451841
225	0xbdd416d7	-0.10355919
226	0xbcd66e56	-0.02617566
227	0xbd78b358	-0.06071791
228	0xbd2ad218	-0.041704267
229	0xbc9a4f9c	-0.018836789
230	0xbd9d7b09	-0.07689483
231	0x3e003033	0.12518387
232	0xbd5ea2f0	-0.054354608
233	0x3d04421d	0.032289613
234	0xbdc4c50f	-0.096078984
235	0xbd815c75	-0.06316463
236	0x3d2eced8	0.04267773
237	0xbd3cdc19	-0.04610834
238	0x3c997724	0.018733568
239	0x3c9e1eea	0.01930185
240	0xbddc2684	-0.10749534
241	0x3e15116f	0.14557432
242	0x3e00ad1e	0.12566039
243	0x3c2cf8c7	0.01055736
244	0xbcb38ec6	-0.021918666
245	0x3d817922	0.063219324
246	0xbdac8a34	-0.08424798
247	0xbe195fa9	-0.14977898
248	0xbd5d37f3	-0.054008435
249	0x39051905	0.00012693189
250	0x3e10ccf0	0.14140677
251	0x3db43810	0.087997556
252	0xbd99cf82	-0.07510282
253	0xbc439275	-0.011936774
254	0xbb5430f8	-0.003237782
255	0x3d84b45a	0.06479712

g_model.fc2.bias f4 [26]
0	0x3d114b12	0.035471983
1	0x3d7cfd85	0.061765213
2	0x3d908a90	0.07057679
3	0x3d25a0da	0.040436603
4	0xbcad66c3	-0.021167165
5	0x3c2909a8	0.010317244
6	0x3d5b561e	0.053548925
7	0x3cd20226	0.02563579
8	0xbda83bd6	-0.08214538
9	0xbd757e00	-0.059934616
10	0x3d3b3205	0.045702
11	0x3bc1c3bf	0.0059132273
12	0x3d5b40ef	0.053528722
13	0x3c52f1e6	0.012875056
14	0xbd24b0ce	-0.040207677
15	0x3db88ee3	0.090116285
16	0xbcfe1708	-0.031016842
17	0xbc46a2e2	-0.012123795
18	0xbd5fc2fe	-0.05462932
19	0xbd6d373a	-0.057913996
20	0x3d6e8d18	0.058240026
21	0xbda4182b	-0.08012422
22	0xbd1df932	-0.03856773
23	0xbc67d7b5	-0.01415055
24	0xbd1671ce	-0.036729626
25	0x3a8310e1	0.0009999537

f_model.fc1.weight f4 [32, 26]
0	0xbdddfd5c	-0.1083934
1	0x3ded8684	0.115979224
2	0x3e0754f6	0.13216004
3	0x3e2f4db8	0.17119491
4	0x3e7f2cd6	0.24919447
5	0xbd72e16e	-0.059297018
6	0x3e472828	0.19448912
7	0x3d9f77eb	0.077865444
8	0x3cb28b81	0.021795036
9	0xbd7539cb	-0.05986957
10	0xbdd339d6	-0.10313766
11	0xbe98b0fc	-0.29822528
12	0xbd88a3ed	-0.06671891
13	0x3d5416bc	0.051779494
14	0x3e085940	0.13315296
15	0xbde60e60	-0.112332106
16	0x3e8c7d51	0.2743936
17	0xbe6f9075	-0.2339495
18	0xbeb1db15	-0.3473746
19	0xbd1e2030	-0.038604915
20	0xbdf3fc4d	-0.11913357
21	0xbd1ed964	-0.03878154
22	0x3dd99774	0.106245905
23	0xbdd52b7b	-0.10408684
24	0xbe7c0807	-0.24612437
25	0x3d6a25e5	0.057165045
26	0xbe6e86e4	-0.23293644
27	0x3d004563	0.031316172
28	0x3db04da6	0.0860856
29	0xbdc786a6	-0.09742479
30	0xbdcd9f6b	-0.10040172
31	0xbd6ec6ce	-0.058295064
32	0xba96def9	-0.0011510543
33	0xbd9c03ae	-0.07617889
34	0x3cd1df82	0.025619272
35	0xbe211c05	-0.15733345
36	0x3d82089f	0.063493006
37	0xbe08f87a	-0.13376036
38	0x3e5578c9	0.20846857
39	0x3da2d2aa	0.07950337
40	0x3e567290	0.2094214
41	0xbe47a57a	-0.19496718
42	0x3dc29b52	0.09502281
43	0x3d4d452f	0.050114807
44	0xbe380b97	-0.17973171
45	0xbe2dd096	-0.169741
46	0x3e3fc51f	0.1872754
47	0xbe2dc5c7	-0.16969977
48	0x3dcf13e0	0.10111213
49	0xbde28a54	-0.1106154
50	0xbe4e4903	-0.2014504
51	0x3e5f1cc0	0.21788311
52	0xbd91888d	-0.07106123
53	0x3d296649	0.041357312
54	0x3d219c87	0.039455917
55	0x3e666775	0.22500403
56	0x3e0e6010	0.13903832
57	0x3ca2e82c	0.019886099
58	0xbdbbe534	-0.091745764
59	0xbd5ff1ad	-0.05467384
60	0xbe440a08	-0.19144452
61	0xbc932887	-0.01796366
62	0x3d956168	0.072939694
63	0xbdae47b1	-0.08509768
64	0x3d8a4bf2	0.06752767
65	0xbe18d330	-0.14924312
66	0xbd87bcf6	-0.06627838
67	0xbe4b8355	-0.19874318
68	0xbd9cfae1	-0.07665039
69	0x3dcd6078	0.100281656
70	0xbe193737	-0.14962469
71	0xbe8a9da6	-0.270734
72	0x3d00d009	0.031448398
73	0xbd772ce7	-0.060345557
74	0x3ded56ed	0.115888454
75	0xbd696fb4	-0.056991294
76	0xbc967389	-0.018365638
77	0x3d852b26	0.065023705
78	0xbe59d4ab	-0.21272533
79	0xbe408fdd	-0.1880488
80	0x3e6c7dbb	0.23094837
81	0x3d28e99b	0.04123841
82	0xbe3997a1	-0.18124248
83	0x3cf5eef5	0.03002117
84	0xbdea40ed	-0.11438165
85	0xbcbb4d6b	-0.022864064
86	0x3d690560	0.05688989
87	0x3e01b364	0.12666088
88	0xbe015952	-0.12631729
89	0xbe2873f2	-0.1645048
90	0x3dba3a8d	0.09093199
91	0x3e01791d	0.12643857
92	0x3dc989b1	0.09840716
93	0xbe1123f4	-0.14173871
94	0x3e83c709	0.2573779
95	0xbd5e5944	-0.05428435
96	0x3dd1774e	0.10227834
97	0xbe417fbb	-0.18896382
98	0x3e43e1ed	0.19129153
99	0xbe54a6f9	-0.2076682
100	0xbe020669	-0.12697758
101	0x3ceb2fb1	0.028709264
102	0xbdb0b22e	-0.08627735
103	0x3d703e1e	0.05865299
104	0x3e25800f	0.16162132
105	0x3c7d89b1	0.015474723
106	0xbdea9688	-0.11454493
107	0x3e30fdc4	0.17284304
108	0xbe04a80a	-0.12954727
109	0x3e8c50fa	0.2740553
110	0xbdd13c9f	-0.10216641
111	0xbd67d08d	-0.056595374
112	0x3c968318	0.018373057
113	0xbe766cab	-0.24064891
114	0xbe487473	-0.19575672
115	0xbe2d9058	-0.16949594
116	0x3d8e4713	0.0694715
117	0xbe82de88	-0.25560403
118	0x3bd68f91	0.006547876
119	0xbea23965	-0.31684414
120	0x3e26ab5b	0.16276304
121	0x3cad38a3	0.02114517
122	0xbd277f57	-0.040892925
123	0xbe81977d	-0.2531089
124	0x3ca7f253	0.020501291
125	0x3cca70ab	0.024711927
126	0x3d801d56	0.062555954
127	0x3e4215e6	0.18953666
128	0xbcbd4c75	-0.023107747
129	0xbe23105d	-0.15924211
130	0xbe37610b	-0.17908113
131	0x3d9a6f27	0.07540732
132	0x3d3a1c35	0.045437057
133	0x3df9076f	0.12159621
134	0x3c807ac0	0.015683532
135	0xbd0a0b9a	-0.03370247
136	0x3ea6525f	0.3248472
137	0x3bd76e3f	0.0065744217
138	0xbe71ace2	-0.23601106
139	0xbd606344	-0.054782167
140	0x3db664ff	0.08905982
141	0xbd597afe	-0.05309581
142	0x3cb8c0ee	0.022552934
143	0x3d0460a0	0.03231871
144	0x3d18e6b8	0.037329406
145	0xbd0b085b	-0.033943515
146	0xbe62db1a	-0.22153893
147	0x3da010d6	0.07815711
148	0xbd87464b	-0.06605204
149	0x3de375f6	0.11106484
150	0x3e21e3a1	0.1580949
151	0xbe746594	-0.23866874
152	0x3e9d1d9b	0.3068665
153	0x3d80d009	0.062896796
154	0x3d5c0961	0.053719882
155	0xbe7936b6	-0.24337277
156	0x3dd6bba5	0.10485009
157	0xbb0238f5	-0.0019870375
158	0xbdb1efcb	-0.08688315
159	0x3d81cfc6	0.06338458
160	0xbe79d6fa	-0.24398413
161	0x3e3dd990	0.18540025
162	0xbe438d13	-0.19096784
163	0xbe287c9a	-0.16453782
164	0x3d66593d	0.056237448
165	0x3d3767aa	0.044776596
166	0xbc9a69d9	-0.0188493
167	0x3e15f7be	0.14645287
168	0xbd0b9a27	-0.034082558
169	0x3b7aedee	0.003828879
170	0x3da600b4	0.08105603
171	0xbe871209	-0.26380947
172	0x3e2cc6c5	0.168727
173	0xbe932633	-0.2874008
174	0xbdb47383	-0.088110946
175	0x3df16c6b	0.11788257
176	0xbdc1b027	-0.094574265
177	0x3ebcb48a	0.3685649
178	0xbd75c6d9	-0.06000409
179	0xbe216185	-0.15759857
180	0xbe37db19	-0.17954673
181	0xbcf0deeb	-0.02940317
182	0x3c3f316b	0.011669497
183	0x3dbc5273	0.091954134
184	0xbd8e0953	-0.06935372
185	0xbe2f17b0	-0.1709888
186	0xbcc8c707	-0.024508966
187	0xbcc0765f	-0.023493944
188	0x3e0cd351	0.13752486
189	0x3d600908	0.054696113
190	0xbe531b15	-0.206158
191	0x3db5e720	0.08881974
192	0x3e207c80	0.15672493
193	0xbe3dcff4	-0.18536359
194	0xbd431974	-0.047631696
195	0xbcf1d6fd	-0.02952146
196	0x3e57caae	0.2107341
197	0xbde40260	-0.111332655
198	0xbd3e2a59	-0.046427105
199	0xbe594ce6	-0.2122074
200	0xbd6ecb62	-0.05829943
201	0x3bc164df	0.0059019173
202	0xbd5463fe	-0.051853172
203	0x3e0e79ab	0.139136
204	0x3dcc1b03	0.099660896
205	0xbe51f715	-0.2050441
206	0x3d0ac468	0.033878714
207	0x3e11521a	0.14191476
208	0xbe65db4c	-0.22446936
209	0xbc85b1bc	-0.016320102
210	0x3dc62b4f	0.09676229
211	0xbc11fe80	-0.008910775
212	0x3ca7c693	0.02048043
213	0xbe2992d4	-0.16559917
214	0xbe62ec14	-0.22160369
215	0xbdaf4e5a	-0.08559866
216	0xbe20d62f	-0.15706705
217	0x3e9c648e	0.30545467
218	0x3d93713a	0.07199331
219	0x3e935ce0	0.28781796
220	0xbd6fafe3	-0.058517348
221	0x3dd73b18	0.10509318
222	0xbe78faf2	-0.24314478
223	0x3db4d6c6	0.08830027
224	0xbc1bfc5c	-0.009520616
225	0xbc23e848	-0.010004111
226	0xbe40e0ae	-0.18835708
227	0xbe3a8c36	-0.18217549
228	0x3de8aecd	0.113614656
229	0x3e67708c	0.22601527
230	0x3e5b00bd	0.21387
231	0x3d839c8c	0.06426343
232	0x3e2cf563	0.16890483
233	0xbe1d6f59	-0.15374507
234	0xbe1ba52c	-0.15199727
235	0x3db7bce3	0.08971574
236	0x3e07a745	0.13247402
237	0x3e49c93d	0.19705673
238	0xbe80f974	-0.25190318
239	0x3d8d7b40	0.06908274
240	0x3c30cf9a	0.010791684
241	0x3e3cc33a	0.18433848
242	0x3e4803d9	0.19532718
243	0xbe180c6a	-0.14848486
244	0xbc6c0d74	-0.014407504
245	0x3e0ee22e	0.13953468
246	0xbe3fc6b8	-0.18728149
247	0xbdaf645a	-0.085640624
248	0x3e185466	0.14875945
249	0x3dd21dc4	0.102595836
250	0x3e392083	0.18078808
251	0x3dd2b81a	0.10289021
252	0xbb916479	-0.004437026
253	0xbe2b8eae	-0.16753647
254	0x3e6a0560	0.22853613
255	0xbdb772dd	-0.08957455

f_model.fc1.bias f4 [32]
0	0xbd3ccb3c	-0.046092257
1	0x3ca1eef1	0.019767256
2	0x3e114459	0.14186229
3	0xbe1723e9	-0.14759792
4	0xbddffe94	-0.10937229
5	0x3dfdb6d8	0.1238839
6	0x3e33c49f	0.17555474
7	0xbdb57cbf	-0.08861684
8	0x3e5f01d9	0.21778049
9	0x3dd912cf	0.105992906
10	0xbd109dca	-0.03530673
11	0x3e324b90	0.17411637
12	0x3caeb18f	0.0213249
13	0xbd14f1e8	-0.036363512
14	0x3e0c6ea5	0.13714083
15	0xbde06050	-0.1095587
16	0xbca3fc61	-0.020017805
17	0x3deec62f	0.11658894
18	0x3d23d57a	0.03999851
19	0xbded0d17	-0.11574762
20	0x3dfb038f	0.12256538
21	0xbde055c7	-0.10953861
22	0x3c6658f0	0.01405929
23	0x3dd2139c	0.102576464
24	0xbca175ac	-0.01970943
25	0x3e59af3b	0.21258251
26	0xbe19679f	-0.14980935
27	0x3e2250ab	0.15851085
28	0xbd760e9d	-0.06007253
29	0x3e3652f1	0.17805077
30	0xbdfc35e4	-0.12314966
31	0x3db8c74d	0.090223886

f_model.fc2.weight f4 [10, 32]
0	0xbe202f98	-0.15643156
1	0xbd206dc1	-0.03916717
2	0x388d9bf0	6.7524496e-05
3	0xbea090c1	-0.31360438
4	0x3e39d73a	0.18148509
5	0xbe1e16ee	-0.15438434
6	0xbdeba832	-0.1150669
7	0xbe858617	-0.26078865
8	0xbeb547ee	-0.3540644
9	0xbded914e	-0.1159998
10	0xbe0ef3d8	-0.13960207
11	0xbe48daec	-0.19614762
12	0x3e2518e0	0.1612277
13	0x3e384141	0.17993642
14	0xbe81f058	-0.2537868
15	0xbddbefd7	-0.10739105
16	0x3d8a0317	0.067388706
17	0xbe7ec0a6	-0.24878177
18	0xbc8d3f6a	-0.017242152
19	0x3cd94f70	0.026527137
20	0xbd1dfc0c	-0.03857045
21	0xbe15488b	-0.14578454
22	0x3e13e397	0.14442287
23	0xbeaec5d6	-0.34135312
24	0xbc5c1f93	-0.013435262
25	0x3e467041	0.19378759
26	0x3dedab0d	0.11604891
27	0xbd9d08de	-0.07667707
28	0x3e4f32cf	0.20234226
29	0x3e8cd504	0.27506268
30	0xbd9d5912	-0.076830044
31	0xbe4e3887	-0.20138751
32	0x3e0f3a2a	0.13987032
33	0x3e776c7d	0.24162479
34	0x3dc7ddbd	0.0975909
35	0xbd7908c7	-0.060799386
36	0xbe1649b6	-0.14676556
37	0x3db0adb6	0.08626883
38	0x3e2cd185	0.168768
39	0x3d9bd256	0.07608478
40	0xbdcdbd4e	-0.10045873
41	0x3dfad5de	0.12247823
42	0x3c315b47	0.010824985
43	0xbe434edd	-0.19073053
44	0xbcbf4e83	-0.023352867
45	0xbdee7996	-0.116442844
46	0x3d5e5c51	0.05428726
47	0xbe764f71	-0.24053742
48	0xbe3d4883	-0.18484692
49	0xbc72d6f9	-0.014821761
50	0x3e7cea8b	0.24698846
51	0xbcb6ec10	-0.02232936
52	0xbd7717d3	-0.060325455
53	0x3df856e5	0.12125949
54	0xbcefdf1c	-0.029281192
55	0xbc86a662	-0.01643676
56	0xbe5a0e5d	-0.21294542
57	0xbe349a97	-0.17637096
58	0x3c7d771d	0.015470293
59	0x3e9fc709	0.3120654
60	0xbe9af4f4	-0.3026501
61	0xbda2558f	-0.07926475
62	0xbd76c311	-0.060244624
63	0xbbda424c	-0.0066607352
64	0x3d6d00e1	0.057862166
65	0x3dc98fac	0.09841856
66	0xbd70973b	-0.058737975
67	0x3dd02266	0.10162811
68	0xbe25f64d	-0.16207238
69	0xbd4d88a4	-0.05017914
70	0x3ba07c24	0.004897611
71	0xbe70954d	-0.23494454
72	0x3dcb7b53	0.099356316
73	0x3e149857	0.14511238
74	0x3dc72dda	0.09725542
75	0x3d942d8e	0.07235251
76	0x3e1e195b	0.1543936
77	0x3deaf908	0.1147328
78	0xbd23addb	-0.039960723
79	0xbe39ffd5	-0.18163998
80	0x3e0b2689	0.13588919
81	0xbc98fc63	-0.018675035
82	0xbe9cd158	-0.30628467
83	0x3e8fd9e7	0.28095934
84	0xbe333d08	-0.1750375
85	0xbe8fcec3	-0.28087434
86	0xbe06c7fc	-0.13162225
87	0xbe4204f3	-0.189472
88	0x3d80f843	0.06297352
89	0xbc8d74db	-0.017267635
90	0x3d4af6c4	0.04955174
91	0xbe275591	-0.16341235
92	0xbc239309	-0.009983786
93	0xbd884d77	-0.066554
94	0x3e0241aa	0.12720361
95	0xbe63dbf5	-0.22251876
96	0xbd6c7e58	-0.05773768
97	0x3cf2b5e3	0.029627746
98	0x3e1fdd45	0.15611751
99	0x3ce032ec	0.027368031
100	0x3e428d3a	0.18999186
101	0xbd718203	-0.05896188
102	0x3950ea43	0.00019923695
103	0xbcfbe3b5	-0.030748228
104	0xbd1586d3	-0.03650553
105	0x3e451067	0.19244538
106	0xbd923e1f	-0.07140755
107	0xbe15cfd1	-0.14630057
108	0x3da3a1cc	0.07989845
109	0xbdf46aed	-0.11934457
110	0xbe69e474	-0.22841054
111	0x3db585c2	0.08863403
112	0xbe1d2622	-0.15346578
113	0x3daca9ba	0.0843081
114	0x3c10f1f3	0.008846748
115	0xbe93eb15	-0.2889029
116	0xbdd02559	-0.101633735
117	0xbe8aaae7	-0.27083513
118	0x3d8443d8	0.06458253
119	0x3d310a11	0.04322249
120	0x3e71ccca	0.23613277
121	0x3d1b55bf	0.03792357
122	0xbe5c33b0	-0.21504092
123	0xbdcb8f87	-0.09939485
124	0xbe4341dc	-0.19068092
125	0xbdcc8004	-0.099853545
126	0xbdbe4f78	-0.09292501
127	0x3ca16bb8	0.019704685
128	0x3e5a3ea5	0.2131296
129	0xbe880528	-0.26566434
130	0x3db2f2cc	0.08737716
131	0xbd5d7039	-0.054062102
132	0xbe032c3d	-0.12809844
133	0xbd804b26	-0.062643334
134	0xbe9d92ae	-0.3077597
135	0xbe1a3dc7	-0.15062629
136	0xbc718587	-0.014741308
137	0xbe9e4dad	-0.30918637
138	0x3e81c4f5	0.2534558
139	0x3e176aae	0.14786789
140	0xbea3c0b6	-0.31982964
141	0x3d1ee318	0.038790792
142	0x3dde0490	0.10840714
143	0x3e237ed1	0.15966345
144	0x3d1f17a0	0.03884089
145	0x3d2f431a	0.042788602
146	0xbe0cf06b	-0.13763587
147	0xbe20870b	-0.15676515
148	0xbdbac563	-0.0911968
149	0x3c355be1	0.011069269
150	0xbd906c96	-0.07051961
151	0xbc8e63fc	-0.01738166
152	0x3d297f27	0.041381028
153	0xbe0b5817	-0.13607822
154	0xbc0758e4	-0.008260939
155	0x3e308276	0.17237267
156	0xbe515405	-0.20442207
157	0xbdc84fcf	-0.09780847
158	0xbdf65e4e	-0.12029706
159	0xbd3b0eca	-0.0456684
160	0xbdca9a52	-0.098927155
161	0xbe6f2be2	-0.23356584
162	0xbd316ec1	-0.043318514
163	0xbe5580e0	-0.20849943
164	0x3e02ea1c	0.12784618
165	0xbd499e0c	-0.04922299
166	0x3e3dc907	0.18533717
167	0xbe90895f	-0.28229806
168	0xbd6b002f	-0.057373222
169	0x3ddbc428	0.10730773
170	0xbe9829f1	-0.297195
171	0x3c8833d0	0.016626269
172	0xbe3e393a	-0.18576518
173	0xbce7c078	-0.028290018
174	0x3e0c37be	0.13693139
175	0xbd0cbf5e	-0.03436219
176	0xbe28e70b	-0.16494386
177	0x3d468f5a	0.048476554
178	0x3e2518ae	0.16122696
179	0xbc45d5ba	-0.012074882
180	0xbddd9f61	-0.10821415
181	0x3d2bdc5f	0.04195821
182	0xba8cbda5	-0.0010737671
183	0x3e54b206	0.20771036
184	0xbda884fc	-0.0822849
185	0xbe5b7453	-0.21431093
186	0xbdead397	-0.11466139
187	0xbde627a3	-0.11238029
188	0x3e6cf8c5	0.23141773
189	0xbd0a3096	-0.03373774
190	0x3b9c578a	0.0047711777
191	0xbe1362b8	-0.14393127
192	0xbde92423	-0.11383846
193	0xbe3cadbd	-0.18425651
194	0xbdafb56d	-0.08579526
195	0x3c8588d1	0.01630059
196	0xbd342eb1	-0.04398984
197	0x3e8a6dda	0.27036935
198	0xbdeb8103	-0.114992164
199	0xbc698efb	-0.014255281
200	0xbd8b5d94	-0.06804958
201	0xbde7da37	-0.11320918
202	0x3e05e704	0.13076407
203	0xbe37b5d0	-0.1794045
204	0xbcd799b0	-0.026318401
205	0x3dd3e917	0.10347193
206	0x3e7a53f9	0.24446096
207	0xbe823aec	-0.2543558
208	0x3dc2df55	0.095152535
209	0xbe216f18	-0.15765035
210	0x3d1e9585	0.03871681
211	0xbe637361	-0.22211982
212	0x3e859604	0.26091015
213	0x3dc4439d	0.09583209
214	0x3cd786b4	0.026309349
215	0xbe3c5c6f	-0.18394636
216	0x3d3467ed	0.044044424
217	0xbda1e875	-0.07905666
218	0xbde6bf4a	-0.11266954
219	0xbd8606b0	-0.06544244
220	0x3e272d84	0.16325957
221	0xbdfccdf2	-0.123439685
222	0xbd96e55a	-0.07367964
223	0xbdcfd630	-0.10148275
224	0xbe03abe3	-0.12858538
225	0x3da9cfa1	0.08291555
226	0xbe52594b	-0.20541875
227	0x3e0fbda3	0.14037184
228	0x3d1c5ae8	0.038172632
229	0xbdeaaa76	-0.11458294
230	0xbd97e0ca	-0.07415922
231	0xbe24155c	-0.16023773
232	0xbe5ee9ef	-0.21768926
233	0x3e34d30f	0.17658637
234	0xbe36c493	-0.17848425
235	0xbca84aca	-0.020543475
236	0xbe84cb79	-0.25936487
237	0xbdc3a0ba	-0.095521405
238	0xbd82ba6e	-0.06383215
239	0x3d9e0ccd	0.07717285
240	0xbe8b0095	-0.27148882
241	0x3cfc48c7	0.030796422
242	0xbe4fc9a4	-0.20291764
243	0x3d67cac4	0.056589857
244	0xbe8b7184	-0.27235043
245	0x3d2d7740	0.042350054
246	0xbe86ec90	-0.26352358
247	0xbdec660c	-0.115429014
248	0xbe38cf98	-0.1804794
249	0x3dc4d25e	0.09610437
250	0x3e32e473	0.17469959
251	0xbd782fb6	-0.060592376
252	0xbd5c5c20	-0.053798795
253	0x3e5bff65	0.21484144
254	0xbd8c7bac	-0.06859526
255	0x3e68d5b3	0.2273777

f_model.fc2.bias f4 [10]
0	0xbdbf6474	-0.09345332
1	0xbd925153	-0.071444176
2	0x3dbcaddd	0.09212849
3	0x3dcd20a8	0.10015994
4	0x3db2594e	0.0870844
5	0x3e22395f	0.15842198
6	0x3d8ca90f	0.06868183
7	0x3cf2355e	0.029566463
8	0x3e20127c	0.15632051
9	0x3d272c58	0.040813774
