models/Experiment 4/Trained on normal data/cnn_model_0.pt (torch, 456816 bytes, 8 tensors)

conv1.weight f4 [32, 1, 3, 3]
00000000: 899b 453e 52f3 b23e 4769 3c3e 0417 08bb
00000010: 9537 41be 35cc b5bd 6468 b03d 0351 8abd
00000020: 0c8d b53e 1575 06be 656b 343e 7743 193e
00000030: f801 193e 8e3a e8bd f4ba 9cbe bbb1 a23e
00000040: d26c 573e 371c 1abd 8019 3dbd 7467 99be
00000050: af94 6abe df4b 5dbe 6509 80bd 6192 e3bd
00000060: dd91 223e 8d28 233e f9f4 b83e d440 49be
00000070: 52b6 c7bd b6dd 11be 16af 163e 434d b93e
00000080: 78cf b13e eeec d13e a8e6 dbbd d535 4bbe
00000090: 57c9 1b3e 0667 c53e 6370 ad3e 4117 5bbe
000000a0: 6378 51bd ee36 2b3e d1bc 883e 726a 9a3e
000000b0: 9d4f 2e3e e3e7 873e 7b25 c3bd 948d a1be
000000c0: df17 513e 6a33 bc3e 7068 85be e7c0 9d3e
000000d0: d32b c8bd 65bd 0d3b ae85 36bd 50dc 8fbd
000000e0: f4f6 b23e f027 07be 739a a9be 7bbe 78bd
000000f0: d680 253e d372 233e 6c42 7f3e 83aa 67be
00000100: 57c4 823e f3c9 93bd 74f9 cd3e 2e9a a63d
00000110: ba2e f83d 77fa 973e 3eab 813e b698 72be
00000120: 3b13 233d b5c9 a93e 9630 febd 4e19 843e
00000130: b810 b83e 18fe 913e d3e0 67be 575a b6bd
00000140: fea3 86be 6e5a 6b3e 401a a93e bbbf 853e
00000150: 9e75 863e abc6 8b3e 675d c33b 1424 2cbd
00000160: ccd5 b63e f139 383e b849 b13e 4043 963e
00000170: 8a14 903d 5d3c 2c3e 7cca 053a a26e 62be
00000180: a33e 413e 249d b13e 8311 983e bcdd 77be
00000190: 8021 503d 644b 26be df49 bc3e 2bd8 ae3e
000001a0: 5d0d 25be c659 75be 4fe9 1bbd ad9d 8c3e
000001b0: a548 b3bd e4ba 993e db0d f7bd 045a babd
000001c0: fca0 a53d 49d2 c43e 38d6 8ebe da6c b5be
000001d0: 6ee7 cabe 1adb 46be 13a1 d43c ed79 be3e
000001e0: 0ccb ccbd 8453 633e 84a1 913e 9bbe fc3d
000001f0: ff4a 403e a404 743e 6866 1abe 1419 8d3e
00000200: 5768 653e 73f9 8abe e18f 9d3e a111 a93e
00000210: e57b bcbe 22a0 e7bd 7991 d4bd 1da0 153c
00000220: 372a ab3c 8c63 2ebe c7f4 91bd c7c1 cbbd
00000230: 9dcf d6bd a139 8f3e b906 bebe b76a 5cbe
00000240: 7e38 743e 8ac3 a13e c301 b03e 6b4f b83c
00000250: 0479 383e baca e6bd bbef 073e 05f2 c83d
00000260: ca43 2cbe c408 f33d 3438 7ebd f8f0 9cbe
00000270: 87f9 763d 20f1 963e 0681 88be d5d0 aa3e
00000280: d6d6 8dbd 0f25 00be 582f d53b efb2 2dbe
00000290: c23d 59bc 395b 5e3e dff1 833e 742f b93e
000002a0: d966 703e 83c7 c4bd 6e7a b83e a147 80be
000002b0: f277 b8be b91a 8abe dc24 d2bd 9267 c53d
000002c0: 9531 ab3d de62 3ebe 36b4 b73e 2d23 273d
000002d0: f49a bf3d ac4e 54bd 5154 8dbc fb43 f5bd
000002e0: 2e56 b63e a512 bc3e 126a 803e 5f4c 263e
000002f0: 6a01 a23e 3b99 6e3e b300 23be 04a0 75be
00000300: 81a9 a6be f8b4 8bbd bfbf 86be 192c c1bd
00000310: bbe1 903e 6506 51bd b1f0 04bd 8f03 893e
00000320: e4fc d43d 504c 0abd 4973 08be b2c5 473c
00000330: 813f 11bd c4b6 ad3e 8d85 a23e 5ec4 99bd
00000340: c4dc 82be 68c5 483d 97b2 523e 24ea 703e
00000350: b37c 44be fe82 c83e 8332 113d cdf6 9e3e
00000360: 1584 32be f592 183e 4ef0 bd3e 724e ff3d
00000370: d268 ac3e 7db9 1bbd 0976 b7be 0b44 48be
00000380: 93d5 2fbe d957 75be 16e5 9dbd b30a 633e
00000390: 3d03 bb3e 67cb 2b3e f883 af3e 085a bebd
000003a0: b766 cfbc 28cc 0e3e 50a3 7c3e ca8e 3dbd
000003b0: 453b a8be 8e9c 34be 1199 6cbe ea98 1d3d
000003c0: 1ece 92be 5d62 8bbc ab43 813c c7c5 933d
000003d0: 9edd a8bd 3202 673d 1659 b73e 78a7 e3bd
000003e0: ee5e 39be 7e34 d13e a7d4 20be 728a 85be
000003f0: 3a1e b83e 79f2 21be 0212 77be 97d9 453c
0.19297613 0.34951264 0.18399535 -0.0020765672 -0.18868859 -0.0887684 0.08613661 -0.06753733
0.35459173 -0.13130601 0.17619093 0.14967142 0.14942157 -0.113392934 -0.30611384 0.31776223
0.21037605 -0.037624564 -0.046166897 -0.2996174 -0.22908281 -0.21610974 -0.06251792 -0.11111904
0.15875955 0.15933438 0.361244 -0.19653636 -0.09751572 -0.14244732 0.14715227 0.3619176
0.347286 0.41001076 -0.107373536 -0.19844754 0.15213524 0.38555163 0.33874807 -0.2139559
-0.0511402 0.16720173 0.26706555 0.30159336 0.17022558 0.26544103 -0.09528633 -0.31553328
0.20419262 0.36757976 -0.26056242 0.30811235 -0.09773984 0.002162778 -0.04456108 -0.07024443
0.34954035 -0.13198829 -0.33125648 -0.06072853 0.16162428 0.1596177 0.24927682 -0.22623639
0.2554042 -0.07216253 0.4022938 0.08134876 0.121182874 0.29683277 0.2532596 -0.23691067
0.03981326 0.33161703 -0.12411611 0.25800556 0.35950255 0.2851417 -0.22644357 -0.0890395
-0.2629699 0.22983715 0.3302784 0.2612284 0.2626161 0.2730001 0.005962062 -0.042026594
0.3570999 0.17990853 0.34626555 0.29348183 0.070351675 0.16819902 0.000510372 -0.22112516
0.1887155 0.346902 0.2970086 -0.24205679 0.050813198 -0.16239697 0.3677511 0.34149298
-0.16118379 -0.23960027 -0.038064297 0.27464047 -0.0875409 0.300254 -0.120631896 -0.090992
0.08087346 0.38441685 -0.2789781 -0.3543461 -0.39629692 -0.19419518 0.025955712 0.37202397
-0.099996656 0.22199827 0.2844354 0.123410426 0.18778609 0.23829895 -0.15078127 0.27558196
0.22403084 -0.2714344 0.30773833 0.33021262 -0.36813274 -0.1130984 -0.10379309 0.009132412
0.020894153 -0.17030162 -0.07126766 -0.099490695 -0.10488818 0.27973655 -0.37114504 -0.21525083
0.23849675 0.31594497 0.34376344 0.022498807 0.18014914 -0.11269136 0.13275044 0.098117866
-0.16822734 0.11866906 -0.06206532 -0.30652595 0.06029656 0.2948084 -0.26660937 0.3336245
-0.06925742 -0.12514137 0.006505888 -0.16962789 -0.013259353 0.21714486 0.2577047 0.36169016
0.23476733 -0.09608366 0.36030906 -0.2505465 -0.3602901 -0.26973513 -0.102609366 0.09638895
0.083590664 -0.18592402 0.35879678 0.04080503 0.09355727 -0.05183284 -0.01725212 -0.11975857
0.35612625 0.36732975 0.25080925 0.16240071 0.31641704 0.2330064 -0.15918235 -0.23986822
-0.32551196 -0.068216264 -0.26318166 -0.09432239 0.2829722 -0.05103149 -0.032456104 0.26760527
0.103997976 -0.033764184 -0.13325228 0.01219313 -0.035460953 0.33928502 0.31742516 -0.07508157
-0.25559056 0.049016386 0.20575939 0.23526818 -0.19188194 0.3916244 0.035448562 0.3104767
-0.17433198 0.1489981 0.370974 0.12466134 0.33673722 -0.038018692 -0.3583224 -0.19557206
-0.17171316 -0.23959292 -0.0770971 0.2217205 0.36525908 0.1677681 0.34280372 -0.09294516
-0.025317533 0.13945067 0.24671674 -0.046278752 -0.3285772 -0.17637846 -0.23105265 0.03847591
-0.2867288 -0.017014677 0.015779337 0.072154574 -0.08245395 0.056398578 0.35810155 -0.111159265
-0.18102619 0.4086036 -0.1570612 -0.26082188 0.3596056 -0.15815152 -0.24127963 0.012075803

conv1.bias f4 [32]
00000000: 04ba fabd 3d40 6cbd 06a1 d53d c710 4fbd
00000010: b540 15b8 fb89 39ba 2356 af3c 1e9a cbb8
00000020: 2d18 b5bd 6a54 bcbd b437 5ebe fc24 ffbd
00000030: d8cb 4a3e d37c 3bbd 9e14 b33e 4370 923e
00000040: 7807 863d 55b9 a43e 4f80 3fbd 87dc a23d
00000050: 8505 5c3e 0266 97be 5a6b 983e 0178 6d3c
00000060: ebc6 dfbd 692e 8d3e eede 1d3e caf7 30be
00000070: 442c f5bd 0259 8cbe a5f1 f3bd 81bd 34be
-0.12242511 -0.05767845 0.104311034 -0.05055311 -3.558463e-05 -0.00070777506 0.021403378 -9.708501e-05
-0.08842502 -0.09195788 -0.21700937 -0.12458226 0.19804323 -0.04577334 0.34976667 0.28601274
0.06544393 0.32172647 -0.046753224 0.079522185 0.2148648 -0.29570013 0.29769403 0.014493943
-0.109266125 0.2757447 0.15417072 -0.17282024 -0.119713336 -0.27411658 -0.119113244 -0.17650415

conv2.weight f4 [32, 32, 3, 3]
00000000: 37a7 03bd de7a 293d e213 5a3d 2196 9c3c
00000010: 7983 0c3c 95ab fb3b 961f 0fbd 1643 adbc
00000020: bd41 503d 96a5 733c efea 863d fb25 973d
00000030: 89aa efba ac5c 0abd 703d 773d 6e08 46bc
00000040: 335f 1db9 25a6 c43d 93db 5cbd 4567 cbbc
00000050: 9b6e d3bc 3ac5 c93c d278 babc d1ed b2bd
00000060: d5b7 b83d 9440 b83c 8337 86bd af9f 4c3d
00000070: 5a72 eb3b e409 d2bb e743 0bbd 2f1b 81bd
00000080: 601d 923c daa1 87ba a8cd 753c 0c25 3f3d
00000090: d369 23bd fd38 d6bc 5b3a 213d f15d 153d
000000a0: 6ff8 773d 465c 733d 848d 823d ca32 953d
000000b0: 0544 893d 97a1 8c3d c89e 763d 378e 793d
000000c0: 8e28 59bd 6fa7 e2bc 047e af3c 2fb0 843c
000000d0: 3386 4e3d e9bb 803d a7f5 23bd d044 303d
000000e0: c870 93bc 5ea4 113d 0a83 b63d e6d2 3ebc
000000f0: 9a6c 383d e22c ac3d 888b 2cbd 429f e8bc
00000100: 35de 763d d455 5fbc a486 ecbc 0aa0 6e3d
00000110: 1de9 283d e719 44bc dbf8 9a3d 4aad 4a3d
00000120: 3a3d 153b 893e 7cba 88be b03b b523 02bc
00000130: 52e7 d63c 41cf 233d b59a adbd 86c7 52ba
00000140: 0820 6cbb 0caf ffbb e872 023d a6c3 813d
00000150: 3a78 f73b 8316 673c e492 613d b6be 57bd
00000160: 8788 b2bb a89d 273d 84be ba3c 2336 233d
00000170: 99ed 353d 8173 27bb 2559 48bc 36dc 64bc
00000180: 23b8 003d bbd1 98bc 3413 063d a8b8 2d3d
00000190: 3889 073e 5093 903d 99e0 973c 579e 76bc
000001a0: 9d68 dc3b b1ca 15bc ed08 66ba 3e25 bf3c
000001b0: baeb 703d 411d acbd 85b1 1cbd c472 a3ba
000001c0: 1573 25bd 0a61 a0bd 388d 1fbd 4560 a1bd
000001d0: d5a4 80bd 110d 083d 75e4 433d 2594 1cbd
000001e0: 1ce5 033c 105f c8bc 4a37 953b 8245 1d3c
000001f0: 31ca 893d 3267 183d 54b6 673c ae09 913d
00000200: 09c1 79bd fc86 0b3d 7053 743d 22f0 8abd
00000210: 4c6f 39bd c5b5 19bd 7d24 0fbd 48a7 213b
00000220: ebda 99bc ea7b ebbc 9f02 40bd 4862 28bd
00000230: 0f06 83bc 57a1 12bd 904c 81bc 3dc2 23bd
00000240: abfe 1fbd e4f9 04bd bb00 6ebc 8f34 d1bb
00000250: b0bc 0cbd cd28 823d 6fb7 5e3c 6d1d d2bc
00000260: 2893 053d abdc 603d e1e1 6f3d 01af b43d
00000270: 7881 2ebc aa32 10bd d2ec 8a3b 2ae6 f73c
00000280: 89fc 26bd 0994 aa3d 4fed 1a3d 8bdc d13c
00000290: e352 563d d119 f53c 2459 9fbc e76d 803c
000002a0: dec4 e0bc 02c7 383d 2712 9abc 7007 c5bc
000002b0: c91a 34bd 9a18 a8bd f8db 93bc c70a 90bd
000002c0: dcdd 55bd 47b7 05bc c3df 31bd a6fe 3ebd
000002d0: e5ed 75bb 6f24 01bd c813 b5bc d97a 833b
000002e0: a316 95bc 2f6c 8c3d cbbe c43c 5b0f a43d
000002f0: 9dfe 913d 9265 ea3c 0fbc d4bb d7e4 103d
00000300: 27eb 97bc cb55 36bd 99db 773b 3c49 6bbd
00000310: 590c f23c 7fec 4abd ffdf 883c 5d70 633d
00000320: 0552 eb3b 06a5 5e3c bd47 623c 7f0d 2a3d
00000330: f142 e3bc 1737 ed3c e696 ac3d 4025 473c
00000340: ca15 0f3d 2687 973d c678 59bc 83b5 843d
00000350: 5bb5 a2bb 68f4 c2bc 086b 17bb 03da 863d
00000360: 1c9f 133c c142 053d 7a12 93bc acd4 95bc
00000370: 1d23 56bb e2cd 82bd d792 66bd 163c 173d
00000380: 0971 5ebd 3597 53bd dcb9 8fbc 5757 763b
00000390: d8ff 553d 273d c63c 6f2b 51bd 068b 893c
000003a0: 2295 583d 00da 08bd 879d 28bd d349 21bc
000003b0: 5305 4fbd 6267 ef3c b5f5 83bd 074c 89bd
000003c0: 717f d23b faa3 eabc 7b17 3ebc c037 773d
000003d0: af23 ce3d 67b1 0d3e decc 1ebd a135 a73d
000003e0: fd08 0b3e 3ed5 69bd d5cc 733d 6aff 0d3e
000003f0: d378 3e3d 0f7b 9f3d 6acb 6a3d ce2b 923d
-0.03214189 0.04137694 0.053241618 0.019114556 0.008576267 0.0076803663 -0.034942232 -0.021150153
0.050843943 0.014871022 0.06587779 0.07380291 -0.0018285076 -0.033779785 0.060361326 -0.012086971
-0.00015008151 0.09602002 -0.05392034 -0.024829516 -0.025809577 0.024630178 -0.02276269 -0.08736766
0.09019438 0.02249173 -0.06553557 0.049956974 0.0071852626 -0.0064098705 -0.034000304 -0.06304013
0.017836273 -0.0010347918 0.015002646 0.04666619 -0.039895844 -0.026150221 0.039362293 0.036466543
0.06053966 0.05941417 0.06374648 0.07285078 0.06702427 0.06866758 0.06021002 0.060926642
-0.05301719 -0.02766773 0.021422394 0.016197292 0.05042095 0.06285841 -0.040029194 0.043034375
-0.017998114 0.035557143 0.089117125 -0.011646962 0.045025446 0.08406998 -0.042125255 -0.028396253
0.060270507 -0.013631303 -0.028872795 0.058258094 0.04123794 -0.011969066 0.07566997 0.049481668
0.002277209 -0.00096223556 0.005393807 -0.0079430835 0.026233349 0.039992575 -0.08476774 -0.00080405956
-0.0036029834 -0.0078028496 0.031847864 0.06336145 0.007552174 0.014104488 0.055071726 -0.05267211
-0.0054484042 0.040921837 0.022795923 0.03984655 0.044416044 -0.0025551023 -0.012228285 -0.013968518
0.031425606 -0.018654695 0.032733157 0.04241243 0.13235939 0.07059348 0.018539714 -0.0150524
0.006726338 -0.009142564 -0.0008775134 0.023333188 0.058818556 -0.08404017 -0.038255233 -0.0012470116
-0.040392954 -0.07831009 -0.038953036 -0.0787969 -0.06281439 0.033215586 0.047825295 -0.03822722
0.008050229 -0.024459392 0.00455371 0.0095990915 0.06728018 0.03720779 0.0141425915 0.070819244
-0.06097511 0.034064278 0.059649885 -0.06784083 -0.045272157 -0.037526865 -0.034946907 0.0024666358
-0.018781146 -0.02874561 -0.0468775 -0.041109353 -0.0159941 -0.035798397 -0.015783578 -0.039980162
-0.03906123 -0.032464877 -0.014526541 -0.0063844393 -0.034359634 0.063554384 0.013593539 -0.025648797
0.032611042 0.054897945 0.058565024 0.08822442 -0.010650985 -0.035204567 0.004239657 0.030261118
-0.04076818 0.08329017 0.03782397 0.025617858 0.05232514 0.029919537 -0.019451685 0.015677406
-0.027437624 0.045111664 -0.018807484 -0.024051398 -0.043970857 -0.082078174 -0.018049225 -0.070333056
-0.052213535 -0.0081613725 -0.043426286 -0.04662957 -0.003752583 -0.031528886 -0.022104159 0.0040124473
-0.01819927 0.06856572 0.024016758 0.08010741 0.07128642 0.028612886 -0.006492145 0.03537449
-0.018544747 -0.044515412 0.00378201 -0.05744289 0.029546903 -0.049541947 0.016708372 0.05552708
0.0071814083 0.013589149 0.013811049 0.041516777 -0.027741881 0.028956933 0.08427219 0.012154877
0.03493289 0.073988244 -0.013273424 0.06479933 -0.004965467 -0.023798183 -0.0023104567 0.06584551
0.009010103 0.032534365 -0.017953146 -0.018289886 -0.0032674738 -0.06386925 -0.05629238 0.036922537
-0.054307017 -0.051657874 -0.01754468 0.003758868 0.052245945 0.024199082 -0.051066812 0.016789924
0.0528766 -0.033411026 -0.041165855 -0.009844261 -0.050542187 0.029224101 -0.06443349 -0.06703954
0.0064238836 -0.028642643 -0.011602278 0.0603559 0.100654 0.13837205 -0.038769595 0.08164526
0.13577648 -0.05708813 0.059521515 0.13866964 0.046501946 0.077871434 0.057322897 0.07137261

conv2.bias f4 [32]
00000000: 2873 4a3d de0c b73c a30c 513d 77cf 0dbc
00000010: 144d 263d 8192 54bd af20 a93c 8384 3cbd
00000020: 6dd9 7a3c f489 283d 45c8 863a f92f 76bd
00000030: 6705 70bd 6d81 2ebd 6a36 62bc 5d1b 8dbc
00000040: d18a a0bc 0db5 1a3c e3d6 813d 8bc5 ae3a
00000050: 5d98 653c a212 833d 8a92 083d 9052 9e3b
00000060: a473 05bd e9c3 b0bc c883 993c 6e4c 74bb
00000070: 24ff ab3d eb01 263d 63e1 333d fc11 52bd
0.049426228 0.022345003 0.051037442 -0.0086554205 0.04060085 -0.05189753 0.020645468 -0.04602481
0.015310627 0.041147187 0.0010283074 -0.060104344 -0.058598902 -0.0426039 -0.013806919 -0.017224962
-0.019597443 0.00944258 0.063398145 0.0013334019 0.014013377 0.06400038 0.033342876 0.0048316196
-0.032580987 -0.021577792 0.018739596 -0.0037277 0.083982736 0.040529173 0.043916117 -0.051286682

fc1.weight f4 [128, 800]
00000000: 6572 f639 2e72 483c 066f 403c c5ff c33c
00000010: 69f7 a63c 4268 75ba 9601 84bc 4b12 20bd
00000020: 5c3b efbc 0dfd 303c a799 883c 2080 eabc
00000030: 5f7d a33b 9450 6039 3735 3abc 1387 d83c
00000040: 998b 7b3b 8c64 15bc 4ad0 a7bc b0a9 143c
00000050: e7bc 1d3a ded1 6fbb 70db e9bc 1170 f03b
00000060: 8e38 493c d385 43bc 9d7c 21bc 68eb a03a
00000070: b853 f13b 5ee6 dc3c 3ab8 07bd 1e7d 2c3c
00000080: 72d4 80bc f9d8 d8bc c46c a5bc df75 ad3c
00000090: 2f8c 4a3c 8130 3b3b 4b41 55bb da0e bfbc
000000a0: 05d7 3c3a 535a bd3c 87de 0ebb 46d9 fa3c
000000b0: 386f 843c 79ed 9abc 26c3 ef3c 685d eb3c
000000c0: 4aed e83c e889 94bc c3e7 f53c 9763 a9bc
000000d0: 989a debb 3c2e 00bd 9904 a03c 8d16 033d
000000e0: da1a 103c f7f4 92bc d72d 0a3d d888 a63c
000000f0: 6b1f fcbc 4ceb dd3c 880e 02bd 875a 26bb
00000100: 5bcc 46bb 0396 c8ba fd7f 86ba 1723 673c
00000110: dd0e 3ebc 03a4 e9bc e326 d53c 8951 febc
00000120: 0d63 fd3b 937d 813a 3c67 f93c 8746 7dbc
00000130: a35c c03b a61f fa3c f4fc 48bc ab0c 523c
00000140: 1182 16bb 2432 0bbd 7c54 28bc ccab 883c
00000150: 1dc5 4cbc c2d3 b1bb ba20 e0bb 1b3e 883a
00000160: 1188 823c 8329 8d3c e03c 51bc a7bb be3c
00000170: 27ec 96bc 22a9 a83c 0a78 11bd 2f90 4fbc
00000180: 88ce 92ba 25c6 0cbc 124d f3bc f202 073d
00000190: 99f9 693c 05c5 5aba fbf1 02bd 1c55 b4bc
000001a0: e454 ca3c 8ea1 92bc 3bf5 023d 9e8e e4bc
000001b0: 143e 3c3b 044d 693c 21e7 b8bc aafc a03c
000001c0: 0f0e 89bc 8858 2bbc 93b2 2abc fbe7 103d
000001d0: 5f24 fe3b 3d3a 863c 5707 1abd 2ce1 d3bb
000001e0: 6386 403c 6600 8a3c b661 8ebc d1d1 80bc
000001f0: 170c fabc 1f94 77bc 9830 5e3b fa40 963c
00000200: 6e88 5a3c 8e90 083d 778d ba3b 1fd1 fd3c
00000210: 22d2 1b3b 763d d43c 1fd1 b13c c9a1 8bbc
00000220: 3f24 33bc 61e4 233c 5a94 013d 6eb9 55bc
00000230: 722f 4c3c 6025 12bc 83aa 1d3b 23b7 b9bc
00000240: 87d0 823c cf8a ffbb 8eff 40bc ee7a 61bc
00000250: c71a 8dbc 7b81 16bb ac18 3aba e6e0 f3bb
00000260: 2706 83bc 3a0f 00bd 720f 65bc 1b0d a53c
00000270: edaf d9bc 0ee2 dd3c 0cd3 00bd 8b25 813c
00000280: c336 883c 05f8 9e3c 07e4 843b d113 e5bc
00000290: 4234 393c d9f8 8c3c 9b1f dbbc d760 bb3c
000002a0: 58e9 9cbc 1c4b 973c f45d 6e3c 9f55 84bb
000002b0: 8b69 ddbc a353 9bbc 8f89 063d 401e 913c
000002c0: f493 d93c 8bf0 83bc 2f0e d8bc 2742 c43c
000002d0: 6b17 0cbd ae85 efbc 209a f4bc a40d c4bc
000002e0: 3a13 f9bc e684 d13c 333f 723c ae2c b3bc
000002f0: 6c2d f33c 4969 c6bc 4248 2f3c 6048 16ba
00000300: 30a9 8ebc 88d9 fbbc a6f2 f6bc 1c35 053d
00000310: daf7 09bd d2ed ef3c ef3c e8bc ffac 40bc
00000320: b51a d63c 7dc1 a1bc be55 993c 9863 01bd
00000330: 9523 813c 98e5 823c 0997 f63c a07f 853c
00000340: 363b efbc ca04 6f3b c2d5 4dbc 81dd c6bc
00000350: 6b8b 1ebd 94a7 9fbc 354a c03c 0a25 debb
00000360: 4a03 db3b 72e9 16bd 16a1 cf3c beb1 8d3c
00000370: 5f4b aaba 3f12 9dba dfe1 febc 5650 65bc
00000380: 4e26 f63c 70c6 2e3c 76e4 ef3a 5c4d 28bc
00000390: fde0 ff3c fb76 cf3c 8cf2 12bb 1fc3 b9bb
000003a0: ab0c ae3c febc 04bc 5624 03bd b05c a4bc
000003b0: a048 1abd 4c8d 8fba 39cb b9bb d9fd b23c
000003c0: 178f cc3c bc10 c43c 2fe3 9c3b 2463 75ba
000003d0: dc49 883c 22b3 0e3c 3192 98bc 0fe0 6dbc
000003e0: 3f99 64ba 0f62 be3c 0b3b c7b9 080d 053d
000003f0: 6767 f03c 5fbe 0abd 2cd6 533c 1994 12bd
0.00047006007 0.012234254 0.01174522 0.023925671 0.020381646 -0.0009361544 -0.016114037 -0.039079946
-0.02920311 0.0108025195 0.01667483 -0.028625548 0.0049893106 0.00021392322 -0.0113652265 0.026431596
0.0038382767 -0.0091182105 -0.020485062 0.00907366 0.00060172233 -0.0036593596 -0.028547019 0.007337578
0.01228155 -0.011933762 -0.00985637 0.0012277188 0.0073647164 0.026965316 -0.033134677 0.010527877
-0.015726302 -0.026470648 -0.020193465 0.02117437 0.012362524 0.0028562846 -0.0032540138 -0.023322511
0.0007203671 0.023114359 -0.0021800117 0.030621182 0.016166314 -0.018912064 0.029267859 0.028731063
0.02843346 -0.018132165 0.03001774 -0.020677371 -0.0067933314 -0.031294093 0.019533442 0.032003928
0.008795464 -0.017939074 0.033735123 0.020328924 -0.0307767 0.027089737 -0.03175214 -0.0025383548
-0.0030334208 -0.0015303496 -0.0010261532 0.014107487 -0.011600223 -0.02852059 0.02601952 -0.031044738
0.007732755 0.0009879343 0.030444734 -0.01545871 0.005870418 0.03053267 -0.01226734 0.012820403
-0.002296571 -0.033983365 -0.010274049 0.016683482 -0.012498167 -0.005426855 -0.006839839 0.0010394485
0.015934022 0.017231708 -0.012770861 0.023282839 -0.018423153 0.020588461 -0.03551487 -0.012668653
-0.0011200467 -0.008592163 -0.029699836 0.032961793 0.0142807 -0.0008345398 -0.03196905 -0.02201324
0.024698682 -0.0178993 0.03197215 -0.027900036 0.0028723525 0.014239553 -0.022571148 0.01965173
-0.016730336 -0.010458119 -0.010418552 0.035377484 0.0077558006 0.016385192 -0.037604656 -0.0064660516
0.01175079 0.016845893 -0.017380577 -0.015725048 -0.030523343 -0.015110998 0.0033903476 0.01834153
0.013338191 0.033340983 0.0056931335 0.030983506 0.0023776372 0.025908213 0.021706162 -0.017044919
-0.010933935 0.01000318 0.03163562 -0.013044698 0.012462484 -0.008920044 0.0024057932 -0.022670334
0.015968574 -0.0077985297 -0.011779679 -0.013762219 -0.017224682 -0.002296536 -0.00070990133 -0.0074425815
-0.015994145 -0.03126452 -0.013980733 0.02014785 -0.026573146 0.02708533 -0.03145127 0.015764972
0.016627675 0.019405374 0.0040555033 -0.02796355 0.011303963 0.017208504 -0.02674847 0.022873325
-0.019154236 0.018468432 0.014548767 -0.004038527 -0.027027866 -0.01896078 0.03284603 0.01771462
0.026559807 -0.01610591 -0.02637395 0.023957325 -0.03420202 -0.029238548 -0.029858649 -0.023932286
-0.030404676 0.025576066 0.014785576 -0.02187189 0.029684745 -0.024220126 0.01069838 -0.00057328306
-0.01741466 -0.030743375 -0.030145 0.032521352 -0.033683635 0.029288206 -0.028349368 -0.0117599955
0.026135782 -0.019745583 0.018717643 -0.03158912 0.015764037 0.01597862 0.030101316 0.016296208
-0.029203039 0.003647136 -0.012563171 -0.024275543 -0.038707178 -0.019489087 0.023472885 -0.0067793177
0.0066837417 -0.036843725 0.025345366 0.017296668 -0.0012992433 -0.0011983587 -0.031113563 -0.013996204
0.030047562 0.010667428 0.001830234 -0.01027235 0.031235212 0.025325289 -0.0022422401 -0.005669012
0.021246275 -0.0081017 -0.032017075 -0.020063728 -0.037666917 -0.0010952144 -0.005669978 0.02184956
0.024970574 0.02393376 0.0047878246 -0.00093607814 0.016636781 0.008709701 -0.018624397 -0.014518752
-0.0008720345 0.023240117 -0.00038000228 0.03248313 0.029346181 -0.03387296 0.0129294805 -0.03578577

fc1.bias f4 [128]
00000000: d2b9 b2bc 2ff6 bbbb 7075 f3bc 0da6 ee3c
00000010: 580b fcbc 6661 7439 b35d 6ebc b62c 38bc
00000020: 5458 503b fb14 013d cc7d 0abd be3c 77bc
00000030: 9bc5 1bbc 5c5e 22ba 6de5 2e3c 97eb da3c
00000040: 8ac9 c33c 050c 913b 8624 bb3c dc46 e0bc
00000050: e165 013d 1b32 a5bb 90ab 16bd 7556 21bc
00000060: 6ca7 f33b 3916 b33c f95d 8abc c5a0 0a3c
00000070: 4785 abbc 98c1 16bc d80b 02bc d480 a33c
00000080: 5e6e debc 5eda cc3b 2eb7 3ebb 360e f23c
00000090: 58d7 be3b ba61 bdbc 3ed3 e93c 9946 4bbc
000000a0: be65 163c ff58 8e3c 7c1e 063d f2fe d43c
000000b0: 7e8b d63c 15c6 4d3b 9907 cabb 41f9 013b
000000c0: 5777 0ebd 2213 513c 4214 15bd a92c 953b
000000d0: 6f6a febb b561 203d 183f b73b d2ce a1bc
000000e0: 428b 38bc c28a fd3c 781f f4bc 5fe7 e8b8
000000f0: 0bb7 c2bc 200d d4bc db2b 0a3d 2593 75bc
00000100: 045f 493c 87ab ee3c 045a 163d 09fd 953c
00000110: 1303 10bd b5d8 0e3a 1090 c23b 5758 8bbb
00000120: 2cd2 9c3b c5c2 733b 2975 2b3c 0db4 f03c
00000130: fc62 a13c 382b e9bc 74f8 233c ac0f 21bc
00000140: 996b 1a3d c125 c33c ad3a c2bc 1594 cabc
00000150: 2c1f ebbc efb5 863c fe67 14bc 55bf 023c
00000160: bf2c 04bd 5c41 9f3c 5aef 5fbc 5029 163d
00000170: 5e99 103d b8fa 613c ed62 133c 75cd da3c
00000180: 78e8 9c3b 89bf a83b a236 74bc e667 98bc
00000190: 4979 a7bc 350e 01bd 5eaa 0a3d 50cf bdbb
000001a0: eaf1 08bc 789f c4bb 6b7c 1c3d b396 513c
000001b0: 613e e93c 8675 cebc 2c52 983c 0669 713c
000001c0: 3043 a33b ba80 ba3c 48a7 71bc 94b5 e63b
000001d0: 88ee c5bc fa23 e23c 15c9 a13c 06be f83c
000001e0: 0182 1d3d 94d8 6c3c fc9f c7bc 288b cc3b
000001f0: b7e3 143c 3f53 0a3d 4ce2 e13c ee6f fbbc
-0.021817122 -0.0057361345 -0.029719085 0.029131914 -0.030767128 0.00023305937 -0.014548707 -0.011241129
0.003179093 0.03151415 -0.033811375 -0.015090166 -0.009507562 -0.000619387 0.010674817 0.026723666
0.023899812 0.0044264817 0.022844564 -0.027377538 0.0315913 -0.0050413734 -0.03678471 -0.009847273
0.0074357297 0.021861183 -0.016890513 0.008461182 -0.020937575 -0.00920143 -0.007937394 0.019958891
-0.027152237 0.0062516173 -0.0029100883 0.029547792 0.005824011 -0.023117889 0.028543111 -0.0124069685
0.009179531 0.017376421 0.032743916 0.026000474 0.026189562 0.0031398584 -0.0061654565 0.0019832405
-0.03478178 0.012760909 -0.036396272 0.004552443 -0.0077641527 0.03915568 0.005592238 -0.01975194
-0.01126367 0.030949954 -0.029800162 -0.00011105718 -0.023768922 -0.025885165 0.03373323 -0.014988695
0.01229072 0.029134525 0.03670694 0.018309133 -0.03515918 0.0005449162 0.0059375837 -0.0042524743
0.0047857966 0.003719495 0.010464945 0.02938273 0.01970052 -0.028462991 0.010007966 -0.009830397
0.03770027 0.023821713 -0.02370962 -0.024728814 -0.028701387 0.016444175 -0.009057997 0.007980187
-0.032269236 0.019440345 -0.013667906 0.036660492 0.035302512 0.013792686 0.008995754 0.026709298
0.0047884546 0.005149786 -0.014905604 -0.01860423 -0.020443575 -0.03150769 0.03385388 -0.005792536
-0.008358458 -0.0060004555 0.03820459 0.012792277 0.028472127 -0.025202524 0.01859387 0.014734512
0.0049823746 0.02276646 -0.014749356 0.007040689 -0.024161592 0.027605046 0.019749204 0.030364048
0.03845406 0.014455933 -0.024368279 0.0062421747 0.009087495 0.033770796 0.027573727 -0.03069302

fc2.weight f4 [10, 128]
00000000: cc1f 903c 9bc4 d5bd 5147 b63d 2bf2 e4bc
00000010: 2853 413d e00c 66bd d606 80bb f227 663d
00000020: d3e0 92bc b4c4 9bbd dd6a d63d 4077 ddbc
00000030: c095 8dbd 5c24 69bd c167 253d a07c 42bd
00000040: d252 4fbd eb91 a63c cda6 b73d b901 cd3c
00000050: c05c 8cbd d078 a4bd 089a 41bd 8b20 3a3d
00000060: 3aae 4a3d f73d 993d 195d 43bd 5ef6 ce3c
00000070: 88c3 273d 63fa 9ebd 6d7b 91bd dc73 cbbd
00000080: 246b 7abc eb0b 513c 151e b33d 0516 55bc
00000090: ac8a bcbc 452e 9c3d 0e7f c73d dc77 31bd
000000a0: e351 a73d 94b2 c7bd d4cb b1bd a733 cc3c
000000b0: 3003 85bd 5c79 393d ca2b cbbd b3f1 d93d
000000c0: 1e22 9bbd 2346 a7bd 652d 1f3d 154f a73d
000000d0: 8149 97bd 790e c5bd e6d8 593d b23c aa3d
000000e0: dc6b aaba cc2d 563c 7074 e0ba 430b 8dbd
000000f0: 5c82 cf3b 26ad 7d3c c693 b43d dd55 d1bd
00000100: 947a d9bc baa0 c73d 8199 c7bd 2925 da3d
00000110: 564c ab3d 5506 0a3d 2cea b5bc ac5d bcbd
00000120: 8dab babd 851f b33d d2a8 583d fba6 d0bc
00000130: 8c15 90bd a46b 913c e1d9 ccbd 3729 6ebd
00000140: 1028 debd 8c9d e93b 2e28 61bc 088a 933c
00000150: e459 af3c aa29 fa3b da18 843d 6023 363a
00000160: c3e8 d23d 5521 86bb 3eb2 973c a70b b03b
00000170: 75b6 91bd d6f4 af3d 1b49 5bbd 93d1 af3d
00000180: 373f f63c 850b 7dbd 9ee9 973d 9485 f2bd
00000190: e1d2 46bd 86c2 2ebc 902e b8bd 0df6 d53d
000001a0: 5743 9ebd 4705 78bc 2886 57bd b892 87b9
000001b0: cffa 1a3d 09c1 b5bd f06e ca3d 2c7f c8bd
000001c0: da96 82bd 9f5e 2fbd 3962 99bd 746c f9bc
000001d0: 720c 853c 0017 deba 87a9 76bd 02f8 8ebc
000001e0: b83f e0bd fdad 183d 14eb a7bd c2c5 a93d
000001f0: 36b9 be3d 8c7f be3d f6b0 be3d 5769 21bc
00000200: 0374 a6bd df36 94bc aee5 cbbc da3b b83c
00000210: b4d9 9abb 44ac a43b b9cd b9bd 821e ba3c
00000220: 2d54 8bbd fbd9 d23c c889 bbbd 8e88 7bbd
00000230: ec9f fbbd a13e e33b 744f 32bd eeb0 dd3c
00000240: c8d3 e3bc 8a05 26bd 2c6c 5e3d 59af a13d
00000250: 7421 603c 872b 943d b57e 9f39 a13d e83d
00000260: 42e2 81bd 3ab6 ac3d 5a5c 043d db9f d83d
00000270: 1771 babd f5eb 853c 0535 513d 7044 33bd
00000280: 4fa7 a6bd f939 89bc f59a 2fbd cf24 ebbc
00000290: 08d9 6fbc 9aa1 d2bb 37c9 7dbd cd97 c23d
000002a0: 26b5 c93c 80c2 cbbc fca6 a53d 823c bc3d
000002b0: 44f4 ef3d f93e e63d 6a5e c03b bcb4 d3bc
000002c0: 061c 273d c1df 0e3d d69e bb3c dcf7 18bd
000002d0: 69c5 5b3d c9a0 a13c efe2 dfbd 2673 1bbd
000002e0: 03ea 183d 2eac 98bd 4b8e 983b ca32 92bd
000002f0: 33f0 92bd af40 07bc afc3 28bc 0953 70bd
00000300: fc5c 973d 3de7 08be 4c64 843d 76fd bfbc
00000310: 3c69 80bd 0e6b 023d 2352 e6bd 25ef 43bd
00000320: f4a8 953d b838 93bd b11c a3bd 62dd 1b3d
00000330: 18dd b4bd 1dc3 7fbd 7a93 443c ca9c 2a3b
00000340: 2dbf e93d 3634 833d 3c68 26bd fcaa 0dbd
00000350: 8fd6 88bd 7212 253d 1630 89bd 9da3 703c
00000360: 631b 85bc 90cc d2ba 0348 fc3c fb77 3c3d
00000370: 7bbb 7d3d d2c6 8dbd 3d2f d7bc 0061 b23c
00000380: c55f 3d3d 13fa 883c 1938 78bd d945 3fbd
00000390: 8fde 483d 5747 e63a d43f e53d 9d21 6c3b
000003a0: 9c7a d8bd 01e1 c3bd 104b 413d 23bd 4f3d
000003b0: 79b8 82bd 427d a73d 8c62 37bd 34cc b7bd
000003c0: bc2f 9dbd c3a5 cbbd 9636 b83d 2d2d 8e3d
000003d0: baa8 7abb 9731 9cbd 50f0 c63d 3c6e b3bd
000003e0: 3cbd 8d3c 8d05 b83d 700e bfbd 8456 9dbd
000003f0: 02b2 283c d919 f7bd 0908 ce3d 41ca d0bc
0.017593287 -0.1043789 0.08900321 -0.027947506 0.047198445 -0.056164622 -0.003907065 0.05619044
-0.01792947 -0.076058775 0.10469601 -0.027034402 -0.06913328 -0.05691944 0.04038215 -0.047482133
-0.050616093 0.020333251 0.089673616 0.025025235 -0.06853628 -0.08030856 -0.047266036 0.04544119
0.04948256 0.07482522 -0.047696207 0.025263961 0.040957958 -0.07762601 -0.0710362 -0.09934208
-0.015284333 0.012759189 0.08745972 -0.013005738 -0.023015343 0.07626013 0.09741031 -0.043327197
0.081699155 -0.09750858 -0.08681455 0.024926974 -0.064947486 0.045281753 -0.099204615 0.106418036
-0.07574867 -0.081676744 0.03886165 0.081693806 -0.07387067 -0.09621901 0.053185366 0.08312358
-0.0013002115 0.013072442 -0.0017124545 -0.068869136 0.0063326787 0.015483176 0.08817248 -0.10221455
-0.026547708 0.09747453 -0.097460754 0.10651619 0.08364169 0.033697445 -0.022206388 -0.09197554
-0.09114752 0.08746246 0.052895375 -0.025470247 -0.0703536 0.017751522 -0.100024946 -0.058144774
-0.10847485 0.0071293768 -0.01374249 0.018010154 0.021405168 0.0076343613 0.064500526 0.00069480203
0.10298302 -0.004093329 0.01851761 0.005372483 -0.07114879 0.085916206 -0.053536516 0.08584895
0.03005944 -0.061778564 0.07417606 -0.11841884 -0.048540954 -0.010666495 -0.08993256 0.10447321
-0.07727688 -0.015137977 -0.052618176 -0.0002585852 0.037836846 -0.08874709 0.09884441 -0.09789881
-0.06376429 -0.042814847 -0.074894376 -0.030447222 0.016241286 -0.001694411 -0.060220268 -0.017452244
-0.109496534 0.037275303 -0.081991345 0.082896724 0.0931267 0.093016714 0.09311096 -0.009851775
-0.08127596 -0.01809257 -0.024889793 0.022489477 -0.0047256593 0.0050254185 -0.090724416 0.022719625
-0.06803165 0.025738707 -0.09157139 -0.061409526 -0.12286362 0.006934956 -0.043532804 0.027061906
-0.027810946 -0.040532626 0.05430238 0.07894773 0.013679851 0.07234865 0.00030421247 0.1133988
-0.063419834 0.084331945 0.032314636 0.10577365 -0.091036014 0.016347865 0.051075954 -0.04376644
-0.0813738 -0.016751276 -0.042872388 -0.028704075 -0.014639147 -0.006427956 -0.06195947 0.0950161
0.024622511 -0.024873018 0.0808849 0.091912284 0.11716512 0.1124248 0.00587063 -0.025843017
0.04079821 0.034881357 0.022902887 -0.037345752 0.053655062 0.019729989 -0.10931956 -0.03795161
0.037332546 -0.07454716 0.0046556345 -0.071385935 -0.071747206 -0.008255168 -0.010300561 -0.05867294
0.07390782 -0.1336946 0.064644426 -0.02343629 -0.06270072 0.031840377 -0.11246135 -0.047835488
0.07307616 -0.071885526 -0.07964457 0.038052924 -0.08831233 -0.062441934 0.011998052 0.0026033395
0.11413417 0.06406443 -0.04062675 -0.03458689 -0.06681549 0.040300794 -0.06698625 0.014687446
-0.01624841 -0.0016082693 0.030796057 0.04601286 0.061946373 -0.069226876 -0.026267642 0.021774769
0.04623391 0.016720807 -0.060600374 -0.04669747 0.049040373 0.0017568868 0.11193815 0.0036030777
-0.10570261 -0.095644005 0.047190726 0.050717484 -0.063828416 0.08178188 -0.044771716 -0.089744955
-0.0767512 -0.09943726 0.089947864 0.0694221 -0.0038247542 -0.07626646 0.09713805 -0.0876126
0.017302148 0.08985434 -0.093289256 -0.07682517 0.010296347 -0.12065477 0.10060126 -0.025487067

fc2.bias f4 [10]
00000000: 1f3a 8e3c d2b9 9bbd 2522 fb3c acaf 9d3d
00000010: aa7d 15bc e8f9 2cbd 6a83 923c 12f8 583b
00000020: 799f 9bbd ec00 d4bb
0.017361699 -0.07603802 0.03065593 0.076995224 -0.009124199 -0.042230517 0.017884929 0.0033106846
-0.07598776 -0.0064698365
