models/Experiment 4/Trained on normal data/cnn_model_cons0.pt (torch, 456415 bytes, 8 tensors)

conv1.weight f4 [32, 1, 3, 3]
000000 fb af 47 3e d5 72 a1 3e 99 e3 dd 3e 5b 31 bf bd
       0.19500725 0.31532922 0.43337706 -0.09335586
000010 fc ec b2 3e 03 35 e3 3e 4a 67 ac bc c0 8b 00 3e
       0.3494643 0.44376382 -0.021045346 0.1255331
000020 b3 37 0b 3e 41 8d 07 be 3d 63 ac be 6b 83 bc be
       0.13595466 -0.13237478 -0.33669463 -0.36819014
000030 3a 7b a9 be 34 69 9b bb 5f 7a e6 3c 08 85 b5 be
       -0.33101827 -0.004742766 0.028134523 -0.35453057
000040 82 e1 92 3e db 80 fc bd 9c ec 5f bd ca d2 54 be
       0.28687674 -0.12329265 -0.054669008 -0.20783535
000050 ee 06 b8 3e 75 de 90 3e cb df ac 3e d3 ee 4f be
       0.35942787 0.2829472 0.3376449 -0.20305948
000060 3a e2 4d 3e dd 2b 66 3e 31 96 ae 3e 98 e8 df 3e
       0.2010583 0.2247767 0.34098962 0.43732142
000070 88 ff cd bd 0c c2 91 3e 95 54 c4 bd be 62 1c 3e
       -0.10058504 0.2846836 -0.09586445 0.15272042
000080 7e 03 aa bd 81 9f c8 be 02 6b 6b be 6f 8d 81 be
       -0.08301447 -0.39184192 -0.22990039 -0.25303218
000090 1e 1c 38 3e 1e e5 35 bd 4e 78 47 3e f8 c5 d8 bd
       0.17979476 -0.044407956 0.19479486 -0.105846345
0000a0 9b a6 e3 3e d3 54 9d 3e 60 33 aa bd ae 87 d3 3e
       0.44463047 0.30728778 -0.0831058 0.41314453
0000b0 af 22 6f 3d df 4f a1 be c4 73 97 bd 52 d8 bf bd
       0.058382686 -0.3150625 -0.073951274 -0.09367432
0000c0 71 ad d0 3e 08 da e9 bd 46 09 cf 3e 5b 68 0b 3e
       0.40757325 -0.11418539 0.40436763 0.13614027
0000d0 7e 2d 9e 3e ab a2 25 be 32 d2 be be b8 9a 84 bc
       0.30894083 -0.16175334 -0.3726974 -0.016187057
0000e0 5e 1b 12 3e 58 37 53 be 18 74 4c bd 9f df b6 3e
       0.14268252 -0.2062658 -0.049915403 0.35717484
0000f0 be 72 b9 bd fa 6b bc 3d 92 5b 75 3e f5 21 6c 3e
       -0.090550885 0.092002824 0.23960713 0.23059829
000100 17 46 0f 3e 02 22 06 3e ec 67 b5 3a d2 bf 4c 3e
       0.13991581 0.1309891 0.0013840175 0.19995049
000110 65 17 db 3d 59 40 89 be 2e 97 ad be 93 26 60 be
       0.106978215 -0.26806906 -0.33904403 -0.21889715
000120 73 46 5e 3e 3f 5f c0 3e 83 6a b1 3e a7 d4 05 3d
       0.21706562 0.37572667 0.34651574 0.032673504
000130 2d f6 23 be 46 0d 29 3e a4 9b af 3e 86 4b 98 3e
       -0.16011877 0.1650897 0.34298432 0.2974512
000140 2e 56 c8 3e eb 78 c1 bd 2b b6 08 be 9f 1c cd 3e
       0.3912825 -0.094468914 -0.13350742 0.400609
000150 15 0d 61 be 9a 95 b3 3e 01 55 9b 3d e7 ef 92 3e
       -0.21977647 0.35075074 0.075845726 0.28698656
000160 cb 83 90 3b 95 a5 b1 3e 65 bc 7f 3e f7 74 15 3e
       0.004410242 0.34696642 0.2497421 0.145954
000170 51 06 aa bd 99 b6 b3 bd 2e 19 70 3e b9 50 49 3e
       -0.08301986 -0.08775062 0.23447105 0.196597
000180 b4 e0 1a be 0f c4 fb 3e cf 24 d2 3e ba c6 e7 3e
       -0.1512478 0.49173018 0.41043708 0.45268804
000190 c8 0c 54 3e 60 49 98 3e 05 a1 46 be 58 0b 17 3e
       0.20708 0.2974348 -0.19397362 0.14750421
0001a0 c3 d5 41 be 88 03 da be 14 91 bb be 1f db 1b be
       -0.189292 -0.4258082 -0.36634123 -0.15220307
0001b0 e0 9d af 3e ac 0f ab 3e 9c 8c a9 3e 7c 56 c0 3e
       0.34300137 0.33410394 0.3311509 0.37565982
0001c0 94 b3 f6 3d ce 16 1c bd 23 24 d1 3e 2c 3a e0 3e
       0.120459706 -0.038107686 0.40847883 0.43794382
0001d0 5d e1 e1 3d 92 d0 30 39 18 74 db 3e a4 c2 d2 3e
       0.11029313 0.00016862366 0.4286201 0.41164124
0001e0 e1 1b 19 be 20 e2 a7 3d 31 59 13 3d 7e 9e e9 be
       -0.14952041 0.08197427 0.03597373 -0.45628732
0001f0 99 5a 95 be 9b 93 bc bc 59 25 b3 bd e5 7c af be
       -0.29170683 -0.023019603 -0.08747358 -0.34274974
000200 f8 32 97 3a 78 21 91 3b da 5d 7c be 61 ee 98 be
       0.0011535576 0.0044290386 -0.24645177 -0.2986937
000210 ca ad 01 3f 59 5a 49 3e ba 6f af 3c b2 72 a9 3c
       0.50655806 0.19663371 0.02141558 0.020684574
000220 fe 59 13 3e 13 fe 85 be 3b 73 91 3d fa a4 c2 be
       0.14389798 -0.26170406 0.071020566 -0.38016492
000230 82 c6 58 be 54 c5 a7 be 28 56 05 be 2f 91 0b 3f
       -0.21169475 -0.32767737 -0.13021147 0.5451841
000240 8a f0 e3 3e 61 df f8 3d ea 1b f9 3e 84 de 38 3e
       0.44519454 0.12151981 0.4865411 0.18053633
000250 95 47 37 3e 4a 88 f7 3e c9 28 fb bd 2f 32 02 3e
       0.178984 0.48346168 -0.122636385 0.12714456
000260 fc 5d 02 be 91 c5 e4 3d 06 f0 7a be 99 db da bd
       -0.12731165 0.11170495 -0.24505624 -0.10686416
000270 d7 a8 eb 3e f5 4d 9b 3e 2b 50 3a 3e 96 4b ba 3e
       0.46027252 0.30332914 0.18194644 0.36385792
000280 43 4e 9e 3d 28 6d bf 3d 11 1b af be fb df 8f 3d
       0.07729771 0.09346992 -0.34200338 0.07025143
000290 d0 29 15 be 8a fc cd 3d 1c 0e 5a bd 57 1d cf 3e
       -0.14566731 0.10057934 -0.053236112 0.40452072
0002a0 52 d7 26 be 77 ba c8 3e 59 71 9c 3e 0c cf 41 be
       -0.16293076 0.3920476 0.30555227 -0.18926638
0002b0 c5 af b9 3e c9 f7 27 be 6b 82 b8 3e aa a0 de 3e
       0.36266914 -0.16403116 0.36037 0.43481952
0002c0 75 8e 1f 3e 28 5c 1b 3e 72 56 bd 3e 45 71 e1 3c
       0.15581687 0.15171874 0.36980015 0.027519831
0002d0 f4 b8 e2 3e ea 06 2e 3e b5 bf d3 3d fe 60 ea bc
       0.44281733 0.16994825 0.103392996 -0.028610703
0002e0 51 02 be bb e1 c5 b0 3e 03 cb d4 be ce c9 58 be
       -0.005798616 0.3452597 -0.41561136 -0.21170732
0002f0 38 3b 85 be a8 49 90 3c 55 8c 33 be 79 2f 83 3d
       -0.26021743 0.017613247 -0.17534001 0.06405539
000300 e9 1c 14 3e a0 1b c4 3e 34 44 2a 3e 4c 27 1e be
       0.14464153 0.38302326 0.1662758 -0.15444678
000310 1a 68 65 bc 30 2e 81 be 24 70 c3 be bd 10 b1 be
       -0.0140018705 -0.2523055 -0.38171494 -0.34583083
000320 de 33 03 be 8c e6 a0 3e 7f 95 41 be 69 50 0a be
       -0.12812755 0.31425893 -0.18904684 -0.13507237
000330 9b a4 92 3e b3 b1 02 bd 76 a6 e0 3e 27 f7 ad bd
       0.2864121 -0.03190775 0.43877 -0.08494406
000340 40 32 a3 bd 25 3b 8f 3e 32 4d c8 be 17 21 8a be
       -0.07968569 0.2797481 -0.39121395 -0.2697837
000350 17 49 ae be 12 df 3a bd 92 2d 06 3e 34 8f 7d be
       -0.34040138 -0.045622893 0.13103321 -0.24761659
000360 dc e4 bc 3d 14 c9 30 3e 05 1b 8d be 32 41 bf 3e
       0.09223339 0.17264205 -0.27559677 0.37354428
000370 0e c2 d0 3e a6 a4 95 3e b4 1a 9f 3e 98 26 cf 3e
       0.40773052 0.2922718 0.3107506 0.40459132
000380 9b 53 d0 3e f5 c5 ab 3e 2d da ad 3e 70 c7 11 3e
       0.40688786 0.33549467 0.33955517 0.14236236
000390 1d 92 d7 bc 63 b5 0b 3e 3e 2c 90 3e 0b 73 29 3e
       -0.02631479 0.13643412 0.28158754 0.16547792
0003a0 49 58 d7 3e f2 65 2c 3c 71 53 a1 3e e3 e5 ae 3e
       0.42059544 0.0105223525 0.31508973 0.34159765
0003b0 95 04 f1 3d b9 f8 6e be 05 a8 81 3e 3c b6 ae 3d
       0.11768452 -0.23337068 0.253235 0.08530852
0003c0 ee 3a 48 be 02 7e ca be 6e 4e 46 bd a3 68 96 bd
       -0.1955373 -0.3954926 -0.04841464 -0.073441766
0003d0 73 7a 73 3d 8b 18 b1 3e 26 be 2b be ad e0 9e 3d
       0.05944295 0.34589037 -0.16771755 0.07757697
0003e0 12 5e e3 3d de 76 05 be 03 ce 40 3e 82 80 d4 3d
       0.11101927 -0.13033625 0.18828587 0.103760734
0003f0 92 62 3e 3d 61 6b 7c be f3 59 a0 be 03 35 51 be
       0.046480723 -0.24650337 -0.31318626 -0.20430379

conv1.bias f4 [32]
000000 89 76 02 ba 4d a6 58 3e b4 75 44 3d 30 17 24 3e
       -0.00049767696 0.21157189 0.047963813 0.1602447
000010 aa d5 3a be c3 b4 b9 b7 83 92 05 be d6 88 44 3d
       -0.18245569 -2.2137892e-05 -0.13044171 0.04798206
000020 79 a6 5f bd a8 1f 27 be 19 63 01 3d 7e f7 09 3e
       -0.05460212 -0.1632067 0.031588648 0.13473317
000030 2d 83 8b 3d 1a ec a6 3b d8 ac 47 3e ba 9c b6 3c
       0.06812129 0.0050940635 0.19499528 0.02229153
000040 4e df 5e bc 8f 84 bf b8 d4 95 3e 3a e2 b9 31 3e
       -0.013603045 -9.132281e-05 0.0007270251 0.17356065
000050 9b 51 8b 3d f7 79 89 b9 c6 16 b2 3e a8 36 79 3e
       0.068026744 -0.00026221547 0.34783 0.24337256
000060 0b a1 88 3d 11 52 43 be 6d 7b 95 3e 26 c9 2e 3c
       0.066713415 -0.19074275 0.2919573 0.010668075
000070 ad fc 69 3e 15 ce 21 3d 80 47 89 3c 70 0e 87 3e
       0.22850294 0.039503176 0.016757727 0.26378202

conv2.weight f4 [32, 32, 3, 3]
000000 9d 30 16 3d 01 87 8e 3d c8 b1 d7 3d ee cb 6a 3d
       0.036667455 0.06959344 0.10531956 0.05732339
000010 ec 2d a2 3d 77 03 c0 bd da 78 17 3d f3 64 d9 bd
       0.07918915 -0.09375661 0.036980487 -0.10614958
000020 93 48 5e bc f9 8c 31 3d 96 cb a7 bc bf a3 8e bd
       -0.013567108 0.043347333 -0.02048282 -0.06964826
000030 89 f0 be 3c 49 6c 04 bd 1f 18 9a 3d 9b fa 2b bd
       0.023308055 -0.03232983 0.07524132 -0.041987043
000040 10 9b 49 bc 4a 56 92 3b 42 24 ab bc fa 91 05 3e
       -0.012305036 0.004465853 -0.020891313 0.13043967
000050 68 27 b6 3d 9f 2f b3 3d aa fc 80 3d e0 24 d8 bc
       0.08894235 0.087493174 0.06298192 -0.02638477
000060 07 59 1a bc 09 c3 94 bc e4 b2 bb 3c 7c b4 a7 bd
       -0.00942064 -0.018159406 0.02291245 -0.081887215
000070 31 ff 08 bb ab 55 24 3e a5 18 89 3d 73 cd 0f 3e
       -0.002090406 0.16048305 0.06694154 0.14043216
000080 92 3b b4 3d a8 02 db 3d 0c c5 bc 3d 17 f5 c6 bb
       0.08800425 0.10693866 0.09217271 -0.0060716975
000090 d9 01 81 3d 27 9e 08 3e a0 68 9c 3d b2 8c 32 3d
       0.062991805 0.1334158 0.07637143 0.04359121
0000a0 40 18 7d bb b9 7a 04 be 06 ed 64 3d 9e 3a 28 be
       -0.003861919 -0.1293744 0.055890106 -0.1642861
0000b0 c2 eb 61 bb 82 d2 ca 3d 24 34 49 3e c8 51 ca 3d
       -0.0034472798 0.099034324 0.19648796 0.0987888
0000c0 da dd 63 3e c6 56 56 3d 3a 37 e6 bd 15 93 55 3d
       0.22252598 0.052328847 -0.112410024 0.05214222
0000d0 33 0f 71 bc eb d9 91 3d 8c 6e 8d 3d 0f f7 24 3e
       -0.014713096 0.07121643 0.06905851 0.1610987
0000e0 27 49 2b 3c d9 c8 4b 3e bb b9 ec bd ec 8c f2 bd
       0.010454453 0.19900836 -0.11558863 -0.11843285
0000f0 20 67 c0 3b f3 6b 84 bd ca b1 8d 3d 1d 78 9f bd
       0.0058716685 -0.06465902 0.06918676 -0.07786582
000100 cc a9 43 3d 88 ed 1d 3e 60 34 92 3d 15 45 34 3e
       0.047769353 0.15422642 0.07138896 0.17604478
000110 54 f0 ec 3d 95 05 25 3e 15 bf c9 3d 55 36 5a bd
       0.115692765 0.1611541 0.09850899 -0.05327447
000120 44 82 58 3d 43 55 9e 3d c5 9f 8d 3d 66 d2 32 3d
       0.052858606 0.07731106 0.06915239 0.043657683
000130 56 17 c1 bc 64 06 dc bd da 4f 11 bd b9 a6 06 be
       -0.023570698 -0.107434064 -0.035476543 -0.13149537
000140 e5 3e 9c bd 59 61 e5 3d 22 13 b9 3d 81 4a f9 3c
       -0.07629184 0.11200208 0.090368524 0.030431034
000150 cc e8 11 3e cc 7a d9 3c cc 9a f5 bd 6a 51 ba bc
       0.14248961 0.026547812 -0.11992416 -0.0227439
000160 b2 31 f5 bd 03 04 6a 3d 0f 1e 95 3c 4a 70 d9 3d
       -0.11972369 0.057132732 0.01820281 0.106171206
000170 65 0e c6 3c ca eb 6e 3d a4 a6 52 bd 5c e8 1e 3b
       0.024176786 0.058330335 -0.051428452 0.0024247384
000180 d9 3f 02 bd bb 21 75 bd 71 a2 56 3d b8 1a 8d 3b
       -0.03179917 -0.05984662 0.05240101 0.0043061636
000190 b0 eb df 3c 67 bd 3c 3e 81 07 ac 3b af 5c fb 3d
       0.027334064 0.18431626 0.005249918 0.12273537
0001a0 f6 6d f9 3d 60 88 e6 3d 6d 50 16 3e 3f 9a f9 bc
       0.121791765 0.1125648 0.14679118 -0.030469058
0001b0 99 e8 67 bd e3 f9 ae 3c b4 77 b9 3d c0 bf fe 3c
       -0.056618307 0.02135939 0.09056035 0.031097293
0001c0 f7 70 ae 3d 84 8c a7 bd 85 a2 b6 3d 8b 7d 82 bd
       0.0851764 -0.08181098 0.08917717 -0.06371602
0001d0 61 1e bc bd e7 6f c3 bd a6 a8 ad bc a0 22 ea 3d
       -0.09185482 -0.09542828 -0.021198582 0.114323854
0001e0 7a 23 a3 bd f8 5e de 3d e4 40 9b 3c e0 0e 52 bc
       -0.07965751 0.108579576 0.01895184 -0.012820929
0001f0 75 9f 1e be a7 72 1f be e8 48 05 3d 8f 67 a4 bd
       -0.15490516 -0.1557108 0.032540232 -0.08027565
000200 1a d8 ec bd 69 5a a9 bd b1 28 07 be f9 4e 0c bd
       -0.115646556 -0.082691975 -0.13199116 -0.034255
000210 0d 43 b3 bd e0 a4 b3 bc 02 98 f6 bc b7 99 59 3e
       -0.08753023 -0.021929204 -0.03010178 0.21250044
000220 76 2c 1f 3e 8b 92 27 3d 06 a1 7e 3e 24 56 16 3e
       0.15544304 0.04091124 0.24866113 0.14681298
000230 0a a5 a2 3e 62 6a f6 3d 82 dd 39 3e 35 b5 5d 3e
       0.3176654 0.1203201 0.18150905 0.21651156
000240 19 57 44 bd d4 54 8f 3d a2 84 88 3d da 29 4e 3d
       -0.047934625 0.069986016 0.06665923 0.05033288
000250 b1 27 85 3d 36 a0 8e 3c 1c 91 85 3c 50 79 97 bd
       0.06501711 0.017410379 0.016304545 -0.073961854
000260 43 fa a1 bd ea 16 71 bd 41 80 19 3d bc b6 96 3d
       -0.07909062 -0.058859743 0.037475828 0.073590726
000270 89 13 4c 3d 8f ff e7 bc e1 12 0c be b0 00 da bc
       0.049823318 -0.028320102 -0.13679077 -0.026611656
000280 2e 70 55 3b cb 11 c3 bb 57 13 04 3e 7c 59 8b 3d
       0.0032568085 -0.005953049 0.12898003 0.06804177
000290 9a 50 e6 bc 1b 42 eb 3d f6 a1 d7 bd b4 2c 35 bd
       -0.028114606 0.11487218 -0.105289385 -0.044232085
0002a0 6d e4 66 3d 5e 59 d7 bc 8b f4 0a 3e 42 90 74 3d
       0.056370188 -0.02628773 0.13569848 0.059707887
0002b0 a8 13 29 3c ef c8 ca 3d 60 5e 95 3d de 5a aa 3d
       0.010319628 0.09901606 0.07293391 0.08318113
0002c0 3d af 0f bd c6 50 a9 3d 7c 47 e5 bd 07 38 d1 bb
       -0.03507923 0.082673594 -0.11195275 -0.006384853
0002d0 d1 0f ab bd ea cd be 3c 31 c3 b7 3d 3c ec 5f 3d
       -0.08352626 0.023291547 0.08972777 0.05466865
0002e0 d9 4d d5 3d 2e cd 7b 3d 85 56 d6 3d c1 d4 96 3d
       0.10415239 0.06147497 0.10465721 0.07364798
0002f0 6d 33 3f bd 3d 49 3a 3d f5 b7 2b 3e 4e fd 1d 3e
       -0.046679903 0.04548 0.16769393 0.1542866
000300 62 ff 7b 3e 34 f5 f9 3d 8d 71 11 3b e4 16 13 3e
       0.2460914 0.12204972 0.0022192926 0.14364201
000310 f2 de d1 3c 38 ec a1 3d 9b 29 e6 3c b4 70 8f 3d
       0.025619004 0.07906383 0.02809601 0.07003918
000320 60 b1 a5 bd fb a0 39 3d d9 24 76 bd 10 d9 e1 ba
       -0.08090472 0.04531954 -0.060093734 -0.0017230827
000330 cd 6e d6 bc 7c 71 27 bb 7b a8 88 3d 9c ac 8f ba
       -0.02617588 -0.002554982 0.0667276 -0.0010961476
000340 97 72 49 bc 28 66 a1 bd 27 d5 07 be 29 27 81 bd
       -0.012295387 -0.07880813 -0.13264905 -0.06306297
000350 ff 16 0f 3d 65 ba ae bc 27 48 f3 bc 54 4d d1 3a
       0.03493404 -0.021329114 -0.02969749 0.001596848
000360 00 bd df bb 94 47 2e 3d fa 21 f2 3c 73 b0 a4 3c
       -0.0068279505 0.04254873 0.029557217 0.020103669
000370 5d 1a 4e bd 35 9c 0a be 13 17 e1 bc 99 35 d7 bc
       -0.05031811 -0.13536151 -0.027476823 -0.026270675
000380 1b 13 93 3c 76 8b 26 bd 65 0b 87 3d 64 7e 70 3d
       0.017953446 -0.040660344 0.0659397 0.058714285
000390 4c d0 ae 3c 7c d9 0a 3c d4 a8 a2 bd 53 b1 92 bc
       0.021339558 0.008474704 -0.07942358 -0.01790682
0003a0 2d 72 08 be c8 3d 37 bd d1 c7 a1 bd e7 44 97 bb
       -0.13324805 -0.044736654 -0.0789944 -0.004616368
0003b0 bf c4 1a 3d ea 64 1e 3d 16 7f 95 3d ce f6 c2 ba
       0.037785288 0.038670458 0.0729963 -0.0014874579
0003c0 74 f4 c9 3d f5 16 44 bd 73 8e 43 bd 5b 9f 84 3d
       0.09861079 -0.047873456 -0.047743272 0.06475707
0003d0 e4 ed c7 3d 93 9c 8f 3d 86 27 1b 3e 5e d4 22 bd
       0.09762171 0.07012286 0.15151796 -0.03975331
0003e0 11 03 ae bb 66 12 48 3d fd e0 7b bd b3 5f 75 bd
       -0.005310424 0.04884567 -0.061493862 -0.05990572
0003f0 06 73 49 bd 4a 85 8e bd 33 15 ea bd 43 d4 0b be
       -0.04918196 -0.069590166 -0.11429825 -0.1365519

conv2.bias f4 [32]
000000 d8 35 62 bd 61 7a f5 bc 17 f3 66 3c 26 cc 2b 3c
       -0.05522713 -0.029965581 0.014096043 0.0104856845
000010 7e 8e 8f bd 38 e5 78 bd c2 46 38 bd 35 88 ea 3b
       -0.070096 -0.060765475 -0.044989355 0.0071573504
000020 1d 47 56 ba 30 75 86 3c b3 1e cf bc 75 16 3b 3c
       -0.0008174049 0.016413301 -0.025283193 0.011418928
000030 81 5d a8 3d 02 00 cd 3c 76 38 35 bd 2c b3 b1 ba
       0.082209595 0.025024418 -0.0442433 -0.0013557426
000040 80 cf 00 bd 96 4d ef bc 69 54 67 bd dd c9 8b bc
       -0.031447887 -0.0292118 -0.056476984 -0.01706403
000050 d3 3c 51 3b df a5 3c bc 20 ea 52 3d 49 a2 04 3b
       0.0031927123 -0.011514156 0.05149281 0.002023833
000060 48 42 d8 3b 07 bc fd 3c 17 68 05 bd 9d e1 08 3d
       0.006599698 0.030973447 -0.03256997 0.033418287
000070 d9 36 a4 bd 69 0e d1 bc f7 72 5e bd ab 49 65 bc
       -0.08018274 -0.025519567 -0.054308858 -0.013994615

fc1.weight f4 [128, 800]
000000 a9 87 4e 39 3d f7 5a bd 55 54 1a bd b0 bb 40 bd
       0.00019696228 -0.05345844 -0.03767808 -0.047053993
000010 ba 51 b2 bd 23 a1 06 3d 8e 9c 59 3d 77 a6 12 bd
       -0.08706994 0.032868516 0.053127818 -0.035803284
000020 51 c9 a5 bc 72 1b 6e bd 95 2e 75 3d 6a 5f 82 3d
       -0.020237597 -0.058131643 0.059858877 0.06365855
000030 f6 93 6c bb 3c 7f e0 bc 76 e3 23 3d 7b dc ca bb
       -0.0036098934 -0.02740442 0.040011846 -0.006190834
000040 cc 24 ff bb 2a de c8 bc 32 8b 71 3c 5b ab a3 bc
       -0.007786369 -0.024519999 0.014742659 -0.01997917
000050 6f 10 0d 3d 6a 8b 7b 3c bb 8b 06 bc ff 92 d3 bc
       0.0344395 0.015353063 -0.008212025 -0.02582693
000060 05 57 83 3c 20 fd e5 3c 63 f9 af bc e5 88 2a 3d
       0.016032705 0.028074801 -0.021481222 0.04163446
000070 c0 5a 16 3d 2c 0f a6 3c 40 c8 a4 bc 25 13 05 bc
       0.03670764 0.020270906 -0.020115018 -0.00812224
000080 07 9b 8f 3b 95 b6 5a 3c 23 33 f4 3c f8 fc 16 3c
       0.0043824944 0.013349195 0.02980954 0.009215586
000090 ce f1 7d bc 8f 4c dd bc 3f 5b 0b 3d 16 c1 32 3c
       -0.015499545 -0.027014045 0.034022566 0.010910293
0000a0 ed 0e 21 bd e9 b1 37 3b a2 c8 6f bc 2c f5 c6 3c
       -0.039320875 0.0028029627 -0.014635237 0.024286829
0000b0 ce ce b7 3c 60 21 b5 bc 58 dd f4 bc e7 0a 4b 3c
       0.02243748 -0.022110641 -0.029890701 0.012392736
0000c0 2c 48 d3 3c c8 3f 6f bb 34 ee 06 3c 2d e1 51 bb
       0.02579125 -0.0036506522 0.008235503 -0.0032025084
0000d0 53 c4 d9 3c 92 f4 f4 3b 6b 32 43 3c fa 9f 65 ba
       0.026582872 0.007475444 0.011913876 -0.0008759495
0000e0 77 e4 57 3c c7 1a 8f 3c 4f ae ea 3b 71 b1 a4 3c
       0.013177029 0.017468823 0.0071618925 0.020104142
0000f0 80 a1 27 bc 61 04 03 3d b6 43 32 3d 47 49 e8 3c
       -0.010231376 0.031986598 0.043521605 0.028355254
000100 ae ae fa 3c 83 ba 73 bc bb d7 f3 bc 5a a0 39 bd
       0.030600872 -0.014876011 -0.029765954 -0.04531894
000110 4d ef f7 3c a0 d8 f6 bc 15 9a 9a bc a9 69 b4 3c
       0.030265475 -0.030132592 -0.0188723 0.022023039
000120 1f 05 e6 bc ae 63 c5 bc 47 ac ad 3c ef de 69 3c
       -0.028078614 -0.024095383 0.021200312 0.014274343
000130 8e 44 01 bd 2b 31 c7 3b b7 e6 9f bc c1 15 e1 3c
       -0.03155952 0.0060788593 -0.019519193 0.027476193
000140 32 95 08 3d 01 db 14 bd fe 55 50 3c 14 af 39 3d
       0.03334541 -0.03634167 0.012715815 0.045332983
000150 cb 2e eb 3c 5e 42 28 bc 68 03 32 bd 0a c7 40 3c
       0.028708836 -0.010269729 -0.04346028 0.011766205
000160 9b 18 0a 3d 1f a3 cb 3c 05 0f 88 bc fc bc e4 3c
       0.03371487 0.024858056 -0.016608724 0.027922146
000170 4e 25 cb 3c ff 78 c4 bc bf f8 38 bc 29 5e f9 3c
       0.024798062 -0.023983477 -0.011289774 0.030440407
000180 e2 79 b4 bc e5 f0 ff b9 a0 e2 eb 3c 2e 28 f1 bc
       -0.022030775 -0.0004881687 0.028794587 -0.029438104
000190 a9 8a 2c 3d b5 ad 98 ba a9 f6 c7 3c 89 66 7a bc
       0.042124424 -0.0011648448 0.024409609 -0.015283235
0001a0 6a 66 d3 bb 16 a2 c8 3b a0 0f 30 3c d9 10 9f bb
       -0.0064514177 0.006122838 0.010745913 -0.0048543033
0001b0 f5 db 8a 3c 2c 91 db bc 59 17 d3 3c 1c f3 d6 bc
       0.016950587 -0.026802622 0.025767969 -0.02623897
0001c0 0f a2 e9 bc e4 d7 37 bc 16 a4 4f bd 6e 2a 00 bd
       -0.028519658 -0.011220906 -0.050693594 -0.031290464
0001d0 8e db d6 bb cd 28 e7 3c b5 41 35 bd 3f 86 29 bd
       -0.0065569347 0.028217698 -0.044252116 -0.041387793
0001e0 c7 f4 18 bc da 48 a9 3c 1f c8 17 bd cb fc 0b 3d
       -0.009335703 0.020664621 -0.037056085 0.03417663
0001f0 6a 57 e0 3c 00 61 e2 bc bc 05 9c 3c 8a 18 67 ba
       0.027385432 -0.027634144 0.019045703 -0.0008815607
000200 8d e8 0e 3d 49 b7 a8 3c ec be 39 bd ae 08 0c bd
       0.034889746 0.02059521 -0.045348093 -0.034187965
000210 78 36 2d 3c d7 b6 a7 3b 60 9a 4a bb 3c 8c fb 3b
       0.010572068 0.0051182318 -0.0030914769 0.0076766293
000220 e3 37 3b bd 09 8d 8a bc 9a c2 bd bb f7 3b f0 ba
       -0.045707595 -0.016912954 -0.0057910206 -0.0018328418
000230 8d 29 3e 3c c4 74 a2 3c fb d8 5c 3b 4c 91 8f 3c
       0.011606586 0.019831069 0.0033698666 0.017525338
000240 00 72 65 bc 73 3c 9f 3c a5 cc cd bc ce 59 09 3a
       -0.0140042305 0.019438004 -0.025121996 0.0005239517
000250 0c a6 a1 ba 05 e8 5b bc 0d 10 06 3d 5c f7 3d 3d
       -0.0012332811 -0.013422017 0.03273015 0.04637848
000260 39 93 d7 bb 96 3d 90 3d 8a 70 d3 bc 7c 51 59 3c
       -0.0065788296 0.070429966 -0.025810499 0.013264056
000270 32 3c 5d 3d 92 b9 73 bd ac f8 75 bd e9 f8 e8 bc
       0.054012485 -0.059503146 -0.060051605 -0.028439002
000280 1a 45 11 3d b7 2a e6 3c 5f a5 1b 3b 63 c5 36 bd
       0.03546629 0.02809654 0.0023749692 -0.044621836
000290 88 a6 a3 bd 1b a0 ed bb 8d 39 97 ba 6c 29 a0 3c
       -0.07990748 -0.007251752 -0.0011537537 0.019551001
0002a0 68 e0 b4 3c 50 84 02 bd 04 5d 85 bb c2 8c 96 3b
       0.022079661 -0.031864464 -0.004069926 0.0045944164
0002b0 c6 3f 8a bb 1f 55 ec 3b 2f 05 2d bc e1 32 6f bd
       -0.004219028 0.0072122957 -0.010560318 -0.05839813
0002c0 31 34 62 3c e4 d5 c4 ba 70 91 17 bc 6a 0d 63 3c
       0.013806389 -0.0015017358 -0.009250984 0.013858179
0002d0 f0 57 10 bd ea 69 82 3c 36 ba a2 3c ec 3f 56 3d
       -0.035240114 0.015919644 0.019864183 0.052307054
0002e0 12 4a af 3d d2 5d 31 bd a9 88 dd bc 58 9d 7b 3c
       0.0855905 -0.043302365 -0.027042704 0.015357338
0002f0 33 de 89 3d ee 0c 47 3d 0e a8 bc bc ec 38 d5 3b
       0.06731834 0.048596315 -0.023029353 0.0065070298
000300 ff 7f d3 3c bf b0 30 3c 38 4c 88 3b 5b 69 8e bc
       0.02581787 0.010784327 0.0041594766 -0.017384222
000310 bd 07 06 bd f7 e7 d8 bc b4 b7 a2 3c ca 5a 89 bc
       -0.032722224 -0.026477797 0.019862987 -0.016766924
000320 37 ac f9 3b 75 1f 84 bc 22 0f 87 bc c3 d7 90 3c
       0.0076194066 -0.016128281 -0.016486708 0.017681008
000330 71 bc 42 3c cf b3 b1 bc 38 37 91 3c 38 ba 38 3c
       0.011885748 -0.021692185 0.017726526 0.011274867
000340 90 29 e3 3b 77 3c f7 bc 15 eb 6c bc 24 ea 54 3c
       0.006932445 -0.0301802 -0.014460345 0.012995277
000350 0d a0 ea bc ab 42 bd 3c fa 7b 20 3d 2f f7 ba 3c
       -0.028640771 0.023103079 0.039180733 0.022822944
000360 28 4b 41 3b 85 59 e6 3c 75 9a 87 3c 86 00 d5 3c
       0.002949426 0.028118858 0.016553143 0.026001226
000370 c2 27 18 bc f7 62 61 3d 9a 37 0a 3d a2 08 27 bd
       -0.009286823 0.05502602 0.033744432 -0.040779717
000380 55 80 93 bc 39 0d 08 bc ec 26 8e 3c c5 20 4d 3b
       -0.01800553 -0.008303934 0.017352544 0.003130005
000390 93 97 5b 3d 7b 12 1d bc eb 0d 29 3c b9 8e 36 bd
       0.05361135 -0.009586926 0.01031826 -0.044569705
0003a0 04 b7 fa 3b dd 8b e6 3c 4d c3 e0 bb 45 01 5c bb
       0.0076512117 0.028142864 -0.006859219 -0.0033570093
0003b0 f1 68 13 bd 2c a9 93 3b 0e e6 d9 bb 66 67 b1 bc
       -0.03598875 0.004506251 -0.006649739 -0.02165575
0003c0 48 fc 8d bc 23 32 90 3c e5 b0 93 3c 89 eb ac bc
       -0.017332211 0.017602032 0.018028686 -0.021108406
0003d0 d9 65 cf 3c 6f 44 16 bc 61 23 c8 bc 82 21 0c 3c
       0.02531712 -0.009171589 -0.024430932 0.008552911
0003e0 cb 53 ca bc d2 50 c9 3b 17 13 c2 bc 31 7a a5 bc
       -0.024698159 0.0061436677 -0.023690743 -0.020199867
0003f0 0d e7 ec 3c 7f 63 14 3d 84 6b 9b 3b 90 d6 dc bc
       0.028918767 0.0362277 0.0047430415 -0.02695778

fc1.bias f4 [128]
000000 52 a4 fe bc 08 cd b5 3c 63 d3 5b ba 45 5a d8 bb
       -0.031084213 0.022192493 -0.0008385686 -0.006602558
000010 cd 31 83 bc 78 79 f8 3c 3a 83 d8 3c 59 d1 5d bc
       -0.016014958 0.030331358 0.026429761 -0.013538682
000020 3c 46 e5 3c 0a 22 34 3c 50 34 de bc ad a3 14 3d
       0.027987592 0.010994444 -0.027124554 0.036288906
000030 99 0e 68 3c 1d 4b 16 bd 53 34 8b 3c 37 b9 09 bd
       0.014163637 -0.036692727 0.016992724 -0.0336239
000040 e0 90 08 3d 30 a0 7a 3c 84 21 77 bb 62 02 ae ba
       0.03334129 0.015296981 -0.0037709186 -0.0013275857
000050 33 db d2 ba 67 89 0f 3d 96 86 03 bd c9 0d e8 bc
       -0.0016087055 0.035043146 -0.032110773 -0.028326886
000060 b9 f9 e4 bb c5 32 3a bc e7 ca 84 3c cf b2 4c bc
       -0.006987777 -0.011364643 0.016210033 -0.012493803
000070 9d d8 ed bc 47 fb 62 bb 07 aa cd 3c 72 26 53 bc
       -0.029033953 -0.0034634636 0.02510549 -0.012887584
000080 b9 6e e1 3c 35 06 cb bc 80 69 d8 bc d4 52 75 bc
       0.027518617 -0.024783233 -0.026417494 -0.014973361
000090 66 06 0f bc b8 6b 8e 3c 47 7c 66 bb 33 25 e8 bc
       -0.008729553 0.017385349 -0.003516929 -0.02833805
0000a0 30 fe cb 3c 22 a2 15 bc c6 7b a3 bc 43 74 df 3a
       0.02490148 -0.009132894 -0.01995648 0.0017048198
0000b0 f4 49 29 3d ae f1 11 bd df a7 9f bc d1 a4 28 3d
       0.041330293 -0.035630874 -0.019489227 0.041172806
0000c0 73 7b c8 3c 8e 44 8d bc 7d d2 83 3c 2a 3d e5 3c
       0.024472928 -0.017244603 0.01609158 0.027983267
0000d0 8c 8e ba bb 62 ad 8b 3c 75 8b 02 3d a6 39 8b 3b
       -0.0056932624 0.017050449 0.031871278 0.0042488156
0000e0 50 89 da 3c 74 e4 aa ba 46 cb 13 bd 66 40 e4 3c
       0.026676804 -0.0013038055 -0.03608253 0.027862739
0000f0 10 7d 1e 3d b3 d3 b9 bc 5b 67 84 3c dc d0 e8 3c
       0.038693488 -0.022683954 0.016162565 0.028419904
000100 01 db b9 3b 73 cb e3 3c 85 9f 70 3c 0e 2a 80 bb
       0.0056718593 0.027806973 0.01468647 -0.0039112633
000110 50 84 be bb 97 c0 f6 3b cb df b5 bc 79 68 ed bc
       -0.0058141127 0.0075302827 -0.02220144 -0.02898048
000120 cb 7d 97 3b e3 5d b3 3c 7b d0 de 3c b3 5a b8 bc
       0.00462315 0.021895355 0.02719902 -0.022504186
000130 78 86 00 3c f3 17 e9 3c ea ad 39 3a a2 84 42 bc
       0.00784456 0.028453803 0.0007083105 -0.011872442
000140 4b 72 09 3d 83 0e dc bb 38 91 9e bc d2 30 07 3d
       0.033556264 -0.006715597 -0.019356355 0.033005543
000150 34 af 52 bc 35 40 7c 3c 78 28 e0 bc da 0e e1 3b
       -0.0128591545 0.0153961675 -0.027363047 0.0068682255
000160 bc 5a ba bc a8 96 31 3d 94 1b 01 bd 92 b8 f6 bc
       -0.022748344 0.043356568 -0.03152044 -0.030117307
000170 3a 9e b9 bb 69 29 4a 3c ef 52 a4 bc c7 83 c6 bb
       -0.005664614 0.0123389745 -0.020059077 -0.0060581896
000180 ec f3 8d 3c 27 02 d2 bc 43 4d 1d bd b0 61 16 3c
       0.017328225 -0.025635792 -0.03840376 0.009178564
000190 f3 23 84 3c b7 c3 df 3c 83 4f 19 bb 7a 2c 73 3c
       0.016130423 0.027315004 -0.002339334 0.014842147
0001a0 8a 69 01 3d 15 fc f0 3c cc ae a4 39 ef ed 33 bc
       0.03159479 0.029417077 0.0003141075 -0.010982021
0001b0 58 ed f4 3c fa 7c 24 bc 9c 51 be 3c f1 3b c7 3c
       0.02989833 -0.010039562 0.023232274 0.024320574
0001c0 3b 5e ba 3c eb fc bf bc 9c 74 26 3d b1 a5 d0 bc
       0.02275001 -0.02343603 0.04063855 -0.025469633
0001d0 3e 5a bc 3c c1 31 71 3c 4c 8b 91 bb ac 88 20 39
       0.02299225 0.014721335 -0.0044416543 0.00015309703
0001e0 98 21 e2 3c 01 e1 60 3c fd 4b 0f bd 82 77 26 3d
       0.02760391 0.01372552 -0.034984577 0.040641315
0001f0 16 cf dc 3c 63 64 98 bc 8c d2 0a 3a 68 58 11 bd
       0.026954215 -0.018602556 0.0005295656 -0.0354847

fc2.weight f4 [10, 128]
000000 1c 02 52 3d 44 fc 99 3c ad d1 1a 3d b3 35 2b bc
       0.051271543 0.018797047 0.03779762 -0.010449815
000010 7e 1d 22 bc b9 af 87 3d f8 30 6d bd 22 3f 96 bd
       -0.009894727 0.06625313 -0.05790803 -0.073362604
000020 c6 22 88 3d e0 2a a1 bd f6 7b 0c 3d ec 01 d4 3d
       0.066472575 -0.07869506 0.034297906 0.10351929
000030 bd 0d 51 bd 16 5c 18 be 4d 0d ef bd f8 d3 89 bd
       -0.051038492 -0.14878878 -0.11672459 -0.06729883
000040 9a 83 43 3d 07 7a f6 bb a1 45 4a bd 46 84 2a bd
       0.047732927 -0.007521871 -0.04938281 -0.041630052
000050 75 6b fe 3c 94 79 aa 3c ca ad 01 be eb 37 1b bd
       0.031057099 0.020809926 -0.12663952 -0.037895124
000060 07 8b b7 bd 36 13 05 bd 76 53 62 bd 96 c0 b3 3d
       -0.08962064 -0.032489024 -0.055255376 0.08776967
000070 1e ee db bd c9 9d c9 bd 41 af 67 bd b6 72 34 3c
       -0.107387766 -0.09844548 -0.05656362 0.011013677
000080 d7 67 b2 bd 9b f5 1d 3c e8 c9 f4 3b f1 f0 fc 39
       -0.08711212 0.009641076 0.007470358 0.000482447
000090 d5 00 e2 bd 8f 7a 22 be 57 28 bc 3d 62 b6 3b 3d
       -0.11035315 -0.15867065 0.09187382 0.04582823
0000a0 aa ed 51 3d f3 f0 31 3d 7c db 4f 3d f9 fa 4e bc
       0.051252045 0.043442678 0.050746426 -0.012633079
0000b0 a3 66 e5 3d a3 32 96 bd 2e 3e 82 3d 39 9d c5 3d
       0.11201217 -0.07333877 0.06359516 0.096491285
0000c0 8a 94 e7 bd ad 4b df 3c 3d 97 b0 bd 64 e1 f7 bc
       -0.113076285 0.027257765 -0.086225964 -0.030258842
0000d0 6a e7 17 bd 1d df 9e bc 67 0f a6 bd c6 f0 e1 bd
       -0.037085928 -0.019393498 -0.081084065 -0.11032252
0000e0 21 3d ae bd 12 ff ed bd ae db d5 bd e8 6c ee bc
       -0.08507753 -0.116209164 -0.10442291 -0.029104665
0000f0 d8 77 44 3d 54 8f 13 be 1e 1e f5 3d ae de a4 3d
       0.047965854 -0.14410144 0.11968635 0.08050285
000100 94 27 81 bd a8 58 ad bd 7c 37 f0 3d e3 14 ab 3d
       -0.06306377 -0.084641755 0.11729333 0.08353593
000110 36 2c 75 3c 91 d5 bb bc d1 aa 3b 3d 7b 40 a8 3a
       0.014964154 -0.022928985 0.0458172 0.00128366
000120 10 96 9f bd 88 1c d0 3b c8 f8 d0 3d 2c cd 5e bb
       -0.07792294 0.0063510574 0.10203701 -0.0033996804
000130 16 ea aa bd 81 1a 7d 3c de f8 d5 bd 88 a6 bb bb
       -0.083454296 0.015448214 -0.10447858 -0.005726639
000140 bb 29 33 3d 80 81 0d 3d 5e 04 31 bc 5e 68 88 bc
       0.04374097 0.03454733 -0.010804264 -0.016651329
000150 32 9d 2c 3d a4 64 88 bd 84 e4 d7 3d 81 b1 47 3c
       0.0421421 -0.06659821 0.10541633 0.012188316
000160 a7 cf d3 bc 90 2a 75 3d 92 f5 c7 3c 1a ff e8 3c
       -0.025855852 0.059855044 0.02440909 0.028441954
000170 36 6b d5 bd 97 51 a8 3d 61 4b a6 bd 37 e2 a1 bd
       -0.104208395 0.08218687 -0.08119846 -0.07904475
000180 c4 05 20 bd cc a7 1f bd f6 df 06 be 14 43 9e bd
       -0.039068 -0.038978383 -0.13171372 -0.07727638
000190 41 72 c5 3c d3 81 d5 bd 1e d5 70 3d 27 4a b3 bd
       0.024102332 -0.10425153 0.058796994 -0.08754378
0001a0 eb 0b f0 bc 90 5a 00 be b9 33 01 3c 91 b5 50 bd
       -0.029302558 -0.12534547 0.007885867 -0.050954405
0001b0 4c ac c5 bd b3 3d 3e bb 88 62 cb 3d 9d 8e 35 3d
       -0.09652004 -0.0029028475 0.09930903 0.04432546
0001c0 f1 b4 c3 3d dd cb 87 bd f6 57 d8 3d 5a fa d2 3b
       0.09555996 -0.06630681 0.10563652 0.0064385356
0001d0 af f1 a8 bb 7e 02 ba 3c a7 dd 14 bd 86 35 d2 3d
       -0.005155764 0.022706266 -0.036344197 0.10264115
0001e0 f2 08 d8 3d b7 40 d9 3d e4 49 56 3d c3 46 8c 3d
       0.10548581 0.106080465 0.05231656 0.06849434
0001f0 cc d4 c8 3d fe 2b 85 3d 2f 3a e4 3d 36 9c 51 3d
       0.09806213 0.065025315 0.1114391 0.051174365
000200 53 c4 c7 3d c0 e3 9d bd c3 df ca bd 9d b1 85 3d
       0.09754243 -0.077094555 -0.099059604 0.06528018
000210 8e 1a b8 3d e4 2b 13 bc e9 11 09 be f1 69 33 be
       0.0898944 -0.008982632 -0.13385738 -0.17520882
000220 d9 6a 46 bd 15 3c 41 3d b8 1e 5a 3d 9d 40 00 3e
       -0.04844174 0.04717644 0.053251952 0.12524648
000230 1d 04 dd 3d 44 95 5b 3d f5 35 44 3d d4 f6 54 bd
       0.107918 0.053609148 0.04790302 -0.051993206
000240 f0 8b f8 3c da f4 61 bc 82 9b 52 3d 1f 71 e4 3d
       0.030340165 -0.013791287 0.051417835 0.11154389
000250 bc 7f e4 bd da be 8a 3d 9d c9 3c bc 9c f4 19 3e
       -0.11157176 0.06774683 -0.011522678 0.15034717
000260 f7 da e9 3d 65 3c d7 3d 95 f1 1e 3d b7 fa 34 3d
       0.11418717 0.10509566 0.03880461 0.044184413
000270 bb 1b 6f bd a3 5d d1 3d be ac 13 3d 26 13 d5 bd
       -0.058376055 0.10222938 0.03605341 -0.10404043
000280 1b cb a1 3c 05 e6 29 bd f1 31 b2 3b 54 02 1e bd
       0.019750169 -0.04147913 0.0054380824 -0.03857644
000290 f7 98 75 bc 23 73 41 3c bb 0a ce 3c 75 38 02 3c
       -0.014990083 0.011807236 0.025151601 0.007948031
0002a0 95 2a e9 3c b8 e6 a5 3a 42 9f 18 3d b1 c9 88 bc
       0.028462688 0.001265726 0.037261255 -0.016697736
0002b0 c3 31 8f 3d 64 f6 c9 bc 52 ed 10 3c 00 6f e7 bc
       0.06991913 -0.024653621 0.008845644 -0.028251171
0002c0 68 83 6e 3c 02 93 bd bd 36 93 a5 3d 48 ef 14 bc
       0.014557697 -0.09256555 0.08084719 -0.009090252
0002d0 59 45 4c 3b 12 26 09 3e cf d9 41 3d 48 aa cd 3d
       0.0031169264 0.13393429 0.04732686 0.10042244
0002e0 82 1a 80 3c 7d 77 cf bd f3 5f 99 3d 3a aa c6 3d
       0.01563764 -0.101302125 0.07489004 0.09700437
0002f0 0d eb 92 3d e7 3e d0 3d 41 21 8a bc 66 bb 3f bd
       0.07173739 0.10168248 -0.01686156 -0.046809576
000300 af 7a 26 3d 44 82 bf 3d dd 6f a9 3d d5 cc 99 bd
       0.040644344 0.09351018 0.08273289 -0.07509772
000310 85 7d f9 bd d0 cc 8b bd a9 a9 01 be 75 cb 8a 3d
       -0.12182144 -0.06826174 -0.12662376 0.067770876
000320 15 ac 0d 3d cb 66 8a bd 2c d1 14 3d 1f 7d ee bd
       0.03458794 -0.067578875 0.036332294 -0.11644959
000330 8c 05 f7 3d 66 a3 63 3d 1f ba b9 bd bc 69 36 3d
       0.12061605 0.05557575 -0.09068703 0.04453443
000340 03 d5 39 3d 42 5b 5c 3d 59 96 41 3c 3c 65 9b bd
       0.04536916 0.053797968 0.011815631 -0.07587668
000350 e8 10 f7 bd 3c 31 ab bd 58 11 fa 3c 5f a4 c0 bd
       -0.120637715 -0.08359 0.030525848 -0.09406351
000360 20 31 28 3d 41 05 8c 3d fb ad 8f 3d 4b 51 86 3d
       0.041062474 0.068369396 0.07015606 0.06558474
000370 b7 b0 bc 3d f3 6e da bc 76 65 59 bd e6 b9 9c 3d
       0.09213393 -0.026664233 -0.053075276 0.07652645
000380 ca f9 80 3d 80 9d 86 3d 90 a6 12 3e c4 ae dd ba
       0.062976435 0.065730095 0.14321351 -0.0016913046
000390 59 c5 a6 3d e7 d5 ef 3b 9b 6b 63 3d 27 6e a6 3d
       0.0814311 0.0073192003 0.055522542 0.08126479
0003a0 45 e6 63 bd b8 63 a1 3d fa 56 b9 bd d6 ac e2 bb
       -0.055639524 0.07880348 -0.090497926 -0.0069175763
0003b0 cb 63 aa bd 11 81 1b be ce e3 65 3d a7 06 07 bd
       -0.08319815 -0.15185954 0.056125455 -0.03296533
0003c0 f5 fd ab bc 18 b7 7a bc 62 94 dd 3d fc 48 c7 bd
       -0.02099512 -0.015302442 0.108193174 -0.097307175
0003d0 d0 dc 30 3d 34 10 0f 3d 08 0e 34 3d cd d4 18 3d
       0.043179333 0.034927562 0.043958694 0.037312318
0003e0 f3 90 57 3d b3 46 62 3c c6 4f 06 bd a7 52 9d 3d
       0.05262847 0.013810801 -0.03279092 0.0768178
0003f0 4b 74 8c bd ac ca f5 bd a4 54 20 3c 47 24 98 3d
       -0.068581186 -0.12001547 0.009785805 0.07428794

fc2.bias f4 [10]
000000 72 65 be 3d 15 77 d6 3c c8 7a 2d 3d 3a cc ac bc
       0.09296693 0.02617983 0.04235342 -0.021093477
000010 aa 47 45 bc 1c a8 80 3c 62 f3 27 3d ca f1 18 bd
       -0.012041012 0.01570516 0.041003592 -0.037339963
000020 7d 2d af bc c0 23 d9 3c
       -0.021383995 0.026506305
