models/Experiment 4/Trained on normal data/cnn_model_cons3.pt (torch, 456415 bytes, 8 tensors)

conv1.weight f4 [32, 1, 3, 3]
0.41542634 0.085777745 0.26513427 0.13697538 -0.13405788 0.3590781 -0.22927336 -0.1800125
-0.19740073 0.16609044 0.27362671 0.2716519 0.39305902 0.09041788 0.12786254 -0.07829161
-0.08370689 0.3901075 -0.1276681 0.04083372 -0.31403744 0.35912532 0.35674906 -0.20473778
0.46173695 0.2925279 0.36014822 0.07725483 -0.12837383 -0.44334263 -0.18565384 -0.28717706
-0.08611025 -0.10158291 -0.19812982 0.33134088 0.3794149 -0.11690637 0.2363599 0.0957969
0.087340005 0.28680548 0.006887079 0.1358692 0.24163336 -0.19358154 -0.29572096 -0.38402772
0.36217633 0.24192174 0.38224933 -0.09199126 0.19722071 0.14905278 0.10053811 0.21557969
-0.12833667 0.19894168 0.37629512 0.37671775 -0.23632607 -0.1230187 -0.034929965 0.06208971
0.36232126 0.04923628 0.14052407 0.08394451 -0.2050889 0.056008663 0.4081747 -0.11403851
0.39862457 0.49672624 -1.3826998e-05 0.31234726 -0.075770915 0.27732968 0.12842333 -0.085858546
0.14480703 -0.014535026 -0.16642603 0.005292046 -0.22532104 -0.099229574 -0.20653376 0.51761925
-0.0374545 0.21127062 0.19589274 -0.045040634 0.23463085 0.45690134 0.20664209 0.48010758
0.18676902 0.2712264 0.32509565 0.3714158 0.024725853 0.20189753 -0.124752246 -0.26429322
-0.24309534 -0.38050774 0.11379052 -0.016009348 -0.31057724 -0.122349635 0.28753215 -0.18091074
-0.22298954 0.41395026 -0.045615435 0.03311586 0.2201844 0.1880861 0.28197825 0.16948557
0.22775678 0.51859754 0.20705263 0.41178703 0.3364922 0.051572282 -0.1547863 0.32050356
0.21878122 -0.08657597 0.38152558 0.03823161 0.050933022 0.2593994 0.120401904 -0.13200134
0.28182602 0.34294394 -0.1116579 -0.20036277 0.27343577 0.03033428 0.40245718 -0.06884029
-0.038260426 0.34910908 0.39261907 0.19787052 0.42007047 0.4618832 0.12754543 0.3555511
0.10087592 -0.20280643 -0.13130191 -0.010422863 -0.21786126 0.12748256 -0.4583364 -0.061925944
-0.3793625 0.078898355 0.23349513 0.18420431 -0.21547502 -0.010447413 0.15875565 0.06269961
0.15656577 0.025011161 0.47055373 -0.053544454 0.037839033 0.35217342 0.3491663 0.22824064
-0.2161854 -0.28377044 -0.33396283 -0.3137363 0.10524524 -0.16803697 0.28651482 0.33862558
-0.19787961 0.32533157 0.03746006 -0.043014936 0.42710623 0.2018344 0.42242646 0.14745504
0.029353926 0.19675839 0.118378915 -0.22758815 -0.43741792 -0.21506861 -0.27363187 -0.30395097
0.011921446 -0.30349204 -0.11404757 -0.28469107 -0.021787684 -0.31840894 -0.13038766 -0.079399765
0.1495779 0.14433378 0.06656168 0.3042497 0.16308314 0.1343458 0.16215333 0.21284746
0.37513694 0.2135369 0.1886699 0.33822307 0.35031402 0.28862444 -0.012043766 -0.10148691
0.19528829 0.23630586 0.18494187 0.07609745 0.16456681 -0.18144242 0.1738744 -0.056989532
0.23355 0.34256753 0.04758451 0.23709585 0.27792895 -0.081112884 0.33172148 0.04432471
0.3911871 -0.012335041 0.109970815 0.41515964 -0.08700589 -0.12274265 0.09010413 -0.021541893
-0.2761696 0.38503563 0.2045929 0.3401481 0.41608995 0.12807167 0.08445251 0.12672533
00000000: c3b2 d43e 3eac af3d aebf 873e 4643 0c3e
00000010: 7846 09be 16d9 b73e a3c6 6abe 3255 38be
00000020: 6b23 4abe 9d13 2a3e cd18 8c3e f515 8b3e
00000030: 083f c93e 022d b93d 66ee 023e 5a57 a0bd
00000040: 856e abbd 2cbc c73e 6dbb 02be 4241 273d
00000050: 84c9 a0be 46df b73e d0a7 b63e c8a6 51be
00000060: c968 ec3e 38c6 953e 5965 b83e c837 9e3d
00000070: 6e74 03be cefd e2be 0a1c 3ebe df08 93be
00000080: 925a b0bd b30a d0bd 8be2 4abe 83a5 a93e
00000090: ab42 c23e 9b6c efbd 5408 723e 2a31 c43d
000000a0: 51df b23d 2bd8 923e 02ad e13b 4c21 0b3e
000000b0: bc6e 773e 3d3a 46be bd68 97be 489f c4be
000000c0: 2d6f b93e 55ba 773e 2fb6 c33e ea65 bcbd
000000d0: 3af4 493e 4ba1 183e ede6 cd3d ecc0 5c3e
000000e0: b06a 03be 5eb7 4b3e c1a9 c03e 26e1 c03e
000000f0: 76ff 71be 3af1 fbbd b912 0fbd c851 7e3d
00000100: 2c82 b93e fbab 493d 8be5 0f3e 19eb ab3d
00000110: d302 52be 5769 653d 46fc d03e 068d e9bd
00000120: 8518 cc3e e752 fe3e 81fa 67b7 fbeb 9f3e
00000130: c82d 9bbd 28fe 8d3e 6881 033e 9bd6 afbd
00000140: 4b48 143e 5124 6ebc 966b 2abe e668 ad3b
00000150: 8fba 66be e038 cbbd 967d 53be b282 043f
00000160: e469 19bd 5357 583e 1b98 483e 877c 38bd
00000170: 1243 703e f9ee e93e fc99 533e a9d0 f53e
00000180: 6140 3f3e 30de 8a3e f072 a63e 362a be3e
00000190: df8d ca3c 3abe 4e3e 1b7e ffbd 7151 87be
000001a0: fced 78be e9d1 c2be 010b e93d 0926 83bc
000001b0: fb03 9fbe 7292 fabd 6a37 933e aa40 39be
000001c0: 5f57 64be 4af1 d33e 40d7 3abd 7fa4 073d
000001d0: 0578 613e a599 403e 745f 903e a08d 2d3e
000001e0: 1339 693e cfc2 043f 9b05 543e c0d5 d23e
000001f0: b548 ac3e 753d 533d 4d80 1ebe 0b19 a43e
00000200: 2f08 603e be4e b1bd 5257 c33e c098 1c3d
00000210: 259f 503d 00d0 843e 4695 f63d 5c2b 07be
00000220: 804b 903e 5996 af3e e6ac e4bd e62b 4dbe
00000230: c6ff 8b3e 997f f83c de0e ce3e 23fc 8cbd
00000240: f7b6 1cbd 6dbe b23e 5e05 c93e 929e 4a3e
00000250: 7a13 d73e f47b ec3e 459b 023e cb0a b63e
00000260: 0998 ce3d 7dac 4fbe 0274 06be a8c4 2abc
00000270: 0617 5fbe ca8a 023e 12ab eabe 0fa6 7dbd
00000280: cd3b c2be 7695 a13d 5919 6f3e 0ea0 3c3e
00000290: 7ca5 5cbe a02b 2bbc d790 223e a768 803d
000002a0: c752 203e 35e4 cc3c 6bec f03e 6e51 5bbd
000002b0: 1afd 1a3d 1350 b43e edc5 b23e eab7 693e
000002c0: b55f 5dbe 5c4a 91be 2dfd aabe 0ba2 a0be
000002d0: d18a d73d e211 2cbe 12b2 923e 5560 ad3e
000002e0: f4a0 4abe dc91 a63e b86f 193d 6e30 30bd
000002f0: abad da3e adad 4e3e 4848 d83e 74fe 163e
00000300: a577 f03c 087b 493e a570 f23d de0c 69be
00000310: 3ef5 dfbe f23a 5cbe 7a19 8cbe 769f 9bbe
00000320: 2b52 433c 4f63 9bbe c691 e9bd 07c3 91be
00000330: 167c b2bc 7f06 a3be 5884 05be 589c a2bd
00000340: f32a 193e 3ccc 133e 7d51 883d 9ec6 9b3e
00000350: 44ff 263e f291 093e 860b 263e aff4 593e
00000360: f311 c03e 6ba9 5a3e af32 413e 932b ad3e
00000370: 5c5c b33e 95c6 933e 3753 45bc 5ed8 cfbd
00000380: a7f9 473e 2afa 713e 6761 3d3e fbd8 9b3d
00000390: 3484 283e 0bcc 39be 210c 323e db6d 69bd
000003a0: bb27 6f3e 0365 af3e fae7 423d 41c9 723e
000003b0: b44c 8e3e 831e a6bd 66d7 a93e d48d 353d
000003c0: ad49 c83e e918 4abc 6138 e13d ce8f d43e
000003d0: 2530 b2bd 8060 fbbd 8488 b83d a078 b0bc
000003e0: 1a66 8dbe 6423 c53e cd80 513e e427 ae3e
000003f0: be09 d53e 3825 033e 70f5 ac3d 49c4 013e

conv1.bias f4 [32]
-0.15794471 -0.00058266753 0.24229346 0.22335987 0.0702282 -0.0005952442 -0.19434857 -0.12246133
-0.062227767 0.014952634 -0.049249504 0.10904299 0.0009725467 -0.039481264 -0.17229313 0.31248337
0.06824944 0.33378762 -0.00054087176 0.24133082 -0.13744272 0.096745156 -0.22607386 0.25107503
-0.0006324556 -0.18962938 0.24502598 -0.1393581 -0.16241379 -0.14961803 -0.16900358 -0.0004606867
00000000: 42bc 21be 28be 18ba c71b 783e 73b8 643e
00000010: cdd3 8f3d 290a 1cba 5003 47be 01cd fabd
00000020: 8be2 7ebd e5fb 743c d9b9 49bd ee51 df3d
00000030: 81f2 7e3a 1bb7 21bd 9c6d 30be d2fd 9f3e
00000040: 5dc6 8b3d 36e6 aa3e 4ac9 0dba 6d1f 773e
00000050: c9bd 0cbe 5322 c63d e87f 67be e88c 803e
00000060: 60cb 25ba 342e 42be 17e8 7a3e e4b3 0ebe
00000070: cd4f 26be 7835 19be 460f 2dbe 5288 f1b9

conv2.weight f4 [32, 32, 3, 3]
0.05722868 -0.017874608 -0.1448302 -0.02057481 -0.06649354 -0.022060884 0.113076694 0.008111453
-0.030820824 -0.05384211 -0.014871371 0.06403158 0.049079698 -0.009541281 0.07842752 0.06905163
-0.01726387 0.007936851 0.03011525 -0.015638031 -0.0027510033 -0.031514775 -0.010133041 -0.024288163
0.11970406 0.05428503 0.0010120191 0.00760216 0.013445739 -0.012055519 0.029650887 0.05967618
0.00496633 0.024302423 0.0047231973 -0.009766049 0.029343218 -0.03969459 0.043232895 0.0050932127
0.003433904 -0.012924477 0.089789 0.05274457 -0.025559882 -0.07317542 0.05600092 0.09437606
0.05147634 0.023113944 0.04956834 0.12155018 0.12880468 -0.103403 0.0715846 -0.01527001
-0.006106605 0.0063495734 -0.039875437 -0.02292848 0.086052835 0.023457775 0.06385693 0.018867051
-0.036679864 0.027838439 0.0043124543 -0.0697777 -0.01902266 -0.04125778 0.039087165 0.022751993
0.0034646995 -0.059214227 -0.016759088 -0.023350783 -0.023758903 0.059491057 0.042401385 -0.0034607986
0.0668115 -0.017522095 0.03429554 -0.043427654 0.05761451 0.053638972 -0.018175086 0.09951972
0.057779238 -0.06821537 -0.06108328 -0.013894611 0.06978517 -0.019380037 0.05636436 0.07402519
0.022711871 0.038441107 0.015217947 0.02068621 0.072560154 -0.034098618 0.041525055 -0.022352768
-0.063428365 0.040318783 0.0371348 0.098405056 -0.051623132 0.017766021 0.13134068 -0.0043859957
0.096688256 0.12109129 0.051720887 0.01930777 0.0071743946 -0.04052683 -0.053972702 -0.009805306
-0.026376339 -0.038571868 0.06220349 0.06436785 0.06838443 0.06350811 -0.028355585 7.2568364e-05
0.06178419 -0.056185413 0.057159964 0.061230626 0.040564116 -0.015196858 -0.013596385 0.020181194
-0.007251446 0.052012123 0.021278625 -0.016827049 0.0146331005 0.088409945 0.048993956 0.032924946
-0.0029373865 0.020070711 0.07533416 -0.06770281 -0.0016939989 0.08407457 0.09741186 0.086621195
0.020594753 -0.075884365 -0.0684152 0.006279627 -0.051882613 -0.05923309 -0.05390761 -0.0496437
-0.03495936 -0.052193586 -0.029381322 0.010771164 -0.022462333 -0.02435809 -0.04615934 0.06059523
0.06721912 0.039966255 -0.05849431 0.07155057 -0.06841919 -0.0300822 0.043885637 -0.059920207
-0.048782676 0.01256231 0.10247115 0.11180177 -0.009554866 -0.024593502 0.06817507 -0.029982202
0.008564866 0.004371817 0.051337402 0.044935007 -0.07018763 0.11842228 -0.0028686372 -0.09923108
0.040214766 -0.004370898 0.03059869 0.0017967457 0.106823385 0.089004435 0.039976187 0.011396859
0.029151121 -0.04382127 -0.022455223 0.035198715 0.03790347 -0.04758718 0.01803432 -0.022892496
0.02227273 0.045107774 -0.059791926 0.0026233494 -0.019633558 0.021365408 0.00019786245 0.053697333
-0.024887618 -0.008398811 -0.015133253 -0.093964525 -0.028625324 -0.03705592 0.08104992 -0.0010187444
-0.012859102 -0.00022865886 0.029810756 0.05105889 0.0093170265 -0.034522228 0.00041029594 0.0024750875
-0.0045041004 -0.06621246 -0.05053 0.020957623 0.029023318 -0.049364578 0.07973509 -0.018014649
-0.0057141082 0.10029362 -0.029345533 0.050154604 -0.02856437 -0.0502317 0.10398255 -0.05492977
-0.018814873 0.02353926 -0.00014630612 -0.04501052 -0.040810924 -0.041585773 -0.042200007 -0.039398383
00000000: 9f68 6a3d c56d 92bc 5e4e 14be 818c a8bc
00000010: c42d 88bd 07b9 b4bc c194 e73d e6e5 043c
00000020: f47b fcbc 8b89 5cbd 0da7 73bc fd22 833d
00000030: cb07 493d 0853 1cbc 9c9e a03d f16a 8d3d
00000040: f66c 8dbc 9109 023c 42b4 f63c 541b 80bc
00000050: 2d4a 34bb a315 01bd 0e05 26bc f8f7 c6bc
00000060: 6727 f53d fb59 5e3d baa5 843a 8a1b f93b
00000070: 844b 5c3c 8384 45bc 6be6 f23c 036f 743d
00000080: 98bc a23b e015 c73c 0dc5 9a3b c701 20bc
00000090: 3061 f03c cb96 22bd fa14 313d f7e4 a63b
000000a0: 590b 613b 30c1 53bc 4ce3 b73d b10a 583d
000000b0: f562 d1bc ffdc 95bd 3861 653d 3c48 c13d
000000c0: dbd8 523d 7459 bd3c 2c08 4b3d 4def f83d
000000d0: 60e5 033e f4c4 d3bd f29a 923d 102f 7abc
000000e0: ea19 c8bb 1510 d03b 6d54 23bd 82d4 bbbc
000000f0: 783c b03d 852a c03c 6cc7 823d 138f 9a3c
00000100: a03d 16bd 700d e43c 7d4f 8d3b 9ce7 8ebd
00000110: 69d5 9bbc ebfd 28bd dd19 203d 6362 ba3c
00000120: 0310 633b 9e8a 72bd 5b4a 89bc 244a bfbc
00000130: 08a2 c2bc e5ac 733d 13ad 2d3d 91ce 62bb
00000140: 78d4 883d 7f8a 8fbc 7b79 0c3d 32e1 31bd
00000150: 31fd 6b3d 8ab4 5b3d ebe3 94bc ffd0 cb3d
00000160: eca9 6c3d 80b4 8bbd 7632 7abd 39a6 63bc
00000170: 87eb 8e3d e2c2 9ebc 51de 663d 859a 973d
00000180: 3f0e ba3c 6c74 1d3d b254 793c 2076 a93c
00000190: 6b9a 943d feaa 0bbd 2d16 2a3d 271d b7bc
000001a0: bbe6 81bd 4f25 253d a91a 183d 9788 c93d
000001b0: c772 53bd 0c8a 913c 2c7e 063e 66b8 8fbb
000001c0: 7e04 c63d b6fe f73d 48d9 533d 542b 9e3c
000001d0: 2f17 eb3b 76ff 25bd 7b12 5dbd 6fa6 20bc
000001e0: 3113 d8bc 89fd 1dbd 16c9 7e3d 4bd3 833d
000001f0: 230d 8c3d 8a10 823d f949 e8bc d82f 9838
00000200: 6b11 7d3d ad22 66bd 9120 6a3d f7cc 7a3d
00000210: 8f26 263d 3efc 78bc 5fc3 5ebc 0853 a53c
00000220: 8a9d edbb aa0a 553d 8350 ae3c e1d8 89bc
00000230: acbf 6f3c 4610 b53d e3ad 483d 4fdc 063d
00000240: 2b81 40bb 556b a43c cc48 9a3d c5a7 8abd
00000250: 2c09 deba 4a2f ac3d df7f c73d 7466 b13d
00000260: 54b6 a83c 4369 9bbd 451d 8cbd 54c5 cd3b
00000270: dd82 54bd 669e 72bd 3ace 5cbd 3157 4bbd
00000280: 8c31 0fbd f1c8 55bd 19b1 f0bc 8979 303c
00000290: ed02 b8bc 9e8a c7bc 9311 3dbd b432 783d
000002a0: 2eaa 893d a8b3 233d bb97 6fbd 1b89 923d
000002b0: 5c1f 8cbd f26e f6bc 6dc1 333d e46e 75bd
000002c0: 58d0 47bd 26d2 4d3c 65dc d13d 54f8 e43d
000002d0: 038c 1cbc 5078 c9bc 5f9f 8b3d 3c9d f5bc
000002e0: a753 0c3c 7641 8f3b 2b47 523d c50d 383d
000002f0: 88be 8fbd 6187 f23d bfff 3bbb aa39 cbbd
00000300: 3db8 243d c039 8fbb 1baa fa3c c880 eb3a
00000310: 38c6 da3d f547 b63d 12be 233d e4b9 3a3c
00000320: 55ce ee3c ef7d 33bd 04f4 b7bc 872c 103d
00000330: ab40 1b3d c6ea 42bd b6bc 933c 0b89 bbbc
00000340: 4d75 b63c eec2 383d 61e8 74bd 80ec 2b3b
00000350: 8ed6 a0bc 8206 af3c 4c79 4f39 bcf1 5b3d
00000360: 1ee1 cbbc 2b9b 09bc 77f1 77bc 7970 c0bd
00000370: a87f eabc f3c7 17bd 80fd a53d 6487 85ba
00000380: fcae 52bc 25c4 6fb9 b035 f43c 2023 513d
00000390: 71a6 183c 2e67 0dbd fd1c d739 1435 223b
000003a0: 2297 93bb 669a 87bd 8cf8 4ebd 52af ab3c
000003b0: 4fc2 ed3c 8332 4abd 274c a33d 7593 93bc
000003c0: 6a3d bbbb be66 cd3d 0b66 f0bc ea6e 4d3d
000003d0: d3ff e9bc c1bf 4dbd cef4 d43d 0afe 60bd
000003e0: a621 9abc 68d5 c03c c069 19b9 f35c 38bd
000003f0: 5b29 27bd d855 2abd ead9 2cbd 3360 21bd

conv2.bias f4 [32]
-0.034768384 -0.0013868132 -0.010495401 -0.012201615 -0.06528489 0.017342655 -0.022837406 -0.0058370167
-0.062644966 0.0233762 -0.03442651 -0.014559668 -0.029715983 0.04382692 0.015265047 -0.021725187
0.037275665 -0.047755316 -0.029201737 -0.011360487 0.0042344173 0.011274715 -0.053593162 -0.044190846
-0.0013003025 -0.016413713 0.012945186 -0.039004344 -0.01633155 -0.021000262 0.027020177 -0.011727499
00000000: 4b69 0ebd bbc5 b5ba e7f4 2bbc 48e9 47bc
00000010: 16b4 85bd 2f12 8e3c 8315 bbbc 7244 bfbb
00000020: 014c 80bd 727f bf3c d002 0dbd ac8b 6ebc
00000030: ef6e f3bc db83 333d 3f1a 7a3c 05f9 b1bc
00000040: 5eae 183d 149b 43bd 7b38 efbc 5621 3abc
00000050: dec0 8a3b 95b9 383c 8184 5bbd 7601 35bd
00000060: e96e aaba 0d76 86bc 0c18 543c 05c3 1fbd
00000070: bec9 85bc be08 acbc 6b59 dd3c b224 40bc

fc1.weight f4 [128, 800]
0.0087784445 -0.0017324052 0.022984358 0.01943259 0.008033577 -0.021136008 0.01305265 0.012779591
0.043206036 0.02262622 -0.022255765 0.0005652372 0.03278789 0.067056365 0.011872782 0.016979722
-0.027567841 0.058605142 -0.011071541 0.009713895 -0.013882573 -0.039838962 -0.03811957 -0.04079876
-0.00081218535 -0.043573517 -0.015925203 0.02143822 -0.010031685 0.038961414 0.012396644 -0.015851183
-0.0034511692 0.07703079 0.046789363 -0.009033863 -0.022475308 0.035030574 0.016649393 0.025659168
-0.03535748 -0.00400987 0.00016860526 -0.0090639535 0.0001331216 0.023444472 -0.022128731 0.06065672
0.005370096 -0.009257557 0.06788975 0.08809045 0.03440383 0.008806289 -0.035235606 0.037659008
0.04771131 -0.049302198 -0.076876275 -0.03330645 0.02876316 0.01302123 0.03553037 -0.06074338
-0.07688872 -0.02220365 -0.033549044 0.036584657 -0.05637241 -0.006691986 -0.0035587798 0.019080373
0.00028697285 0.03369704 0.00977406 0.009022109 0.031009179 -0.017798388 -0.0148448385 0.008953162
0.05151646 0.009610632 -0.026021099 0.014738004 -0.018345559 -0.009865426 -0.027614012 -0.04387174
-0.027723815 0.041599557 -0.014202696 -0.022989118 -0.01943117 0.00032582087 0.025510943 0.016892752
-0.052825354 -0.031923532 0.022253172 0.010849741 0.019383362 -0.009955345 0.020664422 0.0223973
0.02538664 -0.027802426 0.033337917 -0.008600627 0.006747389 0.001406869 -0.023384785 0.021522557
0.01603583 0.01381178 0.006592881 0.022630034 -0.025268277 -0.023270354 0.06284694 -0.005594485
-0.0120816855 0.0020593537 -0.017288057 0.034810826 0.009953844 0.0022277324 0.012743494 0.032214936
0.03065799 0.0759321 0.0073414617 -0.0032389492 0.024918374 0.045636974 0.037768163 0.007840211
-0.007337488 -0.035472415 0.022550086 -0.024215322 0.014421275 -0.02370854 -0.033025797 -0.00810093
-0.07385908 -0.024657458 -0.0022007108 0.036756247 0.02779134 0.002608467 0.009435901 -0.006598922
-0.006198047 -0.03924007 -0.043535624 0.016544309 0.013998595 -0.004558531 0.002357773 -0.043640487
0.04912977 -0.0072315033 0.051483653 0.058362853 -0.029282697 -0.007474151 0.010840912 -0.01573758
0.019098973 -0.013512569 0.023497248 -0.009339575 -0.035403535 -0.041151077 0.04493909 -0.018133918
0.016087662 0.042192657 0.0158753 0.012642817 0.02458534 -0.031375423 0.0073783183 -0.02437918
-0.05828788 0.02375085 0.029130548 0.014593929 0.00079504057 -0.050549306 -0.04004734 -0.034108292
-0.016137876 -0.01290699 0.017987045 0.0064840983 -0.008109879 -0.019689182 -0.00082316704 0.023570206
0.017583458 -0.02100107 -0.024177482 -0.017314967 -0.005945233 0.02658823 0.0036631129 0.031701006
-0.008546483 -0.028406892 0.008188812 0.0041885558 -0.004803362 0.013269624 -0.022306014 -0.043637305
0.009555512 -0.043300007 -0.034382936 -0.03453809 0.011128343 -0.03249366 -0.037663877 0.00803612
0.041768823 -0.019718787 0.006644081 0.034666438 0.023861356 -0.0007667715 0.0004121427 0.039688993
-0.015707407 0.014403211 0.021453992 0.03227581 0.027187418 -0.02459855 0.030521218 0.031894717
0.030284641 0.0048150546 0.0002502314 0.02949592 -0.004660624 0.017900374 0.0102516925 0.02793946
-0.02609387 0.038183425 -0.012836302 0.030188194 0.017756268 -0.022360284 -0.021930687 0.03645944
00000000: 77d3 0f3c df11 e3ba b149 bc3c 1831 9f3c
00000010: 449f 033c 6c25 adbc c8da 553c 7d61 513c
00000020: d0f8 303d 9f5a b93c b951 b6bc 6d2c 143a
00000030: 984c 063d d954 893d 0f86 423c 0f19 8b3c
00000040: f4d5 e1bc f20b 703d 6965 35bc 0727 1f3c
00000050: bb73 63bc 2e2e 23bd 4423 1cbd 9a1c 27bd
00000060: d6e8 54ba 257a 32bd 9275 82bc 359f af3c
00000070: f05b 24bc 0196 1f3d 4b1b 4b3c 57da 81bc
00000080: 032d 62bb 52c2 9d3d 34a6 3f3d c502 14bc
00000090: 231e b8bc 387c 0f3d 4f64 883c 2d33 d23c
000000a0: 01d3 10bd 3a65 83bb a1cb 3039 fa80 14bc
000000b0: 8f96 0b39 9f0e c03c 5047 b5bc 2e73 783d
000000c0: a1f7 af3b 02ad 17bc c809 8b3d c468 b43d
000000d0: 08eb 0c3d 4148 103c 3653 10bd 5540 1a3d
000000e0: ef6c 433d 1af1 49bd 4f71 9dbd 586c 08bd
000000f0: b8a0 eb3c ff56 553c 4b88 113d 0dce 78bd
00000100: d577 9dbd 6ee4 b5bc b96a 09bd cbd9 153d
00000110: c2e6 66bd 7348 dbbb 6b3a 69bb 714e 9c3c
00000120: d874 9639 e805 0a3d 6123 203c 78d1 133c
00000130: f606 fe3c edcd 91bc c437 73bc 48b0 123c
00000140: ec02 533d ea75 1d3c 332a d5bc ab77 713c
00000150: 6d49 96bc 99a2 21bc c836 e2bc dbb2 33bd
00000160: 0e1d e3bc 4c64 2a3d 6db2 68bc ad53 bcbc
00000170: 1e2e 9fbc f0d2 aa39 53fc d03c ab62 8a3c
00000180: 665f 58bd 40c2 02bd 494c b63c 1dc3 313c
00000190: dbc9 9e3c be1b 23bc 6f48 a93c 8b7a b73c
000001a0: a5f7 cf3c eac1 e3bc 578d 083d a5e9 0cbc
000001b0: 3419 dd3b b166 b83a 7391 bfbc 1350 b03c
000001c0: 935d 833c ce4a 623c 1809 d83b 9f62 b93c
000001d0: 6bff cebc 78a1 bebc e5b5 803d f151 b7bb
000001e0: 43f2 45bc 39f6 063b af9f 8dbc cc95 0e3d
000001f0: 7315 233c 26ff 113b 16ca 503c cff3 033d
00000200: 7726 fb3c 4a82 9b3d a590 f03b 8d44 54bb
00000210: 9e21 cc3c d6ed 3a3d cab2 1a3d 3a74 003c
00000220: 4f6f f0bb 864b 11bd f5ba b83c 365f c6bc
00000230: 3647 6c3c 6938 c2bc 0f46 07bd c3b9 04bc
00000240: 6e43 97bd 70fe c9bc cd39 10bb b88d 163d
00000250: aaaa e33c d0f2 2a3b 0a99 1a3c c53b d8bb
00000260: fd18 cbbb 32ba 20bd 6952 32bd ee87 873c
00000270: 5d5a 653c bb5f 95bb de84 1a3b 5ec0 32bd
00000280: 4c3c 493d 3ff6 ecbb 86e0 523d e30d 6f3d
00000290: 44e2 efbc b9e9 f4bb 159e 313c 19ec 80bc
000002a0: 7375 9c3c d263 5dbc 4d7d c03c 0405 19bc
000002b0: 4c03 11bd 088e 28bd 0d12 383d 958d 94bc
000002c0: 46ca 833c 35d2 2c3d eb0c 823c d123 4f3c
000002d0: 3267 c93c 8483 00bd d2c5 f13b d9b6 c7bc
000002e0: 46bf 6ebd 2591 c23c 30a3 ee3c 601b 6f3c
000002f0: 456a 503a ca0c 4fbd ae08 24bd 23b5 0bbd
00000300: 9433 84bc d777 53bc 9159 933c 8f78 d43b
00000310: 4cdf 04bc 354b a1bc cec9 57ba 4e16 c13c
00000320: 2f0b 903c 700a acbc db0f c6bc 1ed8 8dbc
00000330: 3bd0 c2bb 8fcf d93c d610 703b ead8 013d
00000340: 8c06 0cbc 92b5 e8bc 5e2a 063c 2740 893b
00000350: 8565 9dbb d668 593c 1abb b6bc 08bd 32bd
00000360: b98e 1c3c 595b 31bd 1fd5 0cbd d077 0dbd
00000370: a753 363c 1218 05bd 7045 1abd eea9 033c
00000380: c915 2b3d 4b89 a1bc 97b6 d93b 65fe 0d3d
00000390: e478 c33c 2a01 49ba db14 d839 ed90 223d
000003a0: d2ac 80bc 72fb 6b3c 48c0 af3c a433 043d
000003b0: 26b8 de3c e682 c9bc a207 fa3c 09a4 023d
000003c0: 7f17 f83c 9bc7 9d3b 7d31 8339 6da1 f13c
000003d0: 26b8 98bb cea3 923c b7f6 273c 4be1 e43c
000003e0: d0c2 d5bc 3966 1c3d 5a4f 52bc 3b4d f73c
000003f0: 9875 913c ea2c b7bc fca7 b3bc 7e56 153d

fc1.bias f4 [128]
0.024222624 0.033104435 0.0044297446 -0.013557803 -0.0012822439 0.0018804129 0.013275124 -0.007968999
-0.022219285 -0.0014290492 -0.0103204725 0.022009542 0.014055699 0.027557556 0.03541652 0.0346736
0.0028204897 -0.02986957 -0.0032581924 -0.024740297 0.0077313953 -0.010748578 0.0039084493 -0.01916763
-0.017514894 0.045035508 0.013695069 -0.031665727 -0.027731212 0.037832413 -0.01944373 0.015952388
-0.0076393527 0.016087797 0.0006692369 0.016288545 -0.028983224 -0.036926076 0.03076531 -0.020528832
-0.014335411 -0.0034504933 -0.012261709 -0.009774899 0.017985327 -0.011463679 0.004932695 0.026161117
0.03407306 0.028656462 0.014067451 0.026284518 0.030381173 0.041012276 -0.024551218 -0.017834254
-0.0161405 0.020321151 -0.014138976 0.02241975 0.002162053 -0.023216585 -0.030108945 0.0035638444
-0.01663159 0.020836884 0.037177537 -0.02342682 0.03030964 0.029782802 0.017289517 -0.007951385
0.019069076 0.01862244 -0.0028662777 -0.015406126 -0.005443208 0.028077533 0.01666911 0.018321082
0.0049918965 -0.021866914 -0.0058784396 -0.01259039 0.028953789 0.00258217 0.01043485 -0.011592775
-0.012325814 0.0126995025 0.0055507207 0.038774922 -0.015020428 0.0029195016 -0.004681016 -0.03371229
0.0055706953 -0.026408132 0.018504586 -0.014540484 0.011564153 0.04633542 -0.014476363 0.025367152
-0.021956582 -0.015707375 0.034965448 0.01718162 -0.0023928536 -0.03159375 0.025182704 0.037773017
-0.015575417 0.040031523 -0.0062721143 -0.01579229 0.008058199 -0.031402133 0.012471435 -0.024531057
-0.0042373664 -0.006157193 0.03022213 -0.010184103 0.006059592 0.034243386 0.042942572 0.01737701
00000000: 866e c63c 8498 073d 6427 913b 8c21 5ebc
00000010: f710 a8ba 3078 f63a e87f 593c 6890 02bc
00000020: 3805 b6bc ef4e bbba 3317 29bc 5b4d b43c
00000030: e049 663c 62c0 e13c ea10 113d e805 0e3d
00000040: f7d7 383b 07b1 f4bc 6687 55bb 2aac cabc
00000050: a557 fd3b ce1a 30bc 7312 803b 6f05 9dbc
00000060: 657b 8fbc 2777 383d 4861 603c ecb3 01bd
00000070: 912c e3bc 29f6 1a3d 7548 9fbc 95ae 823c
00000080: 8953 fabb 8eca 833c ba6f 2f3a 8e6f 853c
00000090: 3a6e edbc cc3f 17bd 8807 fc3c 152c a8bc
000000a0: 12df 6abc ac21 62bb 56e5 48bc e626 20bc
000000b0: f755 933c 28d2 3bbc 72a2 a13b d74f d63c
000000c0: 3190 0b3d f5c0 ea3c 2a7b 663c a152 d73c
000000d0: f0e1 f83c 7dfc 273d a31f c9bc 2419 92bc
000000e0: 1539 84bc 8b78 a63c 2aa7 67bc a0a9 b73c
000000f0: 3bb1 0d3b b530 bebc 09a7 f6bc 638f 693b
00000100: f93e 88bc 1db2 aa3c 7947 183d 9ae9 bfbc
00000110: ec4b f83c 10fb f33c bfa2 8d3c 8746 02bc
00000120: c036 9c3c 168e 983c 29d8 3bbb fa69 7cbc
00000130: f05c b2bb db02 e63c a88d 883c 1816 963c
00000140: 1093 a33b 3e22 b3bc ed9f c0bb ec47 4ebc
00000150: 7f30 ed3c a039 293b eff6 2a3c 9fef 3dbc
00000160: 36f2 49bc 9311 503c d2e2 b53b 74d2 1e3d
00000170: 3e18 76bc 1c55 3f3b 3563 99bb e615 0abd
00000180: 618a b63b de55 d8bc ee96 973c 363b 6ebc
00000190: 9377 3d3c 36ca 3d3d 442e 6dbc c6ce cf3c
000001a0: 4ade b3bc c1ac 80bc ee37 0f3d 78c0 8c3c
000001b0: 6cd1 1cbb 7368 01bd f54b ce3c e1b7 1a3d
000001c0: 0930 7fbc 18f8 233d 4f86 cdbb d55e 81bc
000001d0: 8906 043c 869f 00bd fd54 4c3c 5bf5 c8bc
000001e0: 9bd9 8abb 47c2 c9bb 6694 f73c 39db 26bc
000001f0: 8b8f c63b cb42 0c3d 8de4 2f3d 3b5a 8e3c

fc2.weight f4 [10, 128]
-0.05452792 -0.1310307 0.017640555 0.060193956 0.010717738 0.081700124 -0.10790362 -0.04172013
-0.12658726 0.01642825 -0.053739086 -0.008783302 0.10795924 -0.0047027264 -0.13096412 0.09409922
-0.072116524 0.0054124487 0.050298616 -0.10653722 0.041558478 -0.06307508 -0.05191739 -0.07427584
0.077637404 -0.07691521 -0.039447766 -0.05173928 0.035951823 -0.09338685 -0.041644838 0.04797214
-0.02085127 0.101361 0.06934712 0.103436925 -0.086168244 0.033574406 0.053690754 -0.07527844
-0.00046568486 0.0472829 -0.0520027 0.07479343 -0.06913061 -0.021878598 0.10022798 -0.08931742
-0.04158863 0.11003185 0.005082047 0.024652027 0.067412555 -0.061984774 -0.022857282 0.10159826
-0.09937075 -0.07243586 -0.030039275 0.0042120027 -0.013170588 0.078574896 -0.06705173 0.02231
0.09522802 -0.06755344 0.0119827455 0.00970953 -0.12199307 0.026389955 0.03870938 0.067828245
-0.11990463 -0.08901663 -0.051714297 0.029042432 -0.08147751 0.08824251 -0.124813974 0.07133376
-0.0048594293 -0.14327648 -0.047616046 0.05176329 0.15739752 -0.056213398 0.047639854 -0.122177675
0.053080406 0.07254454 -0.019674186 0.096885815 -0.067223154 -0.012142325 0.013660468 -0.12208568
-0.11949127 -0.024644615 0.031492718 0.029117651 -0.14615789 0.08837144 0.041167334 0.06675442
-0.040341146 -0.03129026 0.01236088 0.12684558 -0.08030821 0.08847243 0.07669945 -0.043962225
-0.09878586 0.044901814 -0.08000087 0.010436797 -0.07053299 -0.047799878 -0.04529584 -0.07394232
-0.037665226 -0.050930835 -0.060188085 -0.014875513 0.037295803 -0.06584351 0.084539555 -0.05313086
0.08744359 0.004959127 -0.043704614 -0.062579125 0.042054437 0.01505955 -0.1166052 -0.011604989
0.06450244 -0.060360543 0.10744631 -0.07440904 0.10421437 0.028272048 0.07970626 -0.044308305
0.008395586 -0.12496642 -0.013287477 -0.1368967 -0.03477774 -0.079483345 0.0695659 -0.11262912
-0.062123764 0.10305854 0.086411215 0.09912485 0.023445467 -0.16887967 0.038169824 -0.024609385
0.04386709 -0.1154591 -0.06465938 -0.047854368 0.005661798 0.030747762 -0.07569679 -0.013879294
-0.043419536 -0.05477891 0.031801227 -0.009831505 0.05217029 0.031966086 -0.0069478075 0.17234096
0.10136109 0.03552646 0.053339567 -0.0023855264 0.1057156 0.1087997 -0.054843623 0.12398866
-0.022985281 -0.11248802 -0.06346558 -0.07347828 -0.069186054 0.031280577 0.1008684 -0.09877406
-0.07225459 0.08600893 -0.056415614 -0.047718395 0.07194155 0.097362295 -0.0051616468 -0.11852669
-0.059386145 0.08031068 -0.029325897 -0.048072655 0.07374213 0.07558403 -0.01776347 -0.0049506887
-0.05656746 -0.083253704 -0.07756162 -0.06880913 -0.10212463 0.0073702745 0.09083339 -0.03276034
0.07491468 0.0016853464 -0.037434008 -0.096113056 -0.0515702 -0.0037416737 -0.006207603 0.061485074
0.09651887 0.08315611 -0.05854661 0.09015157 0.06406747 -0.047362603 0.10474884 0.07398447
-0.021189978 0.08540331 0.02384145 0.06103527 0.07979216 0.10659017 -0.10365545 0.03152261
0.031568598 0.04658948 -0.013838821 0.058830954 0.036886655 -0.056976102 0.010574818 0.06309774
-0.060916457 0.116626106 0.034933485 0.015062976 -0.079540566 -0.0154203195 0.0829807 0.004336304
00000000: ab58 5fbd e92c 06be ed82 903c f08d 763d
00000010: 7499 2f3c 6552 a73d 93fc dcbd bae2 2abd
00000020: 17a0 01be 8a94 863c 841d 5cbd d7e7 0fbc
00000030: bc19 dd3d 5419 9abb 751b 06be 18b7 c03d
00000040: d4b1 93bd e95a b13b ec05 4e3d 3030 dabd
00000050: 3939 2a3d 822d 81bd 54a7 54bd ee1d 98bd
00000060: 5c00 9f3d b985 9dbd fb93 21bd 91ec 53bd
00000070: 3842 133d 9b41 bfbd c793 2abd 6f7e 443d
00000080: 48d0 aabc 5b96 cf3d dd05 8e3d bdd6 d33d
00000090: fa78 b0bd 5185 093d d6ea 5b3d 952b 9abd
000000a0: 2a27 f4b9 b7ab 413d c800 55bd 4c2d 993d
000000b0: 5994 8dbd bf3a b3bc 5444 cd3d 0dec b6bd
000000c0: d758 2abd 6158 e13d 4d87 a63b 0cf3 c93c
000000d0: 980f 8a3d bfe3 7dbd 323f bbbc c012 d03d
000000e0: e482 cbbd 4159 94bd ed14 f6bc d704 8a3b
000000f0: 73c9 57bc e0eb a03d 6b52 89bd 76c3 b63c
00000100: e806 c33d 7559 8abd 4753 443c b814 1f3c
00000110: 81d7 f9bd bf2f d83c ba8d 1e3d 89e9 8a3d
00000120: 8f90 f5bd 5a4e b6bd 5fd2 53bd 65ea ed3c
00000130: aedd a6bd 7db8 b43d 789e ffbd 6f17 923d
00000140: d93b 9fbb 12b7 12be 0b09 43bd be05 543d
00000150: d12c 213e 0540 66bd 0222 433d 4a38 fabd
00000160: d76a 593d 3b92 943d c22b a1bc 126c c63d
00000170: 4bac 89bd 9af0 46bc 28d0 5f3c 0f08 fabd
00000180: d7b7 f4bd 81e3 c9bc 82fe 003d 2488 ee3c
00000190: 6aaa 15be 16fc b43d 149f 283d 8bb6 883d
000001a0: c23c 25bd 372a 00bd 4a85 4a3c cfe3 013e
000001b0: a178 a4bd 0931 b53d 9a14 9d3d bc11 34bd
000001c0: 3e50 cabd f7ea 373d 7fd7 a3bd 19ff 2a3c
000001d0: 9a73 90bd cec9 43bd 2188 39bd 126f 97bd
000001e0: da46 1abd da9c 50bd c887 76bd 6cb8 73bc
000001f0: 7cc3 183d f6d8 86bd 1323 ad3d bf9f 59bd
00000200: a015 b33d 2c80 a23b 9c03 33bd 7c29 80bd
00000210: 4641 2c3d 55bc 763c b5ce eebd da22 3ebc
00000220: db19 843d 9e3c 77bd d00c dc3d c463 98bd
00000230: 586e d53d c89a e73c 093d a33d a07c 35bd
00000240: a48d 093c 65ee ffbd b8b3 59bc a62e 0cbe
00000250: 1a73 0ebd 2ac8 a2bd 9178 8e3d 19aa e6bd
00000260: 7d75 7ebd 5b10 d33d 5df8 b03d f801 cb3d
00000270: b510 c03c cbee 2cbe f657 1c3d 9f99 c9bc
00000280: faad 333d d275 ecbd 236c 84bd f102 44bd
00000290: 9b86 b93b bbe2 fb3c eb06 9bbd fa65 63bc
000002a0: afd8 31bd da5f 60bd 0142 023d 5214 21bc
000002b0: 84b0 553d dfee 023d 6faa e3bb 267a 303e
000002c0: 6796 cf3d 3184 113d 977a 5a3d 7e56 1cbb
000002d0: 6c81 d83d 61d2 de3d b5a3 60bd c4ed fd3d
000002e0: a14b bcbc 1e60 e6bd 3efa 81bd c87b 96bd
000002f0: 6bb1 8dbd 1020 003d 1794 ce3d 0e4a cabd
00000300: 37fa 93bd 7325 b03d 0f14 67bd 5d74 43bd
00000310: 1756 933d e265 c73d 0823 a9bb 1fbe f2bd
00000320: e33e 73bd ed79 a43d dd3c f0bc d5e7 44bd
00000330: 1d06 973d cdcb 9a3d b284 91bc 6339 a2bb
00000340: 48b3 67bd eb80 aabd a0d8 9ebd cdeb 8cbd
00000350: b826 d1bd 5882 f13b db06 ba3d b52f 06bd
00000360: de6c 993d d7e6 dc3a 6754 19bd ecd6 c4bd
00000370: 463b 53bd de36 75bb 2669 cbbb c6d7 7b3d
00000380: afab c53d c04d aa3d 92ce 6fbd 63a1 b83d
00000390: ce35 833d 4aff 41bd 8f86 d63d 2b85 973d
000003a0: 9b96 adbc eee7 ae3d 254f c33c 1f00 7a3d
000003b0: 126a a33d f24b da3d 4f49 d4bd da1d 013d
000003c0: 134e 013d 9cd4 3e3d 39bc 62bc baf8 703d
000003d0: 7616 173d c65f 69bd 0042 2d3c 6339 813d
000003e0: 8983 79bd abd9 ee3d 6a16 0f3d b3ca 763c
000003f0: 2ae6 a2bd 82a5 7cbc c9f1 a93d 8e17 8e3b

fc2.bias f4 [10]
-0.024742601 -0.059026062 -0.06340409 -0.043817922 -0.038986944 -0.06345304 0.07520301 -0.007434959
0.055064898 -0.06621466
00000000: ffb0 cabc 50c5 71bd 01da 81bd 6c7a 33bd
00000010: c6b0 1fbd abf3 81bd 0904 9a3d f5a0 f3bb
00000020: bb8b 613d 8d9b 87bd
