models/Experiment 4/Trained on normal data/cnn_model_cons1.pt (torch, 456415 bytes, 8 tensors)

conv1.weight f4 [32, 1, 3, 3]
000000 98 9a 89 3e c2 ac aa be 8a 56 9b be c8 bf 98 be
       0.26875758 -0.3333493 -0.30339462 -0.29833817
000010 92 e6 37 be 24 ba 0c be b5 63 19 be 78 34 3e 3e
       -0.1795905 -0.13742882 -0.14979441 0.18574703
000020 b8 04 cc bd 54 c1 8f bd 16 f3 c3 3e 8d be d2 3d
       -0.099618375 -0.07019296 0.38271397 0.10290251
000030 c2 ed 86 3e c9 e8 b1 3e 10 64 64 3d f1 e6 c3 3e
       0.2635327 0.34747913 0.05575949 0.38262132
000040 c0 51 5e 3e 39 e3 9d be 5b 07 fc 3d 36 b9 5c 3e
       0.21710873 -0.3083742 0.123060904 0.21555027
000050 73 8e 9f 3e ef ae 83 be 13 d3 43 3e b3 06 47 3e
       0.31163368 -0.257194 0.19123487 0.1943615
000060 51 36 15 3e 9b 3a 23 3e 7a 66 19 3e 41 34 e3 3d
       0.14571501 0.15940325 0.14980498 0.11093951
000070 8b 28 a4 3e 41 db a5 3e fd ec a5 3d 2e 0d 3b 3e
       0.32062182 0.3239384 0.081018426 0.18266746
000080 21 65 88 be 34 c0 dc 3e c7 e0 64 3c 20 7f bd be
       -0.26639655 0.4311539 0.013969607 -0.3701105
000090 56 f8 bb 3d 25 6d 48 3e 44 bf a2 be a1 17 08 be
       0.09178226 0.19572885 -0.3178655 -0.13290264
0000a0 2a fb 51 3e 1e 74 99 be 2f 0d 36 3e a3 76 9a 3d
       0.20505968 -0.29971403 0.17778467 0.075421594
0000b0 62 5a d0 be 7b f2 f4 3d dd 2f f6 bd 5b df 33 be
       -0.40693957 0.11960312 -0.12020848 -0.17565672
0000c0 7d 44 25 3e 59 5b 30 3e f7 79 e5 3e b6 95 9f 3d
       0.16139407 0.17222346 0.44819614 0.07792227
0000d0 27 15 30 be e1 33 3f 3e 30 77 84 3d 8d 89 83 3e
       -0.17195569 0.18672134 0.06468046 0.2569088
0000e0 5f d4 db 3e e5 f3 7d 3e 5d 12 73 3e af ee 16 be
       0.42935464 0.2480007 0.23737474 -0.14739488
0000f0 b5 77 c1 bd 45 91 6b be b6 0c 94 3e 77 8a 8d 3d
       -0.094466604 -0.23004635 0.28915948 0.06911176
000100 e9 dd 86 3e 97 64 d0 3e ae d7 f1 bd bf 77 11 3d
       0.2634118 0.40701744 -0.11808716 0.03551459
000110 bb 84 34 bd 8b 40 5d be 28 73 d9 3e 9d 5d f0 3e
       -0.044071894 -0.21606652 0.4247067 0.4694642
000120 86 3e cf 3d 57 34 63 3e 56 07 db 3c 05 03 ce 3e
       0.10119347 0.22187935 0.026736896 0.4023668
000130 f9 cd 73 3e 20 79 3b be 5b 4a d1 3b 80 01 d8 3e
       0.23809041 -0.18307924 0.0063870377 0.42188644
000140 71 9f ca 3e e9 87 8b 3e 66 b0 8e 3e f5 e6 7f bd
       0.3957477 0.2725213 0.27868956 -0.062476117
000150 9a d5 70 3e 8f 88 3b be cc 8d 91 3e ea 9b ec be
       0.23518983 -0.18313812 0.28428495 -0.46212703
000160 cf 4f 8f be aa a7 64 be ce 0a 41 3e 51 f3 d0 3e
       -0.27990577 -0.22329584 0.18851778 0.40810636
000170 6f 49 95 3e ee 48 42 3e 23 8f d4 3d 85 1f df 3d
       0.29157588 0.18973133 0.10378864 0.10894684
000180 62 12 b9 3e a1 8a b7 3e bb 6f e3 3d 93 8a 9a 3d
       0.36146837 0.35847953 0.11105295 0.07545962
000190 bd db da 3e bf d9 28 3e ab fe 0b 3e f6 6b 01 be
       0.42745772 0.16489314 0.13671367 -0.1263884
0001a0 67 0b 7a be 98 2d a3 3e 16 29 d5 3e b1 4e f1 3e
       -0.24418412 0.31870723 0.4163291 0.4713035
0001b0 e9 1d 87 be c9 90 3d be 12 a3 26 3e 9b 2a ba 3e
       -0.26390007 -0.18512262 0.16273144 0.3636063
0001c0 c4 f8 71 bc 4b fd d4 3e d4 90 b8 3e 89 3c 97 3d
       -0.014768783 0.41599497 0.36047995 0.07384593
0001d0 49 07 ed 3e 80 21 53 3e a5 90 83 3e 22 d7 93 3e
       0.4629462 0.20618248 0.25696293 0.2887507
0001e0 a5 37 39 3e e4 e7 89 3e 39 b4 92 3d 42 14 99 3e
       0.18087633 0.2693473 0.07163281 0.29898268
0001f0 65 48 32 3c 6b 92 f6 bd db 62 a8 3e 78 5f 14 3e
       0.010881518 -0.12039646 0.3288792 0.14489543
000200 71 1e f2 3d 3d f9 9c bd 10 b3 41 3e e3 85 ec 3e
       0.118222125 -0.07664726 0.18915963 0.46195897
000210 f4 ef 84 be c3 38 b6 3d df 5c b6 3e bc 8c ac 3c
       -0.2596432 0.08897545 0.3561773 0.021063201
000220 8a 84 35 3e 5a da b4 3e 2b f8 c9 bd 53 4e 8f 3e
       0.17726341 0.3532284 -0.098617874 0.27989444
000230 4b 76 f4 bc 5f b3 56 be 22 94 f1 be 5b 83 ad be
       -0.029841563 -0.20966862 -0.4718333 -0.3388928
000240 b9 0d 83 be 87 4a d2 be 95 33 e0 bd 48 73 a3 3d
       -0.25596407 -0.41072485 -0.109473385 0.079809725
000250 6c ba bf 3e 0d 0c c0 bc f5 2f 7d 3e cf 33 36 3d
       0.37446916 -0.023443246 0.24725325 0.044483002
000260 22 2c 8c 3d 28 ef 08 3e b5 c0 a5 3e 21 10 a5 3e
       0.06844355 0.13372481 0.32373586 0.32238868
000270 9f 39 06 3e a7 e4 27 3e 90 7d 90 bb 00 9a 0c be
       0.13107918 0.16395818 -0.0044094995 -0.13730621
000280 71 13 ea bd f2 dc f1 bd e7 5a 17 be 55 90 98 3e
       -0.114294894 -0.1180972 -0.1478077 0.29797617
000290 dc af ee bd 1f c5 f9 bd 19 20 80 be f9 64 b7 be
       -0.11654636 -0.12195801 -0.2502449 -0.35819224
0002a0 97 51 4f be 62 bd 6a be 6a 90 08 be 96 af 15 bc
       -0.20245968 -0.22923806 -0.1333634 -0.009136101
0002b0 72 a7 ba bb 07 0e 9b be b3 8e 12 3e 2e b1 4a be
       -0.0056962306 -0.3028414 0.14312248 -0.19794151
0002c0 55 54 62 be a4 f7 c6 bd d2 df d0 3e 2c eb ad 3e
       -0.22102483 -0.097152025 0.4079576 0.33968484
0002d0 2d f6 2a 3e 3b dd 2d 3e ca db d7 3e 05 7f 70 3e
       0.16695471 0.16978924 0.42159873 0.23485954
0002e0 5f 72 ea 3d 13 f7 ca 3e fd 49 91 be 24 da 58 bd
       0.11447596 0.39641628 -0.2837676 -0.05294241
0002f0 9f f8 d6 3d 78 5d 90 bd a4 28 ba 3e a2 4a 9f bd
       0.104966395 -0.07049078 0.3635913 -0.07777907
000300 45 10 e5 3e e2 ad d2 bd f6 0c 27 3e c2 07 0f 3e
       0.44738975 -0.10287072 0.16313538 0.13967803
000310 89 bf 67 3e f0 3c fb bd dc 0d 60 be 89 6c 6f 3e
       0.22631659 -0.12267482 -0.21880287 0.23381247
000320 08 92 94 be ea b1 b0 be 56 10 be be f4 cb 68 be
       -0.29017663 -0.34510738 -0.37121838 -0.22734052
000330 ec a5 ad be ed 3d 84 3d df 8d 51 be d5 f9 9d be
       -0.3391565 0.06457124 -0.20464276 -0.3085467
000340 06 51 dd bc 34 f8 32 be af 21 c0 3e bd ee 85 3e
       -0.027016174 -0.17477494 0.375257 0.26158705
000350 eb 1f a9 3d 60 09 02 3d 10 82 d9 3d ed 79 75 3d
       0.08258041 0.031747222 0.106205106 0.05993073
000360 7b 2c 3e 3d c2 ef 90 3e 66 91 94 be 37 64 5f 3e
       0.04642914 0.2830792 -0.2901718 0.21815573
000370 ca 4d 58 3e 9d de 7f 3d c9 7b f8 3d e1 98 91 3e
       0.21123424 0.06246816 0.12132985 0.2843695
000380 9c a2 8b 3e 92 22 6f 3d 38 50 bd 3d 5e ed 0b bd
       0.272725 0.05838258 0.09243816 -0.034161918
000390 fb f6 cd bc ea a5 e3 bd 48 ec db bd cf a9 d2 3e
       -0.025142184 -0.1111563 -0.107384264 0.4114518
0003a0 6f b2 ee 3e 1b 2c 99 3e d1 1a da bd c2 71 a0 be
       0.4662051 0.29916462 -0.10649646 -0.3133679
0003b0 a4 bb 0e bd 7a 8a 4a be 5b 5e c9 3e ad 1e 72 3e
       -0.034846917 -0.19779387 0.393298 0.23644514
0003c0 29 6b c6 3e 3e eb f9 3e 40 48 49 3e a2 06 d5 3e
       0.38753632 0.48812288 0.19656467 0.41606623
0003d0 a7 0b 11 3e bb 63 5f 3e ef 5f a0 be ed 95 82 3e
       0.14164601 0.21815388 -0.31323192 0.2550501
0003e0 4e 81 28 bd a8 fa c0 be 4f 6f ec be 9d fd 60 be
       -0.04113894 -0.37691236 -0.46178672 -0.21971746
0003f0 e1 1a ae 3e b1 1e 8d 3e 0f d3 62 be 34 db bf 3e
       0.34004882 0.27562478 -0.22150825 0.37471926

conv1.bias f4 [32]
000000 6a 88 5d be c6 d4 64 3e da 8a a6 3d c9 3f fb 37
       -0.21634069 0.22346792 0.081319526 2.9951234e-05
000010 dd 42 98 3e f4 ce e2 bd c8 d0 46 bd 58 4a 78 3d
       0.29738513 -0.110746294 -0.048538953 0.060617775
000020 6d 4b 88 b7 ca a2 0d 3e 32 22 e1 b7 71 51 fd bb
       -1.6247586e-05 0.1383163 -2.6838014e-05 -0.007730656
000030 7b dd 85 3d 0a ea 68 3e d9 0b 6a b9 d4 c0 90 3d
       0.06536385 0.22745529 -0.00022320393 0.07068029
000040 81 13 19 bc c2 86 c6 bd 40 d0 a3 3e aa 23 d8 bc
       -0.009343029 -0.09693672 0.3199482 -0.026384193
000050 8d d7 86 3e 93 b3 77 3e a7 50 c6 3e d3 5b b4 bc
       0.26336327 0.24189596 0.38733408 -0.022016441
000060 ef 78 59 3c 3e 92 97 3d cf 88 87 bd fe 41 a6 3e
       0.013273462 0.0740094 -0.06617891 0.32472223
000070 f4 95 00 be e6 c0 96 3e 6b 2b 7a be df 26 80 3e
       -0.12557203 0.29444045 -0.24430625 0.25029656

conv2.weight f4 [32, 32, 3, 3]
000000 a9 41 7a bd 8b 81 6f 3d d7 47 9f bc e1 1f 5b bd
       -0.061097775 0.05847315 -0.019443436 -0.0534972
000010 09 ed 72 bd fa 43 3e 3d d3 62 b3 bc 5c f3 d1 bb
       -0.059308086 0.046451546 -0.021897709 -0.0064071845
000020 fd 6d b1 3c 01 eb 88 3d 37 fc 6a 3c eb de d6 bd
       0.021658892 0.066854484 0.014342359 -0.10491737
000030 b0 f4 ac 3c 0c 9c 13 3d ea 10 75 3c 2d cf f6 bc
       0.02111277 0.03603749 0.014957646 -0.030128086
000040 14 77 cd 3c 9b db ca bc 58 92 88 3c a1 3e eb bc
       0.025081195 -0.02476292 0.016671345 -0.028716387
000050 8f 7c 99 bd 97 67 ab 3d 2b fc 13 bd b9 6f 03 be
       -0.07494461 0.083693676 -0.036129158 -0.12835588
000060 29 84 92 3d 8c 5f b5 3d 5a 06 3f 3d 35 6e c1 3c
       0.07154114 0.08856115 0.046636917 0.023612121
000070 97 72 86 3c 5e d3 5d 3c a5 20 0c 3d d7 4c e1 bc
       0.016412063 0.013539163 0.03421082 -0.02750246
000080 e6 fa da bd 5b aa ff bc ad 63 fd bb 6c f3 70 bd
       -0.10692386 -0.031209162 -0.0077328295 -0.058825895
000090 8d 6d 6c 3d bb d8 81 3d d8 f5 61 bc 8d 93 4a bd
       0.057721663 0.06340166 -0.013791524 -0.04945712
0000a0 48 f8 81 3d cc 59 a9 3c 41 a5 15 be 1a c9 c0 bd
       0.06346184 0.020672701 -0.1461382 -0.09413357
0000b0 88 d0 df bd 7b 00 7c bc 1b a9 de bd 18 56 b1 bd
       -0.10928446 -0.015380974 -0.10872098 -0.08658999
0000c0 7f 03 e2 3d f8 99 1b 3e 32 db 99 bb 77 65 38 3d
       0.11035823 0.15195453 -0.0046953196 0.04501864
0000d0 74 be 47 3e 84 bf fa 3d 52 58 f1 3a 0b a8 36 3c
       0.19506246 0.1224356 0.0018413162 0.011148463
0000e0 d4 28 d8 bd 17 8a e8 3c 2e 8c 7e bd d8 cc d2 bd
       -0.10554662 0.028386159 -0.062145405 -0.10292977
0000f0 25 ba 8a 3d 67 ed f7 3c a9 de da 3d 8a 33 17 3d
       0.067737855 0.03026457 0.10687 0.036914386
000100 02 fd 8d bd f1 fc 3a bd f6 79 e7 3d bc 6c ec 3c
       -0.06933023 -0.04565138 0.11302559 0.028860442
000110 a8 27 14 bd 63 45 ba 3d 6d ef a7 3d 29 ee bc 3c
       -0.03617063 0.09095266 0.08199964 0.023062782
000120 1a 19 96 3c 1d d8 8d 3d e4 64 89 bd e7 52 e3 3c
       0.018322516 0.06925986 -0.067086965 0.027749492
000130 31 ee 02 3d dc 1b 98 3d c5 d7 a4 3d 05 72 fe 3d
       0.03196544 0.07427189 0.08048967 0.12424091
000140 67 63 97 3d a6 ac 11 be 3e d6 6d bd a9 14 47 3c
       0.07392006 -0.14226016 -0.058065645 0.012150922
000150 29 8d c7 bd af 06 bc bd c6 01 d4 bd a0 ac ab 3a
       -0.09743721 -0.09180962 -0.10351901 0.0013097711
000160 4c 70 c8 3d 5d 3f 8e 3d d2 d9 b8 3d 32 a6 ad bc
       0.09787044 0.06945679 0.09025921 -0.021197412
000170 6a 9f 02 be 49 99 4c bc 1e 48 ca 3c 1f ff 79 bd
       -0.12756124 -0.012487718 0.024692591 -0.061034318
000180 99 51 77 3d 59 1a 64 3d 5d 79 63 3d 75 a9 c2 3d
       0.060380552 0.05568919 0.055535663 0.095049776
000190 ed f4 ab bb 32 65 54 bd 51 ac 43 3d d6 96 1d 3c
       -0.0052477033 -0.05185432 0.047771756 0.009618482
0001a0 17 53 84 3c c6 7d 64 3d 31 9d d6 3d ee 50 51 3d
       0.016152902 0.05578401 0.10479201 0.05110257
0001b0 20 59 06 bd 79 2f d0 bc 4a 0e b9 bd 93 8e 73 3d
       -0.03279984 -0.025413262 -0.090359285 0.05946214
0001c0 9a 61 b0 3d aa 0d 9e bb 09 d0 f6 3b 3f 76 91 3d
       0.08612366 -0.004823406 0.007532124 0.07102632
0001d0 60 93 d7 3d 0d 0c 39 3d 39 5e 43 3d 21 61 89 bd
       0.105261564 0.04517751 0.04769728 -0.06707979
0001e0 02 f5 05 bd 54 84 41 3d 18 9e b4 bd 98 54 c9 bc
       -0.03270436 0.04724534 -0.088192165 -0.02457647
0001f0 12 7f 0c 3c f7 4f 6f 3d f8 68 b8 3c 91 ee 59 bd
       0.008575218 0.05842587 0.02251099 -0.05320603
000200 84 c2 ec bd fa a8 aa 3d 88 0a 21 3d 3f 6a b0 bd
       -0.115605384 0.08333011 0.039316684 -0.08614015
000210 23 07 82 3d a1 bf 98 3d 28 21 13 3e 82 68 21 be
       0.063490175 0.07458425 0.14368117 -0.15762523
000220 a2 7c 82 bd fd f2 72 3c ef a6 3d be 68 7b 34 be
       -0.06371428 0.014828441 -0.18520711 -0.17625201
000230 8b 5d 7a bd 21 f6 87 3d f4 ff 2d 3e c4 d7 8c 3d
       -0.061124366 0.06638742 0.1699217 0.068770915
000240 de 53 5d 3b e2 bd fd 3b 88 d1 26 bd e0 07 28 be
       0.0033771913 0.007743583 -0.04072717 -0.16409254
000250 ab 75 41 bd a4 4e a8 3d 54 90 17 be fb 0a 0c 3a
       -0.047231358 0.082181245 -0.1480115 0.00053422124
000260 e2 f7 4f 3e ef 9d 74 bd 9f 62 6b bd ea fe cf bd
       0.20309404 -0.05972093 -0.0574671 -0.10156043
000270 7d 6e ee bc 77 9a db bd a8 f8 d0 bd 00 e2 80 bc
       -0.02910542 -0.10722821 -0.102036774 -0.015732765
000280 96 4d 0f 3d 4a 29 1b 3c bc d7 02 be 54 ea 31 bc
       0.0349861 0.009470293 -0.12777609 -0.010859091
000290 78 f5 b5 bc a3 57 dd bd d6 5c af bd 35 08 a8 bd
       -0.022211775 -0.10807731 -0.08562629 -0.0820469
0002a0 66 7c c6 bd c8 b3 2c be 6e a8 27 be d3 6b 96 3d
       -0.09691696 -0.16865456 -0.16372845 0.073447846
0002b0 2e 48 c9 3d 41 66 97 bd ba 38 37 3d aa db 31 3e
       0.0982822 -0.0739255 0.044731833 0.17368951
0002c0 a9 9d f1 3d 77 a8 52 3d 61 76 c0 3d e1 7c 8b 3e
       0.117976494 0.05143019 0.09397579 0.27243713
0002d0 e7 b6 17 bd d5 97 dd bd d6 05 72 bd 48 da 4d 3d
       -0.037039664 -0.10819975 -0.059087597 0.050256997
0002e0 6a 87 eb bb df eb c8 bd b0 2e ba 3d 4a e9 ed 3d
       -0.0071877735 -0.09810614 0.09090936 0.11616762
0002f0 6e 1a d5 3d 3d be 00 3d 7d 5b 16 3d 16 d7 71 bd
       0.10405432 0.031431425 0.036708344 -0.059043013
000300 d9 ff 82 3d b5 cb 8b 3c 67 56 42 bd 6d a5 b8 3c
       0.06396455 0.017064909 -0.04744568 0.022539819
000310 ff b9 8b 3d 54 fe 3c 3d 36 22 02 bd 78 4b a0 bd
       0.06822585 0.046140984 -0.031770907 -0.078268945
000320 be 41 47 bd 23 82 14 be 0f 5e de bd 6e 82 08 bb
       -0.04864668 -0.14502768 -0.10857784 -0.0020829695
000330 12 f3 cd bd 3f ec 12 be ac ba f9 bd 69 eb be 3c
       -0.100561276 -0.14347933 -0.12193808 0.023305612
000340 3d fb 4c 3b fe 94 22 be 5a 6e 04 bd d3 2f b4 3d
       0.003127768 -0.15877149 -0.032331802 0.08798184
000350 55 c5 d4 3d 0f da 05 bd 46 81 a6 3d e8 af 46 3e
       0.103892006 -0.03267866 0.08130126 0.1940304
000360 f1 e6 99 3d f2 3c 6d 3d 01 39 ef bd 36 8a fa 3d
       0.07514752 0.05791945 -0.116807945 0.12233393
000370 9f 44 86 3d d4 87 9d 3d a6 fc be 3d 6d cb c0 3d
       0.06556057 0.07691923 0.093255326 0.094138004
000380 54 25 0e 3e 7d 1f 8a 3d 76 22 98 bc cc 93 b0 bd
       0.13881427 0.06744287 -0.01857112 -0.0862194
000390 e8 e1 af 3d 03 7a 83 3d d8 c0 7a 3c b6 c3 0b bb
       0.0858801 0.06419756 0.015304767 -0.002132637
0003a0 a9 09 f5 3d 7e c1 3b 3d 5e 93 09 3d fd 56 ad 3a
       0.11964733 0.045838825 0.033587806 0.0013224777
0003b0 cf d2 20 be c2 19 a1 bc ec 72 9f 3c bb 42 b9 3d
       -0.15705417 -0.019665603 0.019463979 0.09045931
0003c0 9d df 98 bc 98 5f 00 3d 1b 8f 70 3d bf b8 0a be
       -0.018661315 0.031341165 0.058730226 -0.13547038
0003d0 40 cb 8e bd 7f 12 ae 3c b4 08 e2 bd 86 e2 cb bd
       -0.069723606 0.021249054 -0.11036816 -0.09955315
0003e0 54 b9 a8 bd 1b 32 96 bc 8e bc ef 3d 35 80 d7 3d
       -0.082384735 -0.018334439 0.11705886 0.105225004
0003f0 3c 54 00 3e a1 14 af 3d b3 f2 84 bd 04 ad 14 3c
       0.12532133 0.085488565 -0.06491604 0.009074453

conv2.bias f4 [32]
000000 24 84 86 bd 04 3e 85 bc 28 89 b9 3c 4e 58 25 3c
       -0.065681726 -0.016264923 0.022648409 0.010091854
000010 f9 b4 b1 bc fb f4 61 3d 60 5e 4e bd 77 44 ca bc
       -0.02169274 0.055165272 -0.05038297 -0.02469085
000020 3a d2 fc 3a 04 8d 20 bc 4d 51 8d bb d6 50 6b 3d
       0.0019288727 -0.009799246 -0.0043126703 0.057450138
000030 dc 1a a8 bc a1 c2 ca bc 00 4d 80 bd 6d bd 0c bc
       -0.02052062 -0.02475101 -0.062646866 -0.0085900845
000040 cb cd 82 bd d4 0f 09 bd 5c 1e 10 bd cd a8 02 bd
       -0.06386908 -0.03346236 -0.035185203 -0.031899262
000050 06 e0 be bb 01 4b 39 bd 7d fa 35 3d 7f 31 f9 3b
       -0.0058250455 -0.045237545 0.044428337 0.0076047773
000060 73 fc a7 3c cc f4 17 3c 41 f8 4d 3d e2 dd 81 3d
       0.02050612 0.009274673 0.05028558 0.06341149
000070 92 f6 03 3d 20 56 07 bd 2e 81 85 bc ea 16 0f 3c
       0.03221757 -0.03304112 -0.01629695 0.0087334905

fc1.weight f4 [128, 800]
000000 aa 82 08 bc cb 4a bc 3c 52 f9 ff bc 06 a9 03 3d
       -0.008331934 0.022984883 -0.031246815 0.032143615
000010 10 89 20 3d e6 47 a0 3b 2f 25 fa 3c f1 3c 29 3d
       0.039193213 0.0048913835 0.030535309 0.041317884
000020 19 da ce 3c 78 dc 51 3d 64 dd 87 3d d3 c2 97 3c
       0.025250481 0.051235646 0.06634024 0.018525517
000030 cb 57 a4 3c 7a e9 bd bc c0 4a 9c bb 30 70 23 bd
       0.020061394 -0.02318262 -0.004769653 -0.039901912
000040 12 47 0f bd 46 a9 2d 3d 63 ad ce bb 55 9f b8 3c
       -0.034979887 0.04239776 -0.0063072904 0.022536913
000050 d3 a6 7c bd b8 5f 55 bd c0 2e 62 3d d9 b9 d2 ba
       -0.061682533 -0.052093238 0.055220366 -0.0016077115
000060 f6 ed 72 39 d9 92 1c bc ba e6 91 3b 24 33 6f bc
       0.00023167566 -0.009556496 0.0044525536 -0.014599595
000070 76 e3 06 3d 21 d9 08 3d 8c 4e 9c 3c 39 fd e3 bb
       0.032931767 0.033410195 0.019080423 -0.0069576767
000080 ba 0a c0 3b 9e 58 33 3c e1 43 f1 bc 28 15 b0 bc
       0.0058606537 0.010946421 -0.029451312 -0.021494463
000090 1b 05 4e 3d 74 ac 4f 3d 1a b5 25 3b 8e 06 55 bb
       0.050297838 0.050701573 0.0025284947 -0.0032505128
0000a0 71 e7 1f bd 1d a6 83 3b 32 40 0b bc ba 5f 2a 3a
       -0.03903908 0.004017605 -0.008499192 0.000649925
0000b0 e9 87 74 3d 9b e6 b9 3c 53 ae d7 3b 53 c1 6a 3d
       0.059699927 0.02269297 0.0065820604 0.057313275
0000c0 b4 15 f8 3c 15 53 a0 bc 8c 07 91 3c 97 df 9b 3c
       0.030283786 -0.019570867 0.017703794 0.019027514
0000d0 16 ed 69 bb 40 48 04 bd 68 8e d7 bc 1d 8b 38 bc
       -0.0035694293 -0.032295465 -0.026313022 -0.011263636
0000e0 22 d2 49 ba 89 2b c5 bc c0 a2 8a bc 75 ce 11 bd
       -0.0007698854 -0.02406861 -0.016923308 -0.035597283
0000f0 f9 66 cb bc 5e 06 d7 3c 8c ac 1c bd a8 c1 34 bc
       -0.024829375 0.026248153 -0.03825049 -0.011032499
000100 67 4c c6 3b bd 45 c7 bc c5 ab c6 3c 4a d4 13 3d
       0.0060515883 -0.024325246 0.024251828 0.036091127
000110 a1 26 0f 3d e2 e8 4a 3b 1b 73 81 3b 47 80 b6 bc
       0.03494895 0.0030961563 0.003950489 -0.022277964
000120 28 83 f1 bb 17 73 24 bb 57 f4 1d bd a2 02 36 3d
       -0.0073703714 -0.0025093013 -0.0385631 0.044436105
000130 59 a6 99 bb cf fd 0b 3d f6 a3 a1 3c 02 a9 a2 3c
       -0.0046890196 0.034177598 0.019731503 0.01985598
000140 ef 7d 99 bc e0 7a 7f bc d7 b9 1d bc 72 8a e8 bc
       -0.018736808 -0.0155932605 -0.009626827 -0.028386328
000150 ba c0 bc bc d3 d6 3c bb 7a 74 7a 3c e5 e1 b4 bb
       -0.023041118 -0.0028814569 0.015286559 -0.005520093
000160 87 bf b8 bc db 90 1c 3c 2e 3e e9 ba bf 61 31 bb
       -0.022552265 0.009556021 -0.001779502 -0.0027066318
000170 2a 32 5e bb f1 c8 db 3c 4c f9 11 bc 0d e1 e7 bc
       -0.0033904412 0.026829215 -0.008909535 -0.028305555
000180 fc 8e 05 3d 52 01 5d 3d 28 44 de 3c ee 46 d1 bb
       0.032607064 0.053956337 0.027132109 -0.0063866293
000190 d5 96 7e 3a fd 29 45 3d 96 8d 31 3d 86 0e dd 3b
       0.0009711807 0.048135746 0.043347917 0.006746116
0001a0 53 38 ab 3c 8a 36 fd 3c 2b 85 1e 3d a2 a9 4e 3d
       0.02090088 0.030909795 0.038701218 0.050454743
0001b0 7f 96 c2 3c 81 58 22 bc b8 e7 e3 bb 09 55 13 bd
       0.023753403 -0.009908796 -0.0069551133 -0.035969768
0001c0 ee a2 5c bc 18 2a 1b 3d bf 07 6d 3b ed c1 15 bc
       -0.01346658 0.03788194 0.0036167947 -0.009140474
0001d0 b5 43 b5 3d e0 53 55 3d 50 c9 e3 ba 60 10 d4 bc
       0.08850805 0.052081943 -0.0017378721 -0.025886714
0001e0 89 f8 f4 3c d6 9b 0e 3d 40 e6 ce 3c 19 38 2e bc
       0.029903667 0.034816585 0.025256276 -0.010633492
0001f0 1e 8c 01 3c f0 0a 4f bc fd 4b 7f 3c 1f 0c d2 3c
       0.007906942 -0.012636885 0.015582082 0.025640545
000200 ad 3b 7d bb a1 c9 a7 bc e4 6e 0c 3c 46 49 32 3c
       -0.0038640306 -0.020481886 0.00857136 0.010881728
000210 f1 be 22 3c a8 d7 a3 bc ab c5 54 3c 13 89 db 3c
       0.009933219 -0.020000294 0.012986581 0.02679876
000220 fa 30 e9 3c 4c 28 8c 3c 16 ec 00 3c 37 b7 b7 3c
       0.028465737 0.017109059 0.007868787 0.02242623
000230 c6 f6 de 3c c6 64 41 3d 0b 18 16 3c 6f 80 e6 bc
       0.02721728 0.047215246 0.009161006 -0.028137414
000240 21 07 02 bd 6e f5 33 3c e1 e6 0d 3d 91 b4 9f 3c
       -0.03174508 0.010983808 0.03464401 0.01949528
000250 47 5a 2e bc b3 fd 31 bc 1b 49 f3 3c ce 78 47 3a
       -0.010641641 -0.010863709 0.029697945 0.0007609249
000260 ea ad da 3c 03 a4 8b 3b 0f 0c 47 bc 6e d8 cf 3c
       0.026694257 0.004261495 -0.012148871 0.025371756
000270 cf f6 79 3b b5 8d 7d bb e7 28 9c 3c 7e b5 92 3b
       0.0038141494 -0.00386892 0.019062473 0.004477202
000280 1d 82 3b 3d 09 3f 60 3d 44 3e d5 3c a9 14 30 3c
       0.045778383 0.054747615 0.026030667 0.010747113
000290 56 81 80 3d fb 16 b2 3c 2c f0 35 3d 6b bd 44 3c
       0.06274669 0.021739474 0.0444185 0.012008051
0002a0 5d 77 e7 3c 49 d5 3e ba 15 91 e0 bc ec c7 6b bc
       0.028255159 -0.0007279707 -0.02741293 -0.014390927
0002b0 4a f8 8e bc 1e 29 ac 3c 4d 01 b9 ba 5b 2f 8a 3c
       -0.017452378 0.0210157 -0.0014114768 0.016868284
0002c0 f4 4e 70 3d e1 0a 82 3d 46 0e 49 bc b1 44 54 3d
       0.058669046 0.06349731 -0.012271469 0.05182332
0002d0 cb c0 03 3d 59 83 cc 3b 5a 4a 24 3c 0b 48 53 3b
       0.032166284 0.006241244 0.010027492 0.0032238986
0002e0 fe db d2 3c bd 76 a5 3c 8b 08 c2 bc 22 a8 6c 3c
       0.025739666 0.02019822 -0.023685714 0.014444383
0002f0 0b 44 0d 3d 51 e2 1b 3d 05 63 e5 3c a5 11 58 3d
       0.03448872 0.03805763 0.028001318 0.052751202
000300 37 85 de 3c 88 8d 5a 3b fe 4e dd 3b 5e a7 9d 3c
       0.027163131 0.003334852 0.0067538014 0.019244846
000310 fc 59 32 3c e2 c0 f8 3b f4 e8 aa 3c cb 3b 3b 3b
       0.010885712 0.007591353 0.020863034 0.0028569575
000320 be 39 a8 bb 59 4c 1b 3b f7 dd 02 3d 34 e2 2e 3c
       -0.0051338365 0.002369663 0.031949963 0.010674048
000330 7d 20 5d bc 73 cb 47 3c 3e d3 1c 3d 8d 0a 92 3a
       -0.013496515 0.012194502 0.038287394 0.001114206
000340 28 9f ee bb ea cb 14 3c 41 7f c7 3b a8 98 31 3d
       -0.0072821565 0.00908182 0.006088168 0.043358475
000350 5f 29 02 bd 52 43 7b 3c 8b f5 77 b9 de 6d 00 bb
       -0.031777736 0.015335875 -0.00023647227 -0.0019596736
000360 23 72 5e 3d 54 9d c7 3c 7a d5 35 3d 3b f0 49 bd
       0.054308068 0.024367012 0.04439304 -0.049301367
000370 e7 04 c3 bc dc c8 c4 3c 3d af ba bc 8e f9 99 bc
       -0.023806049 0.024021558 -0.022788638 -0.018795755
000380 6a ad 03 bd 53 b3 bb 3c bd 4f 48 3c 05 d6 2a 3c
       -0.032147802 0.022912657 0.012226042 0.010427003
000390 b6 e6 e4 3c e4 da f1 bc 2c 91 85 3a 09 bd 3f bc
       0.027942043 -0.02952332 0.0010190359 -0.011702784
0003a0 66 a9 1d 3b 30 2f b5 bc cf ce 53 3b 20 a6 b6 3c
       0.0024057268 -0.022117227 0.0032319312 0.022296011
0003b0 bc 7d a2 bc 1e 75 9e bb fc fa 01 3b 13 b0 3f 3c
       -0.019835345 -0.004835739 0.0019833436 0.011699694
0003c0 43 dc 27 3b 6c a6 a1 3c 73 a6 52 3b 53 ab 6e bb
       0.0025613464 0.019732676 0.0032142668 -0.0036418035
0003d0 7c ed 95 3b 70 46 2c 3d 0d f0 e2 3c bc 61 c2 3b
       0.0045754295 0.042059362 0.027702356 0.005932061
0003e0 f7 ac 0f 3d a8 3b 9f bb c1 c1 cc bb 1d c4 bb 3c
       0.03507706 -0.0048594065 -0.006248683 0.022920663
0003f0 58 e9 03 3d e9 ac 41 3d 32 4e 37 3c c8 a9 f9 bb
       0.032204956 0.04728404 0.011188077 -0.0076191165

fc1.bias f4 [128]
000000 97 83 02 3d 62 25 3b ba 44 97 ed bc 91 ad 82 3b
       0.031863775 -0.00071390544 -0.029002793 0.003987976
000010 9f 11 c2 3b 77 25 42 3c bc 8b 71 bc f1 91 d7 3c
       0.0059225108 0.011849753 -0.014742788 0.026314707
000020 ad a4 da 3c 81 a8 c1 3c b5 a7 82 bc 09 32 d2 3c
       0.026689852 0.02363992 -0.01594911 0.025658624
000030 38 33 02 3d cb ac 98 3b dd ef 80 bc df 9d 03 3b
       0.031787127 0.0046592704 -0.015739376 0.0020083112
000040 a7 da b1 3c 1b b9 d6 b9 76 0c f3 ba c6 27 cc 3c
       0.021710707 -0.00040955175 -0.0018543142 0.02492131
000050 17 e9 2f bd e5 02 96 bc b1 d5 3d bc 9a 6e 15 3d
       -0.0429469 -0.018311927 -0.0115865925 0.03648243
000060 b9 3e cd 3c 65 38 9a 3c f5 de b4 3c af f9 a8 3b
       0.025054323 0.01882572 0.02207897 0.0051567177
000070 3c 9f 81 3c 0e 95 92 bc 08 f2 aa 3c 16 76 ef ba
       0.015823 -0.01789334 0.020867363 -0.0018269445
000080 01 bd b7 bc ba 9a d0 bb 93 85 42 3b 1f 88 ab bc
       -0.022428991 -0.006366101 0.0029681667 -0.020938931
000090 a4 f5 4d bc 3f 74 2c bd 4c 9e f1 3c 0d af 16 bd
       -0.012570772 -0.04210305 0.029494427 -0.036788035
0000a0 8a 09 ff 3c a5 03 28 3d bf a8 17 bd 5e 5c 0a bd
       0.031132478 0.0410191 -0.037026163 -0.033779494
0000b0 20 f6 04 3d da cc 11 bb 1f b0 fc bc 14 33 80 3c
       0.032461286 -0.0022247345 -0.0308457 0.015649356
0000c0 e7 1c b7 3c cb 65 98 bc b2 b5 8e 3c c7 f5 54 bd
       0.022352649 -0.018603226 0.017420623 -0.051992204
0000d0 cc a3 b5 3c 6d 1c 1b 3c 9f e1 70 3d c8 40 c8 3c
       0.022172831 0.009467226 0.05880892 0.024444953
0000e0 bb 51 0d 3c 89 82 ea 3c 29 bd 2d bd 90 8e 11 bd
       0.008625443 0.028626697 -0.042416725 -0.03553635
0000f0 fd eb b1 bb a6 9e b7 ba ce 6f 9a 3c c2 83 36 3c
       -0.0054297433 -0.0014009073 0.01885214 0.011139812
000100 2e e7 29 3c be c8 dc bb 27 34 ac bb 3d 12 49 3c
       0.010370059 -0.0067377975 -0.0052552405 0.012272415
000110 d6 9e 0a 3d 19 a5 52 3c a8 ae 6e bb 85 68 61 3c
       0.033842884 0.012856745 -0.0036420021 0.01375783
000120 ae 7f 7b 39 ad 3d eb 3b 08 aa 07 bc bc 69 cd bc
       0.0002398479 0.007178983 -0.008280285 -0.025074832
000130 1f f2 06 bc a2 bc 9b ba 19 9b cd 3c 85 e9 03 bd
       -0.008236437 -0.0011881778 0.02509837 -0.032205123
000140 39 c9 39 3c 90 e5 d7 3b d0 3e 1a 3d a9 d9 3e 3c
       0.011339479 0.0065886453 0.03765756 0.011648574
000150 9f 8a 9e bc 24 e1 c3 3c e4 6f 20 3d bb bb 00 3d
       -0.019353209 0.023911066 0.039169207 0.031429034
000160 4f 33 f5 bc ac 88 e4 3c 39 c8 e6 3c 4f 81 f9 bc
       -0.029931692 0.027897201 0.028171645 -0.030457167
000170 a0 25 c3 3b 68 f8 b3 bc a5 bb 07 bd ae 83 97 bc
       0.005955413 -0.021969035 -0.033137936 -0.018495407
000180 7c 3e 20 bb 95 9f ca 3c 0b e7 9d 3c a5 6f d3 bc
       -0.0024451306 0.024734298 0.019275209 -0.025810072
000190 90 3a 84 bc fa 7c 03 bd 0b 99 c0 3a e0 98 07 3c
       -0.016141206 -0.03210161 0.0014694048 0.008276194
0001a0 fb 65 07 3d d3 e6 f5 bc 8f 21 d4 3c 49 61 81 3c
       0.03305624 -0.030017292 0.025894908 0.01579346
0001b0 71 de c3 3a 9b e3 e1 3c 54 12 60 3c 59 b9 96 3c
       0.0014943612 0.027574351 0.013676245 0.018398928
0001c0 36 0e 5f 3d 48 a9 13 bd 9b 2f fb 3b 7a 1e c7 3c
       0.054456912 -0.03605011 0.007665587 0.024306525
0001d0 f4 78 a9 3b ca a6 89 3c a8 31 00 bc bb d3 0d 3d
       0.0051718894 0.016803164 -0.007824339 0.03462575
0001e0 62 d5 53 bb 60 13 09 bc c6 89 59 bc 7f 5f 0a bd
       -0.003232323 -0.008366436 -0.013277477 -0.03378248
0001f0 6b 0a 4a 3c 73 41 ab b9 63 f0 07 bd ed c0 94 3c
       0.012331585 -0.00032664425 -0.033188235 0.0181584

fc2.weight f4 [10, 128]
000000 20 12 b1 bd db d7 f2 bc bc 79 df bb 5e 26 b1 bd
       -0.08646035 -0.029643944 -0.006819932 -0.08649896
000010 69 fe ca 3d c7 58 18 bd 32 55 32 3d 74 8e 77 bd
       0.09911806 -0.03719404 0.04353828 -0.06043859
000020 59 53 9b 3d bb 30 13 bc 54 6a 87 bd da 87 f7 3a
       0.07584257 -0.008983786 -0.06612077 0.0018885091
000030 7e ef c2 3b 38 89 37 bd f1 0c da bd cb 50 85 bd
       0.00594896 -0.044808596 -0.106469996 -0.06509551
000040 63 98 8a 3d 48 f6 70 3d 27 ee 26 bd 29 11 d0 bd
       0.06767347 0.058828622 -0.040754464 -0.10159523
000050 50 95 04 3d 64 45 5c 3b 0f c7 5b 3d 94 02 fc 3d
       0.032368958 0.0033610696 0.053656634 0.12305179
000060 2a 84 8a bd 3d 72 3f bd 4b dd a8 bd 7e c2 82 3c
       -0.067634895 -0.046739805 -0.08245333 0.015961882
000070 25 cc 5c bc 35 02 b6 bc 6b fc 25 3d 5a ac 82 bd
       -0.013476406 -0.02221785 0.040523928 -0.0638053
000080 44 9f 5d 3d e1 99 9a 3d cb 3b db 3c 0f 2f 5c bd
       0.054106966 0.07548881 0.02676191 -0.053755816
000090 cb 85 ea 3d 29 02 56 bd 32 b6 0a bd 0b 1d 98 bd
       0.114513 -0.052248154 -0.03386516 -0.074274145
0000a0 76 40 f1 bd 80 8e 28 bc 78 db 04 be fc 34 db 3c
       -0.11779873 -0.010287881 -0.12974346 0.026758663
0000b0 30 63 4d bc 07 c1 8b 3d 4e 5b 15 be 2a c9 44 3d
       -0.012535855 0.068239264 -0.14585611 0.048043407
0000c0 62 13 24 bb a3 81 33 3d dc c2 98 3d 2e 5d 88 bd
       -0.0025035967 0.043824803 0.074590415 -0.066583976
0000d0 ee 7d 52 3d 1d cb fc bc 44 b8 a2 3d 62 1f 8a bc
       0.051389627 -0.03085857 0.07945302 -0.016860668
0000e0 89 a7 ae 3c 9c c3 62 3d 03 6e ee bd c0 e5 1e 3d
       0.021320121 0.05536233 -0.11642077 0.038793325
0000f0 81 d3 a3 bd 06 33 01 be e5 0b 8b 3d 31 ed c9 bd
       -0.079993255 -0.1261712 0.06789378 -0.09859694
000100 aa de c4 bd ed 4d 6d bd 25 c6 24 3d c3 c1 0a 3d
       -0.09612782 -0.057935644 0.040228028 0.03387619
000110 e0 0d 9e 3d f9 cb 0f 3d e9 d2 9e 3d e1 84 43 bd
       0.0771749 0.035106633 0.07755072 -0.047734145
000120 44 63 b1 bd 71 86 d9 bd 1a 9c d8 bc 6e 30 d7 bc
       -0.086615115 -0.10621346 -0.026441623 -0.02626821
000130 bb cd 89 3d 83 63 0b be 2d d1 91 3d e2 f0 ab 3d
       0.06728693 -0.1361218 0.07119975 0.08395554
000140 ed f4 97 bc db f7 01 be db d2 ec 3d 7d 55 f3 3c
       -0.018549407 -0.12692206 0.11563655 0.02970385
000150 37 cd 1f bd 60 b3 03 bd 84 22 70 3d 66 43 8e bc
       -0.039014068 -0.032153487 0.058626667 -0.017366122
000160 65 ab 81 bd c2 f9 53 3c e6 ee b2 3d 7a ac ee 3c
       -0.06331519 0.012937965 0.087369725 0.029134978
000170 21 3b 69 3d 48 df 78 bd 98 bc ea bd 26 52 d6 bc
       0.056941155 -0.060759813 -0.11461753 -0.026162218
000180 19 11 86 3d 53 c7 b6 bc 94 6d a7 bd d7 a8 b3 3c
       0.0654623 -0.022311842 -0.08175197 0.021931095
000190 2b 62 c9 bd ee c7 dc bb 28 33 6d bd 00 2a 93 bd
       -0.09833177 -0.0067377007 -0.057910115 -0.07185745
0001a0 b6 50 e4 3b 82 47 ae bc 60 e2 08 3d 1a c8 7c 3d
       0.0069676293 -0.021274332 0.033419013 0.06171427
0001b0 b1 59 9c 3d b9 0a 80 3d a7 fc ad 3b 96 11 a9 bd
       0.07634295 0.06252045 0.0053096595 -0.082553074
0001c0 cc 15 6a 3d 59 e4 2a 3b 43 bf e8 3d 34 65 02 bd
       0.057149693 0.0026076047 0.11364605 -0.031834796
0001d0 af 19 9e bc bb d3 d1 3d 26 1f 8b 3d 3a b6 30 3d
       -0.019299356 0.102454625 0.067930505 0.043142535
0001e0 55 aa 89 3b 37 58 fc 3c c3 c7 66 3d bb 18 a8 bd
       0.0042012134 0.030803783 0.05634285 -0.08207842
0001f0 63 4c bc 3d 34 3a 45 3b 50 90 08 bd 38 01 02 be
       0.09194257 0.0030094506 -0.033340752 -0.12695777
000200 dd 17 f0 bd 05 3d d4 3d e4 c2 19 3e 8f 65 b5 3d
       -0.117233016 0.10363201 0.15015751 0.088572614
000210 87 e7 be bd c7 7b 4e 3d 8f 99 48 3d fd dd 25 3d
       -0.09321504 0.050411012 0.04897457 0.040494908
000220 8f 5f da 3c eb 18 8d 3d 53 79 e1 bc b4 44 35 3c
       0.026656894 0.06889518 -0.027523672 0.011063743
000230 39 a4 be bd 88 87 88 3d 2d 60 e5 3d 58 23 a1 3d
       -0.09308667 0.066664755 0.11199985 0.078680694
000240 49 d9 92 bd b1 98 ce 3c c7 57 a5 3d 92 9b af 3d
       -0.0717035 0.025219293 0.08073383 0.085745946
000250 20 8f e2 bd a6 ba b0 3d ba 5c a4 3d 5c c4 0f bd
       -0.11062455 0.0862935 0.08025499 -0.035099372
000260 d4 77 b1 bd d9 52 91 bd 5f 22 07 be 1c 19 c6 3d
       -0.086654335 -0.0709588 -0.13196705 0.09672758
000270 10 33 dc bd 68 a9 95 bd 8d 20 fd bc c2 8e 4e bd
       -0.10751927 -0.07307702 -0.03089931 -0.050429113
000280 d6 42 d8 bc e4 09 c1 3c 16 97 d9 bc c4 f3 de bc
       -0.026399057 0.023564287 -0.026561301 -0.027215846
000290 9a 44 bb 3d 67 59 9f 3d 9d c8 ef 3d 3b 24 f3 bc
       0.09143944 0.07780724 0.11708186 -0.029680362
0002a0 03 c0 ce bb 55 4c 06 be b8 f9 dd 3d 15 98 8b bd
       -0.0063095107 -0.13115056 0.10838646 -0.06816117
0002b0 bb f3 65 3d 1a f0 c9 3d f9 fd 92 3d 8c 0f 74 bd
       0.056140643 0.09860249 0.07177348 -0.05958514
0002c0 e7 e0 b0 3d 05 b2 ae 3d 0d 6d cb bc ca 03 ea bc
       0.08636647 0.08530048 -0.024832273 -0.02856626
0002d0 a9 3b 09 bd f9 9d 39 3d c8 cd c3 3d 24 91 c4 bc
       -0.033504162 0.04531667 0.09560734 -0.02399499
0002e0 77 29 e5 bc 76 96 d5 bd 79 f6 c0 bd b5 be 47 bd
       -0.027973874 -0.10429089 -0.09422011 -0.048765857
0002f0 b6 80 89 bd b3 b8 a6 3d b7 e0 82 bc 17 01 f5 bd
       -0.06714003 0.08140697 -0.015976293 -0.119630985
000300 53 bf 27 bd cb 70 ce bd 54 3f 99 bd 15 d4 cc 3c
       -0.040953945 -0.10080107 -0.07482782 0.025003472
000310 81 fc e0 3d 2d 0b 3b 3d 2c 8e 95 3b 0a 14 f2 3c
       0.10985661 0.045664955 0.0045640673 0.029550571
000320 d0 4a 2b bd b8 1a 62 3d 1d 18 c5 3d 0e 6b 95 3c
       -0.041819394 0.055201262 0.0962374 0.018239524
000330 b5 07 fa bd 7f f4 81 3d 35 6a 74 bc 61 47 6c 3d
       -0.12208501 0.06345462 -0.0149179 0.05768526
000340 3d 2b aa bd c5 c7 dd 3d 1c 69 6c 3d 77 a5 11 3d
       -0.08309028 0.10829119 0.057717428 0.03555819
000350 e7 41 19 bc 3b bd 07 3d 42 54 6e 3d fb a8 c9 3d
       -0.009354091 0.03313945 0.058185823 0.098466836
000360 99 68 8b bd cc 69 f7 bd eb c5 a4 3c 10 2a a4 3c
       -0.0680706 -0.12080726 0.020113906 0.020039588
000370 cc 8b 5b 3d ef 58 55 3c 7c 0d 30 bd 62 23 4d 3d
       0.053600118 0.013021692 -0.04298161 0.05008257
000380 a8 ff e1 bd 05 db 64 bd bd f8 a3 3d cf 5b 78 bd
       -0.11035091 -0.055872936 0.080064274 -0.06063443
000390 52 d3 2b 3e d7 ca 4e 3d 9a 67 25 bc e0 68 83 3d
       0.16779831 0.050486412 -0.010095501 0.06416488
0003a0 e7 23 34 bd a4 44 e3 bc 9a b9 a7 3d f5 1c 8f 3d
       -0.04397955 -0.027742691 0.081896976 0.06987945
0003b0 57 35 a9 bd 73 ae 3e bd 69 a6 63 3d 0e e0 a3 3c
       -0.08262127 -0.046553086 0.055578623 0.020004299
0003c0 0e 22 a4 3d ed 67 1b bb e3 66 a6 3c c8 63 3b 3d
       0.08014308 -0.0023713068 0.020312732 0.045749456
0003d0 87 2a 4c bd 16 25 40 3d 86 3c 84 bd 31 61 19 3e
       -0.049845245 0.046910368 -0.064568564 0.14978482
0003e0 ed 15 b0 bd 3e e3 c7 bc ea 73 e2 3d 9f 38 dc bc
       -0.08597932 -0.02440035 0.11057265 -0.026882468
0003f0 0e a9 19 bd d6 2d 61 3d 97 90 bf 3d 52 0c e1 3d
       -0.03751474 0.054975353 0.0935375 0.10988678

fc2.bias f4 [10]
000000 95 21 92 bd 21 de 99 3d d0 26 65 bd bc f9 62 3c
       -0.071353115 0.07513071 -0.055945218 0.013853487
000010 2c ec 6a 3d c6 ab 97 bb fe cd 2d 3d 92 90 ce 3b
       0.057354137 -0.0046286313 0.042432778 0.006303855
000020 7f 0d 3f 3d d5 54 e4 bc
       0.04664373 -0.027872482
