models/Experiment 4/Trained on normal data/cnn_model_cons4.pt (torch, 456415 bytes, 8 tensors)

conv1.weight f4 [32, 1, 3, 3]
000000 14 ea 8f 3e 26 8b 64 3d b5 e9 9d 3e 9c 55 b2 3e
       0.28108275 0.055796765 0.30842367 0.3483094
000010 e5 5f 8c 3e f7 ba 61 be 36 ff 81 3e 7c be 79 3e
       0.27416912 -0.22043978 0.25390023 0.2438907
000020 0e a3 d6 3e 10 e1 e9 3d 38 a7 ad be 20 50 4f be
       0.41921276 0.114198804 -0.3391664 -0.20245409
000030 52 e9 78 3c a9 5d 8b 3e 3e ee 93 be 65 75 fe bd
       0.015192347 0.27219895 -0.28892702 -0.12424735
000040 ae f2 db 3e 3f 8f a8 3e 73 fd b2 be f1 2c e9 3d
       0.42958587 0.32921788 -0.3495899 0.11385525
000050 d3 0d 90 3e 57 7a 68 be 1c 0e b4 bd 61 b3 ad 3e
       0.28135547 -0.22702919 -0.08791754 0.33925918
000060 99 6f cd 3e 1b 63 76 3e 7b 3f 50 ba e6 85 a5 3e
       0.40124205 0.24061243 -0.00079440296 0.3232872
000070 60 06 2d be f4 ec 86 bb b7 63 d5 3e a4 9e 22 3d
       -0.16896963 -0.0041176025 0.4167764 0.039702073
000080 7c 7e 09 bd d7 13 a6 3e 09 d1 38 bc 7a 50 cf 3e
       -0.03356789 0.32437012 -0.011280307 0.40491086
000090 c7 74 60 be b3 fb ac 3e bd 54 a3 3e 33 99 b9 3e
       -0.21919547 0.3378578 0.31900588 0.36249694
0000a0 c9 8f 81 be df be 53 3d b1 0e 03 be 97 07 cb be
       -0.25305012 0.0516957 -0.12798573 -0.39654228
0000b0 02 2c e8 3d ab ef d9 be 24 db ba be 29 f0 9f be
       0.11336519 -0.42565665 -0.36495316 -0.31237915
0000c0 25 c3 82 3e 90 17 6c 3e 10 a0 f8 3c 68 a4 88 3e
       0.25539508 0.23055863 0.030349761 0.26687932
0000d0 80 64 b2 3d 41 06 90 3e 1c c6 7e 3e 58 01 cb bd
       0.08710575 0.2812977 0.2488026 -0.09912366
0000e0 a0 bf 85 3d da 30 b1 3e 00 6c 58 be 21 ed 9f be
       0.0653069 0.34607583 -0.21134949 -0.31235602
0000f0 24 87 cd 3e dd 7d e4 bd b7 08 11 be ba 3f a8 3e
       0.40142167 -0.11156819 -0.1416348 0.3286112
000100 dc 91 14 be 86 e7 a9 be 20 95 88 3e c7 95 f7 bd
       -0.14508766 -0.3318445 0.26676273 -0.12089115
000110 a3 88 38 be 62 43 86 3e 89 41 9b 3e 46 44 bb bd
       -0.18020873 0.26223284 0.30323437 -0.091438815
000120 b1 d9 bd 3d 72 70 82 3e a4 72 a8 3c 21 c8 ea bd
       0.09270037 0.25476414 0.020562477 -0.11463953
000130 28 40 cd 3e 40 e9 ab 3e 69 45 71 bd 73 f8 73 be
       0.4008801 0.33576393 -0.058904085 -0.23825245
000140 ba d3 8d be 39 74 12 be 88 0b 77 3d 42 bc 61 be
       -0.27700597 -0.14302148 0.06031373 -0.22044471
000150 76 51 ab bd 91 66 7f 3d ce 36 c0 bd af ee c3 be
       -0.08365147 0.062353674 -0.09385453 -0.3826804
000160 6e 1f 65 be 34 f2 c0 bd 01 5b b5 be 18 5e dd 3d
       -0.2237527 -0.094211966 -0.35420993 0.108089626
000170 e6 31 80 be 4e 0e 0b 3e 62 7f fb be dc be 3c 3e
       -0.2503807 0.13579676 -0.49120623 0.18432182
000180 25 8e d1 be 12 25 0a be fc 82 2f bd 8e 44 c5 3e
       -0.4092876 -0.13490704 -0.042849526 0.38528866
000190 ea bf d2 3e 55 d9 97 3e 2a 30 ee 3d 52 f2 1f 3d
       0.41162044 0.29658 0.1163028 0.039049454
0001a0 be 41 d3 3d 46 12 84 3e 64 30 4d 3e bb ff 82 be
       0.10315274 0.25795192 0.20037991 -0.25585732
0001b0 1d e4 84 bd c1 1e b2 3e 99 d8 6d 3d 3f f7 88 3e
       -0.06488822 0.34789088 0.05806789 0.26751134
0001c0 ac 13 cc 3e ad c9 4f be 45 c2 f9 3d cc e0 ba bd
       0.39858758 -0.20291777 0.12195257 -0.09124908
0001d0 88 b6 be be 08 51 6a be b9 af de 3e 0a ad 4b 3e
       -0.37248635 -0.22882473 0.4349344 0.19890228
0001e0 be 5e b3 bd 7c 89 cc 3e 99 a8 77 3e 53 df bf 3e
       -0.08758305 0.39948642 0.24185409 0.3747507
0001f0 23 7e ef bd e5 c7 8f 3d 71 75 fd 3d a3 a4 bf bc
       -0.116939805 0.07020549 0.12375916 -0.023393935
000200 78 e7 4f be 31 82 b4 3d 7b 94 18 3e 8b 6e be 3e
       -0.20303142 0.088138945 0.14900391 0.37193713
000210 1c bc 29 3e e4 4d af bd 76 c4 99 3e 75 dd a4 3c
       0.16575664 -0.08559778 0.300327 0.02012513
000220 92 ad e9 bd 6b 55 97 3e 10 07 aa bd 91 37 1d be
       -0.11410059 0.29557356 -0.08302128 -0.15353228
000230 50 8a 19 be 7d b1 a4 3e 95 63 9f 3e b0 54 99 3e
       -0.14994168 0.32166663 0.31130663 0.29947424
000240 d8 7a e4 3e 84 c0 f7 3e 63 e6 19 be 27 54 e2 bd
       0.44624972 0.48389065 -0.15029292 -0.11051207
000250 4b 49 5a bd 92 24 31 be dc f3 7e 3d a0 49 9f 3d
       -0.053292554 -0.17299107 0.06224428 0.07777715
000260 0a db 5e bc 2b 49 70 3e 8b 26 ea bc 01 5b 83 bd
       -0.013602028 0.23465411 -0.028582832 -0.06413842
000270 36 05 e0 3d da 17 ad 3e 21 13 a1 3e 22 12 c0 3c
       0.10938494 0.3380726 0.31459907 0.023446146
000280 87 16 ed 3e 23 55 23 3e 91 b8 6b 3d e1 4d d2 be
       0.4630625 0.15950446 0.057549063 -0.41075042
000290 3b 50 76 bd ad 25 7a 3e 51 52 e3 be a6 9e 09 be
       -0.060135107 0.24428435 -0.4439874 -0.13439426
0002a0 e5 a1 bb 3e 8d 2d 79 be 79 75 b5 be 04 13 77 3e
       0.36646953 -0.24333782 -0.35441187 0.24128348
0002b0 25 9a 5d be f0 90 39 be 4e 8d c9 3e f2 66 8a 3e
       -0.21640833 -0.18121696 0.3936562 0.27031666
0002c0 e4 45 80 3e 8f eb 77 3e 12 9a 5b be c8 d4 72 3d
       0.25053322 0.24210952 -0.21445492 0.059284955
0002d0 c6 e9 71 bd 82 ff 94 be 5c 5d 98 be 6a db 15 3e
       -0.059060834 -0.29101187 -0.29758728 0.14634481
0002e0 83 c7 81 3e 1a ea d4 bd 84 9d a1 3d 20 2a e7 3e
       0.25347528 -0.10396214 0.07891372 0.45149326
0002f0 ec f3 10 bd ab 09 a7 3e 61 fd b5 3e 1f 57 b7 3d
       -0.035388872 0.32624564 0.35544875 0.08952164
000300 53 e7 0b bd b3 53 ce 3e 69 05 34 3e 6c 48 d0 be
       -0.034156155 0.40298232 0.17580189 -0.40680254
000310 44 1e 9e be f0 b0 c2 3d 44 d9 0a bf 07 eb 66 3c
       -0.30882466 0.095064044 -0.5423777 0.014094121
000320 c1 c9 1e bd 74 1a 18 bd bc f2 25 be 4d d1 b9 3e
       -0.038766626 -0.037134603 -0.16205877 0.36292496
000330 06 b7 81 be 23 36 97 3e 13 8d e2 3e 0c 93 16 be
       -0.25334948 0.2953349 0.44248256 -0.14704531
000340 0a bf 85 bd 25 b4 4f 3e f5 d8 2f bd ac bd 86 3e
       -0.065305784 0.20283563 -0.042931516 0.26316583
000350 e3 78 12 3d 17 a7 77 3e 64 c0 b7 3e 3b 7c 77 be
       0.035759818 0.24184833 0.3588897 -0.24168484
000360 f6 e8 8a 3e 4b 9f a2 be 85 1a 77 be db 86 8f bc
       0.2713086 -0.31762156 -0.2413121 -0.017520359
000370 99 af c8 bd 84 2c 02 be 2a 5f 82 3e ce 7f c6 3e
       -0.097991176 -0.12712294 0.2546323 0.38769382
000380 1b d7 35 3d 1b 06 87 bc 53 ae 88 bd 6c 2a b7 3e
       0.044394594 -0.016482404 -0.06673875 0.35774553
000390 d9 b8 63 bd 61 66 f9 3e 4c fd 9e 3e c3 34 68 be
       -0.055596206 0.4871092 0.31052625 -0.22676377
0003a0 a3 24 bf be 1f 2e 0e be 36 fa 75 3c 75 11 1a bd
       -0.3733264 -0.13884781 0.015013268 -0.037614305
0003b0 77 ed d1 3e 46 5e c6 3e 58 b4 33 be 3e f3 93 3e
       0.41001484 0.387438 -0.17549264 0.28896517
0003c0 24 4c 14 3e e7 6e 9d 3e f2 ac 31 bd c5 d3 9b 3d
       0.1448217 0.30748674 -0.043377824 0.07608751
0003d0 e0 22 a9 3c ff 8b 52 bd 84 e9 5a 3e 01 6a a1 3e
       0.020646513 -0.051403042 0.21378142 0.31526187
0003e0 27 30 c7 3e 5f 13 a1 be 72 9a a8 be 15 01 ae be
       0.38903925 -0.3146009 -0.32930332 -0.339852
0003f0 46 cc 89 3e bb 90 c4 3e 31 65 89 be e9 e7 87 3e
       0.2691366 0.3839167 -0.26835015 0.2654412

conv1.bias f4 [32]
000000 42 ee f7 bd b6 38 1d b9 c0 42 19 be aa 1a 9c 3e
       -0.12105991 -0.00014993813 -0.1496687 0.30489093
000010 69 16 d0 bd 3a 77 66 3e 0c 22 3d be e5 9e 05 bd
       -0.101605244 0.22506419 -0.18470019 -0.032622237
000020 44 b2 46 3e 8e d7 07 3e 4c 99 bd 3e f5 fb c1 b9
       0.1940394 0.13265821 0.3703102 -0.0003699955
000030 c5 cb b4 bd b9 4b 3e be 85 e0 62 bb 27 36 87 3e
       -0.088279285 -0.18583573 -0.0034618687 0.26408502
000040 94 66 67 ba 7b 60 14 be 9e 31 9d 3e 7c 8b b2 b8
       -0.0008827236 -0.1448993 0.30701917 -8.5136824e-05
000050 c2 05 29 bd 37 e9 53 be 16 ee 2b be f8 ac e1 b8
       -0.041265257 -0.20694433 -0.16790041 -0.00010761054
000060 7a e3 30 bd 76 dc f9 bd ed 97 2c be 2f 45 84 3d
       -0.04318569 -0.12200253 -0.1685483 0.06458508
000070 25 3b 2a 3e ed 02 24 b9 70 e5 09 3e 02 63 8e bd
       0.16624124 -0.00015641349 0.1346643 -0.06952478

conv2.weight f4 [32, 32, 3, 3]
000000 e9 21 7d 3c 7a 3e 80 3c 78 52 7d 3c 23 81 a3 bd
       0.015449979 0.015654791 0.015461557 -0.07983615
000010 74 20 ae bd d1 3a 97 bd ea 0d 9d 3d 72 ae f9 3d
       -0.08502284 -0.07384265 0.076686695 0.12191476
000020 d7 36 b8 3d e0 92 52 3b 9a ee b0 bd 4e 87 34 bd
       0.08994835 0.0032131001 -0.0863926 -0.04407435
000030 f7 c6 a4 3d 39 48 12 3e 19 91 b2 3d e6 8e 48 3e
       0.08045762 0.14285363 0.087190814 0.19585761
000040 7d 2a be 3d 2d 7e 6b 3d 22 4f 58 bd 35 71 92 bd
       0.09285448 0.057493377 -0.052809842 -0.07150499
000050 d2 01 d9 bd 60 ab c9 bc f9 ce 23 3d 63 33 b9 3c
       -0.1059605 -0.02461785 0.039992306 0.02260751
000060 11 a0 09 3e a3 c5 37 3e 09 d0 de 3d 8c 5e 36 bd
       0.13439967 0.17946486 0.10879523 -0.04452376
000070 3e 67 42 3d 52 fa 77 bd 71 fe 30 bc a9 aa a4 bd
       0.04746174 -0.06054146 -0.010802851 -0.08040363
000080 25 23 20 bd 4f 10 82 3d b6 20 94 3d d6 09 1c 3c
       -0.039096016 0.06350767 0.072328016 0.009523829
000090 46 4d 1c 3e fe f3 9c 3d bc 07 d0 3d 84 9f 33 3c
       0.15263852 0.07663725 0.10157725 0.010963324
0000a0 9f 68 06 bd 76 34 9d bd 51 d9 c8 bd 74 c2 9a bb
       -0.03281462 -0.07676022 -0.09807075 -0.0047228877
0000b0 fd 0b 71 ba 28 00 d4 bc 45 bf 0b 3c a0 db 15 bd
       -0.0009195207 -0.02587898 0.008529489 -0.036586404
0000c0 cb 61 27 3d e1 72 19 3d 79 b2 0b 3e d8 f7 db 3d
       0.040864747 0.037463073 0.136423 0.10740632
0000d0 74 9d ba 3d 00 10 65 3d ce 1d 22 be 5b 75 26 be
       0.09112063 0.055923462 -0.15831682 -0.16255705
0000e0 3e 3a 2c be b3 35 e6 bd 35 dd 41 be 9a f9 51 be
       -0.16819093 -0.11240711 -0.1893204 -0.20505372
0000f0 92 e2 b4 bd 38 92 d7 bd 9e cc f6 bb 84 dc ad bd
       -0.08832277 -0.10525936 -0.0075317165 -0.08489326
000100 b6 f3 dd bc 63 de cb bb cc 39 01 bd 83 1f 7b bd
       -0.02709375 -0.006221579 -0.03154926 -0.06130935
000110 21 21 d2 bd a2 fe 8c 3d f0 32 f3 bc f0 03 78 bd
       -0.10260225 0.06884505 -0.029687375 -0.06055063
000120 40 64 77 3d f2 12 14 3e 79 ac 51 3b fa c2 f5 bc
       0.06039834 0.14460352 0.003199367 -0.030000199
000130 cb d4 af 3a 96 f4 97 bb b5 e0 89 ba 8e 02 6d 3d
       0.0013414858 -0.004637311 -0.0010519238 0.057863764
000140 27 d9 5b 3d 0f 13 89 bc 42 99 16 bd f9 ba f8 3c
       0.05367389 -0.01673272 -0.03676725 0.030362593
000150 44 09 d1 ba 87 c1 a4 3d 03 0a 8f bc bc 3e 93 bd
       -0.0015948196 0.08044725 -0.017460829 -0.071897
000160 2b 40 f3 bd 8e b5 91 bd 62 14 23 bd 51 f3 2d bc
       -0.118774734 -0.07114707 -0.03981436 -0.010617093
000170 cb 57 26 3d 76 8c 1c 3d 10 70 0b bd 2f e1 eb bb
       0.04061107 0.03821989 -0.034042418 -0.007198475
000180 02 68 a2 bd 8c b6 8e bd 2d 75 ce bd 9e 00 9f 3d
       -0.07929994 -0.06968412 -0.10080943 0.077637896
000190 1f 7c a3 3d b6 6b b1 3c 0a ad 9c bd 62 f3 94 bd
       0.079826586 0.021657806 -0.07650192 -0.07272984
0001a0 ff c7 c3 bd 8b 69 c2 bc c4 95 4c 3d 31 1b 3d 3c
       -0.095596306 -0.023731967 0.049947515 0.0115421275
0001b0 f0 20 65 3d ab ec 01 3e da 7d a1 bd ad 27 ff bd
       0.055939615 0.12687938 -0.078853324 -0.124587394
0001c0 c1 4f 96 bd 03 39 6c bd 34 d5 00 3d f9 33 8d 3d
       -0.073394306 -0.057671558 0.031453326 0.068946786
0001d0 40 61 18 3e 4c a4 65 bc bb 88 6e 3d 33 5f 13 bd
       0.14880848 -0.014016222 0.058235865 -0.03597946
0001e0 eb 33 01 be 25 00 32 bd f1 4d db 37 32 8d eb 3c
       -0.12617461 -0.04345717 2.6143129e-05 0.02875385
0001f0 5c f0 a4 3d a0 81 d7 3d 21 53 61 bd ed 41 ab bd
       0.080536574 0.10522771 -0.05501092 -0.08362184
000200 dc f2 14 3c 20 91 af bd a7 2c 21 3c eb 1c 88 bc
       0.009091105 -0.08572602 0.009837306 -0.016615352
000210 af 62 33 3e 00 ed 51 3d 9f 75 7a 3d 2f 8b 52 3d
       0.17518114 0.05125141 0.06114733 0.051402267
000220 fb a0 26 3d 6b 27 92 3c 25 e9 8b bc 5a 20 1b bc
       0.040680867 0.017841062 -0.017078945 -0.009468162
000230 14 f7 dd 3d 82 67 f7 3d f9 99 e8 3d f2 b1 21 bb
       0.10838142 0.120802894 0.11357493 -0.0024672714
000240 96 b6 9c 3d 28 07 a2 3d cf cc f8 3d 2b 35 02 3b
       0.07652013 0.07911521 0.12148439 0.0019868116
000250 3b 33 5d bc 3c 77 49 bd ba 1b 46 bc 91 fb d7 bd
       -0.013500984 -0.049185976 -0.012091571 -0.10546029
000260 16 14 9c bc 16 ef 1d bd cf 01 0d bd 22 17 f6 bc
       -0.019052546 -0.03855809 -0.034425553 -0.030040327
000270 45 54 06 bd 56 cd 4f bd ef 5e 3a bd 2e a9 4c 3d
       -0.03279521 -0.050732933 -0.045500692 0.04996603
000280 78 f9 c5 3d b9 ef 7f 3d 5f 09 d7 bc 61 65 f9 bb
       0.09666723 0.062484477 -0.026249586 -0.0076109623
000290 ce fa c7 bc af 4d c0 3c 9b 05 f6 bc a1 e6 e2 bc
       -0.024411585 0.023474542 -0.03003197 -0.027697863
0002a0 4d 92 86 bd b4 1d 02 be 65 e5 05 be bc 52 83 bd
       -0.065708734 -0.12706643 -0.13075788 -0.06412265
0002b0 c8 08 d6 bc 77 96 88 bc 43 84 97 bc 2a 90 b7 bd
       -0.026127234 -0.01667331 -0.018495684 -0.08963044
0002c0 2f 6c ad bd a5 39 a1 3d 6a 80 c4 3d 03 36 aa 3d
       -0.084679 0.07872323 0.095948055 0.08311083
0002d0 8f c8 eb 3c b2 b4 15 bd 68 94 e4 bd 0b f6 6e 3d
       0.028782157 -0.036549278 -0.11161119 0.058340114
0002e0 2a 8d b3 bb 67 05 e4 3c 0b b7 54 3e 20 d7 ea 3d
       -0.0054794746 0.027834607 0.2077295 0.11466813
0002f0 81 fd 13 bd 6d 14 9e 3d 2a e0 1a 3e 50 5d 02 3e
       -0.036130432 0.0771874 0.15124574 0.12730908
000300 e3 8d 24 bd 2d 76 ec bd 36 d7 ee bd d0 b4 95 bd
       -0.040174376 -0.11545978 -0.11662142 -0.07309878
000310 d9 04 f0 bc 47 f0 31 3d 2d f7 37 be 45 60 3a be
       -0.029299187 0.043442037 -0.17965384 -0.18200786
000320 f1 72 0c be 3a 8f 2e be b3 1b 29 3d 3b cd ab 3d
       -0.13715722 -0.17046824 0.04128618 0.08388754
000330 5d 5a 3a 3e 06 9a 03 3e 2a f9 10 3d 07 7c 0f bd
       0.18198533 0.12851724 0.03539387 -0.03503039
000340 9c 15 47 3b 8a 5f c3 bd 1a d8 0b bd 52 52 b5 bd
       0.003037787 -0.09539707 -0.034141637 -0.08853592
000350 ca 20 a6 3c 58 d6 9c 3d 2b 7b 29 3e 13 0b 0d 3e
       0.020279307 0.0765807 0.16550891 0.13773756
000360 4e e5 bf bd 68 65 ab 3c 67 b5 80 bd 09 35 93 3d
       -0.09369908 0.020922378 -0.062846 0.0718785
000370 76 c4 40 3d 4e 57 c6 3d b5 45 c2 3d 53 4f f4 3d
       0.04706236 0.09684621 0.09485952 0.119291924
000380 5d 41 a4 bd 57 28 01 3e d3 76 1d 3e 32 db 6c 3d
       -0.080202796 0.12613045 0.15377359 0.05782623
000390 a5 5a de bd 29 60 cb bd 2c 50 25 be 88 d6 af bc
       -0.10857133 -0.099304505 -0.16143864 -0.021464601
0003a0 91 3a 31 3c 35 6d a1 3d db 0c 39 bb cd 98 be bc
       0.010817186 0.07882158 -0.0028236422 -0.02326622
0003b0 b1 b4 64 bd e2 c2 fc bc 60 bd 92 bd 53 f8 fc 3c
       -0.055836383 -0.030854646 -0.07165027 0.030880129
0003c0 1e 12 07 3e 74 9a aa 3d 98 54 ff 3d 04 d2 30 3e
       0.13190505 0.08330241 0.12467307 0.17267615
0003d0 4f c3 3f 3e 34 57 aa 3d f8 2b 03 3d 6b 66 fc 3c
       0.18726848 0.08317414 0.032024354 0.030810555
0003e0 80 9b a0 bc 4b 16 21 bd 39 7f e4 3d 09 f7 17 3e
       -0.019605398 -0.0393279 0.11157078 0.1484033
0003f0 19 1b 67 bd 51 ac 8e bc 3e a0 7f bd 50 21 9a bd
       -0.056422327 -0.017416151 -0.06240868 -0.07525885

conv2.bias f4 [32]
000000 9f c8 02 3c 2e ec 81 bd ee 07 50 bc 59 35 71 3c
       0.007982402 -0.06343876 -0.012697203 0.014722192
000010 01 6b 08 3d 14 f0 32 3d 02 e7 ed 3c a6 57 5b bc
       0.033305172 0.043685988 0.029040817 -0.013387596
000020 15 98 55 bd 5b 03 3d bd 25 50 2d bd 29 b3 4e bd
       -0.05214699 -0.04614578 -0.04231276 -0.05046383
000030 04 9b 82 bb b6 9c 30 bd 7f 39 78 3c ef 75 25 3c
       -0.0039857645 -0.0431182 0.015150427 0.010098918
000040 6e 0c 9a 3d 8f 8d 0d 3d 9b 47 42 bd df 33 85 bd
       0.07521902 0.03455883 -0.04743157 -0.06504034
000050 f7 3a 2a bd cc 40 a0 3c 0e 93 c1 bc f5 61 39 3b
       -0.04156014 0.019562148 -0.023629691 0.0028287147
000060 1d ad 6d bd 01 29 15 bd a1 34 07 bd a5 44 af bd
       -0.05802642 -0.036416057 -0.033009175 -0.08558015
000070 bb 80 dd 3b 00 3a a8 bc 4d ad 6c 3c 06 33 d4 3c
       0.0067597306 -0.020535469 0.014445615 0.025903236

fc1.weight f4 [128, 800]
000000 07 b4 7f bc 49 34 5c bc a1 02 b2 3c 7a 13 85 3d
       -0.015606887 -0.0134402 0.02172977 0.064978555
000010 b5 d7 87 3c e6 63 62 3c ae 42 5c bd 2c 47 aa bc
       0.01658235 0.013817763 -0.05377453 -0.02078589
000020 15 dd 8f bc 36 3a 9c 3d 9c 8e 82 bc 37 a1 2b bd
       -0.017561475 0.0762829 -0.015937142 -0.041901793
000030 ed 8d c6 3c 9f 38 f4 3c 13 74 6d 3d fc 45 f4 bb
       0.024237597 0.029812155 0.057972025 -0.007454632
000040 1e 71 fa bc 9f 33 0a bd 18 83 0e bd dd f0 86 bd
       -0.030571517 -0.033740636 -0.03479299 -0.0658891
000050 f5 e2 65 bd 8c b5 95 bc 81 36 0f 3d d1 ea 9c 3c
       -0.056124646 -0.018275045 0.03496409 0.019154938
000060 7a 91 59 3d 64 bc c1 bc de 31 ad bd 6f 7b 41 bd
       0.053117253 -0.023649402 -0.08456777 -0.047236856
000070 52 58 28 bc 8f 70 6d 3d df db 3c bd 49 a4 9c bd
       -0.010274963 0.057968672 -0.046108123 -0.076485224
000080 9b 14 c3 bb 2b 70 ae 3d 7e 71 fb 3d 32 9b b2 3c
       -0.005953384 0.08517488 0.12277506 0.021802519
000090 32 e3 2d bc f2 8f a7 3c 19 91 98 3d 96 da 4f ba
       -0.01061325 0.02045438 0.0744955 -0.0007928995
0000a0 d9 77 b4 bc 92 e6 95 3b 2b 38 60 3d 85 c0 2c bd
       -0.022029804 0.0045746053 0.054741066 -0.04217579
0000b0 1d 0e 2e bd 07 e4 12 bb e0 f8 dc 3c ca 3d 60 bb
       -0.04249393 -0.0022413747 0.026974142 -0.0034216517
0000c0 c1 67 df 3c 5e 6b 26 bb 52 7e 4c bc 63 d1 e7 bc
       0.027271153 -0.0025393586 -0.012481289 -0.028298086
0000d0 45 55 43 3d 81 33 dd bc db db 5c 3d 37 58 0f bb
       0.04768874 -0.027002098 0.053920608 -0.0021872649
0000e0 18 d6 b1 3d 45 7c 57 3d 73 d7 88 bc 60 9d 81 3c
       0.08683413 0.052608747 -0.016704297 0.015822113
0000f0 49 91 23 bd 43 c9 dc bc 4a 26 bb bd 03 00 94 bc
       -0.039933477 -0.026951438 -0.091381624 -0.018066412
000100 13 d2 3d bc de 5a 0c bd f7 90 91 bd d9 a5 58 bd
       -0.01158573 -0.034266345 -0.07107728 -0.05289254
000110 ff 62 e5 bb 5d fd 24 bd aa b6 a5 3a 27 88 7c bd
       -0.0070003266 -0.04028069 0.0012642939 -0.061653282
000120 a1 ab d3 3b f4 d6 01 3c 62 86 fe bc fa cc 00 bd
       0.0064596687 0.007924784 -0.031069938 -0.03144548
000130 2e 43 96 bd f0 e4 e6 bc 9c 88 99 bc 11 d2 77 3d
       -0.07337032 -0.028185338 -0.018741898 0.06050307
000140 c9 0e 1a bd 31 fc 8a bd 9c e9 1d bd 43 eb 3e 3d
       -0.037611756 -0.06786383 -0.038552865 0.04661108
000150 0c f6 13 3e 59 0b d4 3b aa bf 87 bc 8b 72 88 3c
       0.14449328 0.0064710793 -0.016570885 0.01665618
000160 ce 58 af bc 93 ca 33 bc 61 f4 24 3d ca c3 31 3c
       -0.02140465 -0.01097359 0.04027212 0.010849902
000170 c2 88 42 bc dd 89 5f bd b5 66 41 bd 97 cb 26 bc
       -0.011873426 -0.054574836 -0.04721709 -0.010180376
000180 31 8d 8d 3d da 8c 07 3d b7 9f cf bb f7 c5 1f bb
       0.06911696 0.03309331 -0.006336178 -0.002437947
000190 43 8d a4 3c 04 72 c5 bc 5b 7a f4 3c e1 42 09 bc
       0.02008689 -0.024102218 0.0298435 -0.008377762
0001a0 08 3b e9 3c df 28 71 bd 7c 13 02 bd 36 4a ab 3b
       0.028470531 -0.05887687 -0.031756863 0.0052273525
0001b0 99 9c 1f 3d 57 a5 98 3d ef 82 6a bc 95 8f fa 3b
       0.038967703 0.07453411 -0.014313444 0.007646511
0001c0 0d c1 7f 3d b3 0a 4b 3d 99 c6 d9 3c 50 74 ec 3c
       0.062439967 0.04957075 0.026583957 0.028864056
0001d0 71 36 12 3d e6 08 1e 3d 98 01 69 bc 34 99 67 bd
       0.03569645 0.038582705 -0.014221571 -0.05654259
0001e0 31 e5 38 bd c8 96 e1 3c cb 79 86 3c 8f 01 68 3b
       -0.04514045 0.027537718 0.016415497 0.003540132
0001f0 b2 53 76 3d 86 88 83 3c 67 46 70 3d f6 3e 34 3d
       0.06013841 0.01605631 0.05866089 0.044005357
000200 75 7e e4 ba 32 2d 10 bd 5e b7 c4 3c 37 19 5f 3d
       -0.0017432707 -0.03519935 0.024013218 0.054467406
000210 e1 3a e3 bc b6 f5 04 be fb f9 04 be 21 e8 3e 3b
       -0.027738037 -0.12984356 -0.12985985 0.0029130059
000220 9b 63 21 bd 54 48 e0 bc e4 c4 80 bd 17 29 ae 3b
       -0.03940163 -0.027378239 -0.06287554 0.005314957
000230 77 1a 67 bc 1c f5 34 bc de 56 b3 bc 71 97 d5 bb
       -0.014105431 -0.011044767 -0.021892007 -0.0065182974
000240 0b 87 5a bd 76 35 4d 3c 6c e8 01 bd 18 6d 41 3b
       -0.053351443 0.012524953 -0.031715795 0.0029514488
000250 57 77 4c bd db f7 e1 3c c9 6c 36 bc d6 ea 84 ba
       -0.0499185 0.027584007 -0.011134335 -0.0010140787
000260 69 13 aa 3a 16 4a e2 3c 43 72 b4 3c f7 ba 6e bc
       0.0012975755 0.027623218 0.02202714 -0.014570943
000270 0a cf a9 3b 8f d0 13 bd 69 18 80 3c c6 8e a6 3b
       0.0051821517 -0.03608757 0.01563664 0.005082938
000280 19 7c a0 bc af ad 45 3b 5f 1d 52 bb 1b 44 10 bd
       -0.019590424 0.0030163338 -0.0032060964 -0.0352212
000290 43 03 14 bd 0c f6 ce bc 57 83 f1 3c 36 f4 da 3c
       -0.036135923 -0.025263809 0.029481573 0.026727777
0002a0 b7 00 89 bc 37 db 00 bc 78 2c 1b 3d 52 d5 2c bc
       -0.016723974 -0.007864765 0.037884206 -0.010548906
0002b0 34 b0 02 3d b1 1f 20 bc 95 4f ba 3c 8a 4c 05 3d
       0.03190632 -0.009773181 0.022743026 0.032543696
0002c0 82 32 9d 3c b6 21 c6 3c 7e cf 0c 3c e2 6d 2e bd
       0.019189123 0.024185997 0.008594392 -0.04258526
0002d0 32 89 20 3d 95 f6 42 3d 60 63 92 bc 33 28 12 bc
       0.03919334 0.04759844 -0.017869651 -0.008920717
0002e0 9b 27 8d bc 4c 2f 07 3c b2 37 c0 3c 4c 28 97 3c
       -0.0172308 0.008251023 0.023464058 0.018451832
0002f0 98 a8 14 3c de ac 36 bc 7e d8 33 bc da 9b 51 3d
       0.009073399 -0.011149613 -0.010976909 0.051174022
000300 1c 62 01 3d 79 a6 9a bc a7 ab de 3c 23 03 1f bd
       0.031587705 -0.018878208 0.02718146 -0.03882135
000310 fa b9 43 3d d8 6c 06 bb 98 89 8d bc ae ff 9c 3c
       0.047784783 -0.0020511653 -0.017277524 0.019164886
000320 3b 6e 7f bc e0 cd ce bb 97 b2 8f 3c 44 76 dc 3b
       -0.015590246 -0.0063111633 0.017541213 0.0067279655
000330 bb 8b 9a bc 69 77 5f bd 46 d6 20 bd 29 ba fa bc
       -0.018865457 -0.054557238 -0.039266847 -0.030606346
000340 b7 92 d4 bc 8c e3 b8 bc 70 64 da bc 20 68 be 3c
       -0.025948865 -0.02256944 -0.02665922 0.02324301
000350 81 da ad 3b f5 49 41 bd cb 32 72 3a 8e 33 14 bd
       0.0053055887 -0.04718967 0.0009239136 -0.03618198
000360 12 5c ca 3b 50 e0 4a 3d 05 f7 a2 bc 32 a3 11 bd
       0.0061755264 0.049530327 -0.019893179 -0.035556026
000370 e2 b8 27 bc 2e 6f 83 3d 92 e6 13 3d bb 22 5f 3b
       -0.010236951 0.0641769 0.03610856 0.00340478
000380 af 32 d4 bb 4f 00 fe 3b 37 54 d1 3a df 88 9b bc
       -0.0064757685 0.0077515016 0.0015970533 -0.018986164
000390 10 30 a0 bc ba 67 d3 bc ae 44 05 bd 44 9a 47 bc
       -0.019554168 -0.025806297 -0.0325362 -0.012182776
0003a0 a6 53 85 3c dd f2 2a bd 55 1f b2 3b 80 7a 87 3d
       0.016275238 -0.04173552 0.005435864 0.06615162
0003b0 62 93 a8 3d b3 45 2e 3d 64 e8 47 3d 4c d1 04 3c
       0.08231236 0.04254694 0.04880561 0.008106541
0003c0 8d 56 c1 3c 35 61 20 3d bf b1 0a bb 98 2e a4 b8
       0.023600841 0.039155204 -0.0021163074 -7.828808e-05
0003d0 03 fe 11 3c fd cf 51 3c 13 f5 d0 3c f8 cb 0e 3d
       0.008910659 0.012805936 0.025507485 0.03486249
0003e0 e2 19 a8 3c 40 21 06 bb 02 4a 02 3d f1 5c 75 bc
       0.020520154 -0.0020466596 0.03180886 -0.014975772
0003f0 12 77 85 3c d3 ca f9 3b fb fd f5 3c fe 6c 96 39
       0.016292129 0.0076230555 0.030028334 0.00028691435

fc1.bias f4 [128]
000000 70 73 a5 bc b3 bd 1b 3d 73 56 23 3c c6 9b 25 3c
       -0.020196646 0.03802271 0.009969342 0.01010794
000010 56 da 2b bc 72 b5 8d bc 08 f1 f8 3c bf 74 62 3c
       -0.010489067 -0.017298434 0.03038837 0.01382178
000020 f8 72 9f bc 65 a8 ff bc 0f ae 0e bd f6 1a f4 bb
       -0.019464001 -0.031208226 -0.034833964 -0.007449503
000030 da 3a 0b 3c 4e 1f e1 3b 61 ff 58 3c bc 9b cd bc
       0.008497918 0.006870187 0.013244481 -0.025098674
000040 f5 c0 b2 3c 06 aa 6b bb 3d fd 09 3d aa 80 39 bc
       0.021820525 -0.0035959496 0.033688772 -0.01132218
000050 c9 ce df bc 67 d6 ac bc 1f 04 22 3d 47 cd e3 3c
       -0.027320283 -0.021098329 0.03955471 0.027807845
000060 b4 55 85 bc 41 84 63 bc 10 93 bc 3c 16 0a d3 bc
       -0.016276218 -0.013886512 0.023019344 -0.025761645
000070 32 3f 4a bc bd e7 bf bc 5c 96 00 bc 12 28 05 3d
       -0.0123441685 -0.023425931 -0.0078483485 0.032508917
000080 56 1e 89 3b 4a 28 10 3c 05 7f 89 bc 55 4f 9d 3c
       0.0041845245 0.008798668 -0.0167842 0.019202868
000090 90 62 41 bc 52 f8 1b bc 4e 6d d1 3c 52 0e 33 3d
       -0.011803284 -0.009519653 0.025564816 0.04371483
0000a0 39 86 9a 3c 12 66 07 3d 20 72 02 3c 2e c5 93 3a
       0.01886283 0.033056326 0.00796178 0.0011273974
0000b0 ec d9 b5 3a b8 73 69 bc 1a a5 8e 3c 4d 13 7d bb
       0.001387415 -0.014248781 0.017412711 -0.003861624
0000c0 5b 28 22 3d 3d 5e b1 bc 7f 43 86 bc e5 d1 05 3d
       0.039589267 -0.021651382 -0.016389607 0.032670874
0000d0 82 f1 26 3d 42 ca 2a 3c 5e be 5f 3c 43 0a 32 3d
       0.040757664 0.010424199 0.013656227 0.043466818
0000e0 a5 1f 44 3d 3c 95 21 bc a6 be 0a 3d b5 cb 0c 3c
       0.04788174 -0.00986224 0.033873223 0.008593489
0000f0 1d c9 5f bb f0 13 b1 bb e0 22 4c bc 36 1c c4 3c
       -0.0034146972 -0.005403988 -0.012459487 0.023939233
000100 f6 ee 0c bd fc cd 0b 3d ea 0f 71 bc 51 db d7 3c
       -0.03440758 0.03413199 -0.014713267 0.026349695
000110 c2 0f e0 bc 3d 46 64 3c cd 9e dd bc 13 a2 c4 ba
       -0.027351264 0.013932762 -0.027053261 -0.0015001915
000120 88 3a ee bc 41 71 8d 3c 33 51 91 3c 5c 29 09 bd
       -0.029080644 0.017265918 0.017738914 -0.03348671
000130 28 eb 99 3a 5d 82 c7 bc c8 5d ba 3c 42 72 d3 bc
       0.0011743056 -0.024354154 0.022749797 -0.025811318
000140 67 78 89 3c 35 6f 1c bc f7 85 d4 3c ad a2 e4 bb
       0.016781045 -0.009547998 0.025942786 -0.0069774003
000150 a6 53 83 bc f5 07 5e bc 4f 59 88 bc fd c4 13 3c
       -0.016031098 -0.013551702 -0.016644148 0.009019134
000160 f7 60 99 bc 3a 95 9b 3c 4d 57 50 bc 5a 43 f9 bc
       -0.018722994 0.018992055 -0.012716127 -0.030427624
000170 32 6a ec bc 99 0e 0c 3d 96 ff e1 3c 07 7e c0 3c
       -0.028859232 0.03419361 0.027587693 0.023497595
000180 85 b8 15 bc 84 e7 13 3b 36 f0 22 bc af 58 65 bc
       -0.009138231 0.0022568414 -0.009944966 -0.013998195
000190 eb 80 36 3c af 1e 2b 3c 9d 81 88 bc 29 ad 39 3c
       0.011139135 0.010444327 -0.016663367 0.0113327885
0001a0 13 1d 06 bd ad d8 5a 3b 42 db 44 3c 5a ba 24 3c
       -0.03274257 0.003339331 0.012015166 0.010054195
0001b0 e6 31 38 3c b3 9e 5f 3c 84 32 2c bc c2 87 c7 bc
       0.011242365 0.013648677 -0.010510091 -0.024356727
0001c0 c4 7a 5f bc 3a 51 95 bc 8e fb f9 3b f3 ef 20 3c
       -0.013640109 -0.018227208 0.0076288646 0.009822833
0001d0 25 87 6c 3b a6 72 21 3d 28 d1 1c 3d 72 7d 8a bc
       0.0036091295 0.039415978 0.038285404 -0.01690552
0001e0 77 fd 18 bd 83 9a 77 bc 6d 79 77 bc 9d 49 00 3d
       -0.037351098 -0.015112522 -0.015104634 0.031320203
0001f0 60 2b a1 bc e6 69 c6 3c 95 2b 14 bd a7 d1 ca 3b
       -0.019674003 0.024220418 -0.036174376 0.0061895433

fc2.weight f4 [10, 128]
000000 1d fd 00 3c 94 0c d5 3d 8e 98 4b 3d 84 9f bb 3d
       0.007872847 0.1040279 0.049706034 0.091612846
000010 50 b0 b8 3d a1 87 ee 3d 9d ba e3 bd fe 59 ed 3d
       0.09018004 0.11646963 -0.11119578 0.1158943
000020 09 13 81 3d a6 c4 9a 3d eb 81 cd bd 3b 03 c0 bd
       0.06302459 0.07557039 -0.100345455 -0.09375616
000030 8e b7 7c bd f3 c9 68 bd 21 ef f7 bc 4f 45 e2 bd
       -0.06169849 -0.05683322 -0.030265393 -0.11048376
000040 a9 d0 51 bd d9 05 0b 3e 84 26 79 bd c3 ff 09 bd
       -0.051224384 0.1357645 -0.060827747 -0.03369118
000050 94 2d 88 3d 0f e8 50 3d 23 47 2e bc da e8 b7 bd
       0.06649318 0.05100256 -0.0106370775 -0.0897996
000060 fe e0 b8 bd 28 b5 1d bc 9b 70 25 bd 84 de 52 bc
       -0.09027289 -0.009625711 -0.040390592 -0.012870435
000070 68 8b af 3d 81 11 f6 bd 1a f2 cf bd 01 9e de 3a
       0.085715115 -0.12015057 -0.10153599 0.0016984345
000080 1a 53 95 3d 74 29 e1 3d 6b 91 9d 3d 44 1a 51 3c
       0.07291241 0.10994235 0.07693752 0.01276261
000090 e1 3b 7f 3d 40 5c 84 3d 1e db 63 bd 1a 98 00 3c
       0.062312964 0.06462908 -0.05562889 0.007848764
0000a0 c7 9d 88 3d de 30 c5 3b ad b9 ec 3c d6 53 98 3d
       0.06670719 0.0060177883 0.02889713 0.074378654
0000b0 3d 45 c0 bd a0 9d 85 bd e5 b5 95 3d 4c e7 e4 bd
       -0.09388206 -0.06524205 0.07310084 -0.11176929
0000c0 dc 7c 05 bc da 17 8e bd 40 d6 d9 bd 9f ba d3 bd
       -0.008147445 -0.06938143 -0.10636568 -0.103383295
0000d0 4c c5 6c bd 97 2f a5 bd 08 bb 86 3d 66 66 34 bd
       -0.057805344 -0.08065718 0.06578642 -0.044042967
0000e0 a9 8f 04 3b 12 c9 f1 3d 19 ee d8 3d 13 c1 d2 ba
       0.002022723 0.11805929 0.105922885 -0.0016079269
0000f0 58 74 38 bd a8 7e d9 bd c8 22 6a 3d f3 9d ff 3c
       -0.04503283 -0.10619861 0.057162076 0.031203246
000100 59 fa 82 3c 85 1f b9 3d 1a 5a 28 3c 9f 97 6c bd
       0.015988516 0.09039215 0.010275388 -0.057761785
000110 5f 8d ba 3d b0 98 41 bd aa 96 6c bd ab 5d e5 3d
       0.09108996 -0.047264755 -0.057760872 0.11199506
000120 24 45 23 3d 11 91 85 3d ea 8b 69 3d 5f b4 4e bd
       0.03986086 0.0652181 0.057018198 -0.050464984
000130 01 bf 70 bd 16 43 80 3d 6f 9e d0 3d bb b4 b7 bd
       -0.058775906 0.062627956 0.10186469 -0.089700185
000140 94 01 5f bd a1 10 cf 3d 55 c6 e8 bc 72 10 b4 bc
       -0.054444864 0.101105936 -0.028414885 -0.021980498
000150 33 ef 82 bd 31 44 ab bd cf e3 0b 3d 95 ad 9b bd
       -0.0639328 -0.08362616 0.034152802 -0.076014675
000160 df a8 3a 3d 96 c4 b1 3d 30 01 91 3d 24 ab 96 3d
       0.045571204 0.08680074 0.070803046 0.07356861
000170 cc 80 40 3d b7 be 3e 3d 32 7b 62 bc fa 45 b3 3d
       0.04699783 0.0465686 -0.013823317 0.08753581
000180 d6 45 8f bd 3d 96 ec bd c3 b1 2b 3d d2 7b 51 3d
       -0.06995742 -0.11552093 0.041917574 0.051143475
000190 60 53 a1 bd e8 f5 89 3d 2f ab 7d bd 34 7f ac 3d
       -0.07877231 0.06736356 -0.06193083 0.084226996
0001a0 98 17 65 3d 74 68 94 3d 77 b9 4d 3c ad 5c b6 3d
       0.055930704 0.07246485 0.012556425 0.08904395
0001b0 d6 56 92 bb ba de 01 bc 60 8e bc bd be 64 83 bd
       -0.004465918 -0.007926637 -0.092068434 -0.064156994
0001c0 86 65 cd bd c5 54 2a bd d7 40 ca 3d 74 5e 0d bd
       -0.1002913 -0.04158475 0.098756485 -0.034513906
0001d0 06 4b 65 bc 06 c6 ba 3d f7 61 8c bd d1 db 7e bd
       -0.013994938 0.09119801 -0.06854623 -0.062221352
0001e0 a5 91 96 3b 2a 55 e1 39 a7 d0 89 3d 32 d8 34 bd
       0.004594999 0.00042978796 0.067292504 -0.044151492
0001f0 e3 b7 ec 3a b3 1d b0 3c 1f 1c 43 bd 19 33 c7 3d
       0.0018060174 0.021498537 -0.04763424 0.09726543
000200 f0 7f db bd d8 cf d9 bc 8f 8b a5 3c f4 ef 47 bc
       -0.107177615 -0.026588365 0.020208148 -0.012203205
000210 c5 de 4f bd 7c 59 06 bb 2b 48 c6 3d d2 fb 80 3d
       -0.05074956 -0.0020500114 0.09681734 0.06298031
000220 de 19 04 3d bc 52 99 3c 87 bf 3a 3d ad 16 02 3e
       0.03225123 0.018716209 0.04559281 0.12703963
000230 7b cc 4c 3d f0 23 96 bc 97 93 9d 3d 10 be 89 3d
       0.049999695 -0.018327683 0.07694166 0.06725705
000240 7f 83 5f 3d ae ea bb 3d da 62 b8 bd 14 ed ce 3a
       0.054568764 0.09175621 -0.090032294 0.0015787208
000250 8f 01 7d bb 25 6f 89 3c c2 70 6b 3d e7 72 59 bd
       -0.0038605665 0.01677663 0.05748058 -0.053088095
000260 46 07 b6 3c f3 e3 fd 3c 8b d4 eb bd 65 af 84 3d
       0.022220265 0.030992484 -0.11515149 0.06478766
000270 71 0b 96 bc 18 e7 9e 3c fc f1 bf bd 57 d3 03 bd
       -0.018316003 0.019397303 -0.09372327 -0.03218397
000280 bd a5 2d 3d ce 0c 17 3d 61 75 e7 3b 37 2a 3b bd
       0.04239439 0.036877446 0.007063553 -0.045694556
000290 67 46 39 bd de 46 9e 3d f6 f4 6a bd 6c 05 6a 3d
       -0.045233157 0.077283606 -0.05736252 0.057134077
0002a0 1c 13 59 3d 19 cb 0e be 12 a0 38 3c 80 a4 c8 bc
       0.05299674 -0.13944663 0.0112686325 -0.024492502
0002b0 38 3b 81 3c 44 0f c7 bc 4d 05 90 3d 32 12 67 3d
       0.015775308 -0.024299271 0.07032261 0.056413837
0002c0 82 4b b8 3d ab 9f e2 3d 42 b2 10 bd ba 62 8b 3d
       0.08998777 0.110656105 -0.03532625 0.0680594
0002d0 30 a7 bc 3d a0 c3 80 bd 83 ae d8 bd fe 25 1c 3e
       0.09211576 -0.062873125 -0.105801605 0.15248868
0002e0 a8 f6 dc bc 78 d1 e2 bb 89 da 87 bd e6 ae 0f be
       -0.026973084 -0.0069219433 -0.06633479 -0.14031562
0002f0 74 b4 c7 bd 61 be 41 bd 68 4f b0 bd d2 71 26 bd
       -0.097512156 -0.0473007 -0.086088955 -0.04063589
000300 2d ae 1f bd e7 32 04 3d e4 79 81 3d b5 2f 59 3d
       -0.038984466 0.032275107 0.06322077 0.053024013
000310 92 e3 81 bd c4 3d 9f bd 59 ec 49 bd 34 8d e2 3d
       -0.06342234 -0.07775453 -0.049297664 0.110620886
000320 c5 93 1e 3d fa 34 66 bc 3f 51 e0 bd b1 d8 20 3d
       0.038715143 -0.0140507165 -0.109529965 0.039269153
000330 e1 48 7f bd af 16 02 3b f6 32 48 bd 95 aa ea bd
       -0.062325362 0.0019849946 -0.048876725 -0.11458317
000340 f8 99 d4 3d a5 ef b3 bd 08 15 68 3d 36 cf d9 3d
       0.1038093 -0.08785943 0.056660682 0.106352255
000350 9d 1d 83 3d c8 a2 83 bb b7 15 35 3d 3c 2d 2b bc
       0.06402133 -0.004017208 0.044210162 -0.010447796
000360 ee 24 84 bb 81 c7 9c bb 19 84 0d 3e cd 28 97 3c
       -0.0040327227 -0.004784525 0.13819923 0.018452073
000370 f7 6c a5 3d b8 fb 73 3d f2 f4 ba bd ca 8e de bd
       0.08077424 0.05956623 -0.09128751 -0.108670786
000380 ef 23 aa bc 2e 01 46 3d 91 8d 9d 3c 76 96 02 bd
       -0.020769088 0.04834097 0.019232543 -0.031881772
000390 1e 48 7e 3d 67 7f 17 be cc 79 04 3e 3a 3f 23 3c
       0.062080495 -0.14794694 0.12937087 0.009963805
0003a0 e9 78 bf bd 0b b6 4a bd f6 d9 e8 bd 6d 11 1b 3d
       -0.09349234 -0.049490016 -0.11369698 0.037858415
0003b0 ae ac 68 bd a7 7d a9 3d 23 09 67 bd fd 47 f4 3c
       -0.056805305 0.082759194 -0.056405198 0.029819483
0003c0 d1 bd 9e 3d 26 d0 ea 3c 69 67 77 bd 83 62 e5 bd
       0.07751048 0.028663706 -0.060401354 -0.1120043
0003d0 6e 44 c6 bc 89 8e a3 3d fb 91 65 3d 56 82 a5 bd
       -0.024202552 0.07986171 0.05604742 -0.080815
0003e0 36 a4 a7 bd 88 85 68 3d 7f 09 98 3d a0 1f f2 3d
       -0.081856176 0.05676797 0.07423686 0.11822438
0003f0 2d 4d ba bd 7f 8b 3c 3d 1b 49 67 bd 0e d3 92 bd
       -0.09096751 0.04603147 -0.056466203 -0.07169162

fc2.bias f4 [10]
000000 1c a1 82 bb 96 55 92 3d f4 95 70 3d c1 58 b7 3c
       -0.003986491 0.071452305 0.058736756 0.022381188
000010 db 6c 75 bd fb 37 72 bd 0d 5d f3 bb 05 b3 85 bd
       -0.059918266 -0.05913542 -0.007426864 -0.06528286
000020 ca 5f 69 3d 9d cb 4a bd
       0.056976117 -0.049510587
