models/Experiment 4/Trained on normal data/joint_model_cons7.pt (torch, 469453 bytes, 12 tensors)

g_model.conv1.weight f4 [32, 1, 3, 3]
000000 e5 e3 8d be c5 40 1d 3d 34 d3 ac 3e f6 76 24 be
       -0.27712932 0.038391847 0.33754885 -0.16061005
000010 18 ee c7 bd 28 8f a9 bb c1 96 4e 3e 3e 9e 74 3e
       -0.0976221 -0.0051745363 0.20174696 0.2388849
000020 20 cc 8f be 0e 48 5b 3e 54 cf 83 3e 12 cb a1 3e
       -0.28085423 0.21414205 0.25744116 0.31600243
000030 d5 13 b0 bc 49 d7 58 3e b4 59 16 3d fc 75 db be
       -0.021493832 0.21175875 0.03670664 -0.42863452
000040 b1 3f aa be e4 c1 03 3e 35 6e ca 3e d7 a0 c8 3d
       -0.33251718 0.12866932 0.39537206 0.09796303
000050 56 04 31 be 7f 66 ac 3e d5 34 70 be 86 65 bd be
       -0.1728681 0.33671948 -0.23457654 -0.3699152
000060 ea ba fd 3d a0 ed 7a be 30 08 7d 3d fd 95 84 3e
       0.12389167 -0.24504709 0.061775386 0.25895682
000070 77 88 02 be 29 01 f6 bd 2a 93 d9 3d da 6a 49 be
       -0.1274737 -0.1201194 0.106237724 -0.19669667
000080 a7 c3 c8 be 4a c2 0d 3f 00 f0 b9 bb a4 09 1c 3e
       -0.3921177 0.55374587 -0.005674362 0.15238053
000090 ef 45 bd 3e 67 8d 46 be ea 4b 81 3e ed c2 35 3e
       0.36967418 -0.19389878 0.2525323 0.1775014
0000a0 57 38 3d be fb 1a a9 3e 55 50 8c 3e 0e 58 37 3c
       -0.18478523 0.33028397 0.27405038 0.0111904275
0000b0 61 ae 5d 3d 79 7c bf bb 1b db 51 3e 15 f4 d4 bd
       0.05412138 -0.0058436957 0.20493738 -0.103981175
0000c0 10 cf fd 3e 96 1f 06 3f c1 a3 32 be 22 4f a1 3e
       0.4957204 0.52391946 -0.1744528 0.31505686
0000d0 4b 9c 9e 3c f5 55 c2 3e 71 d9 d0 bc 4b 6e 87 3e
       0.019361636 0.37956205 -0.02549431 0.26451334
0000e0 5d 9f c1 bb cb 23 7e be 32 ce ae 3e 28 09 ae 3e
       -0.00590889 -0.24818341 0.3414169 0.3399136
0000f0 c9 f6 dd bd 6e 9c eb 3e bc 07 56 3e a5 37 48 3e
       -0.10838086 0.46017784 0.20901388 0.19552477
000100 a0 f1 0b be 55 7c df be 8f 7e 06 be fd be c2 be
       -0.13666391 -0.43649545 -0.13134216 -0.38036337
000110 0e f6 f9 3c 40 ee e0 be 72 48 a0 3c 15 a1 d9 3d
       0.030512836 -0.4393177 0.019565795 0.10626427
000120 c3 82 1d be fa 82 8d 3e 89 0d d3 bd e8 4a fb 3e
       -0.15381913 0.2763899 -0.10305316 0.49080586
000130 07 3c ff 3e f3 33 a0 3e 34 3a 3c be 32 9c 83 bc
       0.49850485 0.31289634 -0.18381578 -0.01606569
000140 7d aa e8 3e f3 87 7c 3e e0 a3 08 3e d9 26 83 3e
       0.45442572 0.24661236 0.13343763 0.25615576
000150 bd ce 80 3e ca 76 eb 3e c4 15 64 3e 36 95 ca 3e
       0.2515773 0.45989066 0.22273928 0.39566964
000160 a6 e5 a1 bc 6a 46 0d 3e e7 9a a1 3e ff c9 00 3f
       -0.019762825 0.13796392 0.31563494 0.5030822
000170 54 53 a1 3e 27 b5 66 3e f1 2c cc 3e d8 f6 86 bc
       0.31508887 0.22530042 0.39878038 -0.016475126
000180 3d db 04 3e 12 bb 97 3e be a8 84 be 86 31 ab 3e
       0.12974258 0.2963491 -0.2590999 0.3343622
000190 32 2b 97 3e ac 34 06 3e c9 bd c7 3e df 64 42 3e
       0.29525143 0.1310603 0.39011982 0.18983792
0001a0 56 8e d2 3e 53 b7 83 be 06 41 41 be 64 91 5f be
       0.4112422 -0.25725803 -0.1887246 -0.21832806
0001b0 d6 f5 d6 3d 42 6c 3c be e4 fa 53 bd 65 67 17 be
       0.10496108 -0.18400672 -0.05175294 -0.14785536
0001c0 20 6a 9a 3e 7d 2b e9 3e 6b b1 0c 3e 73 be 5b be
       0.30159092 0.4554099 0.13739555 -0.2145937
0001d0 8d 81 91 be 68 a2 81 3d fa ef 9c be f8 02 0b be
       -0.28419152 0.06329805 -0.30651838 -0.13575351
0001e0 fd 8d 3b bd 30 f0 a4 bd e0 0c 15 be b6 51 75 be
       -0.045789707 -0.08053625 -0.14555693 -0.23956951
0001f0 fe 55 1e be c7 4b 35 3e 24 3b d6 be 8a c5 1a 3e
       -0.15462491 0.17704688 -0.41841996 0.15114418
000200 86 b1 81 3e b9 f0 da bc 8f 93 4e 3e 10 bd a3 3e
       0.25330752 -0.026726114 0.20173477 0.3198018
000210 17 53 94 3e 84 8d 91 3e 6f 02 d5 bb 93 52 0e 3d
       0.28969643 0.2842828 -0.0065005342 0.034746718
000220 d2 a4 0d be 86 22 b5 be 3c dc 97 3e 6a 5e d9 3e
       -0.13832405 -0.35377902 0.29660213 0.42454845
000230 fa 65 d1 bd 74 36 0e be 53 7b 65 bb 0d f8 af 3e
       -0.102245286 -0.1388796 -0.0035016134 0.34368935
000240 c9 dd a0 3d ff 7f 61 3d e1 47 20 3d 73 fc 83 be
       0.07854802 0.055053707 0.03913105 -0.2577854
000250 e4 58 1f 3d 71 ba 6f 3e 1c 98 bd be ca 45 24 be
       0.038903132 0.23410966 -0.37030113 -0.16042247
000260 a3 00 ed 3e 57 76 55 be 9a 1e eb 3d 43 53 51 be
       0.46289548 -0.20845924 0.11480446 -0.20441918
000270 13 fc eb 3e 64 86 c8 3d 0e d0 d2 3e f6 ce 80 bc
       0.46090755 0.09791258 0.41174358 -0.015723687
000280 38 c9 71 3e 54 3c 23 3e 91 0f e3 3d 29 f0 ed bd
       0.23611915 0.15940982 0.110869534 -0.116180725
000290 3e 41 2b be ca 6b c1 3e ea b3 4f 3d ee fb b1 3e
       -0.16724107 0.3777755 0.05070869 0.3476252
0002a0 c8 e5 d9 3e 87 fe b1 3e 62 8b 64 be 06 6c 85 3e
       0.42558122 0.347645 -0.22318795 0.26058978
0002b0 29 b3 ed 3e 16 f8 a8 3d 7b 91 c7 3e ca 69 af 3e
       0.4642575 0.08250444 0.3897818 0.34260398
0002c0 c0 c7 fe 3e 7d 17 4c 3d 84 50 49 be 7a c7 c5 3e
       0.49761772 0.049827088 -0.1965962 0.3862875
0002d0 51 bf 7e 3e 65 1a 1f 3e 0a ab d1 3e 4d 15 7b 3e
       0.24877669 0.15537412 0.40950805 0.24519844
0002e0 ec 5a cb 3e 49 d9 d1 3e 78 c6 c0 3d 94 c6 58 3d
       0.39717805 0.40986088 0.09412855 0.052923754
0002f0 a5 b9 d9 3e f0 f5 14 3e bb 9e 3d 3e d2 7d 2a be
       0.42524448 0.14546943 0.18517582 -0.16649559
000300 34 bb 14 3e 88 5d f0 3e 24 51 a1 bd 9d fe b4 3e
       0.14524537 0.4694636 -0.078768045 0.35350505
000310 f8 cd 12 3e 5a d8 cc be 18 87 af 3e bc 3a ac bc
       0.14336383 -0.40008813 0.34282756 -0.0210241
000320 fb a9 06 be 6e df d6 3e 5c 74 04 bc 28 02 80 3e
       -0.1315078 0.41967338 -0.008084383 0.25001645
000330 ee af af 3e d6 97 a3 3d e9 80 e8 3e 42 0c b7 3e
       0.3431391 0.07987945 0.4541085 0.3575154
000340 d6 9c 9e 3e 34 19 0a bd ae 4c 5e 3e 5a 82 b6 3e
       0.3097903 -0.03371544 0.21708938 0.35646325
000350 15 bd ae bd 53 bc 8f be 2f 79 0a be 32 c1 9e 3e
       -0.08532158 -0.28073367 -0.1352279 0.3100677
000360 f3 93 d6 3e 54 79 f5 bc b3 ee 8a 3e 9b da 94 3e
       0.4190975 -0.02996508 0.27135238 0.29073033
000370 fd 2b 3f be e9 48 7d 3d e0 49 07 be 62 bf c2 be
       -0.18669124 0.06183711 -0.13211775 -0.38036638
000380 0d d9 73 be fc 3d b8 3e fa 69 74 3e 94 32 5f be
       -0.23813267 0.3598479 0.23868552 -0.21796638
000390 ab 39 74 3e 92 e6 86 3e ce b2 80 be 4f 66 cd 3e
       0.23850124 0.26347786 -0.25136417 0.40117118
0003a0 9b 45 18 3e 3e 26 28 3c 6f ab 93 be 07 79 49 be
       0.14870302 0.010263024 -0.2884173 -0.19675075
0003b0 f5 e9 b9 3e b0 59 c2 3e 11 9a 9b 3e 94 4e de 3e
       0.36311308 0.3795905 0.3039098 0.43419325
0003c0 a9 4d 68 3e 0c c7 a7 3e eb 1a 1f 3e bb f3 b7 bd
       0.22685875 0.32769048 0.15537612 -0.08982035
0003d0 cb ef 8d 3d ab 22 14 3c 6e 74 77 be 8e 06 34 be
       0.069305025 0.009041469 -0.24165508 -0.17580625
0003e0 30 92 47 be 56 69 7d 3c e4 90 a9 be 56 e2 53 bd
       -0.1948936 0.015467009 -0.33118355 -0.051729523
0003f0 1c b2 5a bc bd 35 8a be 43 89 11 3e 43 f7 30 be
       -0.013348129 -0.26994124 0.14212517 -0.17281823

g_model.conv1.bias f4 [32]
000000 5c e9 d8 3b bc fe 9c 3e 2f 22 db 3b 65 60 85 bd
       0.0066196155 0.30663097 0.0066874246 -0.065125264
000010 37 a7 73 3e b1 6b f0 bd 65 79 15 b9 e9 b7 a4 3e
       0.23794256 -0.117392905 -0.0001425497 0.32171562
000020 83 b2 bf 3d 00 94 ed 3d 55 cd 1d 3e dc 9f 0a b9
       0.0936022 0.116004944 0.15410359 -0.00013220258
000030 de a7 84 bd a1 21 36 be 75 25 c1 3d 15 94 e7 bd
       -0.064773306 -0.17786266 0.094309725 -0.11307541
000040 39 4d 20 bb 6d 07 77 bb dc d1 a8 bc 35 4e 45 3e
       -0.002446009 -0.0037693635 -0.020607881 0.19268115
000050 2d fc 0c b9 f3 6f b0 bd dd 58 81 3e d1 ac db b9
       -0.00013445383 -0.086151026 0.2526311 -0.00041899693
000060 c9 31 a7 3d 90 2e 32 bd c6 f6 08 bc 50 f6 77 be
       0.08163793 -0.043501437 -0.008359617 -0.24215055
000070 4f e4 a2 bd 42 cf 1a 3e 9b c2 91 3e 61 c2 31 3e
       -0.07953703 0.15118125 0.28468785 0.17359306

g_model.conv2.weight f4 [32, 32, 3, 3]
000000 50 f5 10 3e 1b 19 cd 3b 4a 3a eb 3d d4 e4 3d 3d
       0.1415608 0.0062590963 0.11485727 0.046360806
000010 0b 82 dc 3d e1 f5 ef 3d e6 65 01 3e d3 da cd 3d
       0.10766991 0.117168196 0.12636527 0.10051503
000020 f7 95 22 3e 33 40 81 bd 92 b0 06 bc b2 72 00 3d
       0.1587752 -0.06311073 -0.008220809 0.031359382
000030 84 95 a1 38 c2 c7 34 bd 02 2b ad bc 00 ae 5e 3c
       7.704928e-05 -0.044135816 -0.021138672 0.0135912895
000040 fc 1b 46 3b 98 df 97 3d 6d f0 0f 3e 74 72 1f 3e
       0.0030229082 0.07415694 0.14056559 0.15571004
000050 0e c7 88 3d 37 da b2 3d b6 e1 cb 3d 57 aa 5f 3d
       0.06678592 0.087330274 0.0995516 0.054605808
000060 0b 5f f7 3c c3 38 a1 3d 38 e4 80 bc 70 64 1f 3e
       0.030196687 0.078721546 -0.015733823 0.15565658
000070 c8 61 26 3e ee 12 8b 3c 7a 81 0c 3e d5 b0 1a 3e
       0.16248238 0.0169768 0.13721266 0.15106519
000080 12 a8 0f 3e 2d 8d 0e bd 3f 04 91 3d 9d 1d 46 3d
       0.14028957 -0.034802604 0.07080888 0.048368085
000090 d8 83 9a bc 49 b4 0a bd 21 e0 3d bc e6 57 39 bd
       -0.018861696 -0.03386334 -0.011589081 -0.045249842
0000a0 74 f6 07 3d 76 dc 2c bc 8c fd 75 bd 7e cc 0e bd
       0.03319402 -0.010550609 -0.060056254 -0.034862988
0000b0 4a 00 28 3c c7 a7 2b 3d f0 58 21 bb 70 68 3c bd
       0.010253975 0.04190805 -0.0024619661 -0.045998037
0000c0 a1 9f 8e 3d eb b2 b8 3d 34 7b 2c 3d 2b 09 1c bd
       0.069640405 0.09018501 0.042109683 -0.03809468
0000d0 33 6c b9 3c bb ee 98 3d 43 e2 2c 3d 9d a6 e8 bc
       0.022634601 0.07467409 0.042207967 -0.02839976
0000e0 86 a0 59 3d 77 3c 2f 3d b5 2f 34 3d fe 36 1d 3d
       0.053131603 0.042782273 0.04399081 0.038382523
0000f0 17 52 a0 3d 83 b4 8c 3d f7 b8 97 3d 6a 70 83 bd
       0.078281574 0.068703674 0.07408326 -0.06417926
000100 f0 98 59 bc a9 3b 1f 3d a4 70 02 be 49 c8 9a bd
       -0.013281092 0.038875256 -0.12738281 -0.075577326
000110 bf f7 ab bc 82 13 01 be 06 e5 68 bd da b6 9c bd
       -0.020992158 -0.12605098 -0.05685904 -0.07652064
000120 80 c6 1b 3c 36 e2 eb 3c c5 3f 5c bd 12 6c c5 3d
       0.009507775 0.02879439 -0.053771753 0.096397534
000130 2b 51 a8 3c 90 a0 95 3d 3a 1c 1a 3b 11 13 6d 3d
       0.020546516 0.073060155 0.002351536 0.05787951
000140 24 b2 e8 3d 1b df 73 3c 43 72 e7 bc a9 6f bd 3c
       0.11362103 0.014884735 -0.028252726 0.023124533
000150 af 52 2a bd 72 54 26 3b 31 cb 20 bd c8 72 6e 3d
       -0.04158276 0.0025379923 -0.03925628 0.058214933
000160 78 af 8c bc 0e f9 a2 3d a8 5e c3 3d 6f e6 42 bc
       -0.017173514 0.0795766 0.095395386 -0.01189576
000170 d6 07 95 bd d2 66 98 3d b6 94 95 3a 1a 53 db bc
       -0.07276885 0.074414864 0.0011412117 -0.026773024
000180 99 04 e3 3c c2 6d 7c 3c 19 0a 8d 3c a2 60 a4 bc
       0.027712153 0.015407028 0.017216729 -0.02006561
000190 d2 a3 af bc 89 81 7c bd 43 db 93 3d 43 d5 47 3c
       -0.02144042 -0.06164697 0.07219555 0.012196842
0001a0 67 1d 99 3c 3f c5 92 3d c3 f0 dc 3d ef 76 cc 3d
       0.018690778 0.07166528 0.10788109 0.09983622
0001b0 57 2f 06 bb 95 36 db 3d 9a 05 0c 3e 73 95 13 3e
       -0.0020474994 0.1070377 0.13674012 0.14412479
0001c0 24 48 eb 3d 34 19 41 3e cd a2 06 3e d9 63 49 3e
       0.11488369 0.1885727 0.13148041 0.19666995
0001d0 dc ea 19 3e d3 45 05 bc b8 1b 29 bd 73 f2 08 3d
       0.15030998 -0.008134323 -0.0412862 0.033434343
0001e0 b2 82 96 3c 1e b5 29 bd 5e 6c 2b bd 90 81 2f bd
       0.018372867 -0.041432492 -0.041851394 -0.04284817
0001f0 38 cb 16 bb 79 c7 23 3d 6b a5 39 3c fa 59 32 3d
       -0.0023009311 0.039985154 0.011330943 0.04354284
000200 91 b4 65 ba 51 ac 3f bd c9 10 4d bc 13 85 ea bb
       -0.0008762563 -0.046795193 -0.012516209 -0.007156977
000210 e4 b7 da bc ce 0a 56 bd 37 ab 02 bd 73 98 b1 3d
       -0.026699014 -0.052256398 -0.031901564 0.086716555
000220 77 ea 61 3b 9c 39 18 3d a4 6e ab 3d 21 c4 08 3e
       0.0034472027 0.037164316 0.083707124 0.13356067
000230 fb d4 11 3e fe 04 a5 3d 03 bf 1c 3e 5e cc ec 3d
       0.14241402 0.08057593 0.1530724 0.115624174
000240 49 b9 f6 3d c7 e8 98 3c 9b 6a 01 3e b6 88 80 3d
       0.12047059 0.018665684 0.12638323 0.062760755
000250 68 f4 da 3b 20 d4 6f 3d 98 9d cc 3c 1a db 0b 3e
       0.0066819675 0.058551908 0.02497749 0.136578
000260 84 7a d2 3d b4 ae e0 3c 48 a4 a7 bd 60 5c 29 3a
       0.10277274 0.027427055 -0.08185631 0.00064606033
000270 85 14 63 3d 99 31 a8 bc 83 9f c4 3d 1d 27 0a bd
       0.05543949 -0.020531463 0.09600737 -0.033728708
000280 ee 20 c1 3b 52 24 ef 3d b5 f5 09 3d 6b c0 bd 3d
       0.005893818 0.116768494 0.03368159 0.092652164
000290 68 47 48 bd 89 8e a0 bc 1f 2b d5 3d 5f 05 8c 3c
       -0.048896223 -0.019599216 0.10408615 0.017092405
0002a0 36 f3 59 bd f7 81 29 3c 09 90 c2 3d 45 84 58 3d
       -0.05321046 0.010345927 0.09500129 0.052860517
0002b0 5c fb c0 3c 8d b7 08 bd aa d3 50 3c 06 c6 d4 3c
       0.023557357 -0.033378173 0.012745777 0.025973331
0002c0 3c 40 b9 3c 9d 7a 1e 3d df cf 5f 3d 9f 4c 96 3c
       0.022613637 0.038691152 0.0546416 0.018347083
0002d0 01 ee 76 3d 6b a3 92 bd 4e 41 35 bc 12 6e 39 3d
       0.060285572 -0.07160076 -0.011062933 0.045270987
0002e0 83 31 14 3d 37 b6 3b bd 2f 53 cb bb d6 9e b0 3b
       0.03618003 -0.04582807 -0.0062049846 0.0053900285
0002f0 71 88 22 3c 1a 66 f1 3d 21 f9 c3 3c a9 40 12 3d
       0.0099202255 0.117870525 0.023922505 0.035706196
000300 f1 49 36 3d 40 99 55 bc 43 d4 5c bc 9b 58 b4 3c
       0.04450411 -0.013037026 -0.0134783415 0.022014907
000310 8d ed 8a bc 10 ab 78 bd 9b 68 eb bc 7c 43 18 3b
       -0.016958976 -0.060710013 -0.028736403 0.0023233583
000320 86 49 58 bd a9 0f d0 bc 46 1a 78 3d 44 4b 1c bd
       -0.052804492 -0.025398092 0.06057193 -0.038157716
000330 4c 3f bb 3c 21 27 91 bc e9 1f 2f 3d 07 9a 24 3d
       0.02285733 -0.017718853 0.04275504 0.040185954
000340 6a 70 94 3d 8c b0 49 3d ba 6f 31 3d ec 47 ed 3a
       0.07248004 0.049240634 0.04331944 0.00181031
000350 93 71 8a bc eb 12 9b 3d 64 0d 56 3d e5 ee fa 3d
       -0.01689986 0.07571968 0.052258864 0.12252597
000360 71 06 8f bc a9 3c 0a 3e 5d a9 a4 3d d9 15 9e 3c
       -0.017459126 0.13499703 0.08040116 0.019297527
000370 38 89 53 3d 5e 9b 3a bd 4d e3 0a 3c b7 bd e1 3d
       0.051644534 -0.045558326 0.008477044 0.11022513
000380 02 34 b5 3c 9b 4f db 3d c0 06 c3 3c ed c0 c8 bc
       0.022119526 0.10708543 0.02380693 -0.024506057
000390 9a ec aa 3d 77 0b 79 3d 0d d5 8e 3c 73 90 ce bc
       0.083459094 0.06080195 0.017435575 -0.025215363
0003a0 b4 ad 6a 3d 34 08 d9 bc 93 2f 26 3d 52 3e be 3c
       0.057294562 -0.02649317 0.040572714 0.023223076
0003b0 7c 00 d3 bc 5b 2f d1 3c ed 59 6a bc 53 79 73 3d
       -0.025757067 0.025535276 -0.014303667 0.059441876
0003c0 30 6e 3a 3b 07 e1 79 3c e0 98 d2 3c d1 cc 69 3d
       0.0028447025 0.015251405 0.025707662 0.057080094
0003d0 55 0b 21 bc c7 b8 12 bd 9b b0 e2 bb 55 7a 5f bc
       -0.009829362 -0.03582075 -0.0069180257 -0.013640006
0003e0 3a 32 62 bd a6 1a 6d bd e2 a5 00 3d 32 1d 5e bd
       -0.05522368 -0.057886742 0.0314082 -0.05422706
0003f0 dd d5 85 3d 97 ec 03 bd c0 21 0f 3d dc 7f 08 3d
       0.06534932 -0.03220805 0.034944296 0.03332506

g_model.conv2.bias f4 [32]
000000 4b 21 11 3d 7e 0d 31 3d 20 e7 1a 3c d3 8d b5 bc
       0.03543214 0.043225758 0.009454519 -0.022162354
000010 b4 61 c5 3b cb 21 10 bd 28 26 23 3b 03 44 eb 3c
       0.00602361 -0.035188477 0.002489457 0.028718954
000020 19 c5 a6 bd 87 be 87 3c 41 ad c4 bc 35 b7 89 bd
       -0.08143062 0.016570343 -0.024008395 -0.06724397
000030 dc bc 83 bd 8e cc ad 3c 30 0d 82 bc 8c 5e 16 3d
       -0.064325064 0.021215703 -0.015875429 0.03671126
000040 4c 4e b9 bb fe 83 54 3b 68 e3 75 3b 76 46 39 bd
       -0.0056550857 0.0032427306 0.0037519578 -0.045233212
000050 6b a9 98 3d 26 3b f2 bc 26 1f fa 3c 4b 5c ee 3c
       0.07454189 -0.02956922 0.03053243 0.029096743
000060 55 64 9d 3b ff eb dd 3c 88 ab 01 3d a0 1d ed 3c
       0.0048032203 0.02709007 0.031657726 0.02894479
000070 a2 1a 3f 3d 10 cd 8e 3c 67 cd 25 bd 69 46 0f 3d
       0.04665626 0.017431766 -0.04047909 0.034979258

g_model.fc1.weight f4 [128, 800]
000000 24 11 51 bc e9 c9 e3 bc 11 59 47 bb b2 2c c0 bb
       -0.012760434 -0.02780624 -0.0030418078 -0.005864703
000010 e3 32 a0 bb cb 83 b1 bc 70 e3 4a 3c f9 0b d6 3b
       -0.0048888787 -0.02166929 0.012383327 0.006532189
000020 38 9a c1 bc ab 3b 2a bc 24 b9 33 3c 4a 41 e3 bc
       -0.023633108 -0.0103902025 0.010969434 -0.027741093
000030 5f 21 5a 3b fc 09 54 bc 6a d7 70 3c 04 28 44 3c
       0.003328405 -0.012941834 0.014699796 0.011972431
000040 b4 c4 1b 3d 83 a3 10 3d f5 7c 1b 3c 44 ea 80 3c
       0.038029388 0.035312187 0.009490241 0.015736707
000050 a8 51 e2 bb b3 72 9f 3c 36 29 6b 3d 5a 46 c8 bb
       -0.006906707 0.019463873 0.05741235 -0.006111902
000060 f2 e9 20 3c 0a 79 24 3d 5e 2e 67 3c d1 2f c2 bb
       0.009821402 0.040154494 0.014110176 -0.0059261103
000070 d1 1d 17 bd d8 40 82 bc c1 2a a8 3c be aa c5 3c
       -0.03689367 -0.01590006 0.0205282 0.024129268
000080 f3 5d b5 bc da 4a 2c 3c 8a 98 1d bd bb b2 1e bd
       -0.022139525 0.010515893 -0.03847555 -0.03874467
000090 93 49 91 bc ad 88 99 bb 63 a8 88 bc c2 c4 93 bc
       -0.017735278 -0.0046854825 -0.016681856 -0.018038157
0000a0 5f 8a 39 bd 60 ae 81 3c 37 bb 2e bd 0d 2e fa bc
       -0.045297977 0.015830219 -0.04265901 -0.030539537
0000b0 9a 1b 9e 3c 55 fa 97 bc a5 05 d3 3a e5 58 80 3c
       0.01930027 -0.018551985 0.0016099705 0.015667388
0000c0 00 1a 88 bc b3 86 0c bd 5a 9a 82 3c 75 9d a5 3c
       -0.01661396 -0.034308147 0.015942741 0.020216683
0000d0 c6 19 6f bc 29 bd 3b bc 27 79 e2 bc 19 e2 90 3b
       -0.014593547 -0.0114586735 -0.02764566 0.004421484
0000e0 22 b9 83 3c c6 26 01 3d fa 66 bc 3b 2d ce 05 bd
       0.01607949 0.031531118 0.0057495805 -0.032667328
0000f0 3e 49 30 3d be 65 f7 3c 19 17 21 3d 93 37 95 bc
       0.0430386 0.030199882 0.03932867 -0.018214976
000100 61 eb 58 3d 96 77 3a 3d 2f 34 e8 bb 86 47 08 bb
       0.05295885 0.045524202 -0.007086299 -0.0020794584
000110 55 62 b0 3c ae 3f 77 3b c7 98 08 bd 2b 13 bc 38
       0.021531263 0.0037727165 -0.033348825 8.968109e-05
000120 d6 cc 99 bc 06 01 19 3c da c6 d4 3c 7d a4 e4 bc
       -0.018774431 0.009338623 0.025973726 -0.027910465
000130 e0 fb 64 bd d9 62 24 bc 99 f4 1a bc f8 f6 e1 3c
       -0.05590427 -0.010033333 -0.009457731 0.027583584
000140 bc fb 7d bc c1 b0 92 3c ac 53 d8 3c df 6f 6d 3c
       -0.015501913 0.017906548 0.026407085 0.014492004
000150 46 c5 a5 bb 7c 7b f6 3b 6b a0 4a 3c c1 64 f5 3b
       -0.005058917 0.0075220447 0.012367348 0.0074888174
000160 5d 63 e0 bc 6c 52 37 bd ec 1b 89 bd 2d 80 e6 bc
       -0.02739113 -0.044756338 -0.06694779 -0.02813729
000170 30 f6 40 3d 17 1f bb 3c 0a b0 4a bc fe b1 10 3d
       0.047109783 0.022841973 -0.012371073 0.035325997
000180 13 70 7e 3c ab 1a 87 3d d9 2a 86 3c ec 0a db ba
       0.01552965 0.065968834 0.016377853 -0.0016711629
000190 e3 00 e1 3b e4 c1 cf bc 91 53 bd 3c f7 0c a3 3c
       0.006866561 -0.025361009 0.023111137 0.019903643
0001a0 f1 cc 9d 3b d6 12 a3 bc b7 e9 18 bc c0 30 45 3c
       0.0048156907 -0.019906443 -0.009333066 0.012035549
0001b0 fd a6 af 3b 2c d6 dc bc bb 93 21 bc 73 26 d6 bb
       0.0053604827 -0.026957594 -0.009861882 -0.006535345
0001c0 56 df 0a 3c e9 41 a9 3c a4 72 da 3b 7f 2c e9 3a
       0.008476099 0.020661311 0.0066664983 0.001778975
0001d0 5d 63 d4 bb 3f b7 dd bc c9 b6 24 bb 9d 2a c9 bb
       -0.0064815716 -0.027064918 -0.0025133363 -0.006139113
0001e0 8c ac b8 3c 44 82 3c bc 85 c2 a5 3b f9 ee 95 bc
       0.022543214 -0.011505667 0.005058589 -0.018302428
0001f0 02 d4 12 3d f8 ef 0d 3d 1f 22 0e 3c c4 a2 86 3b
       0.035846718 0.03465268 0.008675127 0.0041087586
000200 21 ae 97 3d b7 bf 60 3d 14 57 84 3c fd 7c 89 bc
       0.07406259 0.054870334 0.016154803 -0.016783232
000210 96 ef 1b 3d 68 3f 81 3c de 8a f1 3c fe 8a 07 3d
       0.038070284 0.015777305 0.029485162 0.033091538
000220 2e 04 29 3c 83 50 85 bc f4 b8 cf 3b d1 18 db 3c
       0.010315938 -0.016273743 0.006339187 0.026745232
000230 03 8e 0d bc 5c 11 bc bc 09 c7 19 bd 90 4c 54 3c
       -0.008639815 -0.022957496 -0.03754333 0.012957707
000240 6f b7 2c 3d 0b d5 0a bd cd 2a 04 3c 92 fd 39 3c
       0.042167123 -0.03389458 0.008066845 0.01135196
000250 e9 bc 45 bb 8d b3 fd 3c 9e b8 1f 3d 58 be bf bc
       -0.0030172414 0.030969406 0.038994424 -0.023406193
000260 b1 1e 33 3d aa 4a 85 3c d5 04 96 bc 80 5c a1 bc
       0.04373044 0.016270954 -0.018312851 -0.019697428
000270 42 3a 94 bc 2a 41 bd 3c 46 a3 c4 3c a9 85 b7 3c
       -0.018094186 0.023102362 0.024003636 0.022402601
000280 47 f1 2d 3d f5 4d 0d 3d ac 3f 57 bc 3e 13 c5 bc
       0.042466428 0.034498174 -0.013137739 -0.024057027
000290 3b 16 5d bc 53 a0 0b 3c dd 67 1c 3d 9b a5 43 3c
       -0.01349407 0.008522111 0.03818499 0.011941339
0002a0 40 76 e5 3c 11 b3 7d 3c 16 37 06 3d 79 5d 74 3d
       0.028010488 0.015484587 0.032767378 0.059659455
0002b0 84 31 91 3c 7b 67 44 bc 39 f5 03 bd b1 1c a1 3b
       0.017723806 -0.011987562 -0.032216284 0.0049167504
0002c0 a3 97 5b 3b 16 08 16 3b 36 94 ed 3c 68 8b e1 3b
       0.003350713 0.0022893003 0.029001337 0.0068830736
0002d0 5d 8b 0b bc 19 48 57 3c f7 13 ff 3c b4 71 d2 3a
       -0.0085171135 0.013139748 0.03113745 0.0016055615
0002e0 8b 2b de 3c 9b b0 85 3b d3 fb c1 bc 56 33 19 bd
       0.027120372 0.004079891 -0.02367965 -0.037402473
0002f0 df 01 d0 3c 6f f5 7f bb 72 7f ea 3c 9e 0f d3 bc
       0.025391517 -0.0039056202 0.028625224 -0.025764283
000300 cd 76 90 3a 77 0f c5 bc 74 01 12 3d b4 cd 4a 3c
       0.0011021734 -0.024055226 0.035645917 0.012378145
000310 ef 7b 86 3c 86 f7 9b 3c 11 29 2c bc ce 2f f8 3c
       0.016416518 0.019038927 -0.010507838 0.030296233
000320 d1 91 01 3c 09 1b 92 bb a0 2f a6 3b 06 f3 a1 bc
       0.0079083005 -0.0044587892 0.0050715953 -0.019769203
000330 1f 5a 64 bc f6 5c 50 bd f7 21 13 bd a1 3f 27 bd
       -0.013937502 -0.050869904 -0.035921063 -0.040832166
000340 9c b5 f2 3b f3 d0 fd bc e1 70 4d 3d 57 f4 30 3d
       0.0074069034 -0.030983424 0.050156478 0.04320177
000350 47 5c 25 3a 70 d5 59 bc e6 db cb 3c c6 7a 84 3d
       0.0006308001 -0.013295516 0.02488513 0.0646873
000360 7b 70 e8 3c d7 d3 83 3c c3 6f ca 3c 00 29 cd 3b
       0.028373947 0.016092224 0.024711495 0.006260991
000370 84 c6 30 3c e2 f4 44 3d 50 f1 c9 3c 60 ba b1 bc
       0.010789517 0.0480851 0.0246512 -0.021695316
000380 6b 86 fe bc 0d 26 da bc 84 5a 64 bb 4c 66 d3 bc
       -0.031069955 -0.026629472 -0.003484399 -0.025805615
000390 65 19 0c 3c e3 46 fc bb 18 73 e2 3c 91 87 17 3c
       0.008550976 -0.00769888 0.027642772 0.00924863
0003a0 39 a6 ab ba 10 93 ab 3c 5d 1f 93 3c 0f ff 6b bc
       -0.0013095803 0.020944148 0.017959291 -0.014404072
0003b0 4f 3a 82 bc 7c 61 26 bd d7 90 0d bd 83 fc ef 3c
       -0.015896944 -0.040620312 -0.03456196 0.029295212
0003c0 1f 3d d1 bb bd 0f be 3c 8b d9 d5 bc c5 64 03 3d
       -0.00638546 0.023200864 -0.02610471 0.032078523
0003d0 f6 d9 88 3b 59 30 b3 3c a3 75 ee bc 50 7a c1 3c
       0.0041763736 0.02187364 -0.029108828 0.023617893
0003e0 e3 99 50 bc 8c 83 5d bd 3f 78 d0 bb 65 b7 d4 bb
       -0.012732002 -0.05408053 -0.0063619907 -0.006491589
0003f0 7c f5 f5 3b 5e 15 ed bc f6 a4 65 ba 92 cf 9b 3a
       0.0075060707 -0.028940853 -0.0008760238 0.0011887422

g_model.fc1.bias f4 [128]
000000 ae d5 0b 3c 9e 66 c1 bc 7a 1b 9c 3b 8c 96 8b bc
       0.008534832 -0.023608502 0.0047640176 -0.01703956
000010 9c 1b 16 3b 61 42 ed bc af 7e 91 bc 1f 2d 9e 3c
       0.002290464 -0.028962316 -0.017760603 0.019308625
000020 b6 48 41 bc 5a c7 e0 3b 7a 6c fd bc bf b7 7f 3c
       -0.011797121 0.006859702 -0.030935515 0.015607773
000030 d4 e8 74 39 fa 8d c4 bc 00 43 dd 3c 1f 34 d3 3c
       0.00023356389 -0.023993481 0.027009487 0.02578169
000040 b5 00 f8 bc 50 0a bb bc 1a 4a 36 3c 8f e6 c9 b9
       -0.030273775 -0.022832066 0.011126066 -0.00038509487
000050 f8 78 cc bc 5b b3 68 bc 51 f8 8a 3b ae 8d e8 3c
       -0.024960026 -0.014202918 0.0042410274 0.02838787
000060 cd 75 fa bc d0 f8 06 bd 2b c1 93 3c 0d 65 33 3c
       -0.03057375 -0.03295213 0.018036446 0.010949385
000070 16 06 ee bc 3b b0 21 3c d9 89 de bb 07 76 0f bc
       -0.029055636 0.009868677 -0.006791335 -0.008756167
000080 e6 46 7e 3c 06 d6 8c bc 10 71 87 3c b7 37 35 bc
       0.015519833 -0.017191898 0.016533405 -0.011060647
000090 77 a5 42 3d 3e b9 24 3c a6 3d de bc 1d e5 ff bc
       0.04752108 0.010053931 -0.027129006 -0.03123718
0000a0 5c 6d ba bc ad e0 94 3c 1c bb 17 3d 78 11 bd bb
       -0.022757225 0.01817354 0.037043676 -0.0057699047
0000b0 16 c9 a1 3c 18 16 12 3d 7a ce 0b 3d 43 9d 7f bb
       0.019749206 0.0356656 0.03413246 -0.0039003647
0000c0 a5 c5 a1 ba be e2 1b bc b7 75 94 3b 4e 8d c9 bc
       -0.0012342228 -0.009514509 0.0045306343 -0.024603512
0000d0 cf ff 1a 3b e8 ac 56 bc 49 5f 8d 3c 2d d2 89 bb
       0.002365101 -0.0131027475 0.01725735 -0.004205963
0000e0 4b a8 0b 3d f9 36 9d bb da a8 88 bc bf 64 85 ba
       0.034096044 -0.004797813 -0.016682077 -0.0010177119
0000f0 f2 9f 2c bc 99 0b b3 3c b9 ff c5 3c 29 af 2c bc
       -0.010536181 0.021856116 0.02416979 -0.010539808
000100 4d 37 a7 bb e6 c6 e6 bb d5 58 88 bc 33 91 29 3c
       -0.005103028 -0.0070427535 -0.01664392 0.01034956
000110 16 46 60 bc 34 55 d5 3c aa 42 79 3a de f1 11 bd
       -0.013688585 0.026041605 0.000950853 -0.035631053
000120 74 34 d3 bb 07 b7 15 bd bb 12 c0 3c 12 7a ac 3c
       -0.006445462 -0.0365515 0.023446431 0.021054301
000130 b2 c5 7d 3b 97 e2 e1 3c b1 e7 1f bc fb 66 da 3b
       0.0038722572 0.027573867 -0.009759829 0.0066651083
000140 d1 0b b8 bc 03 3c 33 3c b1 b3 8b 3c dd ab 86 3c
       -0.022466572 0.010939601 0.017053457 0.016439373
000150 41 d9 19 3d bf 4d 19 3d 33 45 2b bb 19 1c db 3c
       0.037560705 0.03742766 -0.0026133775 0.026746796
000160 ef 2d 30 bd 49 49 e4 3c 39 3a cd bc 41 72 ca bc
       -0.043012556 0.027866976 -0.025052177 -0.024712684
000170 22 c2 d8 bc e9 7f ca 3c ac b3 1e 3d a9 bc 1c bd
       -0.026459757 0.024719195 0.038745567 -0.038265858
000180 0c a1 3d 3c 46 f9 ac bc 78 f0 e3 bc a3 6a 37 3c
       0.011574041 -0.021114957 -0.027824625 0.011194858
000190 6b ed c0 3c c0 09 f9 bc ab 4b 9c bc eb fb bb bc
       0.02355071 -0.030400157 -0.01907905 -0.022947272
0001a0 bf 21 09 3c 73 64 b0 bc d0 19 1f bc 24 9e 5d 3c
       0.008369862 -0.021532273 -0.009710744 0.013526473
0001b0 15 0b 8e 3c 92 08 cf bc 46 4c fa 3c af 34 fe bc
       0.017339269 -0.025272641 0.030553948 -0.03103098
0001c0 37 9d 38 3c fa 13 69 3c 64 e2 d8 bc c3 1f dd bc
       0.011267952 0.014225954 -0.026475139 -0.026992684
0001d0 fc 39 a8 3c c4 63 89 b9 4e 0b 2d bc 2b 3b 43 3b
       0.020535462 -0.00026205007 -0.010561777 0.0029789906
0001e0 d5 a8 ea bb 1d 38 48 bc 37 d4 4d 3c f2 5f 56 3c
       -0.0071612396 -0.01222041 0.012562803 0.013084399
0001f0 0d 10 11 bd a2 f7 0e bd 85 37 4b 3b 57 81 c5 bc
       -0.035415698 -0.03490413 0.0031008434 -0.024109526

g_model.fc2.weight f4 [24, 128]
000000 45 fb d5 3d 18 ee fa 3c 68 1f 95 bc dd 09 4d 3d
       0.104483165 0.03063111 -0.018203452 0.050058234
000010 ca 96 a5 b9 64 65 05 be ec bc 4d 3d 54 7c ff bc
       -0.000315836 -0.13026959 0.050228998 -0.031187214
000020 09 4d eb 3b 63 04 5a bd 77 bb 3f bc 20 72 d9 bd
       0.007180814 -0.05322684 -0.01170241 -0.10617471
000030 ad 61 7e 3d 84 f4 37 be 96 d4 e2 bc 5d bd 76 3b
       0.06210487 -0.17964369 -0.02768926 0.003764949
000040 39 58 da bb 89 ed 77 3d 85 33 e2 bb 61 69 fe bd
       -0.006663349 0.060529266 -0.0069031143 -0.12422443
000050 f0 5d 01 be 3a 0b a0 bd 4a e2 9c bd 55 0b 8a 3b
       -0.1263349 -0.07814641 -0.07660349 0.0042127767
000060 02 9e c3 3d 86 83 30 be 67 82 69 bd 12 9b 17 be
       0.09551622 -0.17237672 -0.057009127 -0.14805248
000070 7e cd 08 bc 49 58 b1 3c d7 2b 5f 3b 1b 59 aa bd
       -0.008349774 0.021648543 0.003405323 -0.08317777
000080 2b 09 6f bc 06 b5 f5 3d ec fb 0f 3d 51 b6 83 bc
       -0.014589588 0.11997418 0.03515236 -0.016078146
000090 30 d6 8f 3d 01 00 d6 bd 33 73 c1 3d ce b2 ab 3d
       0.07023275 -0.104492195 0.09445801 0.08383714
0000a0 b7 88 3e 3c 55 61 aa 3d 67 1c 1c 3d 7b ef 16 bd
       0.011629275 0.08319346 0.038113024 -0.03684948
0000b0 97 68 2b bd ab 7f ab 3d c7 de b2 3d 60 d9 f0 bd
       -0.04184779 0.0837396 0.08733898 -0.11760211
0000c0 78 2a 88 bc 63 3c 44 3c 4b ad 7a bc cb 7d 94 bd
       -0.016621813 0.011977288 -0.015300105 -0.072505556
0000d0 03 01 a5 bd 71 c6 35 bc 54 a5 c2 3d f4 ec be bc
       -0.080568336 -0.011094675 0.0950419 -0.023306347
0000e0 af 2d ad bd da 3b 14 be 51 e9 7d 3d 27 1d 52 bd
       -0.08455979 -0.14475957 0.061990086 -0.051297333
0000f0 8b 74 ba 3c 40 3c de 3a 5b 5a 8c bd 37 85 41 3d
       0.02276065 0.0016955212 -0.068531714 0.047246184
000100 85 16 6e 3d 18 f5 24 bd 3a 7d e8 3c f4 44 0c be
       0.058126945 -0.040272802 0.028380025 -0.13698179
000110 b1 d4 66 bd 69 55 8b bd a1 96 5c bd 48 5e b1 bd
       -0.056355182 -0.068034 -0.05385459 -0.08660561
000120 6a de 5c bd 4f 1d 09 bd 27 e7 a8 3d 96 f5 20 3d
       -0.053923048 -0.033475216 0.08247214 0.03929671
000130 dd 70 2b bd 1d 43 47 3d f9 ce f4 3d ad 00 0d be
       -0.04185568 0.04864799 0.119535394 -0.13769789
000140 4a 9c b5 bc 54 72 a1 3d e0 a1 2b 3b 14 55 e5 bd
       -0.022169251 0.078831345 0.0026189014 -0.11197868
000150 f7 f4 49 3d 6a dd cc 3d a6 80 81 3d 06 cd d8 3c
       0.049305882 0.10003169 0.06323366 0.02646495
000160 e0 6c 0a 3d e8 a2 52 3d 7b 7a 8b bb 7a a3 83 bd
       0.033795238 0.05142489 -0.004256544 -0.06427665
000170 be 98 f0 3c ed f3 83 bd f5 9d 2c be 37 1a 7e bc
       0.029369708 -0.064430095 -0.16857131 -0.01550918
000180 51 0b 7c 3d a8 39 9c 3c d1 d7 86 3c d1 50 92 bd
       0.06153423 0.019070461 0.016460331 -0.07144321
000190 a9 a2 42 bb d0 8b 88 3d 4a e0 99 3b 9f 56 88 bd
       -0.0029699004 0.06667292 0.004695927 -0.06657147
0001a0 de 78 56 3d c7 40 aa bd c4 c2 ae bd 15 08 8c 3c
       0.05236136 -0.083131365 -0.08533242 0.017093698
0001b0 cf 77 a9 3b b0 0f 8d bc 5b 6c 6f bc c8 41 0d be
       0.005171753 -0.017219394 -0.014613236 -0.13794625
0001c0 cd e9 2e bd 07 c4 07 3d 69 c9 e8 bd ed 5d 57 3d
       -0.04270344 0.03314593 -0.11366541 0.05257981
0001d0 a0 ef 7a bd 04 87 22 3d 0c fe 86 3d 05 46 cc bd
       -0.06126368 0.039679542 0.06591424 -0.09974293
0001e0 de d5 91 bb d7 95 b9 bd fb c3 0a 3d 4a 85 10 3d
       -0.004450544 -0.09061783 0.033878308 0.035283364
0001f0 d5 15 36 bd 10 bb 60 bd 8a b6 e2 3c 60 90 6e bd
       -0.044454414 -0.054865897 0.027674932 -0.058243155
000200 d3 0b da bd a7 72 2d 3d 50 99 aa 3c 7b 73 b2 3a
       -0.106467865 0.04234567 0.020825058 0.0013614738
000210 20 a8 05 bd f0 26 8e bd 6d 5a 8d 3c 4c e7 b5 3c
       -0.03263104 -0.069410205 0.017255032 0.022205018
000220 6b a2 ab 3d 93 35 d5 bc 45 91 7c bc 21 32 21 be
       0.08380588 -0.026026523 -0.015415494 -0.15741779
000230 e7 e2 10 3d c4 09 d5 bc 8c 4a a4 bd 1c 0e e9 3c
       0.03537264 -0.026005633 -0.08022031 0.02844911
000240 21 a6 9f 3d fd 2d bd bd c0 98 10 be 6d 3e 23 3b
       0.077953584 -0.09237287 -0.1412077 0.0024909035
000250 25 04 af 3d 5d 1e d3 3d ab 3e 5f 3c 2b cc aa 3d
       0.085457124 0.10308526 0.013625781 0.08339723
000260 6e 1c b9 3c 5f 4c ca 3d cc 42 80 3d 8e 1a 06 be
       0.022596564 0.09877848 0.062627405 -0.13096067
000270 8e 35 8f 3d c4 ce 1d 3d b1 01 81 3d 9c 72 7c bd
       0.069926366 0.038527265 0.06299151 -0.061632738
000280 81 47 9f 3d ac 67 df bd 80 ef 27 bd 5f e8 52 3c
       0.0777731 -0.10908446 -0.04099989 0.012872784
000290 ce b1 d4 bb 95 d4 17 3d 60 ea 80 3c d3 ce 62 bd
       -0.0064909225 0.03706797 0.015736759 -0.055373024
0002a0 b7 19 05 3d b3 b7 eb bc 0f 9b eb b8 2d 44 a2 3d
       0.032495227 -0.028774118 -0.00011234555 0.0792316
0002b0 da f6 03 bd 40 5c 20 bd ba 23 52 bd e8 88 86 3c
       -0.032217838 -0.039150476 -0.051303603 0.016422704
0002c0 74 0d 8c 3d 9b 46 10 bd 0b 70 eb bd 8c 0f 84 bd
       0.068385035 -0.035223585 -0.1149598 -0.06448278
0002d0 10 1a 94 3d 83 f7 f1 3c 3d dc e0 bc 10 c0 08 be
       0.072315335 0.029536968 -0.027448768 -0.13354516
0002e0 d2 da 10 be dc c7 12 bd fe 48 64 bd f5 38 aa 3c
       -0.14145973 -0.035835132 -0.055733673 0.020779112
0002f0 94 c4 0a 3d ee 3b ec bd a6 d5 9a 3d 15 01 68 3d
       0.033878878 -0.11534868 0.075602815 0.056641657
000300 92 59 c7 bc ae 8b b2 3c 8d f1 79 3d 85 09 86 3d
       -0.024334703 0.02179512 0.061021376 0.065447845
000310 07 53 e6 3d 92 0f 9f 3d 1d 92 80 bd 7f 8f a5 bd
       0.11246305 0.07766642 -0.06277869 -0.0808401
000320 0c 2f a9 3b a3 28 30 bd ba 6a 0e be bc 0e 04 3e
       0.005163079 -0.043007504 -0.139079 0.12896246
000330 3c 3d af bd 5c 82 a7 3d 5c ed 93 3b e5 55 ad 3c
       -0.085566014 0.08179161 0.0045143794 0.021159122
000340 f6 09 cc 3c ba 88 8a bd 0c 5a 2f 3d 35 10 17 bd
       0.024907093 -0.0676436 0.042810485 -0.03688069
000350 99 46 d1 3d b9 ad 0c 3c c6 0e d7 bd 4f 4c ee bd
       0.102185436 0.008586341 -0.10500865 -0.116356485
000360 3a e7 a9 bc 6f a4 10 3e 8d c8 59 3d 50 8f 85 bd
       -0.02074014 0.14125226 0.053169776 -0.06521475
000370 22 56 ec bc 5a f6 c6 3d 01 57 97 3d 3b 25 de 3a
       -0.028849665 0.097149566 0.073896416 0.0016948351
000380 95 02 e1 bc 8f 44 9f 3d c8 15 82 bd 92 dc 89 3d
       -0.027467052 0.077767484 -0.06351811 0.067315236
000390 ee ad b0 bd c3 94 93 bd 92 8b de 3d 3a f4 0c 3c
       -0.086269245 -0.072061084 0.10866465 0.00860315
0003a0 14 d2 0b 3d d6 95 eb bd a5 c3 0c be c7 1b 40 3d
       0.034135893 -0.11503188 -0.13746507 0.04690149
0003b0 49 57 9f 3c e4 a8 7c 3d 77 7d 09 bd c3 b4 10 3d
       0.0194508 0.061684504 -0.03356692 0.035328638
0003c0 b5 f1 74 3c b0 3f aa bd 3c 59 9b bd 32 46 dd bd
       0.014950206 -0.08312929 -0.075853795 -0.10804404
0003d0 8f fa f0 3b c7 9f 02 be 85 5d 97 3a bb 5d 27 be
       0.0073540877 -0.12756263 0.0011548257 -0.16344349
0003e0 d3 f8 09 be a0 29 a2 3d 61 a4 9b bd 95 dc 32 bb
       -0.13473825 0.079180956 -0.07599712 -0.0027292122
0003f0 ce 5e 27 3d 5f e0 ee 3c de bf 3b bd 09 db 1f bc
       0.040861897 0.029159723 -0.045837276 -0.009756812

g_model.fc2.bias f4 [24]
000000 8a c0 14 3c a2 ca 3a 3d 63 25 58 bd 8a 24 34 3c
       0.009079108 0.045603402 -0.05277003 0.01099504
000010 d2 4e 28 bd 3f 1a 79 3d ca bd 9d 3d 12 48 47 bd
       -0.041090794 0.060816046 0.07702215 -0.048652716
000020 0d 93 0c bd 9e 0f 8b bd 91 cb b2 bc ca 61 0e bc
       -0.034319926 -0.06790088 -0.021825584 -0.008690307
000030 ae b7 95 3d 6a 26 fa bb b9 32 ab 3c ee 8a 18 bc
       0.07310425 -0.007633974 0.02089821 -0.009310467
000040 00 a3 43 bd 9a 12 a6 bd 3f 1f 31 bd 05 30 75 bd
       -0.04776287 -0.08109017 -0.04324269 -0.059860248
000050 7a 34 9c 3b c7 78 f7 3b 63 af 94 3a a1 b2 d9 3c
       0.004766998 0.0075522396 0.0011343773 0.026574435

f_model.fc1.weight f4 [32, 24]
000000 b5 14 5c bd 62 62 96 be 33 b6 3d be 11 4f 3e 3d
       -0.053730685 -0.29371935 -0.18526535 0.046462122
000010 09 ad 5f 3e 4c cf 8b bd 07 ae 03 3c a5 dc 84 be
       0.21843351 -0.06826648 0.008037097 -0.25949588
000020 60 1c 4d bd 74 97 9c 3d 8a 79 14 3e e2 bb 55 3c
       -0.05007589 0.07646075 0.14499488 0.013045283
000030 bb 00 a3 be 3c e9 87 bd 98 7e 50 be 61 77 85 bd
       -0.31836495 -0.06636283 -0.20360792 -0.0651691
000040 d8 b7 15 be 90 17 99 3e ae 78 e1 3c 0c 91 99 3d
       -0.14620912 0.2990079 0.027523365 0.074983686
000050 dc 8b 85 bd d6 b5 2e 3d 07 12 b5 3a 85 f0 00 3d
       -0.06520817 0.04265388 0.0013814577 0.031479377
000060 99 2c 6e 3c 3e d8 81 3d 06 9b 3f 3c b3 8c 6b be
       0.014537 0.06340073 0.011694675 -0.23002891
000070 d7 f9 8d be e8 a7 80 3c b6 1e 04 be f0 88 a8 3d
       -0.27729675 0.015705064 -0.1290234 0.08229244
000080 52 d3 91 be 37 2e 82 3d 41 2b 3c be 78 ce 4c be
       -0.28481537 0.06356471 -0.18375875 -0.20000637
000090 b9 15 c7 3c ad ae 1a bb 23 00 b2 bd 27 b4 47 be
       0.02430235 -0.002360265 -0.08691432 -0.19502316
0000a0 05 91 53 bd 6b a4 55 be 5e a7 5e 3e ab 5a b0 3d
       -0.051651973 -0.20863502 0.21743533 0.086110435
0000b0 8f 61 46 3d ea 18 c3 bd ad 2f ab be af ba 61 3e
       0.048432883 -0.09526236 -0.3343481 0.2204387
0000c0 a6 de 3f be c3 a7 34 bd f6 7d 5c 3e c0 1e 8e 3d
       -0.18737277 -0.044105303 0.21532425 0.06939459
0000d0 8f ff 58 bd 23 2b 32 be 05 49 1c 3d 98 b2 a6 bd
       -0.052978095 -0.17399268 0.038155574 -0.08139533
0000e0 38 93 1e be 21 87 e2 3d a7 fb 00 3e 30 e6 0f bd
       -0.15485847 0.1106093 0.12595998 -0.035131633
0000f0 d2 0a 07 3e e3 a5 92 3e e0 ea 00 bd 77 81 94 be
       0.13187721 0.28642187 -0.031473994 -0.29005024
000100 90 97 05 3d e8 d8 03 3e 7b 09 bb bd a8 4e 30 3e
       0.032615244 0.12875712 -0.09132668 0.17217505
000110 5a 94 c8 bb fd 50 f0 3d 59 c5 93 3e c5 8c 00 be
       -0.0061212005 0.11734197 0.28861502 -0.125537
000120 d6 e2 39 3c bc 96 37 be b1 5e 36 be 7c 89 d4 3d
       0.011345586 -0.17928594 -0.1780956 0.103777856
000130 25 66 39 3e da f5 d9 3c 00 90 81 be 36 88 09 3e
       0.18105371 0.026606489 -0.25305176 0.13430867
000140 c5 e8 0d be fb 88 b4 3e 43 dc 00 be e7 71 8c 3c
       -0.13858326 0.35260758 -0.12584023 0.017144157
000150 ba f0 ad 3c 5f e3 c7 3d 78 08 8d bd 87 c4 67 3e
       0.021232951 0.097601645 -0.06886381 0.22633563
000160 32 aa 9a 3d 59 56 30 3d d3 00 2f be 49 ea 57 3e
       0.075519934 0.043051098 -0.17090158 0.21085466
000170 cc 4a af be c6 51 79 bd e0 61 11 be 5a d3 ea 3d
       -0.34236753 -0.060869 -0.14197493 0.11466093
000180 9b 08 97 bd 97 5c c4 3d 17 59 a0 3d 22 e1 99 be
       -0.07374688 0.095879726 0.078294925 -0.30054575
000190 5e 54 de 3a 9b c1 90 be c7 5b 49 bd 1e fe 34 be
       0.0016962399 -0.2827271 -0.04915979 -0.17675063
0001a0 be f8 27 be e1 d6 30 bd 0d 46 9f bd 37 ff 0e be
       -0.16403481 -0.043173674 -0.07777033 -0.13964544
0001b0 ff f1 a6 be 0c 83 98 bc 6e d3 d2 bb 0f 31 12 3d
       -0.32606503 -0.018617176 -0.006433896 0.035691317
0001c0 b3 b1 01 3e 39 04 d7 bd 52 81 33 be 44 16 68 3d
       0.12665443 -0.10498852 -0.175298 0.05666186
0001d0 3c 9a 23 be b7 d6 a0 bc 13 74 74 3e 74 87 3f 3e
       -0.15976804 -0.019633634 0.23872404 0.18704015
0001e0 ef 59 7f be 06 db 18 be 1b 7d 4f 3e 7d 24 40 be
       -0.2493665 -0.14927301 0.20262568 -0.18763919
0001f0 b2 b3 15 be ef af c3 bc 1b 34 20 3e 16 3d 33 be
       -0.1461933 -0.023887603 0.15644877 -0.17503771
000200 c8 58 c8 3e c5 5d b2 be c4 30 41 be 51 ac 42 3e
       0.39130235 -0.34837165 -0.18866259 0.19011046
000210 8a a2 0e be 11 37 a1 3d a9 c0 ca bd c7 06 41 3d
       -0.13929191 0.07871831 -0.09900028 0.047125604
000220 39 6d 61 be 36 b4 66 bb 25 9b 55 bd 98 57 9d 3d
       -0.22014321 -0.003520263 -0.05214991 0.07682723
000230 96 4a 18 3e 7e fc 1b be 61 09 ba 3d 97 03 48 3e
       0.14872202 -0.15233037 0.0908382 0.1953262
000240 5a 34 aa 3c 6d 93 0d 3e ef 51 1b be 57 7c 0a be
       0.020776916 0.1382577 -0.15167974 -0.13523994
000250 f1 b6 29 be d0 e3 ae bc 87 e0 b0 bd e9 12 a4 3e
       -0.16573693 -0.021348864 -0.08636575 0.32045677
000260 82 b7 34 3c 4d 7f 8a bd 16 bf 3b 3e 0b 17 57 bd
       0.01103008 -0.06762562 0.18334612 -0.05251221
000270 c4 39 79 be eb f5 e7 3d 46 3b 39 bd f3 b1 56 be
       -0.24338442 0.11326202 -0.045222543 -0.2096632
000280 d3 df c1 bd 3f cb ff bd 24 13 d6 bc 3e fc 38 3e
       -0.09466519 -0.12489938 -0.026132174 0.18064973
000290 43 05 41 3e c1 03 e9 3c 0f 8d 02 3d 8e 36 46 3e
       0.18849663 0.028444173 0.031872805 0.19356748
0002a0 73 c0 ab bc 5e d7 6c be c9 dc 5c 3e 14 f9 0d bd
       -0.02096579 -0.23129031 0.21568598 -0.034661368
0002b0 ec 44 6f bd d8 02 01 3d 25 63 4c 3d 02 5d 96 bd
       -0.05841534 0.031496853 0.04989924 -0.073419586
0002c0 1c 23 0d 3e ab ba 07 be 52 66 d7 3d 1d 30 9b bd
       0.13782924 -0.13254802 0.10517563 -0.07577536
0002d0 a9 ae 8e 3d 38 06 0e 3e bd 3b a8 3d 50 b4 97 be
       0.069669075 0.1386956 0.08214519 -0.29629755
0002e0 61 15 4a be 51 75 af 3d 04 88 6c be 32 0b 0d 3d
       -0.19734718 0.08567298 -0.23098761 0.034434505
0002f0 fc 23 82 3e 00 26 49 be ab 13 91 3e b7 2d 80 3c
       0.2541808 -0.19643402 0.28335318 0.015646799
000300 3f 0a 10 be 55 4b 12 be 93 d7 c6 bd 67 af 7e 3e
       -0.14066409 -0.1428655 -0.09709086 0.24871598
000310 07 c9 57 be 28 7d 9c 3e 24 93 39 be 38 4b cd 3d
       -0.2107278 0.30564237 -0.18122536 0.100241125
000320 5a 3a ce bd ae 32 47 be 26 a9 97 bd 8c 77 2f 3d
       -0.100697234 -0.19452927 -0.074053094 0.04283862
000330 48 80 87 3e 7a 3a c8 bd 07 59 f9 3d 84 30 d8 bc
       0.26465058 -0.097767785 0.12175184 -0.026390322
000340 f5 bf 1b 3e 46 c6 01 3e 44 4f 6d 3d 98 be 15 3e
       0.15209945 0.12673292 0.05793692 0.14623487
000350 de bb fb 3d dd 94 15 3d 33 0e 16 3e a4 b6 0e 3d
       0.12291692 0.03651892 0.14653854 0.03484215
000360 e6 19 81 be c9 83 81 be 5d 3d af bd e7 6d 6e 3e
       -0.2521507 -0.25295857 -0.08556626 0.23284112
000370 a7 5f c2 bd 83 35 17 bd 99 ab 17 be 27 07 44 bc
       -0.094909005 -0.036916267 -0.14811553 -0.011964596
000380 65 c3 2c be 90 9d 8c bc 5a 92 a8 3d 07 25 f3 bd
       -0.16871412 -0.017164975 0.08231039 -0.11872297
000390 2a 9e 12 be 6b 1b 69 ba 95 25 9f 3d c5 2e 2e be
       -0.14318147 -0.000889233 0.0777084 -0.17010029
0003a0 41 21 e6 3d 19 95 58 be 5e 3d 83 3e 3c 6a f8 3d
       0.112368114 -0.21150626 0.25632757 0.121296376
0003b0 ad b0 4f 3e 8d 79 4d be 43 84 80 be 38 52 a5 3d
       0.2028224 -0.20065899 -0.25100908 0.080723226
0003c0 39 05 84 3d 75 d9 8e 3e 9b bc d8 bd 6e aa 7f 3e
       0.06446309 0.27900282 -0.10582849 0.24967358
0003d0 b4 ad 91 be 07 b7 7b bd 58 59 99 bd 16 4c 1d bd
       -0.28452837 -0.061453845 -0.07487744 -0.03840264
0003e0 3b 1c 80 bd be 23 3f be c5 ad 2e 3e 71 1f 97 bd
       -0.062553845 -0.18665978 0.17058475 -0.07379044
0003f0 01 ee 1c 3d 0f e2 0a be 61 ae 40 bd 93 78 9e bc
       0.038312916 -0.13562797 -0.0470413 -0.019344604

f_model.fc1.bias f4 [32]
000000 ec fb ab 3d b7 7c 0e 3e 0d ec 36 3c 42 32 3d bd
       0.0839766 0.13914762 0.011164677 -0.046190508
000010 cf fe da bd e5 3b fe bc a9 a0 1d 3e 0b d8 08 be
       -0.10693132 -0.03103442 0.15393318 -0.13363664
000020 85 4f 62 3e 0a 00 95 bd 26 52 2c bd 0c a1 a9 bd
       0.22100647 -0.07275398 -0.04207053 -0.082826704
000030 e0 5f 3e 3e db f0 bf bd c0 4f 8f bc e1 ac b5 3d
       0.18591261 -0.093721114 -0.017494082 0.08870865
000040 09 92 25 be 90 07 50 3e c0 d7 00 3e 3b 0f 62 3d
       -0.16168989 0.20315385 0.12582302 0.055190306
000050 a0 60 be 3d 49 de 36 be 10 34 df 3d 1f 69 75 3d
       0.092957735 -0.17858233 0.10898602 0.059914704
000060 39 9f 02 3e a5 f9 bb bd 2c d6 8a 3d 65 37 fb 3b
       0.12756051 -0.09178475 0.06779131 0.0076665157
000070 cd 16 0d 3e 5a 18 e7 3d 51 db bc 3d ec 54 90 3d
       0.13778229 0.112839416 0.09221519 0.070474476

f_model.fc2.weight f4 [10, 32]
000000 dc 1d e3 3d b3 86 5d be cb 99 ec 3d ba 8f 54 be
       0.110896796 -0.21633415 0.11552771 -0.20757952
000010 0b 51 2c bc d1 63 3e 3d aa f6 07 be 63 af 24 3e
       -0.010517369 0.04648191 -0.13277689 0.1608253
000020 57 da 26 3e 30 a3 7e bd 8c 45 ba bd a9 f5 b9 3d
       0.16294228 -0.062167346 -0.09095296 0.09080059
000030 c0 8f 77 3e 10 35 bb bc 25 bc 92 3e d3 38 4b be
       0.2417593 -0.02285245 0.28659168 -0.19845895
000040 a6 8a c7 bd ae 79 b0 3d 33 ed 98 be 79 ba 16 bd
       -0.09743242 0.086169586 -0.2986847 -0.036798928
000050 64 35 2d 3e d7 a2 0f be 76 03 58 3e df 8a e3 bd
       0.16914898 -0.14026962 0.2109507 -0.11110472
000060 8a d7 01 be 02 48 f5 3d 7c 90 2b be 2e 0c 82 3c
       -0.12679878 0.11976625 -0.16754335 0.015874948
000070 b5 9c 8b 3e 1f 52 27 be 25 d4 0a be 25 73 6f be
       0.27267995 -0.1633992 -0.13557489 -0.23383768
000080 e0 7a 86 be d4 22 c7 bd 3a 71 4a 3e b2 b2 55 bd
       -0.2626562 -0.0972344 0.19769755 -0.05217237
000090 0d 01 4e 3e a4 ed b8 bd 42 e3 36 3e d8 c6 31 be
       0.20117588 -0.09029701 0.1786013 -0.17361009
0000a0 f8 dd 3d bd 6b ec 6b be 0c 20 67 3e 4c e9 1b 3d
       -0.046354264 -0.23039405 0.22570819 0.038064286
0000b0 24 2c 7f 3d a3 0e 52 be 27 a9 7b 3d 36 01 20 bd
       0.062297955 -0.20513396 0.061440613 -0.039063655
0000c0 18 70 14 bd 44 6a df bd 42 52 38 be 39 29 19 be
       -0.036239713 -0.109089404 -0.18000129 -0.14957131
0000d0 0c be 6a be dc 07 3d bd 5c 51 15 be b0 56 6b 3d
       -0.2292406 -0.046150073 -0.14581817 0.05745572
0000e0 ed c2 be bd 7b e3 46 3e d0 39 2c bd 74 f6 c3 3d
       -0.09314523 0.19422714 -0.04204732 0.095684916
0000f0 06 4e 13 be d2 3d ae 3d 79 a4 7f 3e 98 03 1d 3e
       -0.14385232 0.08507885 0.24965085 0.15333402
000100 93 cc 10 be ba b1 23 38 fd 9c 22 3e a3 0a 26 bd
       -0.14140539 3.902775e-05 0.15880199 -0.040537488
000110 a4 b5 17 3e 2c 7e db 3d 1f c8 07 be 37 a4 5a 3e
       0.14815384 0.10717425 -0.13259934 0.21351705
000120 25 9b ab bd 9e be 94 3d e1 89 31 be 34 6e b1 bd
       -0.08379201 0.0726292 -0.17337753 -0.08663598
000130 f7 ab b6 3d 4d 74 79 3a d6 35 7c be b5 a0 37 be
       0.089195184 0.00095159264 -0.24629912 -0.17932399
000140 7d f3 7e 3e e8 04 04 bd 4c 87 d0 3d a8 bc 7a be
       0.24897571 -0.03223124 0.10182056 -0.24486029
000150 dc 6c 33 3e ac 72 35 3e 50 33 23 bd 51 0d 31 be
       0.17521995 0.17719525 -0.039843857 -0.17290236
000160 6a 70 0a 3d 17 05 87 bd f1 28 b9 bc e4 8a ba 3c
       0.033798613 -0.06592768 -0.02260253 0.022771306
000170 57 50 f8 bd 83 12 7a be 06 4f 78 3d 24 75 87 3c
       -0.121246986 -0.24421124 0.060622238 0.01653535
000180 93 d7 16 be 56 54 ba bd 9d e3 fb 3d 27 d7 2b be
       -0.14730673 -0.09098117 0.12299273 -0.16781293
000190 b8 97 9d be c4 b4 02 be 30 9d 44 bc b6 74 ff bd
       -0.30779815 -0.12764269 -0.012000367 -0.12473433
0001a0 61 ab 80 3e 5e 4b 3a 3e 58 01 35 3e 16 21 f2 bd
       0.25130752 0.18192813 0.17676294 -0.11822717
0001b0 fc 92 43 be 73 54 a2 bd 4f 0a 1c be 01 88 aa 3d
       -0.19099039 -0.07926264 -0.15238307 0.08326722
0001c0 cb fa 0f be 3b e5 85 3b 5c 03 63 3e 7e aa 69 be
       -0.14060514 0.0040861643 0.2216925 -0.22818944
0001d0 32 8f ab 3d b3 e7 4c 3e 63 ad fa bd 68 ea 6d 3d
       0.08376922 0.20010261 -0.12240102 0.058084875
0001e0 ef 97 63 3e a0 54 61 be bb 7b 35 be ce fe 3a 3e
       0.22225927 -0.22004938 -0.1772298 0.18261263
0001f0 78 d5 61 be 8c 09 5d be 83 34 b6 bd 87 99 dc bd
       -0.22054088 -0.21585673 -0.088967346 -0.107714705
000200 f1 bd 5f 3e fc ba 6a be 60 4d 87 3d 38 46 74 3e
       0.218498 -0.22922891 0.06606555 0.23854911
000210 6b ad 5d 3e dc 44 49 be 66 0c c2 bd a3 95 d9 bd
       0.21648185 -0.19655174 -0.09475021 -0.10624244
000220 cd 92 ad be 5a ce a3 bd 99 5c 88 be 87 08 de bd
       -0.33901063 -0.07998343 -0.26633146 -0.1084147
000230 b4 8e 14 3d 85 87 e4 bd 26 a6 9a bd 0f ed 7a 3e
       0.036268905 -0.11158661 -0.075512215 0.24504493
000240 ee 63 cd 3c da 90 43 3e 05 fe c2 bd 63 60 2d 3e
       0.025072064 0.19098225 -0.09521107 0.169313
000250 b8 84 14 3d 17 16 89 bd 16 3e 1a be 2e 04 95 be
       0.036259383 -0.066936664 -0.15062746 -0.2910475
000260 19 5e 5b 3d 1d bd 11 3e 13 54 b4 bd a2 23 c1 3d
       0.053556535 0.14232297 -0.088050984 0.094306245
000270 b5 8f 18 be f6 fb 02 3e d7 66 ba 3c 6f d8 62 bd
       -0.1489857 0.12791428 0.022754116 -0.05538219
000280 d5 af 5f 3d 00 da 0b 3e ae ac 98 3c 9f 32 14 3e
       0.054611046 0.13657379 0.018637028 0.14472435
000290 cb 68 6e bd a0 17 8a bd 2d a5 9f 3a 37 e9 64 be
       -0.058205407 -0.06742787 0.0012179964 -0.2235459
0002a0 36 96 53 3e e1 b4 ea bd e8 92 16 be 6a 71 8d be
       0.2066277 -0.11460281 -0.14704478 -0.2762559
0002b0 3d 7e fd bc 8a d0 2f 3c 29 14 e3 3d cb d7 29 be
       -0.030943984 0.010730872 0.110878296 -0.16586225
0002c0 aa 8c a9 bc f0 5a 70 be e2 28 70 3e b7 10 04 be
       -0.020696957 -0.2347219 0.23453096 -0.12897001
0002d0 24 7c 1d 3e 0c cc 37 be 6f bb 52 bd 55 9f 75 be
       0.15379387 -0.17948931 -0.05144828 -0.23986562
0002e0 b5 99 cc 3d 45 4c ab bd dd 0f ec bd 7b 8e 32 be
       0.09990255 -0.08364157 -0.11526463 -0.17437164
0002f0 a2 bf a8 bc c5 46 8a 3e 35 d4 91 3d 0d dd 33 3e
       -0.02059919 0.27007118 0.071205534 0.17564793
000300 67 0e 4e 3e ff 01 88 be a2 95 3d be d2 07 25 be
       0.20122682 -0.26564023 -0.18514112 -0.16116264
000310 db d0 cc bd ae f2 34 3e 02 e7 b5 bd 71 ac a9 bd
       -0.100007735 0.176707 -0.08881952 -0.08284844
000320 c7 22 83 bd a5 9b c7 be c3 60 93 bc 42 e4 22 be
       -0.064031176 -0.38985935 -0.017990476 -0.15907386
000330 e5 41 f2 3c 9f a1 95 bd 7a e2 e6 3d fb 86 8c 3d
       0.029572437 -0.073062174 0.11273666 0.06861683
000340 c4 70 1a 3d 39 31 da bd 49 52 9a 3e e9 19 2a 3e
       0.037705198 -0.1065392 0.30140904 0.16611446
000350 41 12 15 be 78 e3 66 3d 7d b5 f1 3b c8 13 fa 3d
       -0.14557745 0.056369275 0.0073763714 0.12210804
000360 13 0c b4 be d5 13 fb 3c 63 eb 2b bd 92 39 89 3c
       -0.35165462 0.030649105 -0.04197253 0.016751084
000370 74 bb 65 bd 01 15 bf bd e4 6b f9 bd 9b e6 27 3e
       -0.056086972 -0.09330178 -0.12178782 0.16396563
000380 eb 1a cc bd 8a 0a 15 3e 89 52 13 bd d9 72 53 3d
       -0.09966072 0.14554802 -0.035967384 0.0516232
000390 d8 82 89 bd 2e 47 d2 3d 26 c0 82 3e 19 b3 c5 bd
       -0.067144096 0.10267483 0.25537223 -0.09653301
0003a0 b7 8c a7 bd fd 63 63 3e 7a dd 1e be 2f 47 15 3e
       -0.08181136 0.22206111 -0.15514174 0.14577936
0003b0 69 45 0a bd 54 8d 9e be 41 7d 42 be 52 73 4d be
       -0.0337576 -0.309672 -0.18993093 -0.20063522
0003c0 6e a3 1c bd 83 c5 6d 3e 07 07 2a bd 42 81 59 be
       -0.038241796 0.23219876 -0.041510608 -0.21240714
0003d0 24 b0 76 bd 5b b6 27 be 75 0c d2 bc c6 c4 a5 bb
       -0.060226575 -0.16378157 -0.025640706 -0.0050588576
0003e0 62 36 19 3d 7f 5f a9 3d 91 39 12 3e 8c 17 09 be
       0.03740538 0.082701676 0.14279772 -0.13387889
0003f0 92 78 73 3d 4a 81 1c be 27 eb 8a 3b a5 5e 22 3d
       0.059441157 -0.15283695 0.004239458 0.03964104

f_model.fc2.bias f4 [10]
000000 ce 7e f6 3d d5 89 70 b9 8d 6b 20 3d 12 09 7e 3d
       0.12035905 -0.0002293953 0.03916507 0.06202037
000010 1b 49 42 3c cc dd 8c 3d 63 d0 0c 3e a3 ac ab bd
       0.01185825 0.06878242 0.13751368 -0.08382537
000020 b0 b1 b6 3d bc 52 9e bd
       0.0892061 -0.07730624
