models/Experiment 4/Trained on normal data/joint_model_0.pt (torch, 460818 bytes, 12 tensors)

g_model.conv1.weight f4 [32, 1, 3, 3]
00000000: 27a2 afbe c3a8 09be 9d3d ee3e d6af ba3d
00000010: 9e9e 3bbe 102b 183e 87c1 b5be 23d9 473e
00000020: aa1b 0e3d 0d7e 58be a3f8 cd3e d305 893b
00000030: 9c00 823e 1573 383c 6d13 503e a88e a23c
00000040: ded8 df3e 8614 62be ef75 dc3e a3fc 4ebd
00000050: 8e2e 833e 9ad8 48be 6c2e 003e a3a4 aebe
00000060: 81cb 87be 83c6 fcbd 17be 9e3e 3863 afbd
00000070: de78 c63e 09f2 9ebe 2d93 143e f2e4 903e
00000080: fe9b d73c 7d2d e63e 0378 1abe 7728 06be
00000090: 34fc 9b3e 5723 993e ea8a 0a3d bbf2 923e
000000a0: a23d f23e 63f3 893e cb28 67bd b782 2a3e
000000b0: f7c5 ef3e 0f0d 153e 2e35 673e 61dc d43e
000000c0: 49f5 ef3e d152 073f 28df af3e 75f9 04bd
000000d0: a0a8 c63d cece e03e ffa1 0a3e fb23 64bd
000000e0: eda6 d83e 6e2d 733e 4c7b 23be 37aa 553e
000000f0: 0782 25be b5b2 673e 628b a93e 4484 793e
00000100: ca4f 933e 7264 e83d 2ff3 10be 8653 8c3e
00000110: 9967 cb3d d88a 8c3e e216 d43e 29e9 32be
00000120: c162 98be 4e8a 69bd 102e 97be 1398 663e
00000130: 91cc 82be 8cb0 35be efb7 7d3d b8e0 d53e
00000140: 59bc e73e 4050 96be 39dd 9ebb bcbe 5a3e
00000150: eab1 db3e fa68 cdbc caf6 a53e 506b 8e3b
00000160: 4505 e23e 4b9f bf3d 6207 b9bc db3d 733e
00000170: c442 323e f799 d33e 43f6 bf3d 5545 dc3e
00000180: bfad a5bd 6685 b2be 2a93 97bd 4017 a7bc
00000190: 7ce8 873e 83d0 803d c91d fb3d b4b4 0b3f
000001a0: 745f 0e3f b303 aa3d 6121 5abd e391 ae3e
000001b0: d79a d2be 0ea7 d1bd f6ef bb3e 80ae cb3e
000001c0: 7027 283e 5fb0 36be 49ec 523e dada 0dbe
000001d0: c57f a23e 657c e03e e266 05be ab19 d5be
000001e0: 9dd5 453e b1b2 0ebe 21de f5bd e531 ac3d
000001f0: ea58 cebd 3aa8 09bf a4cd 973e d407 ae3d
00000200: b770 8bbe d370 653d 80f6 a23e bf5d 1bbe
00000210: a0b7 c83e a28b 063f cda7 ba3e 45e7 f93e
00000220: bc3f 063f a2a0 fa3c 8330 083b 3c03 723e
00000230: 53f8 ee3e cd71 f93a d4c2 43be 93da a9be
00000240: 77aa 6f3e 9a8b 94be a883 1e3d ad83 1dbe
00000250: 858f 7fbe 9131 a63e 6489 033e c99c b33e
00000260: c5ec 023f 8a5f 083e 1ebd a13e 5076 ea3e
00000270: 5ebc 6a3d 29e5 e0bd b1fd e43e 0fc7 cfbe
00000280: 003e babe 4082 ba3c e00b d43d d0c3 bdbe
00000290: 4391 92be bdb0 a5bc af00 a53e 0f6f ed3d
000002a0: 9fec 673e e249 313d 8136 dc3e 0fe6 78be
000002b0: 102a 2fbd 2eae eb3e f032 c3bd 96dd 45be
000002c0: 901a c53e 5470 0bbe 14b7 713e 4bd9 0bbe
000002d0: 81a1 b13d 6d5b e83e 312c bf3e d9d4 efbd
000002e0: 1db6 e03e 633a 36be d1a7 9b3e 4c04 fd3b
000002f0: a117 c13d 5f44 bfbd d2c4 08be 6580 9a3e
00000300: eeab 7cbe 75f6 0c3e b70b 2e3e df48 d53e
00000310: 84b8 853e 4f69 d73e 45a3 b83c 7004 3dbd
00000320: 2a3b aabe 3bf1 883c 5265 07bd cf0e 94be
00000330: 07c6 3c3d 5381 ff3e a95f 023e c91c 65be
00000340: 85a7 73be 3b32 6b3d c939 923e dd67 b23e
00000350: fa0e 8abd 8e31 f63e cf58 f33e 26c5 b23e
00000360: 9952 2cbe c11c 8bbe 0ad9 b23e dd0b 0abe
00000370: 48d9 bb3d 9cf2 d63e 9e8c 2cbe b014 b53e
00000380: d22a ba3e 5389 b7be 0fe4 463e 1bd1 65be
00000390: cf9c e4be 9cf8 b23c cb3f 3c3e 84d8 aabe
000003a0: 37e7 c2be e4cb 06bf 1eda ee3a 2c23 9ebe
000003b0: cd83 1b3d 9284 d33e 6f66 a2bd 4cde 09bd
000003c0: 923d bd3e 486d 2a3d 864d cb3e 485d 193e
000003d0: c824 25bd a2f6 aa3d ec78 fe3e 022c 01be
000003e0: 1397 593d 2ad6 013e a305 af3e 9ba3 2f3e
000003f0: b48b 9c3e d9cc 09be f6f0 dfbe 507a a43e
-0.343034 -0.13443284 0.46531382 0.09115569 -0.18322226 0.14860177 -0.35499212 0.19516425
0.03469435 -0.21141835 0.40228757 0.0041816025 0.2539109 0.011257906 0.2031991 0.019843414
0.43720144 -0.22078142 0.43058726 -0.050533902 0.25621456 -0.19613877 0.12517709 -0.34109983
-0.2652245 -0.123425506 0.31004402 -0.08563846 0.3876409 -0.31044033 0.14509268 0.2829967
0.0263195 0.4495658 -0.15084843 -0.13101374 0.30465853 0.29909775 0.033823885 0.28700814
0.47312647 0.26943502 -0.056435388 0.16651426 0.46830723 0.14555763 0.2257888 0.41574386
0.46866825 0.5286074 0.34349942 -0.032464463 0.097001314 0.4390778 0.13538359 -0.055698376
0.42314854 0.23747799 -0.15965003 0.20865713 -0.16162883 0.22626765 0.33114153 0.24366862
0.28771812 0.113472834 -0.14155267 0.27407473 0.09931869 0.2744968 0.41423708 -0.17471756
-0.29762843 -0.057016663 -0.2952733 0.22518949 -0.25546697 -0.17743129 0.06194299 0.4177301
0.45260885 -0.293581 -0.004848149 0.21361822 0.42909175 -0.02507447 0.32414848 0.0043462887
0.44144645 0.093565546 -0.022586528 0.23754065 0.17408282 0.41328403 0.093731426 0.43021646
-0.0808978 -0.348674 -0.07401116 -0.020396829 0.2654456 0.062897705 0.122615404 0.54572606
0.556144 0.08301487 -0.05325449 0.34095678 -0.41133758 -0.10236941 0.36706513 0.3978157
0.16421294 -0.17840718 0.20597948 -0.13853016 0.31738105 0.43844905 -0.13027528 -0.41621146
0.19319768 -0.13935353 -0.12005258 0.08407954 -0.10075553 -0.5377232 0.2964908 0.08497587
-0.27234432 0.0560158 0.3182869 -0.1517248 0.39202595 0.5255681 0.36456147 0.48809257
0.52441 0.030594174 0.0020780868 0.23634046 0.4667383 0.0019031108 -0.1911729 -0.3317457
0.23404871 -0.29012758 0.038699776 -0.15382262 -0.24957092 0.3245969 0.12845379 0.35080555
0.5114253 0.13317695 0.31589597 0.4579339 0.057308547 -0.10981209 0.447248 -0.40581557
-0.36375427 0.022767186 0.103538275 -0.37063456 -0.2862645 -0.020225877 0.32227084 0.11593448
0.22648858 0.04328335 0.43010333 -0.2430651 -0.042764723 0.46031326 -0.095312 -0.1932281
0.38496828 -0.13617069 0.23604995 -0.1365711 0.086733826 0.45382252 0.37338403 -0.11710519
0.4388894 -0.1779571 0.3040147 0.0077214595 0.09428335 -0.093392126 -0.13356331 0.30176082
-0.24674961 0.13765891 0.16996656 0.4165716 0.26117337 0.42072532 0.02253879 -0.04614681
-0.33248264 0.01671659 -0.03305561 -0.28917548 0.04608729 0.49903354 0.12731804 -0.22374262
-0.23794372 0.05742095 0.28559712 0.34844866 -0.06741138 0.48084682 0.47528693 0.34916037
-0.16828384 -0.27170375 0.34931213 -0.13481088 0.091723025 0.4198197 -0.16850516 0.35367346
0.36360794 -0.35846958 0.19422935 -0.22443049 -0.44650885 0.021847062 0.1838371 -0.33368313
-0.38067028 -0.5265486 0.0018222963 -0.3088621 0.037967492 0.4131208 -0.07929694 -0.033659264
0.36961037 0.041608125 0.39707583 0.1497699 -0.04031828 0.08347823 0.4970163 -0.12614444
0.05312259 0.12679353 0.34183988 0.17152254 0.30575335 -0.1345705 -0.43738526 0.32124567

g_model.conv1.bias f4 [32]
00000000: 6422 a5ba 3086 e4bc e2ef 363d 010c a13e
00000010: 52d7 ddbb 7e96 a6b9 973a 223e bc51 70be
00000020: fa91 60bd c280 493e 093e 8f3d db71 c0bd
00000030: 21ba 5a3e 7060 943e c69e 053e a337 1a3e
00000040: b5bd af3c b081 29be 9feb 953d 46ca 8aba
00000050: 63ae 0c3e 6e6d ccbb 0a0d d33b d9d5 ec39
00000060: 843b f23d 98c7 d33e 0188 9fb9 8404 62bc
00000070: 72c5 dabc 224e 873d d79d 043e 58bc d2bd
-0.001259875 -0.027896017 0.044662364 0.3145447 -0.006770053 -0.00031774113 0.15842663 -0.23468679
-0.054826714 0.19678023 0.06994254 -0.09396716 0.21360065 0.28979826 0.13048849 0.15060286
0.021452764 -0.16553378 0.07320332 -0.0010588847 0.13738398 -0.006238631 0.0064407634 0.00045172757
0.11827758 0.41363215 -0.00030428174 -0.013795022 -0.026705477 0.066066995 0.12950836 -0.1028983

g_model.conv2.weight f4 [32, 32, 3, 3]
00000000: 124d 2cbd 7338 dcbb f54b e23c 7296 6fbd
00000010: 64fd df3a 8d7e 003b 8e62 4fbc 207e f4bc
00000020: 01a2 4d3d ac67 5dbd 7e8c 1d3d 0120 1cbc
00000030: 85cd 4bbc d0d6 fbbb c4b5 48bd 1d95 ba3c
00000040: 07da b03c 2690 553d f84e 38bd 67d5 d0bc
00000050: d4d5 5abd d5ba 09bd 5bc9 5dbd 2082 6ebd
00000060: 4435 5f3d db47 67bd f9d2 d13c 8ff0 40bc
00000070: 6f26 e83c 25e7 18bd 5849 72bd 7414 00bd
00000080: a719 4c3d 2338 40bd b72f a7ba f9e6 3d3c
00000090: a62e 10bb 5feb 47bd d477 323b 4cbc 43bd
000000a0: aec7 8fbc 0197 24bd b3b3 4cbd 71d3 25bd
000000b0: 8397 d8bc c505 61bc 326c 0fbd ffef 083d
000000c0: 192c 10bd 7f91 163b cc28 65bc 5c6d 6d3c
000000d0: 723f aebc e7f9 1bbd 8879 de3c 62ca 8a3c
000000e0: 4732 07bd b8cc 02bd c3f0 35bd d76a c4bc
000000f0: 9d83 dbbc 8dbf 75bd 1e29 0dbd 1f5c 393d
00000100: 06da 91bc 151b 4c3d 4a69 4f3d 920e a3bc
00000110: 23b1 4f3d 0d0d 3a3c 5809 23bd cc06 65bd
00000120: 9c0b 8c3c 8d83 28bb 70b2 063b 45d6 c03c
00000130: 2e32 d53c bcee 053c 5bb7 443d 285c f3bb
00000140: 93b4 0b3d f6a1 00bd 49f6 3bbc c46d 303d
00000150: 7684 50bd bb30 493d e252 2ebd 46f4 33bd
00000160: 4185 d73c 0d1a ba3b 122d 393d fc0a 1c3d
00000170: 4766 8dbc 12e6 203d 9d4e 4a3d 1ad8 57bc
00000180: f8e5 093d 4b49 113c 6481 66bd 9311 a73a
00000190: 8f94 983c a11b 47bd c19e 59bb 365e 45bb
000001a0: e793 a53c a75b c83c 8dfb 25bd 3449 6b3c
000001b0: 742c 183d c252 913c b942 033d d214 f2bb
000001c0: c848 4f3d e8ea 6dbd 5dc8 223c 0659 673d
000001d0: adfd 85bc 6273 1abd 4ad6 203d f462 e33c
000001e0: 9eea 083d 89c9 fdbc cd4c 4f3d 2883 233c
000001f0: 0719 da3c 1a48 5cbd 1de1 6dbc e82a d6bc
00000200: 5ede 1fbd e3fb 9a3c 43e5 66bd 9b08 f0bc
00000210: 1dc7 1fba 7edf 7e3b 90de 65bc 1960 3cbd
00000220: 053a 7ebc bb63 4cbc 49fd 2a3d 76cd 64bd
00000230: 3ec1 383d 7fab ecbc fe14 48bc 94c1 233d
00000240: 4d8e 5fbb bbe3 52bd 50b6 3c3d 5b61 4c3d
00000250: 530b 9b3c 3aa2 1fbd 9c0d 92bc a2fc b8bc
00000260: bd0a 76bb 06d9 eebc 0227 113d c745 abbc
00000270: f84f 523d 69c3 993c 899f 023c 8489 b53c
00000280: bdae abbc fed4 3d3d cd2e ddbb b794 4abd
00000290: 18b8 7d3c 5edc 373d 8827 2f3d 05cb 51bd
000002a0: baf5 d83b 6e2f 65bd d6c8 0b3d 0e2b ecba
000002b0: a425 1fbc 834e a4bb 88b9 0f3d 47e0 2d3d
000002c0: 6a6d 32bd 283e 373d ce43 09bc c857 4bbd
000002d0: 457e a13b eed9 5e3d dde1 783c 7070 393a
000002e0: d055 433c 3bd0 f7bc 62ac 3fbb b111 28bc
000002f0: 71ce 2a3d 1efe 643d c322 f8bc 8d3e 343c
00000300: 0f88 d7bc 0450 febc 24ac 403d 5207 21bc
00000310: 91c4 0cbd e21f 50bd e5da 8d3c 7a0b 30bd
00000320: d2d1 b73b 076a 3f3b ea4a 1c3d 24e2 b03b
00000330: 1dc7 5e3c bfed 41bd 5110 62bd 020d 673c
00000340: 1fc7 6a3c 78dc 2abd c966 36bd 78e5 3fbd
00000350: 6d5c 153d 0f6f 223d a773 203d 2926 9ebc
00000360: d50c e2bc 800f d83b 088d 6abd b1f1 9ebc
00000370: 355f 67bb 2322 97bc 8fca a73c e1cd 6fbd
00000380: 9ed8 63bd ff77 18bd 7b60 2fbd fad3 5fbd
00000390: 1fd3 f8bc d942 57bd c6f7 fcbc c566 7239
000003a0: cfcd bf3c b126 063c 4abc 3b3d daa5 163b
000003b0: d4c4 343c 5903 d2bc daf3 06bd 66f0 5dbd
000003c0: 5d8e 13bd 69da 223d 0713 6bbd e743 45bd
000003d0: 7d4c 993c 7e3d 113d 2a86 63bd 89d8 c8ba
000003e0: 077d 21bb 165d ddbc 2f58 653d ad1a e53c
000003f0: 3f23 2f3d 5891 af3c 30f1 70bd c13c cfbc
-0.042065687 -0.0067205965 0.02762411 -0.058493085 0.0017089066 0.001960668 -0.012657775 -0.029845297
0.050203327 -0.054053947 0.038464062 -0.009529115 -0.012439136 -0.0076855198 -0.04900147 0.02277618
0.021588339 0.052139424 -0.044997185 -0.025492383 -0.05342658 -0.033625443 -0.054147106 -0.058229566
0.054494157 -0.05646501 0.025613295 -0.011776104 0.028338639 -0.03732981 -0.059151977 -0.031269506
0.04982915 -0.046928536 -0.0012755309 0.011590713 -0.002200046 -0.04880845 0.0027232068 -0.047786996
-0.01755127 -0.04018307 -0.049976062 -0.04048485 -0.026439434 -0.013734286 -0.035015292 0.033432003
-0.035198305 0.0022974906 -0.0139867775 0.014491405 -0.021270487 -0.038080122 0.02715756 0.016942207
-0.033006933 -0.031933516 -0.04441906 -0.023976726 -0.026796157 -0.05999713 -0.03446304 0.04525387
-0.017804157 0.049830515 0.05063752 -0.019904409 0.05070604 0.011355651 -0.039803833 -0.055914685
0.01709538 -0.0025713176 0.0020553134 0.023539672 0.026024904 0.0081745945 0.048026424 -0.0074267574
0.034107756 -0.031404458 -0.011472293 0.04307343 -0.050907575 0.04911874 -0.042559512 -0.04393413
0.026308658 0.005679375 0.045208998 0.038096413 -0.017260684 0.039281912 0.049391378 -0.013174081
0.03366658 0.008867572 -0.05627574 0.0012746326 0.018625526 -0.048610333 -0.0033206197 -0.0030115969
0.020212127 0.024457766 -0.0405231 0.014360715 0.03715177 0.017739657 0.032046054 -0.007387736
0.05060652 -0.058085352 0.009935466 0.056481384 -0.016356314 -0.037707694 0.039266862 0.027757145
0.033426873 -0.030979889 0.050610352 0.009980001 0.026623262 -0.0537797 -0.014519003 -0.026143506
-0.039030425 0.018918937 -0.056370985 -0.029300978 -0.0006095039 0.0038890536 -0.014030114 -0.045990083
-0.015516763 -0.0124749495 0.041745458 -0.055860005 0.045106165 -0.02889037 -0.012212036 0.039979532
-0.0034111917 -0.051486712 0.046072304 0.049897533 0.018926298 -0.03897307 -0.017828755 -0.022581402
-0.0037543022 -0.02915622 0.03543759 -0.020907296 0.051345795 0.018769937 0.007972606 0.0221603
-0.020957345 0.046345703 -0.006749964 -0.04945823 0.015485786 0.044887893 0.04276231 -0.051219005
0.0066210898 -0.055953436 0.03412708 -0.0018018202 -0.009713564 -0.005014242 0.035089046 0.042450216
-0.043561377 0.04473701 -0.008377982 -0.04964426 0.0049283826 0.054407053 0.015190569 0.00070739444
0.011922315 -0.03025066 -0.0029247035 -0.010258124 0.041700784 0.055906408 -0.030290013 0.011001241
-0.026309995 -0.031044014 0.047039166 -0.009828405 -0.034367148 -0.050811656 0.017316291 -0.042979695
0.0056097293 0.0029207484 0.03815738 0.005398052 0.013597277 -0.047345873 -0.05519134 0.014102222
0.014329701 -0.04171416 -0.044531617 -0.046849698 0.036465097 0.039656695 0.039172795 -0.019305306
-0.02759401 0.0065936446 -0.057263404 -0.019402357 -0.003530455 -0.018448895 0.02048233 -0.05854595
-0.055626504 -0.037223812 -0.04281662 -0.054645516 -0.030374108 -0.052553985 -0.030879866 0.00023117203
0.023413567 0.008187936 0.045833863 0.0022987039 0.011033256 -0.025636362 -0.0329474 -0.05418434
-0.03602444 0.039759073 -0.057391193 -0.04816046 0.01871323 0.035459034 -0.05554787 -0.0015323322
-0.0024641172 -0.027021926 0.0559923 0.027966822 0.042758223 0.02143161 -0.058823764 -0.025297524

g_model.conv2.bias f4 [32]
00000000: 42e6 3abd 9763 2ebc 5b82 823d 6374 0fbd
00000010: cca0 80bd 1a93 1abd bd04 61bd 858b 50bd
00000020: 876e ddbc 3b94 7abd c1b9 cebc ab51 823d
00000030: fe5b 1a3c f81d 42bd 2380 03bc 2432 85bd
00000040: a02b 6cbd 7b8f 343d 235b bcbc 0675 043c
00000050: 2fe7 7d3c 05f4 673c d88a 62bd cb95 0abd
00000060: 8a9d e13c edc5 f1bc 6b66 da3c eb07 aa3c
00000070: 953c a03d 2295 f53b 55eb 57bd 2927 4bbc
-0.045629747 -0.010643861 0.063725196 -0.035023104 -0.062806696 -0.037737943 -0.05493616 -0.050914306
-0.027030243 -0.06117652 -0.025235059 0.06363233 0.009421347 -0.04739186 -0.008026156 -0.06503704
-0.05765879 0.044082146 -0.022992676 0.008084541 0.015497013 0.0141573 -0.055308193 -0.03383426
0.02754094 -0.029513324 0.026660165 0.020755729 0.07824055 0.0074945847 -0.052714664 -0.012399473

g_model.fc1.weight f4 [128, 800]
00000000: 74a9 eabc 2281 1ebc 2992 f7bc 38ee f33c
00000010: ea38 b7bc 10a4 5b3c 682d ebbc a49d f1bc
00000020: 153c 05bd f134 e13c f04f 263b 0026 4d39
00000030: dd0d 463c 8afe 7bbc b046 d63b 229f 9a3c
00000040: 7c32 983c 791a 97bc 0c3e 9e3c 1aba f23c
00000050: 9695 c5bc d21b f5bc 9adc 02bd 5f71 bcbb
00000060: 80a7 cf3c cea3 0ebd d133 8b3c fd4a ef3c
00000070: cd1d 1dbd e70d 16bd 1dc6 b2bb 2e29 423c
00000080: 3884 a13c be6f 4abd 90ff 00bc 0300 d43b
00000090: 3420 c1bc 7a9a 16bc ca36 0dbc e011 6bba
000000a0: 3818 68bc 95ef f73c c8e2 c23c eb69 41ba
000000b0: 0f9f f53c 09ed 633c 9d9f 1a3d 64cb 843c
000000c0: 108a 6b3c b517 3bba 6067 48bc f6c7 3e3d
000000d0: d990 193d b1fd f3bc 65a9 0dbd 8533 38bd
000000e0: f599 a03c 2010 cfbc 004b a5bd a5f2 64bd
000000f0: dc61 2abc 2b2a 4d3d b69a b53b ab6d 79bd
00000100: 804c 24bc da3b 353d 1da6 4c3c 691f 8ebb
00000110: 365e c1bc a755 cebc 6edd 673c 6962 833c
00000120: e219 7e3c ba4a 533d aff7 01bd ca38 d7bb
00000130: b819 26bc d65f aebc 5480 1a3d aebc 76bc
00000140: 337b 63bc f6d0 a8bc 8236 2c3d a686 5e3d
00000150: 820e 5d3d e366 ca3c f70c 08ba ba83 e43b
00000160: 7434 063d f229 993c 64ea 9e3c edeb 723d
00000170: 9b1f 9ebc f532 a53a 0781 37bd d272 9bbc
00000180: 42aa 1b3d e740 ffbb 8ad2 d5bc b982 8abc
00000190: 3d93 48bc 0a90 8abd 1845 25bc fb8d db3c
000001a0: 3d61 133c 6944 6cbd 43b1 0bbd 3650 a43b
000001b0: 9dc6 3d3d ff34 133c 5148 27b7 1bb0 913b
000001c0: 424c 8ebb b184 603c 373b 323b b718 3b3c
000001d0: 4412 cb3c a0b8 593d 18d8 db3c 39d0 fcbc
000001e0: 45e5 2fba c3e6 933c 439e eebc 109d bbbc
000001f0: beff 5bbd fd34 49bd 57ad e1bd 0ace 65bc
00000200: b68d 02bd 6e1a 803d f1b2 633c 0ffd 91bd
00000210: f806 8bbd 618b 173d 2743 8c3c 3c64 10bd
00000220: 1326 36bd 204d 02bd 8c4e 7cbc e018 fe3c
00000230: 3dd8 3f3c abc1 ad3a 2c94 043c 5b5e a5bc
00000240: c8e4 bbbc 55bc b739 6a6b 9fbc e295 0cbd
00000250: e50e 9ebc 5406 8cbd 1ca6 ad3c e8c7 3cbc
00000260: 1884 b33b a463 eebc 1656 b3bc 62b6 5abc
00000270: ca10 843c b6e0 76bc fe5a b83c ec0f 493c
00000280: 34d9 8ebc 6035 563b e053 9aba 801e 963b
00000290: b612 003b 50ed aa3b 1ae7 95bc c8d4 c73b
000002a0: 1079 d9bc 1431 fcbc 5821 883b 906f 793b
000002b0: 77a3 edbc daa9 c7bc 0eb8 c63c 2988 3abd
000002c0: c285 71bb a0e4 873b 0b58 613c 0033 ab3c
000002d0: f2fe 82bc 439c 5f3d d0e3 523d 83e4 3fbd
000002e0: d528 d93c f2fc 57bb 5ff6 603d fac1 fa3c
000002f0: a535 a93c 48cd ba3c 942b 033d 3e4d 14bc
00000300: 4733 b63c 90a4 223d 9637 993c 3109 5ebc
00000310: c7cc 39bb a1f4 d53c dc07 623d ed22 64bc
00000320: cb22 52bd 8231 ffbb d15e b6bc fd8d ffbc
00000330: c13f 27bd 2236 5abd 4607 02bc 9337 e43b
00000340: d820 d2bc 6f26 6d3d 10b7 083b a175 213d
00000350: 97eb 343d 62cf 093c 0047 7aba ec76 563c
00000360: 9881 8e3b 4a48 ec3b a515 01bd bf49 6e3c
00000370: b56f 07bc 931c 973c 0a1b febc 5d38 f23b
00000380: 3584 87bc 389a c1bb 6c47 1dbd b3af 283c
00000390: e9ed 013c b996 213b afea cabb ca18 e1bc
000003a0: 7665 633c dc12 883a a74e b93c 1443 85bc
000003b0: d63b 44bd d8ab 3b3d 80d3 0abc a1a4 2bbd
000003c0: 1f28 df3b 9fe7 c73b 70aa 53bd ddf7 1cbc
000003d0: 5e57 c0bc b0ff 3ebd 8080 f63c 5826 f8bb
000003e0: d9d8 6ebd 17ea 383d 7cd7 92bc 389a 84bd
000003f0: 0e36 473c 8c97 33bc 4fbf 473b 225a 7abd
-0.028645255 -0.009674342 -0.030221062 0.029776677 -0.022366006 0.013405815 -0.028708175 -0.029494114
-0.032528 0.027491065 0.0025377236 0.0001956448 0.012088266 -0.015380511 0.0065391883 0.018874709
0.01857876 -0.01844524 0.019316696 0.029629756 -0.02411918 -0.029920492 -0.031948663 -0.0057508196
0.025348425 -0.034824185 0.016992481 0.029210562 -0.0383585 -0.036634352 -0.005455746 0.011850638
0.019716367 -0.049422972 -0.007873431 0.006469728 -0.023574926 -0.0091921035 -0.00861902 -0.0008967202
-0.01416593 0.030265609 0.023789778 -0.0007378149 0.029983072 0.013911494 0.037749875 0.016210265
0.014376178 -0.00071370165 -0.012231678 0.046577416 0.037491653 -0.029784055 -0.034585375 -0.044971008
0.019604662 -0.025276244 -0.08070946 -0.055895466 -0.010399308 0.050089043 0.0055421246 -0.060895603
-0.010028005 0.044246532 0.012490776 -0.0043372405 -0.023604494 -0.025187327 0.014151914 0.016038137
0.015509101 0.051584937 -0.03173035 -0.006568049 -0.010137968 -0.021285933 0.03772004 -0.015059633
-0.013884353 -0.020607453 0.04204417 0.05432763 0.053968914 0.024707263 -0.000518992 0.006973711
0.032764867 0.018696759 0.019398876 0.059307028 -0.01930218 0.0012603687 -0.044800784 -0.018975649
0.038004167 -0.0077897194 -0.02610137 -0.016908037 -0.012242136 -0.067657545 -0.010087274 0.0268011
0.008995351 -0.05768243 -0.034104597 0.0050144447 0.04633199 0.008984803 -9.970813e-06 0.0044460422
-0.0043425867 0.013703511 0.002719594 0.011419467 0.024788983 0.053154588 0.02683644 -0.030861007
-0.0006709884 0.018054372 -0.0291282 -0.022902042 -0.05371069 -0.0491228 -0.1101939 -0.014026174
-0.031873427 0.06255041 0.013897643 -0.07128345 -0.067884386 0.036998156 0.017121864 -0.03525184
-0.044469904 -0.031811833 -0.015399586 0.03101772 0.01170927 0.001325657 0.008091968 -0.020186594
-0.02293624 0.00035044798 -0.019460399 -0.034322627 -0.019294212 -0.068371445 0.021197371 -0.011522271
0.0054783933 -0.029100247 -0.021891635 -0.0133491475 0.016121287 -0.015068224 0.022504326 0.0122718625
-0.017437555 0.0032685623 -0.0011774264 0.0045812726 0.0019542403 0.005216278 -0.018298674 0.0060983635
-0.026546985 -0.030785121 0.0041543655 0.0038060881 -0.02900861 -0.024372984 0.024257686 -0.04554001
-0.0036853408 0.0041471273 0.013753901 0.020898342 -0.015990708 0.054592382 0.05148679 -0.046848785
0.026508728 -0.0032957164 0.054922458 0.030610073 0.020655463 0.022802964 0.03202398 -0.009051619
0.022241248 0.03970772 0.018703263 -0.013551996 -0.0028350817 0.026117625 0.055183277 -0.013924343
-0.051302712 -0.007787884 -0.022262009 -0.031195635 -0.040832285 -0.05327428 -0.007936304 0.006964633
-0.025650427 0.05789798 0.0020861067 0.03941882 0.04416999 0.00841126 -0.0009547323 0.013089877
0.004348945 0.007210766 -0.031514782 0.01454395 -0.008266379 0.018446242 -0.031018753 0.007391973
-0.016542533 -0.005908277 -0.03839819 0.010295796 0.007930257 0.0024656488 -0.0061925272 -0.02747764
0.013879171 0.0010381597 0.022620512 -0.016267337 -0.047908626 0.04581818 -0.008473277 -0.04190505
0.0068102027 0.0061006094 -0.051676214 -0.00958058 -0.02347916 -0.04663056 0.03009057 -0.0075729303
-0.05831227 0.04514512 -0.017925017 -0.064747274 0.012158884 -0.010961425 0.003047902 -0.061121114

g_model.fc1.bias f4 [128]
00000000: 4977 23bc 8520 d23b 6cfc 5fbc 6537 8ebb
00000010: c4c9 933c 7c30 c33c 9889 103d adb0 333c
00000020: d6ca ed3b 279f 3f3a 6655 7e3c a7f6 823c
00000030: 8baf 0f3c 783d a83b f79e d23c f058 d63c
00000040: 56aa bd3c 8889 0e3c 939d d63c 4e0d bcbc
00000050: 58c3 3ebb f48f 9dbc 0a3d 47bc a281 1e3d
00000060: ed7b bcbc 38fd 30bc 10ef 3fba 2075 0fbd
00000070: edef 1fba 0db3 06bd d353 273d 0591 d6bc
00000080: 831e fa3b 5268 0cbd 2b1b 3b3d e0bb cdb9
00000090: 6433 e8bc 71e6 90bc 14f2 213d f6ca 70bc
000000a0: 1d5c b6bc 8fea 9e3b fd99 b03c 6c26 c93a
000000b0: 7735 acbc 7ea3 ec3c bff1 ea3c afab 0cbd
000000c0: 69bb 073d 8452 c3bc 2c72 c43c 63e8 86bc
000000d0: dfea cd3c dc6b 673c 672e 9fbc 57f3 edbc
000000e0: ab37 cdbc 45df 613c a3d0 1ebc b472 9c3c
000000f0: b7b9 80bc a9eb c23b be53 4bbc 91e4 cfbb
00000100: ab90 2c3c 5427 67bc 97c2 97bc d475 07bc
00000110: 37ac 953b 296b be3b 5eb7 75bc 9f57 143d
00000120: f381 b8bb 02b2 4abc 69a2 713c 0763 04bd
00000130: fd6f 06bb bd18 693c d29d ecbb c983 d73b
00000140: 9b74 b83c 6249 c13c 105e 9b3c 5c0d 44bd
00000150: 606d 4f3b 65e9 05bc b56a c63c 24b6 8cbc
00000160: acdb c13c cee1 23bc db16 173c d7f4 6f3b
00000170: ec00 32bd 1096 a3bc 35e8 8ebc 096e 9ebb
00000180: 4741 08bd 9698 643c e940 943c b09c b83c
00000190: 6224 993c 637e b2bc d2fa 193d 4b26 efba
000001a0: 2df0 173d 66a1 b8bc 0e86 3a3d 3ca5 483b
000001b0: 0983 1fbc 98b9 db3c d5fd da3c c4e0 42bb
000001c0: 95e2 ca3c 071a d23b e1fc 72bc 4b09 15ba
000001d0: daa6 98bc 5bf1 333c 0dde c3bc 2a50 b03c
000001e0: 8dde ff3c 3270 003d 783e 1c3d 47ec e2bb
000001f0: 9336 063d cd67 df3c d2b3 403c 2731 a2bc
-0.00997717 0.006412568 -0.013671022 -0.0043400996 0.018040545 0.02382683 0.03528747 0.010967416
0.007256846 0.00073097873 0.01552329 0.015986754 0.00876988 0.005134281 0.025710566 0.026165456
0.023152512 0.008699782 0.026198184 -0.022955563 -0.0029108133 -0.019233681 -0.012160549 0.038697846
-0.023008311 -0.01080256 -0.0007321695 -0.03502381 -0.00061011204 -0.0328856 0.040851425 -0.026192198
0.007633032 -0.034279175 0.045680206 -0.00039240625 -0.028344817 -0.017688008 0.039537504 -0.014696827
-0.02226072 0.004849739 0.021557802 0.0015346534 -0.021021588 0.028886553 0.028679727 -0.034343418
0.033137713 -0.023843057 0.023980223 -0.016468232 0.02513641 0.014124837 -0.019431306 -0.029046698
-0.025050959 0.013786142 -0.009693298 0.019097663 -0.015713556 0.005948503 -0.012410102 -0.006344386
0.010532538 -0.014108498 -0.018525405 -0.0082678385 0.0045676487 0.0058111143 -0.014997331 0.036216374
-0.0056307255 -0.012371542 0.014748194 -0.032321002 -0.0020513528 0.0142270895 -0.007220962 0.0065769893
0.02251654 0.023594562 0.018965751 -0.047864303 0.0031650886 -0.008173321 0.024220804 -0.017176695
0.023664318 -0.0100025665 0.009221758 0.0036614442 -0.04345791 -0.019969016 -0.01744471 -0.0048348946
-0.03326538 0.013952395 0.018097358 0.022535652 0.018694106 -0.021788782 0.037592717 -0.0018245665
0.037094284 -0.022537898 0.045538 0.0030616065 -0.009735831 0.026821896 0.026732365 -0.0029736022
0.024766246 0.006411794 -0.014830799 -0.00056852837 -0.018634249 0.010982837 -0.023909593 0.0215226
0.03123405 0.031356998 0.038145512 -0.006925139 0.03276689 0.027271176 0.0117616225 -0.019798828

g_model.fc2.weight f4 [10, 128]
00000000: a484 80bd 708b 4ebd 9d06 f53d bcef 95bc
00000010: 70fd a93c 7913 54bd 4c36 713d 1fad ccbd
00000020: 2a60 3dbd 0ef9 a63c 7970 5a3c e992 e9bd
00000030: 1d8f ebbd 064c 7dbc 54a3 2c3d d4e6 5abd
00000040: 8ec2 25bd f6b1 ad3d f305 ea3c a409 d83d
00000050: 01d8 0abd a20b 003e 1cb4 48bc 5bf0 cc3c
00000060: 28ea a03c a17d b53d fde8 113d 7924 1ebd
00000070: 36ad c43d 1730 4dbd 0345 93bd 7784 83bd
00000080: 7a21 90bd 8fc0 3a3b 5752 9cbd 0c3d e63d
00000090: 19ef 7fbd 1016 60bd d503 a13d 71ad 6abd
000000a0: 9ee5 dbbd f3cf 07bd 0ce5 d43d 5a70 66bd
000000b0: 123e 853c 7439 c53d 603a 563c 1676 533d
000000c0: 2c5a ef3d c964 983d 3840 113d 2dc3 1a3e
000000d0: 8d2b 14bd c0c9 963d b32c a33d 8cda 093d
000000e0: 4f17 9abd 8891 97bd b7e0 dbbd 39d2 f23d
000000f0: 042d c93c 4e70 9f3d 0f5e 56bc 4cec 38bd
00000100: 5465 843b ddf4 83bd 1fe3 5ebd 69af 0dbe
00000110: 4161 b1bd 0f12 56bd fb07 453d 617c efbc
00000120: 132e de3d 0672 c93c 4b3c fcbc f0d2 6c3d
00000130: 3dac a83d 7754 253d 21d1 b93d f9ce 46bc
00000140: d356 08bc e02c a63d 68d6 e23d b044 b7bd
00000150: 61c0 3fbe 99aa 563b c45a 983d 8a25 f8bc
00000160: bac3 26bb 0904 c93c d01c d23c 7816 b53b
00000170: 607c e0bd 0be1 643d ced0 9a3d f6cd 5ebd
00000180: 0bb3 823d a123 ddbd 3caf e43b aee0 afbd
00000190: f269 7bbe 9f54 203d 0f79 253d ee44 ae3d
000001a0: 9a1a e33c 42d0 2dbd 0ea4 52be 5c9f 72bd
000001b0: b67a b63d a103 663d 07a6 93bb 0ac3 5abd
000001c0: 05c9 213d b363 4b3d 0699 e93d 51fe 2fbd
000001d0: 5c8a 6d3c 1e24 3fbe 7272 22bc f948 a0bd
000001e0: e6cc 583d c3a7 0e3e 9a09 e23d f166 0bbe
000001f0: 52ac b83c 6753 e0bd 3ad1 9ebd bb80 a9bd
00000200: a0c7 423b b7fb 143d 99d7 a03d f955 0fbd
00000210: 49cd c13d db8d 62bd 3a08 653c abf0 0d3d
00000220: a01d 1c3c 196b 9abd c328 843d e334 c5bd
00000230: ef3e 9f3d 7254 ffbd 02f7 39be fad0 a6bd
00000240: c99d f93d 387f c13d fa5c 25bd cefd 273c
00000250: 4dea 6abd f8af 293d 0e0f ed3d 035f 9a3d
00000260: 7f54 8ebd 4a5f adbd 5ff3 c03d f68c 983d
00000270: 6fd2 15be 763d cd3d dd65 f93c 3422 9bbd
00000280: 1272 28bd 0c1e 50bd e3ab 033d 23c2 a83d
00000290: 8d40 acbc 1b76 81bd 1761 0fbe 7c91 9bbd
000002a0: 2b01 e63d 0fcc cf3d c7d1 82bd a1c0 a2bd
000002b0: 0733 bf3d a277 733d cab7 1ebd 4040 90bd
000002c0: 3776 883c b406 263e d87a 1d3e 1234 6fbd
000002d0: e26f 093e df6a f4bd 62be 12be 25e0 01bd
000002e0: 460e 4cbd 77f9 873d 75d4 d83d 14ac bd3c
000002f0: a0f7 0ebd 29ec b73c bf98 2dbd 12a9 8e3d
00000300: 303e ecbc e78e 563d 0e8a 21be fb5e c13d
00000310: 1af6 88bd 1bd0 54bd 1dd6 133d e1a1 9a3d
00000320: b0fa 78bd 3694 a93c 54a2 97bd a3df fbbd
00000330: 943e 293d 0c34 ec3b 2948 c1bd 2d25 81bd
00000340: a609 903d 6ece bebd 7e6f 043e e48c b73d
00000350: 0e6c c03d 2ae7 2dbd d3f9 46bd 9f6a 82bd
00000360: 27c6 ce3c d8c2 343d d06f f0bd 4fe9 803d
00000370: d161 fa3d f8bc 7fbc debd 84bc c166 09bc
00000380: f171 d73c 9f00 eb3d b685 a13d f919 163d
00000390: 4902 a13d d295 483d b75a bc3c eed3 683d
000003a0: 59ab 1abc d63f f4bd 8dc6 c43d 42c1 8fbc
000003b0: 76aa 2abd 14bb 9abd 76ef 3ebd 6905 a8bd
000003c0: 6e26 4ebd 67bd 5bbd 28e8 4b3d 033c 96bc
000003d0: 9312 163d b399 d23c d394 61bc a450 27bd
000003e0: 73f7 19be c6c9 5d3d 8446 d9bc 04f8 37bd
000003f0: 8b65 843b 19fc 543d 360b 143d 352b 843d
-0.06275299 -0.050425947 0.11964152 -0.01830279 0.020750731 -0.051776383 0.058889672 -0.09993958
-0.046234287 0.02038243 0.01333248 -0.11404974 -0.11501906 -0.01546002 0.04214795 -0.05344279
-0.040468745 0.08481209 0.02856729 0.10548714 -0.033897404 0.12504438 -0.012249973 0.025016954
0.019642904 0.088618524 0.035622586 -0.038609 0.0960335 -0.05009469 -0.07190897 -0.0642175
-0.07037635 0.0028496122 -0.076328926 0.112421125 -0.06248388 -0.05470854 0.07862059 -0.057294313
-0.107371554 -0.0331573 0.1039525 -0.05625949 0.016264949 0.09630099 0.013075441 0.051626287
0.11687121 0.07441098 0.035461634 0.15113516 -0.036174346 0.073626995 0.0796751 0.03365569
-0.07523977 -0.07400805 -0.1073622 0.11856503 0.024557598 0.07785092 -0.013083949 -0.045147225
0.0040403996 -0.06443188 -0.05441582 -0.13836445 -0.08661128 -0.052263316 0.048103314 -0.029234113
0.10848632 0.024590503 -0.030790469 0.057818353 0.08235977 0.040363755 0.09073091 -0.012134307
-0.008321482 0.08114028 0.11076051 -0.08948648 -0.1872573 0.0032755493 0.07439187 -0.030291338
-0.0025446252 0.024538057 0.025648504 0.00552636 -0.10961223 0.05587868 0.075593576 -0.05439564
0.06381806 -0.10797811 0.0069788974 -0.08587776 -0.24552134 0.0391432 0.040398654 0.08509241
0.027722646 -0.04243494 -0.20570394 -0.05923401 0.08910124 0.056155805 -0.004505876 -0.05340866
0.039498348 0.049655627 0.1140614 -0.042967144 0.0144983195 -0.18666121 -0.009914981 -0.078264184
0.05292978 0.13931184 0.110369876 -0.13613488 0.022543106 -0.10953408 -0.077547505 -0.082765065
0.0029721037 0.036372866 0.07853622 -0.0349941 0.09462983 -0.055311065 0.013979012 0.034653347
0.0095285475 -0.075399585 0.06453087 -0.09629228 0.077756755 -0.124672785 -0.18160632 -0.08145328
0.12188298 0.09448093 -0.040371872 0.010253383 -0.057352353 0.041427583 0.11575137 0.07537653
-0.0694971 -0.084654406 0.09421419 0.07448761 -0.14631055 0.10021488 0.03044408 -0.07574883
-0.04112441 -0.050809905 0.032146346 0.08240154 -0.021026874 -0.06321355 -0.1400188 -0.07596108
0.112306915 0.10146343 -0.06387668 -0.07946897 0.093359046 0.059440263 -0.038749494 -0.07043505
0.016657932 0.16213495 0.15378892 -0.058399267 0.13421586 -0.119344465 -0.14330438 -0.0317079
-0.0498183 0.066393785 0.10587398 0.023153342 -0.034904122 0.022451477 -0.042382 0.06965841
-0.028838247 0.052382376 -0.1577532 0.09441944 -0.06687565 -0.051956277 0.036092866 0.07550407
-0.06078595 0.020700555 -0.074040085 -0.12298515 0.041319445 0.007208353 -0.094375916 -0.06305919
0.0703309 -0.09316717 0.12933156 0.0896242 0.0939561 -0.042456783 -0.048578095 -0.063679926
0.02524097 0.04413113 -0.117400765 0.062945 0.12225688 -0.0156090185 -0.016203817 -0.008386315
0.026299449 0.11474728 0.078868315 0.036645863 0.07861764 0.048971005 0.022992475 0.056842737
-0.0094402665 -0.11926238 0.09608183 -0.017548207 -0.04166647 -0.075552136 -0.046615086 -0.08204157
-0.05032962 -0.053647425 0.04978195 -0.018339163 0.036638808 0.025708055 -0.013768393 -0.04084839
-0.150358 0.054147504 -0.026522882 -0.04491426 0.004040425 0.05199823 0.036143504 0.064535536

g_model.fc2.bias f4 [10]
00000000: 143e 843c cb6f bd3d bf29 8cbd c03e 1cbd
00000010: 0329 0b3c 587d 98ba 7c38 3abc bd12 563d
00000020: b235 ec3c 9064 3dbc
0.016142882 0.092498384 -0.068439 -0.03814578 0.008493665 -0.0011634035 -0.011366006 0.052263964
0.028834198 -0.0115596205

f_model.fc1.weight f4 [32, 10]
00000000: bad0 9dbe 4989 f83c 3de1 a33b 4c04 95bd
00000010: 9a15 8c3e eb9f 023e d5fd 663e 88be 38be
00000020: e45a 933e 64d9 eb3e c271 b9be 197b 993d
00000030: 9cae ad3e 33ac 0a3e 79e2 9bbd 288f 7cbd
00000040: 0e4e 1dbd bb90 8bbe 2494 073f 5c76 34be
00000050: 6204 d6bc f70f dd3e 55f6 263e 3647 89bd
00000060: fcce 1b3e a1e9 76be 988f 17be 40bb efbd
00000070: 3a70 6abd f7c9 8bbe 6796 eebd c7e7 8bbc
00000080: 374d 2cbc 236f 9bbd 60e1 88be 3965 44be
00000090: ef4d 0a3f a92b c0be e1bf 25be c39a 783d
000000a0: c94e 58be c591 79be c7fd 203e f543 1cbe
000000b0: 3100 d8bc 005b bfbd 326e 4ebd ebdf 83be
000000c0: ee94 63be 05b2 0a3f bcd2 bdbe 772a 53bd
000000d0: fc75 f93b 6d3f d2bc 8935 bd3e ff8e a03d
000000e0: f739 f73e 51ff 69bd ad5c 973e 784f 563e
000000f0: c5fa aa3e 3ccb 3bbe ab48 20be e470 1fbe
00000100: c853 cb3e 3c68 0ebe 8fc5 223d 981c e23d
00000110: ab2e 883d c8e0 46be 92b1 423e ca41 8a3e
00000120: 6b41 03be 9b92 30be e20f f03e 94bb e0bd
00000130: b718 8ebc 8f31 12bd 1c61 56be d9a4 b13d
00000140: 5b72 de3b 80b6 283e 60b1 263d 6d3d a73e
00000150: 460e 28be 4774 e7bc e037 123e 7373 29be
00000160: 2243 453e acef e53e fa0a fd3d 79d3 8bbd
00000170: 1d56 4cbe d8e1 3abe 1015 ec3d ff25 21be
00000180: 90d3 9bbe 3f63 d43e 78fc 963e d229 a43e
00000190: 1fa0 a9bd e3b1 ad3d f4cd 033f 31de 88bd
000001a0: a173 5bbe 75ae 42be 143b c13c 1324 c8bd
000001b0: c021 18be eafe c3bd 4d9d 8bbe 0491 6cbe
000001c0: 5834 f0bd da39 f23c ccc5 673e 6550 93be
000001d0: 557f b03e 034c f13c b3dd d53e ffa0 aebc
000001e0: 847b b9be f6aa 80be f067 30bd 7ada 6fbd
000001f0: 9c28 a2bb 0293 083f 8e70 84bd ae72 d73e
00000200: 42a7 3b3e 3c3b a2bc f393 083e bb97 eebd
00000210: 2542 c43d 4d8d e63e e4b9 69be afc9 b7be
00000220: e906 9a3d 3654 0f3c 4242 853e 96da ae3e
00000230: 5ca2 f7bd ec75 e93d e766 233e b5c3 be3e
00000240: 341c 003f 285c a9be 4873 cabd 46f4 eebd
00000250: 28ef 553e ed83 a13e d7f1 d4bd 09b1 5ebe
00000260: 1000 e43d b80b 8dbd 84f6 68bc 972d 22be
00000270: 948f a23e 5dc2 41be 6027 903e bb5c 15be
00000280: ef3d 29be ad60 4d3e 2599 b1be df60 af3e
00000290: 9d4a 61be 2495 72be 1a87 3dbe a97e db3e
000002a0: c78b 44be 4048 22be 7cc3 903e 1a4f bdbd
000002b0: 770b b0bd 91d3 cd3d ec07 ce3d dbf9 873e
000002c0: c55e 44bd 48f6 b9bd 02af f73e b475 89be
000002d0: dc35 ed3d ac41 013f 34bd a1be f0ed 18be
000002e0: 321f 31be 30a8 81bd 2233 95bd c168 17be
000002f0: fa11 673e ebcb 913e bbc3 6e3e c6fc 06be
00000300: 329e 0f3e 137c 41be 7f6c 833d 41cf 3d3e
00000310: 3de4 bc3d 0085 ab3e 064d 80be 8f0a e63e
00000320: ec33 a73e b526 25be 453a 7abe d782 a53e
00000330: 54a3 8fbd 4089 5cbd e542 d93d 9904 27be
00000340: 5c2e b43e d778 01be 2927 983e d673 7fbe
00000350: 3b12 ae3e bb79 893d 8a70 853a 2b28 85be
00000360: e873 283c 5010 1fbd d7b4 bfbc 1979 9cbe
00000370: 6bdd 9bbe 906f ab3d 2380 88bd 7595 d1be
00000380: e90d b3bd d052 7abe 53fa b2bd 1d79 a53e
00000390: f4f5 e2bd 7794 123e 09a8 fcbd 1395 973e
000003a0: 2e7a 2cbe 0eca d63e 0df3 4fbe 7d5b 783e
000003b0: 343f 373d bfdb b8bd ce1b fd3c 6ff8 353e
000003c0: 2500 413e a2d7 183e a2c0 b03e 518e b7bd
000003d0: a4ec 4fbd 213c c2bd 7392 95bc 29bf b83e
000003e0: ab10 c5bb 2e15 ab3d e180 853d 3057 3ebe
000003f0: 4fec 0ebe 9fda 843d 9a09 d2bd 61fe 9abe
-0.30823308 0.0303389 0.0050012157 -0.0727621 0.2736023 0.12756316 0.22557767 -0.18041432
0.28780282 0.46064293 -0.36219603 0.07494182 0.3392228 0.13542251 -0.076115556 -0.061659962
-0.038404517 -0.27258858 0.5296042 -0.17623276 -0.026125137 0.43176243 0.16304906 -0.067030355
0.15215677 -0.2411256 -0.1480087 -0.11705637 -0.057235934 -0.27302524 -0.11649781 -0.017078293
-0.010516456 -0.07589557 -0.26734447 -0.19179238 0.5402517 -0.3753331 -0.16186477 0.060694467
-0.21123804 -0.24372013 0.15721808 -0.15260299 -0.026367279 -0.09343529 -0.05039806 -0.25756773
-0.22224781 0.54177886 -0.3707484 -0.05155417 0.007612942 -0.02566501 0.36954907 0.07839774
0.4828641 -0.057128254 0.29562894 0.20928752 0.33394447 -0.18339247 -0.1565272 -0.15570408
0.39712358 -0.1390695 0.039739188 0.1104061 0.06649526 -0.19421685 0.1901305 0.27003318
-0.12817924 -0.17243426 0.46887118 -0.10973278 -0.01734577 -0.035691794 -0.20935482 0.0867402
0.0067885346 0.16475868 0.0406965 0.32664052 -0.16411695 -0.028253688 0.14279127 -0.16547947
0.1926389 0.44909418 0.12355609 -0.068274446 -0.19954725 -0.18250215 0.11527455 -0.1573715
-0.30434847 0.4148197 0.29489493 0.32063156 -0.08282494 0.08481195 0.51486135 -0.06683005
-0.21430828 -0.19011863 0.023587741 -0.097725056 -0.14856625 -0.095701054 -0.27268448 -0.23102194
-0.11728734 0.029568601 0.22634047 -0.28772274 0.34472147 0.02945519 0.41770706 -0.021317003
-0.36227047 -0.25130433 -0.043067873 -0.058557965 -0.0049486887 0.53349316 -0.064667806 0.4207968
0.18325523 -0.019803636 0.13337688 -0.11650034 0.095829286 0.4502968 -0.22824818 -0.3589606
0.07520849 0.008748105 0.26027113 0.34151143 -0.120915145 0.11399445 0.15957223 0.37258688
0.50043035 -0.33078122 -0.098852694 -0.11667685 0.20892012 0.31545964 -0.1039769 -0.21747221
0.111328244 -0.06887001 -0.01421893 -0.15837704 0.31750166 -0.189218 0.2815504 -0.14586155
-0.16527532 0.2005641 -0.34687153 0.34253594 -0.22001119 -0.23689705 -0.18508568 0.42870072
-0.19193946 -0.15847874 0.28274143 -0.09243603 -0.08595937 0.10050119 0.10060105 0.26557812
-0.04794194 -0.090801775 0.48375708 -0.26847613 0.115825385 0.5049083 -0.31589663 -0.14934516
-0.17297056 -0.06330907 -0.072851434 -0.14786054 0.22565451 0.2847589 0.23316853 -0.13182363
0.1402519 -0.18894987 0.06417178 0.18536092 0.092232205 0.33499908 -0.25058764 0.4492993
0.326568 -0.16128047 -0.2443629 0.32326385 -0.07013574 -0.05384183 0.10608462 -0.16310348
0.3519162 -0.12643753 0.29717377 -0.24946532 0.33998284 0.06712671 0.0010180634 -0.26007208
0.01028154 -0.038833916 -0.02340166 -0.3056114 -0.30442366 0.08370888 -0.06665065 -0.4093434
-0.087428875 -0.24445653 -0.08739152 0.32318965 -0.11082068 0.14314447 -0.12336738 0.29605922
-0.16843483 0.4195103 -0.2030756 0.2425365 0.04473801 -0.09026288 0.030897047 0.17770551
0.18847711 0.14926007 0.34521967 -0.089626916 -0.050762787 -0.09484125 -0.018258309 0.36083344
-0.00601395 0.08353649 0.06518722 -0.18587947 -0.13957332 0.06487011 -0.102557376 -0.302722

f_model.fc1.bias f4 [32]
00000000: a094 23be 7dd6 1a3c b3a5 2b3b 860f af3e
00000010: f393 b93e 93aa 1c3d 3011 eb3e 99b8 a23d
00000020: f2b5 2e3d 723a a6bb c075 e6bc 677b a73e
00000030: 5519 1d3e e7c0 ca3e f944 023d 7c8f a53c
00000040: 9bbf af3e 3e52 a4bd d8be 053f 0250 29be
00000050: e60f 7a3e 6fa8 8dbb f507 b53e 8f57 8c3e
00000060: 162a 243d 843f 903e 6479 c03e d7b8 b73d
00000070: 4c8f a1bd d5ef 483e b8a4 6e3c 9a09 233c
-0.15974665 0.009450552 0.0026191294 0.3419153 0.3624569 0.03824861 0.4591155 0.079453655
0.042653985 -0.005072885 -0.02813232 0.32711336 0.15341695 0.39600298 0.03180406 0.02021002
0.3432587 -0.08023499 0.5224433 -0.16534427 0.24420127 -0.0043230574 0.35357633 0.27410552
0.0400792 0.2817346 0.37592614 0.08970802 -0.0788866 0.19622739 0.014565639 0.00995102

f_model.fc2.weight f4 [10, 32]
00000000: 3b3e babe c4fe a0be e000 17be 10ae 783d
00000010: ab34 80bd 4a8d b1be db93 2f3e 3619 3b3c
00000020: ee63 50be 9c0e 11be 36fe b6bd 9bac 22be
00000030: 9195 dfbe dbb6 ce3c 85f9 1dbe 4e33 42bd
00000040: 52bd 17be 075d 873e b81b 1e3d fef0 eb3d
00000050: 7783 793e 4dbf 083e da6d 01be 4c35 71be
00000060: 874c 9f3d 274d 1e3e fce2 de3b 2176 13be
00000070: 1c95 373e c3bc f7bd 3907 1e3e f68d 6cbe
00000080: 19dc 0c3d 944d 613e 9a05 bd3e e275 083e
00000090: 5cdd 50be 4d53 e93b 1890 013e 5136 f4bc
000000a0: 1193 f0bd 7995 48be 0980 093e 8e12 85be
000000b0: 3f13 8ebe 649f 8bbe cd12 a13c 6566 2abe
000000c0: 610d 553e dce2 76bd ed76 8a3e 3c38 2dbe
000000d0: e71c acbd 70aa a9be 12dd 6e3e e0ba 7c3e
000000e0: 1deb fbbd f2f5 d3be 3536 0bbe e865 e3bc
000000f0: b8c1 eabe 9dc0 fc3d 752c 10be c13c c4be
00000100: c8f1 1ebe bcde 053e ec55 ba3d 82b8 8cbc
00000110: bdcc 4a3d c327 bdbd c7bf 2fbe 7ea0 8bbe
00000120: 9ca5 023d 5f2f 24be 66ed a13e 55b4 0cbd
00000130: 3ca1 08bd 997f ee3d 7425 19bb f74e 1e3e
00000140: 982d 98be 5733 49bd 7659 b1be 0188 11be
00000150: c1c4 8ebe 18d1 933d ecaf 893d bbce a8be
00000160: e3e4 403e 0781 98be a221 eabc 0d5a b63c
00000170: 903f 9c3d e7b6 59be 7f8e 5f3e b00f 5a3e
00000180: 0443 73be 0c52 023c 687e 65be fbcf 13be
00000190: ebdc 94be 5064 e0bd 4e07 fcbc 36bd 3bbe
000001a0: 02d4 943e 5432 57be 26ed 1cbe 9e6f 8fbe
000001b0: ea6c 56bd ad48 143e e0f6 a33d dbe0 a6be
000001c0: 592f 833d 90da 993d 7fd3 a0be 97c7 6cbe
000001d0: 0e9e 773d 3dae 30be 4701 2cbe 385a f83d
000001e0: 66e7 7cbe 737d 66bc fce9 7cbc 2cc6 833e
000001f0: d161 14bc 1166 c2bd 1d40 563e 6936 06be
00000200: 5b70 523e c869 72be 94a5 363c c0d7 62be
00000210: b734 133d 4bdb fb3d 4ae4 503e c4b2 493e
00000220: 5ac8 86be 2420 09be 4e48 883d 2892 4a3e
00000230: 8187 2abd 386a 7fbe f7b2 ae3e 0f0b 09be
00000240: 505d 43be bf22 7bbe 9522 debc 654e b43d
00000250: 2432 60be c979 c3bd 9a77 33bd 6959 9ebd
00000260: f818 33bb 642e 34be 562b e93d 42c9 32bd
00000270: ee39 f5bd e25f 88be 98bc d7bc a00f aabd
00000280: 00cf 213e 26b2 3abd c604 a3be 8276 d3bc
00000290: 68d5 5fbe 573d 453d 03d1 b0be 51b9 b7bd
000002a0: 4f85 8e3d f962 1fbe e7ab b7bd 3491 96be
000002b0: 438d ac3e 0d5f 4ebe ccd2 b1be 5c57 88be
000002c0: d3bd 61be 816b 8a3c 341d 5d3e ac98 a23b
000002d0: e258 de3d 3ba5 3cbe 92e2 0fbe 54b7 843e
000002e0: d589 503d 6a8a 9dbe 44fa 923d 4941 b1be
000002f0: be89 573e 47e3 c9bb 5d73 f33d c809 953d
00000300: 239b 3bbd 6b3b c7bb 7f92 04be c6ec c43e
00000310: c90d df3d e0a3 523e 6584 2bbd d51e e9bd
00000320: 2c70 b33d 5a14 82be 6ea4 2dbe a68a 033e
00000330: 58f8 99be 8b4a 96bd 0495 b0be d273 933e
00000340: 9333 16be 06f4 0cbd 624b e2bd 8e34 a8bd
00000350: b33e 283d 6aaa 9b3c 497c 93bd 505d d5bd
00000360: 58de 9cbe 4370 aebe 4164 e53c 8372 88be
00000370: ef0f 143e 6ff2 8bbd 0aa4 07be 41d3 bfbe
00000380: d5bc 80be d8ea 63bc a0e4 74be b61a eabe
00000390: 6c1a 77be c0b4 9abb c0a0 be3d a130 03be
000003a0: 1a12 9dbe e186 5f3e c50d 98bd a646 09be
000003b0: 8059 9c3e dbd4 83bd 3c1d 0bbe be98 97bd
000003c0: 5787 523e 63c6 68bd f9eb b4be 139d b13d
000003d0: 3ca3 4abe 8e66 5fbe 54d8 473e 8489 26bd
000003e0: b8e9 8f3e 70e6 7c3d ab33 65be 3762 023e
000003f0: b519 053d 5dea 70be e5b8 29be bbb6 ab3d
-0.36375603 -0.3144437 -0.14746428 0.060712874 -0.062600456 -0.34678108 0.17146246 0.011419585
-0.2035062 -0.1416573 -0.08935206 -0.15886156 -0.43668798 0.025233677 -0.15427215 -0.04741221
-0.14818314 0.26438162 0.038600653 0.11520575 0.24366556 0.13354225 -0.12639561 -0.23555487
0.07778268 0.15459119 0.006801961 -0.14400531 0.17927974 -0.1209655 0.15432443 -0.23101029
0.03438959 0.2200225 0.36918336 0.13326219 -0.20396942 0.007120526 0.12652624 -0.029811056
-0.11746801 -0.1958827 0.13427748 -0.2599072 -0.2774906 -0.27270043 0.019662285 -0.16640623
0.20805885 -0.060274944 0.27043858 -0.16915983 -0.0840395 -0.33137846 0.23326519 0.24680662
-0.12300704 -0.4139858 -0.13594897 -0.027758554 -0.4585092 0.123414256 -0.14079459 -0.38327602
-0.1552192 0.13073248 0.090984195 -0.017177824 0.04951166 -0.092360996 -0.17163001 -0.27270883
0.03189622 -0.16033696 0.31626433 -0.034351666 -0.03335689 0.11645431 -0.002336827 0.1545981
-0.29722285 -0.049121227 -0.34638566 -0.14212038 -0.27884486 0.07217616 0.067230076 -0.32970223
0.18837313 -0.2978594 -0.02858049 0.022259736 0.07629311 -0.21261178 0.21831702 0.21295047
-0.23756033 0.007954132 -0.22411501 -0.14434807 -0.29074797 -0.10956633 -0.030765202 -0.18333897
0.29068 -0.21015292 -0.1532484 -0.28014845 -0.052349962 0.14480849 0.08006072 -0.32593426
0.06405515 0.075123906 -0.3141136 -0.23123012 0.060453467 -0.17253967 -0.16797362 0.12126583
-0.24697646 -0.014067995 -0.015436646 0.2573713 -0.009056524 -0.09492124 0.20922895 -0.13106693
0.20550673 -0.23673165 0.011147875 -0.22152615 0.035938945 0.12297686 0.20399585 0.196971
-0.2632473 -0.13391167 0.06654416 0.19782317 -0.041633133 -0.24942863 0.34120914 -0.13383125
-0.19078565 -0.24524973 -0.0271161 0.08804015 -0.21894127 -0.09544713 -0.043815233 -0.077318974
-0.0027328115 -0.17595822 0.11385219 -0.043648966 -0.1197394 -0.26635653 -0.026335046 -0.083037615
0.1580162 -0.04558005 -0.3183958 -0.025813345 -0.21858752 0.0481542 -0.34534463 -0.08970893
0.0695902 -0.15565099 -0.08968335 -0.29407656 0.33701524 -0.20153446 -0.34731138 -0.2662915
-0.22045068 0.016896965 0.21593171 0.0049620476 0.10856797 -0.18422405 -0.14051273 0.25921118
0.050912697 -0.30769664 0.07176641 -0.3462012 0.21048638 -0.006161127 0.11887238 0.07277256
-0.045802247 -0.006080081 -0.12946509 0.38461894 0.10891301 0.20570326 -0.04187431 -0.11382834
0.087616295 -0.25406152 -0.16957256 0.12845859 -0.30072284 -0.07338437 -0.3448869 0.287993
-0.14668112 -0.034412406 -0.110495344 -0.08213149 0.04107542 0.019002158 -0.0720144 -0.104181886
-0.30638385 -0.34070024 0.028001906 -0.26649866 0.14459203 -0.0683335 -0.1324617 -0.3746586
-0.25144067 -0.013910972 -0.23915339 -0.45723504 -0.24131173 -0.004721254 0.093080044 -0.12811519
-0.30677873 0.21828796 -0.07424501 -0.13405856 0.30537033 -0.06437083 -0.13585371 -0.0740218
0.2055944 -0.05682982 -0.35336283 0.08672538 -0.19788831 -0.21816465 0.19516116 -0.04065849
0.28108 0.0617432 -0.22382991 0.12732778 0.03249522 -0.23526902 -0.16574438 0.083844624

f_model.fc2.bias f4 [10]
00000000: ab39 283e d178 5e3c 972c 823d 1f59 46be
00000010: 3bab 55be 342a dc3d 0a11 b63d 3589 f73d
00000020: 9ef1 6cbd a68e ca3d
0.16428249 0.01357861 0.06356161 -0.19369934 -0.208661 0.10750237 0.08889969 0.12086717
-0.05784761 0.09890489
