models/Experiment 4/Trained on normal data/joint_model_cons4.pt (torch, 465613 bytes, 12 tensors)

g_model.conv1.weight f4 [32, 1, 3, 3]
0.11662385 -0.11212544 -0.3835501 0.19252588 0.27175352 -0.25775498 -0.048717663 0.14636903
0.29649574 0.3623258 -0.124378994 -0.011700403 0.43637505 -0.18131864 -0.23029004 -0.03970907
-0.16039325 -0.31382498 -0.104347266 -0.39316878 -0.15099671 0.065692686 0.35130662 0.09587421
0.35884592 0.3086934 0.12894534 -0.11612857 -0.08395161 -0.3713195 0.06010066 -0.11461898
-0.28544644 -0.25742364 -0.3616039 0.09478676 0.2984634 0.08584182 0.4582453 0.35560086
-0.06082919 0.36493504 0.026041228 0.081012785 -0.28011745 -0.16931297 0.3605358 0.24143837
-0.21900165 0.36486003 0.2558518 -0.29691318 -0.11763475 0.26319748 0.008008187 0.49027577
0.44919258 0.08592227 0.25168148 0.19345075 -0.24503751 0.2162673 0.08444303 0.0070689707
0.33954093 -0.047989696 0.076553084 -0.3909362 -0.30480334 -0.3991172 0.28754058 -0.023576427
0.19039768 0.18469617 0.19989099 0.22477533 0.31076652 0.4538695 0.3765932 0.0052914224
-0.22274424 -0.048881315 0.3250897 0.34688976 -0.27466384 -0.35789675 0.2298179 -0.0049925162
-0.33835137 -0.24611421 -0.103957675 0.46952316 0.39370826 0.22606921 0.09276451 -0.20936346
-0.32111922 -0.39596087 -0.32359743 0.39730626 0.009944067 0.35081774 0.28015345 0.08273654
-0.1973207 -0.15888241 0.01061817 0.32999957 -0.31713676 -0.21204838 0.094511874 0.12537836
-0.15386392 0.27625448 0.19318713 0.37049177 -0.05227603 0.23887998 -0.3415263 0.042909924
-0.39224383 -0.019098029 -0.049287684 -0.16488293 0.3327069 0.17105049 -0.32397544 0.1716091
0.24836355 -0.47768524 -0.30043516 -0.09389638 -0.24622399 -0.1770874 0.011558098 0.34487337
0.035024744 0.1512785 0.071691155 0.23748259 0.09867101 0.03599304 -0.10994436 -0.13552065
0.26305398 0.14243297 0.06124062 0.28089744 0.44075754 0.4604021 0.34481803 0.2427327
0.31705204 0.18701164 0.44862753 0.44943297 0.08447139 0.36230272 0.4106228 -0.09850847
-0.17584325 0.17124793 -0.13496493 0.24227649 -0.27287066 -0.18256675 -0.29301268 0.08782566
0.3956537 0.043863818 0.1593803 0.41606778 0.41167092 -0.1982396 0.34595248 0.477996
0.30463803 -0.07229192 0.022598093 0.2754751 0.005765996 0.40341583 0.2906792 0.096506
-0.018912327 -0.1500743 -0.12759374 -0.37467963 -0.15766965 0.4837508 0.39867058 -0.26546276
0.28820097 0.013470551 -0.28111213 0.13513184 -0.10697898 -0.52793264 -0.20983854 -0.21145874
-0.17278534 -0.13292287 0.014273905 0.07532364 -0.3955904 0.1557149 -0.124410845 0.21562985
0.4146108 0.47088346 0.2286274 0.20148909 -0.29602763 -0.3409814 -0.21889135 -0.42743775
-0.19132125 -0.028206706 0.11088359 0.17580593 -0.2574768 -0.25554347 -0.23147452 -0.31038785
0.092548214 0.0063874354 0.09913855 0.27723175 0.41515443 -0.2162095 0.19126056 0.43011275
-0.2580985 0.19198889 -0.16645534 0.18219993 0.090710126 0.1174309 0.40502214 0.123974666
0.28461102 0.3442246 -0.19405127 0.33077943 0.23204431 0.19232386 -0.04330952 0.09596516
0.33818746 -0.19571081 -0.27229667 0.37727964 -0.34132534 -0.03455336 0.19655943 0.1545417
00000000: 7cd8 ee3d 06a2 e5bd ae60 c4be 8125 453e
00000010: 4723 8b3e 76f8 83be 2c8c 47bd c3e1 153e
00000020: 4ace 973e c482 b93e 6aba febd 0cb3 3fbc
00000030: 8d6c df3e 98ab 39be 27d1 6bbe faa5 22bd
00000040: 213e 24be abad a0be 05b4 d5bd 6b4d c9be
00000050: e29e 1abe e389 863d 76de b33e b359 c43d
00000060: a7ba b73e 100d 9e3e 3f0a 043e d1d4 edbd
00000070: d2ee abbd 971d bebe 1c2c 763d 5bbd eabd
00000080: 0926 92be 08cd 83be 2524 b9be 901f c23d
00000090: 32d0 983e d6cd af3d 219f ea3e 5111 b63e
000000a0: 0728 79bd c4d8 ba3e 6a54 d53c 08ea a53d
000000b0: 8e6b 8fbe 6160 2dbe 2698 b83e 9f3b 773e
000000c0: f841 60be efce ba3e 02ff 823e 0105 98be
000000d0: 7dea f0bd d2c1 863e c534 033c 6d05 fb3e
000000e0: 92fc e53e 04f8 af3d 65dc 803e f417 463e
000000f0: 1deb 7abe 2d75 5d3e 78f0 ac3d d3a2 e73b
00000100: 4fd8 ad3e d890 44bd ddc7 9c3d ca28 c8be
00000110: 2f0f 9cbe 1759 ccbe 8538 933e 5a23 c1bc
00000120: 9cf7 423e fe20 3d3e 39b0 4c3e 812b 663e
00000130: ca1c 9f3e 9561 e83e d3d0 c03e ab63 ad3b
00000140: 1117 64be c637 48bd 2872 a63e 899b b13e
00000150: bda0 8cbe 3e3e b7be 6255 6b3e 4398 a3bb
00000160: 643c adbe 5d05 7cbe c3e7 d4bd 5765 f03e
00000170: 2194 c93e b07e 673e 52fb bd3d 6063 56be
00000180: bd69 a4be 62bb cabe 90ae a5be ba6b cb3e
00000190: 71ec 223c 629e b33e 4670 8f3e c671 a93d
000001a0: 700e 4abe 12b2 22be d5f7 2d3c b4f5 a83e
000001b0: c05f a2be 3623 59be 718f c13d 2f63 003e
000001c0: 818e 1dbe 3a71 8d3e d9d2 453e 19b1 bd3e
000001d0: 641f 56bd f49c 743e 89dc aebe 51c2 2f3d
000001e0: 2fd4 c8be 7873 9cbc e2e1 49bd 12d7 28be
000001f0: 8f58 aa3e dc27 2f3e 1ce0 a5be 4cba 2f3e
00000200: 0453 7e3e 2993 f4be a3d2 99be bf4c c0bd
00000210: 2422 7cbe 6656 35be 2d5e 3d3c 3e93 b03e
00000220: 1b76 0f3d c0e8 1a3e d0d2 923d a32e 733e
00000230: 0714 ca3d 706d 133d 822a e1bd edc5 0abe
00000240: 03af 863e f3d9 113e 72d7 7a3d cad1 8f3e
00000250: f9aa e13e d3b9 eb3e fd8b b03e ec8e 783e
00000260: a554 a23e fb7f 3f3e 82b2 e53e 141c e63e
00000270: 56ff ac3d be7f b93e 273d d23e cfbe c9bd
00000280: 4110 34be 9e5b 2f3e 3f34 0abe 5417 783e
00000290: b4b5 8bbe c7f2 3abe c205 96be f1dd b33d
000002a0: 1f93 ca3e 8caa 333d 9734 233e d606 d53e
000002b0: 88c6 d23e 52ff 4abe af20 b13e e4bb f43e
000002c0: 84f9 9b3e c90d 94bd a31f b93c 130b 8d3e
000002d0: aef0 bc3b 858c ce3e e7d3 943e f0a4 c53d
000002e0: 06ee 9abc 14ad 19be efa7 02be 02d6 bfbe
000002f0: 2774 21be 2fae f73e 8d1e cc3e bcea 87be
00000300: 148f 933e 96b3 5c3c eeed 8fbe 0060 0a3e
00000310: cc17 dbbd 9826 07bf eadf 56be a488 58be
00000320: a4ee 30be ef1c 08be 19dd 693c 4843 9a3d
00000330: d38a cabe ba73 1f3e 1dcb febd 12ce 5c3e
00000340: de47 d43e a317 f13e 4d1d 6a3e 2853 4e3e
00000350: ef90 97be 1d95 aebe 0e25 60be 1fd9 dabe
00000360: b8e9 43be c011 e7bc f016 e33d 7806 343e
00000370: 00d4 83be 98d6 82be a807 6dbe 28eb 9ebe
00000380: eb89 bd3d b14d d13b 2709 cb3d 52f1 8d3e
00000390: 1f8f d43e 0666 5dbe cfd9 433e bd37 dc3e
000003a0: 7d25 84be bc98 443e 4573 2abe 9e92 3a3e
000003b0: 3bc6 b93d 9d7f f03d 105f cf3e 6ee6 fd3d
000003c0: 89b8 913e 353e b03e 60b5 46be ec5b a93e
000003d0: 069d 6d3e 8cf0 443e 5365 31bd 6289 c43d
000003e0: e826 ad3e 6a68 48be 786a 8bbe cc2a c13e
000003f0: 32c2 aebe d387 0dbd e046 493e 2e40 1e3e

g_model.conv1.bias f4 [32]
0.18169253 -0.1114378 -0.20558119 0.32586598 -0.024621602 -0.00075516134 -0.14870584 0.31588674
0.23683104 0.11246596 0.1719831 -0.039624378 -0.24717017 0.17913996 0.32350832 0.32273763
-0.17427227 -0.05758937 -0.03817326 -0.058095854 0.03316725 -0.17026038 0.14423387 0.21153198
-0.3315295 -0.00038772073 -0.18313135 0.112610914 -0.1491243 -0.101450786 0.21590652 0.3247963
00000000: 9b0d 3a3e 8039 e4bd e083 52be e8d7 a63e
00000010: 3eb3 c9bc 05f6 45ba 5846 18be e8bb a13e
00000020: d683 723e 8e54 e63d 561c 303e 2c4d 22bd
00000030: 2d1a 7dbe 7770 373e e2a2 a53e de3d a53e
00000040: 6e74 32be d5e2 6bbd 905b 1cbd ebf5 6dbd
00000050: 62da 073d bd58 2ebe 0bb2 133e d79b 583e
00000060: 3cbe a9be ff46 cbb9 c986 3bbe 8da0 e63d
00000070: 0ab4 18be 6ec5 cfbd 9916 5d3e b34b a63e

g_model.conv2.weight f4 [32, 32, 3, 3]
0.029423611 0.064245455 0.085176975 0.0073901624 0.0640863 0.16528444 -0.00981924 -0.06337535
0.047301292 0.021790816 -0.13226834 -0.052042622 -0.04900219 -0.12807786 -0.05723178 -0.10658538
0.029760119 -0.06771846 0.058915604 0.101620965 0.07127443 -0.03918334 0.0050659413 0.099726155
-0.044674475 -0.004631276 0.007640895 -0.066117465 -0.15104333 -0.14736418 -0.02079582 -0.06139711
-0.16850376 0.055872615 -0.050982542 -0.094744705 0.045168586 0.016813118 -0.026883319 0.07626486
0.066461064 0.004496116 -0.09301559 0.011662562 0.09315201 0.06467087 0.105942585 -0.05155976
0.04676374 0.10163034 0.10392025 -0.08491166 0.075160004 0.110520385 0.051095877 0.08152942
-0.040726185 0.0737271 0.07862481 0.08641952 -0.043276835 -0.012905073 0.050296556 -0.0006073731
0.028831413 0.0008699896 0.004109224 -0.048175782 -0.03634953 0.04190066 0.005953478 0.03920228
0.08118528 0.07705833 -0.025310073 0.041898746 0.006284831 0.054568548 -0.09364437 -0.04002073
0.052493267 0.14220801 0.102636844 0.017473042 0.008348761 0.12370265 0.032287836 -0.0623581
0.10849392 0.046534132 0.033545166 -0.03505891 -0.0035367198 0.006295666 0.023605948 -0.10197998
0.023451252 0.03417169 0.07442879 0.064608805 0.073179856 -0.02139208 0.07439841 0.057512924
0.109309256 -0.009542505 -0.06173861 0.03467898 0.08943858 -0.03476475 0.008233284 -0.028786942
-0.18585432 -0.075529955 -0.024312863 -0.020879926 -0.066520564 0.002770903 -0.06837787 -0.11104652
-0.039951127 -0.044556737 -0.13089387 0.061594203 -0.039514013 -0.11260741 0.04509741 -0.086101
-0.076336056 0.0103694685 0.08690065 0.014812508 -0.0020382854 0.023124022 0.050696347 -0.04090061
-0.020516217 -0.046699688 0.0051457374 -0.009250262 -0.035240613 -0.004066844 -0.020763498 -0.024924349
0.013069832 0.010466569 0.0019570093 -0.00020249446 0.04707267 0.032664794 -0.11938359 0.039611407
0.062019628 -0.0008574704 0.10752837 -0.027504131 0.03157533 0.10700841 0.04702623 -0.06368767
-0.015287932 0.09041726 0.091769546 0.12559824 0.20989096 0.008276786 -0.0083165625 0.1236363
-0.037677646 -0.15662867 -0.035763934 0.087443724 0.1227307 0.042123202 0.06229056 0.08318669
0.04650453 -0.11975463 -0.026236327 0.019348996 0.06732935 -0.07522419 -0.07458962 0.0802016
0.062169723 -0.050096393 -0.05670634 0.01861078 0.0788289 -0.14441639 -0.14062464 -0.0039030982
0.03787121 -0.091137074 -0.10309183 -0.040210016 -0.11756997 -0.053529676 -0.12468454 -0.10974163
-0.07714098 -0.068868026 -0.0597983 -0.08157538 0.072658524 -0.035114042 -0.056291997 0.036387313
-0.03942845 0.019114241 0.02753867 0.051208492 0.025854303 -0.050937556 -0.036208507 0.03355392
-0.012735752 0.032019887 -0.0033068699 -0.053599708 -0.03723323 -0.00059397554 -0.023539227 -0.0127636185
-0.010983602 -0.00090504164 0.013386552 -0.010308132 0.02174827 -0.029655404 0.038302947 -0.07855835
-0.031154355 0.07772157 0.021072196 -0.0050976933 -0.0320547 -0.031994414 0.00490966 -0.011346447
-0.01481203 -0.07765816 0.062760584 0.0012920251 0.039735176 -0.046626214 0.02339531 0.11398496
0.042210467 -0.063988164 0.06618106 0.10606571 0.007117831 0.008042838 0.0602565 -0.07712129
00000000: c909 f13c 1f93 833d 4471 ae3d 2d29 f23b
00000010: ae3f 833d 5340 293e e1e0 20bc efca 81bd
00000020: 00bf 413d a782 b23c 5a71 07be a52a 55bd
00000030: 85b6 48bd d826 03be df6b 6abd 7049 dabd
00000040: 7ecb f33c faaf 8abd 7d51 713d a71e d03d
00000050: 54f8 913d b67e 20bd 3200 a63b 3a3d cc3d
00000060: 95fc 36bd f5c1 97bb 7960 fa3b 9868 87bd
00000070: 1aab 1abe a3e6 16be ff5b aabc 897b 7bbd
00000080: 408c 2cbe afda 643d 12d3 50bd 8309 c2bd
00000090: b202 393d aabb 893c 683a dcbc c030 9c3d
000000a0: bd1c 883d 2854 933b f57e bebd 5514 3f3c
000000b0: 7bc6 be3d 2972 843d 6df8 d83d 5430 53bd
000000c0: 568b 3f3d 9123 d03d 24d4 d43d 2ae6 adbd
000000d0: 7ded 993d 8358 e23d e949 513d e6f8 a63d
000000e0: 80d0 26bd 3cfe 963d 0b06 a13d b8fc b03d
000000f0: 0d43 31bd cd6f 53bc c303 4e3d 1e38 1fba
00000100: db2f ec3c 0410 643a aba6 863b f853 45bd
00000110: 3fe3 14bd 07a0 2b3d 6515 c33b 9292 203d
00000120: 7844 a63d c2d0 9d3d 1257 cfbc 059e 2b3d
00000130: fcf0 cd3b 4583 5f3d 9fc8 bfbd c7ec 23bd
00000140: 2e03 573d fa9e 113e 4433 d23d a023 8f3c
00000150: 3ec9 083c d157 fd3d 4040 043d 356b 7fbd
00000160: 0f32 de3d 939a 3e3d a866 093d ee99 0fbd
00000170: 50c8 67bb e04b ce3b 4361 c13c e1da d0bd
00000180: d71c c03c 9df7 0b3d 1f6e 983d 9f51 843d
00000190: 52df 953d 713e afbc 325e 983d ac92 6b3d
000001a0: 88dd df3d 2b58 1cbc a0e1 7cbd 8c0b 0e3d
000001b0: 932b b73d 7c65 0ebd e5e4 063c 98d2 ebbc
000001c0: 9850 3ebe 73af 9abd c52b c7bc 610c abbc
000001d0: ef3b 88bd 0a98 353b b209 8cbd 5c6c e3bd
000001e0: cba3 23bd 2081 36bd 0b09 06be 344a 7c3d
000001f0: 72d9 21bd b79e e6bd 10b8 383d b955 b0bd
00000200: 1456 9cbd b4e4 293c f8f8 b13d 29b0 723c
00000210: c194 05bb 976e bd3c f9a6 4f3d 6687 27bd
00000220: a011 a8bc 2c48 3fbd 939d a83b 698e 17bc
00000230: 7658 10bd 2943 85bb 3618 aabc 262e ccbc
00000240: d922 563c f97b 2b3c 2b41 003b b154 54b9
00000250: 46cf 403d 85cb 053d 627f f4bd 923f 223d
00000260: 4b08 7e3d ddc7 60ba d637 dc3d 5850 e1bc
00000270: 2255 013d 3a27 db3d 939e 403d ae6e 82bd
00000280: 3c7a 7abc af2c b93d acf1 bb3d d39c 003e
00000290: a8ed 563e 5b9b 073c 3142 08bc 0735 fd3d
000002a0: e053 1abd 4463 20be 347d 12bd b215 b33d
000002b0: 3c5a fb3d 6189 2c3d 6324 7f3d c95d aa3d
000002c0: 897b 3e3d ea41 f5bd 91ed d6bc c981 9e3c
000002d0: f8e3 893d 240f 9abd 71c2 98bd bd40 a43d
000002e0: aea5 7e3d e031 4dbd e844 68bd a275 983c
000002f0: 0c71 a13d e4e1 13be e8ff 0fbe 1fcb 7fbb
00000300: d81e 1b3d 13a6 babd cf21 d3bd 42b3 24bd
00000310: 86c8 f0bd ef41 5bbd 9c5a ffbd 38c0 e0bd
00000320: 17fc 9dbd ae0a 8dbd 10ef 74bd fe10 a7bd
00000330: fecd 943d bed3 0fbd 7092 66bd dd0a 153d
00000340: ba7f 21bd 7895 9c3c c798 e13c ffbf 513d
00000350: 67cc d33c e6a3 50bd 5f4f 14bd d66f 093d
00000360: 9ea9 50bc 4927 033d 12b8 58bb 5e8b 5bbd
00000370: df81 18bd 06b5 1bba 56d5 c0bc 7f1e 51bc
00000380: 91f4 33bc 5140 6dba 4553 5b3c 70e3 28bc
00000390: 6e29 b23c e4ef f2bc 8de3 1c3d 33e3 a0bd
000003a0: 6b37 ffbc 7d2c 9f3d 999f ac3c 8d0a a7bb
000003b0: ca4b 03bd 930c 03bd 37e1 a03b 73e6 39bc
000003c0: 28ae 72bc 3e0b 9fbd 9f88 803d 2b59 a93a
000003d0: 5ac1 223d 21fb 3ebd 85a7 bf3c f270 e93d
000003e0: e2e4 2c3d 3a0c 83bd f089 873d fb38 d93d
000003f0: b23c e93b 1cc6 033c 85cf 763d c4f1 9dbd

g_model.conv2.bias f4 [32]
0.038592327 -0.0015676734 -0.0024838 0.018392736 0.03678788 -0.011968727 0.028108671 -0.05102888
-0.0052713216 -0.032820653 0.024638692 -0.023810586 -0.027631452 0.042230144 0.033980038 0.019266363
0.026726753 0.051687647 0.028695356 0.018234435 0.0047413427 -0.050827947 -0.018813249 0.019925049
-0.003903575 0.020711925 0.031971578 -0.032828636 -0.0065027354 -0.035396222 -0.034105748 0.02532047
00000000: fd12 1e3d 647a cdba 40c7 22bb 5dac 963c
00000010: e3ae 163d 7b18 44bc 2844 e63c a903 51bd
00000020: 0dbb acbb f36e 06bd 15d7 c93c 6b0e c3bc
00000030: 5b5b e2bc 84f9 2c3d a72e 0b3d 7ed4 9d3c
00000040: 10f2 da3c 6db6 533d 8612 eb3c 6260 953c
00000050: 445d 9b3b f730 50bd 3e1e 9abc db39 a33c
00000060: 1fd3 7fbb 0eac a93c a1f4 023d 5277 06bd
00000070: e614 d5bb a1fb 10bd 78b2 0bbd e06c cf3c

g_model.fc1.weight f4 [128, 800]
-0.021878818 -0.015509178 -0.01841027 0.0031316243 -0.018353641 -0.031872585 -0.027389422 -0.0075170696
-0.036286827 -0.035864875 -0.024286408 0.032694455 -0.01793564 -0.00578018 -0.03572049 0.00412947
0.010587847 -0.023781657 -0.003987341 -0.041067466 -0.0071254633 0.020488635 -0.01317552 0.052535616
0.030192984 -0.013898476 -0.026344836 -0.022038748 0.01762325 0.01109917 -0.018431066 -0.030827785
-0.0064851823 -0.03161857 -0.023749938 -0.011062211 -0.006833324 0.025741968 0.05904191 0.005683312
0.011333129 -0.009478083 -0.015373819 -0.03891431 -0.042759627 0.021736842 -0.013859546 0.0077846195
0.0359171 0.06866827 0.0031739422 -0.042702526 -0.008083225 0.0074916044 0.029596249 -0.0046532718
-0.07048233 -0.028135082 0.017013626 0.031925913 0.013323799 0.05112737 0.014691967 -0.010338883
-0.026770206 0.04257943 0.003471938 -0.027550751 0.011952439 -0.072383404 0.03385011 -0.007839531
0.016831335 0.027215721 0.037551355 -0.0039363564 0.049171556 0.016472563 0.014842633 -0.006083139
0.0030704695 0.023063656 0.0035466864 0.00848991 -0.06332947 0.01334838 -0.064929366 -0.031741735
0.028741213 -0.06486997 -0.04976629 -0.009170639 0.0670388 0.017271953 -0.06199827 -0.003673294
0.018612152 0.006562078 -0.0015034686 -0.024662523 -0.008446768 0.024064917 0.07930068 0.036532067
0.03361908 -0.0034107235 0.028212301 -0.01541953 -0.023384228 -0.042814832 0.020844169 -0.03846888
-0.06089805 -0.005833646 -0.05269141 0.012255444 -0.04667334 0.025294093 0.024072956 0.0011548179
0.0038123115 0.024670023 0.025873464 -0.005140711 0.011636041 0.003375474 0.03702344 0.06505586
0.14124422 0.07032489 -0.0069872295 -0.039243452 0.044385552 0.01998309 0.07739789 0.014640604
0.03340673 0.003771331 0.01879343 0.00769015 0.04235464 0.0022980748 0.06602755 -0.050133925
-0.049179748 -0.011242099 0.04873117 0.021058444 0.055560336 -0.005286328 -0.013024335 -0.025059422
0.0090142405 0.0020170088 0.003877918 0.017026491 0.0038427112 0.032696508 -0.023625338 -0.023899494
-0.014339985 -0.0016085992 0.012494686 0.05651494 0.010944992 0.044202704 -0.023055945 0.024864145
0.016006716 -0.027651226 -0.003756949 0.005300146 0.0043749013 0.025064502 0.046525806 0.004359146
-0.03480408 -0.015465249 0.03472714 0.057805255 -0.031942926 -0.044904653 0.05160585 0.041792247
0.040096562 -0.007091557 -0.03524103 0.03435345 0.057407327 -0.020391313 0.018745989 0.034621764
0.0133113805 0.0088949585 -0.055658214 0.032806877 0.018959636 0.010361825 0.027888818 0.0021467805
-0.029950054 -0.010472488 0.013931722 -0.029072924 -0.008021424 0.017653821 -0.020926103 0.056091297
-0.013401318 -0.06219679 0.019850936 -0.0046343864 0.03091532 0.040158514 -0.031794146 -0.007323509
0.021592528 0.020639412 0.020908466 -0.034212183 0.0010847057 -0.032105304 -0.010398089 0.0054007424
0.040172596 0.02197714 0.0013764368 -0.020306615 -0.05149482 -0.047145408 -0.015903644 0.012179217
0.0034655628 0.014430153 -0.06322247 -0.0042745 -0.025971597 -0.047465015 -0.018591546 -0.014222643
-0.03320768 0.014357044 0.0042573526 -0.022266416 -0.02808843 -0.028124608 -0.01782618 0.0330372
0.015419338 0.009102092 -0.02223282 0.024646489 0.016128998 -0.01772717 -0.029919893 0.01789864
00000000: 353b b3bc 351a 7ebc 22d1 96bc f03b 4d3b
00000010: 605a 96bc d48c 02bd c85f e0bc c051 f6bb
00000020: 7fa1 14bd 0ce7 12bd 4af4 c6bc 9fea 053d
00000030: c3ed 92bc aa67 bdbb a64f 12bd 8150 873b
00000040: a678 2d3c c0d1 c2bc 3ea8 82bb 5c36 28bd
00000050: b87c e9bb c8d7 a73c 23de 57bc 962f 573d
00000060: 4757 f73c 6fb6 63bc 20d1 d7bc 9b8a b4bc
00000070: a25e 903c 4bd9 353c bffc 96bc 8d8a fcbc
00000080: a781 d4bb 7982 01bd 3b8f c2bc 473e 35bc
00000090: 14ea dfbb d2e0 d23c eed5 713d 143b ba3b
000000a0: 97ae 393c f649 1bbc 78e2 7bbc 9d64 1fbd
000000b0: b824 2fbd 7611 b23c 2613 63bc 1f16 ff3b
000000c0: cf1d 133d f3a1 8c3d ea01 503b d8e8 2ebd
000000d0: 816f 04bc 227c f53b d573 f23c 797a 98bb
000000e0: 0a59 90bd 8b7b e6bc 2960 8b3c bfc4 023d
000000f0: 104c 5a3c ef6a 513d 93b6 703c 6b64 29bc
00000100: 314d dbbc c567 2e3d 7489 633b 1db2 e1bc
00000110: 2ad4 433c c03d 94bd 6aa6 0a3d 6071 00bc
00000120: dee1 893c 81f3 de3c 73cf 193d 8dfc 80bb
00000130: 1d68 493d 78f1 863c 842e 733c 1255 c7bb
00000140: ee39 493b feef bc3c 866f 683b 4319 0b3c
00000150: e2b2 81bd 2ab3 5a3c b0f9 84bd 9f03 02bd
00000160: b172 eb3c 8cda 84bd bdd7 4bbd 7340 16bc
00000170: a34b 893d e97d 8d3c e6f1 7dbd a6bb 70bb
00000180: 8378 983c b306 d73b 0910 c5ba 0f09 cabc
00000190: 5064 0abc ca23 c53c 6568 a23d a6a2 153d
000001a0: 29b4 093d 7286 5fbb 7c1d e73c 32a2 7cbc
000001b0: 4890 bfbc 9b5e 2fbd 64c1 aa3c 8b91 1dbd
000001c0: 3c70 79bd 2b28 bfbb f3d2 57bd 0fcb 483c
000001d0: 8b2c 3fbd 8f35 cf3c a634 c53c 425d 973a
000001e0: f9d7 793b ca18 ca3c 96f4 d33c 6973 a8bb
000001f0: 18a5 3e3c 0e37 5d3b e4a5 173d 023c 853d
00000200: 53a2 103e 7f06 903d 21f5 e4bb bebd 20bd
00000210: a0cd 353d 94b3 a33c c982 9e3d 25df 6f3c
00000220: 7fd5 083d 6f28 773b aef4 993c a7fd fb3b
00000230: 0f7c 2d3d 4c9b 163b 7439 873d 3b59 4dbd
00000240: b470 49bd c830 38bc 569a 473d c282 ac3c
00000250: 3c93 633d ef38 adbb 0564 55bc 6b49 cdbc
00000260: 77b0 133c cb2f 043b ab24 7e3b 247b 8b3c
00000270: ffd5 7b3b c6ec 053d ed89 c1bc dfc8 c3bc
00000280: 42f2 6abc a2d7 d2ba 83b6 4c3c 367c 673d
00000290: a052 333c e50d 353d d2df bcbc e4af cb3c
000002a0: 8420 833c d384 e2bc 2537 76bb d9ac ad3b
000002b0: 555b 8f3b 1254 cd3c d891 3e3d 2bd7 8e3b
000002c0: b98e 0ebd f561 7dbc 0c3e 0e3d 34c5 6c3d
000002d0: 96d6 02bd f1ed 37bd a860 533d 592e 2b3d
000002e0: 4b3c 243d 4b60 e8bb e658 10bd 34b6 0c3d
000002f0: f223 6b3d af0b a7bc 3091 993c 8dcf 0d3d
00000300: fa17 5a3c 29bc 113c def9 63bd 8160 063d
00000310: 3d51 9b3c a5c4 293c 1777 e43c 00b1 0c3b
00000320: d159 f5bc cc94 2bbc e141 643c 572a eebc
00000330: 4a6c 03bc bf9e 903c 386d abbc fdbf 653d
00000340: 3491 5bbc 10c2 7ebd 6e9e a23c 0ddc 97bb
00000350: 2042 fd3c 417d 243d 943a 02bd 0cfa efbb
00000360: d0e2 b03c fc13 a93c 3b48 ab3c 1322 0cbd
00000370: af2c 8e3a da80 03bd bf5c 2abc b6f8 b03b
00000380: 058c 243d 6709 b43c 8e69 b43a 0f5a a6bc
00000390: 3bec 52bd 8b1b 41bd 5c48 82bc 578b 473c
000003a0: 7f1e 633b 736c 6c3c c87a 81bd 1b11 8cbb
000003b0: 63c2 d4bc ad6a 42bd 4c4d 98bc 1706 69bc
000003c0: c704 08bd cf39 6b3c 4381 8b3b 0f68 b6bc
000003d0: b519 e6bc 9465 e6bc 3608 92bc 0452 073d
000003e0: 64a1 7c3c f120 153c 9a21 b6bc 6fe7 c93c
000003f0: f620 843c 9238 91bc 901a f5bc 2ba0 923c

g_model.fc1.bias f4 [128]
0.020479305 0.021923387 -0.046969913 0.008193695 0.010973378 -0.011922644 -0.011935158 -0.01635242
0.021157205 0.009169043 0.01558123 -0.017022045 0.048873924 -0.031725824 0.04003201 0.008390387
0.031506047 0.010642415 -0.012650779 0.0011960812 -0.031963784 -0.038292363 -0.0030850489 0.010096645
-0.017647577 0.03282348 0.018351363 -0.022148939 0.015544323 -0.022268174 -0.009385069 -0.020939033
0.012234514 0.0061349375 -0.008487675 -0.008485173 0.0035105485 -0.01955691 -0.02393638 -0.021453751
0.006500389 0.0062511098 0.033446416 0.010006722 0.022051906 -0.008460098 -0.028089166 -0.03349731
-0.0028994372 -4.6496418e-05 -0.04654887 0.031864006 0.00050003425 0.021762691 0.049579926 0.04614865
-0.029278591 -0.014616615 -0.028639007 0.028756673 -0.01401201 0.015482914 0.030351011 -0.027652258
0.027922573 -0.009246968 0.007881893 0.0040308787 0.004522489 -0.027969545 -0.03509234 -0.0029625136
-0.015428691 -0.03535805 0.01899028 -0.030882014 0.008390307 -0.0011496448 -0.00556924 0.023828432
-0.03368249 0.015183833 -0.018063217 0.00085638155 -0.0044748383 -0.00010248538 0.028342107 0.0016532423
-0.0017220137 0.01425692 -0.032115873 -0.018150927 0.0144618405 0.008780802 -0.025470186 0.0039476654
0.023653533 -0.024087656 0.024633411 0.050862934 -0.012695528 0.013578029 0.001073315 0.0086101005
0.054930184 0.002412057 0.024987046 0.01980835 0.022505024 -0.032150686 0.031545717 0.020277012
0.02127401 0.00025609892 0.016856875 0.01689156 -0.019148618 -0.02342104 -0.035813652 0.0062358715
-0.0094445 0.024442172 0.017353194 -0.0014224773 0.01129265 -0.012780276 -0.003304777 0.0074127954
00000000: 37c4 a73c ad98 b33c 8663 40bd d93e 063c
00000010: afc9 333c 3257 43bc ae8b 43bc 83f5 85bc
00000020: e051 ad3c c139 163c 6a48 7f3c d171 8bbc
00000030: 0630 483d f0f2 01bd 9bf8 233d d577 093c
00000040: 7c0c 013d 865d 2e3c 3745 4fbc d3c5 9c3a
00000050: 75ec 02bd 74d8 1cbd 882e 4abb 666c 253c
00000060: a791 90bc ea71 063d 9955 963c b171 b5bc
00000070: 9ead 7e3c bf6b b6bc d5c3 19bc 5688 abbc
00000080: 4573 483c 9607 c93b e40f 0bbc 6505 0bbc
00000090: 3b11 663b d035 a0bc 3a16 c4bc c7bf afbc
000000a0: 3701 d53b 1cd6 cc3b 1cff 083d 3cf3 233c
000000b0: 33a6 b43c 399c 0abc 401b e6bc 7a34 09bd
000000c0: 7c04 3ebb 2605 43b8 07aa 3ebd d583 023d
000000d0: bb14 033a ac47 b23c 5214 4b3d 5e06 3d3d
000000e0: a8d9 efbc 877a 6fbc 5a9c eabc 1d93 eb3c
000000f0: a192 65bc 0cac 7d3c afa2 f83c fd86 e2bc
00000100: e1bd e43c 9880 17bc 0e23 013c 7615 843b
00000110: 6331 943b 6320 e5bc fcbc 0fbd bb26 42bb
00000120: 9fc8 7cbc 9ad3 10bd 8191 9b3c 47fc fcbc
00000130: 8077 093c aeaf 96ba 2c7e b6bb d833 c33c
00000140: a7f6 09bd 9dc5 783c 50f9 93bc cb7e 603a
00000150: aaa1 92bb 6bed d6b8 b52d e83c 9bb1 d83a
00000160: 31b5 e1ba db95 693c ef8b 03bd 41b1 94bc
00000170: 5bf1 6c3c 5add 0f3c daa6 d0bc 6b5b 813b
00000180: 0ec5 c13c 7a53 c5bc 02cc c93c a755 503d
00000190: e700 50bc 6276 5e3c 7aae 8c3a 6111 0d3c
000001a0: 79fe 603d 9a13 1e3b a2b1 cc3c 1f45 a23c
000001b0: 755c b83c 70b0 03bd 1536 013d fa1b a63c
000001c0: d546 ae3c 0445 8639 6e17 8a3c 2b60 8a3c
000001d0: 90dd 9cbc 7bdd bfbc 56b1 12bd 4856 cc3b
000001e0: 1bbd 1abc f33a c83c 4928 8e3c 6b72 baba
000001f0: cf04 393c 5d64 51bc f594 58bb 09e7 f23b

g_model.fc2.weight f4 [18, 128]
-0.15017727 0.10634878 -0.12950662 0.065469496 0.12432904 0.06330591 -0.003052274 0.015398495
0.055741776 0.073094524 -0.011067905 -0.050210766 0.013502442 -0.10271933 0.081944704 -0.011443746
-0.066377826 -0.08821483 0.1408566 -0.048039816 -0.042937543 -0.01457762 0.07694627 0.017754814
0.1052748 -0.00987972 0.01016228 -0.038725093 -0.046194755 0.08655477 0.018111657 -0.16390099
-0.1123906 0.0559884 -0.09780713 -0.022835348 0.04301663 -0.07259357 0.007982406 -0.0011445031
-0.114995316 0.02458683 0.08110139 0.101041675 0.032016456 -0.08025405 0.022546912 0.005005083
0.13647243 0.04336697 0.17556234 0.014793412 -0.06340234 -0.118026905 0.024996461 -0.038860213
-0.0043203384 0.090980545 -0.08914084 -0.04137313 0.008711755 -0.053003248 0.0172023 0.014649788
-0.03474847 0.048632074 0.019409584 -0.069829255 0.027187118 -0.15859005 0.078492135 0.008641655
0.09104422 0.030446203 -0.049277145 -0.014189757 -0.058578778 0.079687506 -0.115187556 0.02343614
-0.07283033 0.0008071099 0.05449797 -0.06893345 0.052131124 -0.108470716 -0.016600091 0.08406128
-0.16188239 0.027583059 0.024986958 0.078804046 0.01603149 -0.056934316 -0.10065432 0.14593133
-0.0934448 0.029918782 -0.031991247 -0.05779045 0.010355602 0.08020502 0.015682535 -0.03164227
-0.106776945 -0.11727208 -0.10013715 0.01652945 0.08970988 -0.011379223 0.046522107 0.090188794
-0.074430056 0.070895895 -0.15932979 -0.056211434 0.066682175 0.008856033 0.0715632 0.007801056
-0.0038907058 -0.11029575 0.08940579 0.045659225 -0.07803172 0.0036967797 0.110563494 0.059098557
0.080618046 0.037419327 0.06951067 0.09554086 -0.07101058 -0.03708384 0.054117408 -0.013401363
-0.08076107 0.055922963 -0.03776849 0.06511326 0.17654805 -0.14057454 -0.006788636 0.048615057
0.046844628 0.048711233 0.03353259 -0.054539938 -0.105425574 -0.06201602 -0.103797026 -0.07275291
-0.052230936 -0.02953594 0.08941624 0.110834606 -0.12104995 -0.03705577 0.067746915 0.12441393
0.044929482 -0.010732758 -0.04149669 -0.025313307 0.012347826 -0.12276552 0.068178385 -0.11875718
0.11004743 0.1217971 -0.07951472 -0.09671225 0.15798965 0.13666655 0.08274884 0.068560794
-0.046320632 -0.015319589 0.0689772 0.13786875 -0.11606978 -0.13697413 -0.1141371 -0.10376421
-0.06289419 -0.12181651 -0.06922782 -0.04233723 -0.05604849 0.0021167821 -0.07415843 0.12615712
0.010963036 -0.17986256 0.010227616 -0.027776735 0.056518216 0.0071798535 -0.087948866 -0.010139607
-0.17301486 -0.07126227 0.024329895 -0.16191936 0.05236618 -0.04802373 0.06804068 0.021800699
-0.081114165 -0.1518332 -0.025018761 -0.12621997 -0.05211171 0.011691332 0.10270273 -0.0060186717
-0.025075277 0.049562104 -0.07888191 0.082126744 0.06559912 -0.11951462 -0.00510564 -0.056864426
-0.06377205 -0.026949277 0.023721619 0.08560953 -0.06388391 0.06909737 0.07821735 0.017825658
0.14431874 -0.10067907 0.07931821 -0.026083212 0.07286871 0.0007330728 -0.11128774 -0.03711586
-0.16889738 -0.13028225 0.06198287 0.045766022 0.0037403286 0.14757924 0.059745263 0.08694701
0.0066995984 -0.09118003 0.08518842 -0.15654886 0.070902675 -0.056959093 -0.010095424 -0.13659543
00000000: 12c8 19be 64cd d93d 629d 04be df14 863d
00000010: 39a0 fe3d 87a6 813d a908 48bb f849 7c3c
00000020: 7d51 643d 95b2 953d 2956 35bc cea9 4dbd
00000030: 5939 5d3c 835e d2bd a0d2 a73d 8d7e 3bbc
00000040: 19f1 87bd faa9 b4bd b63c 103e 66c5 44bd
00000050: 47df 2fbd f8d6 6ebc 0296 9d3d 8b72 913c
00000060: 509a d73d 8dde 21bc b17f 263c 349e 1ebd
00000070: b636 3dbd a143 b13d e65e 943c a9d5 27be
00000080: 0b2d e6bd 1854 653d 1b4f c8bd 3211 bbbc
00000090: 3532 303d f0ab 94bd a3c8 023c 2703 96ba
000000a0: aa82 ebbd 526a c93c 7c18 a63d f0ee ce3d
000000b0: b023 033d 3c5c a4bd 4db4 b83c ae01 a43b
000000c0: 6ebf 0b3e 90a1 313d 9dc6 333e 1160 723c
000000d0: 16d9 81bd 17b8 f1bd 61c5 cc3c e32b 1fbd
000000e0: a091 8dbb 0254 ba3d 798f b6bd df76 29bd
000000f0: c0bb 0e3c ef19 59bd d6eb 8c3c aa05 703c
00000100: 6954 0ebd 6d32 473d d900 9f3c a402 8fbd
00000110: 85b7 de3c 6e65 22be 7cc0 a03d ba95 0d3c
00000120: 6475 ba3d 516a f93c d5d6 49bd 287c 68bc
00000130: 4df0 6fbd 3433 a33d 74e7 ebbd 26fd bf3c
00000140: 1128 95bd 3a94 533a 4339 5f3d fb2c 8dbd
00000150: 7287 553d e525 debd eafc 87bc 5228 ac3d
00000160: 7fc4 25be def5 e13c 73b1 cc3c 0464 a13d
00000170: 7954 833c f533 69bd da23 cebd 066f 153e
00000180: fd5f bfbd 3c18 f53c 4109 03bd aeb5 6cbd
00000190: 8baa 293c 8842 a43d a978 803c 539b 01bd
000001a0: dfad dabd 582c f0bd b514 cdbd c568 873c
000001b0: d0b9 b73d ec6f 3abc f78d 3e3d e7b4 b83d
000001c0: c96e 98bd de31 913d 5927 23be f63d 66bd
000001d0: aa90 883d e518 113c ba8f 923d 00a0 ff3b
000001e0: 36fb 7ebb bde2 e1bd 621a b73d 2b05 3b3d
000001f0: 18cf 9fbd ac45 723b 1d6f e23d 5411 723d
00000200: 131b a53d 0245 193d 9c5b 8e3d edaa c33d
00000210: ff6d 91bd 3ae5 17bd 37aa 5d3d 6491 5bbc
00000220: 0f66 a5bd 7a0f 653d 22b3 1abd 1a5a 853d
00000230: 03c9 343e c6f2 0fbe 3573 debb 9520 473d
00000240: 27e0 3f3d 6e85 473d 7859 093d 4565 5fbd
00000250: 5de9 d7bd 8304 7ebd 8993 d4bd 7aff 94bd
00000260: 1bf0 55bd 5bf5 f1bc dd1f b73d 41fd e23d
00000270: 09e9 f7bd cbc7 17bd e5be 8a3d bbcc fe3d
00000280: fa07 383d 73d8 2fbc 6ff8 29bd da5d cfbc
00000290: 894e 4a3c 7d6c fbbd 1ca1 8b3d f736 f3bd
000002a0: 8c60 e13d c270 f93d 9dd8 a2bd 1211 c6bd
000002b0: 0ac8 213e 51f2 0b3e 3978 a93d 9a69 8c3d
000002c0: b4ba 3dbd 03ff 7abc eb43 8d3d 772d 0d3e
000002d0: feb5 edbd f242 0cbe b6c0 e9bd 5582 d4bd
000002e0: abce 80bd ef7a f9bd 51c7 8dbd ce69 2dbd
000002f0: 1a93 65bd b6b9 0a3b 60e0 97bd 552f 013e
00000300: 4e9e 333c e42d 38be bb91 273c 098c e3bc
00000310: a57f 673d fa44 eb3b 891e b4bd 9820 26bc
00000320: cf2a 31be f4f1 91bd 7d4f c73c 30ce 25be
00000330: eb7d 563d 88b4 44bd e958 8b3d 6197 b23c
00000340: 2f1f a6bd 2a7a 1bbe 25f4 ccbc cf3f 01be
00000350: 1773 55bd 008d 3f3c cf55 d23d 4738 c5bb
00000360: ab6a cdbc a201 4b3d d78c a1bd 1132 a83d
00000370: d558 863d 15c4 f4bd 364d a7bb acea 68bd
00000380: ec9a 82bd bbc4 dcbc d753 c23c 0d54 af3d
00000390: 91d5 82bd ec82 8d3d 6b30 a03d 1d07 923c
000003a0: 4bc8 133e d430 cebd 9671 a23d 76ac d5bc
000003b0: 313c 953d af2b 403a d4ea e3bd cd06 18bd
000003c0: 6ff3 2cbe b668 05be c0e1 7d3d 2775 3b3d
000003d0: 4d20 753b 031f 173e 73b7 743d 4611 b23d
000003e0: 4e88 db3b 98bc babd 4477 ae3d 584e 20be
000003f0: 6c35 913d f04d 69bd 4767 25bc acdf 0bbe

g_model.fc2.bias f4 [18]
-0.033268474 -0.026087692 -0.02881717 -0.10587382 0.04941452 -0.04658122 -0.03580138 -0.04195836
0.060833097 0.024730355 -0.015376066 0.06628235 0.02784225 0.08233783 -0.075573586 -0.07700354
-0.034469802 0.07023427
00000000: 8644 08bd dbb5 d5bc fc11 ecbc 60d4 d8bd
00000010: e166 4a3d f3cb 3ebd 78a4 12bd 87dc 2bbd
00000020: 202c 793d 5097 ca3c e5eb 7bbc 0abf 873d
00000030: 6e15 e43c bca0 a83d 53c6 9abd 08b4 9dbd
00000040: 3530 0dbd fcd6 8f3d

f_model.fc1.weight f4 [32, 18]
-0.11026418 0.037183426 -0.1336858 0.07057524 0.024931066 0.3668163 -0.18355872 -0.08425157
-0.24461983 0.3822644 -0.09706237 0.099364705 0.07115462 -0.15866995 -0.111968175 0.16278388
-0.31576556 -0.034629613 0.03472069 0.08729129 0.13254195 0.16380602 -0.10492215 0.17936362
-0.25944766 -0.09601072 -0.053114247 -0.24155703 -0.2838122 0.049218692 0.28866303 -0.22937497
0.00018145346 -0.08213162 0.34304845 0.12937762 0.052083474 0.3077301 -0.07972165 -0.0010704041
0.17916957 0.0040966864 -0.10465578 -0.37572223 -0.1974863 -0.04105192 0.1325851 -0.2753125
0.11843166 0.041392058 0.23119731 0.13901794 0.29190537 0.07317704 -0.22022812 0.1152277
-0.28289762 -0.13500942 0.2914586 -0.0060456675 -0.029402332 0.075269125 -0.103835925 0.47279996
-0.010236751 -0.086096294 -0.027942415 -0.094271705 -0.2960234 -0.1307236 -0.1333227 -0.1295067
-0.12488911 -0.24290931 -0.16390797 -0.10219032 0.12760788 0.17437334 -0.18589818 -0.10882297
-0.43554455 0.015293511 0.0019963183 -0.14043751 -0.45073193 0.13447613 0.14255583 0.20395872
-0.037659883 -0.25490332 -0.06614027 -0.16864519 -0.08964499 -0.099770896 0.00852681 0.16726692
-0.044513308 -0.15121357 -0.15068111 -0.106124915 -0.03026939 -0.16103016 0.38891554 -0.33122545
0.21270727 0.08326656 -0.3014186 0.3356936 -0.09634577 -0.10263689 0.05825387 -0.047858905
-0.02418858 0.13489592 -0.3006671 0.19790037 -0.2572537 0.19833526 0.053915597 0.09466667
0.19054009 -0.18560047 0.23533908 -0.0008537333 -0.038175195 -0.010584493 -0.11268991 0.03652681
0.22052461 -0.2624388 0.10666501 -0.102797 -0.03358007 -0.23385794 -0.13467693 0.09632961
0.08434478 -0.17600885 -0.13787806 -0.11708324 -0.23099315 0.18341528 0.101119414 -0.2966673
-0.13336886 0.047111884 0.25308067 -0.0102813775 -0.122562826 0.032940775 0.21877928 0.012964427
0.06431477 -0.1651194 0.058728456 -0.1256067 -0.08915592 0.25889963 -0.042379178 0.0413319
0.1899646 0.24430373 -0.16043548 -0.045178052 -0.091199264 -0.23111032 0.07059265 -0.22440694
-0.051118594 0.079142645 0.14049014 0.20078197 -0.19402657 -0.12925181 0.23863383 -0.023335207
-0.362826 0.2189952 0.017362827 -0.13552234 0.1546612 -0.14511862 -0.08931652 -0.17680502
-0.16776578 0.015382459 -0.042471472 0.007035193 0.075329505 0.13815537 0.30868784 -0.0035311014
0.24755013 0.077943034 0.37801495 -0.2722405 0.12671408 0.021542406 0.104287386 -0.19644788
-0.31183177 0.029022297 -0.18896405 0.12672406 0.05893298 -0.06979026 0.07661649 -0.08271829
0.102040164 0.13498312 -0.010841331 0.23538457 -0.29409206 -0.18073781 -0.30386633 0.22594221
0.17882174 -0.28663 0.07235728 0.24054903 -0.2810653 -0.106846556 -0.20032333 -0.19220944
0.021877179 -0.0064207655 -0.17300153 -0.1924216 0.053528327 -0.087603144 0.3003111 -0.31572598
0.16840461 -0.28816634 -0.20424607 0.23267393 -0.11263866 -0.21472824 0.106576905 -0.120104805
-0.1721453 -0.10185977 -0.008924682 0.22824165 0.33524483 -0.23958945 -0.11302755 -0.21384099
0.12540573 -0.028434014 -0.2593101 0.17020682 0.10753367 -0.023784833 -0.22713776 -0.040176723
00000000: 30d2 e1bd a64d 183d eee4 08be c089 903d
00000010: 3c3c cc3c 59cf bb3e d1f6 3bbe 168c acbd
00000020: 9f7d 7abe 29b8 c33e a3c8 c6bd b97f cb3d
00000030: 83b9 913d 607a 22be 924f e5bd d1b0 263e
00000040: 06ac a1be c8d7 0dbd 4837 0e3d c7c5 b23d
00000050: 14b9 073e c4bc 273e 6de1 d6bd 19ab 373e
00000060: 53d6 84be 45a1 c4bd 538e 59bd ba5a 77be
00000070: d54f 91be 8a99 493d a4cb 933e 46e1 6abe
00000080: 8b44 3e39 9f34 a8bd 0ca4 af3e 917b 043e
00000090: 7b55 553d cd8e 9d3e 1b45 a3bd cd4c 8cba
000000a0: 3a78 373e 7f3d 863b c555 d6bd aa5e c0be
000000b0: d939 4abe 0f26 28bd 63c4 073e c3f5 8cbe
000000c0: 4c8c f23d b88a 293d fdbe 6c3e b85a 0e3e
000000d0: 9f74 953e d8dd 953d 7b83 61be 80fc eb3d
000000e0: f5d7 90be e93f 0abe 103a 953e bc1a c6bb
000000f0: 29dd f0bc b326 9a3d eea7 d4bd d612 f23e
00000100: 0cb8 27bc 4153 b0bd 7ee7 e4bc 8611 c1bd
00000110: 6190 97be 68dc 05be bf85 08be 689d 04be
00000120: ddc5 ffbd 38bd 78be 7ed7 27be 2949 d1bd
00000130: a4ab 023e ed8e 323e 185c 3ebe 94de debd
00000140: b2ff debe a291 7a3c aad4 023b dace 0fbe
00000150: 56c6 e6be 1cb4 093e 28fa 113e 8eda 503e
00000160: 4041 1abd b082 82be 8d74 87bd 53b1 2cbe
00000170: cb97 b7bd af54 ccbd 09b4 0b3c 0548 2b3e
00000180: 9653 36bd bbd7 1abe 264c 1abe 0558 d9bd
00000190: 83f7 f7bc 17e5 24be f01f c73e 6296 a9be
000001a0: efcf 593e a987 aa3d 8a53 9abe 08e0 ab3e
000001b0: ee50 c5bd 4a33 d2bd 9c9b 6e3d b307 44bd
000001c0: 2127 c6bc 2822 0a3e 0af1 99be 65a6 4a3e
000001d0: c2b6 83be 6618 4b3e 9ad6 5c3d 99e0 c13d
000001e0: f11c 433e 0d0e 3ebe bafc 703e 12cd 5fba
000001f0: 985d 1cbd 956a 2dbc f8c9 e6bd 239d 153d
00000200: 34d1 613e 615e 86be 2f73 da3d 3c87 d2bd
00000210: 418b 09bd 7578 6fbe c0e8 09be 7548 c53d
00000220: f5bc ac3d aa3b 34be e82f 0dbe 56c9 efbd
00000230: 7889 6cbe 37d1 3b3e b217 cf3d c7e4 97be
00000240: d991 08be 64f8 403d ca93 813e 3973 28bc
00000250: 3802 fbbd e8ec 063d ad07 603e bf68 543c
00000260: 76b7 833d 0f15 29be 408d 703d 0b9f 00be
00000270: 6197 b6bd 7e8e 843e ca95 2dbd a34b 293d
00000280: 1586 423e c22a 7a3e 3349 24be 9f0c 39bd
00000290: aec6 babd 2fa8 6cbe e192 903d efca 65be
000002a0: bb61 51bd 8a15 a23d a6dc 0f3e ca99 4d3e
000002b0: e7ae 46be 965a 04be 6d5c 743e 7a29 bfbc
000002c0: 54c4 b9be 4740 603e 7d3c 8e3c 5ec6 0abe
000002d0: 815f 1e3e fa99 14be 94eb b6bd 600c 35be
000002e0: cbca 2bbe b606 7c3c 91f6 2dbd 7a87 e63b
000002f0: 5b46 9a3d 9a78 0d3e 550c 9e3e 0d6a 67bb
00000300: c87d 7d3e 99a0 9f3d 2d8b c13e 1b63 8bbe
00000310: 56c1 013e b379 b03c a094 d53d a229 49be
00000320: 6aa8 9fbe 2bc0 ed3c cb7f 41be f4c3 013e
00000330: b563 713d 32ee 8ebd 1be9 9c3d 3568 a9bd
00000340: 6ffa d03d 0439 0a3e d79f 31bc a708 713e
00000350: 3c93 96be 5513 39be 5e94 9bbe 655d 673e
00000360: 0c1d 373e 2bc1 92be 0e30 943d 7c52 763e
00000370: cae7 8fbe 5ed2 dabd 8f21 4dbe 8dd2 44be
00000380: c537 b33c 4965 d2bb 5027 31be 2b0a 45be
00000390: 8540 5b3d 4769 b3bd 60c2 993e d6a6 a1be
000003a0: 4272 2c3e 8a8a 93be e225 51be 1342 6e3e
000003b0: 19af e6bd b8e1 5bbe fe44 da3d 82f9 f5bd
000003c0: dc46 30be db9b d0bd d438 12bc 2eb8 693e
000003d0: 36a5 ab3e f056 75be fd7a e7bd 22f9 5abe
000003e0: 5c6a 003e 73ee e8bc 4bc4 84be b24a 2e3e
000003f0: 9d3a dc3d 69d8 c2bc cd96 68be 5990 24bd

f_model.fc1.bias f4 [32]
-0.054100163 0.22915086 0.1564855 0.1368318 -0.09661496 -0.11975503 -0.1444491 -0.21497133
0.16325125 0.056657895 0.23718466 -0.11393985 -0.12298973 -0.035907004 -0.20232934 -0.12846729
0.15636499 0.009890014 0.15843202 0.1958872 0.24629177 0.13431369 -0.05526978 0.2724534
-0.053560473 -0.20862442 -0.09471872 -0.19178984 0.12520497 0.0668596 0.09544681 0.10551318
00000000: 2298 5dbd 86a6 6a3e bc3d 203e a31d 0c3e
00000010: 10de c5bd 2042 f5bd 77ea 13be 7221 5cbe
00000020: 562b 273e 1c12 683d 89e0 723e 4c59 e9bd
00000030: 0ae2 fbbd 3913 13bd 6c2f 4fbe ee8c 03be
00000040: 251e 203e ba09 223c 013c 223e a796 483e
00000050: e933 7c3e 8789 093e 9162 62bd 037f 8b3e
00000060: 3a62 5bbd a4a1 55be e3fb c1bd 8e64 44be
00000070: bb35 003e b0ed 883d 9e79 c33d 4b17 d83d

f_model.fc2.weight f4 [10, 32]
-0.092877276 0.004464532 -0.119531386 0.013439115 -0.17247334 0.18159536 -0.14385553 0.0106129525
-0.15622355 -0.14856315 0.23268853 0.09454193 0.2188975 0.06692416 -0.15095225 0.086604886
-0.28437608 -0.063967764 0.07371004 -0.25031704 0.12386625 0.014793179 -0.1573539 -0.037854943
-0.25028783 0.105321765 0.29074562 -0.042051148 -0.1393006 0.019042172 -0.012170874 -0.31408936
-0.043775775 -0.19958822 0.31349337 -0.13134924 -0.2000047 -0.2031871 -0.2607216 -0.18907464
0.16647811 -0.22391057 0.13896511 -0.28801975 -0.07730999 0.20763764 -0.19331501 -0.07304829
-0.16878997 0.13991931 0.020270161 -0.08363156 0.23237325 -0.11628863 0.057858642 0.18918513
0.08666247 0.0767166 -0.14576037 -0.15202215 -0.029914822 -0.17275783 0.12768905 0.026650038
-0.042378053 0.022012414 -0.17389363 -0.19441296 -0.01956231 -0.22403799 -0.0037982864 0.15620159
0.22058283 -0.026759159 -0.018587712 -0.23762442 0.06546321 -0.1438053 -0.059454888 0.16004847
-0.25249258 0.21695352 0.032069433 0.23590197 -0.1858885 0.17003249 0.022175372 0.04301628
-0.030478315 -0.07884591 -0.24338868 -0.1652545 0.060716383 -0.05118132 -0.1390197 -0.2934974
-0.14918934 0.24343841 -0.021108111 -0.07513579 -0.15460818 0.0013464983 0.058555923 0.0048888163
-0.17861418 -0.03953498 0.0013445716 -0.36019635 0.20157221 -0.19239838 -0.10820547 -0.049693406
0.053327233 -0.044760242 0.13759483 0.10141079 -0.15941845 -0.1865436 -0.007164751 0.12018839
-0.20793493 -0.017011376 -0.10011434 0.14517333 0.063534856 -0.06844434 -0.37068832 0.14853689
-0.035009995 -0.05004086 0.12517264 0.20185204 0.07883341 -0.1752796 -0.24820387 0.17525817
-0.19734764 0.20746069 -0.32861185 -0.31323782 -0.009087646 0.1368654 -0.09051198 -0.2671152
0.0022514162 -0.2351175 0.14149266 0.053801566 -0.018915184 0.20078564 0.0141243925 -0.2061755
-0.30611992 -0.002435782 -0.021129835 -0.13548763 0.06805212 -0.06721496 0.15841082 0.08017123
0.100446425 0.023615038 -0.06004194 -0.009647242 0.16101034 -0.13294841 -0.04044905 -0.18839747
-0.07889373 -0.05538861 -0.033450913 0.17658766 0.09573848 -0.29248112 0.1451756 0.05236084
0.0063233348 -0.08795876 -0.058334906 -0.20024134 -0.16244148 -0.09942586 0.10949258 0.18667594
0.19935723 -0.17351079 -0.029614087 -0.0478327 0.053817995 -0.1676056 0.05614265 0.09396878
-0.07610898 -0.087215655 0.13701001 -0.07766151 -0.14237815 0.2003723 -0.3279992 -0.06787419
0.089284234 -0.06120782 -0.20523702 -0.0314333 -0.12259541 -0.04812957 0.015358537 0.023748022
0.1547638 -0.25035992 -0.35982287 -0.034739174 -0.24461937 0.20454803 0.02100041 0.009393785
-0.011603939 -0.23416743 0.04170311 -0.1305982 0.12661259 0.26919106 -0.09078861 -0.10633019
-0.12597941 -0.21343137 -0.32460225 0.040295333 0.021702403 -0.14212814 0.16114505 -0.18205008
-0.029649252 -0.025175747 0.15430452 -0.077898115 0.015381918 -0.009477427 0.20201178 -0.24686375
-0.1245711 0.1797163 0.13942648 0.07177602 0.24215916 -0.147605 -0.19879794 -0.27407286
-0.2782931 -0.16598788 0.0061418847 -0.18016145 -0.020045806 -0.03354835 0.13228108 -0.017802538
00000000: 7136 bebd 354b 923b dfcc f4bd bc2f 5c3c
00000010: da9c 30be 22f4 393e dd4e 13be f3e1 2d3c
00000020: 11f9 1fbe f020 18be e745 6e3e 339f c13d
00000030: ab26 603e 890f 893d 3a93 1abe e75d b13d
00000040: be99 91be 8801 83bd 4af5 963d 8e29 80be
00000050: 97ad fd3d 175f 723c 6121 21be c90d 1bbd
00000060: ba25 80be f0b2 d73d 9cdc 943e d33d 2cbd
00000070: d1a4 0ebe 54fe 9b3c 5868 47bc 52d0 a0be
00000080: 3a4e 33bd db60 4cbe 3482 a03e 6a80 06be
00000090: 08ce 4cbe 4710 50be 4d7d 85be c89c 41be
000000a0: 3d79 2a3e d048 65be df4c 0e3e 5377 93be
000000b0: b354 9ebd f69e 543e 5ff4 45be 589a 95bd
000000c0: 47d7 2cbe 0247 0f3e 9c0d a63c 0647 abbd
000000d0: 41f3 6d3e bc28 eebd 2ffd 6c3d bfb9 413e
000000e0: 187c b13d 981d 9d3d 3542 15be b2ab 1bbe
000000f0: ee0f f5bc 6ee7 30be ebc0 023e 2e51 da3c
00000100: 9c94 2dbd 6153 b43c 2c11 32be 3114 47be
00000110: 2341 a0bc 376a 65be acec 78bb 4ff3 1f3e
00000120: 77e0 613e 0636 dbbc 4245 98bc d153 73be
00000130: 9311 863d b241 13be f886 73bd bfe3 233e
00000140: b546 81be 1029 5e3e 3d5b 033d 4990 713e
00000150: 8e59 3ebe ff1c 2e3e 20a9 b53c d731 303d
00000160: a9ad f9bc f779 a1bd e23a 79be 7a38 29be
00000170: beb1 783d 81a3 51bd 2e5b 0ebe 4b45 96be
00000180: 17c5 18be eb47 793e ebea acbc cbe0 99bd
00000190: 9b51 1ebe fc7c b03a 56d8 6f3d 5d32 a03b
000001a0: a3e6 36be 6eef 21bd 563c b03a a86b b8be
000001b0: f268 4e3e 1504 45be d49a ddbd 508b 4bbd
000001c0: a86d 5a3d 8456 37bd a9e5 0c3e 76b0 cf3d
000001d0: 973e 23be 4905 3fbe 4ac6 eabb 5525 f63d
000001e0: e5ec 54be 715b 8bbc bf08 cdbd 51a8 143e
000001f0: 901e 823d 8c2c 8cbd dcca bdbe 0e1a 183e
00000200: a466 0fbd a5f7 4cbd 422d 003e 4db2 4e3e
00000210: 6973 a13d 7f7c 33be 2829 7ebe e176 333e
00000220: 8015 4abe 9370 543e d03f a8be b560 a0be
00000230: 5ae4 14bc 7226 0c3e 585e b9bd 53c3 88be
00000240: 7f8c 133b a4c2 70be 74e3 103e 085f 5c3d
00000250: 04f4 9abc c09a 4d3e ff69 673c ac1f 53be
00000260: c0bb 9cbe a4a1 1fbb 7a18 adbc 45bd 0abe
00000270: e95e 8b3d ffa7 89bd 7236 223e d030 a43d
00000280: dbb6 cd3d 5374 c13c 8aee 75bd 770f 1ebc
00000290: e5df 243e a123 08be e7ad 25bd 44eb 40be
000002a0: 0993 a1bd 2bdf 62bd d303 09bd 65d3 343e
000002b0: 8912 c43d 16c0 95be eaa8 143e 5278 563d
000002c0: fa33 cf3b b923 b4bd 95f0 6ebd 110c 4dbe
000002d0: 0f57 26be c99f cbbd a53d e03d fa27 3f3e
000002e0: 4d24 4c3e d0ac 31be 3e99 f2bc 39ec 43bd
000002f0: 4270 5c3d cda0 2bbe d6f5 653d b472 c03d
00000300: 06df 9bbd 1f9e b2bd 5a4c 0c3e ff0c 9fbd
00000310: 94cb 11be 652e 4d3e 83ef a7be a001 8bbd
00000320: a7da b63d 0db5 7abd a729 52be 34c0 00bd
00000330: 4d13 fbbd 8323 45bd 60a2 7b3c 368b c23c
00000340: 677a 1e3e 2d2f 80be b43a b8be aa4a 0ebd
00000350: 807d 7abe 0a75 513e 0d09 ac3c 64e8 193c
00000360: 731e 3ebc 96c9 6fbe e1d0 2a3d 89bb 05be
00000370: bba6 013e 69d3 893e 61ef b9bd a5c3 d9bd
00000380: bf00 01be c18d 5abe 4432 a6be b80c 253d
00000390: 3dc9 b13c 0a8a 11be 3503 253e 566b 3abe
000003a0: fde2 f2bc 5e3d cebc 0102 1e3e 0c89 9fbd
000003b0: 7104 7c3c 3647 1bbc 2ddc 4e3e dac9 7cbe
000003c0: 221f ffbd 8d07 383e d1c5 0e3e 4eff 923d
000003d0: 92f8 773e c425 17be b091 4bbe 4753 8cbe
000003e0: 6f7c 8ebe baf8 29be dd41 c93b 3e7c 38be
000003f0: 1a37 a4bc ff69 09bd b174 073e a1d6 91bc

f_model.fc2.bias f4 [10]
0.009314201 0.06254403 0.037724346 -0.08313848 0.0027853039 -0.056695808 0.18443029 0.12448446
0.11467677 -0.14223853
00000000: 979a 183c 1617 803d d884 1a3d 8244 aabd
00000010: a589 363b dd39 68bd 4bdb 3c3e b5f1 fe3d
00000020: a8db ea3d faa6 11be
