models/Experiment 4/Trained on normal data/joint_model_cons3.pt (torch, 464333 bytes, 12 tensors)

g_model.conv1.weight f4 [32, 1, 3, 3]
0.42874363 -0.010750949 0.43041036 0.14525585 0.33854127 0.21636266 0.1507198 0.10893493
0.3002233 0.374893 0.016302206 0.11792026 0.52823156 0.24196585 -0.3979172 0.20778166
-0.06660372 -0.40429327 -0.3409022 0.13635999 -0.07876997 -0.28146717 -0.042023964 -0.40312025
-0.22235256 -0.3703652 0.1415358 0.18177241 0.34601828 0.049631357 0.15013216 -0.12329959
0.24559748 0.16562584 0.15097325 0.215776 0.08548438 0.15605079 0.5244673 -0.18030755
0.015654894 -0.1583405 -0.411571 -0.40914968 -0.49232247 0.32691434 0.426886 0.34042448
-0.023537762 0.275065 0.12395127 0.22143787 -0.009772286 0.403264 -0.03778894 -0.48893645
-0.06646434 -0.3877256 -0.3650476 0.056276675 -0.091324344 0.3744384 0.47585022 0.42002502
0.11003484 -0.30901185 -0.031231232 0.3476793 0.21344118 0.040670607 0.00080755824 0.41584048
0.22095977 -0.16670996 -0.06726485 -0.20812698 -0.10873979 -0.12793037 0.059095576 0.23427157
-0.28061736 0.14389376 0.27732572 0.27029008 0.15943983 0.28620645 0.038795184 0.058304843
-0.39434272 -0.36043516 0.4506401 0.24836355 0.34888577 0.040049884 0.48043886 0.015739495
-0.097340964 0.25135592 -0.011348684 0.3291273 0.0096943565 -0.3556595 0.114674814 -0.23468548
0.13449265 0.08412356 0.41578603 0.23336747 -0.34962067 -0.29479524 0.110922754 -0.24100816
0.049891472 -0.22102825 -0.14328139 -0.21595956 -0.39428687 0.11041156 0.1435013 -0.15672268
0.26818696 -0.048240475 -0.1930768 -0.15143596 -0.3844193 -0.23724431 0.43260163 0.102868676
0.09193946 0.24207282 -0.19769268 0.47184107 0.12761638 0.16041552 0.01408619 -0.14823991
0.08858473 0.56135917 0.010502388 -0.37998003 0.3615222 -0.54503024 -0.11304099 -0.116215274
0.1254989 0.08178053 0.17347498 0.030567488 0.31751472 0.38444176 0.33791333 0.31889728
-0.29913715 -0.2194167 -0.40828913 0.16685745 -0.38051045 -0.29362404 0.14329837 0.05569112
0.269699 0.36244848 -0.21827523 0.2631483 -0.3535854 -0.36972296 -0.19570696 -0.41709545
-0.037378814 -0.28227782 0.09838662 0.1612386 0.09414186 -0.0033760085 0.043828037 0.3160992
-0.113821015 -0.24893178 -0.2651604 -0.33257 0.19989885 -0.13548382 -0.44398066 0.0269983
-0.17049405 -0.19516207 0.00073188724 -0.40452898 -0.3231356 -0.11731215 0.3983259 -0.08039572
-0.3378976 0.13274005 -0.31702474 -0.36645964 -0.44277722 -0.3504851 0.11482982 0.22407179
-0.26926517 -0.16706026 0.30361354 -0.014684957 -0.2616045 -0.16234145 0.23944096 0.16611588
-0.20919117 -0.11603044 -0.045161035 0.28188184 0.22022122 0.29288062 0.42880604 -0.20481688
-0.22347292 0.34622145 0.32570082 0.26881313 0.32618284 0.14150536 -0.0820163 -0.125635
-0.32617915 -0.19925214 0.062228497 -0.23307487 -0.3275719 -0.044008736 -0.12965 -0.12215508
0.3496158 0.45438823 -0.32093665 -0.31134647 0.18593222 -0.10196976 0.05812555 -0.13432834
-0.20611402 0.05187672 -0.096660554 -0.46885103 0.08875406 0.18087831 -0.18275337 -0.11387923
0.3125643 -0.063331015 0.356479 0.17221488 -0.07889192 -0.06734848 -0.21556966 -0.088346645
00000000: 4984 db3e c024 30bc bf5e dc3e f3bd 143e
00000010: 4855 ad3e 2c8e 5d3e 4b56 1a3e 4719 df3d
00000020: deb6 993e faf1 bf3e 348c 853c 2d80 f13d
00000030: 2f3a 073f e5c5 773e cebb cbbe b7c4 543e
00000040: 8867 88bd 87ff cebe bc8a aebe f4a1 0b3e
00000050: 2652 a1bd 771c 90be 5221 2cbd c765 cebe
00000060: 64b0 63be 82a0 bdbe c3ee 103e 8c22 3a3e
00000070: 4f29 b13e 404a 4b3d 3fbc 193e 7f84 fcbd
00000080: e87d 7b3e d299 293e bb98 1a3e 62f4 5c3e
00000090: 6f12 af3d c7cb 1f3e 7d43 063f 8ba2 38be
000000a0: b13e 803c 0324 22be 6fb9 d2be 117c d1be
000000b0: b111 fcbe 5161 a73e cd90 da3e 1e4c ae3e
000000c0: 44d2 c0bc 52d5 8c3e 2ada fd3d 9cc0 623e
000000d0: f01b 20bc 9e78 ce3e 93c8 1abd e155 fabe
000000e0: 751e 88bd f883 c6be 85e7 babe 5f82 663d
000000f0: 4208 bbbd 64b6 bf3e a4a2 f33e 850d d73e
00000100: f259 e13d cd36 9ebe a4d8 ffbc 0503 b23e
00000110: 5390 5a3e 3996 263d 51b2 533a 0be9 d43e
00000120: 4743 623e 04b6 2abe 27c2 89bd 3d1f 55be
00000130: f8b2 debd 2e00 03be 340e 723d e3e4 6f3e
00000140: 14ad 8fbe e358 133e a3fd 8d3e 7663 8a3e
00000150: 3244 233e a789 923e b3e7 1e3d 0fd1 6e3d
00000160: 4ae7 c9be f58a b8be 4dba e63e 0453 7e3e
00000170: 28a1 b23e 590b 243d 15fc f53e 1df0 803c
00000180: b35a c7bd b9b1 803e d5ef 39bc 6083 a83e
00000190: 14d5 1e3c 0119 b6be a1da ea3d 6451 70be
000001a0: 71b8 093e f948 ac3d e8e1 d43e e2f7 6e3e
000001b0: 7b01 b3be 67ef 96be 782b e33d d8ca 76be
000001c0: 005b 4c3d 3b55 62be 5bb8 12be 8124 5dbe
000001d0: f8df c9be 751f e23d 01f2 123e e97b 20be
000001e0: cd4f 893e ce97 45bd edb5 45be 0712 1bbe
000001f0: 9bd2 c4be 2cf0 72be f67d dd3e d0ac d23d
00000200: c14a bc3d f0e1 773e f36f 4abe 2795 f13e
00000210: dead 023e f743 243e c3c9 663c 34cc 17be
00000220: e96b b53d 3cb5 0f3f 3512 2c3c be8c c2be
00000230: 7019 b93e 1a87 0bbf 0982 e7bd 4602 eebd
00000240: c982 003e 8d7c a73d 6da3 313e ab68 fa3c
00000250: 4a91 a23e 8dd5 c43e fa02 ad3e 8146 a33e
00000260: 8128 99be c5ae 60be 460b d1be aedc 2a3e
00000270: 44d2 c2be e455 96be cfbc 123e 5f1c 643d
00000280: fd15 8a3e d992 b93e 8b83 5fbe 60bb 863e
00000290: 2509 b5be 544c bdbe 6867 48be 898d d5be
000002a0: 871a 19bd b886 90be ed7e c93d bb1b 253e
000002b0: 73cd c03d 0640 5dbb 0785 333d c1d7 a13e
000002c0: fe1a e9bd f9e7 7ebe 1bc3 87be 9d46 aabe
000002d0: 49b2 4c3e 45bc 0abe 6f51 e3be 8a2b dd3c
000002e0: fe95 2ebe 91d8 47be 1fdc 3f3a 6c1e cfbe
000002f0: 0872 a5be 5a41 f0bd 5ff1 cb3e 83a6 a4bd
00000300: ea00 adbe 02ed 073e 1151 a2be 99a0 bbbe
00000310: b2b3 e2be c872 b3be e62b eb3d 1373 653e
00000320: 20dd 89be d811 2bbe 3c73 9b3e 2d99 70bc
00000330: 06f1 85be d63c 26be 0330 753e 481a 2a3e
00000340: 3636 56be 5ea1 edbd c7fa 38bd d152 903e
00000350: ac81 613e 73f4 953e 778c db3e 84bb 51be
00000360: 16d6 64be f043 b13e 42c2 a63e e0a1 893e
00000370: 7001 a73e c8e6 103e 29f8 a7bd 76a6 00be
00000380: f400 a7be c108 4cbe 4fe3 7e3d 2eab 6ebe
00000390: 81b7 a7be 8142 34bd f8c2 04be 712c fabd
000003a0: d800 b33e 93a5 e83e cf51 a4be ce68 9fbe
000003b0: 0465 3e3e 86d5 d0bd 0f15 6e3d 5e8d 09be
000003c0: 8e0f 53be af7c 543d f8f5 c5bd 3e0d f0be
000003d0: b0c4 b53d 2a38 393e b323 3bbe 8439 e9bd
000003e0: 6e08 a03e b1b3 81bd 6a84 b63e 1959 303e
000003f0: 1692 a1bd 00ee 89bd 4bbe 5cbe 16ef b4bd

g_model.conv1.bias f4 [32]
0.27751645 0.30897537 0.29547286 0.26716575 0.23141846 0.053392116 0.38653803 0.20187484
-0.29669985 0.1485771 -0.05701343 0.031179732 0.2997254 0.34235653 0.24097009 0.23542105
0.15188214 0.29869512 0.38148928 0.004163781 0.3285493 0.2506803 0.005913005 0.06192866
0.019119138 0.29203182 -0.20119046 -0.047603983 -0.24893431 0.2152011 0.19691335 0.01018473
00000000: a316 8e3e 0532 9e3e 3848 973e f3c9 883e
00000010: f6f8 6c3e b1b1 5a3d 50e8 c53e 47b8 4e3e
00000020: 0be9 97be 9824 183e ea86 69bd a36c ff3c
00000030: 9c75 993e 5b49 af3e ddc0 763e 3712 713e
00000040: fe86 1b3e 91ee 983e 9052 c33e 5470 883b
00000050: 9d37 a83e 2b59 803e e2c1 c13b e8a8 7d3d
00000060: bd9f 9c3c 3285 953e df04 4ebe 65fc 42bd
00000070: a3e8 7ebe ad5d 5c3e a7a3 493e dbdd 263c

g_model.conv2.weight f4 [32, 32, 3, 3]
-0.026569648 -0.059565347 -0.04490727 0.00841678 0.011605927 -0.025113592 -0.059385486 0.037267182
-0.00565914 0.030441735 -0.0076332157 -0.044624448 -0.037569508 -0.03416821 -0.044752605 0.02396111
-0.034182765 -0.0013344289 0.023065316 -0.028606428 -0.02630959 -0.05517954 -0.04060217 -0.039107468
0.045559257 0.0458276 0.0065099257 -0.028121829 -0.05304054 -0.026619727 0.03310223 -0.014092835
-0.0520741 -0.01471028 0.007947163 0.048417415 0.040045332 0.016539793 -0.00959338 -0.017606415
0.032801237 -0.055276178 -0.0060358774 0.02488344 -0.0006565377 -0.04748678 -0.021747863 -0.0013188815
0.03659088 -0.034382544 0.011626408 -0.031729333 -0.023730299 -0.02037519 0.051442057 0.026698738
-0.031462222 -0.015773308 -0.010162474 0.0036760306 -0.01439432 0.033678796 -0.0062150354 -0.05823881
-0.011472417 0.014811219 0.031669907 0.035184175 0.022492124 0.024931753 -0.007860051 0.0075567756
0.005983518 0.04482408 -0.0022270465 0.04899862 0.03125061 -0.047603287 -0.009640536 -0.02661001
0.004725547 -0.027361913 0.024240557 0.044994503 -0.050301094 0.043921474 0.041641094 0.0468791
0.021077745 -0.04088599 -0.029416362 0.0033977742 -0.035815217 -0.04492329 0.053823877 -0.020376
-0.041600026 0.004130151 -0.0511126 -0.029359665 -0.02608549 0.02511949 0.001547071 -0.031127902
0.013427649 0.0076699485 0.028966252 0.009829851 0.03804152 -0.033434927 0.047357492 -0.04903824
0.017313913 0.002411772 -0.030450307 0.036527928 -0.031766914 0.022529677 0.05310582 -0.024848452
0.026634581 -0.019131452 0.03919483 -0.01856523 0.050002698 -0.03540541 0.040845007 -0.0281738
-0.011727473 0.008277611 -0.009992209 0.053217392 -0.039439946 0.03448082 -0.022959441 0.024503853
0.034273762 0.04869256 0.0029795468 -0.018014068 0.057124414 0.051737007 0.019515868 0.017984038
-0.031884316 -0.051749054 0.030407216 -0.012545298 -0.055537745 -0.040212154 0.048368882 -0.04842576
-0.025284521 -0.004618404 0.007398253 -0.028688457 -0.039254118 -0.00029852238 -0.0012989041 0.030516552
-0.028030809 0.002923442 0.031529665 -0.011717572 -0.03909762 -0.01454835 -0.0054517803 -0.04222839
0.049705036 -0.0017717762 -0.04813577 -0.006285683 -0.0052899984 -0.043412436 -0.0061376276 0.0556331
-0.0155681325 -0.024261875 -0.028553942 -0.05370187 0.01970956 -0.00782824 -0.022030005 0.0044941804
-0.02808187 0.0033020203 -0.013400594 -0.012468235 0.027464043 0.04004032 0.030462647 0.045066766
-0.049474735 0.056394435 -0.04271778 -0.029396033 0.0449463 -0.055715844 0.002642762 0.039487004
-0.01635951 -0.057882257 0.040495038 -0.027513526 0.011524016 0.026908798 -0.029671097 -0.02901252
-0.028148841 0.015537192 0.057567395 -0.043862604 -0.05005445 -0.02711994 -0.02896318 -0.039789617
-0.059388522 -0.044321 0.018926311 -0.04343733 -0.022945765 -0.0031708926 -0.0065087 0.0556258
0.0041690962 -0.016321456 -0.056499325 -0.05433866 0.001220463 -0.022927085 -0.051542733 0.00939913
-0.018508779 0.051656518 -0.027636152 -0.024689758 0.055750895 -0.019260576 -0.012135897 0.008240524
-0.05027862 -0.030526001 -0.011297133 0.0316868 0.0064613367 -0.056685813 0.012636166 0.021292904
-0.031369086 0.05718072 0.055047024 -0.048936393 -0.051041983 -0.02293541 0.019499226 0.05153031
00000000: 97a8 d9bc cbfa 73bd b0f0 37bd 89e6 093c
00000010: c926 3e3c 05bb cdbc 323e 73bd 79a5 183d
00000020: 4f70 b9bb f260 f93c 0e20 fabb 20c8 36bd
00000030: 7ce2 19bd f7f3 0bbd 824e 37bd 174a c43c
00000040: 3a03 0cbd 01e8 aeba 79f3 bc3c 0758 eabc
00000050: 3687 d7bc f103 62bd 764e 26bd 272f 20bd
00000060: 589c 3a3d b9b5 3b3d 3751 d53b c05f e6bc
00000070: 0a41 59bd 9d11 dabc 3496 073d a2e5 66bc
00000080: a74b 55bd 6303 71bc d134 023c 5751 463d
00000090: 9306 243d 767e 873c 8d2d 1dbc 543b 90bc
000000a0: 975a 063d 4669 62bd 9cc8 c5bb 5bd8 cb3c
000000b0: 801b 2cba 7f81 42bd 9328 b2bc 52de acba
000000c0: 52e0 153d b6d4 0cbd b17c 3e3c 9ef6 01bd
000000d0: 0b66 c2bc dfe9 a6bc e8b4 523d 50b7 da3c
000000e0: 88de 00bd 0637 81bc 8180 26bc 8fe9 703b
000000f0: 27d6 6bbc c7f2 093d 7fa7 cbbb d28b 6ebd
00000100: cef6 3bbc c1aa 723c 4eb8 013d 481d 103d
00000110: 6741 b83c ad3d cc3c 71c7 00bc d49e f73b
00000120: 6311 c43b 7499 373d a4f3 11bb c7b2 483d
00000130: a400 003d aafb 42bd 57f3 1dbc 3cfd d9bc
00000140: c3d8 9a3b 1726 e0bc 2294 c63c 284c 383d
00000150: 8508 4ebd 01e7 333d da8f 2a3d 4d04 403d
00000160: 3cab ac3c 1178 27bd 95fa f0bc 31ad 5e3b
00000170: fab2 12bd 7c01 38bd 6d76 5c3d 92eb a6bc
00000180: ca64 2abd 3856 873b 725b 51bd ae83 f0bc
00000190: 3db1 d5bc 64c7 cd3c 17c7 ca3a f1ff febc
000001a0: a4ff 5b3c 3154 fb3b a24a ed3c 620d 213c
000001b0: 6dd1 1b3d 10f3 08bd eef9 413d 52dc 48bd
000001c0: e8d5 8d3c d20e 1e3b ec72 f9bc 4f9e 153d
000001d0: 061e 02bd 2890 b83c 7d85 593d fb8e cbbc
000001e0: c430 da3c 90b9 9cbc c28a 203d 1c16 98bc
000001f0: a1cf 4c3d 4305 11bd 184d 273d becc e6bc
00000200: 9624 40bc d19e 073c 5db6 23bc 7bfa 593d
00000210: c88b 21bd c33b 0d3d 7015 bcbc 4ebc c83c
00000220: a562 0c3d da71 473d 8044 433b 3d92 93bc
00000230: 4afb 693d 2fea 533d bedf 9f3c 4353 933c
00000240: 2199 02bd d1f6 53bd 8e18 f93c cb8a 4dbc
00000250: 8c7b 63bd 80b5 24bd 731e 463d 175a 46bd
00000260: 7c21 cfbc fb55 97bb 0b6d f23b 0e04 ebbc
00000270: edc8 20bd ff82 9cb9 fd3f aaba d9fd f93c
00000280: dea0 e5bc 3897 3f3b 4025 013d 0ffb 3fbc
00000290: d324 20bd 345c 6ebc d9a4 b2bb adf7 2cbd
000002a0: 8297 4b3d f23a e8ba 032a 45bd 21f8 cdbb
000002b0: b957 adbb 3dd1 31bd 271e c9bb 89df 633d
000002c0: 7b11 7fbc d7c0 c6bc f5e9 e9bc 7ef6 5bbd
000002d0: f175 a13c 0542 00bc 4578 b4bc eb43 933b
000002e0: f30b e6bc b566 583b 2a8e 5bbc 9147 4cbc
000002f0: 46fc e03c 5201 243d cd8c f93c ee97 383d
00000300: 05a6 4abd dafd 663d d7f8 2ebd f3cf f0bc
00000310: 9d19 383d 4c36 64bd 3032 2d3b 20bd 213d
00000320: 6104 86bc f215 6dbd 20de 253d 0c64 e1bc
00000330: 3acf 3c3c d76f dc3c cd10 f3bc aaab edbc
00000340: 6698 e6bc b58f 7e3c cacb 6b3d 46a9 33bd
00000350: e505 4dbd a32a debc 3144 edbc 70fa 22bd
00000360: 6141 73bd f089 35bd 5a0b 9b3c 57eb 31bd
00000370: c2f8 bbbc c0ce 4fbb ef46 d5bb e1d7 633d
00000380: ea9c 883b 93b4 85bc d66b 67bd 3792 5ebd
00000390: f1f7 9f3a 95d1 bbbc 791e 53bd cffe 193c
000003a0: b99f 97bc c995 533d 3665 e2bc 2d42 cabc
000003b0: 0d5b 643d 5bc8 9dbc a4d5 46bc 4303 073c
000003c0: f4f0 4dbd aa11 fabc 9c17 39bc 05ca 013d
000003d0: 9fb9 d33b 622f 68bd ec07 4f3c 756e ae3c
000003e0: df7c 00bd 5536 6a3d fd78 613d 8771 48bd
000003f0: 6611 51bd 0ae3 bbbc d7bc 9f3c 7211 533d

g_model.conv2.bias f4 [32]
0.037636045 0.0037680198 0.027976146 0.039469227 0.008598956 0.022486983 0.0010808761 -0.034418292
-0.032014295 -0.033365693 0.07123294 -0.053228088 0.02972107 0.03970626 -0.054514807 -0.031979136
-0.054727778 0.066838376 0.034786824 0.06416463 -0.019735781 -0.01188236 0.004527879 -0.03455978
0.025362434 -0.05583252 -0.024788994 -0.05066862 0.0031995845 0.016538631 0.02735696 -0.019205552
00000000: 4128 1a3d e2f0 763b 3b2e e53c 7caa 213d
00000010: a3e2 0c3c 9f36 b83c 2fac 8d3a 32fa 0cbd
00000020: 6c21 03bd 77aa 08bd 93e2 913d b205 5abd
00000030: 9a79 f33c 08a3 223d eb4a 5fbd 8efc 02bd
00000040: 3c2a 60bd 8fe2 883d a17c 0e3d bf68 833d
00000050: efac a1bc 3bae 42bc 9a5e 943b 8e8e 0dbd
00000060: e1c4 cf3c a4b0 64bd 4a12 cbbc e689 4fbd
00000070: 1fb0 513b 067c 873c b41b e03c f654 9dbc

g_model.fc1.weight f4 [128, 800]
-0.008222956 0.017474476 -0.020853166 0.017546935 0.027659548 -0.030206906 0.020542214 0.03163273
0.0017963958 -0.033163212 -0.01890669 0.019233817 0.019659542 -0.020674832 -0.025561323 0.000111743946
-0.02875327 -0.019366212 0.033091504 0.03207647 -0.00018507947 -0.024911199 0.032837555 0.010326788
-0.017546784 -0.037309956 -0.016380321 0.016715594 -0.0035809649 -0.020149425 0.006157198 0.015352256
-0.0028672668 0.0054086247 -0.018269105 -0.011288722 0.04068993 -0.0048439694 -0.014313504 -0.088587955
0.027259251 -0.021307282 0.014598897 0.012714646 0.017220972 0.009094929 0.041967746 -0.0017859288
-0.00478182 -0.012038539 0.01179547 0.009367324 0.0007453306 0.01153367 0.00039512018 -0.053799756
-0.058987506 0.017170222 -0.03750225 -0.06272551 -0.041015636 0.031624403 0.042157084 -0.025384659
-0.041002754 0.050145656 -0.008854463 5.0092807e-05 -0.0048209247 0.040251553 -0.021235546 0.009869798
-0.028404182 0.023646481 0.0061165467 -0.02961009 -0.029301455 -0.012268171 0.030275181 -0.0058221743
-0.04322348 -0.019860279 -0.0071896235 -0.0317161 -0.001662715 -0.0263727 -0.022766218 0.040401224
-0.05138582 -0.037007734 -0.032484822 0.038402393 -0.027850837 -0.018123096 0.021783134 0.05199733
-0.02190466 0.04600623 -0.02305077 -0.017798128 -0.0087237945 -0.015713427 0.025866646 0.016632393
-0.025534416 -0.03638938 -0.0363025 0.0062089073 -0.018155705 -0.05519961 -0.040073454 0.015343135
0.038092747 0.029841281 0.011902883 0.0031070807 0.003929973 0.008545762 0.04234056 -0.009213478
0.0071169673 0.008254631 0.031139342 0.012622647 0.011900548 0.046576384 0.0008837687 0.015918378
-0.008305734 0.012662874 -0.0065905442 0.0392609 0.023858884 -0.027624918 -0.022965394 -0.00727341
0.030126868 -0.035248157 -0.00732179 -0.018006805 -0.025011357 -0.04299648 -0.02362362 0.050301712
0.00048063303 0.023909407 0.02121251 -0.0633366 -0.009310461 0.034434054 -0.016792184 -0.027962936
0.0052736946 0.029312998 -0.018290842 0.019193217 -0.024138112 0.008410506 0.09366178 0.069868885
0.026285553 0.0011607391 0.019669939 0.06033478 0.006734531 0.023296949 0.0038501997 -0.038264755
-0.008835973 0.044329215 0.036507595 0.05008714 0.04111183 -0.01812483 0.022888392 -0.026824579
-0.037422612 -0.0073190522 -0.005428082 -0.024159284 -0.033780452 -0.029727932 -0.027432289 -0.037707947
-0.014906712 -0.013035109 0.010219204 0.010649427 -0.0714445 -0.07257431 0.03850319 -0.04050291
-0.008926942 0.012931184 0.031073362 0.009273553 0.026278717 -0.02483832 -0.03742203 -0.017204098
-0.00074282725 0.026232317 -0.037639245 -0.015667832 -0.017762218 0.010990029 -0.015569051 -0.030237107
-0.016043885 -0.04181856 0.0021376382 -0.0041669956 0.002595214 -0.046779167 -0.027171472 -0.009870285
0.0039090393 -0.0025910584 0.019338166 0.029720766 -0.008140158 0.007651237 0.014502873 0.0077194646
-0.020569226 -0.005023711 0.008207686 -0.030102529 -0.024524456 -0.010687501 -0.026801288 -0.0046635414
0.011640762 0.01070122 0.019057428 -0.009978061 -0.027141066 0.032146554 0.032764435 0.012303584
0.003770963 0.023607466 0.021111632 -0.028004184 0.012805127 0.026977003 -0.023246791 -0.034136098
0.016103212 -0.013616029 0.0044891466 -0.010720804 0.012029451 0.009432354 -0.020472132 -0.026085805
00000000: 94b9 06bc a226 8f3c 42d4 aabc 97be 8f3c
00000010: 4796 e23c 7974 f7bc 2548 a83c 5291 013d
00000020: 0a75 eb3a 26d6 07bd 34e2 9abc 3d90 9d3c
00000030: 0c0d a13c 445e a9bc fb65 d1bc 1358 ea38
00000040: fa8b ebbc e4a5 9ebc f58a 073d 9e62 033d
00000050: e411 42b9 9212 ccbc ac80 063d b031 293c
00000060: 46be 8fbc 53d2 18bd 0630 86bc 24ef 883c
00000070: 9fae 6abb 6810 a5bc 52c2 c93b 0788 7b3c
00000080: c1e8 3bbb d53a b13b 17a9 95bc 55f4 38bc
00000090: 7caa 263d 29ba 9ebb 3083 6abc 9a6d b5bd
000000a0: cb4e df3c 9c8c aebc 3630 6f3c 1751 503c
000000b0: ff12 8d3c e602 153c 5fe6 2b3d d415 eaba
000000c0: d0b0 9cbb 4b3d 45bc c941 413c 6879 193c
000000d0: 4a62 433a b8f7 3c3c 2228 cf39 225d 5cbd
000000e0: e29c 71bd 91a8 8c3c f69b 19bd 3b76 80bd
000000f0: 0300 28bd 9788 013d e8ac 2c3d 7df3 cfbc
00000100: 81f2 27bd 8865 4d3d 4f12 11bc be1a 5238
00000110: d9f8 9dbb d0de 243d 2bf6 adbc efb4 213c
00000120: e3af e8bc 44b6 c13c 506d c83b dc90 f2bc
00000130: 9b09 f0bc 7000 49bc a803 f83c f0c7 bebb
00000140: 1b0b 31bd 06b2 a2bc ef96 ebbb bee8 01bd
00000150: 75ef d9ba 900b d8bc 3880 babc c17b 253d
00000160: f079 52bd 6c95 17bd ce0e 05bd d44b 1d3d
00000170: 7027 e4bc e376 94bc 8b72 b23c 27fb 543d
00000180: 6771 b3bc 0771 3c3d f8d4 bcbc 61cd 91bc
00000190: 3fee 0ebc 72b9 80bc 4ae6 d33c a840 883c
000001a0: 8d2d d1bc 080d 15bd eeb1 14bd 1774 cb3b
000001b0: 46bb 94bc fc18 62bd 1024 24bd c661 7b3c
000001c0: 2407 1c3d b475 f43c 4f04 433c 2aa0 4b3b
000001d0: 01c7 803b 8603 0c3c 4c6d 2d3d 21f4 16bc
000001e0: 7335 e93b 6f3e 073c ef17 ff3c 38cf 4e3c
000001f0: 84fa 423c e1c6 3e3d b7ac 673a 4267 823c
00000200: c614 08bc f177 4f3c 7ef5 d7bb 0ad0 203d
00000210: b573 c33c a74d e2bc ec21 bcbc c955 eebb
00000220: 9fcc f63c 5f60 10bd a0eb efbb 0283 93bc
00000230: 9ee4 ccbc 141d 30bd 5286 c1bc 2b09 4e3d
00000240: 79fd fb39 a9dd c33c dcc5 ad3c 9fb6 81bd
00000250: e78a 18bc b90a 0d3d c38f 89bc 8712 e5bc
00000260: f5ce ac3b d021 f03c add6 95bc 183b 9d3c
00000270: 4abd c5bc 38cc 093c bfd1 bf3d 6b17 8f3d
00000280: cd54 d73c f123 983a da22 a13c 9a21 773d
00000290: 57ad dc3b 3ed9 be3c a253 7c3b 81bb 1cbd
000002a0: c2c4 10bc 8d92 353d fd88 153d 2c28 4d3d
000002b0: e164 283d 867a 94bc 7080 bb3c 38bf dbbc
000002c0: 7448 19bd a9d4 efbb 0dde b1bb b1e9 c5bc
000002d0: 5f5d 0abd fe87 f3bc aeb9 e0bc a673 1abd
000002e0: 483b 74bc 3691 55bc 736e 273c ef7a 2e3c
000002f0: 7e51 92bd d7a1 94bd 85b5 1d3d 61e6 25bd
00000300: 4f42 12bc 51dd 533c 908d fe3c 1af0 173c
00000310: 7746 d73c bc79 cbbc d847 19bd 9cef 8cbc
00000320: 4bba 42ba 28e5 d63c 9c2b 1abd d359 80bc
00000330: 1282 91bc 860f 343c 5515 7fbc cfb3 f7bc
00000340: 776e 83bc f049 2bbd 9e17 0c3b 4b8b 88bb
00000350: 7714 2a3b 839b 3fbd b596 debc fab6 21bc
00000360: 6617 803b bfce 29bb 136b 9e3c f778 f33c
00000370: 4c5e 05bc 3ab7 fa3b 759d 6d3c 90f3 fc3b
00000380: cb80 a8bc f19d a4bb 8879 063c 9499 f6bc
00000390: 83e7 c8bc a11a 2fbc 608e dbbc 9fd0 98bb
000003a0: e5b8 3e3c 2b54 2f3c 531e 9c3c 057b 23bc
000003b0: f156 debc 1bac 033d 0034 063d f994 493c
000003c0: 4322 773b 7264 c13c 4df2 ac3c 0869 e5bc
000003d0: 98cc 513c e0fe dc3c 0e70 bebc 4bd2 0bbd
000003e0: e2ea 833c c415 5fbc b119 933b 50a6 2fbc
000003f0: 2d17 453c 298a 1a3c 2cb5 a7bc e6b1 d5bc

g_model.fc1.bias f4 [128]
-0.023423504 -0.022750776 -0.015971841 0.009935268 0.04485203 0.0053825686 -0.010383168 -0.029539406
0.022760175 0.026066644 -0.027399605 -0.0059529357 0.02894531 -0.03846974 -0.0074619944 -0.012602663
-0.0013019941 -0.023032384 -0.030349726 -0.0047763903 0.010404958 -0.02863192 0.015612109 -0.016442033
0.03059066 0.010789576 0.032682665 0.021520719 0.03618867 0.0016256612 0.01925994 -0.036011733
-0.028839028 0.009036224 0.030059552 -0.014740356 0.018781627 0.017050685 0.0054393173 0.036446236
0.013689084 -0.033521906 -0.036505047 0.037272237 0.019555619 -0.009656445 0.009559306 0.031536754
0.00208612 0.014471366 -0.034503184 0.036173273 0.015308126 0.018136041 -0.011086485 0.004165705
0.036053892 -0.047393985 -0.008991962 0.028962653 -5.481181e-05 0.028899938 0.023433069 0.0148581285
-0.015283675 0.003815845 -0.035218015 0.006583372 0.013819932 -0.0270555 -0.021912549 -0.0015291303
0.022067256 0.010346027 0.0027350173 0.014642348 -0.027325839 -0.016879389 -0.0014319911 0.010377132
-0.039641317 0.017132804 0.005353726 0.026904756 0.000345487 -0.020412846 -0.031450715 -0.024010496
0.019633772 0.015972476 0.018112205 -0.02622453 -0.01484882 0.016892845 0.031464767 -0.015208807
-0.0068852375 0.005885791 -0.026124205 0.006660625 -0.023076998 0.03619442 0.032960344 -0.023328314
0.002771577 -0.02789096 -0.02367941 0.030867256 -0.008269206 0.033283684 0.018871134 0.01668167
0.014224595 0.019591928 0.009441546 0.031331982 0.008888989 -0.02770249 0.011335058 0.004660615
-0.018149776 -0.027935777 0.007340302 -0.01568588 0.014813628 0.009428074 0.021689642 -0.011979632
00000000: a6e2 bfbc d65f babc 61d7 82bc 89c7 223c
00000010: c3b6 373d 4260 b03b 2a1e 2abc a0fc f1bc
00000020: 8c73 ba3c b789 d53c 2375 e0bc d810 c3bb
00000030: b71e ed3c 7292 1dbd bf83 f4bb 667b 4ebc
00000040: aca7 aaba 69ae bcbc fd9f f8bc 4483 9cbb
00000050: 8f79 2a3c 7d8d eabc eec9 7f3c 71b1 86bc
00000060: 4499 fa3c c3c6 303c 42de 053d 384c b03c
00000070: 923a 143d 2314 d53a 06c7 9d3c 0a81 13bd
00000080: d33f ecbc ac0c 143c 733f f63c 8981 71bc
00000090: eddb 993c e1ad 8b3c 4d3c b23b a648 153d
000000a0: 2e48 603c 444e 09bd 5186 15bd c6aa 183d
000000b0: 1b33 a03c 1136 1ebc a39e 1c3c af2c 013d
000000c0: 49b7 083b 4f19 6d3c 3653 0dbd 6d2a 143d
000000d0: efce 7a3c 0992 943c 17a4 35bc 7780 883b
000000e0: 3fad 133d 3220 42bd 0653 13bc 1643 ed3c
000000f0: bce5 65b8 90bf ec3c b5f6 bf3c 826f 733c
00000100: 6168 7abc 4113 7a3b c440 10bd 54b9 d73b
00000110: ff6c 623c 7fa3 ddbc f281 b3bc 196d c8ba
00000120: 64c6 b43c 6282 293c fa3d 333b 75e6 6f3c
00000130: 70da dfbc a546 8abc a6b1 bbba d904 2a3c
00000140: ef5e 22bd 185a 8c3c 4f6e af3b 5d67 dc3c
00000150: 7b22 b539 d738 a7bc 77d2 00bd a9b1 c4bc
00000160: 01d7 a03c b6d8 823c 0c60 943c d3d4 d6bc
00000170: 7748 73bc dd62 8a3c 33e1 003d 5c2e 79bc
00000180: 8f9d e1bb 98dd c03b 6e02 d6bc 5f41 da3b
00000190: f90b bdbc 9a40 143d 6d01 073d 051b bfbc
000001a0: 59a3 353b 957b e4bc 52fb c1bc 54dd fc3c
000001b0: 907b 07bc 7954 083d a397 9a3c ffa7 883c
000001c0: 470e 693c 407f a03c b7b0 1a3c f755 003d
000001d0: 1fa3 113c 55f0 e2bc aeb6 393c 13b8 983b
000001e0: d7ae 94bc 92d9 e4bc eb86 f03b ad7f 80bc
000001f0: dcb4 723c 3578 1a3c 7aae b13c 3846 44bc

g_model.fc2.weight f4 [16, 128]
-0.029666064 -0.021041244 -0.082510404 -0.033417962 -0.1372709 -0.034864966 0.025549905 0.043826275
-0.07751151 0.058431376 -0.030401725 -0.11018777 0.028823748 0.03218358 -0.021524362 0.02946841
-0.029385597 0.05077624 -0.027927898 -0.035921562 0.08206191 -0.005528634 0.037561607 0.023166504
-0.1300727 0.11387569 0.11690835 -0.18087904 0.0688588 0.0915262 -0.13348758 -0.1091717
-0.0437555 0.117962904 0.00091113045 0.0029004216 -0.08412612 0.046066355 -0.02808946 0.0966205
-0.032567464 0.043005507 0.0048450986 -0.03002482 0.06784626 -0.019884996 0.08171093 -0.1071801
-0.11669924 -0.0057601663 -0.010970805 0.0327467 0.031155504 0.085996985 -0.09373279 -0.10542672
-0.093092 -0.13919276 -0.095677994 0.041227195 0.08502776 -0.10097333 0.10596449 0.027333705
0.029809022 -0.073187955 0.05547281 -0.08960819 0.0601679 0.038109295 -0.17822684 -0.04135142
-0.060000453 0.01160767 -0.08522003 0.04101046 -0.02457855 0.10355146 -0.042523347 0.0073605683
-0.14020215 -0.116264485 0.02891537 0.08363579 0.018363144 0.046339665 -0.019790329 -0.0062190755
0.08392199 0.0042613572 0.10404632 -0.093244955 0.060527254 0.06714601 0.03408281 -0.020872364
0.09242239 -0.16260801 0.007466131 0.11464024 0.02760646 0.118385114 0.0067175603 -0.08173118
0.07986753 0.005279403 0.014623676 0.04134144 -0.10287736 0.008896047 -0.09744596 -0.03036213
-0.022999993 -0.048916113 0.028686743 0.00016817445 0.02552418 -0.091161005 0.025038376 0.098676935
-0.083247006 -0.0420134 -0.14751202 -0.006445468 0.117342964 -0.21253201 -0.015874475 -0.06497351
0.062724665 0.039213013 0.10196468 -0.0059280056 0.087639 -0.026977312 -0.064674415 0.02077156
-0.017048717 0.024063915 0.05589056 0.06754061 -0.0311601 -0.07871309 0.058387548 -0.10360594
-0.022355666 0.08874767 0.103746004 -0.08718442 -0.113256976 0.07676324 0.0588211 -0.08984354
-0.12923878 0.1122682 -0.1312667 -0.02853831 -0.1791633 -0.017644288 0.022173813 0.02143936
0.056859683 -0.08124107 -0.072323725 0.08402275 -0.08578079 -0.15188618 0.12788004 -0.0005780179
0.05139548 -0.06821934 0.024688656 -0.13136706 0.13312332 0.054696545 -0.08083068 0.09541942
0.03386166 0.09459408 0.035343427 0.07988881 0.08353474 0.10183364 0.088216715 0.060540833
-0.040706705 -0.09905379 -0.008019844 -0.0037356922 -0.019294666 0.12596 0.11992172 -0.06267585
-0.2034821 -0.10640359 -0.006713643 0.08902013 -0.059542034 0.035678815 0.046152607 0.014142062
-0.091434106 -0.035530254 0.048202865 -0.11963896 -0.070842974 -0.100837894 0.08686817 -0.16637258
-0.12422215 0.035889577 0.018272096 -0.10574591 0.1585355 -0.008527858 -0.18609926 -0.08829057
0.06261921 0.021271639 -0.16046885 0.0060375487 -0.04283544 -0.033872493 0.002634595 -0.14182554
-0.1037378 -0.076787695 0.069708146 -0.09767315 0.030433374 0.016295558 0.09229031 0.07762688
-0.1084865 0.013131858 0.066719025 -0.017470514 -0.007230094 -0.00812647 0.12146285 0.023537831
-0.06350282 -0.057745464 -0.046088994 0.06582966 -0.07364592 -0.029566113 0.042527255 -0.07759396
0.019727455 -0.030367123 -0.009345149 -0.0016152821 0.15832548 0.12819976 -0.043108925 -0.0909396
00000000: 3f06 f3bc b05e acbc 37fb a8bd 46e1 08bd
00000010: be90 0cbe 91ce 0ebd 094e d13c 2e83 333d
00000020: 5bbe 9ebd bd55 6f3d 0a0d f9bc 20aa e1bd
00000030: c81f ec3c eed2 033d dc53 b0bc bc67 f13c
00000040: 10ba f0bc bffa 4f3d 0cc9 e4bc 7d22 13bd
00000050: 1310 a83d 8b29 b5bb 33da 193d aec7 bd3c
00000060: c731 05be a837 e93d a56d ef3d 5b38 39be
00000070: d805 8d3d 1772 bb3d f8b0 08be 6a95 dfbd
00000080: f838 33bd 8996 f13d eed8 6e3a 0015 3e3b
00000090: 514a acbd 13b0 3c3d de1b e6bc f8e0 c53d
000000a0: 7665 05bd 8b26 303d a2c3 9e3b 9cf6 f5bc
000000b0: fbf2 8a3d dce5 a2bc 0f58 a73d 3e81 dbbd
000000c0: 0300 efbd c7bf bcbb e4be 33bc 6721 063d
000000d0: d439 ff3c 301f b03d faf6 bfbd f7e9 d7bd
000000e0: 05a7 bebd 8c88 0ebe d3f2 c3bd d9dd 283d
000000f0: 0923 ae3d 1bcb cebd e903 d93d efea df3c
00000100: 0d32 f43c 91e3 95bd 7537 633d 8084 b7bd
00000110: 9e72 763d 7e18 1c3d 1981 36be 1b60 29bd
00000120: 09c3 75bd 192e 3e3c d787 aebd 96fa 273d
00000130: f558 c9bc ca12 d43d f62c 2ebd ec30 f13b
00000140: 2791 0fbe 131c eebd eddf ec3c 3e49 ab3d
00000150: 4e6e 963c a9ce 3d3d 541f a2bc 63c9 cbbb
00000160: 4bdf ab3d dba2 8b3b 3d16 d53d 36f7 bebd
00000170: 6deb 773d d983 893d 6b9a 0b3d 85fc aabc
00000180: f347 bd3d b782 26be 72a6 f43b 81c8 ea3d
00000190: f126 e23c e573 f23d fb1e dc3b ad62 a7bd
000001a0: 9691 a33d d8fe ac3b 2598 6f3c a455 293d
000001b0: 5eb1 d2bd bac0 113c bf91 c7bd 00ba f8bc
000001c0: 7b6a bcbc 435c 48bd 7600 eb3c fc57 3039
000001d0: 1618 d13c 9fb2 babd 481d cd3c 2217 ca3d
000001e0: 687d aabd 3e16 2cbd 640d 17be 8134 d3bb
000001f0: 8251 f03d fea1 59be 300b 82bc d510 85bd
00000200: ca75 803d d39d 203d dcd2 d03d b73f c2bb
00000210: 137c b33d 86ff dcbc 0574 84bd 1e29 aa3c
00000220: c0a9 8bbc b021 c53c 80ed 643d bb52 8a3d
00000230: 7743 ffbc 5434 a1bd c827 6f3d 5a2f d4bd
00000240: 3b23 b7bc 57c1 b53d c978 d43d bf8d b2bd
00000250: 46f3 e7bd 0c36 9d3d 65ee 703d e4ff b7bd
00000260: 2c57 04be dfec e53d c76a 06be 2dc9 e9bc
00000270: 9676 37be c18a 90bc dba5 b53c 99a1 af3c
00000280: b3e5 683d b861 a6bd 761e 94bd 1f14 ac3d
00000290: d7ad afbd 0d88 1bbe fcf2 023e 2086 17ba
000002a0: 1184 523d 95b6 8bbd dd3f ca3c 1685 06be
000002b0: 7b51 083e 7c09 603d 8e8a a5bd 426b c33d
000002c0: 86b2 0a3d 8aba c13d 45c4 103d bf9c a33d
000002d0: 4314 ab3d 288e d03d f7aa b43d aaf9 773d
000002e0: 13bc 26bd b7dc cabd aa65 03bc 84d2 74bb
000002f0: d90f 9ebc a9fb 003e 8599 f53d 325c 80bd
00000300: 9d5d 50be 20ea d9bd 1ffe dbbb 3050 b63d
00000310: 59e2 73bd f323 123d 840a 3d3d 1bb4 673c
00000320: ce41 bbbd 2c88 11bd 5e70 453d 4505 f5bd
00000330: 1f16 91bd 1984 cebd f0e7 b13d 935d 2abe
00000340: 2f68 febd f300 133d 5daf 953c 5091 d8bd
00000350: 2157 223e 6eb8 0bbc ce90 3ebe b0d1 b4bd
00000360: 803e 803d dc41 ae3c f251 24be a1d6 c53b
00000370: 3774 2fbd e2bd 0abd 2ba9 2c3b b73a 11be
00000380: 7c74 d4bd de42 9dbd 25c3 8e3d dc08 c8bd
00000390: 694f f93c 437e 853c b402 bd3d d7fa 9e3d
000003a0: 2c2e debd 0127 573c fca3 883d 531e 8fbc
000003b0: 6dea ecbb e324 05bc 84c1 f83d 69d2 c03c
000003c0: c40d 82bd 8286 6cbd d0c7 3cbd b3d1 863d
000003d0: acd3 96bd a234 f2bc 0f31 2e3d 95e9 9ebd
000003e0: 799b a13c 79c4 f8bc 651c 19bc e0b7 d3ba
000003f0: 1320 223e cc46 033e fc92 30bd 8a3e babd

g_model.fc2.bias f4 [16]
0.06284889 -0.036355402 0.014101108 -0.07165211 -0.0102568045 0.017329186 -0.06983889 -0.020964922
0.040598877 0.009553895 -0.05470497 0.038629174 0.087224506 -0.02239592 -0.044205032 0.04232158
00000000: ebb6 803d 67e9 14bd 5508 673c 57be 92bd
00000010: 280c 28bc f0f5 8d3c b107 8fbd a1be abbc
00000020: 024b 263d f187 1c3c 5212 60bd a039 1e3d
00000030: c3a2 b23d a677 b7bc 5610 35bd 6559 2d3d

f_model.fc1.weight f4 [32, 16]
-0.11812015 -0.05165999 0.15663007 0.05245735 -0.11472083 -0.16091026 -0.37884387 -0.13790394
0.30578047 -0.12616627 -0.30363762 -0.20759422 0.20195784 -0.31261328 -0.14149962 0.16680871
-0.14866967 0.151673 -0.1774039 0.40318316 0.07640893 -0.035592157 -0.33666378 0.21854632
0.16332105 0.110370725 -0.13591997 0.2934481 0.033660278 -0.027899617 0.12831083 -0.23692107
-0.043483358 -0.07244157 0.12632431 0.047726534 -0.031622525 0.21052298 -0.21551323 0.03748393
0.42405203 -0.30043912 -0.23138836 0.093830384 0.08275286 -0.123881705 0.07915087 -0.1783129
-0.14903228 0.25608218 -0.03338168 -0.006735394 0.072200224 -0.08863591 0.1850757 0.0045384215
0.014084997 -0.2787389 0.23305018 -0.16924886 -0.14199537 -0.15846543 0.13802183 -0.1477021
-0.042132434 0.09671243 0.029347926 -0.362651 -0.06217965 0.10631107 0.40133417 -0.36228085
0.25064686 -0.12356733 -0.124350525 0.10002413 0.03819595 -0.1807801 0.011578476 0.099472545
-0.04834752 -0.30012703 -0.21441667 -0.22786222 0.23384416 -0.10121048 -0.13006136 0.17542654
0.1441976 -0.19691151 0.25225106 -0.060116265 0.013066169 0.2821695 0.10524726 -0.2507887
-0.16345112 0.15713619 -0.3081389 -0.15868506 -0.3025764 0.42069814 -0.18635364 -0.33328524
-0.03272126 -0.11307114 -0.32885095 -0.15016092 -0.112079695 0.29150128 0.21038441 0.08157714
0.28788733 0.13590345 -0.052164733 -0.16938391 -0.13253096 0.016792472 0.15284704 -0.21713187
0.14227684 0.22893463 -0.046192486 -0.2612761 0.0019968955 -0.18221518 0.10095782 -0.18431047
-0.092215315 -0.19340669 -0.29535154 -0.20700768 -0.17509943 0.30732316 -0.10044438 -0.14866215
0.12023227 0.29416624 -0.15958321 0.07766722 -0.36791644 0.15922588 -0.020304931 0.119846225
-0.13159615 0.113607846 0.18863246 0.16522959 0.1875054 0.21113017 0.12818633 -0.330395
-0.14054291 -0.13053937 0.016980568 0.24570529 0.13567187 -0.24262233 -0.05482693 -0.27104384
-0.22760786 0.111334436 -0.059423115 -0.14994359 -0.11881878 -0.046944164 -0.22458854 -0.015891023
-0.25844404 0.019127099 0.28300655 0.0035466254 -0.42783368 0.2756786 0.04806184 -0.32306555
-0.036060873 0.0010110413 0.07930659 0.13618462 -0.099338725 -0.25230634 0.020609446 0.04379797
0.18983668 -0.34469488 -0.28356168 0.19573657 0.06693511 -0.30491257 -0.25396684 0.23226202
-0.0788695 -0.20969142 0.20903264 -0.075517505 -0.24574286 -0.26769784 -0.32955837 0.069128014
-0.07046557 -0.028835978 -0.09574421 0.22751796 -0.10064352 -0.2630097 -0.13227153 0.12311122
-0.11783918 0.12504865 -0.20732999 -0.11096547 -0.0014389254 -0.078089885 -0.20471717 -0.12189953
-0.06065028 0.35175887 -0.31316778 -0.20833938 -0.13261345 -0.2583013 -0.2609004 0.18233655
0.16409878 -0.29564148 -0.15124427 0.3740311 0.03279636 0.27841744 -0.01069743 0.15493248
-0.2556855 0.22981521 -0.20917597 -0.042074837 -0.050084703 0.07914879 -0.13880178 -0.3163557
-0.008735347 -0.19596693 -0.27698246 -0.012939615 0.37477276 -0.13939568 -0.08226132 0.3118125
-0.22443733 0.0294396 0.25403705 -0.29641587 -0.018532619 0.110133514 -0.17663303 -0.0067993645
00000000: fae8 f1bd 6d99 53bd a263 203e 85dd 563d
00000010: c1f2 eabd a9c5 24be d3f7 c1be b136 0dbe
00000020: 428f 9c3e bb31 01be 6476 9bbe 9493 54be
00000030: 09ce 4e3e d90e a0be 47e5 10be e7cf 2a3e
00000040: dd3c 18be 2b50 1b3e 5ea9 35be 066e ce3e
00000050: 497c 9c3d 15c9 11bd 325f acbe 9bca 5f3e
00000060: a23d 273e 0c0a e23d 9b2e 0bbe d43e 963e
00000070: 5cdf 093d bd8d e4bc ea63 033e 709b 72be
00000080: 9b1b 32bd 3f5c 94bd 295b 013e e67c 433d
00000090: 9f86 01bd 5693 573e 80af 5cbe c088 193d
000000a0: 591d d93e 28d3 99be 12f1 6cbe 252a c03d
000000b0: 557a a93d b1b5 fdbd da19 a23d a897 36be
000000c0: eb9b 18be 341d 833e 3abb 08bd 94b4 dcbb
000000d0: b6dd 933d be86 b5bd 7c84 3d3e 0ab7 943b
000000e0: c2c4 663c ddb6 8ebe b5a4 6e3e 934f 2dbe
000000f0: 3c67 11be c344 22be 9855 0d3e 383f 17be
00000100: 0f93 2cbd 2b11 c63d 106b f03c 64ad b9be
00000110: 17b0 7ebd 9eb9 d93d ac7b cd3e e07c b9be
00000120: c954 803e de10 fdbd 7dab febd 73d9 cc3d
00000130: 5b73 1c3d 6b1e 39be a6b3 3d3c 43b8 cb3d
00000140: 0d08 46bd 40aa 99be 0b90 5bbe b754 69be
00000150: d874 6f3e 7147 cfbd ce2e 05be 04a3 333e
00000160: 89a8 133e 2ca3 49be 0d27 813e 793c 76bd
00000170: 7c13 563c 8578 903e e08b d73d 6067 80be
00000180: bb5f 27be 4fe8 203e 62c4 9dbe 567e 22be
00000190: 4beb 9abe bf65 d73e 7dd3 3ebe 5da4 aabe
000001a0: ba06 06bd d891 e7bd 275f a8be c9c3 19be
000001b0: 0a8a e5bd a83f 953e 036f 573e ea11 a73d
000001c0: f865 933e 462a 0b3e b0aa 55bd fa72 2dbe
000001d0: 32b6 07be 5e90 893c ef83 1c3e d157 5ebe
000001e0: 05b1 113e d76d 6a3e 5534 3dbd fbc5 85be
000001f0: 59de 023b 9e96 3abe f9c2 ce3d e2bb 3cbe
00000200: 62db bcbd 670c 46be 5138 97be d2f9 53be
00000210: 444d 33be 7659 9d3e c8b5 cdbd e43a 18be
00000220: 563c f63d f59c 963e c869 23be fe0f 9f3d
00000230: 8b5f bcbe 1c0c 233e 8756 a6bc f071 f53d
00000240: 24c1 06be 3bab e83d de28 413e f231 293e
00000250: 6a01 403e 8232 583e 4743 033e 8929 a9be
00000260: 7bea 0fbe 1dac 05be d51a 8b3c 2b9a 7b3e
00000270: 91ed 0a3e fd71 78be 3492 60bd 42c6 8abe
00000280: 0912 69be 4f03 e43d a765 73bd d08a 19be
00000290: 4357 f3bd 8648 40bd 8afa 65be e42d 82bc
000002a0: c752 84be 6fb0 9c3c 3ce6 903e 806e 683b
000002b0: 040d dbbe bf25 8d3e 7edc 443d d968 a5be
000002c0: 91b4 13bd eb84 843a 7e6b a23d fb73 0b3e
000002d0: 1a72 cbbd 4c2e 81be 24d5 a83c 8065 333d
000002e0: 8c64 423e d97b b0be ff2e 91be 2b6f 483e
000002f0: 4615 893d 801d 9cbe f107 82be 18d6 6d3e
00000300: 5586 a1bd 59b9 56be a70c 563e eca8 9abd
00000310: 04a4 7bbe b10f 89be e0bb a8be fd92 8d3d
00000320: 4150 90bd 6e39 ecbc 8a15 c4bd 78fa 683e
00000330: 311e cebd 35a9 86be 3072 07be bc21 fc3d
00000340: ab55 f1bd c10c 003e 504e 54be dd41 e3bd
00000350: 539a bcba 97ed 9fbd 61a1 51be 76a6 f9bd
00000360: 6e6c 78bd bd19 b43e 8757 a0be eb56 55be
00000370: d2cb 07be 1140 84be bd94 85be 6fb6 3a3e
00000380: 8309 283e 525e 97be c7df 1abe 0181 bf3e
00000390: 7a55 063d bb8c 8e3e 4644 2fbc 9fa6 1e3e
000003a0: 36e9 82be ae54 6b3e 3a32 56be aa56 2cbd
000003b0: 9e25 4dbd c318 a23d 0e22 0ebe 60f9 a1be
000003c0: b31e 0fbc 8eab 48be a5d0 8dbe ae00 54bc
000003d0: 37e2 bf3e bebd 0ebe 9f78 a8bd e3a5 9f3e
000003e0: e6d2 65be 512b f13c 2511 823e d2c3 97be
000003f0: b8d1 97bc ae8d e13d 4adf 34be 34cd debb

f_model.fc1.bias f4 [32]
-0.029566579 0.015315949 0.07364273 -0.24184227 0.046093844 -0.15329745 0.17784974 -0.11196674
0.037343673 0.13344544 -0.16722928 -0.03052975 0.024070878 0.04523754 0.2045905 0.14578494
0.19626822 0.2018522 -0.0774735 0.059641592 0.12191936 0.31168568 -0.10979703 0.29929522
0.19825229 0.1777578 -0.19661766 -0.07490489 -0.11765406 0.3213327 0.26325917 -0.12681304
00000000: 9c35 f2bc bfef 7a3c 00d2 963d 80a5 77be
00000010: e6cc 3c3d 02fa 1cbe 3e1e 363e d14e e5bd
00000020: aef5 183d eca5 083e 273e 2bbe 8719 fabc
00000030: 4a30 c53c 004b 393d 2c80 513e a648 153e
00000040: 89fa 483e 58b2 4e3e 6daa 9ebd be4a 743d
00000050: dbb0 f93d 4495 9f3e 44dd e0bd 393d 993e
00000060: a602 4b3e 2406 363e 2456 49be bc67 99bd
00000070: 9df4 f0bd b885 a43e e8c9 863e 47db 01be

f_model.fc2.weight f4 [10, 32]
-0.10770854 -0.09309312 -0.01289974 -0.08195057 0.0071385102 0.11661403 -0.03607451 0.12566392
-0.2716312 -0.22158884 -0.20239216 0.09802079 0.09905548 0.047478594 0.16703916 -0.10215778
0.17304036 -0.23902595 -0.16488138 -0.19844337 -0.21364544 0.26472732 0.12507798 0.12790267
-0.4037626 -0.24291185 -0.15033092 0.28177956 -0.19935519 -0.19021328 -0.2819298 -0.13143627
-0.040634215 -0.10661124 -0.24789774 0.20415832 -0.109249175 -0.19764699 0.034697838 -0.03318834
-0.34170654 0.036051076 0.08467833 -0.27733076 -0.2245476 -0.0784359 0.032456804 -0.012109034
-0.22841905 -0.22158451 0.2197133 -0.23497514 -0.25242135 -0.15269767 -0.15638441 0.1828006
0.1689159 0.32486916 0.0033503736 -0.20564742 -0.2931526 0.18702066 -0.21391656 0.1484421
-0.026091574 -0.09618307 0.13229194 0.14019512 -0.020357428 -0.097002104 -0.33419853 -0.05828772
-0.18955606 0.02647317 0.0067731705 0.004223744 0.10890659 -0.08013321 -0.085789315 -0.1015345
0.2597275 0.2580713 -0.113889 0.08695184 -0.15737486 -0.3157978 -0.22225015 0.12850048
0.086308815 -0.13186291 -0.14886187 -0.019872146 -0.3470881 -0.1364907 0.005831804 -0.027392026
0.07361483 0.33003062 0.13084495 -0.1153701 -0.2352481 -0.20070615 -0.11050483 -0.021599304
-0.32160115 0.19586565 -0.16038057 -0.032020863 -0.08116481 0.03164952 0.17491592 -0.08810788
-0.18243891 -0.07211114 -0.06542515 -0.08023866 -0.08549077 -0.15072049 0.20770505 -0.0033409018
0.14035371 -0.073273726 -0.12711681 -0.12636487 -0.0044028056 -0.31469515 -0.060308117 -0.12873758
-0.28050762 -0.12843356 -0.039798662 -0.08247337 -0.18293086 0.19472592 -0.3129227 -0.036519036
-0.11516318 0.06885237 -0.07215595 -0.21972665 -0.22146526 0.105259985 -0.07882025 0.24215747
0.07516975 -0.04335465 0.1967893 0.10878491 0.16307113 -0.12838332 -0.10970494 -0.05868527
-0.07112915 0.1324739 -0.16168746 -0.037750166 0.058273956 0.18597965 0.18576293 -0.35146588
-0.19715747 -0.04980123 0.23328808 -0.144568 -0.13284728 -0.021747304 0.24867341 -0.13780488
0.20999308 0.05911934 -0.056537557 -0.28000966 -0.18465571 0.03728055 0.24001388 -0.02050624
-0.047800764 -0.118350044 -0.23856492 -0.05194673 -0.10764194 -0.025945822 -0.10511672 -0.1630216
0.057793874 0.03552741 -0.08597789 -0.24313155 -0.15546966 -0.25578308 0.15728632 -0.12812021
-0.37297353 -0.08546749 -0.0070451386 0.045128405 0.17245091 0.0019270295 -0.1622908 -0.009070563
-0.16273299 0.14910798 -0.107321136 0.1349096 -0.13290426 -0.3124677 -0.13082734 -0.14449066
0.006427575 -0.27736297 -0.12750858 0.10053506 -0.06628232 0.2324065 -0.08553437 -0.31719074
-0.25541925 0.042622127 -0.059664056 -0.017195595 0.088743836 0.0043389746 0.08726787 -0.26187524
-0.047351047 0.20183049 -0.19204839 -0.13101444 -0.12597443 0.31216604 -0.32929978 -0.019458167
-0.0050478126 -0.24648288 0.019043127 0.028822837 -0.0036576136 -0.2065701 0.089556836 0.19782929
-0.18574041 -0.07078918 0.13228428 -0.26193503 0.020274928 -0.01882916 -0.07740135 -0.027598172
-0.06018997 -0.26920775 0.07334554 0.16267642 -0.20419717 -0.22764225 0.035029452 0.14618565
00000000: 4c96 dcbd 9ba7 bebd 6e59 53bc b3d5 a7bd
00000010: 2aea e93b 56d3 ee3d dec2 13bd 0bae 003e
00000020: 3f13 8bbe 2fe8 62be e43f 4fbe 20bf c83d
00000030: 99dd ca3d ea78 423d 500c 2b3e 1938 d1bd
00000040: 7e31 313e 38c3 74be aad6 28be bd34 4bbe
00000050: dfc5 5abe 578a 873e 7114 003e ebf8 023e
00000060: f9b9 cebe e2bd 78be 59f0 19be 6945 903e
00000070: c423 4cbe 45c7 42be 1a59 90be 3b97 06be
00000080: 1070 26bd fe56 dabd e8d8 7dbe e10e 513e
00000090: 08be dfbd f963 4abe 521f 0e3d 7ff0 07bd
000000a0: 29f4 aebe 4baa 133d d56b ad3d 4cfe 8dbe
000000b0: ceef 65be 00a3 a0bd 6df1 043d f864 46bc
000000c0: afe6 69be 0de7 62be 86fc 603e 539d 70be
000000d0: 5f3d 81be c75c 1cbe 3c23 20be 1530 3b3e
000000e0: 4af8 2c3e 4055 a63e f191 5b3b 3d95 52be
000000f0: 1918 96be 5882 3f3e f10c 5bbe 3501 183e
00000100: ffbd d5bc a1fb c4bd 8a77 073e 4f8f 0f3e
00000110: 9fc4 a6bc 0aa9 c6bd 121c abbe 1bbf 6ebd
00000120: fc1a 42be 43de d83c 79f1 dd3b 5567 8a3b
00000130: 6b0a df3d e11c a4bd 4fb2 afbd 52f1 cfbd
00000140: 01fb 843e ec21 843e a33e e9bd ce13 b23d
00000150: e026 21be 40b0 a1be 8b95 63be a195 033e
00000160: adc2 b03d 1207 07be 3f6f 18be e9ca a2bc
00000170: 88b5 b1be 38c4 0bbe b818 bf3b 3e65 e0bc
00000180: 5fc3 963d c6f9 a83e 38fc 053e 2947 ecbd
00000190: e1e4 70be ea85 4dbe 5b50 e2bd 06f1 b0bc
000001a0: e8a8 a4be 0191 483e ce3a 24be 4f28 03bd
000001b0: bc39 a6bd eda2 013d 291d 333e e771 b4bd
000001c0: 44d1 3abe 01af 93bd 9ffd 85bd 2b54 a4bd
000001d0: c915 afbd 7956 1abe a2b0 543e 08f3 5abb
000001e0: e2b8 0f3e 8910 96bd e92a 02be cb65 01be
000001f0: 6945 90bb b91f a1be a505 77bd c9d3 03be
00000200: b29e 8fbe 1684 03be ec03 23bd cce7 a8bd
00000210: 3a52 3bbe 3b66 473e 6737 a0be fc94 15bd
00000220: acda ebbd 7902 8d3d 80c6 93bd 0600 61be
00000230: cac7 62be 8c92 d73d 836c a1bd 21f8 773e
00000240: 99f2 993d a594 31bd 2283 493e 9fca de3d
00000250: 1efc 263e eb76 03be fcac e0bd f75f 70bd
00000260: 29ac 91bd 3da7 073e 6691 25be eb9f 1abd
00000270: acb0 6e3d 7371 3e3e a338 3e3e 56f3 b3be
00000280: a6e3 49be 60fc 4bbd 12e3 6e3e a209 14be
00000290: 1e09 08be 6727 b2bc 3ea4 7e3e b91c 0dbe
000002a0: 6d08 573e 1f27 723d ed93 67bd 6d5d 8fbe
000002b0: 6316 3dbe 7db3 183d 33c6 753e b4fc a7bc
000002c0: bcca 43bd 8261 f2bd 5d4a 74be 18c6 54bd
000002d0: 6173 dcbd 558c d4bc 6f47 d7bd 22ef 26be
000002e0: 45b9 6c3d 3185 113d 2d15 b0bd 7af7 78be
000002f0: 7033 1fbe 00f6 82be aa0f 213e f231 03be
00000300: 63f6 bebe 9409 afbd e8da e6bb 90d8 383d
00000310: f996 303e 6194 fc3a 8f2f 26be b39c 14bc
00000320: 7aa3 26be c3af 183e 2fcb dbbd be25 0a3e
00000330: 0e18 08be c4fb 9fbe 9af7 05be 5cf5 13be
00000340: 689e d23b 8502 8ebe 9c91 02be 53e5 cd3d
00000350: 06bf 87bd f8fb 6d3e a52c afbd d366 a2be
00000360: 50c6 82be 8a94 2e3d 4c62 74bd c7dd 8cbc
00000370: 54bf b53d f52d 8e3b 7fb9 b23d 8314 86be
00000380: 2cf3 41bd a7ac 4e3e 55a8 44be a628 06be
00000390: 71ff 00be 3ad4 9f3e fb99 a8be bc66 9fbc
000003a0: 1f68 a5bb 0266 7cbe 5500 9c3c df1d ec3c
000003b0: 93b4 6fbb 1d87 53be 9369 b73d c393 4a3e
000003c0: bc32 3ebe ebf9 90bd 8875 073e 591c 86be
000003d0: 9b17 a63c 9c3f 9abc 9984 9ebd 9015 e2bc
000003e0: c289 76bd 99d5 89be 3036 963d a694 263e
000003f0: 1019 51be 0d1b 69be 0b7b 0f3d b1b1 153e

f_model.fc2.bias f4 [10]
-0.1744 -0.08087738 0.015809484 -0.046069384 -0.11145275 0.13779575 0.18007728 -0.08577843
-0.11955556 0.110012926
00000000: ea95 32be 0aa3 a5bd e482 813c 40b3 3cbd
00000010: 5741 e4bd 541a 0d3e 2e66 383e 9aac afbd
00000020: 8cd9 f4bd 754e e13d
