models/Experiment 4/Trained on normal data/sequential_model_cons6.pt (torch, 468371 bytes, 12 tensors)

g_model.conv1.weight f4 [32, 1, 3, 3]
0.28778955 0.44648734 0.1975883 0.20493841 0.051116254 0.4309872 -0.3687084 -0.035750918
-0.09084148 0.39490822 0.5503305 0.25316444 0.40562704 0.27371666 0.4328447 0.27343082
0.049213838 -0.33118916 0.17850699 0.4832591 0.50530285 0.18657058 0.12702306 -0.0026742418
0.19367443 -0.04719018 0.14883527 0.07256679 -0.2571672 -0.41196293 -0.33331195 0.10772423
0.06684667 -0.24165413 -0.055655584 -0.09838978 0.4647987 0.52048767 0.35687265 0.30092722
0.015742974 0.00138205 -0.12593468 -0.15005656 0.08803028 -0.0921877 0.39682797 -0.013459772
-0.15573712 0.37667346 0.3386715 0.17734458 0.32219777 0.26870218 0.023835428 0.3268567
-0.2065256 -0.07170611 -0.016208451 -0.0654899 -0.2336157 -0.31508997 -0.31652668 -0.11901701
-0.26950586 -0.13963626 -0.21785933 -0.11765786 0.050787337 -0.33849806 -0.0052216486 -0.09103229
0.29494783 -0.058974948 0.23396832 0.37221542 0.00042378888 -0.07878458 -0.15194574 0.31511644
-0.1921269 0.4488668 -0.025683727 0.47070795 0.47625384 0.5716007 -0.123051964 0.025890326
0.24384436 0.12217783 -0.0837054 0.13108 -0.32811695 0.41001275 0.33556795 -0.030334296
0.009712238 0.19404206 0.069517784 -0.13356112 0.45413896 0.027526341 0.040940445 0.44850203
0.16310108 0.12556654 -0.2288078 0.3687908 0.10081985 0.3820958 0.46755296 0.21673027
0.32467642 0.029137842 -0.1078086 0.42043766 -0.11227309 0.017607491 0.043010473 -0.071080804
-0.041420422 0.039940875 -0.30169797 -0.05594822 0.08542526 -0.10858552 -0.38402352 -0.18507048
-0.32669246 -0.31048077 0.025012342 -0.18342105 0.2763457 0.10922054 0.0100538125 -0.008776489
-0.09462244 0.50258225 0.31275323 0.44105196 0.28035164 0.0054830946 0.3191783 0.45276895
0.46416235 0.06517992 0.37483084 -0.122884445 0.41534197 0.1308032 -0.29980028 -0.38874662
-0.33070776 0.26104724 -0.23687801 0.009437253 -0.26470527 0.029947141 0.24931598 -0.12323386
0.42950085 -0.13057317 -0.03455875 0.24647182 -0.11853904 -0.05632924 0.20125096 0.18849012
0.4245435 0.14499009 0.41354463 -0.17029057 -0.17260423 0.06503984 0.17796117 -0.07485543
0.34808844 0.08277984 0.3057819 -0.22456157 0.15611312 0.38017908 -0.27164468 -0.11814274
0.02486833 -0.01672765 0.004070692 -0.21619783 0.19662511 -0.40124992 -0.30406904 -0.16724896
-0.04243417 0.058728717 0.4236889 0.41052526 -0.12718698 0.3949115 0.046046343 0.014839999
0.44408268 0.31857914 0.19931623 0.5028429 0.40179893 0.26520061 0.24391997 0.05414721
-0.0034032124 0.2642441 0.087115236 0.49504972 0.1828204 -0.21212363 0.25548407 0.5505284
0.15101759 0.37374544 0.36219475 -0.16573556 -0.1307399 0.48371398 0.048629936 -0.031028517
0.23786096 -0.04063376 -0.43625382 0.2691614 -0.12685798 -0.26534414 -0.22282451 0.18678212
0.18044154 0.3874338 -0.3231356 -0.2609578 0.22911686 -0.07534554 0.23458722 0.021086795
-0.053202767 0.3978538 0.43308976 -0.27962598 -0.13949892 -0.118502535 -0.16158465 0.20260914
0.41155803 0.38835248 0.024979083 -0.21088322 0.1321917 0.32216856 -0.09309772 0.3116685
00000000: 2759 933e fd99 e43e 9654 4a3e 60db 513e
00000010: 475f 513d 5baa dc3e 59c7 bcbe 8e6f 12bd
00000020: 190b babd 6931 ca3e 76e2 0c3f c59e 813e
00000030: 59ae cf3e 9724 8c3e d29d dd3e 20ff 8b3e
00000040: 7394 493d a091 a9be 89ca 363e bd6d f73e
00000050: 875b 013f 5c0c 3f3e 5512 023e 5542 2fbb
00000060: 9752 463e 7d4a 41bd 4668 183e e69d 943d
00000070: 6bab 83be ceec d2be dda7 aabe 859e dc3d
00000080: e8e6 883d 2e74 77be 1cf7 63bd 9580 c9bd
00000090: 18fa ed3e ae3e 053f 03b8 b63e 2213 9a3e
000000a0: 69f7 803c e725 b53a 05f5 00be 6da8 19be
000000b0: 3849 b43d e8cc bcbd 092d cb3e 6086 5cbc
000000c0: 8d79 1fbe 58db c03e 5a66 ad3e d199 353e
000000d0: 1bf7 a43e 5593 893e 8442 c33c c359 a73e
000000e0: 727b 53be a7da 92bd 96c7 84bc 921f 86bd
000000f0: f438 6fbe 7953 a1be c90f a2be 31bf f3bd
00000100: acfc 89be cffc 0ebe 8416 5fbe 9bf6 f0bd
00000110: 6206 503d 9e4f adbe 5d1a abbb 236f babd
00000120: 6703 973e b78f 71bd 6495 6f3e 0593 be3e
00000130: fb2f de39 cf59 a1bd aa97 1bbe f156 a13e
00000140: eabc 44be dfd1 e53e ae66 d2bc a200 f13e
00000150: 8bd7 f33e 6c54 123f ab02 fcbd f317 d43c
00000160: 56b2 793e 5f38 fa3d bd6d abbd d639 063e
00000170: f2fe a7be 31ed d13e 90cf ab3e a17f f8bc
00000180: 1420 1f3c f6b2 463e 575f 8e3d 3fc4 08be
00000190: e784 e83e ec7e e13c 2bb1 273d 0fa2 e53e
000001a0: f803 273e 8494 003e 984c 6abe 26d2 bc3e
000001b0: a37a ce3d 10a2 c33e 1a63 ef3e 8aee 5d3e
000001c0: fd3b a63e 7cb2 ee3c c1ca dcbd 9b43 d73e
000001d0: 6fef e5bd 963d 903c c02b 303d d092 91bd
000001e0: 76a8 29bd 0b99 233d 2878 9abe f629 65bd
000001f0: 70f3 ae3d 1662 debd bb9e c4be 1e83 3dbe
00000200: 3c44 a7be 56f7 9ebe afe6 cc3c bad2 3bbe
00000210: 2f7d 8d3e 05af df3d bfb8 243c 43cb 0fbc
00000220: 69c9 c1bd 3ba9 003f 3121 a03e 90d1 e13e
00000230: 408a 8f3e 88ab b33b 576b a33e 55d1 e73e
00000240: b0a6 ed3e 0d7d 853d d4e9 bf3e d7aa fbbd
00000250: b4a7 d43e 46f1 053e 6c7f 99be cc09 c7be
00000260: 8752 a9be fca7 853e 2690 72be b59e 1a3c
00000270: 7387 87be b553 f53c b04c 7f3e 0962 fcbd
00000280: 89e7 db3e f9b4 05be 7a8d 0dbd 1c63 7c3e
00000290: 99c4 f2bd 7db9 66bd bb14 4e3e 8e03 413e
000002a0: c45d d93e 4878 143e 1fbc d33e a760 2ebe
000002b0: 2abf 30be 9c33 853d 743b 363e ce4d 99bd
000002c0: a638 b23e 7a88 a93d 728f 9c3e 78f3 65be
000002d0: 1edc 1f3e d5a6 c23e 0315 8bbe d2f4 f1bd
000002e0: abb8 cb3c 6d08 89bc 7163 853b f762 5dbe
000002f0: 1858 493e a170 cdbe f0ae 9bbe 5043 2bbe
00000300: 74cf 2dbd 868d 703d c0ed d83e 5e30 d23e
00000310: 4e3d 02be d731 ca3e 179b 3c3d 7823 733c
00000320: ce5e e33e ce1c a33e 8e19 4c3e 50ba 003f
00000330: 97b8 cd3e 60c8 873e 28c6 793e 77c9 5d3d
00000340: 6e08 5fbb 014b 873e 7969 b23d 2877 fd3e
00000350: 4535 3b3e f036 59be cfce 823e 6eef 0c3f
00000360: 5ba4 1a3e 905b bf3e 9771 b93e 95b6 29be
00000370: aee0 05be 5ca9 f73e 2f30 473d 842f febc
00000380: d391 733e 966f 26bd a95c dfbe 86cf 893e
00000390: 0fe7 01be 30db 87be 1c2c 64be d043 3f3e
000003a0: abc5 383e b95d c63e 0872 a5be 439c 85be
000003b0: 9c9d 6a3e c34e 9abd a237 703e 37be ac3c
000003c0: 25eb 59bd 7eb3 cb3e f1bd dd3e 232b 8fbe
000003d0: ced8 0ebe 75b1 f2bd 7276 25be c578 4f3e
000003e0: bcb7 d23e 23d6 c63e efa0 cc3c c5f1 57be
000003f0: 435d 073e 47f3 a43e 04aa bebd 0393 9f3e

g_model.conv1.bias f4 [32]
0.0028348826 0.0008491117 -0.16296259 0.22386985 0.235193 -0.11504582 0.09296999 0.33652937
0.18113156 0.04631154 0.3001799 0.22381823 -0.02470526 -0.24630849 0.31099814 -0.00021744521
-0.12356135 -0.22267264 0.27570993 -0.0062434054 -0.04176364 0.17717966 -0.00023247868 -0.0672307
0.03745302 0.072901 0.09529741 -0.11769999 0.122592404 0.22065873 0.00044984545 0.13615794
00000000: 70c9 393b ec96 5e3a aadf 26be 233e 653e
00000010: 6fd6 703e 259d ebbd 0d67 be3d 944d ac3e
00000020: 8d7a 393e 2bb1 3d3d 2eb1 993e 9b30 653e
00000030: af62 cabc 4b38 7cbe 263b 9f3e 0102 64b9
00000040: bc0d fdbd 4c04 64be da29 8d3e 7b95 ccbb
00000050: 5a10 2bbd 966e 353e 85c5 73b9 40b0 89bd
00000060: 5768 193d 1f4d 953d 4a2b c33d b10c f1bd
00000070: ba11 fb3d 5df4 613e 3cd9 eb39 fd6c 0b3e

g_model.conv2.weight f4 [32, 32, 3, 3]
0.03345639 0.041774433 0.061224163 -0.070846945 0.023722202 0.034694623 0.044267233 0.06652713
0.026202843 -0.054480612 0.07080285 0.07131915 0.019138588 -0.0077920095 0.08361226 0.06576978
0.027509524 -0.006757527 -0.01600312 0.12924615 0.12849383 -0.034389276 -0.0019674283 0.07015848
0.08889083 0.01211899 0.08167962 -0.079886146 -0.049673166 -0.08248546 -0.077798784 -0.09468938
-0.06681214 -0.11632882 -0.057664007 -0.078684434 -0.021062022 0.09216515 0.030082008 -0.004740942
0.032700974 0.07032485 0.012048977 0.07919533 -0.031272445 -0.003024081 0.0951998 0.105647735
0.07096628 0.02459554 0.091619104 0.04552814 -0.02285465 -0.015296077 -0.004294975 -0.13440496
-0.06072209 -0.09399869 -0.032395568 -0.11231166 -0.037954506 -0.13686672 -0.08365179 0.019466298
-0.04669666 -0.086412214 -0.01522776 -0.06459854 -0.03625721 -0.084379226 -0.0048331306 -0.043219745
0.0064054388 0.027960483 0.081758685 -0.02170195 -0.029883409 -0.02187247 -0.030280601 0.02733767
0.020397915 -0.014854221 0.086663164 0.033441655 -0.04741234 0.01469662 0.017034233 -0.00931751
0.0134417415 0.04773433 0.0022919918 0.008913735 0.028526537 -0.05256045 -0.064717025 -0.020338194
-0.021841636 -0.011905171 -0.059372626 -0.008610832 0.09066756 0.03624996 -0.041191213 0.057197545
-0.010251078 -0.024978785 -0.045068417 -0.05170184 -0.005586988 0.11051367 0.07838395 -0.057585057
-0.010057856 -0.012149101 0.054378755 -0.024870347 -0.038644794 0.052079745 0.052169405 -0.04084229
-0.029968264 0.056993555 0.04182241 0.042875055 0.020354357 -0.056834757 -0.043855354 -0.09820199
-0.11590228 -0.015112816 -0.08441187 -0.016163819 -0.07165116 -0.057348575 0.022498569 0.010617479
0.022409344 0.10765315 -0.03732406 0.011958763 0.020636383 -0.028473174 -0.030250344 0.020526003
0.071949646 -0.058110587 -0.032949977 -0.0815238 0.05673297 0.1485571 -0.038104545 -0.003461095
0.11913424 -0.008260503 0.061596073 0.12943451 0.13621342 0.033437032 0.026182974 0.18383749
0.1015178 0.07065356 -0.045018774 0.051603146 0.08035899 0.032350592 0.034664657 0.015055339
0.038737793 0.018746132 -0.027081622 0.039194956 -0.0854651 0.023218587 0.039239045 0.06551334
0.05523074 0.10979556 0.060788605 -0.0011642219 -0.018638551 0.0993279 0.06195821 -0.0739837
0.036771853 0.11732802 0.07229957 0.034531556 0.12608495 0.020282943 -0.036176257 -0.0077535757
-0.03968421 0.041121636 0.0032588034 0.03241428 0.0059217922 -0.0700562 0.006686662 -0.026299018
0.09673295 -0.0069850334 0.041217055 0.012961472 0.07573115 -0.01997745 0.033138346 -0.006990358
0.05845906 0.12968233 -0.037095327 -0.019969374 0.06502282 0.050197925 -0.027181577 -0.048244815
0.06588226 0.068118624 0.071923584 0.017253118 -0.011283564 -0.022378268 -0.029421147 -0.046787184
0.07210745 0.022115275 -0.018149162 -0.047020297 0.020514112 0.046659376 0.03084527 -0.018904282
0.012007687 -0.041248884 0.022531146 0.028241105 0.06686524 0.054908883 -0.020273654 -0.026518501
0.0446914 -0.032508105 -0.07205488 0.020006077 -0.12350109 -0.15133058 0.060279626 0.13031654
-0.0056225974 0.24993642 0.17175546 0.11773939 -0.06957299 -0.0019520352 0.05977058 0.020141054
00000000: 9109 093d ab1b 2b3d 30c6 7a3d 3418 91bd
00000010: 1055 c23c f31b 0e3d 8f51 353d 603f 883d
00000020: 58a7 d63c 1027 5fbd 1601 913d c60f 923d
00000030: 87c8 9c3c 1d54 ffbb e83c ab3d 4eb2 863d
00000040: a75b e13c 3f6e ddbb fa18 83bc 1a59 043e
00000050: e393 033e c5db 0cbd f8ef 00bb 40af 8f3d
00000060: 650c b63d ba8e 463c a547 a73d 599b a3bd
00000070: 1776 4bbd 23ee a8bd f854 9fbd 81ec c1bd
00000080: ced4 88bd ce3d eebd 1831 6cbd 4e25 a1bd
00000090: 438a acbc 15c1 bc3d 8b6e f63c e759 9bbb
000000a0: 75f1 053d 7a06 903d 1369 453c 2931 a23d
000000b0: 8917 00bd a92f 46bb 1df8 c23d d75d d83d
000000c0: c556 913d 967c c93c cca2 bb3d b77b 3a3d
000000d0: ad39 bbbc 669c 7abc ddbc 8cbb 74a1 09be
000000e0: bab7 78bd 6382 c0bd 37b1 04bd a803 e6bd
000000f0: 2f76 1bbd ca26 0cbe a151 abbd c977 9f3c
00000100: ff44 3fbd e3f8 b0bd db7d 79bc 3d4c 84bd
00000110: 7182 14bd 04cf acbd 3d5f 9ebb 3007 31bd
00000120: b7e4 d13b 620d e53c 1971 a73d 4ac8 b1bc
00000130: 0dce f4bc e52d b3bc 060f f8bc 40f3 df3c
00000140: 8719 a73c 1e5f 73bc 757c b13d 1efa 083d
00000150: 7133 42bd 18ca 703c 608b 8b3c 78a8 18bc
00000160: c03a 5c3c 1385 433d 3e35 163b ea0a 123c
00000170: 7cb0 e93c a049 57bd 5c8a 84bd 499c a6bc
00000180: 3bed b2bc e80d 43bc b630 73bd 7214 0dbc
00000190: eaaf b93d d77a 143d 1eb8 28bd f947 6a3d
000001a0: 23f4 27bc 4fa0 ccbc a999 38bd 4fc5 53bd
000001b0: 0d13 b7bb fe54 e23d c487 a03d 4fde 6bbd
000001c0: b5c9 24bc 060d 47bc 42bc 5e3d e6bc cbbc
000001d0: 014a 1ebd 9251 553d 96af 553d 3f4a 27bd
000001e0: 0180 f5bc 1372 693d fa4d 2b3d c19d 2f3d
000001f0: 2ebe a63c 90cb 68bd aca1 33bd 201e c9bd
00000200: 2d5e edbd bf9b 77bc 21e0 acbd fc69 84bc
00000210: d8bd 92bd 57e6 6abd eb4e b83c eff4 2d3c
00000220: cd93 b73c 4179 dc3d 1de1 18bd b0ee 433c
00000230: a20d a93c 9340 e9bc 92cf f7bc 2626 a83c
00000240: 565a 933d 5e05 6ebd 8ef6 06bd f3f5 a6bd
00000250: d560 683d 5a1f 183e 8313 1cbd 8ad3 62bb
00000260: a7fc f33d 1057 07bc 2a4c 7c3d 7b8a 043e
00000270: 887b 0b3e 45f5 083d ad7d d63c e53f 3c3e
00000280: 90e8 cf3d d0b2 903d 9b65 38bd d25d 533d
00000290: 4193 a43d 0e82 043d 87fc 0d3d abaa 763c
000002a0: 85ab 1e3d 7d91 993c 47da ddbc e48a 203d
000002b0: 5408 afbd e834 be3c 1fb9 203d dc2b 863d
000002c0: a139 623d 7fdc e03d 79fd 783d ce98 98ba
000002d0: e0af 98bc 6d6c cb3d e4c7 7d3d c484 97bd
000002e0: 159e 163d ac49 f03d cc11 943d f670 0d3d
000002f0: 6a1c 013e 6a28 a63c 8e2d 14bd b511 febb
00000300: e98b 22bd 296f 283d a691 553b d6c4 043d
00000310: 980b c23b a079 8fbd c91b db3b 0a71 d7bc
00000320: ed1b c63d b5e2 e4bb 37d3 283d 5b5c 543c
00000330: ef18 9b3d c0a7 a3bc 13bc 073d 5f0f e5bb
00000340: c472 6f3d 72cb 043e 45f1 17bd d096 a3bc
00000350: af2a 853d 579c 4d3d e6ab debc 5b9c 45bd
00000360: 47ed 863d c781 8b3d ac4c 933d 6956 8d3c
00000370: b3de 38bc a152 b7bc 9e04 f1bc eba3 3fbd
00000380: 12ad 933d 182b b53c 8dad 94bc 5b98 40bd
00000390: 360d a83c e71d 3f3d 38af fc3c 27dd 9abc
000003a0: e4bb 443c 97f4 28bd 3d93 b83c e459 e73c
000003b0: a5f0 883d 23e8 603d ef14 a6bc 543d d9bc
000003c0: 540e 373d 3827 05bd 8291 93bd c9e3 a33c
000003d0: 24ee fcbd 67f6 1abe c5e7 763d b371 053e
000003e0: c43d b8bb 55ef 7f3e aae0 2f3e 5921 f13d
000003f0: 497c 8ebd 6fdb ffba ffd1 743d dafe a43c

g_model.conv2.bias f4 [32]
0.015243516 -0.029713606 -0.055997085 0.0141821 -0.010796082 0.04428246 0.030068139 -0.021978272
0.0063842866 -0.02073143 -0.025033975 0.02820929 -0.012446922 -0.066723995 -0.013826003 0.022717642
-0.06783652 0.020679634 0.12703812 -0.060780607 -0.05093132 0.00777366 -0.060547937 0.06030339
0.012442359 -0.037738774 0.018517204 0.01960084 -0.049102135 -0.05721518 -0.048578396 -0.0017566255
00000000: f1bf 793c f369 f3bc 335d 65bd 0a5c 683c
00000010: 0de2 30bc 8661 353d 7551 f63c c70b b4bc
00000020: 4733 d13b f6d4 a9bc 0d14 cdbc 2b17 e73c
00000030: 2dee 4bbc 97a6 88bd 7686 62bc 591a ba3c
00000040: e0ed 8abd 5668 a93c 4816 023e 16f5 78bd
00000050: 5c9d 50bd 30ba fe3b 1d01 78bd b000 773d
00000060: 09db 4b3c f993 1abd 64b1 973c f191 a03c
00000070: 521f 49bd 775a 6abd 24fa 46bd 923e e6ba

g_model.fc1.weight f4 [128, 800]
0.0011363404 -0.006927222 0.020195974 -0.028423075 0.01215925 -0.02874454 -0.015630199 -0.03330684
-0.04045369 0.001490024 -0.03352237 0.003268233 0.041830808 -0.0024211144 0.017600106 -0.004905593
0.012222972 0.003904739 0.0048759957 -0.045309782 0.008738809 -0.012669189 -0.005752368 -0.04488772
-0.009446171 0.003754481 -0.01846775 -0.012902127 0.037161764 -0.017358372 0.0023298608 0.018306334
-0.0008700896 0.03552385 -0.032861736 -0.010429439 -0.009595588 -0.039951127 -0.035205126 -0.013467386
0.0016488242 0.032427832 0.009768203 -0.021476757 -0.014824277 0.009850264 -0.017961169 -0.018995328
0.032201324 0.07748068 -0.010377538 0.01751318 0.033018824 0.020693593 0.014687778 0.016390271
-0.009927131 -0.0019284473 0.0073085935 -0.014212188 0.033676095 -0.004433841 0.010209773 -0.025607519
-0.0577427 -0.012545025 0.046695672 -0.010345723 -0.04927177 0.03497888 0.05707084 -0.011225006
-0.032949418 0.07380183 0.044040322 0.031782463 0.04292061 0.057603233 0.017189568 0.013400121
0.017102005 0.01567 0.0014771535 0.042468227 0.00026945092 -0.00029286643 0.041918844 0.008515791
0.00847942 0.0029711672 0.0040401607 -0.04771875 0.09755322 0.072023086 -0.006706972 0.051221997
0.052315738 0.031166695 0.018006278 -0.0064678555 -0.038012743 0.00054236915 -0.0003844977 0.028955797
0.053270157 0.009248386 -0.014020112 0.002795354 0.00054567243 0.051929474 -0.0060950476 -0.021505537
-0.033551004 0.033291694 -0.012703249 -0.0009978674 0.0071232985 0.0065196687 -0.052083213 0.0048942007
-0.003359317 0.012776965 0.014010163 -0.008314404 -0.0065297177 0.016716944 0.0140193775 0.004760081
0.02838583 0.0079838885 0.0034740437 0.031070659 0.020579023 0.05390191 0.041480977 0.066795476
-0.015232574 0.026781788 -0.04412507 -0.023681756 -0.011631113 -0.013015157 0.016477525 0.009267248
0.03246427 0.0032737933 0.03780241 -0.0016159671 -0.012436372 0.028651413 -0.0018349264 0.01585076
0.036969587 0.02346429 0.013532495 -0.045847867 0.051340766 0.039043844 0.01192456 -0.0036245894
0.031570565 -0.009092773 -0.034329817 -0.03052667 -0.06850387 -0.050582893 -0.05129566 -0.012051432
-0.015406989 0.015813231 0.021065671 -0.0067561814 0.017583758 0.02584935 0.084533885 -0.007993241
0.021242786 0.02495531 0.00084481714 -0.009725034 0.024611998 0.015964802 0.013875393 0.03858309
-0.041319117 -0.0049214987 -0.03401944 -0.0476702 0.007355529 -0.06007338 -0.021278428 0.0007334935
-0.051273268 -0.010035848 -0.0009417402 -0.0358543 -0.00088551396 0.050598092 0.057281833 -0.013655283
-0.04451541 -0.040760163 0.021061236 -0.005308987 -0.016947752 -0.044220053 -0.03385734 0.0158395
0.020650582 0.028124586 0.004557766 -0.02331146 -0.04487114 -0.029001208 -0.026228637 -0.00693579
-0.032885358 -0.033160757 0.031420436 -0.009918805 0.02290182 0.012541805 0.045861542 -0.015064195
0.0023458502 0.015072135 -0.031059016 0.011959635 0.008638554 -0.016324788 -0.008929478 0.01641429
0.030245924 0.0725379 0.047398053 -0.0003306416 0.033968437 0.07180553 -0.013627999 0.013109729
0.063737966 0.028946742 -0.05995401 0.05535512 0.025245946 -0.029656122 -0.08879821 -0.078461595
-0.0125352135 0.0730034 -0.05030976 -0.04149249 -8.814657e-06 -0.017065134 -0.0024100123 -0.052725457
00000000: 42f1 943a c0fd e2bb 0772 a53c 82d7 e8bc
00000010: 9737 473c ab79 ebbc e70a 80bc c16c 08bd
00000020: c5b2 25bd e94c c33a c14e 09bd da2f 563b
00000030: c856 2b3d 8fab 1ebb 192e 903c 19bf a0bb
00000040: dc42 483c a6e6 7f3b d1c6 9f3b c096 39bd
00000050: 392d 0f3c 6e92 4fbc 5c7e bcbb 30dc 37bd
00000060: 1dc4 1abc bd0d 763b ae49 97bc 7163 53bc
00000070: ef36 183d 2533 8ebc 94b0 183b 2af7 953c
00000080: ba16 64ba 7581 113d 079a 06bd 3de0 2abc
00000090: d036 1dbc cba3 23bd 4033 10bd 50a6 5cbc
000000a0: 5c1d d83a 0cd3 043d d00a 203c 06f0 afbc
000000b0: 86e1 72bc 0063 213c 4d23 93bc 179c 9bbc
000000c0: 89e5 033d 31ae 9e3d 8d06 2abc cd77 8f3c
000000d0: bf3e 073d 9c85 a93c 02a5 703c e444 863c
000000e0: 68a5 22bc f4c3 fcba ed7c ef3b 3dda 68bc
000000f0: f2ef 093d c149 91bb e446 273c dcc6 d1bc
00000100: 9c83 6cbd a689 4dbc f643 3f3d 1b81 29bc
00000110: 32d1 49bd 0446 0f3d 1dc3 693d 16e9 37bc
00000120: f8f5 06bd 6a25 973d a063 343d 542e 023d
00000130: 86cd 2f3d 5ef1 6b3d 23d1 8c3c 2e8c 5b3c
00000140: 8119 8c3c 5f5e 803c 0c9d c13a 2af3 2d3d
00000150: 1745 8d39 de8b 99b9 18b3 2b3d d185 0b3c
00000160: 44ed 0a3c eab7 423b 5363 843b bc74 43bd
00000170: fcc9 c73d d780 933d 29c6 dbbb 28ce 513d
00000180: 0749 563d 4c51 ff3c e781 933c 4ef0 d3bb
00000190: 40b3 1bbd c72d 0e3a 6896 c9b9 b534 ed3c
000001a0: cf31 5a3d 8b86 173c 9db4 65bc 4232 373b
000001b0: 750b 0f3a 00b4 543d f7b8 c7bb 612c b0bc
000001c0: c76c 09bd df5c 083d 4a21 50bc e0ca 82ba
000001d0: 8f6a e93b f2a2 d53b 3555 55bd 885f a03b
000001e0: fd27 5cbb 7a56 513c e28a 653c 2339 08bc
000001f0: 3ef7 d5bb f9f1 883c 88b1 653c 74fa 9b3b
00000200: 6689 e83c dbce 023c c8ac 633b e587 fe3c
00000210: 5795 a83c 40c8 5c3d f5e7 293d 11cc 883d
00000220: 0c92 79bc 7b65 db3c 7dbc 34bd 3e00 c2bc
00000230: 6c90 3ebc 863d 55bc e0fb 863c a8d5 173c
00000240: 41f9 043d 238d 563b b3d6 1a3d dcce d3ba
00000250: edc1 4bbc 5eb6 ea3c ea81 f0ba 74d9 813c
00000260: 6c6d 173d 2f38 c03c 66b7 5d3c f9ca 3bbd
00000270: b24a 523d 70ec 1f3d 3b5f 433c 858a 6dbb
00000280: 2350 013d dbf9 14bc 6c9d 0cbd 1113 fabc
00000290: c24b 8cbd 0230 4fbd 661b 52bd 5f73 45bc
000002a0: 986d 7cbc c08a 813c ea91 ac3c f562 ddbb
000002b0: d00b 903c 04c2 d33c 1a20 ad3d 15f6 02bc
000002c0: 5a05 ae3c 146f cc3c b876 5d3a c055 1fbc
000002d0: 1a9f c93c 9ec8 823c 9e55 633c 4d09 1e3d
000002e0: 3c3e 29bd 8644 a1bb f857 0bbd d441 43bd
000002f0: a606 f13b 810f 76bd 1950 aebc ea47 403a
00000300: eb03 52bd 666d 24bc 1ddf 76ba f5db 12bd
00000310: d621 68ba f23f 4f3d 5ba0 6a3d 68ba 5fbc
00000320: ca55 36bd 21f4 26bd 9d88 ac3c 03f7 adbb
00000330: 03d6 8abc 1620 35bd ffad 0abd d7c1 813c
00000340: 692b a93c 8865 e63c 5059 953b adf7 bebc
00000350: cdca 37bd f193 edbc 70dd d6bc a045 e3bb
00000360: ccb2 06bd 93d3 07bd b7b2 003d 7c82 22bc
00000370: 999c bb3c 257c 4d3c 50d9 3b3d d0cf 76bc
00000380: d6bc 193b 1ef1 763c 7a6f febc 58f2 433c
00000390: b988 0d3c 90bb 85bc f24c 12bc 4377 863c
000003a0: 4dc6 f73c c08e 943d 7624 423d f759 adb9
000003b0: 7d22 0b3d c70e 933d f947 5fbc 30ca 563c
000003c0: 0d89 823d b821 ed3c 5692 75bd 0dbc 623d
000003d0: 96d0 ce3c 65f1 f2bc d6db b5bd 79b0 a0bd
000003e0: 7f60 4dbc ce82 953d 9b11 4ebd 07f4 29bd
000003f0: aae2 13b7 2ecc 8bbc 4cf1 1dbb a6f6 57bd

g_model.fc1.bias f4 [128]
0.019866928 0.0133244125 0.03833697 0.02913036 -0.03516352 -0.0066622514 -0.027908152 -0.007672988
0.03474029 -0.01674489 -0.024578497 0.033649992 0.0040236465 0.0060365414 0.014566169 -0.031160682
0.022326197 -0.0149797015 0.018838426 -0.011009209 0.024198677 0.023561759 0.031300932 -0.035642013
0.031891055 0.015969884 0.021369591 -0.03207585 -0.039312705 0.013632247 -0.02343781 0.008286158
0.022713408 -0.023465201 -0.023070611 -0.015936008 -0.0038983668 -0.0023948688 0.007020416 -0.0031842096
-0.037758943 0.019906677 -0.036255796 0.015863962 -0.019589782 0.007492808 0.017390257 0.01615742
-0.008930899 -0.030433223 0.0061097923 -0.031788133 0.025418838 0.038340315 0.0010394744 0.0021285634
-0.010995023 -0.01956769 0.0170944 0.026372932 -0.030977396 -0.016184384 0.019580765 0.014716363
0.0066738776 0.014216503 0.030332576 0.0317102 -0.022570703 0.02167952 0.045411736 -0.024523092
0.022538465 -0.01594508 -0.01433066 0.0038873134 -0.012906545 0.021080526 0.013905974 -0.019615922
0.015780702 0.029465737 0.0073496834 -0.009243917 0.030669706 -0.004072921 0.010591048 0.02122484
-0.029113403 0.026408033 0.0149463555 -0.023539323 0.021583296 0.0396448 0.008776063 0.011920757
0.035693932 0.02948244 0.023007158 0.032166086 0.018162876 -0.043069445 0.016863607 0.0014565754
-0.008524688 0.029993797 -0.034460463 0.0102756405 -0.02544579 -0.022058617 0.011569641 -0.027812975
0.005266152 0.01061566 -0.025238343 0.020251717 0.02391304 0.017192075 -0.0138042355 0.02205972
0.00034255857 -0.030396337 -0.010011187 0.030209366 0.01255259 -0.007502973 -0.020553764 -0.034811243
00000000: f8bf a23c a34e 5a3c 3a07 1d3d cba2 ee3c
00000010: a007 10bd 044f dabb a39f e4bc b06d fbbb
00000020: d64b 0e3d 942c 89bc d858 c9bc 93d4 093d
00000030: cbd8 833b 2ece c53b f1a6 6e3c b044 ffbc
00000040: 6ee5 b63c 6c6d 75bc 0b53 9a3c f85f 34bc
00000050: 4e3c c63c 9704 c13c 6835 003d 5cfd 11bd
00000060: 32a0 023d 46d3 823c 480f af3c f761 03bd
00000070: 5c06 21bd ca59 5f3c a600 c0bc aac2 073c
00000080: 7811 ba3c 183a c0bc 94fe bcbc 3b8c 82bc
00000090: be7b 7fbb 3bf3 1cbb 850b e63b 2cae 50bb
000000a0: 1fa9 1abd 5413 a33c f580 14bd 24f5 813c
000000b0: c07a a0bc 3b86 f53b 0376 8e3c 915c 843c
000000c0: e852 12bc 184f f9bc a734 c83b 4634 02bd
000000d0: 2b3b d03c bc0a 1d3d f93e 883a 5e7f 0b3b
000000e0: 7824 34bc 6c4c a0bc 8e09 8c3c 0c0c d83c
000000f0: 4fc4 fdbc 1d95 84bc d767 a03c e61c 713c
00000100: 8bb0 da3b 56ec 683c 067c f83c 8ee2 013d
00000110: 32e6 b8bc 4099 b13c a801 3a3d a7e4 c8bc
00000120: 96a2 b83c 429f 82bc 25cb 6abc 4cc2 7e3b
00000130: f975 53bc 11b1 ac3c e2d5 633c 92b1 a0bc
00000140: 8846 813c 2162 f13c 9dd5 f03b cc73 17bc
00000150: 093f fb3c 2376 85bb 1386 2d3c b7df ad3c
00000160: 3b7f eebc a955 d83c 8fe1 743c 8ad5 c0bc
00000170: 74cf b03c 9662 223d 7ac9 0f3c 474f 433c
00000180: cd33 123d 2885 f13c 8279 bc3c 96c0 033d
00000190: 50ca 943c 9669 30bd 8c25 8a3c 8fea be3a
000001a0: 22ab 0bbc 8db5 f53c 6a26 0dbd 295b 283c
000001b0: b073 d0bc 46b4 b4bc 978e 3d3c 09d8 e3bc
000001c0: af8f ac3b 4eed 2d3c a4c0 cebc eee6 a53c
000001d0: 48e5 c33c 65d6 8c3c 292b 62bc 96b6 b43c
000001e0: 6f99 b339 bd01 f9bc f605 24bc a279 f73c
000001f0: 61a9 4d3c 80db f5bb 5e60 a8bc 3c96 0ebd

g_model.fc2.weight f4 [22, 128]
-0.045547713 -0.21127121 0.10132097 -0.036957107 -0.057654966 0.019311622 0.0073696547 0.028374638
-0.02194679 0.028857272 -0.13629524 -0.097939946 0.02169164 0.025487414 -0.22008455 0.054676056
-0.051766876 0.033598416 0.07016513 0.07476139 0.014597918 -0.07212851 -0.09551897 -0.072994046
-0.012455321 -0.023067642 0.024511412 -0.08928679 0.02535376 -0.0035542485 0.02471451 -0.030170716
-0.016647313 -0.082720764 -0.18830226 -0.04558319 -0.09855354 0.11166866 -0.13928674 0.024508812
0.0699011 -0.17713395 0.10952342 0.083085455 -0.025262719 0.07880457 0.10070673 -0.016119665
-0.08297742 -0.0011647899 -0.07600584 0.11628094 0.07813145 -0.016114416 0.111382626 -0.051876362
0.04386056 -0.11581462 -0.060985442 0.08486343 -0.059396055 0.06660374 0.06937789 0.09752689
0.018048737 0.061513826 -0.079481326 0.08376551 0.011682051 -0.07251701 0.09852992 -0.0368165
0.115762524 -0.027122036 0.08156511 -0.06840871 0.030286252 0.014113457 -0.12874652 0.080608204
-0.12611811 0.08071975 0.13593057 -0.014328397 0.0024578576 0.04832259 -0.040397257 0.16003795
-0.15513778 0.065675616 -0.032711014 0.06280135 -0.04946598 0.07768496 0.058818858 -0.044050064
-0.03528404 0.04914871 -0.016822541 -0.033989564 -0.052976243 -0.013398732 0.039686326 -0.063634
-0.010475834 0.069637924 0.06243898 -0.04448247 -0.022179453 0.11808714 0.0056591067 -0.06184232
-0.10993632 0.07100094 0.08488314 0.083145946 -0.082062274 -0.10512482 0.050041996 -0.03193371
-0.08798279 -0.2066997 -0.13922527 -0.02420598 -0.0064842193 -0.059041146 -0.0682811 -0.053683456
0.07660613 0.0050715646 -0.008021574 0.14724022 0.0711423 0.0040203216 -0.05333859 0.06153378
0.08754315 0.11359928 0.07240187 0.099303655 -0.024144443 -0.015346597 0.10188606 -0.20779307
-0.08090972 0.029862184 -0.124692254 -0.020471655 -0.0899359 0.116488904 0.15183023 -0.043898005
0.0005440526 0.0485274 -0.02803734 0.03889615 -0.05788673 0.018163648 -0.04696297 0.0022138492
-0.052622065 -0.04519353 -0.13612643 0.03593248 0.087039255 -0.07849921 0.046318814 -0.04830968
-0.0008045941 0.12130302 -0.006774457 0.008037638 0.020365 -0.08984005 -0.10955161 0.08576054
0.05103414 0.041553494 -0.042654064 0.09608162 -0.0025537186 -0.106299564 -0.06665003 -0.07242956
-0.06869215 -0.026742525 0.013472949 -0.08984288 -0.23243111 0.022594778 -0.028540675 0.057573218
-0.08849547 -0.13075668 -0.039127473 -0.046532493 0.11111153 -0.092303164 0.0031124835 -0.080662996
-0.080261126 -0.11036092 -0.03823778 0.15396522 -0.02016737 0.056869153 -0.08243325 0.014206792
-0.032908283 0.038227353 -0.058707185 -0.076557554 0.065946884 -0.001276736 -0.08180139 -0.09457209
-0.14686505 -0.042575166 -0.03447456 0.096554324 0.055869758 0.032334693 0.07169274 0.011103872
-0.016126363 -0.033353064 -0.059350807 -0.089221194 -0.0063169855 -0.12301848 -0.01564614 0.061757118
-0.05441625 0.05988943 0.1252321 -0.0030739736 -0.052543294 0.028663954 -0.050509684 0.029220464
0.07478699 -0.07764113 -0.018579789 -0.08332341 -0.081815936 -0.046193913 -0.013435204 0.05685783
0.1548239 0.08125258 -0.018288903 0.017258905 0.085849114 -0.030973278 -0.0287575 0.065233186
00000000: 3d90 3abd 7b57 58be 5e81 cf3d 5660 17bd
00000010: 9d27 6cbd 6833 9e3c 257d f13b ee71 e83c
00000020: c1c9 b3bc 1666 ec3c fb90 0bbe bd94 c8bd
00000030: abb2 b13c fbca d03c d85d 61be 00f4 5f3d
00000040: 8109 54bd 7e9e 093d bcb2 8f3d 801c 993d
00000050: 1b2c 6f3c 1db8 93bd 739f c3bd e77d 95bd
00000060: 6711 4cbc 5af8 bcbc 28cc c83c fedb b6bd
00000070: b0b2 cf3c 65ee 68bb 1676 ca3c 9428 f7bc
00000080: f25f 88bc 8169 a9bd 4fd2 40be 70b5 3abd
00000090: 70d6 c9bd 8ab2 e43d 2fa1 0ebe b4c6 c83c
000000a0: 4f28 8f3d 9a62 35be d14d e03d b528 aa3d
000000b0: c3f3 cebc 4a64 a13d 543f ce3d 630d 84bc
000000c0: 11f0 a9bd ddab 98ba f3a8 9bbd b424 ee3d
000000d0: 6203 a03d 6102 84bc 931c e43d 4f7c 54bd
000000e0: 21a7 333d 3730 edbd dfcb 79bd e1cc ad3d
000000f0: 4749 73bd 8b67 883d ff15 8e3d 2ebc c73d
00000100: f2da 933c ecf5 7b3d 1bc7 a2bd 408d ab3d
00000110: 1366 3f3c cc83 94bd 0eca c93d e6cc 16bd
00000120: e714 ed3d 082f debc 9c0b a73d de19 8cbd
00000130: e01a f83c 213c 673c 21d6 03be ea15 a53d
00000140: 1b25 01be 6550 a53d 6231 0b3e a7c1 6abc
00000150: 0214 213b e8ed 453d 9877 25bd fde0 233e
00000160: 70dc 1ebe f080 863d fcfb 05bd ff9d 803d
00000170: d79c 4abd 4b19 9f3d 0bec 703d d76d 34bd
00000180: ff85 10bd 2850 493d 6dcf 89bc a438 0bbd
00000190: 9efd 58bd 5b86 5bbc 218e 223d 8b52 82bd
000001a0: d5a2 2bbc 549e 8e3d 04c0 7f3d 4033 36bd
000001b0: afb1 b5bc acd7 f13d 0770 b93b 5f4e 7dbd
000001c0: 4b26 e1bd f168 913d 36d7 ad3d 6c48 aa3d
000001d0: 4410 a8bd ae4b d7bd d6f8 4c3d eccc 02bd
000001e0: 5230 b4bd 16a9 53be 1291 0ebe 9f4b c6bc
000001f0: 9379 d4bb 21d5 71bd f6d6 8bbd 2fe3 5bbd
00000200: ade3 9c3d 5e2f a63b eb6c 03bc 24c6 163e
00000210: 0eb3 913d e7bc 833b 9179 5abd d80a 7c3d
00000220: d349 b33d bda6 e83d 6e47 943d b75f cb3d
00000230: 91ca c5bc 4b70 7bbc a3a9 d03d b5c7 54be
00000240: ffb3 a5bd 8aa1 f43c a75e ffbd 2cb4 a7bc
00000250: 5030 b8bd bc91 ee3d 6279 1b3e 65ce 33bd
00000260: c09e 0e3a abc4 463d 90ae e5bc 9251 1f3d
00000270: a31a 6dbd eecb 943c 3e5c 40bd 3a16 113b
00000280: 3c8a 57bd da1c 39bd ba64 0bbe f02d 133d
00000290: a341 b23d 32c4 a0bd ccb8 3d3d 5fe0 45bd
000002a0: 65eb 52ba b86d f83d 44fc ddbb 4cb0 033c
000002b0: 80d4 a63c 0ffe b7bd 985c e0bd 39a3 af3d
000002c0: 2d09 513d ff33 2a3d 07b6 2ebd 71c6 c43d
000002d0: 4a5c 27bb 96b3 d9bd d07f 88bd f355 94bd
000002e0: 78ae 8cbd 2413 dbbc a5bd 5c3c 8bff b7bd
000002f0: 6c02 6ebe af18 b93c 22ce e9bc e5d1 6b3d
00000300: 1d3d b5bd 14e5 05be 2144 20bd db98 3ebd
00000310: 718e e33d 7109 bdbd cffa 4b3b a432 a5bd
00000320: f25f a4bd e804 e2bd 389f 1cbd 0fa9 1d3e
00000330: 0a36 a5bc a1ef 683d c4d2 a8bd 9bc3 683c
00000340: d6ca 06bd 4994 1c3d f276 70bd 35ca 9cbd
00000350: 290f 873d 2758 a7ba 7d87 a7bd 03af c1bd
00000360: cb63 16be 4c63 2ebd 3235 0dbd 46be c53d
00000370: b0d7 643d 6271 043d a5d3 923d 04ed 353c
00000380: 6f1b 84bc 399d 08bd d519 73bd 9ab9 b6bd
00000390: b7fe cebb 1df1 fbbd 552c 80bc 08f5 7c3d
000003a0: 93e3 5ebd 9e4e 753d d83c 003e b874 49bb
000003b0: a337 57bd abd0 ea3c 3ee3 4ebd c15f ef3c
000003c0: ec29 993d 5002 9fbd a434 98bc 77a5 aabd
000003d0: 1d8f a7bd d435 3dbd 541f 5cbc c2e3 683d
000003e0: 288a 1e3e c167 a63d 9cd2 95bc 8c62 8d3c
000003f0: a9d1 af3d acbb fdbc d994 ebbc fa98 853d

g_model.fc2.bias f4 [22]
0.0101932 0.033436093 0.00096290524 -0.09989278 -0.07059286 -0.06264159 -0.062124953 0.05778298
-0.04453488 0.009224195 0.058227967 0.05024908 -0.07575714 -0.020649685 -0.062195014 0.017764457
0.04579891 0.094766974 0.046901193 0.067329444 0.0045192344 -0.01987597
00000000: 6101 273c 49f4 083d 7a6b 7c3a 9694 ccbd
00000010: fd92 90bd 3c4a 80bd bc76 7ebd d9ad 6c3d
00000020: 356a 36bd 1421 173c 7380 6e3d fbd1 4d3d
00000030: 8f26 9bbd 8729 a9bc 33c0 7ebd c486 913c
00000040: a397 3b3d 3015 c23d 771b 403d 05e4 893d
00000050: 1616 943b eed2 a2bc

f_model.fc1.weight f4 [32, 22]
0.19498536 0.0034885637 0.3153519 -0.21622127 0.14634109 -0.33791077 -0.17165199 -0.07491981
0.3298837 -0.13457204 -0.13753879 0.16579497 0.033587612 -0.028853413 0.0065071685 -0.25429752
-0.008372278 0.14512672 -0.2023664 0.2547283 0.24656183 0.0011049797 -0.2718882 -0.04152341
0.019810522 -0.1429723 0.045208033 0.17236774 -0.029768957 -0.2613154 0.06717553 0.018929997
-0.1864536 -0.113148436 -0.02374379 0.23412462 0.13443151 -0.011722453 -0.17317629 -0.14279462
-0.246487 0.107752934 -0.24137506 0.1029833 -0.07974999 -0.16669984 -0.041582376 0.34333202
-0.23074941 -0.31277424 0.08427514 0.02064097 -0.056611773 -0.14326622 0.016079236 0.21570554
-0.037370577 -0.035169315 0.068094686 -0.16914245 0.32786575 -0.21150404 0.023251869 -0.071958534
-0.0340598 -0.21277647 0.023610344 -0.1118729 -0.16702327 -0.18899606 0.09079071 -0.13467737
0.08081049 -0.018377265 -0.07042345 0.38035083 0.021920808 0.15497333 0.19908717 0.12483979
-0.037054673 -0.08581466 -0.053547233 -0.02118782 0.07052022 -0.017002175 0.17153318 -0.067358755
-0.1083921 0.32247877 -0.29430455 0.0825063 -0.1959237 -0.32223877 -0.10157392 -0.062293515
-0.12823913 -0.24359235 0.19893914 -0.28939807 0.079844214 -0.19771273 0.020712491 -0.033675972
0.08633512 -0.20042962 -0.08909864 0.19807827 -0.22079267 0.24557118 -0.15703286 0.021899454
-0.17029953 -0.24480508 0.029222438 0.14768957 -0.19212587 -0.045032933 0.09765311 -0.050389387
0.044499055 0.04004905 0.00711012 0.24303608 -0.05784764 -0.16371188 -0.17544012 0.010696935
0.08579589 0.13877726 -0.111530915 0.18628705 0.030822411 -0.2355525 0.046277944 -0.12410724
0.19244455 -0.20178393 -0.029539762 0.08911314 -0.31034026 0.27535838 0.25220987 -0.3041907
-0.100644685 -0.062204115 -0.14807628 -0.072043605 -0.11992892 -0.14853136 0.19571759 0.09603566
0.031170296 -0.083810784 -0.24741514 -0.08893255 -0.19315167 -0.06706294 -0.03754634 0.12571634
0.074315645 -0.11458891 -0.077271596 -0.055796854 -0.314002 0.32297733 0.055697702 0.016654328
0.21448132 -0.22624353 0.07979313 -0.0034725976 -0.2517433 -0.13050902 -0.23897362 0.0045108013
-0.19467784 0.016647168 -0.08275142 -0.20009233 -0.092788175 -0.19189654 -0.1250881 0.3364581
-0.20657496 0.04428598 0.17629854 -0.14427799 -0.22633138 0.06485612 0.29032075 0.0023922694
0.060392436 -0.057708044 0.17290702 0.14067651 0.0758169 0.05870267 0.17217007 0.078398556
0.07757473 -0.17639056 -0.10267122 0.035507694 -0.16352025 0.15754093 0.12239751 0.024062924
-0.19611439 0.06354299 0.07081973 0.013259242 0.07627294 -0.19508997 -0.2485573 0.22322966
-0.046868317 0.16844036 0.039143093 -0.18818054 -0.074466854 0.073281206 -0.21765487 0.0517204
-0.22223333 0.13141358 -0.33419585 -0.056333613 0.19291559 0.3117331 -0.18733427 0.034644842
-0.055903066 -0.31250188 -0.24635038 -0.17380364 -0.07188914 -0.18183318 0.27875537 0.08392518
0.13250709 0.055727113 0.034893733 -0.2356884 0.07143999 -0.18175143 0.04572782 -0.25833195
-0.14090158 0.24814342 0.06681004 -0.22740756 -0.13446794 0.06937912 -0.27817798 0.32265577
00000000: 3eaa 473e 63a0 643b ce75 a13e 1c69 5dbe
00000010: 70da 153e a402 adbe 8ac5 2fbe 8f6f 99bd
00000020: 84e6 a83e 41cd 09be f8d6 0cbe 28c6 293e
00000030: 2a93 093d fe5d ecbc 163a d53b 4933 82be
00000040: e12b 09bc 199c 143e 2339 4fbe bf6b 823e
00000050: b47a 7c3e f7d4 903a ee34 8bbe 7314 2abd
00000060: ad49 a23c 5567 12be 0f2c 393d 2b81 303e
00000070: 07de f3bc 22cb 85be 5393 893d 1513 9b3c
00000080: b1ed 3ebe 5eba e7bd 5682 c2bc 5dbe 6f3e
00000090: 6aa8 093e 880f 40bc 2055 31be c138 12be
000000a0: 1767 7cbe 92ad dc3d 062b 77be e9e8 d23d
000000b0: f653 a3bd 5db3 2abe 4852 2abd 37c9 af3e
000000c0: 9349 6cbe f223 a0be 7298 ac3d 4017 a93c
000000d0: bfe1 67bd 61b4 12be 9ab8 833c eae1 5c3e
000000e0: e411 19bd b30d 10bd 3a75 8b3d ae33 2dbe
000000f0: 05de a73e 8494 58be b47a be3c ff5e 93bd
00000100: 4a82 0bbd 13e2 59be 7b6a c13c 9e1d e5bd
00000110: 2608 2bbe 2f88 41be 7bf0 b93d dde8 09be
00000120: f87f a53d eb8b 96bc 2b3a 90bd 58bd c23e
00000130: 4493 b33c 54b1 1e3e 82dd 4b3e 01ac ff3d
00000140: a4c6 17bd 99bf afbd 5854 5bbd 1492 adbc
00000150: e86c 903d 2548 8bbc 65a6 2f3e 63f3 89bd
00000160: adfc ddbd f01b a53e 16af 96be 10f9 a83d
00000170: 39a0 48be 7bfc a4be fd05 d0bd 7c27 7fbd
00000180: 1e51 03be 4670 79be b4b6 4b3e fc2b 94be
00000190: 5d85 a33d 3575 4abe 3ead a93c d1ef 09bd
000001a0: 78d0 b03d 6c3d 4dbe 5979 b6bd 08d5 4a3e
000001b0: 7917 62be 0377 7b3e 39cd 20be 7c66 b33c
000001c0: 0063 2ebe 2fae 7abe e563 ef3c ef3b 173e
000001d0: a5bc 44be 7474 38bd 5bfe c73d 1a65 4ebd
000001e0: a444 363d 790a 243d 02fc e83b 73de 783e
000001f0: a6f1 6cbd 16a4 27be 93a6 33be 3242 2f3c
00000200: c1b5 af3d a01b 0e3e 526a e4bd 08c2 3e3e
00000210: 487f fc3c ad34 71be f18d 3d3d f02b febd
00000220: 2f10 453e 72a0 4ebe 5ffd f1bc f380 b63d
00000230: ebe4 9ebe c6fb 8c3e a721 813e e2be 9bbe
00000240: cd1e cebd bec9 7ebd 4fa1 17be 998b 93bd
00000250: 4b9d f5bd 9b18 18be 316a 483e 58ae c43d
00000260: d958 ff3c fda4 abbd 655a 7dbe 4522 b6bd
00000270: 8dc9 45be 4b58 89bd 31ca 19bd c9bb 003e
00000280: cd32 983d 97ad eabd 9240 9ebd 3e8b 64bd
00000290: dfc4 a0be 495d a53e 4623 643d a86e 883c
000002a0: fea0 5b3e 62ac 67be 956a a33d 8594 63bb
000002b0: 7fe4 80be 28a4 05be 80b5 74be 58cf 933b
000002c0: a159 47be a45f 883c 9479 a9bd 01e5 4cbe
000002d0: ba07 bebd 8780 44be 1817 00be 3c44 ac3e
000002e0: 6388 53be 3765 353d 9b87 343e 9cbd 13be
000002f0: 6ac3 67be 49d3 843d eca4 943e 9fc7 1c3b
00000300: 0f5e 773d 455f 6cbd 8a0e 313e 810d 103e
00000310: e445 9b3d 3672 703d 5a4d 303e 6c8f a03d
00000320: 80df 9e3d ba9f 34be 4a45 d2bd 8470 113d
00000330: da71 27be 6952 213e 8cab fa3d 9c1f c53c
00000340: 36d2 48be d422 823d ef09 913d 4b3d 593c
00000350: fd34 9c3d aac5 47be ce85 7ebe 5196 643e
00000360: fef8 3fbd a17b 2c3e 8254 203d 66b2 40be
00000370: 1482 98bd 7514 963d ebe0 5ebe c5d8 533d
00000380: 2291 63be 4891 063e b81b abbe 13be 66bd
00000390: aa8b 453e 7b9b 9f3e 8ed4 3fbe c0e7 0d3d
000003a0: 9dfa 64bd 3f00 a0be 4643 7cbe 95f9 31be
000003b0: 9d3a 93bd 7a32 3abe 06b9 8e3e f7e0 ab3d
000003c0: f0af 073e 1d42 643d bbec 0e3d 4d58 71be
000003d0: 214f 923d 0c1d 3abe 184d 3b3d 1644 84be
000003e0: 8148 10be 4f19 7e3e b4d3 883d 87dd 68be
000003f0: f7b1 09be a416 8e3d 586d 8ebe 2333 a53e

f_model.fc1.bias f4 [32]
0.34444955 0.09854733 -0.116445206 0.019173963 0.17753163 0.08383013 0.29722872 0.16215694
0.14789392 0.1769972 0.028786913 0.16685227 0.2515201 -0.10163038 -0.0067872615 0.08945014
-0.009691405 0.09611202 -0.07474898 0.01762393 0.11857741 0.15597098 0.17386985 0.20294379
-0.08550919 0.21178785 0.12479573 0.2334508 0.14079627 -0.124880664 0.19045231 0.21511127
00000000: b15b b03e 2fd3 c93d d37a eebd b712 9d3c
00000010: daca 353e 22af ab3d 5d2e 983e 780c 263e
00000020: 8171 173e c13e 353e 88d2 eb3c 52db 2a3e
00000030: 3ec7 803e 9723 d0bd ad67 debb a331 b73d
00000040: b3c8 1ebc 61d6 c43d fe15 99bd 0f60 903c
00000050: b7d8 f23d dbb6 1f3e f00a 323e 7fd0 4f3e
00000060: 711f afbd eade 583e e794 ff3d ba0d 6f3e
00000070: e62c 103e 6fc1 ffbd ee05 433e 2146 5c3e

f_model.fc2.weight f4 [10, 32]
0.15247601 -0.11501069 -0.025610946 0.123271435 -0.03183749 -0.14986566 -0.033418983 -0.14694913
-0.0008503107 0.27445567 -0.17491317 -0.07077349 -0.21305037 0.019011943 -0.13040988 0.23934099
-0.29359457 -0.1803023 -0.27546042 -0.099356525 -0.28323737 -0.24185862 -0.029709544 0.059596594
0.29797614 0.0929091 0.09026882 -0.03719834 0.119443394 -0.18140645 -0.059902735 -0.08655442
-0.10185458 0.050230734 -0.08235801 -0.041608326 0.31069818 -0.007824546 -0.013064152 0.021627571
0.12793703 -0.17238738 -0.078333 -0.1406108 -0.018659309 -0.15186363 -0.26177016 -0.09087757
0.18801464 -0.053894587 0.33292976 0.06863295 -0.22231044 0.13269855 -0.145567 -0.15963161
-0.24559595 -0.17312624 -0.13858314 0.19305505 -0.074356265 -0.11176584 -0.03312611 -0.01613471
0.27166414 0.05065202 0.11373833 -0.13411112 -0.19967578 -0.16204606 -0.23850165 -0.03785577
-0.033858445 -0.0043061837 -0.13565923 0.21741329 0.007816183 -0.25205937 -0.010704964 -0.13933042
0.20065533 0.25637323 0.047555763 -0.001433889 -0.30023018 -0.05509957 -0.23416902 -0.07496602
0.1732078 -0.07230936 -0.09159979 -0.112974055 -0.07155595 -0.13941184 0.12533134 -0.10163079
-0.18866055 -0.17435868 0.31408858 0.0072713583 -0.06855652 -0.28611174 -0.035838086 0.06183913
-0.05650509 -0.3422337 0.114576794 -0.08480523 0.16400973 -0.13278487 0.29504716 -0.20403409
-0.049565874 -0.23155296 -0.045360956 -0.112152226 -0.22739065 -0.101733364 -0.0024741786 -0.24579816
-0.002275006 -0.1349051 0.18864231 -0.001790197 0.22743607 -0.026755728 0.07681085 0.04487148
-0.23889808 0.09905222 -0.052368432 0.11070025 0.01014808 0.02066409 0.2313453 -0.27291763
-0.16383979 -0.025142262 -0.26885724 -0.03228244 0.012193333 0.11609888 0.21856408 -0.17740636
-0.08815005 0.08048536 -0.22640231 0.056128208 -0.17826279 0.24068138 0.16766253 -0.087466985
-0.08813534 0.18585038 0.06362499 -0.020331373 -0.034980524 -0.08884953 -0.19112638 0.012303352
-0.18370922 0.2042193 -0.028394824 -0.11924513 -0.030467268 0.08440056 -0.17560461 0.26084104
-0.16564953 -0.12684654 0.044424452 -0.12951095 -0.22774497 -0.25573012 -0.08597772 0.05637989
-0.27107143 0.21113963 0.21627837 -0.030663854 -0.03643609 -0.26780176 0.034964524 -0.031662785
-0.20161621 0.110398956 -0.11470128 -0.2545343 -0.021823647 -0.16810225 0.18932563 -0.063751854
-0.19829504 -0.10534209 -0.07707928 0.051608134 -0.13787204 -0.16708332 -0.0789941 0.06561755
-0.24067786 -0.30910707 -0.4328047 -0.11576899 -0.11679445 0.17507021 -0.18200868 -0.013997049
-0.107160285 0.13918792 -0.08690327 -0.072819725 0.31541082 -0.045269627 -0.046811655 0.28578645
-0.16076271 -0.16671646 0.116227105 0.24595073 0.07644551 -0.18823266 -0.0104689095 -0.14531562
-0.12020636 -0.2511826 -0.07222522 0.023541955 0.039061315 -0.104686856 0.21581689 -0.27765244
0.16369449 -0.009347197 -0.12860297 0.1017369 0.03076883 -0.23370236 0.112246424 -0.1732669
0.24481688 -0.118795924 -0.12098525 0.05456417 -0.33965433 -0.10525773 -0.2641921 -0.16607258
-0.30095813 0.2585092 0.03974745 -0.34205148 -0.21081224 0.3026749 0.17013334 0.019867888
00000000: ac22 1c3e ba8a ebbd 0cce d1bc bc75 fc3d
00000010: 0768 02bd 6276 19be 58e2 08bd d579 16be
00000020: 63e7 5eba 7485 8c3e 701c 33be b1f1 90bd
00000030: e029 5abe efbe 9b3c 2b8a 05be ce15 753e
00000040: 0752 96be 2ba1 38be 2609 8dbe 6f7b cbbd
00000050: 7d04 91be c9a9 77be 6e61 f3bc 8f1b 743d
00000060: 5490 983e 2047 be3d dcde b83d 495d 18bd
00000070: bd9e f43d 9dc2 39be 925c 75bd 7243 b1bd
00000080: 2299 d0bd bebe 4d3d 51ab a8bd 7e6d 2abd
00000090: d513 9f3e 8632 00bc 060b 56bc 4e2c b13c
000000a0: ed01 033e 5186 30be 0d6d a0bd 47fc 0fbe
000000b0: 68db 98bc 2482 1bbe bd06 86be 051e babd
000000c0: e986 403e 92c0 5cbd c575 aa3e 6f8f 8c3d
000000d0: 59a5 63be 21e2 073e 840f 15be 7876 23be
000000e0: 817d 7bbe 0148 31be bde8 0dbe 39b0 453e
000000f0: 1948 98bd 7de5 e4bd 3eaf 07bd f02c 84bc
00000100: 9017 8b3e 7e78 4f3d a4ef e83d 6d54 09be
00000110: cf77 4cbe 67ef 25be c739 74be a70e 1bbd
00000120: 27af 0abd e31a 8dbb 41ea 0abe 97a1 5e3e
00000130: 730f 003c ed0d 81be e063 2fbc a2ac 0ebe
00000140: 9778 4d3e 5a43 833e d5c9 423d 55f1 bbba
00000150: c5b7 99be 16b0 61bd 01ca 6fbe c987 99bd
00000160: 635d 313e ee16 94bd ac98 bbbd f15e e7bd
00000170: ed8b 92bd fac1 0ebe dc56 003e ce23 d0bd
00000180: 3b30 41be 158b 32be 38d0 a03e 9344 ee3b
00000190: 5c67 8cbd 3d7d 92be f5ca 12bd 074b 7d3d
000001a0: e271 67bd 4139 afbe 3da7 ea3d 5dae adbd
000001b0: 2bf2 273e c2f8 07be 6c10 973e 50ee 50be
000001c0: 9605 4bbd 381c 6dbe 69cc 39bd 11b0 e5bd
000001d0: 18d9 68be 9559 d0bd d425 22bb 83b2 7bbe
000001e0: 4418 15bb 9024 0abe 732b 413e 0ba5 eaba
000001f0: 00e5 683e d42e dbbc 024f 9d3d 28cb 373d
00000200: b3a1 74be e4db ca3d 4880 56bd d0b6 e23d
00000210: 2244 263c bd47 a93c c8e5 6c3e dcbb 8bbe
00000220: 9ec5 27be 25f7 cdbc a8a7 89be 983a 04bd
00000230: 8cc6 473c 40c5 ed3d 43cf 5f3e 03aa 35be
00000240: 0388 b4bd 82d5 a43d 02d6 67be b1e6 653d
00000250: 858a 36be 2e75 763e baaf 2b3e e421 b3bd
00000260: 4d80 b4bd 904f 3e3e d24d 823d fb8d a6bc
00000270: bd47 0fbd bef6 b5bd a2b6 43be 0094 493c
00000280: 451e 3cbe dd1e 513e 439c e8bc ca36 f4bd
00000290: 7e96 f9bc 33da ac3d b2d1 33be f58c 853e
000002a0: 08a0 29be 0fe4 01be 6af6 353d 859e 04be
000002b0: fa35 69be 0fef 82be 1615 b0bd 99ee 663d
000002c0: e0c9 8abe fd34 583e 1478 5d3e c332 fbbc
000002d0: 023e 15bd 501d 89be f636 0f3d d6b0 01bd
000002e0: 7b74 4ebe d918 e23d 81e8 eabd 5252 82be
000002f0: 81c7 b2bc ff22 2cbe 94de 413e 5590 82bd
00000300: db0d 4bbe 98bd d7bd bedb 9dbd 0d63 533d
00000310: 542e 0dbe e417 2bbe a9c7 a1bd 7e62 863d
00000320: 4274 76be 4843 9ebe 9498 ddbe 4b18 edbd
00000330: ee31 efbd 9b45 333e 7c60 3abe e153 65bc
00000340: da76 dbbd 4787 0e3e 57fa b1bd 8222 95bd
00000350: 877d a13e a56c 39bd 94bd 3fbd 9a52 923e
00000360: fb9e 24be b8b7 2abe 7a08 ee3d 82da 7b3e
00000370: 778f 9c3d 10c0 40be ca85 2bbc 9ecd 14be
00000380: c12e f6bd 019b 80be d1ea 93bd 0fdb c03c
00000390: c2fe 1f3d 1066 d6bd 1aff 5c3e 7628 8ebe
000003a0: 879f 273e fc24 19bc 7fb0 03be 705b d03d
000003b0: ea0e fc3c ac4f 6fbe 74e1 e53d e16c 31be
000003c0: 47b1 7a3e 474b f3bd 1dc7 f7bd ae7e 5f3d
000003d0: 2ce7 adbe 5d91 d7bd 3044 87be ee0e 2abe
000003e0: 2f17 9abe 515b 843e 39ce 223d 5f21 afbe
000003f0: 2adf 57be 34f8 9a3e 6f37 2e3e fbc1 a23c

f_model.fc2.bias f4 [10]
0.13162443 -0.011740908 -0.064140394 -0.15170038 -0.15428 0.13379334 -0.034161687 0.033740126
-0.005918164 -0.014986154
00000000: 8ec8 063e f05c 40bc 0a5c 83bd 5857 1bbe
00000010: 94fb 1dbe 1f01 093e 20ed 0bbd 1633 0a3d
00000020: 28ed c1bb 7c88 75bc
