models/Experiment 4/Trained on normal data/sequential_model_cons4.pt (torch, 465811 bytes, 12 tensors)

g_model.conv1.weight f4 [32, 1, 3, 3]
0	0x3dbc5d8b	0.091975294
1	0x3d24ba77	0.04021689
2	0xbee98a73	-0.4561344
3	0x3e9586d8	0.2920444
4	0xbd0b6888	-0.034035236
5	0xbe385f01	-0.18004991
6	0x3e54ab2b	0.2076842
7	0x3e3dfb5b	0.18552916
8	0xbea9898c	-0.33112752
9	0xbe740331	-0.23829342
10	0xbe215407	-0.1575471
11	0x3e8a16f9	0.26970652
12	0x3e896b51	0.26839688
13	0x3ee0857f	0.4385185
14	0x3e4325aa	0.19057336
15	0xbd9c406b	-0.07629474
16	0xbe2fc216	-0.17163882
17	0xbe8319ae	-0.2560553
18	0x3e98c296	0.29835957
19	0x3e865f99	0.2624481
20	0x3ecbef5d	0.39831057
21	0xbe116400	-0.14198303
22	0x3e982f94	0.297238
23	0xbc82edbf	-0.015982507
24	0x3e8ae142	0.27124983
25	0x3dac5ad9	0.08415765
26	0x3e032d0c	0.12810153
27	0xbebbbc1f	-0.36666963
28	0xbe06902b	-0.13140933
29	0x3e1e45a1	0.15456249
30	0x3e755b7f	0.23960684
31	0x3e1e40a5	0.15454347
32	0xbe35b4e8	-0.17744792
33	0x3e9a6eed	0.30162755
34	0xbc9ff233	-0.01952467
35	0xbe180d0a	-0.14848724
36	0x3e71da77	0.23618494
37	0x3ea3fc2b	0.32028326
38	0xbdc01310	-0.09378636
39	0xbe1f08e3	-0.15530734
40	0xbd65ab38	-0.05607149
41	0xbd83533b	-0.06412359
42	0xbe6727e8	-0.22573817
43	0x3d538156	0.051637016
44	0x3ea5bd8e	0.3237118
45	0x3ee58c60	0.4483366
46	0x3e60f0ac	0.21966809
47	0x3ea9be3e	0.33152956
48	0x3ec20d9c	0.37901008
49	0x3e94ae41	0.29039195
50	0xbe025cb6	-0.12730679
51	0x3e67cf13	0.22637586
52	0x3e00151d	0.12508054
53	0x3dd25da1	0.102717645
54	0x3d04e16b	0.032441538
55	0x3e72759f	0.23677681
56	0x3e9ae068	0.30249333
57	0x3c692e4c	0.014232229
58	0xbe3f97da	-0.1871027
59	0x3e92ef4c	0.28698194
60	0xbd9a8543	-0.07544949
61	0xbec849b0	-0.3911872
62	0xbe62b749	-0.2214023
63	0xbbed2be0	-0.0072378963
64	0xbc513eef	-0.012771352
65	0xbe6660a9	-0.2249781
66	0x3edc2a57	0.43001053
67	0x3c1862e9	0.009300926
68	0x3dc3805f	0.09545969
69	0xbe69b671	-0.22823502
70	0xbc7ab1f0	-0.015301213
71	0x3eaa25da	0.33232003
72	0xbeb693bb	-0.35659584
73	0xbd4cb99f	-0.04998171
74	0x3ea23fc8	0.31689286
75	0x3d9a30d7	0.07528847
76	0xbddd120f	-0.1079446
77	0x3db709d9	0.08937425
78	0x3edd40c5	0.43213478
79	0x3e1bc3b3	0.15211372
80	0x3ddb717b	0.10715004
81	0x3e9f5103	0.31116495
82	0x3e2ff96d	0.17184992
83	0x3e7c84c8	0.24660027
84	0xbce9dde9	-0.028548198
85	0x3d369604	0.04457666
86	0xbdaacee7	-0.08340245
87	0x3ebc83f0	0.3681941
88	0x3da3d673	0.07999887
89	0xbe95e518	-0.29276347
90	0x3ed5c91b	0.41754994
91	0xbe3a6fc0	-0.18206692
92	0xbeaf5dc9	-0.3425124
93	0x3ec44d5f	0.3834028
94	0x3e8ddfcc	0.27709806
95	0x3e1a5fa4	0.15075547
96	0x3e05ccfe	0.1306648
97	0x3e40086a	0.1875321
98	0x3e9fb3d0	0.31191874
99	0x3ed5c877	0.41754505
100	0x3d6a8ea1	0.057264928
101	0x3e40c5f4	0.18825513
102	0x3e822f20	0.2542658
103	0xbde1ca80	-0.11024952
104	0x3ceb5e3e	0.028731462
105	0x3e0ed4ed	0.13948412
106	0x3ec0e3b3	0.3767372
107	0x3d78abb1	0.060710613
108	0x3eb6aee8	0.35680318
109	0x3ec88fd5	0.39172235
110	0x3cda30f9	0.02663468
111	0xbd578b9a	-0.05262337
112	0x3e6e0159	0.23242702
113	0x3d5f20e6	0.054474734
114	0x3b9b2ccd	0.0047355653
115	0xbdb2bbec	-0.087272495
116	0xbcb24327	-0.021760536
117	0x3e868108	0.26270318
118	0xbc956205	-0.018235216
119	0x3eeb8c71	0.46005586
120	0x3ea69f65	0.32543483
121	0xbda08e62	-0.07839657
122	0x3e734d8f	0.23760055
123	0xbc13d919	-0.009023928
124	0x3db0b99e	0.08629154
125	0x3e6a8377	0.22901712
126	0xbed74ab8	-0.42049193
127	0xbe37f5db	-0.1796488
128	0xbe9b75a8	-0.30363202
129	0xbd42bcdb	-0.047543388
130	0xbe0fa5c0	-0.14028072
131	0xbea7061d	-0.32621852
132	0x3e34ea08	0.17667401
133	0x3ec9efb7	0.394407
134	0xbdca8054	-0.09887758
135	0xbe41ea3f	-0.18937014
136	0x3e82c91e	0.25544065
137	0x3ed6bf6e	0.41942924
138	0x3ee87455	0.45401254
139	0x3e81397b	0.25239167
140	0x3dad3872	0.08458032
141	0x3e973a09	0.29536465
142	0xbd298c06	-0.041393302
143	0x3b345beb	0.0027520608
144	0x3dba90a6	0.09109621
145	0xbe608c90	-0.2192862
146	0x3d654616	0.055975042
147	0xbdba7fd0	-0.091064095
148	0xbe0a48fe	-0.13504407
149	0xbe3eb138	-0.18622291
150	0xbe4665f8	-0.19374835
151	0xbdbb6010	-0.09149182
152	0xbe84fb50	-0.25972986
153	0xbd908628	-0.07056838
154	0xbd85dc41	-0.06536151
155	0xbe6f744a	-0.23384205
156	0xbea40a05	-0.32038894
157	0xbe6853f7	-0.2268828
158	0xbe2f1f99	-0.17101897
159	0x3d8a0156	0.06738536
160	0x3e062e31	0.13103558
161	0xbe92ed3b	-0.28696617
162	0x3eb529e0	0.3538351
163	0x3de38e13	0.11111083
164	0x3ea31036	0.31848305
165	0xbe01ce86	-0.12676439
166	0xbe668cf8	-0.22514713
167	0xbecefb2a	-0.40425998
168	0xbee9fdcf	-0.45701453
169	0xbdc6781e	-0.09690879
170	0xbe1820ad	-0.14856215
171	0x3bcb7331	0.0062088002
172	0xbe7f93c0	-0.24958706
173	0xbed75b28	-0.42061734
174	0xbe11970c	-0.14217776
175	0xbe751f1e	-0.23937652
176	0x3e943125	0.28943744
177	0xbea84803	-0.3286744
178	0xbe127ccf	-0.14305423
179	0x3e1be264	0.1522308
180	0xbea361a7	-0.3191044
181	0xbdc102e8	-0.094243824
182	0x3e9bc31e	0.304223
183	0x3d99d62d	0.07511554
184	0x3e488574	0.19582158
185	0xbe36e208	-0.17859662
186	0x3de4522d	0.11148486
187	0x3e820bb8	0.25399566
188	0xbe438da1	-0.19096996
189	0xbe366495	-0.17811806
190	0x3ee25a65	0.4420959
191	0x3d9f4cc9	0.077783175
192	0x3e5b7765	0.21432264
193	0x3e66946f	0.2251756
194	0x3c95a37e	0.018266436
195	0x3e88c0a9	0.26709488
196	0x3e81f810	0.2538457
197	0x3ec2c709	0.38042477
198	0x3d8d29e2	0.06892754
199	0xbdeabb34	-0.114614874
200	0xbe717a43	-0.23581795
201	0x3e93f02a	0.28894168
202	0x3de7a931	0.113115676
203	0x3eca1e52	0.39476258
204	0x3e6450b9	0.22296418
205	0x3e765e20	0.24059343
206	0x3da11093	0.078644894
207	0xbdf5e959	-0.12007398
208	0x3de27341	0.11057139
209	0x3f0c3e53	0.547826
210	0xbe77e7c3	-0.24209504
211	0xbce1fd0e	-0.027586486
212	0x3c23baa4	0.009993229
213	0xbe9b9f10	-0.30394793
214	0xbdb684bc	-0.08912036
215	0x3db19f06	0.086729094
216	0x3b8cbbae	0.004294834
217	0x3edea3aa	0.4348424
218	0x3e910ec2	0.28331572
219	0x3df41c74	0.119194895
220	0x3dbf8906	0.09352307
221	0x3c9faceb	0.019491633
222	0xbef4c1cd	-0.47804108
223	0xbeab9de5	-0.335189
224	0xbe9a2d81	-0.30112842
225	0xbe68deb8	-0.2274121
226	0x3d615ab6	0.05501815
227	0x3e89f6fd	0.2694625
228	0x3df008b4	0.1172041
229	0x3e6a1b41	0.22861959
230	0x3e9bacca	0.30405265
231	0x3ed7c7ca	0.42144614
232	0x3ca4317f	0.020043133
233	0x3edec0e5	0.43506542
234	0xbeb38bc1	-0.3506756
235	0x3e1984ad	0.14992018
236	0x3e828264	0.25490105
237	0xbe63172d	-0.2217681
238	0x3d8635af	0.06553208
239	0x3eea8548	0.4580481
240	0x3ebecb92	0.37264687
241	0x3d8f6569	0.07001764
242	0x3ebca854	0.36847174
243	0x3d911c91	0.07085527
244	0x3d97907b	0.07400604
245	0x3eaae1b6	0.3337533
246	0x3e73f112	0.2382243
247	0xbe0e1413	-0.13874845
248	0x3ed1d6a5	0.40984073
249	0xbe3b3bd1	-0.18284537
250	0xbeb0eced	-0.3455576
251	0xbeac0e6c	-0.33604753
252	0xbe80b7f8	-0.25140357
253	0x3e7fbc2c	0.24974126
254	0x3e3f60a5	0.1868921
255	0x3e1e51c8	0.15460885

g_model.conv1.bias f4 [32]
0	0x3e44fd7d	0.19237323
1	0xbe49acde	-0.1969485
2	0xbe139c66	-0.1441513
3	0x3cd3a576	0.025835734
4	0xbd83b8b2	-0.06431712
5	0xbe0b6652	-0.13613251
6	0xba6a7eb1	-0.000894527
7	0xbe63f442	-0.22261146
8	0x3d5af869	0.05345956
9	0x3ea5f237	0.32411358
10	0x3e96fa11	0.2948766
11	0xbe65c013	-0.22436552
12	0xb9c722d6	-0.00037982193
13	0xbe03b577	-0.12862192
14	0x3de487d6	0.11158721
15	0x3e53ef05	0.20696647
16	0xbea8fbd7	-0.3300464
17	0x3e399af4	0.18125516
18	0x3e8dd95e	0.277049
19	0x3e5d0ae8	0.21586192
20	0xbd66978a	-0.056296863
21	0x3da08934	0.078386694
22	0x3e6560ea	0.22400251
23	0x3c6d380c	0.014478695
24	0xbd57858b	-0.05261759
25	0xbd9747a1	-0.07386709
26	0xbdc6fded	-0.09716401
27	0x3a56aebe	0.0008189491
28	0xb99c52d0	-0.0002981634
29	0xbdc42b3b	-0.09578558
30	0xbb59afe3	-0.003321641
31	0xbe13d188	-0.14435399

g_model.conv2.weight f4 [32, 32, 3, 3]
0	0x3d36453a	0.044499613
1	0x3bdac4d7	0.006676297
2	0xbd36c1e7	-0.044618513
3	0xbdabfd55	-0.083979286
4	0xbddbf255	-0.107395805
5	0xbe1550d5	-0.14581616
6	0x3c43fb7e	0.011961816
7	0xbdc91c90	-0.09819901
8	0xbdd9e275	-0.106388964
9	0x3db4783b	0.08811995
10	0x3d70e113	0.058808398
11	0x3e29bc5c	0.1657576
12	0x3e3f2398	0.18665922
13	0x3e402c22	0.18766835
14	0x3e9eaa38	0.30989242
15	0xbcf5be61	-0.029998006
16	0x3df2bb06	0.11852078
17	0x3e3798fd	0.17929454
18	0x3dbc1344	0.09183362
19	0xbc073c63	-0.008254143
20	0xbcd74045	-0.026275763
21	0xbc1af98c	-0.009458911
22	0xbbd7e405	-0.0065884613
23	0x3d0ab3a3	0.03386272
24	0xbceb047f	-0.028688667
25	0xbccb76b0	-0.024836868
26	0xbda448a0	-0.080216646
27	0x3db77098	0.089570224
28	0x3cb63e8b	0.02224662
29	0x3d72381c	0.05913554
30	0xbbd7b851	-0.0065832515
31	0xbdea9f08	-0.11456114
32	0x3cec6ab0	0.028859466
33	0x3c08bcab	0.008345763
34	0xbe04d4de	-0.12971827
35	0xbd95ad66	-0.07308464
36	0x3cf17788	0.029475942
37	0x3de487d0	0.11158717
38	0x3d68e28a	0.05685667
39	0x3d7b04d2	0.061283894
40	0x3e1bfc9c	0.15233082
41	0x3daabdd3	0.08336987
42	0xbd8a7e1e	-0.06762336
43	0x3d8c4c33	0.06850471
44	0x3d4c5c30	0.049892604
45	0x3da998a2	0.082810655
46	0x3d91eeda	0.071256354
47	0xbb8ab4ce	-0.0042329794
48	0xbb2cec0f	-0.002638582
49	0x3d742c1d	0.059612382
50	0x3d1ae6b0	0.037817657
51	0xbd97ccce	-0.0741211
52	0xbdd9f5f4	-0.10642615
53	0xbdd727f8	-0.1050567
54	0x3d646546	0.055760644
55	0x3d2e6af7	0.04258248
56	0x3d9ab3bf	0.07553815
57	0x3e6c7e98	0.23095167
58	0x3e5570c3	0.20843796
59	0x3e22675e	0.15859744
60	0x3e05ba69	0.13059391
61	0x3dca3d71	0.09875
62	0x3d64f8f8	0.055901498
63	0x3e2c1bf7	0.16807543
64	0x3e0713b3	0.13191108
65	0x3e4bea5f	0.19913624
66	0x3d94ba59	0.072621055
67	0x3dc44579	0.09583563
68	0xb928e249	-0.00016106026
69	0x3ddcaf68	0.107756436
70	0xbb7ea505	-0.0038855684
71	0xbd7193c0	-0.058978796
72	0x3da2cbdd	0.0794904
73	0x3d8fb5ec	0.07017121
74	0x3dfccfee	0.12344347
75	0xbd5502eb	-0.052004736
76	0x3c3fe20b	0.011711608
77	0xbad5ee85	-0.0016321695
78	0xbd2b047c	-0.041752324
79	0xbdfdcc1c	-0.123924464
80	0xbd86fa49	-0.06590707
81	0x3d3d24e8	0.046177775
82	0xbc3d83e3	-0.011567089
83	0xbd8619cc	-0.06547889
84	0x3da244d2	0.07923283
85	0x3d25ca6e	0.040476255
86	0x3d21c1d4	0.03949149
87	0xbc8bc39e	-0.017061051
88	0xbd06db8b	-0.032924216
89	0xba8af85b	-0.001060258
90	0x3df2ec7c	0.11861512
91	0x3df621e3	0.12018182
92	0x3d11b833	0.035576057
93	0x3c41207f	0.011787533
94	0x3c3e34db	0.011609281
95	0xbba768ad	-0.005108914
96	0xbd7990ba	-0.060929038
97	0xbd7259ff	-0.05916786
98	0xbd1b1df6	-0.03787037
99	0xbc7ebcca	-0.0155479405
100	0x3da25dae	0.07928024
101	0x3c5d95f5	0.013524522
102	0xbbb1136b	-0.005403926
103	0xbd154459	-0.036442135
104	0x3d121fe7	0.035674956
105	0xbdce0ead	-0.10061393
106	0xbdbbfc2e	-0.09178959
107	0xbe28a205	-0.16468056
108	0x3c8dd104	0.01731158
109	0x3cc0eaa7	0.023549391
110	0xbca63588	-0.020289198
111	0x3d368b8f	0.044566687
112	0x3dd6079c	0.1045067
113	0x3dd6f208	0.104953825
114	0xbd9af00b	-0.07565316
115	0xbd8028ce	-0.06257783
116	0xbd3504f2	-0.04419417
117	0x3afa65a8	0.0019103782
118	0x3c9d9491	0.019235881
119	0x3d9f8278	0.07788557
120	0x3d2dc9db	0.042428833
121	0x3d84e8e4	0.06489733
122	0x3df2176a	0.11820872
123	0xbde06d8a	-0.10958393
124	0xbd942c4f	-0.07235014
125	0xbd86dcea	-0.06585105
126	0x3ca9905c	0.020698719
127	0x3d9d10d0	0.07669222
128	0x3ddfa581	0.10920239
129	0x3b5f8212	0.0034104628
130	0xbcb8a398	-0.022538945
131	0xbd0bf29d	-0.03416692
132	0x3dc3a915	0.09553734
133	0x3de7a91a	0.113115504
134	0x3ccaee77	0.024771912
135	0x3bc6bd92	0.006065079
136	0x3cb2b8ef	0.021816699
137	0x3dd38360	0.10327792
138	0x3c0ea39a	0.008705998
139	0x3c9ccb33	0.019139862
140	0x3dcd732e	0.100317344
141	0xbda7a745	-0.08186201
142	0xbcb0360c	-0.021510147
143	0xbd25b899	-0.04045925
144	0xbd49f4bd	-0.049305666
145	0x3d6c1c5f	0.057644244
146	0x3cf68ef6	0.030097466
147	0xb9a5bf1f	-0.0003161365
148	0x3cf2f835	0.02965937
149	0x3d609c08	0.054836303
150	0xbbc88de7	-0.0061204317
151	0xbc1facdf	-0.0097458055
152	0xbcc5e82c	-0.02415856
153	0xbbdbbe34	-0.0067060236
154	0xbcda302c	-0.026634298
155	0xbd3e94c2	-0.046528585
156	0xbd77af2f	-0.060469802
157	0xbdacfe64	-0.08446959
158	0xbd2aa79a	-0.041663744
159	0x3d674ed2	0.056471653
160	0xbc2cdd71	-0.010550843
161	0x3d75108d	0.059830237
162	0xbcc22896	-0.023700994
163	0x3c15e52a	0.009148875
164	0x3c4de784	0.012567405
165	0x3d80f085	0.062958755
166	0x3db1ccb5	0.08681623
167	0x3e0a4fbb	0.13506977
168	0x3dabddf9	0.08391947
169	0x3e26664b	0.16249959
170	0x3e0bb4a1	0.13643123
171	0xbd89cf8b	-0.06729039
172	0xbc12f8a4	-0.008970413
173	0xbcd4fb8c	-0.025998853
174	0xbdc56fda	-0.096404746
175	0xbd46145a	-0.048359253
176	0xbd4e3960	-0.050347686
177	0xbd70bc5a	-0.058773376
178	0x3c3c1e77	0.011481873
179	0xbc383754	-0.01124366
180	0x3d1f0756	0.038825355
181	0x3da7e9a5	0.08198861
182	0x3de13c00	0.10997772
183	0x3bbc1ffe	0.0057411185
184	0xbcd8cb01	-0.026463987
185	0x3d09749a	0.033558466
186	0xbe171e4e	-0.14757654
187	0xbde60acb	-0.11232527
188	0xbda94e3a	-0.08266874
189	0x3dad2cee	0.08455835
190	0x3d74b01a	0.059738256
191	0x3d347a00	0.04406166
192	0x3d78ee4c	0.060774133
193	0xbc864bb7	-0.016393526
194	0x3d21daa4	0.039515153
195	0xbe239255	-0.1597379
196	0xbda496dc	-0.08036587
197	0xbdd646e9	-0.10462744
198	0x3dd2386c	0.10264668
199	0x3d2740ad	0.040833164
200	0x3d72e133	0.059296798
201	0xbd308591	-0.04309613
202	0x3d957abe	0.07298802
203	0xbbd69458	-0.0065484457
204	0xbc9b5b91	-0.01896456
205	0xbd873256	-0.06601398
206	0xbdc822eb	-0.09772285
207	0x3d9810f2	0.07425107
208	0xbcb78b36	-0.022405248
209	0x3c1a4862	0.0094166715
210	0x3e4c7e3f	0.19970034
211	0x3df8a27d	0.12140367
212	0x3d4e00d5	0.050293762
213	0x3e15b053	0.14618044
214	0x3d039067	0.032120135
215	0xbd9ecbf8	-0.07753748
216	0x3c9b24f1	0.018938513
217	0x3d2d3a61	0.042292003
218	0x3dd5e2fc	0.104436845
219	0x3e0cfc19	0.13768043
220	0x3e895aad	0.26826993
221	0x3e927e2a	0.2861188
222	0x3e39ea41	0.18155767
223	0x3e9d00fb	0.3066481
224	0x3e1ffc16	0.15623507
225	0x3dc3aa0f	0.095539205
226	0x3df92281	0.12164784
227	0x3e338123	0.1752973
228	0xbd4b5a54	-0.04964669
229	0x3b993957	0.004676025
230	0x3dc4bc48	0.09606224
231	0xbe063330	-0.13105464
232	0xbe0e0803	-0.13870244
233	0xbd4de3ab	-0.05026595
234	0x3d707c68	0.058712393
235	0x3cef1d7b	0.029188862
236	0x3d33a85b	0.04386173
237	0x3c6215db	0.013799156
238	0x3cb4beb3	0.022063589
239	0xbae79cdd	-0.001767065
240	0xbdaf07ed	-0.085464336
241	0xbe2300a9	-0.1591822
242	0xbdc08fb5	-0.0940241
243	0x3c7a79dd	0.0152878435
244	0x3d8c745a	0.0685813
245	0x3dbbc718	0.091688335
246	0x3e1dd4f5	0.15413268
247	0x3e41323f	0.18866824
248	0x3e5779f3	0.21042614
249	0x3caf734c	0.021417283
250	0x3da82253	0.08209672
251	0x3c7a8e6f	0.015292748
252	0x3d89ed72	0.06734742
253	0x3cea91b7	0.028633935
254	0x3d94f321	0.07272936
255	0xbd3f8e51	-0.046766583

g_model.conv2.bias f4 [32]
0	0xbd70f8fc	-0.0588312
1	0x3d354e18	0.04426393
2	0x3cbd316d	0.023094857
3	0x3d4bee36	0.049787723
4	0xbd14eb96	-0.036357485
5	0xbd76492f	-0.060128387
6	0xbc34e176	-0.011040082
7	0x3cb05bc5	0.021528134
8	0x3c833b52	0.016019497
9	0xbcca06a8	-0.024661377
10	0x3cc7cef4	0.024390675
11	0xbd876211	-0.066105016
12	0xbd40cfd2	-0.047073193
13	0xbc88b2a0	-0.016686738
14	0xbd6519d7	-0.055932846
15	0x3cea43cf	0.028596787
16	0x3ce970cb	0.028496167
17	0x3d83baef	0.06432139
18	0xbc2019fb	-0.009771819
19	0xbd0e56ed	-0.034750868
20	0x3cf656db	0.030070713
21	0x3d3ab12e	0.045579128
22	0x3c3d32f0	0.011547789
23	0xbd43aa49	-0.04776982
24	0xbc3dd5a4	-0.01158658
25	0xbc0cc174	-0.008591045
26	0xbb0b84ba	-0.0021288828
27	0x3ca34ac6	0.019933116
28	0x3cdc577c	0.026897185
29	0x3c0ec0ac	0.008712929
30	0xbd1b214f	-0.037873562
31	0xbd827b0e	-0.06371127

g_model.fc1.weight f4 [128, 800]
0	0x3d4feb32	0.05076141
1	0x3d23d5e2	0.039998896
2	0x3bca57ba	0.0061750086
3	0x3d53c8bf	0.05170512
4	0xbc5b6778	-0.013391368
5	0xbc92a17a	-0.017899264
6	0x3c079037	0.00827413
7	0xbb9d5127	-0.004800934
8	0xbc429c94	-0.011878151
9	0xbd0d01a2	-0.034425385
10	0xbc9e7416	-0.019342463
11	0xbb98bd21	-0.004661218
12	0xbc2adc2c	-0.01042847
13	0x3d114044	0.03546168
14	0xbc75b5e7	-0.014996982
15	0xbd48f98e	-0.04906612
16	0xbd13dc68	-0.036098868
17	0x3d2f6bfb	0.042827588
18	0xbbaeeec1	-0.0053385203
19	0x3c906dee	0.017630544
20	0x3cdd9ad5	0.027051369
21	0xbd05b346	-0.03264167
22	0x3cdf4ac4	0.02725733
23	0xbc870559	-0.016482042
24	0x3b4f8ea9	0.0031670725
25	0x3d42c17c	0.047547802
26	0xbc7fcb90	-0.015612498
27	0xbcb77111	-0.022392781
28	0x3c40b7ae	0.011762543
29	0x3baec037	0.0053329724
30	0x3d54987e	0.05190324
31	0xbb7dae6c	-0.00387087
32	0x3d28eae7	0.041239645
33	0xbcd968ff	-0.026539324
34	0xbd6f2cac	-0.05839221
35	0x3c46ba68	0.012129404
36	0xbc127bf6	-0.008940687
37	0x3d2201f8	0.03955266
38	0x3c6cd011	0.014453904
39	0x3d2c3242	0.042040117
40	0xbc8b2f18	-0.01699023
41	0x3c9b911c	0.018990092
42	0x3d147146	0.03624084
43	0xba70a231	-0.0009179442
44	0x3cbd7181	0.023125412
45	0x3c97d1d4	0.018532671
46	0xbb861cb7	-0.0040927785
47	0x3caf0b55	0.021367708
48	0xbc409e72	-0.011756526
49	0x3cb8a81f	0.022541104
50	0x3cd32b1c	0.025777392
51	0xbc062627	-0.008187807
52	0x3d1393af	0.036029514
53	0xbbafc198	-0.0053636543
54	0xbcb0b428	-0.02157028
55	0x3d304f7b	0.04304455
56	0x3d7eba7e	0.06218957
57	0x3ba4446b	0.005013039
58	0xbc1827b3	-0.009286809
59	0xbd3f94c0	-0.04677272
60	0xbc3c1549	-0.011479684
61	0x3c031934	0.008001614
62	0x3c64b0f5	0.0139582055
63	0x3d28d32d	0.041217018
64	0xbb67b04a	-0.003535288
65	0x3af4efb0	0.0018687155
66	0x3c242e21	0.010020764
67	0xbc69ffb6	-0.014282158
68	0x3cf9da57	0.03049962
69	0xbd05127d	-0.032488335
70	0xba41d14b	-0.0007393553
71	0x3b8a7454	0.004225293
72	0x3c5a68ec	0.013330679
73	0xbcb634f9	-0.022242056
74	0x3c15ea42	0.00915009
75	0xbd4e097b	-0.05030201
76	0xbd763291	-0.060106818
77	0xbd322d71	-0.043500368
78	0xbd36d61a	-0.044637777
79	0xbc3804ab	-0.011231582
80	0xbd42bba1	-0.047542218
81	0xbd954c31	-0.07289923
82	0xbc93856e	-0.01800796
83	0xbcaf7bc2	-0.021421317
84	0xbc4995da	-0.012303794
85	0x3cfcaf22	0.030845229
86	0x3cca2b2c	0.02467879
87	0xbba1a41f	-0.004932895
88	0xbd03a35c	-0.032138214
89	0xbcffd39d	-0.031228835
90	0xbc6ee922	-0.01458195
91	0x3b2ec072	0.0026665
92	0xbb0e1c46	-0.0021684333
93	0xb9d95bf4	-0.00041457976
94	0x3cfb8f46	0.030707967
95	0x3c8a19f4	0.016858079
96	0xbc50d8db	-0.012747015
97	0x3b21e336	0.0024702079
98	0xbd178732	-0.036994167
99	0x3ccb8c10	0.02484706
100	0xbcff1c39	-0.031141387
101	0x3c5ab720	0.013349324
102	0xbb5f21a2	-0.0034047146
103	0xbc570046	-0.013122624
104	0xbd097ae8	-0.03356448
105	0x3b8b651f	0.004253998
106	0x3c5c2c3b	0.01343828
107	0x3c369779	0.011144512
108	0x3bd55d58	0.0065113716
109	0xbcafff6a	-0.021484096
110	0x3d006756	0.03134855
111	0xbd024aca	-0.031809606
112	0xbd0115a9	-0.031514797
113	0xbbd85b0e	-0.0066026514
114	0x3d1fbd3b	0.038998824
115	0xbd2051b8	-0.039140433
116	0x3ce3551f	0.02775055
117	0xbc44a3b4	-0.0120019205
118	0xbce3496d	-0.027744973
119	0xbc3ab696	-0.011396071
120	0xbd0588cc	-0.032601163
121	0xbd1c082d	-0.038093735
122	0xbca0c203	-0.019623762
123	0xbd70444e	-0.05865889
124	0x3ba314df	0.0049768533
125	0xbb8f55c0	-0.004374236
126	0xbd4666bd	-0.048437823
127	0xbc0e3dc4	-0.008681718
128	0xbc374280	-0.011185288
129	0xbbc74daf	-0.0060822587
130	0xbc637e5d	-0.013885108
131	0xbcc63ca8	-0.024198845
132	0x3cff4544	0.031160958
133	0x3cf60563	0.030031865
134	0x3d266a88	0.04062894
135	0x3d2ea550	0.042638123
136	0xbc85cce8	-0.016333058
137	0x3d11910e	0.035538726
138	0xbce6023d	-0.02807724
139	0xbc17b385	-0.009259109
140	0x3d229931	0.039696876
141	0x3cdabd74	0.026701666
142	0x3cc03b28	0.023465708
143	0xbc97deba	-0.018538821
144	0x3d2aba46	0.04168155
145	0x3c8fa076	0.017532568
146	0x3d44ca43	0.048044454
147	0xbc09dcc3	-0.00841445
148	0xbbaaba55	-0.005210201
149	0x3c285b55	0.0102756815
150	0xbbe95fef	-0.007122032
151	0xbc030ba6	-0.007998383
152	0x3d199857	0.0374988
153	0x3d00a27d	0.03140496
154	0x3b4c0244	0.003112928
155	0xbc95344f	-0.01821342
156	0xba9f7124	-0.0012164456
157	0x3c3b7d7d	0.011443493
158	0x3ba57673	0.0050495206
159	0x3cc45d34	0.023970224
160	0xbcc59a8e	-0.024121549
161	0x3c76a7ca	0.0150546525
162	0xba9508f4	-0.0011370466
163	0xbccd285c	-0.025043659
164	0xbcc41de6	-0.023940038
165	0x3cf5132f	0.029916374
166	0x3a94acf7	0.0011343051
167	0x3cd63cf1	0.026152106
168	0x3ce0f4c0	0.027460456
169	0x3c93d284	0.018044718
170	0x3ca2762f	0.019831745
171	0x3bc3911e	0.005968227
172	0xbce46074	-0.027878024
173	0x3be94ab2	0.0071195
174	0xbc86d16f	-0.016457288
175	0x3aef663b	0.001826472
176	0x3cbea7d3	0.023273384
177	0x3b4b6e73	0.0031041175
178	0xbc675812	-0.014120119
179	0xbd5203a7	-0.051273014
180	0x3b627149	0.0034552386
181	0x3ced05eb	0.028933486
182	0xbcf25353	-0.029580748
183	0xbcf6b849	-0.03011717
184	0xbb950c18	-0.004548561
185	0xbd0a6c41	-0.033794645
186	0x3c812b55	0.015767733
187	0xbc03bbf5	-0.008040418
188	0x3c8006ec	0.0156283
189	0x3be4e78b	0.00698561
190	0xbd53ec1e	-0.05173885
191	0x3c869480	0.016428232
192	0x3c94530e	0.01810601
193	0x39d26c09	0.00040134814
194	0xbc5f0641	-0.013612331
195	0xbcc6c2d2	-0.02426282
196	0x3c836df7	0.016043646
197	0x3d368fd0	0.044570744
198	0x3d50719e	0.050889604
199	0xbcc620ba	-0.024185527
200	0xbc3aa144	-0.011390988
201	0xbd465e48	-0.048429757
202	0xbc0bdd2c	-0.008536618
203	0xbbf7f123	-0.0075665875
204	0x3c91af09	0.017783659
205	0xbc8cf000	-0.017204285
206	0xbd055d80	-0.03255987
207	0xbd2301a9	-0.039796505
208	0xbcfb63ab	-0.030687174
209	0x3cf9623d	0.030442351
210	0xbd69e850	-0.057106316
211	0x3b40b42f	0.0029404273
212	0xbccd6422	-0.025072161
213	0xba4f2d07	-0.0007903133
214	0xbbf435d0	-0.007452704
215	0x3c97f6dc	0.018550329
216	0xbd06c9a3	-0.03290714
217	0xbd51973c	-0.05116962
218	0xbcedd325	-0.029031346
219	0x3d27e00b	0.04098515
220	0xbc45dbdd	-0.012076345
221	0xba8e5a8f	-0.0010860729
222	0x3c9b9746	0.018993031
223	0xbcdd2fbb	-0.027000299
224	0x3cae61e9	0.021286922
225	0xbcda1ab1	-0.026624056
226	0xbcce6a93	-0.025197303
227	0x3d0b23a0	0.03396952
228	0x3be2beaa	0.0069197016
229	0x3cb7af7c	0.022422545
230	0xbd46bc23	-0.048519265
231	0xbd64c01c	-0.055847272
232	0xbd3cd021	-0.046096925
233	0xbcc466c3	-0.023974782
234	0xbb0be659	-0.0021347015
235	0xbce2cb79	-0.027684914
236	0x3d0852ac	0.033281967
237	0x3c86fac2	0.016476993
238	0xba87f475	-0.0010372536
239	0xbd0c0c99	-0.0341917
240	0xbcce35a6	-0.025172066
241	0xbbaec63c	-0.00533369
242	0x3c903aed	0.017606223
243	0xbbfa3745	-0.007635983
244	0xba48559e	-0.00076421525
245	0xbc9b6132	-0.018967245
246	0x3d3f5be3	0.04671849
247	0x3cdd0c77	0.026983483
248	0x3c891f71	0.016738625
249	0xbd0c26ca	-0.03421668
250	0xbbe80948	-0.0070811845
251	0x3c7d65aa	0.015466133
252	0x3cb94982	0.02261806
253	0xbb6e3d87	-0.003635259
254	0xbacb2fd2	-0.0015501922
255	0x3d28c022	0.041198857

g_model.fc1.bias f4 [128]
0	0x3c920310	0.017823726
1	0x3d1922b8	0.037386626
2	0xbbf2bbd4	-0.0074076448
3	0xbbb8c969	-0.0056392443
4	0xbd0e191c	-0.034691915
5	0xbcb1ebf4	-0.021718957
6	0x3bb73313	0.0055908053
7	0x3c6cb935	0.014448454
8	0x3bb93f68	0.0056533106
9	0xbd1c8379	-0.03821132
10	0x3c8052ca	0.015664477
11	0x3cd85969	0.026409822
12	0xbcc1adfd	-0.023642534
13	0xbc789a5a	-0.015173519
14	0x3d1706e4	0.036871806
15	0xbd034515	-0.032048304
16	0xbc86d574	-0.016459204
17	0x3cbe4bc4	0.023229487
18	0x3b8b7b6c	0.0042566564
19	0x3c43516d	0.011921269
20	0x39f6afa1	0.0004705163
21	0x3c807ef6	0.01568554
22	0x3bca76a2	0.006178693
23	0xbc682b3e	-0.014170466
24	0xbd0ac665	-0.03388061
25	0xbbcc8dc5	-0.006242486
26	0xbc9e6afb	-0.019338122
27	0x3cc2e7fa	0.023792256
28	0x3c8b6483	0.017015701
29	0x3cdfcba4	0.027318783
30	0xbd02bf9f	-0.031921025
31	0xbcf1ce53	-0.029517328
32	0x3d1cec25	0.038311142
33	0xbbc3b5ef	-0.005972616
34	0xbc696a3f	-0.014246522
35	0xbb2fb671	-0.0026811624
36	0x3d06ef75	0.032943208
37	0x3d0944c3	0.033512842
38	0x3d1eaf33	0.0387413
39	0x3c9fa61e	0.01948839
40	0xbd067069	-0.032822046
41	0xbbb350c3	-0.005472274
42	0x3cb51549	0.022104876
43	0xbca1efc2	-0.019767646
44	0xbc6087e6	-0.013704276
45	0x3be013bd	0.0068382905
46	0xbb85e4b8	-0.0040861033
47	0xbc99ec39	-0.018789398
48	0x3c35012e	0.011047645
49	0xbbe43530	-0.0069643483
50	0x3c51eacf	0.01281233
51	0xbcbd9d65	-0.02314634
52	0xbbf978ff	-0.007613301
53	0x3be8aa4f	0.0071003805
54	0xbcf0817b	-0.029358616
55	0x3cabaf75	0.020957688
56	0x3cdda6fb	0.027057162
57	0xbc027a6e	-0.00796376
58	0xbca9272a	-0.020648558
59	0x3ca5c100	0.020233631
60	0xbcaa629f	-0.02079898
61	0xbbd8f874	-0.006621415
62	0xbc467d22	-0.012114795
63	0xbc9cc099	-0.019134806
64	0x3ccec3ed	0.025239909
65	0xbcba94c7	-0.02277602
66	0x3bdbd7f8	0.006709095
67	0xbc783735	-0.015149881
68	0xbbd4941e	-0.0064873835
69	0xbc151526	-0.00909928
70	0x3c844261	0.016144933
71	0x3cd271d0	0.025689036
72	0xbd14e974	-0.03635545
73	0x3cc89215	0.02448372
74	0xbce6a447	-0.028154505
75	0x3d0b0e50	0.033949196
76	0x3bcbe8fd	0.0062228427
77	0xbc13d3b6	-0.009022644
78	0xbb4c737b	-0.0031196761
79	0x3ca18d12	0.019720588
80	0x3c4cd3e0	0.012501687
81	0x3cc07398	0.02349262
82	0xbb294477	-0.0025828162
83	0x3c91658a	0.017748613
84	0x3cc6aa9b	0.024251273
85	0x3c44c3aa	0.012009541
86	0x3c241a51	0.01001604
87	0x3ccd9523	0.025095528
88	0x3cc2e660	0.023791492
89	0xbd0fd9f1	-0.035119954
90	0x3c8497d5	0.01618568
91	0x3c215427	0.009846724
92	0x3d1677da	0.036735393
93	0x3b22863f	0.0024799255
94	0x3aba21a1	0.0014200696
95	0xbc299574	-0.010350574
96	0x3c44f5d8	0.012021504
97	0x3d14fe2d	0.036375213
98	0xbcf35352	-0.029702816
99	0xbc26cd2e	-0.010180755
100	0xbbed4ac2	-0.007241578
101	0xbb018a11	-0.0019766132
102	0x3d031c53	0.032009434
103	0xbd325149	-0.04353455
104	0x3c4c4933	0.012468624
105	0x3d0247be	0.0318067
106	0x3cb25483	0.021768814
107	0xbc5e5d83	-0.0135721
108	0x3c9e7fe5	0.019348094
109	0x3cb3c67f	0.021945236
110	0x3ca19330	0.019723505
111	0xbc10936b	-0.00882421
112	0x3d138804	0.036018386
113	0xbb20628d	-0.0024472803
114	0x3aa71038	0.0012745922
115	0xbc8d330c	-0.017236255
116	0xbc65256b	-0.013985972
117	0x3baecd63	0.0053345426
118	0xbc4d56d8	-0.012532912
119	0x3c43abc5	0.0119428085
120	0xbd056a02	-0.0325718
121	0x3ceb50c9	0.028725045
122	0xba8a96f9	-0.0010573558
123	0x3ceafdc4	0.028685458
124	0xbb1b2d2f	-0.0023678055
125	0x3cf6a737	0.030109031
126	0x3ca92e79	0.020652043
127	0xbb7a9075	-0.0038233076

g_model.fc2.weight f4 [18, 128]
0	0xbd121031	-0.035659973
1	0xbd5baabb	-0.05362962
2	0xbd3264b5	-0.043553073
3	0x3d764f77	0.060134377
4	0xbe2189fe	-0.15775296
5	0x3b94aad5	0.0045369663
6	0x3e071eae	0.13195297
7	0xbb0a549d	-0.0021107562
8	0xbdc4db6f	-0.09612166
9	0xbe0823dc	-0.1329493
10	0xbd0f6faf	-0.03501862
11	0x3d94db0f	0.072683446
12	0x3ce0a914	0.027424373
13	0xbc6c171d	-0.0144098075
14	0xbdee322e	-0.11630665
15	0xbd80dbfd	-0.062919594
16	0x3c113797	0.008863351
17	0xbe81e039	-0.2536638
18	0x3cfb429e	0.030671414
19	0xbd94c005	-0.07263187
20	0x3d662128	0.056183964
21	0xbdf5cee7	-0.12002354
22	0x3d84039e	0.064460024
23	0xbd57f59f	-0.052724477
24	0xbd926f58	-0.071501434
25	0x3e190801	0.1494446
26	0xbc0b561d	-0.008504418
27	0xbdbcf6d9	-0.0922677
28	0x3d193644	0.037405267
29	0xbbb9d613	-0.0056712716
30	0xbdb056ac	-0.08610281
31	0x3d06fdc7	0.032956865
32	0xbc1329e5	-0.008982156
33	0xbd0fb314	-0.03508289
34	0xbdd96120	-0.10614228
35	0x3d8d8807	0.06910711
36	0xbdcfdd4a	-0.101496294
37	0x3c4af877	0.01238834
38	0x3d89c0db	0.067262374
39	0x3d9e607f	0.07733249
40	0xbd8b51d0	-0.06802714
41	0x3df4e703	0.119581245
42	0xbd7df52e	-0.0620014
43	0xbd19de23	-0.03756536
44	0xbd729968	-0.05922833
45	0xbbd16f07	-0.0063914093
46	0xbd0c2cee	-0.034222536
47	0x3d2b2c61	0.04179037
48	0x3d339b3a	0.043849207
49	0x3cf61b4b	0.030042311
50	0xbdb9abe3	-0.09065988
51	0x3d986dcf	0.07442819
52	0x3d37715d	0.044785846
53	0xbd4e5a15	-0.050378878
54	0xbe1db5ae	-0.15401337
55	0x3d97e6c4	0.07417062
56	0xbd8df979	-0.06932349
57	0xbd184792	-0.03717763
58	0xbcd8c8f9	-0.026463019
59	0x3d7c32b2	0.061571784
60	0xbd93a1ce	-0.07208596
61	0xbdbe70d1	-0.09298862
62	0xbb1db32a	-0.002406309
63	0x3ddd0428	0.10791808
64	0x3d8f532c	0.06998286
65	0x3db6b47b	0.08921143
66	0xbd9fe6e5	-0.078077115
67	0xbcb5b343	-0.022180205
68	0xbe03ce2f	-0.12871622
69	0xbd907ab3	-0.07054653
70	0x3dd464af	0.10370766
71	0x3dafe827	0.085892014
72	0xbdaf8141	-0.08569575
73	0x3b2814a8	0.0025647078
74	0xbd9b0c3d	-0.07570694
75	0xbdd6635f	-0.10468172
76	0x3d67203a	0.056427218
77	0xbd21b825	-0.039482255
78	0xbba10be9	-0.00491475
79	0xbc4625c1	-0.012093962
80	0xbb128fdf	-0.0022363586
81	0xbded01fa	-0.115726426
82	0x3dafbfc1	0.08581496
83	0x3c86e693	0.016467368
84	0xbd7f3ce4	-0.06231393
85	0xbda6b1ab	-0.08139356
86	0xbda92824	-0.08259609
87	0xbd89469a	-0.06702919
88	0xbd10cdcc	-0.035352513
89	0x3bcb6c2d	0.006207964
90	0x3d78eabf	0.060770746
91	0xbb8b9c31	-0.004260563
92	0xbd831920	-0.064012766
93	0xbe4a7bf8	-0.19773853
94	0x3daa9311	0.08328832
95	0x3dc42b9a	0.09578629
96	0x3d055948	0.03255585
97	0xbd9bac82	-0.07601263
98	0xbc2a3281	-0.010388018
99	0x3c087a5e	0.008329956
100	0xbd5e69ff	-0.054300305
101	0xbe0c2329	-0.13685288
102	0x3e029633	0.12752609
103	0x3c4bcf0c	0.012439501
104	0x3d6d4d32	0.057934947
105	0xbc438e61	-0.011935801
106	0x3dc483fd	0.09595487
107	0x3d82b886	0.06382851
108	0x3d7d7aaf	0.06188458
109	0xbdad6f64	-0.08468512
110	0xbc9b0751	-0.018924387
111	0xbe00054e	-0.12502024
112	0x3d63bde7	0.055601027
113	0x3d311cf9	0.04324052
114	0xbe186ff1	-0.14886452
115	0xbd837a9b	-0.064198695
116	0xbdb0c05d	-0.086304404
117	0xbd0186d8	-0.031622738
118	0x3dd0fccc	0.10204467
119	0xbce0ae21	-0.027426781
120	0x3dd43bd4	0.10362974
121	0x3da657d1	0.081222184
122	0x3d1d507b	0.03840683
123	0xbdd2229f	-0.1026051
124	0x3cfc1f72	0.030776713
125	0xbca1abd9	-0.019735264
126	0x3d9bff6a	0.07617076
127	0x3d12ffd9	0.035888527
128	0xbd99cfa6	-0.07510309
129	0xbd670c8f	-0.05640846
130	0x3e0c57b5	0.13705333
131	0x3c31bf8f	0.010848894
132	0xbd52a9e2	-0.051431544
133	0x3e3a5566	0.1819664
134	0x3cac12bf	0.021005033
135	0xbda4d534	-0.08048478
136	0xbcf07232	-0.029351328
137	0x3cf7becb	0.030242344
138	0x3c006a92	0.007837908
139	0x3c1b6de7	0.009486652
140	0x3d60d779	0.05489299
141	0xbba311a4	-0.004976468
142	0x3dea0334	0.11426392
143	0x3ccf915f	0.025337873
144	0xbd27d64a	-0.040975846
145	0x3c85c442	0.016328935
146	0x3dc5f815	0.096664585
147	0xbc7646cc	-0.015031528
148	0x3d80bccc	0.0628601
149	0x3d6e205b	0.058136325
150	0x3d60d134	0.05488701
151	0x3e106f9a	0.14105073
152	0xbe1e3baf	-0.15452455
153	0x3d935112	0.07193197
154	0x3bfb0445	0.007660421
155	0x3ce87701	0.028377058
156	0x3da2d3ab	0.07950529
157	0xbca25513	-0.019815957
158	0x3d103da9	0.035215054
159	0xbe1de19f	-0.15418099
160	0x3db1c4df	0.08680128
161	0x3dedba38	0.11607784
162	0x3e09c767	0.13454972
163	0x3c457abe	0.01205319
164	0xbd9bf81e	-0.07615684
165	0xbe31524a	-0.17316547
166	0xbd0dd51b	-0.03462706
167	0xbe0b7589	-0.13619055
168	0x3b8eec47	0.0043616625
169	0xbde6027f	-0.11230945
170	0xbdc9e7e3	-0.09858682
171	0xbe19b223	-0.1500936
172	0x3cf5e25b	0.030015161
173	0xbd8009c1	-0.062518604
174	0xbcf151ff	-0.029458044
175	0xbcf34ee5	-0.029700706
176	0xbde7b985	-0.11314682
177	0xbd09a624	-0.03360571
178	0xbd7431f9	-0.05961797
179	0x3c0176ad	0.00790183
180	0x3d525ea7	0.0513598
181	0x3c478c10	0.01217939
182	0x3cd48bc2	0.025945548
183	0xbc695d72	-0.0142434705
184	0xbd17d5ab	-0.037069004
185	0xbcfc3cf3	-0.030790782
186	0x3e07494b	0.13211553
187	0xbd8ca312	-0.06867041
188	0x3ccf2ab5	0.025288919
189	0x3d11b30f	0.035571154
190	0x3d7bc711	0.06146914
191	0xbdc194fa	-0.09452243
192	0xbca90933	-0.02063427
193	0x3e107cb0	0.14110065
194	0x3dece96b	0.115679584
195	0x3d0c2690	0.034216464
196	0x3cf78a43	0.030217296
197	0xbb90308d	-0.004400319
198	0x3d7ff6b2	0.062491126
199	0xbdc3fbbe	-0.095695004
200	0xbcb2ebed	-0.021841014
201	0x3d6b038d	0.057376433
202	0xbe2f9cbb	-0.17149632
203	0x3ded73ee	0.115943775
204	0x3d8028b0	0.062577605
205	0x3d64b9bf	0.055841204
206	0xbdcb392a	-0.099230126
207	0x3ddb8af8	0.107198656
208	0x3dd6de64	0.104916364
209	0xbb1c3672	-0.0023836163
210	0x3cd3b7ed	0.025844539
211	0xbe26b8e6	-0.1628147
212	0x3c6c76c0	0.014432609
213	0x3d6669d0	0.056253254
214	0xbc6ade0f	-0.014335169
215	0x3bf92fda	0.0076045813
216	0x3d1a44b4	0.037663177
217	0xbd9fb592	-0.07798304
218	0x3cca5415	0.024698297
219	0xbd839fe7	-0.06426983
220	0x3d23385b	0.039848667
221	0x3dcca0e6	0.099916264
222	0xbc80e91e	-0.015736159
223	0xbdafd7ac	-0.08586058
224	0x3ddda993	0.10823359
225	0x3dbb1863	0.09135511
226	0x3c1b0d18	0.009463571
227	0xbd96fb3f	-0.0737214
228	0x3d92929b	0.07156869
229	0x3da87d4d	0.08227024
230	0xbdcb81da	-0.099368766
231	0xbdd74275	-0.105107225
232	0x3e038bcb	0.12846296
233	0xbc99f810	-0.018795043
234	0x3c87dc1c	0.016584449
235	0x3c9b8189	0.018982666
236	0x3cc040e7	0.023468448
237	0x3d9f0e17	0.07766359
238	0xbd560438	-0.052250117
239	0x3cd897a6	0.0264395
240	0x3b5e8dcc	0.003395903
241	0xbdcbcef5	-0.09951583
242	0x3d6fb609	0.05852321
243	0xbd8af433	-0.067848586
244	0x3ce22f68	0.027610496
245	0x3e1469f3	0.14493541
246	0x3be87a22	0.0070946375
247	0x3db0ec74	0.0863885
248	0xbd8dda37	-0.06926387
249	0xbe1c5611	-0.15267207
250	0xbd162b3c	-0.036662325
251	0x3dba8200	0.09106827
252	0x3cd59103	0.026070124
253	0x3d180bc4	0.037120596
254	0x3d87464c	0.06605205
255	0x3d90a6d1	0.07063068

g_model.fc2.bias f4 [18]
0	0xbd14ffee	-0.036376886
1	0x3d923152	0.07138313
2	0x3d2bb98d	0.041925002
3	0x3d23e233	0.040010642
4	0xbdaa9da5	-0.083308496
5	0x3d88d4c2	0.06681205
6	0xbcddcecf	-0.027076153
7	0x3d80733f	0.062719814
8	0x3c7f89dd	0.015596834
9	0xbd57b40c	-0.05266194
10	0xbc9e26ee	-0.019305672
11	0x3d22221a	0.039583303
12	0xbc0f476e	-0.0087450575
13	0x3db22914	0.08699241
14	0xbcfde5bf	-0.03099334
15	0x3d2aabd3	0.04166777
16	0xbd49d401	-0.04927445
17	0x3d493a03	0.04912759

f_model.fc1.weight f4 [32, 18]
0	0x3e6ec320	0.23316622
1	0xb9ef4bdd	-0.00045642155
2	0x3d5cd5f7	0.05391499
3	0x3e1a8bdf	0.15092419
4	0xbd4996d4	-0.049216107
5	0x3e89b083	0.2689248
6	0xbd072aa4	-0.03299965
7	0xbd813751	-0.06309379
8	0x3e0cb058	0.13739145
9	0x3e5b8da3	0.21440749
10	0xbcfced05	-0.030874738
11	0x3c902559	0.017595934
12	0xbe205221	-0.1565633
13	0x3e334abd	0.17508979
14	0xbdb2d71e	-0.087324366
15	0xbe3b00e7	-0.18262063
16	0x3de6e742	0.11274578
17	0x3c94b6d1	0.01815358
18	0xbdcaf72e	-0.09910427
19	0x3e3fbd31	0.18724515
20	0x3bd3fd99	0.00646944
21	0xbe866248	-0.26246858
22	0x3d543eb8	0.051817626
23	0xbe0b5d46	-0.136098
24	0xbe8c2b15	-0.2737662
25	0xbe104f4a	-0.14092746
26	0x3ecc7aa1	0.39937308
27	0xbe6cee3c	-0.23137754
28	0x3db397ed	0.08769212
29	0x3ddce04a	0.10784967
30	0x3db9a905	0.09065441
31	0x3ebe206b	0.37134108
32	0x3d25d12b	0.04048268
33	0x3dbbc541	0.091684826
34	0xbd93fee8	-0.07226354
35	0x3c63fe3a	0.013915593
36	0xbe094f37	-0.13409124
37	0x3d4185dc	0.0472468
38	0x3e0f307e	0.13983342
39	0xbe32f5b7	-0.17476545
40	0x3e316fd9	0.17327823
41	0xbc8c106c	-0.017097674
42	0x3c03bf2d	0.008041185
43	0xbe09f88f	-0.13473724
44	0xbdf233ad	-0.118262626
45	0xbe047260	-0.12934256
46	0xbd9fbc58	-0.077995956
47	0x3cd87a9d	0.026425654
48	0xbe3ae761	-0.18252327
49	0x3e1039ab	0.14084499
50	0xbe744e0f	-0.23857902
51	0x3dda424f	0.106571786
52	0x3e5454c9	0.20735468
53	0x3e024bfe	0.12724301
54	0xbe61dc8f	-0.22056793
55	0xbdd085ce	-0.10181771
56	0xbd95b076	-0.07309048
57	0xbdc166e9	-0.09443457
58	0xbe25825e	-0.16163012
59	0x3d3e5d52	0.046475716
60	0xbe670c40	-0.22563267
61	0x3e13c67a	0.14431182
62	0x3e812016	0.25219792
63	0x3dfdf306	0.12399869
64	0xbd873fef	-0.06603991
65	0x3e36c384	0.17848021
66	0x3e1f989b	0.15585558
67	0xbe630f8a	-0.22173896
68	0x3c834da2	0.01602823
69	0x3e3458fd	0.17612071
70	0x3de7e005	0.11322025
71	0x3e47bda0	0.1950593
72	0xbc6c064d	-0.014405799
73	0x3d770bb7	0.060313907
74	0xbe362c4a	-0.17790332
75	0x3eb97967	0.36225435
76	0xbe649e8d	-0.22326107
77	0xbe9b4e83	-0.30333337
78	0xbdb02ad7	-0.08601921
79	0x3e2cc0cb	0.1687042
80	0xbe05a871	-0.13052537
81	0x3debdb1b	0.115164004
82	0xbdb5bd0c	-0.088739485
83	0x3d1ec586	0.03876259
84	0x3ecbe525	0.3982326
85	0x3e7992d4	0.24372417
86	0x3e1e7a52	0.15476349
87	0xbdd04a3a	-0.101704076
88	0x3d22804e	0.039673142
89	0xbdb8b38f	-0.09018623
90	0xbe0b21fd	-0.13587184
91	0xbd62a98a	-0.055337466
92	0x3da0e363	0.078558706
93	0x3e990884	0.2988931
94	0xbe853c05	-0.26022354
95	0xbe0fe6a2	-0.14052823
96	0x3e007ce2	0.12547639
97	0xbe0ebc38	-0.13938987
98	0xbe8057bc	-0.25066936
99	0xbdeefbf5	-0.11669151
100	0x3e4fd3b3	0.202956
101	0x3de5f25d	0.11227868
102	0xbe37e273	-0.17957477
103	0x3dac153e	0.08402489
104	0x3d275be9	0.040859137
105	0x3d5f0f8f	0.054458197
106	0xbdb5c336	-0.08875124
107	0xbe9c0c8c	-0.30478323
108	0xbc8e9b63	-0.017408079
109	0x3ee994fa	0.45621473
110	0x3cedee67	0.029044343
111	0xbea016b6	-0.31267327
112	0x3e895432	0.26822048
113	0x3c826712	0.015918288
114	0x3d8475e7	0.064678006
115	0xbe6d2555	-0.23158772
116	0x3cfccb60	0.030858696
117	0xbe7e20bd	-0.24817176
118	0x3de8a990	0.113604665
119	0xbcbc6e9d	-0.023001963
120	0x3d794b28	0.06086269
121	0x3e37aa1e	0.17935988
122	0xbda33760	-0.07969546
123	0x3e328c96	0.17436442
124	0x3e1b6135	0.151738
125	0xbe8db8fb	-0.2768019
126	0x3ec50c8f	0.38486144
127	0x3dcd0412	0.10010542
128	0xbdd79821	-0.10527063
129	0xbeb5e358	-0.35525012
130	0x3d3bdba4	0.045863762
131	0xbb84c790	-0.00405211
132	0xbcd106c7	-0.025515927
133	0xbe322972	-0.17398623
134	0xbdbba070	-0.091614604
135	0xbe16f070	-0.14740157
136	0xbea262f6	-0.31716126
137	0x3d4a83ff	0.049442288
138	0x3e77e01e	0.24206588
139	0xbe62f016	-0.22161898
140	0x3e195c4a	0.14976612
141	0x3d930d12	0.07180227
142	0x3d4092e0	0.04701507
143	0x3e82471e	0.25444883
144	0x3dbd211b	0.0923483
145	0xbe07e212	-0.13269833
146	0xbe8b1317	-0.27163002
147	0x3c832fb9	0.016013967
148	0xbe8b18e6	-0.27167434
149	0x3dba887b	0.09108063
150	0x3d7ec50b	0.062199634
151	0xbe4e7ecd	-0.20165558
152	0x3d96baec	0.07359871
153	0xbe1d51e1	-0.15363266
154	0x3e36e9d6	0.17862639
155	0x3dbd121f	0.09231972
156	0x3e4c3ca7	0.19945012
157	0xbe67af49	-0.2262546
158	0x3e85352a	0.26017123
159	0xbc4df9ec	-0.012571793
160	0xbdc09a19	-0.09404392
161	0x3da953af	0.082679145
162	0xbc51a887	-0.012796528
163	0xbe777659	-0.2416624
164	0xbcda17b9	-0.02662264
165	0xbe984407	-0.297394
166	0x3db67367	0.0890873
167	0xbd5a9da3	-0.05337299
168	0x3e897915	0.2685019
169	0x3dd80194	0.10547176
170	0xbda19490	-0.07889664
171	0xbe210705	-0.15725334
172	0xbc91d81c	-0.017803244
173	0x3e151349	0.14558138
174	0x3e94bcbc	0.29050243
175	0xbe69de52	-0.22838715
176	0xbd20d4b3	-0.039265346
177	0x3e83fc9e	0.2577867
178	0xbeb1744c	-0.3465904
179	0x3db73281	0.0894518
180	0xbe8d148e	-0.27554744
181	0x3d9e1ef6	0.07720749
182	0xbea14873	-0.31500587
183	0x3d01259a	0.03153
184	0xbb681be4	-0.0035417015
185	0x3e1c0465	0.15236051
186	0xbe5429aa	-0.20719019
187	0xbd9c3f60	-0.07629275
188	0xbe9f8c69	-0.31161812
189	0x3db6e60f	0.08930599
190	0x3d786eb2	0.060652442
191	0x3d9fbb3f	0.07799386
192	0x3d726fd3	0.059188675
193	0xbdb03e10	-0.086055875
194	0x3db4c37d	0.08826349
195	0xbd8b0903	-0.06788828
196	0x3d437fac	0.04772918
197	0x3d4ba309	0.04971603
198	0xbe161622	-0.1465688
199	0xbe422c0f	-0.1896212
200	0x3df0d70e	0.117597684
201	0xbdb9a292	-0.09064211
202	0x3d872454	0.06598726
203	0xbd91c925	-0.071184434
204	0xbe233472	-0.15937975
205	0xbca3b36b	-0.019983014
206	0x3e0de01a	0.13855019
207	0x3ca8a638	0.020587072
208	0xbe3768a6	-0.17911014
209	0x3e0d664c	0.13808554
210	0x3e0e7a67	0.1391388
211	0x3d4aeb13	0.04954059
212	0xbe97d456	-0.29654187
213	0x3ea3c185	0.3198358
214	0x3e104b90	0.14091325
215	0x3e03f34e	0.12885782
216	0x3e2ecff9	0.17071523
217	0xbdd17465	-0.102272786
218	0xbe20673b	-0.1566438
219	0xbeb592cd	-0.35463563
220	0xbe8263a1	-0.25466636
221	0x3e342eb0	0.17595935
222	0xbe8b4c37	-0.27206585
223	0x3e1599ab	0.14609401
224	0xbddac666	-0.10682373
225	0x3daba706	0.083814666
226	0xbe6ea4af	-0.2330501
227	0x3e38015a	0.17969266
228	0xbde4b232	-0.111668006
229	0x3e710c23	0.23539786
230	0xbcbc99cf	-0.02302256
231	0x3d5a1375	0.053241212
232	0xbe3d2b35	-0.18473513
233	0xbd056eb5	-0.03257628
234	0x3d3ca32e	0.046054058
235	0xbc5d58b1	-0.013509915
236	0xbe88ea36	-0.2674119
237	0x3d6c11b9	0.05763409
238	0x3eb11948	0.345896
239	0xbdc5bc22	-0.09655024
240	0xbdf466ba	-0.11933656
241	0x3e53def0	0.20690513
242	0xbe4c88b4	-0.19974023
243	0xbd8e79e4	-0.069568425
244	0x3eb15531	0.34635308
245	0x3dda7d10	0.10668385
246	0xbe2cec4f	-0.1688702
247	0x3e36aefa	0.17840186
248	0xbe38ff07	-0.18066035
249	0x3e4836cd	0.19552155
250	0x3e5a2501	0.21303178
251	0xbca27bc8	-0.019834414
252	0xbe97b118	-0.296273
253	0xbd0e2144	-0.034699693
254	0xbe1816bc	-0.14852422
255	0x3e6c786b	0.23092811

f_model.fc1.bias f4 [32]
0	0x3b85e8e8	0.0040866025
1	0x3c61add7	0.013774357
2	0xbdcc9140	-0.09988642
3	0xbe03ddab	-0.12877528
4	0xbba9aa70	-0.0051777884
5	0x3d23f18d	0.040025283
6	0x3dc3be68	0.095578015
7	0x3eb3535f	0.35024545
8	0x3c8479f2	0.01617143
9	0x3e5b6505	0.21425255
10	0x3e2f5b17	0.17124592
11	0x3e1284cc	0.1430847
12	0x3e7fd103	0.24982075
13	0x3ca2af85	0.019859085
14	0xbd7e5740	-0.062094927
15	0xbd8ee8d6	-0.06978004
16	0x3d2182ca	0.03943137
17	0xbd4add64	-0.04952754
18	0x3dbbe1a2	0.091738954
19	0x3d9dbcaa	0.077020004
20	0xbd2badcc	-0.041913792
21	0x3e86b337	0.26308605
22	0x3c31d369	0.010853627
23	0x3e748778	0.23879802
24	0xbc85f438	-0.016351804
25	0x3e19d976	0.15024361
26	0xbdf61826	-0.12016325
27	0x3e455aae	0.19272873
28	0x3e2413d6	0.16023192
29	0x3cf8f000	0.030387878
30	0xbd1ad45a	-0.03780017
31	0xbdd2d606	-0.10294728

f_model.fc2.weight f4 [10, 32]
0	0x3cb9a3a4	0.022661038
1	0xbe817726	-0.25286216
2	0xbe8175ba	-0.2528513
3	0xbdbb0a6a	-0.09132846
4	0xbd4b5bb6	-0.04964801
5	0xbd39547f	-0.045246597
6	0x3b928f11	0.0044726213
7	0x3eafafed	0.34313908
8	0x3e63aaa2	0.2223306
9	0x3dd2cb91	0.102927335
10	0x3d0bf54b	0.034169476
11	0xbe6a48e0	-0.22879362
12	0x3e74ba06	0.23899087
13	0xbdc46cdc	-0.09591076
14	0xbe9181ca	-0.28419334
15	0xbe01b702	-0.12667468
16	0xbe173677	-0.1476687
17	0xbe8ac724	-0.27105057
18	0xbe064599	-0.13112487
19	0xbe2a86ab	-0.16652934
20	0xbe82d5af	-0.25553653
21	0x3c3a8aec	0.011385661
22	0xbe25f99b	-0.16208498
23	0xbca3c5bd	-0.01999175
24	0xbdbb1654	-0.09135118
25	0x3d95fc26	0.07323484
26	0x3c6f028c	0.01458801
27	0xbcecdc91	-0.028913768
28	0xbe9e9b1d	-0.30977717
29	0xbe3aa817	-0.18228184
30	0x3d89a4e7	0.06720906
31	0xbe7dc4e5	-0.2478214
32	0x3dbae34f	0.09125387
33	0x3e0369ee	0.12833378
34	0xbddf1847	-0.108933024
35	0xb9830a8d	-0.00024994128
36	0xbd7cbb97	-0.061702337
37	0x3e02a104	0.12756735
38	0x3ddbfb8a	0.10741337
39	0xbe41ccb5	-0.18925746
40	0xbe863c2a	-0.26217777
41	0xbc638bcb	-0.01388831
42	0x3db4764f	0.08811628
43	0xbccaeb1b	-0.02477031
44	0xbe51dc21	-0.20494129
45	0xbe1ab616	-0.15108523
46	0xbd99c9e9	-0.075092144
47	0xbd869833	-0.065719984
48	0x3e65e8ea	0.22452131
49	0x3cc5109a	0.024055768
50	0x3e26e79f	0.16299294
51	0x3c842f11	0.016135724
52	0xbed90992	-0.42390114
53	0x3e963261	0.2933531
54	0xbe84ef56	-0.2596385
55	0xbdb68468	-0.08911973
56	0x3cc8e9b6	0.024525505
57	0xbe6a7b63	-0.22898631
58	0x3df73c01	0.12071992
59	0xbda0e86b	-0.0785683
60	0xbe4afbd2	-0.19822624
61	0x3e1e94f5	0.1548651
62	0xbe94e2ca	-0.29079276
63	0xbd26d9d5	-0.040735085
64	0xbd9c2987	-0.07625108
65	0x3cdc1832	0.026867006
66	0xbd2f7adb	-0.042841773
67	0xbdcd1e8d	-0.10015593
68	0xbc092783	-0.008371237
69	0x3da078a7	0.078355126
70	0xbdf6e502	-0.120553985
71	0xbe84cf57	-0.25939438
72	0xbea91377	-0.33022663
73	0xbe137055	-0.1439832
74	0xbdf7bc5e	-0.12096475
75	0x3c5948e3	0.013262006
76	0x3dbec074	0.09314051
77	0xbe5ce612	-0.2157214
78	0xbe2b720e	-0.16742727
79	0xbddc4f69	-0.10757334
80	0xbe063f3d	-0.13110061
81	0xbea79ab2	-0.3273521
82	0xbe35aaf2	-0.17740992
83	0xbbf6337b	-0.007513461
84	0xbe3f5239	-0.18683709
85	0xbe9b447e	-0.30325693
86	0x3e42210b	0.18957917
87	0x3e155525	0.14583261
88	0x3d107858	0.03527102
89	0x3e122e60	0.14275503
90	0x3d9eb96e	0.07750212
91	0x3e981ede	0.2971105
92	0xbcf7f077	-0.03026603
93	0x3d94b346	0.07260756
94	0x3da54fb1	0.080718406
95	0xbe0eda89	-0.13950552
96	0xbe1da1db	-0.15393774
97	0xbea91926	-0.33027
98	0xbdc6f73e	-0.097151265
99	0x3c393f1d	0.011306551
100	0x3e8ed919	0.27900007
101	0x3de32ba2	0.11092307
102	0xbea02db7	-0.31284878
103	0xbe23e433	-0.1600502
104	0xbd0fb5d3	-0.03508551
105	0xbdfebd13	-0.12438407
106	0x3e4af549	0.19820131
107	0x3b3c4d1a	0.002873248
108	0xbe8a41e8	-0.27003407
109	0xbe816b06	-0.25276965
110	0x3e1416b6	0.14461789
111	0xbdd345ea	-0.103160694
112	0xbd05b1ce	-0.03264027
113	0xbd53c73e	-0.051703684
114	0xbdf35cdd	-0.11882947
115	0xbcfc960a	-0.030833263
116	0xbd85c75f	-0.06532168
117	0xbdaf84fe	-0.08570288
118	0xbcb9c3d8	-0.022676393
119	0x3e2d1b03	0.16904835
120	0xbcbe7b8a	-0.023252267
121	0x3d2523d5	0.040317375
122	0xbe526a50	-0.20548368
123	0xbdaa10fb	-0.0830402
124	0xbdd471f0	-0.10373294
125	0x3b455002	0.0030107503
126	0xbe8880c1	-0.2666073
127	0xbdfa5208	-0.122226775
128	0x3da3aac7	0.079915576
129	0x3e44c3a6	0.19215259
130	0xbc24b898	-0.010053776
131	0xbe02a56b	-0.12758414
132	0xbebd5c0b	-0.36984286
133	0xbe37a73d	-0.1793489
134	0x3ded4a27	0.11586409
135	0xbdb141f5	-0.086551584
136	0xbe957f8b	-0.2919887
137	0x3dad3f65	0.08459357
138	0xbc279449	-0.010228225
139	0xbd5442f0	-0.05182165
140	0x3b198be6	0.0023429333
141	0x3e812c09	0.2522891
142	0x3d01aaef	0.031657156
143	0x3ccf193d	0.02528059
144	0xbe5a84b2	-0.21339682
145	0xbd8ee259	-0.06976766
146	0xbd460193	-0.048341345
147	0xbe9bc97d	-0.3042716
148	0x3ea575ec	0.3231653
149	0xbe2e152e	-0.17000267
150	0xbe9ab1bd	-0.3021373
151	0x3d4db53b	0.050221663
152	0xbdee5458	-0.11637181
153	0xbe816874	-0.25275004
154	0xbd3bf7b3	-0.04589052
155	0x3e136be6	0.14396629
156	0x3d7ea44b	0.0621684
157	0xbe2ffbf8	-0.17185962
158	0x3db9a3f6	0.09064476
159	0x3e159ea5	0.146113
160	0x3cfbef4b	0.030753752
161	0xbe16cfdb	-0.14727728
162	0x3dcb08a6	0.09913759
163	0x3df32adb	0.118734084
164	0xbe5048bf	-0.2034025
165	0x3d45b79b	0.048270803
166	0xbe32ca7f	-0.17460059
167	0xbd329f28	-0.043608814
168	0x3d36d4a1	0.044636372
169	0xbe580c6b	-0.21098487
170	0x3e2e01bf	0.16992854
171	0xbd3e9ff4	-0.046539262
172	0x3e364fd0	0.17803884
173	0xbd8a95bd	-0.067668416
174	0xbe6f6916	-0.23379931
175	0xbe0a6d4c	-0.13518256
176	0x3d5afe0b	0.05346493
177	0x3eaeb13b	0.3411959
178	0xbb49bc84	-0.003078253
179	0x3e9d681f	0.307435
180	0x3ce7b29f	0.028283415
181	0xbe7e0f9f	-0.24810646
182	0x3d5c6e8a	0.053816356
183	0xbe171f70	-0.14758086
184	0xbe05aa70	-0.13053298
185	0xbe88d71d	-0.26726618
186	0xbe957c32	-0.29196316
187	0x3d2c062c	0.041998073
188	0x3e0a1ed2	0.1348832
189	0x3d539d13	0.05166347
190	0xbd8aeab3	-0.067830466
191	0xbe96b9b7	-0.29438564
192	0xbe09a16f	-0.13440488
193	0xbe71d5bb	-0.23616688
194	0xbdbd14ce	-0.09232484
195	0xbe8d04ac	-0.27542627
196	0xbec25751	-0.37957242
197	0xbd19b8bc	-0.037529692
198	0x3c92bb73	0.017911648
199	0x3d912795	0.07087628
200	0xbd59c40e	-0.053165488
201	0x3e816c7a	0.25278074
202	0xbde95471	-0.11393059
203	0x3d578cc6	0.052624486
204	0xbe128a8e	-0.14310667
205	0xbd62df5e	-0.0553888
206	0xbeb4592b	-0.3522428
207	0x3e33488d	0.17508145
208	0x3d44c0e9	0.048035536
209	0x3cd6aee1	0.026206436
210	0xbe1cccdf	-0.15312527
211	0xbea2ed58	-0.31821704
212	0x3de04980	0.10951519
213	0xbe3ea026	-0.1861578
214	0x3e0b40c4	0.13598925
215	0xbe844865	-0.25836483
216	0x3e06da35	0.13169177
217	0xbe544f5b	-0.20733397
218	0xbd3dbdf0	-0.046323717
219	0xbc9b1cfa	-0.018934716
220	0x3e2a8ea4	0.16655976
221	0xbd32c55a	-0.04364524
222	0xbea44722	-0.3208552
223	0xbb69ecec	-0.0035694195
224	0xbdedca42	-0.11610843
225	0xbd89022a	-0.06689866
226	0xbe71c588	-0.23610508
227	0xbe565dcf	-0.20934223
228	0x3e3315f0	0.17488837
229	0xbe45b0e8	-0.19305766
230	0xbea33890	-0.3187909
231	0xbe28d54a	-0.16487613
232	0xbe82a068	-0.25513005
233	0xbe3b77f7	-0.18307482
234	0x3c401f79	0.011726254
235	0xbc1ab4a9	-0.009442487
236	0xbd9d596e	-0.07683073
237	0x3d78884c	0.060676858
238	0xbe308ff4	-0.17242414
239	0xbd5ea6fe	-0.054358475
240	0xbdf8faed	-0.12157235
241	0xbe9df8cb	-0.30853876
242	0xbe14c95b	-0.14529936
243	0x3eaf2c35	0.34213415
244	0xbe5593df	-0.2085719
245	0x3e86d5ad	0.26334897
246	0xbe6d0740	-0.23147297
247	0x3cb4b148	0.02205719
248	0xbd825dac	-0.06365523
249	0x3da15168	0.07876855
250	0xbdc0fa8a	-0.094227865
251	0xbc1de1d2	-0.009636359
252	0xbd7f3451	-0.062305752
253	0xbe361a87	-0.17783557
254	0x3d84d395	0.064856686
255	0x3e45ab15	0.19303544

f_model.fc2.bias f4 [10]
0	0x3c1c4f37	0.009540371
1	0x3df23c0d	0.1182786
2	0xbd2ed7f1	-0.042686407
3	0x3e039df3	0.12853222
4	0xbd8828d2	-0.06648411
5	0x3df1395c	0.117785186
6	0xbdb19670	-0.08671272
7	0x3daea815	0.08528153
8	0xbdeba9d0	-0.115069985
9	0x3d044f41	0.032302145
