models/Experiment 4/Trained on normal data/sequential_model_cons0.pt (torch, 460627 bytes, 12 tensors)

g_model.conv1.weight f4 [32, 1, 3, 3]
000000 af 01 e0 3d 30 7a bb 3d 5a 05 03 bd 8b b6 99 3e
       0.10937821 0.09154165 -0.031987526 0.30022082
000010 66 8e 01 3f 29 06 ab 3e 10 ab 64 3e fb 36 e2 3d
       0.5060791 0.33403137 0.2233088 0.11045643
000020 ab 12 7c be 8a c7 a1 3e 04 3b 8d 3e cb ce ab 3e
       -0.24616496 0.3159755 0.27584088 0.33556208
000030 c4 c9 d2 bd 97 39 ef 3e 58 3a 9c 3e 7b 5f c0 3e
       -0.1029239 0.46723625 0.30513263 0.37572846
000040 b7 f3 a7 3e 8e d8 f0 3d 1f 26 0a 3e 91 86 b9 3e
       0.32803127 0.117600545 0.13491105 0.3623548
000050 e0 4b 14 be 57 48 a6 3d c4 76 dd 3d af ec 1c be
       -0.14482069 0.081192665 0.10813668 -0.15324663
000060 e1 81 c7 3e 49 4b 95 3d b5 df 81 be 53 eb f6 bd
       0.38966277 0.0728975 -0.25365987 -0.12056603
000070 91 87 14 3e 57 57 54 be ad ae 97 3d 61 85 e4 3e
       0.1450484 -0.20736443 0.07406364 0.4463301
000080 76 58 01 be 74 be c9 3d 49 06 ec 3e f0 12 b2 3e
       -0.12631401 0.09850779 0.46098545 0.34780073
000090 91 8a c5 3e 47 de 38 3e ff 25 93 3e 69 c8 f7 3c
       0.3858228 0.18053542 0.28739926 0.03024693
0000a0 53 74 86 3d 0e 04 d1 bc 00 23 5e 3e b8 95 ce 3e
       0.06565156 -0.025514629 0.21693039 0.403486
0000b0 8a 92 88 bc c3 aa b1 3d 1c 20 b6 3e 45 35 1b 3e
       -0.016671438 0.08675148 0.35571373 0.1515704
0000c0 3e a8 87 3d 68 9f 41 be b2 9f 32 bd 66 76 c9 be
       0.066238865 -0.18908465 -0.04360933 -0.39348143
0000d0 62 87 7a be 56 18 28 be 58 6e 60 be 70 82 ac 3d
       -0.24465707 -0.16415533 -0.21917093 0.084233165
0000e0 a4 7b c9 3e a5 29 92 be c1 74 d7 3e e3 0b a9 3e
       0.39352143 -0.28547397 0.42081264 0.3301688
0000f0 4f a4 a2 bd 84 8e cd 3e 3b c5 a8 bd 6b a8 b1 3c
       -0.079414956 0.40147793 -0.08240744 0.021686753
000100 6c b3 a2 3e 0f ef ec 3e 5a 7a 53 be f4 ab 36 3e
       0.31777513 0.46276137 -0.20652142 0.17839032
000110 6e fb 81 3e 0f ef 33 bd c0 1d 5f 3e 01 a5 5b be
       0.25387138 -0.043929156 0.21788692 -0.21449663
000120 32 9a cd 3d 5a 29 94 3e 11 ad a0 be 08 1c 47 3e
       0.10039176 0.289378 -0.3138204 0.19444287
000130 a2 47 4a be 70 13 bc be a3 8f 12 3e 6b 7c 86 3e
       -0.19753888 -0.3673358 0.14312606 0.26266798
000140 35 f6 88 3e 3c ed 33 3e a5 22 c0 bb 2f c8 26 3d
       0.2675034 0.17570966 -0.005863505 0.040718254
000150 50 0c 27 be 94 f2 58 3e d5 6a 14 3e 4f b5 c2 3d
       -0.1631329 0.21186286 0.14493878 0.09507238
000160 07 a3 e1 3e f3 9b bb 3d 68 17 9e 3e 3e 6b 4a 3e
       0.44069692 0.09160604 0.30877233 0.19767472
000170 a2 93 01 be e3 86 af 3e 8d 52 53 3e fe be 96 bd
       -0.12653974 0.34282598 0.2063696 -0.073606476
000180 c3 4c 66 3e 37 98 55 3e 96 e4 e0 3e b1 3e de bd
       0.2249022 0.20858847 0.43924397 -0.10851801
000190 b7 78 8c 3d 65 1e 62 be 48 30 95 be c0 62 c4 be
       0.06858962 -0.22081907 -0.29138398 -0.3835659
0001a0 b7 f7 22 be 9a 14 ca bd 21 75 7b 3c 47 4e b4 3d
       -0.15914808 -0.09867211 0.01534775 0.08803993
0001b0 bc c8 d2 3e f4 de b0 3d 18 bd 9f 3e 85 dc d3 3e
       0.41168773 0.08636275 0.31198955 0.4137918
0001c0 37 23 8a 3d 6f d7 a1 3e 0e 6c d8 3e d4 3e 28 3e
       0.06744998 0.31609675 0.4226994 0.16430217
0001d0 e7 b7 fc 3d be e9 36 bd 53 e7 db be 1b 3f 5d 3e
       0.12339764 -0.044656508 -0.42949924 0.21606104
0001e0 a4 b0 da 3d 00 45 db bd 1c 57 5e be b0 74 be 3e
       0.10678223 -0.1070652 -0.21712917 0.371984
0001f0 59 4b bb 3e df b3 6e 3e 88 dc 94 3e 1e 2b 9e 3e
       0.36580923 0.23310803 0.29074502 0.3089227
000200 2f ec 6d bd e5 38 70 3d 5c ac 30 be b1 58 04 be
       -0.05808657 0.05864801 -0.1725325 -0.12924458
000210 89 b4 35 be 06 f1 cd 3e fb 9b c9 3e 64 2e 6a be
       -0.1774465 0.4022295 0.39376816 -0.22869259
000220 d0 59 56 3e 0d 82 ee bc 0d 3a ed 3e 53 b9 a3 3e
       0.20932698 -0.029114747 0.46333352 0.3197733
000230 4d 0b 9b 3e c7 ee 96 3e a2 36 a0 3e ee b7 eb 3e
       0.3028206 0.29479048 0.31291682 0.46038765
000240 20 5c 93 3e 02 7e 96 3d df 01 31 be c7 e1 98 3e
       0.28781223 0.07348253 -0.1728587 0.29859754
000250 02 56 61 3d 54 40 b2 3e 5f 7b f0 be 66 cf 81 be
       0.055013664 0.34814703 -0.46969125 -0.25353545
000260 55 6d 8a be 1a 1b 06 3e 24 6b e5 3e b5 bf 9f bd
       -0.2703654 0.13096276 0.44808304 -0.07800237
000270 f3 b9 02 bc 06 ce 0f 3e 5a 06 13 be 28 d9 84 3e
       -0.007978904 0.14043435 -0.14357892 0.25946927
000280 e8 17 93 3e e2 b9 17 3e 85 53 84 bd 8e f6 07 bf
       0.28729177 0.14817002 -0.064612426 -0.5311059
000290 22 c3 c4 be da b4 f3 be 6e 06 3b 3e 8f 30 97 3d
       -0.38430125 -0.47598916 0.18264171 0.07382309
0002a0 73 e2 ab be fb 0e 75 be 5f 36 6e 3e b2 23 10 bd
       -0.33571205 -0.23931496 0.23262928 -0.03519029
0002b0 88 36 cb 3e 8b be eb 3e d5 ac 78 3e de 28 f1 3d
       0.39690042 0.4604381 0.2428468 0.11775373
0002c0 24 14 a8 3e 3c 2a 09 be 30 73 ae 3c 81 36 46 3e
       0.32827866 -0.13395017 0.02129516 0.19356729
0002d0 16 78 bf 3e 59 68 c6 3e 11 dc 72 3c 34 c5 9c 3e
       0.37396306 0.38751486 0.014822976 0.30619204
0002e0 a8 13 19 3e 2a 45 6e bd 1e b4 32 3e cd 6b dd 3e
       0.14948905 -0.05817143 0.17451522 0.43246308
0002f0 a3 81 a6 3e b4 b9 3b be 2f 91 2e be 5e b8 8d be
       0.3252078 -0.18332559 -0.1704757 -0.27679724
000300 67 09 ac bd 6a d0 df bd 3a 59 1e be 75 9b 9f 3e
       -0.08400231 -0.10928424 -0.15463725 0.31173292
000310 1f 4b c1 3e 5e ba b8 3e 9f 95 10 be ae 83 e4 bd
       0.37752625 0.36079687 -0.14119576 -0.111579284
000320 99 ae 3a be 46 67 11 3e ab 86 89 3e 5b 83 a9 3e
       -0.18230666 0.14199552 0.26860556 0.3310803
000330 1e a7 18 3e 6d 7d 05 be 48 88 18 be cb ac 32 be
       0.149075 -0.13036127 -0.14895737 -0.17448728
000340 ae e3 88 3e dd a9 2b be e2 ed ad be 63 6c 01 3e
       0.26736206 -0.16764016 -0.33970553 0.12639003
000350 b5 cd 99 3e ce 61 e4 bd 2b eb a9 3e 14 6d de 3e
       0.30039755 -0.11151467 0.3318723 0.43442595
000360 c8 68 33 3e 8c f3 e7 3d e7 08 71 be f0 ff fc bd
       0.1752044 0.1132575 -0.23538552 -0.12353504
000370 8a 18 9b 3e 2c 44 eb be 02 1f d8 3e df 87 45 3e
       0.3029216 -0.4595045 0.42211157 0.19290112
000380 0e 3f d5 be a5 ab 59 be c4 84 5b be 56 83 84 be
       -0.4164967 -0.21256883 -0.21437365 -0.2588145
000390 07 b7 b1 3c 67 52 63 3d 96 3e 02 be e4 7b 84 3e
       0.02169372 0.055498507 -0.12719187 0.2587577
0003a0 8e dc f5 3e b7 c3 dd bd d7 c2 8e 3e 57 2f a0 3d
       0.48019832 -0.10828345 0.27883026 0.07821529
0003b0 0b cb 80 3c 27 f0 1d 3d fe 1e 2e 3e 73 88 77 3e
       0.015721818 0.038559105 0.1700401 0.24173145
0003c0 9d 80 ce be ef 15 c3 be 90 ad ab be d0 63 a6 3e
       -0.403325 -0.38102672 -0.33530855 0.32498026
0003d0 9b f7 ad bb 94 5f 96 3e be c1 5d 3d 81 07 73 3e
       -0.005309058 0.29369795 0.054139845 0.23733331
0003e0 c5 07 b7 3e 99 26 de 3e 96 e7 d8 3c 96 06 46 be
       0.35748115 0.43388823 0.026477616 -0.1933845
0003f0 49 21 11 bd a6 04 00 3e 84 28 7f 3e a4 33 d6 3e
       -0.035432134 0.12501773 0.24917799 0.41836274

g_model.conv1.bias f4 [32]
000000 47 51 70 b9 71 3f 87 3e d3 73 7d be bc 66 df b9
       -0.00022918462 0.2641559 -0.24751215 -0.00042610418
000010 82 1f ea 3c 3f d5 61 3e 78 b8 2b 3d 20 f2 d2 3d
       0.028579477 0.22054003 0.04192397 0.10300088
000020 f9 47 c3 bd 97 3c c0 b9 17 1b 77 3e 73 17 b6 3e
       -0.09535212 -0.00036666237 0.24131428 0.35564765
000030 96 b1 6a b8 47 d9 70 bd 03 b5 8e 3e 01 39 23 3e
       -5.5955337e-05 -0.05880096 0.27872476 0.15939714
000040 e7 e8 8a 3e a3 a3 37 bc 52 48 8c 3e 8b dc 6a bd
       0.27130815 -0.011208448 0.27398926 -0.057339232
000050 21 6d 3b ba 18 d8 26 bd 6e 33 ae bd d7 27 9f b8
       -0.00071497454 -0.040733427 -0.08505903 -7.5891316e-05
000060 64 1e 4f 3e 29 93 dd 3c 38 33 97 3e 03 69 87 bd
       0.20226437 0.02704771 0.29531264 -0.06611826
000070 1e 46 36 be 9a 13 ee bd af e5 5a ba 36 27 be 3e
       -0.17800185 -0.116248325 -0.00083502656 0.3713929

g_model.conv2.weight f4 [32, 32, 3, 3]
000000 66 05 57 3d 4d 19 ad 3b 72 f7 16 bd 11 f0 30 3d
       0.052495383 0.005282557 -0.036857076 0.043197695
000010 3f db e9 3c a8 2b 1e 3e 59 12 23 3d 00 28 f4 bc
       0.028546927 0.15446341 0.03981242 -0.02980423
000020 c7 54 98 bc 5a 5a 4b 3d 8b 4c fa 3a 0a b0 83 3d
       -0.018595112 0.049646713 0.0019096298 0.06430061
000030 70 10 d9 3c 6f 98 ad 3c d3 d3 cb 3d 33 f6 4b 3d
       0.026497096 0.02119085 0.09952512 0.04979534
000040 a0 25 7e bd e4 c8 16 bd 44 60 24 3d d2 ea e0 bc
       -0.0620476 -0.036812678 0.04013087 -0.027455721
000050 72 8c a4 bd fe eb 57 3d 23 04 6d 3d 38 d4 49 bc
       -0.080346 0.052715294 0.057865273 -0.012318663
000060 dc 3d 00 bb 00 28 39 bd a3 0e 3d be 29 99 9a bb
       -0.001956812 -0.045204163 -0.18462615 -0.004717965
000070 83 c5 c9 3d d3 d1 a1 3d 45 14 aa bc 32 06 8e 3d
       0.098521255 0.07901349 -0.020761618 0.069347754
000080 c0 57 8a 3d 22 e1 d4 bd 4f a7 da bd 6c 3f 12 be
       0.06755018 -0.10394503 -0.10676443 -0.14282006
000090 e2 17 83 3d 17 54 7f bb 9b 66 0c bd 09 2e 73 3d
       0.0640104 -0.0038960034 -0.03427754 0.059370074
0000a0 bd c8 38 3d 7c 28 97 3d 5f a4 97 3b 24 89 8a bc
       0.045113314 0.07380769 0.004627749 -0.016911097
0000b0 2e 03 7c bb cb 14 23 bd c9 f8 9a bb 5f f4 85 bd
       -0.0038454044 -0.03981475 -0.0047293645 -0.06540751
0000c0 8c fe cf bd 40 81 71 bd 21 50 56 bc 17 27 d9 bc
       -0.10155973 -0.058961153 -0.013080628 -0.026507897
0000d0 ed 52 11 3e ac 6b 23 3e 7a 55 98 3c 52 0a 5e bd
       0.1419179 0.15959042 0.018595446 -0.05420906
0000e0 74 03 64 bc a2 e6 7e 3d 76 3a 4d 3d e4 65 45 3d
       -0.013916839 0.062231667 0.05010458 0.048192874
0000f0 cc 08 37 3d eb 7f 28 bd 7c 59 9a bc c0 77 d6 3c
       0.044686124 -0.041137617 -0.018841498 0.026180148
000100 ea 46 0d bc b6 30 46 bd d8 ac e7 bc a3 e2 9a 3d
       -0.008622864 -0.048386298 -0.02828066 0.07562759
000110 52 a2 f1 3c dc af a5 3d fe fa 4c bc 7d c0 ab 3d
       0.029496346 0.08090183 -0.012511013 0.083863236
000120 9a df f5 bc ec cf f1 3d b2 a5 16 3e 72 04 24 3d
       -0.030013848 0.11807236 0.14711645 0.040043302
000130 b9 07 5f 3d c3 8b fa 3c b7 2d 4d bd 9c 5e f5 bd
       0.054450724 0.030584222 -0.050092425 -0.11980936
000140 56 13 32 be be 0c c9 bc 8d 98 43 3d eb 80 a4 bb
       -0.17390189 -0.024542209 0.047752906 -0.005020251
000150 e2 92 96 39 17 12 30 3d dd f6 f0 3c 5c ca 87 bc
       0.00028719666 0.042986 0.029414589 -0.016575985
000160 d1 a0 6c bd ee 42 9a bd a7 4c 4d 3d 4a b5 1a 3d
       -0.057770554 -0.07532297 0.05012193 0.037770547
000170 9b 56 53 3a 85 38 91 3d 1f ed f5 3c f5 86 bc 3d
       0.00080619165 0.07090858 0.030020295 0.092054285
000180 1e 3f 58 3d 53 b7 2f bd 9c 15 90 bd 95 45 cc 3b
       0.05279457 -0.04289944 -0.07035372 0.0062338808
000190 37 70 56 bd 5e 57 8c 3d 99 bf 1a bd b4 90 70 bd
       -0.05235311 0.068526015 -0.037780378 -0.05873175
0001a0 3a d4 30 bc f8 ca 80 bd 64 bc f5 3c ce df 0c bd
       -0.010792786 -0.06288713 0.029997058 -0.034393124
0001b0 f4 b0 f7 3b b7 db 1d 3d 7d b8 07 bc 98 e8 75 3d
       0.0075589363 0.038539615 -0.0082837315 0.06003627
0001c0 d8 0a ca 3d 46 a6 19 3d 3e d9 50 3c fb 1f 24 bd
       0.098653495 0.037512086 0.012747107 -0.04006956
0001d0 58 f6 92 bb f2 c5 1f 3c be 0d 86 3c 73 7a c8 3d
       -0.004484933 0.009751784 0.016363975 0.0978898
0001e0 e8 14 be bd ad 36 a3 3d e5 c5 01 3d d3 68 1a be
       -0.09281331 0.07969413 0.031682868 -0.1507905
0001f0 24 12 c8 bd c0 f6 3b be 6c 2d bf 3c b0 85 f4 3c
       -0.09769085 -0.18355846 0.023337089 0.029848903
000200 c6 34 5c 3c e6 d6 b6 bc e2 27 fb bc 2b 94 59 3c
       0.013440317 -0.022319268 -0.030658666 0.013279955
000210 cc cf a5 bd fe 80 20 bd 20 0b 9f bd 3b d5 da bb
       -0.08096275 -0.039185517 -0.07765794 -0.006678251
000220 33 b8 6c 3a f2 fc 53 3d cf 60 5c 3d 6c a8 9f 3d
       0.00090301334 0.0517549 0.05380326 0.07795796
000230 a0 fa 05 3e 47 03 5c bd 8c f7 ec bd 34 3a 0b be
       0.13083887 -0.053714063 -0.11570653 -0.13596421
000240 0b 8e c7 bd d4 d7 13 bd b4 9f c8 bd 5c 51 31 bd
       -0.097438894 -0.0360945 -0.09796086 -0.04329048
000250 80 ab f5 3c 57 de 15 3d c1 0c 1a 3d 11 09 b5 3d
       0.029989004 0.036588993 0.03760982 0.0883962
000260 68 b1 8e 3d d8 31 87 3c 4b 9a f3 3a c6 1b de 3c
       0.06967431 0.01650326 0.0018585412 0.027112853
000270 7d 86 a3 3d e7 5f e5 3c 4f e1 94 3d 8b 80 e6 bc
       0.07984636 0.027999831 0.07269537 -0.028137466
000280 8c e8 8e bd 80 e0 ea bd 09 7d aa 3b 68 65 49 3c
       -0.069779485 -0.11468601 0.0052028936 0.012292244
000290 cf 8e 1b 3d b6 70 65 bd 7d 7e 8e bd b3 9e a0 bc
       0.03797799 -0.056015693 -0.069577195 -0.019606924
0002a0 99 9b f6 bb 84 fb c8 3c 8d b7 09 bd 59 92 17 3c
       -0.007525873 0.024533994 -0.033622313 0.009251201
0002b0 d9 d2 d8 bd 0f bc 02 be 7f d0 20 3d 67 2b 9d 3d
       -0.10587091 -0.12767051 0.039261337 0.07674294
0002c0 48 ee a0 3d 0a 4b 74 bd 54 80 35 3d 11 60 92 3d
       0.078579485 -0.059641875 0.044311836 0.071472295
0002d0 0f e9 b9 3c 85 c0 d5 3c 7c 53 3c bb cf aa 79 3d
       0.022694139 0.026092777 -0.0028736284 0.06095391
0002e0 dd 4e 5d 3d c9 3a ab 3c 23 8a fa bc 7b 4b 56 bd
       0.054030288 0.020902054 -0.030583447 -0.052318078
0002f0 1d de 8f bd a6 fb 3e bc 36 16 d8 3c 36 1a 44 3e
       -0.070247866 -0.011656677 0.026377779 0.19150624
000300 af 42 00 be f0 41 21 3d 90 1e 19 3e e4 82 02 be
       -0.12525438 0.039369524 0.14953065 -0.12745243
000310 90 0a 29 be 4b 3a a1 bd 89 21 01 bd 42 3d d4 3c
       -0.16507936 -0.078724466 -0.031526122 0.025908116
000320 22 a4 36 bd 94 25 b1 3c 11 c2 99 3d 57 c8 61 3e
       -0.044590123 0.021624364 0.07507718 0.2204908
000330 61 b9 ce bd b1 2e 52 3b 81 d6 13 3d 28 80 5e 3d
       -0.10093952 0.0032071287 0.03609324 0.054321438
000340 08 43 9b 3c a5 ae f8 3b de 25 1c bd 7d 92 a4 3d
       0.018952861 0.0075891786 -0.03812205 0.08035753
000350 17 8e 3e 3d 70 c8 06 be ad 2f 51 be aa 49 17 be
       0.046522226 -0.13162398 -0.20428343 -0.14774194
000360 50 39 c4 3b f1 0a ec 3c 20 3e a9 3a 0a 1c a7 bd
       0.0059882775 0.028813811 0.0012912191 -0.08159645
000370 d5 65 48 bd bc ca 0f be 18 36 a8 bd 1d 4e 85 bd
       -0.04892524 -0.14042181 -0.082134426 -0.065090396
000380 72 20 86 bd bd 86 71 bc 27 6a ae 3b 0a ec cb 3d
       -0.06549157 -0.014741597 0.005322713 0.0995713
000390 91 4f e3 bd 78 79 1a bc 0d 5a c5 bc ee 88 60 be
       -0.110991605 -0.0094283745 -0.024090791 -0.21927235
0003a0 cf 8a 6d be 93 09 cd bd 86 24 06 be 2f fe 8c bd
       -0.23197483 -0.10011592 -0.1309987 -0.06884419
0003b0 5c 8b cc bb 07 af 82 bd 27 98 df 3c 4c 12 52 3d
       -0.006242199 -0.0638104 0.027294232 0.05128698
0003c0 44 44 a7 bc 86 bb 9c 3d 55 ed 19 3e b7 7a e6 3c
       -0.020418294 0.07652955 0.15031941 0.028134687
0003d0 17 f7 31 3c 91 20 e9 3c 08 7d b6 3d f0 92 ec 3d
       0.0108621335 0.028457912 0.089105666 0.115514636
0003e0 2a 83 0b 3e f9 20 b5 3d 59 57 02 3d 71 1e 12 3c
       0.13624254 0.0884418 0.031821582 0.008918391
0003f0 e7 2e 36 bd 54 46 08 be 45 3d d3 bc 51 98 82 bc
       -0.044478323 -0.13308078 -0.025786052 -0.01594177

g_model.conv2.bias f4 [32]
000000 ce 6f d7 3c cd b8 3b 3d 87 d5 0b 3d 2d 64 c2 3c
       0.02629843 0.045830537 0.034139182 0.023729408
000010 a3 f3 56 bd 96 fe 9d 3d 66 e2 2b 3c 84 09 af bc
       -0.052478444 0.07714574 0.010490989 -0.021366842
000020 b9 3c be 3b 7c 8f ca bc 25 37 3f 3c 81 ca 88 bd
       0.0058055785 -0.024726622 0.011670862 -0.066792496
000030 b6 38 64 bc 3e 38 45 bd 1f 05 c0 3b d6 06 ec 3c
       -0.013929537 -0.04814934 0.0058599855 0.028811853
000040 26 4a 6c bc 07 e8 3a bd 42 f0 51 bd fe 62 6f 3d
       -0.014421975 -0.045631435 -0.05125452 0.058444016
000050 d3 d9 2e bd 38 04 34 3d 5d af 55 bc a8 8e 56 bd
       -0.042688202 0.043949336 -0.013042298 -0.05238214
000060 25 25 35 3d 14 51 24 3b 82 8e 44 3c f8 88 5e 3d
       0.044224877 0.002507274 0.011996867 0.054329842
000070 1e 01 d4 3b d9 1d 6b bc 89 9b 07 bd b3 e0 cf 3b
       0.0064698597 -0.014350378 -0.033107314 0.006343925

g_model.fc1.weight f4 [128, 800]
000000 ed 64 21 3c 4c 61 4f bc a9 c4 e5 bc 76 67 85 bc
       0.009850723 -0.012657475 -0.028047876 -0.016284686
000010 79 eb 3b bc e9 5c 08 bb 21 4c d0 bc 35 43 ac bb
       -0.011469715 -0.0020807332 -0.025426926 -0.005257035
000020 fb 69 93 3b dd b0 07 3d da 28 b1 3c d0 df bc 3c
       0.004498718 0.033127654 0.021625925 0.02305594
000030 5a 7d 9b ba 70 c4 8d bc 5e b6 fd 3c b4 8f 9d bc
       -0.0011862919 -0.017305583 0.030970749 -0.019233562
000040 3b 77 df bc 47 95 1d 3d 2b 5f 3b 3c 4e ec 9c bc
       -0.027278533 0.03847244 0.011436264 -0.019155648
000050 51 39 cb 3a 1b 31 0c bd c7 5f a1 bc 35 ce 06 bd
       0.0015504753 -0.034226518 -0.01969899 -0.032911498
000060 9f d6 a4 bc 40 25 d2 39 42 76 d5 3d f6 f7 6a 3d
       -0.02012187 0.00040082075 0.104229465 0.05736538
000070 42 e4 8e 3d 51 3c 13 3b bd 24 24 bb c4 1c 60 3c
       0.069771305 0.0022466371 -0.0025046312 0.013678733
000080 0b db fc bc 0e c3 b4 bc 90 0e 11 bb f8 a2 a1 bc
       -0.030866167 -0.022065666 -0.0022133924 -0.01973103
000090 34 fe e8 bc 57 3c 7d 3d 76 55 13 bd 4b 53 20 bd
       -0.028441526 0.061825123 -0.035970174 -0.039141934
0000a0 c4 5b 4e 3d ad 96 c6 3c 67 dd 31 bb 72 c0 91 bb
       0.050380483 0.02424177 -0.0027140023 -0.00444799
0000b0 25 f8 f8 bb 6a b6 14 bd fd c8 6b bc 54 ae 8f bc
       -0.0075979405 -0.036306776 -0.014391181 -0.01753918
0000c0 82 fd a3 bc 40 89 36 3c 89 b8 8b bc 79 c7 04 bc
       -0.020018343 0.011141121 -0.017055767 -0.008104199
0000d0 39 1a bd 3b c7 a2 25 ba 4b c4 8c 3c d9 c5 b8 3c
       0.0057709482 -0.0006318506 0.017183444 0.022555279
0000e0 87 da 4d 3c 5f 3c 95 bc d8 09 6f bc d8 e9 19 3d
       0.012564308 -0.018217264 -0.014589749 0.037576526
0000f0 72 20 be bc c5 07 b3 bc 17 3e 05 3d b0 66 22 3c
       -0.02320883 -0.02185429 0.032529917 0.009912178
000100 76 2a 53 bc c0 f1 3f bd cd 33 ab bb 6e 9b 10 3d
       -0.012888541 -0.04686141 -0.005224681 0.03530448
000110 1f 59 22 3d d4 7b fe b9 ce 53 62 bc 71 ec cd bc
       0.039635774 -0.00048538914 -0.013813926 -0.025137158
000120 ff d1 fd bb 9a fe 01 3b 9c 45 a9 3b 08 b1 29 3d
       -0.0077459808 0.0019835592 0.005165769 0.041428596
000130 c6 d8 c3 3c 1a 3c 0b 3d 5d be 57 bd cd c9 b8 bb
       0.023907077 0.033992864 -0.05267178 -0.005639291
000140 00 01 4e bc af 01 f9 3c 81 4c 63 3c 5a be 30 bd
       -0.012573481 0.03039631 0.01387322 -0.043150283
000150 c6 8f dd 3b 7e 7e 1d 3b 8c 16 c2 3c 0e 01 fe 3c
       0.006761524 0.0024031694 0.023692392 0.031006362
000160 8b 2a 0f bd b1 fb 45 3b 14 72 bf 3c 9a a5 d0 3b
       -0.03495268 0.0030209834 0.023369826 0.0063673975
000170 0f 29 a7 bc a4 b2 18 bc 27 97 ba 3c a6 45 bf 3c
       -0.02040532 -0.009319935 0.022777153 0.02334864
000180 d5 bf d6 bc c9 c7 c8 3c 2e d7 07 bc ea 11 f9 bc
       -0.02621452 0.024509327 -0.008291049 -0.03040405
000190 e8 93 56 bc 2b a1 1e 3d 84 44 1b 3d bf dc 75 bc
       -0.013096787 0.03872792 0.03790714 -0.015006243
0001a0 ee 13 c4 3c de a0 ae 3c 65 e5 22 bd 97 04 33 3c
       0.023935284 0.021316942 -0.03976955 0.010926387
0001b0 22 89 33 3b 87 bf c6 3c 58 24 e9 bc 72 e9 18 bc
       0.002739497 0.02426125 -0.028459713 -0.009333001
0001c0 96 f7 e1 3c b6 72 b8 bc f4 6e 89 3b c6 73 b6 bb
       0.027583878 -0.022515636 0.004194135 -0.0055680005
0001d0 e3 ab 20 3d ec f5 3b 3d fb 02 cc 3b 20 db 24 3d
       0.039226424 0.045888826 0.0062259412 0.040248036
0001e0 ef fc 95 bc f0 a6 4c bb 67 2e 64 bd 2d 28 bc 3b
       -0.018309085 -0.0031227432 -0.055708315 0.005742094
0001f0 f6 25 37 bc 17 18 83 bc 74 00 3d bc f3 c4 1f 3d
       -0.011178484 -0.016002698 -0.011535753 0.039006185
000200 16 f2 c2 3d 75 d0 f7 3d a7 23 b4 3c 81 52 10 3d
       0.095188305 0.12100307 0.021989657 0.03523493
000210 e5 35 93 3d 03 91 a3 3d 2f 69 b2 3d 13 e6 21 bd
       0.07188014 0.07986643 0.087114684 -0.039526056
000220 13 da 12 bd 1b 38 9e 3c f7 87 22 3d 56 7e b2 bc
       -0.035852503 0.019313863 0.039680447 -0.021788757
000230 49 2a 11 bc 4b 87 ae bc 93 a0 38 3d 59 8d 14 3c
       -0.008860179 -0.021304747 0.04507501 0.009066903
000240 a9 5f e1 bc 25 49 f7 3c 94 d3 42 3d 32 e0 b5 3c
       -0.027511435 0.030186245 0.047565058 0.022201631
000250 e4 c6 64 3c e6 86 6f bc 16 30 f9 3c 60 c8 c7 bc
       0.013963435 -0.014619565 0.030418437 -0.024387538
000260 4d 71 27 bd 00 1a 69 bc 89 a4 32 3d 96 c6 e5 bc
       -0.040879536 -0.01422739 0.043613944 -0.028048795
000270 aa 92 05 3d 95 e1 c4 bc af b6 ca bc a8 13 c8 3c
       0.032610573 -0.024033347 -0.024745313 0.024423435
000280 35 7f f0 3c ae ff 7a bb 30 89 90 bb 8e 7d 07 3d
       0.029357532 -0.003829937 -0.0044108853 0.033078723
000290 9b 50 78 3d f1 7c 3d 3d 45 b4 89 3c 39 20 81 3b
       0.060623746 0.04626173 0.016809592 0.003940609
0002a0 9a 5d f2 bc b0 c7 c4 bc 78 00 30 3d 49 f7 c6 3a
       -0.029585648 -0.024021 0.042969197 0.0015179898
0002b0 6a 3a e5 3c 60 ac a6 3c 92 50 1d 3c b2 a2 57 3d
       0.027981956 0.020345867 0.009601729 0.052645393
0002c0 1a 4a af bc 85 22 e7 bb ec 8a 06 bd b7 33 66 3b
       -0.021397639 -0.0070536756 -0.03284733 0.003512604
0002d0 1b 4e 59 3c fa 13 44 bc 73 81 2a bd 42 00 96 bd
       0.013263251 -0.011967653 -0.04162736 -0.07324268
0002e0 d8 37 06 bd ae 3e 0d 3c 0e fa 93 3c df 69 5b bd
       -0.0327681 0.008620901 0.018063571 -0.053567763
0002f0 f5 24 1e bd 4e cb 25 3a e9 90 4f bd 36 1b e4 bd
       -0.038609464 0.0006324545 -0.050675306 -0.111380026
000300 b0 73 4e bd 21 24 80 3a f1 f0 b9 3c 16 4e 3e bd
       -0.050403297 0.0009776392 0.022697898 -0.046461187
000310 7d ff 96 bd 4c 4a 8c bd d7 c3 78 3b e5 a3 3f bd
       -0.07372949 -0.068501085 0.0037958527 -0.04678716
000320 fd a3 23 3d e9 b5 85 bc ba fd 03 bd e6 a1 0b 3c
       0.039951313 -0.016322093 -0.032224394 0.008522486
000330 cb 4f df bc 1a c2 51 3c 15 ab e3 bc d2 4d 0e 3c
       -0.027259728 0.012802625 -0.02779154 0.008685546
000340 9b 01 7f 3b 4f 86 b5 bc 52 29 0f 3c a7 14 36 3d
       0.003891087 -0.02215877 0.008737879 0.04445329
000350 a5 de 0a bd 20 33 67 bc ac 9a d7 3c 09 bb 1c bc
       -0.033903737 -0.01411131 0.02631887 -0.009566077
000360 9f 04 32 3c f7 de 7d 3c 4b c5 2c 3c 74 fc 55 3d
       0.01086536 0.0154950535 0.010545085 0.05224271
000370 da 6c ba 3c eb 3a 1c bc f3 71 07 bd 93 c5 8c 3b
       0.022756983 -0.0095355315 -0.033067655 0.0042960136
000380 ad fa 33 bd 17 20 d5 3c 72 84 bd 3c d8 41 9b 3c
       -0.043940235 0.026016278 0.023134444 0.018952295
000390 7a 39 10 3b 09 25 78 3a 5d c9 0b 3d 09 2a 9d 3c
       0.0022006915 0.0009465968 0.034127582 0.019185083
0003a0 ba 21 c8 bc 51 1d 7d bc dd 93 37 3a 7e 58 81 3c
       -0.024430145 -0.015448884 0.00070029293 0.015789267
0003b0 15 9d a9 3c 87 c4 9f 3b 2e 32 68 3b 64 d6 4b 3d
       0.020704785 0.004875723 0.00354303 0.049765006
0003c0 a9 b1 a7 ba aa a4 9b ba e7 fd 5e 3c 26 c5 b3 3c
       -0.0012794036 -0.0011874635 0.01361034 0.021944594
0003d0 73 6d 9a 3c 11 34 28 bd a9 f7 78 bb 47 2e 8c 3c
       0.018851018 -0.04106528 -0.0037989414 0.01711191
0003e0 d9 c9 ee 3b 05 a5 1a bd b3 1a 69 3c a1 a4 ec 3c
       0.0072872457 -0.03775503 0.014227557 0.028887095
0003f0 aa f9 7b 3d f4 61 2f 3d 23 a2 7a 3d 79 e0 34 3d
       0.061517395 0.042818025 0.061189782 0.044159386

g_model.fc1.bias f4 [128]
000000 b3 30 e9 3c 4e 30 07 3d fb d1 ae bc 54 ce b5 bc
       0.028465604 0.03300505 -0.02134036 -0.022193111
000010 52 37 44 3c 43 86 84 bc e3 4e 9c 3c 9a 6e 07 bd
       0.01197608 -0.016177302 0.019080585 -0.033064462
000020 fd 69 36 3d 91 e8 ea 3b 77 10 02 3d d4 c3 be bb
       0.044534672 0.0071688374 0.031753983 -0.0058216844
000030 eb 04 36 3c 44 69 c5 bc b2 f8 27 bc b0 69 e8 3c
       0.011109571 -0.024098046 -0.010252165 0.028370708
000040 a8 43 1d 3b 1f a8 7e 3c 6f d6 fb bc ee 80 fd bc
       0.0023996625 0.015543013 -0.030741898 -0.030945268
000050 04 12 3b 3c fe 53 dc 3c f5 37 22 3d 75 ef 06 3d
       0.0114178695 0.02689552 0.039604146 0.032943208
000060 d9 e5 8a 3c 00 ce 15 3d 01 2a 81 3c f4 a0 4a bb
       0.016955303 0.03657341 0.0157671 -0.003091869
000070 bf 8a d1 3c 29 0a a3 bc 35 88 ec bb a5 51 19 3d
       0.025578855 -0.019902306 -0.0072183856 0.037431378
000080 76 50 18 b9 53 6e 29 bc f4 47 b7 bc 9b ff 22 bd
       -0.00014525824 -0.010341245 -0.022373177 -0.039794546
000090 5f d8 17 3d 80 68 9b 3b 7d c7 ae bc 98 25 87 3c
       0.037071582 0.004742682 -0.021335358 0.016497418
0000a0 e5 b8 ca bb f9 99 ef 3c 82 99 25 3d ab b2 a5 bc
       -0.006186592 0.029248225 0.0404296 -0.020226797
0000b0 e3 a2 59 3c 6a 2d 5d bc df 4a a4 bb 54 dd f2 3b
       0.013283464 -0.013499597 -0.005013808 0.0074116383
0000c0 72 ed 8d 3c d6 97 38 bc d3 a1 cb bb 87 69 66 3b
       0.017325137 -0.011266669 -0.0062143593 0.0035158114
0000d0 9a b9 04 3c a9 bd 0d bc 63 9f 8b 3c f1 b9 54 bc
       0.0081008915 -0.008651176 0.017043775 -0.012983785
0000e0 da f2 8d bb 29 e8 46 bb 36 d5 e7 3b 66 c4 06 3d
       -0.0043319287 -0.003035078 0.0070749773 0.032902144
0000f0 f1 b1 34 3d 85 24 aa 3c 45 ea b1 3b db 11 46 bc
       0.04411501 0.020769367 0.0054295384 -0.012089218
000100 8a bf 03 3d 7d 0e bf bb 15 6b 19 3c 34 bf a4 bb
       0.032165088 -0.0058305846 0.009363909 -0.005027676
000110 1b 96 45 bc bb 04 02 bd 1c 6d 74 bc 43 b7 06 3d
       -0.012059714 -0.031742793 -0.014918592 0.032889616
000120 65 28 0a bd d0 85 13 3d 29 99 2a bc 6d b5 9e 3b
       -0.03372993 0.036016285 -0.010412493 0.004843405
000130 e1 14 c5 3c cc f0 81 3a 3a d0 1b 3c 45 a4 a6 bb
       0.024057807 0.0009913682 0.009510094 -0.0050855004
000140 97 21 39 bc eb 6d c1 bc 61 49 2c 3d 97 4e 0e bd
       -0.011299512 -0.023611983 0.042062167 -0.034742918
000150 2b f8 21 3d 7a 93 bc bc f2 1d 30 3c 51 11 bb bc
       0.039543312 -0.023019541 0.010749327 -0.022835406
000160 be 15 95 3b 83 d8 70 3c 4f fe 39 3d 96 7d a4 3c
       0.004549711 0.014700058 0.045408543 0.020079415
000170 99 c1 b3 bc 43 57 59 bc 1f c6 8c bc 96 fc 09 3d
       -0.0219429 -0.013265434 -0.017184315 0.03368815
000180 0d 3b fc 3a df d6 4c bc 08 fa eb 3c 5b 8e 10 bd
       0.0019243673 -0.012502401 0.028805748 -0.03529201
000190 eb 37 9f bb db ae f2 ba 04 fa c5 bc aa 71 f2 3c
       -0.004858961 -0.0018515246 -0.024167068 0.029595215
0001a0 f8 84 bb 3b 38 75 be bc 64 b5 a3 bc 1c 89 99 3b
       0.005722638 -0.023249254 -0.019983955 0.004685534
0001b0 6f 92 82 3c 61 ff d4 3c 8d d0 4a 3c 1d 5e 37 bc
       0.015938966 0.02600068 0.012378824 -0.011191872
0001c0 ee f4 c8 bb 91 8d ca 3c 50 c5 64 3c 4b 4c 89 bc
       -0.0061327135 0.024725707 0.013963059 -0.016760012
0001d0 91 4c 01 bd c8 dd d2 bc 04 8c f9 3a 0a 72 3b 3a
       -0.03156716 -0.02574052 0.001903892 0.0007150477
0001e0 b6 86 01 3a e6 6b c9 3b 08 fc 58 bc 10 b4 1e bc
       0.0004941033 0.0061468957 -0.013243683 -0.009686485
0001f0 7f c6 da 3b 51 f0 a0 bc 92 8a 9b 3c ee 32 12 bc
       0.0066764946 -0.019645842 0.018986974 -0.008923275

g_model.fc2.weight f4 [10, 128]
000000 5c 82 a2 3d 8c 96 5c 3d 03 e1 ce bd 95 ca 29 bd
       0.0793502 0.05385451 -0.10101511 -0.041452963
000010 99 e2 25 bd 24 6c b8 bd d1 ee 9f bd 4a 6e 72 3d
       -0.040499303 -0.09005001 -0.078092225 0.05918721
000020 ec ce e6 bd dd ff 6d bd 0a 11 53 bd 5a b1 50 3d
       -0.11269936 -0.05810534 -0.05152992 0.050950386
000030 06 72 fa 3c f4 fe 4a bd 43 9a 26 3c 79 54 6c 3d
       0.030571949 -0.04955955 0.010168615 0.057697747
000040 01 5e 5d 3d 68 78 b2 3d 33 db 89 3d ab b0 ae bd
       0.054044727 0.08714372 0.06731262 -0.085297905
000050 13 8f 89 3c c4 4d a3 bd aa a0 09 bd b9 6f 7b 3d
       0.016791856 -0.07973817 -0.033600487 0.061385844
000060 0b bd ac 3d 9e 01 93 3c 0f 81 fc 3c 5e 6d 39 bd
       0.084344946 0.017945107 0.030823259 -0.045270316
000070 75 cf 8a bd 85 f8 47 bc 42 75 71 39 11 7b ca 3d
       -0.067778505 -0.012205248 0.00023027233 0.09886754
000080 2f 13 d7 bd 9a 83 a5 bd 78 ab 53 3d 47 50 ce bd
       -0.10501706 -0.08081742 0.051677197 -0.100739054
000090 22 e9 bd bd 56 18 c9 3d 96 23 d6 3c f0 b0 d8 bd
       -0.09272982 0.09819095 0.026140016 -0.10580623
0000a0 79 b7 af 3d e5 8d 20 bd cb 64 9a 3d 7c 06 8b 3c
       0.085799165 -0.03919782 0.07538756 0.016970865
0000b0 00 e5 b8 bd 1c 9a 22 bd 11 b8 c4 bd 7d 4a 0b b9
       -0.09028053 -0.03969775 -0.096054204 -0.00013283822
0000c0 0e 63 18 be 6d ed d6 bd f6 f9 3e bc a4 9f dc 3b
       -0.14881536 -0.10494504 -0.011656275 0.006732898
0000d0 ff b1 d0 3c fa af 3c bb d6 18 b4 bd 85 f3 ab 3d
       0.0254755 -0.0028791414 -0.087937996 0.08396057
0000e0 f8 b9 cc bc e7 9b 5b bd a5 c7 dc bd d0 83 07 be
       -0.02499102 -0.053615477 -0.10780267 -0.13233876
0000f0 00 65 bf 3d db fd f2 bc dc 55 a8 bd ce c1 ad bd
       0.09345436 -0.029662063 -0.082195014 -0.08484231
000100 dc 12 b5 bd 87 47 b8 bd 47 a2 0f bd 99 3f b7 3d
       -0.08841488 -0.08998018 -0.03506687 0.08947677
000110 e3 a6 ed bc f3 1c 6d 3d 1d 90 b6 3d a5 78 30 3d
       -0.029010242 0.057888936 0.08914206 0.043083806
000120 c3 49 2c 3d 0e f7 b9 bd c0 21 3a bd bf 0c 1f bc
       0.042062532 -0.09080325 -0.045442343 -0.009707629
000130 6b c6 a2 3c 35 6e 46 3c 37 17 8c 3d a0 5f 9a 3d
       0.019870004 0.012111236 0.068403654 0.0753777
000140 11 6a 76 3d a5 aa c7 bd f7 bb af bc 1d 51 1f 3c
       0.060159747 -0.09749345 -0.021451933 0.009723929
000150 e5 15 61 bd d8 52 1e 3c 8c 7f 76 3d 3b bb 68 bd
       -0.05495252 0.009663306 0.060180232 -0.056819182
000160 2c f6 c4 3c b9 a5 cb 3d d0 ee c3 3d 1e 7e 91 3d
       0.024043165 0.099437185 0.09567034 0.07104133
000170 e3 06 f0 3c fd bb 2b bd d2 ef 54 bd 3a ad a7 3d
       0.029300159 -0.041927326 -0.051986523 0.08187337
000180 38 68 b0 3d 5b 63 78 3d 34 07 b1 bc be 1a 2d 3c
       0.08613628 0.060641628 -0.02160988 0.010565458
000190 61 e2 90 bd 40 19 5c 3d a1 40 0a bd 35 d0 c2 3d
       -0.07074428 0.053735018 -0.03375304 0.095123686
0001a0 fc 87 e7 bb 6d 3f 79 3d 31 bc 02 3d 27 2e c8 bc
       -0.007065771 0.060851503 0.031917755 -0.02443607
0001b0 18 62 ce 3d c5 27 bb 3d 2e 41 86 3d aa 92 c1 bd
       0.10077304 0.09138445 0.06555401 -0.09451802
0001c0 8d 7c 81 3d 2a f3 7e bc 9f b9 4e 3d 2e 6d ca 3b
       0.06322584 -0.0155609045 0.05046999 0.006177566
0001d0 0a 8d 74 bd a9 c1 f8 3d 51 03 a9 3d e9 e3 dc bd
       -0.059704818 0.12146313 0.08252586 -0.10785658
0001e0 9a f0 bb bd 27 30 34 3d 50 66 86 3d 9b e6 65 bd
       -0.091767505 0.043991234 0.06562483 -0.056128126
0001f0 74 b4 00 3b 3b d6 48 3d f3 78 f0 bd f7 6f 84 3d
       0.0019638808 0.04903243 -0.11741819 0.06466668
000200 83 c7 f7 bc 21 82 ff 3d a1 6a 9a 3d 0a f6 d2 bb
       -0.030246502 0.12475992 0.07539869 -0.0064380215
000210 1c 99 90 bd c5 cf 81 bc e5 7f 62 bc e0 dd 8b bb
       -0.07060453 -0.015846143 -0.013824438 -0.004268393
000220 12 68 7b 3d 67 b9 dc bc 27 f5 ca 3d 79 70 9b bd
       0.061378546 -0.026943875 0.0991004 -0.07589812
000230 17 31 f1 bd 89 84 f2 3d 9d 23 1b bd e6 93 95 3d
       -0.11776941 0.11841685 -0.03787576 0.073036
000240 c3 2c 80 bd bf 89 c8 bc 22 6d 1e 3d 25 68 fc bc
       -0.062585376 -0.024479745 0.038678296 -0.030811379
000250 ac c0 9a bd be 8d c3 3d 21 49 12 be a9 e7 fb bd
       -0.075562805 0.095485196 -0.14285709 -0.12300045
000260 85 2b 43 3d 8c 4d d6 bd 57 a4 6c bd 6b 74 66 bc
       0.047648925 -0.1046401 -0.057773914 -0.014065842
000270 10 9b db bd 5e 5c f4 3d 6f b1 9d 3d 15 cd 3d 3c
       -0.10722935 0.1193168 0.076998584 0.01158454
000280 5b a7 3c 3d b8 40 22 3d 8b 8c e0 bc 05 e4 dd bd
       0.04605804 0.0396125 -0.027410766 -0.10834507
000290 e3 19 44 bd c6 33 4f 3d b5 99 8b bd 68 25 88 3d
       -0.04787625 0.050586484 -0.06816427 0.0664776
0002a0 b8 f3 7b 3c 5d c3 97 bd 5a bc b1 bd ad e5 d1 bc
       0.015377931 -0.074103095 -0.08678503 -0.025622213
0002b0 10 0f a2 bc 59 ec c5 3d 95 3d 73 3d 93 5e 9a 3d
       -0.019782573 0.0966422 0.0593849 0.0753757
0002c0 80 39 9a bb d4 11 24 bd eb 3c 9e bc 0b d3 9e bd
       -0.0047065616 -0.040056065 -0.019316157 -0.07755097
0002d0 1b b3 66 bd 09 a8 39 bd d1 2e 97 bd 09 30 94 3d
       -0.056323152 -0.045326266 -0.073819764 0.072357245
0002e0 00 53 24 3d c3 fe ad 3d d6 8a c1 3d 6a 56 ba bc
       0.040118217 0.084958576 0.09450309 -0.022746284
0002f0 70 14 82 3d 48 9c bf bd a6 43 3c bd 2a bd c5 bc
       0.063515544 -0.0935598 -0.045962952 -0.024138052
000300 a4 c0 69 bd 35 53 35 3a 42 5e cf 3d 13 b8 aa bd
       -0.057068482 0.0006917001 0.101254 -0.083358906
000310 9c 17 92 3d bd 78 9a bd 0d c9 a6 bc b9 6f dc 3b
       0.071334094 -0.0754256 -0.02035954 0.0067271856
000320 75 eb 46 bd 01 a5 20 be 78 91 63 bc ea 8e de 3d
       -0.048564393 -0.15687944 -0.013889663 0.108671024
000330 5b d5 ee bb 42 b9 5e 3c 9d cc b2 bd 18 97 c1 bb
       -0.0072886175 0.013593974 -0.08730433 -0.0059079044
000340 92 0f 0f be 0f 21 a0 3c 5a 4a 7a 3d 9d 23 8e 3c
       -0.13970783 0.019547014 0.061106063 0.017350966
000350 c0 75 ba 3d 6b c8 b7 3d 02 2b 24 3d 9b c4 f1 bd
       0.0910449 0.089737736 0.040080078 -0.11805078
000360 20 fc 9d 3d f3 0d af 3b c0 2a d6 bd ce 1f 60 bd
       0.07714105 0.005342239 -0.10457373 -0.05471783
000370 f9 1d 60 3d 64 be 61 3d 0b 4b 74 bc 38 53 b6 3d
       0.054716084 0.05511321 -0.01491047 0.089025915
000380 66 ae a4 bd 8f 48 8e bd f6 6d eb bd a5 c1 d0 3c
       -0.08041076 -0.06947433 -0.11495583 0.025482962
000390 53 0a 99 3d 6e d6 8b bd 54 0b 0a 3a fe 41 a9 3d
       0.07472672 -0.068280086 0.000526597 0.0826454
0003a0 bc a2 54 bd 8d 0b a0 3d d1 c2 c3 bd 7d f8 45 bd
       -0.051913008 0.07814703 -0.09558643 -0.04833268
0003b0 95 44 e5 bb 2e f8 de bd 72 d1 f1 3d d6 29 0a be
       -0.006996701 -0.1088718 0.11807527 -0.13492522
0003c0 6e 19 83 3d 9e 85 41 3d 31 67 58 bd 8c 08 6c 3d
       0.06401335 0.047246568 -0.052832786 0.05762534
0003d0 1f 43 01 bd 87 45 4e bd 80 5e d6 bd ed 33 e3 3d
       -0.031558152 -0.050359275 -0.10467243 0.110938884
0003e0 66 4b 93 bd 4a 00 b8 bc 13 a1 23 3d 8b 8f 5e bd
       -0.071921155 -0.022461075 0.039948534 -0.054336112
0003f0 93 87 20 3d 18 7a 91 bb 40 42 c8 3d 5a 2d f7 bd
       0.039191794 -0.0044396035 0.09778261 -0.12069197

g_model.fc2.bias f4 [10]
000000 c6 18 af bd 05 85 f9 bc d5 52 88 3c fa 07 86 bd
       -0.08549647 -0.030458936 0.01664106 -0.0654449
000010 4a aa c1 3c 47 e3 83 bb 2c 37 08 bd f2 b4 56 bd
       0.02364077 -0.0040248963 -0.03325574 -0.052418657
000020 b0 a9 10 3d 5e f7 0c 3d
       0.035318077 0.034415595

f_model.fc1.weight f4 [32, 10]
000000 bc 4d a4 be 49 9e 7c be 13 d7 91 3e 28 5f a3 3d
       -0.32090557 -0.24669756 0.284844 0.07977134
000010 61 a5 71 3e c2 95 7f be 50 32 f4 bc 37 13 34 be
       0.23598243 -0.24959472 -0.029809147 -0.17585455
000020 44 1a aa 3d 90 c0 b8 3e 13 db b3 be 5b f2 90 3e
       0.08305791 0.36084414 -0.35128078 0.28309903
000030 6e 8f e0 bd d2 18 1c be d0 54 9d 3e ca 7c 40 be
       -0.10964857 -0.15243843 0.3072877 -0.18797603
000040 e7 6a fd bd 42 2a 47 3e 5f 30 e2 be da d9 0c 3e
       -0.12373906 0.19449714 -0.4417753 0.13754979
000050 7e 8d c2 3d 0f 3d 31 3d 28 2c f5 3e 7d 07 62 3d
       0.09499644 0.04327112 0.4788525 0.055182923
000060 eb f0 bf 3d da 72 88 3c 38 3a 2f be 3a 04 ef 3e
       0.09372123 0.016656328 -0.17112052 0.46682912
000070 47 a0 3c 3e 32 68 d6 3b 4c f9 8c be d1 32 90 be
       0.18420516 0.006543183 -0.27533948 -0.2816377
000080 4a a4 b3 be e1 e8 93 be 86 d1 65 be 20 4f d0 3d
       -0.3508628 -0.2888861 -0.22443208 0.10171342
000090 3b b1 25 be 40 d7 2c ba b4 f8 cb bd b6 30 a5 3e
       -0.1618089 -0.0006593354 -0.09959546 0.32263726
0000a0 96 f6 3c 3d 30 17 81 be b6 19 71 3e 50 c8 45 3d
       0.0461336 -0.25213003 0.23544964 0.048286736
0000b0 95 d3 b1 be 24 9b 0f be c0 ad 1e be 6c 2d 9a bd
       -0.34731737 -0.14024025 -0.15495968 -0.07528195
0000c0 57 54 06 bd 6a b3 70 be db 2c 0e 3e f2 cb 86 3d
       -0.032795276 -0.23505941 0.13884299 0.06581868
0000d0 84 88 ee 3e db 98 98 be 10 7d da bc 4a 16 72 be
       0.46588528 -0.2980412 -0.026670963 -0.23641315
0000e0 70 b7 98 3c 0a 92 d4 bd 8f 04 80 be 36 a1 d6 bd
       0.018642157 -0.10379417 -0.25003478 -0.10479967
0000f0 48 c6 23 be 80 fe 7e be 3f 40 56 be aa d6 7e be
       -0.15993607 -0.24901772 -0.20922945 -0.24886575
000100 af fa dc bd fc 4a 2a be a0 ca 82 bb 9b aa 17 bd
       -0.107900016 -0.16630167 -0.00399144 -0.037027936
000110 fa 1e 31 be e4 1d a9 3e 1e 0e a7 3e 3f 71 a9 be
       -0.17296973 0.33030617 0.32627958 -0.33094212
000120 2d f2 d7 be aa 85 14 be e2 f7 7b be f3 7e 9f 3e
       -0.42176953 -0.14504114 -0.24606279 0.31151542
000130 74 b4 d1 3d 50 b3 4b bd ae d1 bb be de ac b1 3c
       0.10239497 -0.049731553 -0.3668341 0.021688875
000140 5a 77 e1 3c aa 49 db 3e 85 88 4f 3e d4 02 2f be
       0.027522732 0.4282964 0.20266922 -0.17090923
000150 fa 5f 54 be bc 0e ed bd b1 59 26 bd e6 79 6c bd
       -0.20739737 -0.11575076 -0.04061288 -0.05773344
000160 af 13 11 bf 34 8f c6 3d 24 71 2b be 4e 31 e4 bd
       -0.5667066 0.096952826 -0.16742378 -0.111422166
000170 17 01 6c bd 77 ee 14 bd f9 1f 1a 3e 81 f9 b9 3d
       -0.057618227 -0.03636023 0.15051259 0.09080792
000180 6a dc e7 3e 92 fe 71 3d 9b e8 19 be 98 4c c7 be
       0.4528535 0.059080668 -0.15030138 -0.38925624
000190 6e 32 5e be 35 0e 99 be d5 6e 23 3e 18 bb ae 3e
       -0.21698925 -0.29893652 0.15960248 0.34127116
0001a0 8f 60 93 bd 0f 43 96 3e 69 51 2e be 60 3d 50 3e
       -0.071961515 0.29348037 -0.17023243 0.20335913
0001b0 67 4d 9f bd 58 85 9d be 1f d6 51 be 10 80 2e 3e
       -0.07778435 -0.30765796 -0.20491837 0.1704104
0001c0 c4 e6 6e be 68 dd 47 bd 28 cb 0b bd 56 87 28 3e
       -0.23330218 -0.048795134 -0.03412929 0.16457877
0001d0 63 9c bc bd 27 da 23 be 9a a4 c1 bb 61 3c a2 3c
       -0.09209516 -0.16001187 -0.0059095146 0.019804182
0001e0 bf df 32 3e 68 a6 7f be ec 3d 57 3e ea 47 68 bc
       0.17468165 -0.24965823 0.21019715 -0.014177302
0001f0 d6 fe 8e be 96 14 5c be d4 a2 2b bc 93 aa ec bd
       -0.279288 -0.21492228 -0.010475833 -0.11555972
000200 7c 7e 8e 3c 38 aa 34 be 98 b2 26 bd 3d 75 cc 3a
       0.017394297 -0.17643058 -0.040697664 0.0015598905
000210 20 55 36 be f1 90 ba be d4 99 e9 3d d8 64 6d 3e
       -0.1780591 -0.36438707 0.114062935 0.23183
000220 70 1a 89 3c 29 be 03 3f ac cb 85 be 7c a0 0e bd
       0.01673624 0.51462036 -0.26131952 -0.03482102
000230 24 5b 0c bd 8b 3e 1f be c6 aa 8e be 7a 05 14 3e
       -0.034266606 -0.15551202 -0.27864665 0.14455214
000240 4e 28 c0 bd 07 54 95 bc 99 c4 aa 3d e1 b9 25 be
       -0.093826875 -0.018228544 0.08338279 -0.16184188
000250 0e a6 f2 3e a8 b2 3c be 6f 31 b0 bd fa 51 c3 bd
       0.47392315 -0.18427527 -0.08603179 -0.0953712
000260 0a b5 5c 3d 21 3d 16 bb 70 4c f0 3d ed db b6 3e
       0.05388359 -0.002292462 0.11733329 0.35714665
000270 48 87 a2 3c dc 63 31 be 23 a1 bf 3e a5 5b 2e be
       0.019839898 -0.1732325 0.37427625 -0.17027147
000280 74 96 02 3e be 6a 5d be 9f 49 b4 be cf aa aa be
       0.12752706 -0.2162275 -0.35212418 -0.33333442
000290 4c 86 51 3e 5d 0c 93 3e 6b 81 9f bc 91 cd 34 be
       0.20461386 0.2872037 -0.019470891 -0.17656542
0002a0 08 93 bb be 89 65 89 be f8 e4 39 3e e2 52 54 be
       -0.36635613 -0.26835278 0.18153751 -0.20734742
0002b0 21 8a 77 3e 70 9a 6e 3d c1 b0 cf be 8d ba 77 3e
       0.24173786 0.05825275 -0.4056454 0.24192257
0002c0 e6 73 c7 3c 9a f6 05 be 3d 0d bd bd 6b a9 39 be
       0.024347257 -0.13082352 -0.092310406 -0.18131034
0002d0 7b 0e b2 be e3 07 19 3d f7 90 3e bd 12 ce 05 3f
       -0.34776673 0.037361037 -0.046524968 0.52267563
0002e0 85 58 bc bd 53 16 89 bd b1 cb 54 bd 37 ea b7 be
       -0.09196571 -0.06693711 -0.051952068 -0.3592088
0002f0 3f 12 22 be 4a 54 8f 3d 30 21 91 be af 15 80 3e
       -0.15827273 0.06998499 -0.28345633 0.25016543
000300 08 ff 15 bd 02 95 ed 3e e6 75 0b be 54 5d 2b 3d
       -0.03662017 0.46402746 -0.13619193 0.04183705
000310 e3 ad f0 3d 7d ad 8a bc ef ea a2 bd d2 78 ac bc
       0.11751916 -0.016928429 -0.07954966 -0.021053705
000320 52 0c 48 be 6d 86 34 be 0b e7 c7 bd e8 1e 0a bd
       -0.1953595 -0.17629404 -0.09760865 -0.03372088
000330 b8 49 06 bd e5 b9 94 be af 97 d5 3d d3 9e e3 3e
       -0.032785147 -0.29048076 0.10429322 0.4445711
000340 fd c5 0c bd 25 bd 12 be cf a0 5d be 9a ab 15 be
       -0.034368504 -0.14329965 -0.21643375 -0.14616242
000350 a0 57 53 3e 72 88 6f 3e 51 b4 be 3e 58 d0 61 be
       0.20638895 0.23391894 0.37246946 -0.22052133
000360 c1 37 bb bd 0f 4a 27 3d 33 09 7d 3c 56 ce 97 be
       -0.091414936 0.040842112 0.015444088 -0.2964961
000370 c0 7c dc bd c2 66 c6 3e e3 e4 5d 3e 70 8a 8a be
       -0.10765982 0.38750273 0.21669345 -0.27058744
000380 76 4d 5e be f8 24 93 bd 83 e3 04 bd fa ac 6f 3e
       -0.21709237 -0.071847856 -0.032443535 0.23405829
000390 15 f3 e8 bd f9 02 03 bd 35 68 ab be d8 57 b1 3e
       -0.11374489 -0.031985257 -0.3347794 0.34637332
0003a0 57 bf 8e bd 01 25 75 3e 6d 6f a5 be e3 b7 09 3e
       -0.06970089 0.23939897 -0.32311574 0.13449053
0003b0 52 d7 84 be f4 72 3e 3e 5f 13 d0 bd 8c 3b 03 3e
       -0.25945526 0.18598539 -0.10159945 0.12815684
0003c0 8a 4a 91 be 1c ca 91 bd c9 57 03 3d e5 07 c4 3d
       -0.2837718 -0.071186274 0.03206614 0.09571818
0003d0 a9 f3 11 be 93 3f e4 3d 45 b0 9e 3e 51 32 51 be
       -0.14253105 0.11144938 0.30993858 -0.2042935
0003e0 85 9f 93 be 92 ed 29 be d7 d7 b1 be 59 1e e9 3d
       -0.2883264 -0.16594532 -0.34734985 0.113827415
0003f0 9f 0a 62 be a5 8c ec be 98 51 a6 bd 50 b1 f2 bd
       -0.22074364 -0.46201053 -0.081210315 -0.11850226

f_model.fc1.bias f4 [32]
000000 2c 89 c3 3e d2 5f e1 bc 95 5f 80 3e 81 71 89 3e
       0.3819059 -0.027511511 0.25072923 0.2684441
000010 3e db 83 bd 53 a8 55 3e 9c a4 bb bd c3 64 5f 3e
       -0.064383015 0.20864992 -0.09162256 0.21815781
000020 7a 7b e0 3e 78 51 6b 3e 6b ab 7d bd 8c 76 65 bd
       0.43844205 0.22980297 -0.061931055 -0.05602126
000030 cf cf 98 3d 48 6a 43 3e ef f6 96 3e b5 85 dc 3e
       0.07461511 0.19083512 0.2948527 0.4307076
000040 45 34 3d bd c6 d9 f1 bd e5 19 60 bc be 60 ac 3e
       -0.046192426 -0.11809115 -0.013678049 0.33667558
000050 50 f7 31 3e a4 c2 96 3e 08 6a d0 3e e0 f5 ce 3d
       0.17379498 0.29445374 0.40705895 0.10105491
000060 d9 16 e7 bc f7 59 1e 3e c8 87 67 3e ac 00 b1 3e
       -0.028209137 0.15464006 0.2261039 0.34570825
000070 27 7a bd bd 0b 56 8e 3e 34 36 2d 3e 5c c8 61 3e
       -0.09251814 0.2780002 0.16915208 0.22049087

f_model.fc2.weight f4 [10, 32]
000000 1a f9 31 be c7 8f 85 be 48 7a 10 3d aa 95 b9 3c
       -0.17380181 -0.26086256 0.035272866 0.022654373
000010 8c 2a e4 3d d6 07 2b 3e 16 38 be 3b cf 26 9f 3e
       0.11140928 0.16702208 0.005805026 0.31084296
000020 a3 5b 0b 3d 11 25 84 be 2b 86 4c be 4b ae 45 be
       0.03402294 -0.2580953 -0.19973056 -0.19304769
000030 69 c6 45 3e 36 89 5b bc 9c eb 0b be b5 57 d3 bd
       0.19313969 -0.013399413 -0.13664097 -0.10319463
000040 e9 2c 83 3e c8 e4 f6 3d ea 47 65 be fa 7e 45 be
       0.256202 0.12055355 -0.22390714 -0.19286719
000050 28 bd 23 be d3 4a 7f be ae 06 a4 bd d3 7f b4 be
       -0.15990126 -0.24930887 -0.080090865 -0.35253772
000060 3a 71 b0 be 9d df 17 be b1 36 87 be 91 7b 98 be
       -0.34461385 -0.14831395 -0.26408914 -0.29781774
000070 ff e9 19 bd ab ee 06 bd 0d a4 8d 3d 25 69 9a 3e
       -0.03757667 -0.032942455 0.06916056 0.30158344
000080 59 3c ef be ae 30 21 3e 6b b8 ae be da 12 59 3b
       -0.4672573 0.15741226 -0.34125075 0.0033122809
000090 02 84 1b be 6a 1e ca bc 51 6e 8b be 5a e5 82 bc
       -0.15187076 -0.024672706 -0.27232602 -0.015978504
0000a0 b7 05 a5 3e a1 6f cd bd 11 b7 37 be 64 0f 09 3e
       0.32230923 -0.10031057 -0.17940928 0.13384777
0000b0 70 29 6f bd f1 1c a1 ba a0 fe 40 be 51 76 05 be
       -0.058389127 -0.001229195 -0.18847132 -0.13033415
0000c0 e2 fc e4 bc 5e 65 1c 3c 14 98 55 3d 9c 4f 1c 3e
       -0.027952615 0.009545652 0.052146986 0.15264744
0000d0 de 83 3d 3c ba e0 33 bd d6 d7 b3 3e 62 7f f3 3d
       0.011567084 -0.043915488 0.35125607 0.11889531
0000e0 a1 7c 23 3d d7 6d 4b 3e 6e 72 8c 3b 81 38 af 3d
       0.039913777 0.1986612 0.004286102 0.08555699
0000f0 00 14 59 be 78 fc 4e be b7 67 1d be 21 63 d2 3d
       -0.21199036 -0.20213497 -0.15371595 0.102728136
000100 f5 c5 a2 3e 58 44 ea bb c9 d9 7d 3e 2d ab 3d be
       0.31791654 -0.0071492605 0.2479011 -0.1852233
000110 e0 f1 3c 3e 21 3d e1 3d 9e 6b e7 bd 8b b9 82 be
       0.18451643 0.109979875 -0.11299823 -0.25532183
000120 11 ef db 3c 88 11 04 bd a3 b8 0c bd ce ea 90 be
       0.026847394 -0.03224328 -0.03435577 -0.28304142
000130 a4 78 ee 3c ee 18 4a be 7e 26 8a be a9 ca 0b 3e
       0.02911026 -0.19736072 -0.26982492 0.13651527
000140 40 d9 89 be 00 fa 81 3e 70 4f 2b 3c 8e 9d 2c bd
       -0.2692356 0.25386047 0.010455951 -0.042142443
000150 88 d8 fd bd 63 9a 22 3e 53 9b d9 3d 35 9c dc bd
       -0.12394816 0.15879206 0.10625329 -0.107719816
000160 87 98 82 bd 3e 82 81 bd ee 44 b1 bc ed dc 29 be
       -0.063767485 -0.0632367 -0.021639314 -0.16588183
000170 d5 24 83 be 6f 20 28 be af 3a 6e 3e e8 f3 33 be
       -0.25614038 -0.16418622 0.23264574 -0.17573512
000180 b1 b7 a0 bd 99 2b fb bd 7e d4 94 be d2 34 16 3c
       -0.07847536 -0.12264175 -0.2906837 0.009167867
000190 05 d2 04 3e c3 44 1e be 1c a9 10 be 0b 17 d9 3b
       0.12970741 -0.15455918 -0.1412701 0.0066250614
0001a0 bf af 75 be ef 0b b7 3c 2d 68 85 3e 30 ba 1f 3d
       -0.23992823 0.022344558 0.26056042 0.03899592
0001b0 4a 42 ad 3d 83 63 8e 3b 11 cf 0a 3b 1a 9c 52 be
       0.08459909 0.004345359 0.002118055 -0.2056736
0001c0 71 c2 88 bd 34 24 98 3d 49 87 c4 3e c4 df 3c 3e
       -0.06677712 0.0742878 0.38384464 0.18444735
0001d0 17 0a 56 be 1b 6f 08 3e 23 70 25 be 56 08 7e 3e
       -0.20902286 0.13323633 -0.16156058 0.24807867
0001e0 8c 52 ad 3c 2b 56 90 be c7 6f ba bc 91 37 6f be
       0.021157525 -0.2819074 -0.022758378 -0.2336104
0001f0 07 3c da 3d c1 13 8d be 2e 31 56 bd cf ea fe bd
       0.106559806 -0.27554134 -0.052292995 -0.1244713
000200 f2 f5 81 3e 62 b1 89 3e ea e3 49 be 7b 96 e4 3d
       0.25382954 0.26893145 -0.19715849 0.11161514
000210 a9 d6 cc bd 90 87 20 bd 81 90 42 3c 51 a7 2a be
       -0.10001881 -0.039191782 0.011875273 -0.16665389
000220 1d c3 9f bd 55 3e e1 bc ab 13 48 bd d9 3b 03 bc
       -0.07800887 -0.027495543 -0.04884688 -0.008009874
000230 cc 39 02 be 93 d9 01 3e d1 f7 ac be 7b 18 be 3c
       -0.1271736 0.12680654 -0.3378282 0.023205033
000240 ad dc 60 3e 24 db e6 3c 79 ec 55 be 54 cc 15 be
       0.21959181 0.028180666 -0.20890988 -0.14628726
000250 16 cf 04 be 54 7c b7 3e 2b a5 a3 be 67 44 94 bd
       -0.12969622 0.35837042 -0.3196195 -0.07239609
000260 48 32 f5 bd 29 4e d8 bb 23 4c be be 61 b9 14 3e
       -0.11972481 -0.0066011143 -0.37167463 0.14523841
000270 a3 d5 5a be 14 10 68 3e 38 c0 3c be 84 92 08 bd
       -0.21370558 0.22662383 -0.184327 -0.033342853
000280 82 f1 a2 be d9 7e a9 be 2b 9e 99 be d6 ea 12 3e
       -0.3182488 -0.3310459 -0.30003485 0.14347395
000290 05 e9 12 be da 39 e5 bd af 0f 20 be 7a df 87 3e
       -0.14346702 -0.11192675 -0.15630983 0.26537687
0002a0 26 c2 20 be 48 df 0a be f5 e5 8d 3e a8 47 f6 3c
       -0.15699062 -0.13561738 0.27714506 0.030063465
0002b0 28 d0 43 be 96 6a 24 bc cc da 52 3d f5 30 57 3e
       -0.19122374 -0.010035178 0.051478192 0.2101477
0002c0 93 c6 1c 3e 02 10 ed 3d 24 d9 05 be d6 96 5b 3d
       0.15310125 0.11575319 -0.13071114 0.053610645
0002d0 fa cf 94 be b2 99 55 be 80 a3 43 be 57 85 bd 3d
       -0.29064924 -0.20859411 -0.19105339 0.09253948
0002e0 fc a5 e7 3c b1 c4 17 be 5c a3 d6 3d 00 4a 8e 3e
       0.02827739 -0.14821126 0.10480377 0.27790833
0002f0 9e 02 03 3e 71 8a 85 be a0 26 73 3b 9c 79 6e be
       0.12793967 -0.26082185 0.003710188 -0.23288578
000300 ae 17 8b be fa 73 a2 bd 7c 66 f6 bc 40 80 0b be
       -0.27166504 -0.07932277 -0.030078165 -0.13623142
000310 d8 68 d3 bd 4f 77 ff bd 18 37 cc 3d 13 0a 4d 3e
       -0.10322732 -0.12473928 0.09971446 0.20023374
000320 ab 0b 85 be 45 b3 5f 3e ef 91 5e be bc cd 19 be
       -0.25985464 0.2184573 -0.21735357 -0.15019888
000330 fb eb 61 3d 60 64 87 be be 2d fc 3c 5d 4f 8e bd
       0.05515669 -0.26443768 0.03078353 -0.06948731
000340 42 89 87 3d c3 e3 b3 bd ad e5 80 bd 9c 9f 05 be
       0.06617977 -0.087836765 -0.06293807 -0.13049167
000350 98 ea 1d bd 75 a0 6e be ef 0b 8d be cc 79 53 be
       -0.038553804 -0.23303397 -0.27548167 -0.2065193
000360 0f cb a3 3e f3 20 1b bd cf 09 39 bd 17 1a d6 3d
       0.3199086 -0.03787322 -0.04517537 0.10454195
000370 c9 86 6a be 6c e6 83 3e 08 a0 6b 3e f9 3a 8a 3d
       -0.22902979 0.25761735 0.23010266 0.067495294
000380 ad 5a 7b be c7 af 14 3d b7 54 61 3e cb 30 d7 3d
       -0.24546309 0.036300447 0.22004972 0.105073534
000390 8e ee 5f 3d 5e b1 92 bd b2 74 84 bc 13 16 f3 3d
       0.054670863 -0.07162736 -0.016168926 0.11869445
0003a0 8b b2 d5 bd 16 6a 21 bd 13 de 58 3e 36 8b 1a 3d
       -0.10434445 -0.039407812 0.21178465 0.03773042
0003b0 f1 e1 cd bc 85 66 a6 3e 81 f2 28 3b ec 5b 13 bd
       -0.025132151 0.3250009 0.002577931 -0.035976335
0003c0 ca 9c 8a bd ea 1c 09 be 15 28 b8 be b0 02 28 bd
       -0.067681864 -0.13389936 -0.3596808 -0.041018188
0003d0 11 fd 8d 3e 9b 4a 4f 3d e9 4a 6a bb 1b 24 04 3e
       0.27732137 0.05060826 -0.0035750216 0.12904398
0003e0 f9 fc 32 be ae 98 54 3d ba aa a0 be 74 a1 73 be
       -0.17479314 0.05190342 -0.31380254 -0.23792058
0003f0 a8 a1 8c 3e 38 9c 61 bc 89 5a 3a be c9 d5 63 be
       0.27467084 -0.013770156 -0.18198599 -0.22249521

f_model.fc2.bias f4 [10]
000000 5c af c3 ba 94 28 f8 bd 3c 72 c7 3d 5a be 11 be
       -0.001492958 -0.12117115 0.09738585 -0.1423277
000010 56 f8 7f 3d 38 07 c9 3d 54 a6 c4 3c ae 10 f8 bc
       0.06249269 0.0981583 0.024005093 -0.030281391
000020 da cb 84 3e a6 e8 6a bc
       0.25936776 -0.014337694
