models/Adversarially trained models/robust_sequential_model_cons3.pt (torch, 464629 bytes, 12 tensors)

g_model.conv1.weight f4 [32, 1, 3, 3]
000000 cb 7a f2 3d 2d 22 de 3e f7 ee 6b ba 98 72 3b be
       0.11839827 0.4338545 -0.0009000147 -0.18305433
000010 03 03 19 be 1b cc e0 3e fc 71 a9 3e be e3 c0 3e
       -0.14942555 0.4390572 0.33094776 0.37673753
000020 b6 fe 59 3d 28 df 98 3e dc f4 a1 3e a3 50 20 3e
       0.053221427 0.29857755 0.31632125 0.1565576
000030 d4 28 17 be b9 c4 14 3e 86 1d 7b 3c e1 e6 7f 3c
       -0.14761668 0.14528169 0.015326863 0.015619011
000040 19 37 b5 3e ee 13 cf 3d 8d 67 b5 3e 4b bd c7 3e
       0.353936 0.10111223 0.35430565 0.39011607
000050 8b 4d db 3d 92 fc 96 3e 04 80 60 3d fb 7f 9c 3e
       0.107081495 0.2948957 0.054809585 0.3056639
000060 9e 0c e3 3e f6 e8 2b 3d 0f 98 4a be 66 97 02 3f
       0.44345564 0.041970216 -0.19784568 0.51012266
000070 f0 a9 e8 3e 91 fb 91 3d 14 e3 86 bd b3 6a 9c bc
       0.45442152 0.071280606 -0.065862805 -0.019093847
000080 fa 23 a2 be 51 03 31 3d c8 85 09 bf 7f 86 ba be
       -0.31668073 0.043216053 -0.5371976 -0.36430737
000090 91 62 89 be 01 7b 0a bd 59 96 39 3d 95 f9 0c be
       -0.26833013 -0.033808712 0.0453094 -0.13767083
0000a0 f8 c5 09 3e d8 34 85 be 20 ac 4e be bb f9 bb bc
       0.13454425 -0.2601688 -0.20182848 -0.02294623
0000b0 48 9e 3a bd 1c 7c 82 be c6 10 97 3d 58 94 73 3e
       -0.045561105 -0.25485313 0.07376246 0.23787057
0000c0 ac ba 17 be 70 b7 82 3e 2c 32 65 3e e7 5d c0 3e
       -0.14817303 0.25530577 0.2238242 0.37571642
0000d0 a0 a2 40 3e 3e 6d b1 ba 05 51 7f 3e ae 89 3a be
       0.18812037 -0.0013536585 0.2493325 -0.18216583
0000e0 d3 38 d7 3e 77 db 9c 3e 35 56 b0 3e eb 4d 04 3f
       0.4203554 0.30636188 0.3444077 0.51681393
0000f0 f1 cb b9 3e 67 3d ab 3e 42 5d 6e bd 15 74 29 3e
       0.36288407 0.33445284 -0.058194406 0.16548188
000100 b1 f3 c7 3e ed 93 fb 3e 8a 21 2a be bc 70 25 3c
       0.3905311 0.49136296 -0.16614357 0.010097679
000110 21 7f 9b 3e 2b 33 f5 be e2 63 86 be bf d6 6e 3d
       0.3037043 -0.478906 -0.2624808 0.058310267
000120 04 13 bb 3d b7 a2 ac be d8 26 bd be 64 88 03 3f
       0.09134486 -0.33717892 -0.36943698 0.5137999
000130 71 87 70 be 2b bd 98 be 36 ac 42 3e 7e e7 a3 3e
       -0.23489167 -0.29831824 0.19011006 0.32012552
000140 c8 6c ba bd 2b 7d bf 3e 19 b8 d9 bb b8 ab d4 3d
       -0.091027796 0.37400183 -0.0066442606 0.10384315
000150 6b dc 25 bd 48 60 e4 3d bd 56 5e 3e 4f d4 df 3e
       -0.04049341 0.11151177 0.21712776 0.43716666
000160 f0 35 4b 3e 84 48 8f 3d d7 96 0b be 1a 86 80 3e
       0.19844794 0.06996253 -0.1363176 0.2510231
000170 22 96 c3 bd 6a 4f d2 bd 4b ec 97 3e fb 1b 0d bb
       -0.0955012 -0.10269053 0.29672465 -0.002153157
000180 3d 1d 8a 3e b3 2d c8 3e 64 32 27 be 10 f0 32 3e
       0.26975432 0.39097366 -0.16327816 0.17474389
000190 1b 68 71 3e 69 27 06 3f d1 14 13 bd af 90 2b be
       0.2357487 0.52403885 -0.035908524 -0.16754411
0001a0 4e be 85 3e 09 23 d2 be 11 2f c8 be 84 e1 86 be
       0.26121753 -0.41042355 -0.3909841 -0.2634393
0001b0 1e c5 4d 3e 8c 00 7b 3e c4 e6 ce 3e 95 06 4e 3e
       0.20094725 0.24511927 0.40410435 0.20119698
0001c0 6f 32 c8 3e 51 d5 e1 3e 2b 0f a0 3e 81 cf ee 3d
       0.39100978 0.4410806 0.31261572 0.11660672
0001d0 07 7d ed 3d e2 58 8f 3d 50 bf b5 bd 04 b2 dd be
       0.11596113 0.06999375 -0.088743806 -0.43299878
0001e0 8e 00 73 3e 0b ce 32 3c a0 94 31 3c 6f 74 8f bb
       0.2373068 0.010913382 0.010838658 -0.0043778936
0001f0 81 e6 6a 3e 03 fe cc 3e 6a ee 98 be e5 3e aa be
       0.22939493 0.40037546 -0.29869395 -0.3325111
000200 23 64 b9 3c 4f 61 d5 bd 7b dc 5a 3e 39 33 ac bd
       0.022630757 -0.10418951 0.21373169 -0.084082074
000210 da a2 b6 3e d4 0b 73 3e 20 d2 79 3b ff 82 4a 3d
       0.3567112 0.23734981 0.003811963 0.049441334
000220 0d a4 de 3e c1 cd be 3d 01 36 74 bd 36 df e2 3e
       0.43484536 0.09316588 -0.059621815 0.4431092
000230 64 3b 32 3e f3 30 c1 3e 80 5a 23 3e ab 65 46 be
       0.17405468 0.37732658 0.15952492 -0.19374721
000240 57 36 5f be ca 96 fd be 61 13 0c be 95 67 de bd
       -0.21798073 -0.49529105 -0.13679267 -0.108596005
000250 82 c3 81 3c 24 14 01 3e 8b fe 4a 3e 84 ef bf 3e
       0.015840296 0.1260534 0.19823663 0.37487423
000260 55 9f 90 3e 67 55 ab bc bb 2c a9 be d4 0f a5 be
       0.2824656 -0.020914746 -0.3304194 -0.32238638
000270 54 ac a3 3e 77 69 10 3e 69 1e b3 3e 60 7b 8f 3d
       0.31967413 0.14102732 0.3498414 0.07005954
000280 98 0d d7 3e ae 16 69 3e 51 6d 93 3c ec bd b9 3e
       0.4200256 0.22762558 0.017996462 0.3627771
000290 5f 3a 84 be a9 d2 c5 bd 13 09 94 3e 83 dc 85 3c
       -0.25825784 -0.09659321 0.28913173 0.0163405
0002a0 4f 7c a3 3e 76 d0 13 3e 1a 3a b3 3e 84 b4 9a 3d
       0.31930777 0.1443499 0.35005265 0.07553962
0002b0 7d b5 89 3e d2 a9 eb 3e 94 29 25 be c0 a6 0b 3f
       0.26896277 0.46028 -0.16129142 0.54551315
0002c0 6d f2 81 3e 12 d3 37 3e 80 da 87 3e ce e9 d5 3e
       0.2538027 0.1795161 0.2653389 0.4177994
0002d0 a2 fc c5 3e 91 98 06 3e 82 b3 ac bd ca 95 c9 3e
       0.38669306 0.13144137 -0.08432676 0.39372092
0002e0 63 78 72 3e 09 12 d5 3d 4b 37 b1 be 9d 6e d1 3e
       0.23678736 0.104038306 -0.34612498 0.40904704
0002f0 a9 7c b7 3e 61 3d 0d 3e 14 26 59 be ae ad ba be
       0.35837296 0.13792945 -0.21205932 -0.36460632
000300 11 23 f8 3e ce 8f 71 be 05 ca 70 be 17 82 3e 3e
       0.48464254 -0.23590013 -0.23514564 0.18604313
000310 58 76 e1 3d 14 dc 9f 3e a7 72 7a 3e 00 3a 74 be
       0.110089004 0.31222594 0.24457799 -0.2385025
000320 18 a3 80 3e 2a 2e 2b be be af 8f 3e 40 e8 91 3e
       0.2512443 -0.16716829 0.28063768 0.28497505
000330 8b 27 b5 3e c5 9a b0 3e 7e e4 87 3d 6b 0a 46 be
       0.3538173 0.3449308 0.06635378 -0.19339912
000340 96 96 26 3e 09 45 4a 3e ab 19 52 3e 05 b9 a5 3e
       0.16268381 0.19752897 0.20517604 0.3236772
000350 48 81 17 3f 37 59 b9 bb 72 a4 0c be c3 00 93 3e
       0.5918164 -0.005656387 -0.13734606 0.2871152
000360 53 f7 ec 3e f7 20 c8 bd 13 7c 76 be 59 d1 f2 3e
       0.46282443 -0.097719125 -0.24070768 0.47425345
000370 6e 0d 0a 3d 32 c2 c5 be 0e c3 65 3e ac 74 97 3d
       0.033704214 -0.38624722 0.22437689 0.073953
000380 e6 b6 cb 3d 67 b1 05 bd 0c f3 a8 3e 6a db eb 3e
       0.099469945 -0.032639887 0.3299793 0.46065837
000390 42 07 fd 3d 9a 1c 57 bd 25 cc ac 3d 78 e8 6f 3e
       0.123549 -0.05251751 0.08437375 0.23428524
0003a0 34 ad e2 3d c1 fb b2 be 29 62 17 bd 6d 5d b1 3e
       0.11068192 -0.34957698 -0.036958847 0.3464159
0003b0 8e db 35 be 23 b6 95 be 6c 4f 44 bd d8 e4 86 3e
       -0.17759535 -0.29240522 -0.047927305 0.2634647
0003c0 29 3d 66 bd 35 6e b3 3e a0 ea d6 3e 98 a0 d0 3e
       -0.05621067 0.3504502 0.4197588 0.40747523
0003d0 5e bd 0e 3d fe d9 87 be 70 b1 82 3e 96 78 d7 3e
       0.034848563 -0.26533502 0.25526 0.42084187
0003e0 c7 2c 9c 3e 30 bb fa 3e 12 73 0f 3f 02 72 43 3e
       0.30502912 0.48970938 0.5603496 0.1908646
0003f0 0f 14 81 be d9 25 8f 3e 6a 18 3c be 15 20 25 3e
       -0.25210616 0.27958563 -0.18368688 0.1612552

g_model.conv1.bias f4 [32]
000000 24 7c d1 3d df 8d a3 3e 5b 44 4a 3e d9 4c 83 3e
       0.10228756 0.31944177 0.19752638 0.25644568
000010 b2 95 23 be f7 df 1f bd c7 81 e6 bd 0a 58 db bd
       -0.15975073 -0.03903195 -0.11255222 -0.107101515
000020 1d b6 86 3e b7 6d f6 3d ba c2 cf 3b fe 40 84 3d
       0.26310816 0.12032645 0.006340352 0.06457709
000030 11 4a 95 bd 9a f4 dc 3c 99 c7 74 3c e3 84 59 bd
       -0.07289518 0.026972104 0.014940166 -0.053105246
000040 2c bc 0c 3e 2b 28 29 3e 0c 4d 75 3e ff b9 72 bd
       0.13743657 0.16519229 0.23955172 -0.05925941
000050 3c ee f6 3d be 98 da 3d cd ab 55 bd 58 6a 71 bd
       0.12057158 0.106736645 -0.052165795 -0.058939308
000060 76 53 2d bd 1f 1e 11 bd 88 2c d5 bc a9 e7 97 bd
       -0.042315923 -0.035429116 -0.02602221 -0.074172325
000070 1b 22 ec bc 3a 6b 8b 3e 0b f7 2d 3e 1f a2 7e 3e
       -0.028824857 0.27230245 0.1698877 0.24866532

g_model.conv2.weight f4 [32, 32, 3, 3]
000000 8a db af bb 0c 5e 85 3d 38 0b a9 bd ed 5b bc 3d
       -0.0053667473 0.06512079 -0.08254093 0.09197221
000010 a5 6c 8a bc 65 c1 51 bd af f7 5f 3d e7 e4 ef 3c
       -0.016897509 -0.051209826 0.05467957 0.029283954
000020 0a de 87 bc 9f 91 98 3d 94 57 92 bc de fd 4e bd
       -0.016585369 0.0744965 -0.017864026 -0.050535075
000030 6f 90 d8 bb 19 a2 ca 3c 86 a5 12 bc 49 39 89 bc
       -0.0066090147 0.024735497 -0.008950597 -0.016750949
000040 b4 e7 37 bd c3 2c 0d bd 65 02 55 3c 4e ca c6 3d
       -0.044898704 -0.034466516 0.013001059 0.09706555
000050 08 98 12 bc 80 a7 c9 3d 2c e3 0a 3d 81 be 95 bd
       -0.00894738 0.09846401 0.033908054 -0.07311726
000060 75 4d 5e 3c 8b 1f 8a 3d 98 6e 1a bd 6a cb 37 bd
       0.013568272 0.067442976 -0.037703127 -0.044871725
000070 78 69 48 3d b9 f5 98 3d e1 ae 0e bc 1f e5 b0 3d
       0.048928708 0.07468743 -0.008708687 0.086374514
000080 9c a0 07 3d da c4 7d 3d a1 d2 8a 3d 56 90 62 bd
       0.033112153 0.06195531 0.067784555 -0.05531343
000090 6c fd a9 3c 8d 83 87 3c cc 5e 4b 39 9e b6 19 3d
       0.020750724 0.01654222 0.00019394903 0.037527673
0000a0 ea db 17 3d 57 d0 42 3d c7 d3 72 3d e1 dd 73 3d
       0.03707496 0.04756197 0.059283998 0.059537772
0000b0 2e 28 7b bb c2 39 6b 3d c1 3b ac 3d a5 e6 4b bd
       -0.003832351 0.05742813 0.08409835 -0.049780507
0000c0 f3 68 14 3e ee 32 44 3d 75 85 95 bd e9 d6 b0 3d
       0.1449316 0.047900133 -0.073008455 0.08634741
0000d0 d7 a0 30 3b ab ba a8 bd 66 59 5f 3d 51 d6 4c 3d
       0.0026951337 -0.08238729 0.054528616 0.050009076
0000e0 f6 b0 a6 bd 17 b8 0e 3e 78 8c 73 3d 6e 1c 72 bd
       -0.08139221 0.13937412 0.059460133 -0.059109144
0000f0 51 d0 d3 3d 10 4c 58 bd 18 63 eb bd 7d 4d 05 bd
       0.103424676 -0.052806914 -0.1149351 -0.0325446
000100 2b c6 b0 bd e4 9e f4 bd 19 85 a8 bd ae f8 1a be
       -0.086315475 -0.119443685 -0.08228511 -0.15133926
000110 a0 9d 7e bd 11 04 c0 bd ec 09 4b be 16 3a 98 bc
       -0.06216204 -0.093757756 -0.19828004 -0.018582385
000120 1e c0 27 bc da 66 44 bd b6 9c a9 3b b6 0d 80 bd
       -0.010238675 -0.04794965 0.005176152 -0.06252615
000130 81 19 c8 3d 6d a3 35 3a e2 34 0c bb 00 b2 c9 3c
       0.097704895 0.00069289544 -0.0021393825 0.02462101
000140 a5 13 26 3d 9b b6 9d 3d 03 8f b2 3d ab 01 13 3d
       0.04054608 0.07700845 0.087186836 0.035890263
000150 f9 1a c2 3d fb 9f a6 3c ee b5 d2 bc fc ee d8 3d
       0.09477801 0.020339957 -0.025721516 0.10592458
000160 87 f5 6f bc 84 5e b3 bd 39 6d 51 3d 3a c9 0c 3e
       -0.014645941 -0.08758262 0.051129553 0.13748637
000170 f7 aa 21 bc 76 2a 14 3e 7d ed e5 3d a6 5a a9 bc
       -0.009867421 0.14469323 0.11226938 -0.020673107
000180 42 d9 9e 3d 31 fb 5e bd 05 db e5 bc 31 ad ba bd
       0.077562824 -0.054438774 -0.028058538 -0.09115065
000190 da 1a bd bd 4d e9 66 bd 06 14 15 be d9 e7 d8 bd
       -0.09233637 -0.056374837 -0.1455842 -0.105910964
0001a0 aa e5 83 bb ef 03 ff bd 28 72 bb bd 1a cd f9 bc
       -0.004025181 -0.12451922 -0.09152633 -0.030493308
0001b0 49 f3 bf 3d d5 e5 b1 3d ee 2d 0c 3b 03 e8 8d 3d
       0.09372575 0.08686415 0.002138968 0.06929018
0001c0 fb a7 1d 3c a1 f0 19 be 66 1c c0 3c f8 9f 94 bd
       0.009622569 -0.15033199 0.023451041 -0.07257074
0001d0 0d ab df bd e7 72 9a 3c 84 47 d4 bd ac 20 a4 bd
       -0.10921297 0.018853618 -0.10365203 -0.08014044
0001e0 86 ab bb bd f2 d9 5f 3b 75 58 ea bc 2f 09 05 bd
       -0.09163575 0.0034157005 -0.028606633 -0.03247946
0001f0 05 0a db bb c9 ce 8b bd 81 a9 9e 3d 13 2e 96 3d
       -0.006684544 -0.068265505 0.07747174 0.07333007
000200 1a 99 3d be da 8c 74 3c 05 91 43 bd f0 b9 97 bd
       -0.18515435 0.01492616 -0.047745723 -0.07408512
000210 fb ac 07 be 2b 84 de bd 9c ed b0 bd d9 f0 19 3d
       -0.1324958 -0.10865053 -0.086390704 0.037583206
000220 8e 6f a1 3d 7a 3b e4 bc b0 c4 1e 3e 82 06 cc 3d
       0.078826055 -0.027860392 0.15504718 0.09962179
000230 a7 08 ad bd ad 60 98 3d aa da 12 bd 0d 44 f6 bc
       -0.08448916 0.074403144 -0.035853066 -0.030061746
000240 d0 69 e1 3d 09 b2 7c bc 6c 83 dc bd 61 1b 9c 3d
       0.1100651 -0.015423306 -0.10767254 0.076224096
000250 bb 83 5b bd 0c 46 00 3d 32 76 69 bd 00 53 eb bd
       -0.053592425 0.031316802 -0.056997485 -0.1149044
000260 11 e8 0b 3d 64 78 c2 bc 58 ab 4d 3c 03 1c 73 bd
       0.034156863 -0.023739047 0.012553059 -0.059352886
000270 12 b7 a3 ba 87 3a bc bd 59 c8 b8 bd cf 8e 80 3a
       -0.0012490472 -0.09190851 -0.09022588 0.0009808185
000280 e4 5e 14 bb 41 fb b8 bb 26 55 f5 bc 56 27 d9 3c
       -0.0022639567 -0.005645186 -0.029947829 0.026508015
000290 2f 9c 8f bd 0a 80 28 bc c3 01 16 bd 9c 21 24 3c
       -0.070122115 -0.010284433 -0.036622774 0.010017779
0002a0 5c bb a4 3d d8 fb ca 3c 53 52 22 bc ae 67 96 3d
       0.080435485 0.024778292 -0.009907323 0.07343994
0002b0 fb 3c 50 3d d3 2e 35 bd fb 81 18 3e d9 c1 4b 3d
       0.050839406 -0.04423411 0.14893334 0.049745414
0002c0 c1 4a 10 be 0d cb ec 3d fa 7d fc bb 8a 4e dc bc
       -0.14091016 0.11562166 -0.0077054473 -0.02689292
0002d0 0c db 30 bd 73 62 bc bc e1 c8 7e bd 8e 5c 5f 3d
       -0.04317765 -0.022996163 -0.06220329 0.054531626
0002e0 4d a7 44 3d 1f ec 9c bd 38 00 41 3c 84 77 6a 3c
       0.048011113 -0.07662224 0.011779837 0.014310721
0002f0 6c b4 22 bd 8c 27 da bb de 53 8c bb 92 86 91 3d
       -0.039722845 -0.0066575464 -0.0042824587 0.071057454
000300 29 99 94 bd 9d 33 32 3c ab 70 ae bc 87 9a 87 3d
       -0.072557755 0.010876563 -0.021293959 0.066212706
000310 19 56 94 3d cf 48 7a bd a2 e0 ec 3d 9b 91 9e 3d
       0.07242984 -0.061104592 0.11566283 0.07742616
000320 86 a0 6d bd 0a 0c 6a 3d 88 fb 57 3d 7e e0 fc bd
       -0.058014415 0.057140388 0.052730113 -0.12347506
000330 41 88 03 3d 85 06 93 bd a0 02 83 bd 1c c9 e1 3d
       0.032112364 -0.07178978 -0.06396985 0.11024687
000340 5c e8 64 3d 47 83 d3 bd 38 bd 46 3d 7f c5 a9 bd
       0.055885658 -0.103277735 0.048520297 -0.082896225
000350 a5 fc ce bd e0 97 8e 3d 0e ba d5 bd b9 b5 82 bd
       -0.10106782 0.069625616 -0.10435878 -0.06382317
000360 4d fe d2 bd b9 07 02 3e 42 bc bc 3d 71 13 0c 3d
       -0.1030241 0.12698258 0.09215595 0.03419823
000370 6c e1 0b 3e b1 24 34 bd 6e 31 23 3e e7 aa ba 3d
       0.1366021 -0.043980304 0.15936825 0.09114628
000380 1a 62 ce bd d1 c1 59 3c 3a c4 21 3e 69 a1 38 3d
       -0.10077305 0.013290838 0.1579751 0.045075808
000390 5b 0a 4c 3d fa d7 83 3d 1c a2 26 be 45 65 08 3e
       0.049814563 0.06437679 -0.16272777 0.13319881
0003a0 c9 64 91 bd 44 26 a4 bd 02 ef fb 3d fa 0d b9 3a
       -0.07099301 -0.08015111 0.123014465 0.0014118545
0003b0 95 bc f2 bd 79 f5 b0 3d 30 8c c5 bd d5 dc e1 bd
       -0.118523754 0.0864057 -0.09645879 -0.110284485
0003c0 30 2b 27 3d 31 6f 42 bd dd 6e a5 bd e3 a5 29 3d
       0.04081267 -0.04746932 -0.08077786 0.041417968
0003d0 0f 69 c8 3d 5e 26 10 3c d4 1b 09 3c b6 72 c1 3b
       0.09785663 0.00879821 0.008368451 0.005903567
0003e0 05 5c e9 bd c8 5b dd 3c 1f 8b 56 3d 54 0d 01 be
       -0.113945045 0.027021304 0.05237877 -0.1260274
0003f0 f5 a6 a0 3d 45 61 c3 3c a2 a8 df bd 50 61 0a 3e
       0.078443445 0.023850093 -0.10920836 0.13513684

g_model.conv2.bias f4 [32]
000000 10 4f 06 3d e4 55 55 3d b7 33 fa bc a7 50 72 bd
       0.032790244 0.052083865 -0.030542238 -0.059158947
000010 4c 47 22 bd ea 42 93 bd ed bc 51 3b 39 3f a2 bd
       -0.039618775 -0.07190497 0.0032003478 -0.07922215
000020 ee 91 f5 3b ce 33 30 3c 15 a8 f4 3c ce 24 1e bb
       0.007494203 0.010754539 0.029865304 -0.0024130824
000030 94 7a 5e 3d 9a 14 9c 3d d3 99 1d bd eb e9 94 ba
       0.05431612 0.07621117 -0.038476776 -0.0011361217
000040 49 42 54 bd 2e 96 1d bb 1b 42 d1 3c 5e 6e 1f 3c
       -0.051821027 -0.0024045813 0.025544217 0.009730903
000050 b1 ef 55 bc 65 bd 98 bd 86 30 95 bd 0a 03 50 3d
       -0.013057635 -0.07457999 -0.07284646 0.05078415
000060 2f e6 a5 bd f4 42 76 bd b6 29 87 bd af b5 50 bd
       -0.08100545 -0.060122445 -0.065997526 -0.050954517
000070 9b 75 44 3d 9b 57 89 bd 51 de 35 bd 66 72 9a bd
       0.04796372 -0.067061625 -0.04440147 -0.07541351

g_model.fc1.weight f4 [128, 800]
000000 a3 06 36 3c 75 ab ec bd 59 4a 21 be 7b ec 96 bd
       0.011109981 -0.1155614 -0.15751018 -0.07369324
000010 e4 b4 17 b8 77 da e6 3c 21 3a 3e bd 88 9f 06 bd
       -3.6169673e-05 0.028180344 -0.046442155 -0.032866985
000020 8f c6 97 3b c3 f3 f6 bc 87 23 a2 3c 57 c2 50 bc
       0.0046318243 -0.030145532 0.019792331 -0.012741647
000030 b8 6f 8f bd 94 f8 b4 bc 95 dc a3 3b e4 ed a1 bd
       -0.070037305 -0.022091188 0.0050006607 -0.07906702
000040 e3 3b bf bd ae 23 48 bd 36 1d 6c bc 5f 21 e8 3c
       -0.09337594 -0.04886215 -0.014411261 0.028336225
000050 fd 29 5c bc ee 1f 74 bc 73 ea 00 3d 21 a7 84 3d
       -0.013437745 -0.014900191 0.03147359 0.0647719
000060 2a 78 51 3b 3f 48 bb 3c da ac 28 bd c0 c2 16 be
       0.0031962493 0.022861598 -0.04118047 -0.14722729
000070 16 e6 c5 bd 64 db 4d bc 6c e7 3d bc ef 96 15 bd
       -0.09663026 -0.012564514 -0.01159082 -0.036520895
000080 68 29 a0 bd 75 2b 3e bd 27 70 05 3d 8a 97 0c 3d
       -0.078203976 -0.046428163 0.03257766 0.034324206
000090 f6 57 90 bd 18 da ed bc cf b8 f1 3c f4 cb 02 3d
       -0.07048027 -0.02903466 0.029507069 0.031932786
0000a0 a7 c0 b6 3c 45 be a3 bd 6f c5 eb bc 4f 90 bf bb
       0.02230866 -0.079952754 -0.028780667 -0.0058460603
0000b0 60 b1 9f 3c 23 3f 96 3c 46 5f a0 3b bc 6c 9c 3d
       0.019493759 0.018340653 0.00489417 0.07637927
0000c0 c5 04 69 3d 14 b5 27 bd 35 f3 70 bc 5d 59 ae bc
       0.056889314 -0.040944174 -0.014706423 -0.021282846
0000d0 b5 e3 19 bc b6 f4 e2 bc 11 48 7d bc 15 53 36 bd
       -0.0093926685 -0.027704578 -0.0154590765 -0.044512827
0000e0 8b d1 2d 3c 64 e7 cf 3b 6f 6e 02 3d f0 8a 44 bd
       0.010609041 0.0063447226 0.0318436 -0.047984064
0000f0 68 8c a2 3c be c0 36 ba c1 87 62 bc 68 3f c1 3c
       0.019842342 -0.000697147 -0.013826312 0.023589805
000100 cb f3 84 3c 20 06 83 bc 6d 96 19 3d ea 56 96 3c
       0.01622953 -0.015994132 0.037496973 0.01835199
000110 86 26 d6 3c cb 60 28 3d d6 26 9b bc 77 b2 09 bd
       0.026141416 0.041107934 -0.018939417 -0.033617463
000120 ae b8 f5 bc bf cf ac bc 7c e0 71 3c 6c 33 b7 3c
       -0.029995289 -0.021095155 0.014762994 0.022363387
000130 99 a8 85 bc 6c 99 94 3b a7 5e 97 3c e0 3d 70 bb
       -0.016315745 0.004534891 0.018477751 -0.0036657974
000140 9a 45 df 3c 76 91 35 3a 87 27 62 3c 6f ab 4a 3d
       0.027254868 0.00069262774 0.013803369 0.049479898
000150 b5 d0 e5 3c 2f ec 8b bc 40 bd 3a 3d 64 a4 80 3d
       0.02805362 -0.017080395 0.04559064 0.06281355
000160 b0 b9 85 bc 7e 71 f3 bb 20 a4 aa bb 92 07 4d 3c
       -0.016323894 -0.007429301 -0.0052075535 0.012514012
000170 97 2d 11 3d f8 3b 21 bc 6d d9 52 bc 0c 0e a0 3b
       0.03544387 -0.009840958 -0.012869221 0.004884487
000180 4f 82 ed 3b 33 26 70 bd 63 b4 70 bd 63 34 29 bc
       0.0072482 -0.05863018 -0.05876578 -0.010327431
000190 40 6c 27 3b 19 fb 31 bd 62 0b 0c bc 05 da 26 ba
       0.00255467 -0.043452356 -0.008547636 -0.0006364885
0001a0 eb 0f 94 3c 9e e5 00 bd f0 ff b1 3c 92 6c 66 3d
       0.018073997 -0.03146898 0.021728486 0.056255884
0001b0 32 13 74 3d 6a f3 c5 bb 18 b4 1c 39 cf f9 84 3d
       0.05958862 -0.00604098 0.0001494441 0.0649296
0001c0 01 0d a3 3c 2c ce 0e 3c 01 15 7f bb 8f 0f 25 bd
       0.019903662 0.008716147 -0.0038922431 -0.04029804
0001d0 5f 2d a7 bc be ce 8c 3b 3a 0f ee 3c 42 25 d6 bc
       -0.020407377 0.0042971065 0.029059995 -0.026140813
0001e0 a3 82 a2 bc 07 22 e3 bc ec 9b 56 bd 10 ac 00 bd
       -0.019837683 -0.027726186 -0.052394792 -0.03141409
0001f0 c5 e2 b9 bb 51 62 ed 3c 6f c0 04 3d 38 f8 7c 3c
       -0.005672785 0.028977545 0.03241008 0.015440039
000200 f8 66 92 bc 4f 22 e7 39 2b 2d 9e bc b7 ee 30 3d
       -0.017871365 0.00044085315 -0.019308647 0.043196406
000210 2e 1b a8 bb a9 b6 53 3b be 0e 9a 3c 62 43 a2 bc
       -0.005130193 0.003230492 0.018805858 -0.019807521
000220 9f 89 ec 3c 4e 91 8c 3c d0 38 0b 3d d4 11 07 3d
       0.028874217 0.01715913 0.033989727 0.032975987
000230 60 86 2c 3c d9 9c a5 3c c2 d0 97 3c 47 a6 2c bc
       0.010530084 0.020216392 0.01853216 -0.0105376905
000240 d9 ad b0 3c 2d f0 eb bb bd ff bb 3c 7f 1f e2 ba
       0.021567272 -0.007200262 0.022949094 -0.0017251818
000250 be ff 48 3c 6c 4d 44 3c e0 f1 b0 bc 4e dd 91 bc
       0.012268005 0.011981349 -0.02159971 -0.017805722
000260 bf b8 b7 3c 28 3d 61 3c 1a 15 98 3c e9 84 95 bc
       0.022426961 0.013747491 0.01856475 -0.018251853
000270 11 d6 fd 3c 04 09 43 3d 62 66 74 3c 01 e6 fc 3c
       0.030985864 0.04761602 0.014916988 0.030871393
000280 b3 ed e9 3c 7d 02 34 3d 52 44 1a 3c 84 40 0e 3c
       0.028555727 0.043947686 0.009415703 0.008682374
000290 59 ab 33 bd be 6a 29 3b e8 d5 24 3d 0a 63 53 bb
       -0.04386458 0.0025850977 0.04024306 -0.0032255077
0002a0 41 8f b8 bc b9 f8 61 bc db 41 dd ba 24 f1 9e bc
       -0.022529246 -0.01379221 -0.0016880588 -0.019402094
0002b0 ef aa 3d bc 3c 49 cf bc 15 f3 24 bd 86 8e 4d 3a
       -0.011576398 -0.025303476 -0.040270884 0.0007841367
0002c0 ff 49 35 bc 22 da 00 bd 87 25 01 bd a2 b7 f5 bc
       -0.011065005 -0.031458028 -0.03152993 -0.02999479
0002d0 42 f9 c1 3c 1f 10 1a 3d 9a 79 9a ba 10 f9 29 bc
       0.023678426 0.03761303 -0.0011785508 -0.0103743225
0002e0 f1 3f c4 3c 9a 07 1f bd 68 52 07 3d e8 b8 eb ba
       0.02395627 -0.03882561 0.033037573 -0.0017984184
0002f0 d1 57 24 bd 8e 23 af bc f8 13 3c bc 80 7a 06 3c
       -0.04012281 -0.021379258 -0.01147937 0.008207917
000300 18 a9 08 bb 46 3b 0a 3d 51 0f 06 3d db 3a 1b bd
       -0.002085274 0.033747934 0.03272945 -0.037897926
000310 18 b3 0a bd f9 7d 64 bb 68 9f 5a bc 59 40 5b 3b
       -0.033862203 -0.0034865125 -0.0133436695 0.0033455102
000320 d2 10 71 bc 2a 87 8c 3d 04 46 01 3d 1a 8e 65 3d
       -0.014713483 0.06861718 0.031560913 0.05604372
000330 19 93 15 3d 0a 26 2f bd d4 22 75 3c 0a c4 8f 3c
       0.036517236 -0.042760886 0.014961917 0.017549533
000340 40 7e d8 bc 62 68 35 3d d9 b3 d6 bb 63 bb e6 ba
       -0.026427388 0.044289 -0.006552201 -0.0017603453
000350 bf e0 42 3d 00 2b a3 bc ee 27 7c 3d ac 3c fd 3c
       0.047577616 -0.019917965 0.061561517 0.03091272
000360 6a d2 36 3d 2f c7 fd 3c 8f 32 b8 bc 14 cd e6 3b
       0.04463426 0.030978767 -0.022485046 0.00704349
000370 97 f0 3b 3d bf c6 a8 3d 15 1c c6 3b 4f c8 49 bc
       0.04588374 0.08241033 0.006045828 -0.012315824
000380 c9 d9 90 3c 5f d5 cf 3c cc 85 e4 3b c9 8d 36 bc
       0.017681973 0.025370298 0.0069739576 -0.011142203
000390 40 e6 98 bc 51 f9 08 bc 98 8b 20 bc 95 2f 8f 3b
       -0.01866448 -0.008360223 -0.009798907 0.004369686
0003a0 28 20 c5 bc 8e 05 04 bd d8 98 45 bd 85 e7 e7 bc
       -0.024063185 -0.03223186 -0.048241466 -0.02830864
0003b0 95 40 02 bc 9b ae 18 bd 1d b1 e4 3c 98 8a 35 3c
       -0.007949968 -0.03727589 0.027916485 0.011080407
0003c0 2c 1a db bc 48 ba 2d bd 50 ee 0f bd 8f 36 44 3d
       -0.026745878 -0.04241398 -0.035139382 0.047903594
0003d0 24 ae d5 3c af 15 54 3c 47 ba 13 bc 1b 09 4d bb
       0.026084013 0.012944623 -0.00901658 -0.0031285945
0003e0 67 f6 fc bc af b9 00 3d eb 7f 30 3b e7 82 df 3c
       -0.030879213 0.03142708 0.0026931714 0.027284099
0003f0 5f 2f 35 3c 03 1a 3b bd 57 ff d3 bc 39 52 4e 3b
       0.011058657 -0.045679104 -0.025878591 0.0031482114

g_model.fc1.bias f4 [128]
000000 29 d3 fe bb d2 a2 c9 3c 4a b4 c1 bc 6f 30 fc 3b
       -0.007776637 0.024613772 -0.023645539 0.0076962034
000010 d1 8e ac bc c5 29 84 3c 71 15 67 bc 5c 0c fe bb
       -0.021064194 0.016133199 -0.014104233 -0.007752938
000020 35 67 92 bc 6a 9f 2e bc 3f 4b d0 3c 05 a9 b1 bc
       -0.017871479 -0.010658124 0.025426505 -0.02168704
000030 9c 47 0d bc 8b 2c a2 bc e3 f0 f6 bc d8 9b 04 ba
       -0.00862303 -0.01979663 -0.03014416 -0.0005058623
000040 95 eb 1f 3b b4 6e 02 3a 34 1c c0 bc 60 d4 60 bb
       0.0024401892 0.00049756025 -0.023450948 -0.0034306273
000050 43 31 df 3c a4 91 d7 3b 5c 73 1d bd ec 4d 99 3c
       0.02724517 0.006578641 -0.038440093 0.018713914
000060 96 78 4c bc 11 3c af bb 86 93 3f 3d 50 58 94 3c
       -0.012479922 -0.0053477366 0.04677155 0.018108517
000070 21 61 0f 3d 03 f2 82 bc ae 9f 17 3d d8 a0 91 bb
       0.03500474 -0.01598454 0.037017517 -0.004444223
000080 5e 3c 82 3c 51 b6 02 bd 35 9b d5 3c 45 e9 98 3c
       0.015897926 -0.03191215 0.026074985 0.01866592
000090 6a b3 c6 bc ec 1a 3b 3c 07 f6 95 bc 87 29 d5 3b
       -0.024255473 0.011419993 -0.018305792 0.0065051946
0000a0 2e c6 5b 3d 96 07 9f bc d8 1c 00 3d 8e 80 55 bc
       0.053655796 -0.019412797 0.031277508 -0.013031138
0000b0 f3 16 da 3c 60 d6 2f 3c 02 24 92 3a 0b a2 74 bc
       0.026622271 0.010732263 0.0011149647 -0.014931212
0000c0 26 49 80 bb 69 15 00 3c 90 90 22 3d 47 e2 c3 3c
       -0.00391497 0.007817605 0.039688647 0.023911608
0000d0 3d d8 1b 3d 38 e2 03 3d 97 c4 9c 3c 8f 39 34 3d
       0.038048018 0.03219816 0.01913671 0.044000205
0000e0 7d d9 c3 3c 8b aa 4a bb a4 41 8d 3c eb 94 36 bc
       0.023907417 -0.0030924405 0.017243214 -0.011143903
0000f0 55 b2 0d bd 43 2a d9 3c 00 97 2b bd c8 73 06 3d
       -0.0345939 0.02650941 -0.04189205 0.03282526
000100 9f 4a 88 bb 83 9c cf 3b 52 a8 d9 3c 69 5c d6 3c
       -0.004159286 0.0063357963 0.02656952 0.026167111
000110 9e 79 44 3c 42 1e 58 bc 0a 94 1e bc 35 78 59 bc
       0.011991886 -0.013190808 -0.00967885 -0.0132732885
000120 f7 31 00 bd e8 72 e2 3c 6b 16 cc 3c ba 90 5f bc
       -0.03129765 0.027642682 0.024913033 -0.013645345
000130 58 a5 89 3c 82 c3 3f bd 5e 64 5a 3c 01 e5 af bc
       0.016802475 -0.04681731 0.013329593 -0.021471502
000140 06 14 3f bc 9e ec b2 bb 66 61 23 3a 7b bd b0 ba
       -0.011662489 -0.005460336 0.000623247 -0.0013484204
000150 40 e6 82 bc bc b3 cd 3c f4 a4 72 bc 20 ba bf 3c
       -0.015978932 0.025110118 -0.014809836 0.023404181
000160 79 ae 3b 3c 10 4b fa 3c 89 0b 03 3d d6 59 c2 bc
       0.011455172 0.03055337 0.031993423 -0.023724478
000170 0c 91 7a 3c d5 ba 03 bd 12 9d 06 3d 11 22 68 bc
       0.015293371 -0.0321606 0.032864638 -0.014168278
000180 7e 03 3a bc 28 7b 18 3c c3 77 b6 3c 20 87 63 3c
       -0.011353372 0.0093067065 0.022273904 0.013887197
000190 a8 13 03 bd 34 3f 1b 3d 64 6d e7 bc 8c ad 85 bc
       -0.032001168 0.037902072 -0.028250404 -0.016318105
0001a0 3b 9b 33 bb 80 07 6f 3c 6a ab 94 bc c1 9a 97 3a
       -0.0027405757 0.0145891905 -0.018148143 0.0011566506
0001b0 82 f1 b9 3c a2 76 e7 3c a4 69 fa 3b 62 8b 84 3c
       0.022698168 0.02825481 0.007641988 0.016179744
0001c0 96 ff e4 3c 0e 0c 88 3c b5 52 df 3c 81 72 32 bc
       0.027953904 0.01660731 0.027261117 -0.010891558
0001d0 67 ef d9 bb 2a eb af bc 62 7d 9f bc ba 42 fb 3c
       -0.0066508534 -0.02147444 -0.019468967 0.030671466
0001e0 66 7f ad bb c3 63 b9 bb 2f 88 23 3c 76 68 73 3c
       -0.005294728 -0.0056576445 0.009981199 0.014856448
0001f0 a7 dd 13 bd 75 b3 96 3b 38 37 b4 bb c8 70 4e 3c
       -0.036100056 0.0045990297 -0.0054997467 0.012600131

g_model.fc2.weight f4 [16, 128]
000000 41 7c 15 bd ba a0 b7 3a 1a f3 b0 bd 72 10 68 3d
       -0.03649545 0.0014009692 -0.08640118 0.05665631
000010 83 9f ce bd 7b 16 0f be ae 75 5f 3c 40 02 81 3d
       -0.10089018 -0.1397342 0.013638897 0.06299257
000020 9d e6 08 3c 5e 3c 9a bd 6b 31 74 bd 4c 38 82 3d
       0.008355764 -0.075310454 -0.05961744 0.06358394
000030 f7 69 33 3b b0 61 f0 3c fe 48 7e 3d 2b 9e 21 3c
       0.0027376392 0.029343456 0.06208133 0.00986437
000040 21 85 a2 3c 21 84 da 3c e1 7d 55 bc 7d 81 b4 b9
       0.019838871 0.026674332 -0.0130305 -0.00034428752
000050 5b b0 9c bd b8 78 5e bd 1f a0 b8 bd e1 68 3d 3d
       -0.07650825 -0.054314345 -0.09014916 0.0462426
000060 7b a6 81 bd 74 c6 19 3e 67 a8 cd 3d b5 3e b1 3d
       -0.06330582 0.1501711 0.10041886 0.086545385
000070 30 4b e8 3d bf 71 c8 3c eb ba 00 3d a4 d2 48 bd
       0.11342466 0.0244683 0.03142826 -0.049029008
000080 bc 71 df bb 21 1b be 3d 52 1e 9b 3d 9f c4 82 3d
       -0.006818978 0.09282518 0.075741425 0.06385159
000090 15 70 3f 3c c9 7f de bd 03 91 44 bd 33 36 97 bd
       0.011684437 -0.10864217 -0.047989856 -0.073833846
0000a0 c2 de 7b bc 60 a4 4e bd ea 30 9f bd 48 85 a4 bd
       -0.015372934 -0.05044973 -0.077730015 -0.08033234
0000b0 c0 54 5c 3d f0 cf 6b 3d 72 2c d6 bc 91 f9 cc 3d
       0.05379176 0.05757135 -0.02614424 0.100085385
0000c0 79 c7 7e bd 93 98 64 bd 4f 9b 67 3d 63 91 ad 3d
       -0.06220195 -0.05580957 0.0565446 0.08474996
0000d0 b6 1e 1e bd 66 00 a4 3d 93 4e e7 bd 64 d3 e0 3d
       -0.038603507 0.080078885 -0.11294284 0.109778196
0000e0 dc db 34 bd bf 5a e4 bb c1 81 50 3d 75 43 c4 3b
       -0.044154987 -0.0069688256 0.050904993 0.005989487
0000f0 75 34 75 3c 30 3a 5c bd 47 71 80 bd ef ab 32 3c
       0.01496612 -0.05376643 -0.06271606 0.01090525
000100 3d e7 ae bd 09 d2 63 bd de ae 20 bd fd 9a 34 bd
       -0.08540199 -0.055620227 -0.039229266 -0.04409312
000110 02 80 d6 bd e9 9b 6d 3c 2d 91 b7 bc c0 d3 00 3e
       -0.10473634 0.014502504 -0.022408092 0.12580776
000120 7c c0 35 bc e6 ee 66 3d 9f 40 18 bd 0a 79 9e bd
       -0.011093255 0.056380175 -0.037171002 -0.0773793
000130 2d 4e ab 3d f8 76 5e bd 33 af be bd 23 76 5b 3c
       0.0836452 -0.054312676 -0.0931076 0.013394865
000140 63 be bb bd b9 3a b6 3d eb 38 56 bc 2e eb c4 3c
       -0.09167173 0.08897919 -0.013075094 0.024037924
000150 42 26 a5 bc 95 ff a0 3d ee 58 a1 3d 4a 15 cc bd
       -0.020159844 0.078612484 0.0787829 -0.09964998
000160 54 30 8f 3d 59 64 ae bd b8 cd 85 bd 8f 27 89 bd
       0.0699164 -0.085152335 -0.06533378 -0.06696998
000170 52 12 60 3d ad 77 bd 3d b4 78 c9 bd 03 8b 40 bd
       0.05470497 0.09251342 -0.098374754 -0.047007572
000180 e0 29 3e 3d 73 2f a0 bd 19 d0 6c 3d 84 a4 a7 bc
       0.046426654 -0.0782155 0.057815645 -0.02046419
000190 fb d3 25 bd 50 9b 1c 3e df 97 48 3d 56 b3 9d bd
       -0.040485363 0.15293622 0.04897296 -0.07700221
0001a0 3d 7d 3e bd e5 8d 1b 3c 21 ee 7b 3d f9 77 b5 3c
       -0.046506155 0.0094942795 0.061506394 0.022151934
0001b0 1c 7a b2 bd f9 7e 6b 3c a5 23 98 3c a2 44 f8 bd
       -0.08714697 0.014373534 0.018571684 -0.12122466
0001c0 6b ad 40 bb cc 48 de bd 86 4c 16 bd a1 77 8c 3d
       -0.002940024 -0.10853729 -0.036694072 0.06858755
0001d0 32 5b eb 3d 24 f9 9e ba 62 06 a0 bd 4d 7d cb 3d
       0.114920035 -0.0012128693 -0.078137174 0.099360086
0001e0 e8 c4 24 bd b7 d5 70 bd 8c e6 b8 3d ca 51 49 3d
       -0.040226847 -0.058797564 0.09028348 0.049150266
0001f0 33 02 39 3d 82 c2 98 3d 8c 29 e1 bd 51 16 d5 bc
       0.045168113 0.074589744 -0.109942526 -0.026011618
000200 f7 73 21 be 1d 27 27 3d d0 7d f7 3d b5 af db 3c
       -0.15766893 0.040808786 0.12084544 0.026817182
000210 5d 59 fb bc b1 91 f4 3d ed fb e0 3d c1 ee 12 bd
       -0.03068226 0.11941851 0.10985551 -0.035872225
000220 53 e4 96 bc 7a 58 07 be 0f 5c 61 bd 72 d3 b1 bd
       -0.01841942 -0.13217345 -0.055019435 -0.08682908
000230 28 c5 05 bc c6 5f 8a 3d 22 81 b4 bc 17 a0 89 bd
       -0.0081646815 0.067565486 -0.022034232 -0.06719988
000240 9b 23 8c 3d 66 1d 3b 3d 37 cc 33 bc 79 90 f8 3d
       0.06842729 0.045682333 -0.010973982 0.12136931
000250 ba 32 6c 3d 2f 9a 9f 3d 0d 60 35 bd 7c fd 8c 3d
       0.057665564 0.0779308 -0.044281054 0.06884286
000260 0b 99 86 3d 8b 76 ae bc c3 dc 00 be 33 58 9a 3a
       0.065721594 -0.02129676 -0.12584214 0.0011775553
000270 71 8e f6 3c d9 db 73 3d 8d 9c 0c be 49 c4 49 3d
       0.030097218 0.059535835 -0.13731594 0.049259458
000280 b4 13 c4 bd d7 b2 90 bd 64 82 21 3d a4 7b ef bd
       -0.095740706 -0.07065361 0.03943099 -0.116935045
000290 f0 ff 5e bc eb 50 b2 3d 6b 88 93 3d 6a c2 11 3c
       -0.013610825 0.0870684 0.07203754 0.00889645
0002a0 cb 3c 62 3c 3e 28 2f 3d 4e 85 e8 3d 84 fe 95 3d
       0.0138084395 0.042762987 0.11353551 0.07323936
0002b0 3b 24 99 3d 4e b4 95 3d 21 ae 9b bd 6f 5c dc bd
       0.074776135 0.07309781 -0.07601572 -0.10759818
0002c0 72 96 4f 3d 1b 74 a6 bc 58 ed d3 3d 6e 89 c0 bc
       0.050680585 -0.020319035 0.10348004 -0.023503032
0002d0 08 90 a4 3d 27 5e 41 3c 8a 5a ff 3d 5a ce 1e 3d
       0.08035284 0.011802233 0.12468441 0.03877101
0002e0 95 61 54 bd 57 27 d1 bd ee 5d c2 bd 1e 87 c8 bb
       -0.051850874 -0.102125816 -0.09490572 -0.006119623
0002f0 a1 b7 79 bd 27 ad 45 3d 3f 05 1d be 7c cf c3 bb
       -0.060966138 0.048260834 -0.15334032 -0.005975662
000300 6c 0f f1 bc 97 e5 28 be a9 83 9b bd 31 06 83 bd
       -0.029426299 -0.16493832 -0.075934716 -0.06397665
000310 36 8e ee 3c 89 9d ab 3d 0e 82 ac 3d a7 1e 71 3e
       0.029120546 0.08379657 0.084232435 0.23546849
000320 98 05 46 bd fb 52 06 bd 8f 31 04 3d 48 d2 4b 3c
       -0.04834518 -0.03279398 0.032273825 0.012440272
000330 21 fb 59 3c c8 fb 21 3c 4d d6 f2 bc 53 85 97 bd
       0.013304503 0.0098866895 -0.029643202 -0.073984765
000340 b6 00 9f bc 5a 1c e4 bd d7 26 17 be 4f 53 34 3d
       -0.019409519 -0.1113822 -0.1476091 0.04402476
000350 e3 0a ae 3d d9 24 b3 3d c4 6e 1f bd dd 9f ce 3d
       0.0849817 0.087472625 -0.038923994 0.10089085
000360 f5 92 f2 bc 33 ce fc bc b5 fa cb 3b c1 66 a1 3b
       -0.02961109 -0.030860042 0.006224955 0.0049255793
000370 88 c2 89 bd 70 95 28 be 65 a3 02 be 3a 0f 1c bd
       -0.06726557 -0.16463256 -0.12757643 -0.03810046
000380 1b 76 4f bc ba 64 4a 3c d9 50 78 3d 12 37 4d bc
       -0.012662436 0.012353117 0.060623977 -0.012525337
000390 6d 0b 12 be 51 8c 53 bd f1 d1 65 bd 55 f7 1c 3b
       -0.14262171 -0.051647488 -0.05610842 0.0023951132
0003a0 a3 bc a2 3d 2e 62 e4 bd 28 8c e7 bc 4e 51 85 3d
       0.07946136 -0.11151539 -0.028265074 0.06509648
0003b0 8a 87 18 3c d8 b2 ab 3d db 5a 21 be b7 32 f7 3d
       0.009309659 0.08383721 -0.15757315 0.1207022
0003c0 2e 60 6c bd 69 0e cd bc 65 99 27 bd 14 50 31 bd
       -0.05770891 -0.025031285 -0.040917773 -0.04328926
0003d0 bf 22 e4 3c fe 91 d4 bc a5 87 ca bc 31 cc aa 3d
       0.0278486 -0.02594852 -0.024722883 0.08339728
0003e0 08 d7 98 bd 33 e8 e0 3d 13 00 c6 bd e1 92 17 bd
       -0.07462889 0.109817885 -0.09667983 -0.03700531
0003f0 77 2d 06 3e a7 c7 99 3d 8f 92 14 3d 76 d4 ba 3d
       0.13103281 0.07508784 0.03627258 0.09122555

g_model.fc2.bias f4 [16]
000000 eb fa 55 bd ce e4 8f bd e0 95 01 bd 51 ee 02 3d
       -0.052241247 -0.07026063 -0.031637073 0.031965557
000010 48 3d bf bd 19 72 09 3d 7c 54 2c 3d aa 44 86 3c
       -0.0933786 0.033556078 0.042072758 0.016390163
000020 0f ff 5d 3c 19 5d 99 bd 15 d6 66 bd bb 97 9e bd
       0.01354958 -0.0748846 -0.05635651 -0.07743784
000030 f2 06 d7 bb 5b 72 49 3d bf 0d 3f 3c e1 20 c9 bc
       -0.0065621072 0.049181323 0.011660992 -0.02455181

f_model.fc1.weight f4 [32, 16]
000000 6a 88 a5 3e 96 2b 78 be 24 09 2d 3d 47 7a ad be
       0.32330638 -0.24235377 0.042245045 -0.33882353
000010 0a a3 ac be d8 5c 7f 3e 16 7b 1d 3e 0a cf e0 bd
       -0.3371814 0.24937761 0.15378985 -0.109769896
000020 df 72 12 bd 29 e6 2c be 63 97 91 bd 5f 4b 17 bc
       -0.03575408 -0.16884674 -0.07108953 -0.009234278
000030 60 3a ac 3e 33 04 74 be 65 d1 4a bd b2 48 1f 3e
       0.33638287 -0.23829727 -0.0495161 0.15555075
000040 5f 82 a8 3e 43 2f 82 be 75 84 1e be 9b c9 9d be
       0.32911965 -0.25426683 -0.15480216 -0.30817875
000050 92 7d 9b bd 7d 09 80 bd f6 19 3d be 75 1a 4f 3e
       -0.0759231 -0.0625181 -0.18466935 0.20224936
000060 0b 84 74 be 41 81 b4 3e 3b 8e 72 be 10 c6 70 bc
       -0.23878495 0.35254863 -0.23687069 -0.014695659
000070 d9 82 af 3d 8a 24 20 bd 59 9c 7c bd 6c f8 3c be
       0.08569879 -0.039097346 -0.061672542 -0.1845414
000080 84 11 d1 bb c6 d5 16 be 08 46 aa be c3 64 33 be
       -0.006380262 -0.14729986 -0.33256555 -0.17518906
000090 7b 65 8c bd 81 53 f9 bd 01 cc 30 be e4 f1 e9 3d
       -0.06855293 -0.1217413 -0.17265321 0.1142309
0000a0 7c 3a 0a 3d bb 55 ea 3e 3f 78 4a bd c8 dd 1c 3c
       0.03374718 0.45768532 -0.04943108 0.009574361
0000b0 12 5f 55 be 48 ba 5e bd 26 72 c2 bd 54 61 9d 3d
       -0.20837048 -0.05437687 -0.09494428 0.076845795
0000c0 ab bf f5 bd 08 56 ad bd 20 49 0f be b9 97 d2 3e
       -0.119994484 -0.08463675 -0.13992739 0.4113138
0000d0 01 da 9e 3c 00 24 0f 3e ad 89 a3 bd 6f 1b e4 bd
       0.019391062 0.13978577 -0.07985244 -0.11138045
0000e0 d8 26 a3 3d 29 a0 c5 bc d3 66 8c be 66 4f 37 3e
       0.07966393 -0.024124222 -0.274222 0.17901382
0000f0 da 2f 04 be 30 f6 8b 3e 9e 28 43 3c 2c ec 69 be
       -0.12908879 0.27336264 0.011911539 -0.22843999
000100 ab c8 91 be 65 a0 9a 3a 3e bd 93 bd 6d ec b1 bd
       -0.2847341 0.0011797069 -0.072138295 -0.08687673
000110 82 53 04 3e 39 7b 08 3b 51 97 21 bd 64 80 6f 3e
       0.1292248 0.00208254 -0.039450947 0.23388821
000120 b8 db 77 be 87 16 29 be 3e 07 a5 3e 07 70 94 be
       -0.2420491 -0.165125 0.32232088 -0.2899172
000130 b4 1d 05 3d c9 16 d6 3d 96 59 04 be 4a e3 a2 be
       0.03249903 0.10453565 -0.129248 -0.31814033
000140 9d c7 4b 3e 43 f3 30 bd 2d 35 6d be db f9 81 3e
       0.19900365 -0.043200742 -0.23164816 0.25385937
000150 a9 59 16 be a8 64 9d bd c9 cb 9f bd d9 db 0d be
       -0.1468264 -0.07685214 -0.07802541 -0.13853396
000160 20 41 5c be 49 82 e2 3e 74 68 88 be 15 aa 94 bd
       -0.21509218 0.44240025 -0.2664219 -0.07259003
000170 cf 21 8d 3e a0 20 54 3c b2 47 ed bd 34 9c 04 3d
       0.27564856 0.0129472315 -0.115859404 0.03237553
000180 6e a3 06 3e f4 7a 9a be 81 b5 85 3e 5f a8 61 3d
       0.13148281 -0.3017193 0.2611504 0.05509221
000190 1b 7b 9b 3b 70 77 f8 bc 5a 33 3d bd 13 92 95 3d
       0.0047449 -0.03033039 -0.04619155 0.07303252
0001a0 b0 a4 8a 3e 1e b1 1c bd 88 5c 8b 3c 6e 9a 31 3e
       0.27078772 -0.03825485 0.017011896 0.17344067
0001b0 63 74 84 be 5f dd c9 3d 76 35 8e 3a e1 15 fc bd
       -0.25870046 0.09856676 0.0010849673 -0.123088606
0001c0 1b c5 da bc 52 3a cb bd 58 19 a3 3d e8 a9 29 bd
       -0.026705315 -0.09923233 0.07963818 -0.0414218
0001d0 b7 15 82 bc d3 df 85 bd aa 07 8e be 47 2b 32 be
       -0.015879495 -0.06536832 -0.27740222 -0.17399321
0001e0 e5 d3 2a 3e d0 a7 98 3e d3 3d 74 3d 99 71 69 be
       0.16682394 0.2981553 0.059629273 -0.2279724
0001f0 4a 6d 69 3e c6 9f 51 be d7 91 82 3c a8 15 1c 3e
       0.22795597 -0.20471105 0.015938682 0.15242636
000200 23 6d d2 be 9d 01 8e be 54 5a fb 3b a7 e0 72 be
       -0.4109889 -0.27735606 0.00767068 -0.2371851
000210 9a 46 8f be 55 fc 35 3e 55 41 9f ba b8 7b 33 be
       -0.27983552 0.17772038 -0.0012150208 -0.17527664
000220 f6 00 51 3e 83 36 4b 3d 6c 84 de bd 19 7a bb 3e
       0.20410523 0.049612533 -0.10865101 0.3661659
000230 2a ee 0c be a6 5c 2b be d4 d0 4b 3d d6 5c 29 bc
       -0.13762727 -0.16734561 0.0497597 -0.010337075
000240 a3 80 c7 3d 46 51 92 3d 60 f7 bb 3e ef ee f5 3d
       0.097413324 0.07144408 0.3671217 0.120084636
000250 aa cf 99 3c 77 48 5d be 2d 1a a2 be f4 47 44 3d
       0.01877578 -0.21609674 -0.31660596 0.047920182
000260 66 e6 06 bd fc 57 92 bd 1f ad 5c be 10 08 4d 3e
       -0.03293457 -0.07145688 -0.21550415 0.20022607
000270 b3 3f 72 be 8a c2 42 3e ff a2 83 3e b4 d2 f7 3d
       -0.23657112 0.19019523 0.25710294 0.12100735
000280 64 ad 5e 3d 00 aa 33 3d b1 14 a4 3e aa c4 b0 be
       0.054364577 0.043863297 0.32047036 -0.34525043
000290 6c e4 f6 bd 4a b3 63 be ad 46 7f be 18 30 3e 3d
       -0.12055287 -0.22236362 -0.24929304 0.046432585
0002a0 18 30 e0 3c 82 d1 b6 3c 64 4d 18 be d7 5a a8 3d
       0.027366683 0.022316698 -0.14873272 0.08220451
0002b0 9b 60 ef bc a4 58 43 be 9a 1e b7 bc bc f2 9a be
       -0.02922087 -0.19076782 -0.02235346 -0.30263317
0002c0 00 4a 0a 3e 3b a7 e4 bd b0 c0 93 bd e0 c4 ac bd
       0.13504791 -0.11164709 -0.072144866 -0.084359884
0002d0 5c 96 24 be 18 0c 3b 3e d0 7f 57 bc 41 61 0b be
       -0.16072983 0.18266332 -0.0131530315 -0.13611318
0002e0 19 02 82 be 8f a9 73 be 8b 46 d6 3d d2 45 99 3e
       -0.25392225 -0.2379515 0.10462674 0.2993608
0002f0 20 03 11 be ab 8e 2b be 44 95 88 3e e7 75 12 bc
       -0.14161348 -0.16753642 0.2667638 -0.008939243
000300 53 4f ff 3d 96 07 d6 bd 21 6b 2d be 53 79 0c be
       0.12466302 -0.10450666 -0.16935398 -0.13718157
000310 8f ef e3 bd 3b 78 f2 bd 72 c5 83 3e 49 86 0b be
       -0.111296766 -0.118393384 0.25736576 -0.13625444
000320 cf ac 9d bd d2 fc 8c 3c ee 76 25 be da 83 8f 3d
       -0.07698976 0.017210398 -0.1615865 0.070075706
000330 fc 34 02 3e a3 ff db bd 0c 5d 54 bd d7 82 a8 3e
       0.12715524 -0.10742118 -0.05184655 0.32912323
000340 f0 41 a4 be 4c d0 09 be 29 37 8b be ae 1f 9a 3e
       -0.32081556 -0.13458365 -0.2719052 0.30102295
000350 f7 5b c2 bd 44 d8 78 be 39 78 45 3e 32 21 96 3c
       -0.09490197 -0.24301249 0.19284143 0.018326376
000360 60 4d 88 be ae 23 0d bc 07 86 4b 3d 9d 8a d5 3d
       -0.26621532 -0.008614464 0.049688365 0.10426829
000370 44 f8 38 bc 30 43 d7 be b0 38 20 3e a5 91 7d be
       -0.01128966 -0.42043447 0.15646625 -0.2476259
000380 43 6d 74 be 9c 50 b6 3c 04 a1 01 3e 8d b3 9b 3d
       -0.23869805 0.022255234 0.12659079 0.07602606
000390 3b 1f 76 bc 83 db 80 3d 66 53 b7 be fb 5b 23 bd
       -0.015022094 0.062918685 -0.35805815 -0.03988264
0003a0 42 b9 e8 3e 37 54 c5 be 8c bd ac 3c 3e 83 a6 3d
       0.4545384 -0.38540813 0.021086477 0.08130501
0003b0 81 e4 95 3e 2c 7e 9b be 9b 51 98 be 6f 74 3d 3e
       0.29275897 -0.303697 -0.2974976 0.18501447
0003c0 1e 17 a9 bd 91 d4 98 3e 64 42 73 3d 69 1e 1c be
       -0.082563624 0.29849675 0.059389487 -0.15245976
0003d0 e9 dd 9f 3e df 0a 11 be 83 f3 d9 bd 3c 7a 91 be
       0.31223992 -0.14164303 -0.10642149 -0.2841357
0003e0 f4 28 e6 bd 43 16 36 3e 12 51 df bd 61 5c 77 be
       -0.1123828 0.1778193 -0.10904135 -0.24156334
0003f0 08 0c 2d bd 1b bf 1e 3e ec 8b 24 be 91 fb 62 3e
       -0.042247802 0.15502588 -0.16069001 0.22166277

f_model.fc1.bias f4 [32]
000000 6e 9e ad 3e 1d a7 b8 bd 05 fd b1 bd 6e 63 2a 3e
       0.33909935 -0.09016249 -0.08690838 0.16639492
000010 03 19 8d 3e 06 24 9f 3e 25 f4 aa 3d 05 de 37 3e
       0.27558145 0.3108217 0.08347348 0.17955787
000020 ab 20 ff 3d 8a 83 ae bc f3 f6 91 bd 90 f6 74 bc
       0.12457403 -0.021302957 -0.0712718 -0.014951363
000030 d7 f7 73 3e 7f 5c 3d 3d d3 77 50 bc 3c 1e 86 3e
       0.23825012 0.04623079 -0.012723881 0.26194942
000040 29 90 ca 3d 32 14 6e 3e 23 5a a1 3e 87 32 85 bd
       0.098907776 0.23249891 0.3151408 -0.06503778
000050 b9 97 72 3e d5 ab 82 be 3f 0d c8 bd 40 54 8d 3e
       0.2369069 -0.25521722 -0.097681515 0.2760334
000060 6d 68 da bc 56 f6 04 be 2f 7c 64 bd e7 22 7b 3e
       -0.026661122 -0.12984595 -0.055782493 0.24525033
000070 55 f4 3c be 17 06 3e bd f9 15 6a 3e 6c 0c 05 3e
       -0.1845258 -0.046392526 0.22859944 0.1299302

f_model.fc2.weight f4 [10, 32]
000000 28 54 30 3e 39 bf 4b 3e 56 36 ed bc 9d 63 a5 be
       0.17219603 0.19897164 -0.028956573 -0.3230256
000010 65 63 8a be ae 60 0f 3e 74 59 f0 3b ee d2 13 be
       -0.27028957 0.14001724 0.0073348824 -0.14435932
000020 ad 3a 08 be 2c ca 65 be fb 91 6d 3e 91 74 78 3e
       -0.13303633 -0.22440404 0.23200218 0.24263217
000030 ab 7e 0a bd 1a 40 d6 bd ce e6 92 be c7 2d f6 bd
       -0.033812206 -0.10461445 -0.28691715 -0.1202045
000040 85 14 67 be 97 96 0a be cf 3b 92 be 09 2c 39 be
       -0.22566421 -0.13534008 -0.28561255 -0.18083204
000050 66 4b d4 3d dd f4 0c 3e b6 99 b9 3d 58 00 78 be
       0.103659436 0.13765283 0.09062521 -0.24218881
000060 bd 7a 9f 3d 77 24 f9 bc e8 d1 d7 bd 92 87 11 be
       0.07787082 -0.030412896 -0.10538083 -0.14211872
000070 91 2a e1 bd 02 c2 f2 3d 51 53 94 be 8c 8e b2 bd
       -0.10994447 0.1185341 -0.28969815 -0.08718595
000080 a5 79 3d be 74 d9 6e be fa d8 95 3a 7c 04 63 bd
       -0.18503435 -0.2332514 0.0011432462 -0.0554242
000090 8b 4f 18 3e a6 9c 31 be e9 2e be bd ef 3c 03 bd
       0.14874093 -0.17344913 -0.09286291 -0.032040533
0000a0 b5 3f 35 be 6e 16 14 bd 98 fd 16 bc c9 3b 18 3e
       -0.17700084 -0.036154203 -0.009215735 0.14866556
0000b0 0b 90 2d bc 62 27 26 bd 77 23 ca bc 0f 65 1d 3e
       -0.010593425 -0.040564902 -0.024675114 0.15370582
0000c0 d6 f7 0d be 9c 3e 94 3d 55 e6 45 be c9 d7 9f be
       -0.13864073 0.07238504 -0.19326146 -0.31219319
0000d0 e4 ca 39 be 0d 71 b4 bd 72 90 d3 3d b9 28 af bd
       -0.18143803 -0.08810625 0.10330285 -0.08552689
0000e0 c5 8e d8 bd 1a 4c 01 3e 73 cd 4e 3e cb 96 9a be
       -0.10574106 0.12626687 0.2019556 -0.3019317
0000f0 3b 88 0a be 9c c5 81 3e 87 f9 a3 3e a9 15 0d 3d
       -0.1352853 0.25346076 0.32026312 0.034444485
000100 04 e4 89 be ed 1e cf bd b6 79 3c be 80 b3 74 bd
       -0.26931775 -0.101133205 -0.18405804 -0.059741497
000110 b0 4b 3d bd 98 98 66 bc ea 76 46 3e ad af b9 3b
       -0.04621476 -0.014074467 0.193813 0.005666694
000120 c1 08 70 3d 50 54 55 3e 60 09 30 3e a1 76 cd 3d
       0.0586021 0.20832944 0.17191076 0.10032392
000130 b2 54 2d be 67 f0 be be fe 2b 86 bd cd fd 53 be
       -0.1692684 -0.37292787 -0.065513596 -0.20702286
000140 d5 64 77 3b ac 2a 3d be 98 37 04 be 1e f5 8f be
       0.003774931 -0.1847331 -0.12911832 -0.28116697
000150 31 38 85 3e 06 d7 57 3e f3 21 ca 3c f0 01 af 3b
       0.26019433 0.21078119 0.024674391 0.005340807
000160 6b 93 3f bb 77 bd d4 bc 9f ca 68 3e 70 64 8a be
       -0.0029232155 -0.02596925 0.22733544 -0.27029753
000170 4c 91 b9 3b a9 17 6e be bd 81 c9 be 83 b9 4e 3d
       0.0056630727 -0.23251213 -0.39356795 0.050469887
000180 17 dc bd bd ae 50 6f be 4b f8 01 be 69 bf 89 3e
       -0.092704944 -0.2337062 -0.12692373 0.26903847
000190 5b a6 0b be 44 a4 04 3e a3 ab fa bd a9 7e e3 3d
       -0.13637678 0.12953287 -0.12239768 0.11108143
0001a0 41 de 7e bd d3 43 68 3d 23 0b 1c be 9a 02 4b bd
       -0.062223677 0.056705307 -0.15238623 -0.049563028
0001b0 31 47 5d be 38 f5 b1 3e df 26 06 3e e2 ac 96 be
       -0.21609189 0.347574 0.13100766 -0.29428774
0001c0 a5 b0 43 be e2 9e 6b be 88 2a 10 be 7a 25 41 be
       -0.19110353 -0.23009828 -0.14078724 -0.18861952
0001d0 f8 18 4b bd ef bb 83 3e df f7 6e be 11 34 0f be
       -0.04958436 0.2572932 -0.23336743 -0.13984706
0001e0 2a dc 89 bd f3 ea 37 3e 9f 8e e2 bd 06 5e 53 3c
       -0.06731446 0.1796072 -0.11062359 0.012900835
0001f0 8d 20 cc bc d5 e5 9e bc ad 1e bf be 6c f7 37 3e
       -0.024917865 -0.019396702 -0.3732809 0.17965478
000200 b4 54 ed bd 65 8f 07 be 2b 67 08 3e 77 f9 bc 3c
       -0.115884215 -0.13238294 0.13320605 0.023068173
000210 95 e9 c5 3d 6c 85 56 bd fc 92 83 3d c3 97 6f bd
       0.09663693 -0.052373335 0.064245194 -0.05849434
000220 82 8e 61 be b5 d1 10 be 02 9b 77 be 6c ae 3a 3d
       -0.22027019 -0.14142497 -0.24180225 0.045576498
000230 d2 45 06 bc 77 00 89 be 29 e6 01 bd 98 de 78 3e
       -0.008195357 -0.26758167 -0.03171364 0.24303663
000240 1e fe 85 3d 6c d9 29 be 7c c1 7c bd 74 f9 1a 3e
       0.0654261 -0.16586846 -0.06170796 0.15134221
000250 4b ca 22 3e 8e 90 01 3d 99 a3 96 bc c1 58 99 be
       0.15897481 0.031632 -0.018388556 -0.29950526
000260 22 a0 31 be 7c bd 2f be 81 9c 46 3c 31 34 12 3e
       -0.17346242 -0.17162126 0.012122274 0.14277722
000270 3d 0c 90 3e 44 dc 93 be 4e d0 ca bd a3 88 94 bd
       0.28134337 -0.28878987 -0.09903012 -0.07252624
000280 8a c2 89 3d 52 93 db bc b7 19 37 3d dc 92 83 3e
       0.067265585 -0.026803646 0.044702258 0.25697982
000290 69 85 9e bd 57 90 36 3c 0e 5b db 3c 67 28 9d 3d
       -0.0774029 0.011142812 0.026776817 0.07673722
0002a0 a0 53 8a 3d 66 b7 75 be 0f 9f 41 be ff e0 9b 3e
       0.067542315 -0.23995742 -0.18908332 0.30445096
0002b0 4a d1 3a be 00 6a 10 be 50 a3 d6 bd 25 74 bb bd
       -0.182439 -0.14102936 -0.10480368 -0.09153012
0002c0 92 57 b5 be 46 61 29 bd 06 3a 95 bc b6 f7 4f be
       -0.35418373 -0.041352533 -0.018216144 -0.20309338
0002d0 d9 46 30 3c b6 8e 1f be 9e d6 f2 bd 2e 10 8a 3e
       0.010759079 -0.15581784 -0.11857341 0.2696547
0002e0 97 f9 8c 3e d8 6f 3a 3e f0 cb 47 be 12 7c 29 be
       0.27534172 0.18206728 -0.1951139 -0.16551235
0002f0 64 e0 13 bd 56 7a 73 be 22 d4 83 be 4c dd 44 be
       -0.036102667 -0.23777136 -0.25747782 -0.19225043
000300 3d 23 27 3e 11 f2 42 be 4a 08 fe bd 57 ec 3a bd
       0.16322036 -0.19037654 -0.12403925 -0.045635547
000310 5c 4e 0b be 36 85 27 be 13 61 5b be 3a 56 5e be
       -0.1360411 -0.1635941 -0.2142375 -0.2171258
000320 9c 27 c4 3c 19 20 19 be d9 5e a6 be 7a d2 11 3d
       0.023944668 -0.1495365 -0.32494238 0.035601117
000330 1c d5 8a 3e 7e 63 09 3e f0 3c 1c be 63 c9 4f be
       0.27115715 0.1341686 -0.15257621 -0.20291667
000340 16 ca db bd 26 38 94 3d 2e 7e 98 be e1 2c f5 bd
       -0.10731904 0.07237272 -0.29783767 -0.119714506
000350 72 83 6c 3e 5a f1 85 3d 92 d9 8e bc dc 35 58 bd
       0.23097017 0.06540175 -0.01743773 -0.05278574
000360 ac f4 a7 be 2d a0 41 be a5 ed 05 be 9e 4a a3 3b
       -0.32803857 -0.18908758 -0.13078935 0.0049832603
000370 1c 5f 4c 3e d9 82 be bd a2 6f f3 bd c1 84 32 be
       0.19958156 -0.09302301 -0.11886527 -0.17433454
000380 1d 52 e6 bd 72 f1 cf 3d d2 fa 3d 3e 58 85 aa bc
       -0.112461306 0.10153474 0.18552712 -0.020815536
000390 27 c2 52 3e 31 21 7d be 7a a6 0e bb 07 a5 91 3d
       0.20581876 -0.24719693 -0.0021766708 0.071115546
0003a0 6f dc 70 be ed e2 25 3d 91 39 70 3d 25 31 f1 3b
       -0.23521589 0.040499616 0.05864865 0.007360595
0003b0 f7 b0 90 3d cb 40 8d bd 6b 0d 89 bd 41 72 d3 be
       0.07065003 -0.06897124 -0.066920124 -0.41298106
0003c0 31 57 8d 3c 48 cb c2 be 34 23 d1 3d 13 cc 4a be
       0.01725349 -0.38045716 0.102117926 -0.1980441
0003d0 9e 51 52 bd e8 9f 07 3d d2 8f ef 3d 0a 6d 32 3e
       -0.051347367 0.033111483 0.116973534 0.17424408
0003e0 5d f0 9c 3d 7b 97 86 bb 97 25 3a be b6 09 75 3e
       0.07663033 -0.0041074133 -0.18178402 0.23929486
0003f0 b9 32 a1 bd 65 2a 1e 3d bb e3 02 be ef 12 88 bd
       -0.07871003 0.03861465 -0.12782185 -0.06644236

f_model.fc2.bias f4 [10]
000000 a4 e4 26 3d 40 18 37 3d f1 e5 d1 bd e5 fe c0 bd
       0.040745392 0.04470086 -0.10248936 -0.09423617
000010 cb dd f2 bd 68 a0 ae 3d 23 8e f9 3d 92 e4 49 be
       -0.1185871 0.08526689 0.121853136 -0.19716099
000020 44 46 c4 bd 39 26 1d be
       -0.095837146 -0.15346612
