models/Adversarially trained models/robust_joint_model_cons1.pt (torch, 461935 bytes, 12 tensors)

g_model.conv1.weight f4 [32, 1, 3, 3]
0.1003427 0.09754587 0.15218481 0.23990647 0.0017187798 0.26764742 -0.29628885 -0.25428042
-0.2239983 -0.050423983 0.15597059 0.4294887 0.09376812 0.38944972 -0.053377174 0.21784036
0.37389612 0.065809876 0.31197837 0.36356834 -0.025920304 -0.11702758 -0.251162 -0.028122813
0.23603937 0.32865927 0.058022674 0.03649052 0.20771739 0.149388 -0.36755344 -0.1386651
-0.10993203 0.087465756 0.02430343 -0.24719653 0.45599753 0.20030531 -0.3228259 0.2038114
-0.099378616 -0.30600935 -0.19147868 0.3664871 0.039543007 0.24652855 -0.02757311 0.25242588
0.4728934 0.43038675 -0.03555192 0.44860458 0.30227366 0.14849132 -0.032269176 -0.15952511
-0.112730086 0.2752514 0.23866807 0.41741213 -0.24607228 0.43177834 0.07974861 0.3161867
0.00984444 -0.08499726 -0.039700337 0.41051134 0.37960508 -0.0065383133 0.19668703 0.005945106
0.36394134 0.4718685 0.14710297 -0.07235247 0.059719417 0.23500565 0.31603992 0.106520616
-0.011732948 -0.1183287 0.15203223 -0.102030575 0.2985466 0.23055975 0.50729203 0.16967025
0.46852225 0.42941612 0.3363657 0.26404992 0.40789503 0.25011185 -0.0012910536 -0.22394517
0.23436314 0.31474563 0.31069955 -0.225763 -0.05668568 0.45722568 0.16597293 0.37880757
0.44294843 0.16902763 0.34944507 0.41115287 0.33950284 -0.1703885 0.36040244 0.11108231
0.36135685 -0.05176301 -0.17256165 0.2523578 -0.14173092 0.0762203 0.171852 -0.079951026
0.07200647 0.51005924 0.4980007 -0.029821515 0.12645507 0.13228813 -0.113629825 -0.08500589
-0.48719984 -0.27444193 -0.21634163 -0.06684741 -0.22877295 0.04710978 0.1499228 0.11953419
0.33019114 0.02596251 0.13816838 0.25275898 -0.04206443 0.101278834 0.16791229 0.41720417
-0.2558616 -0.17146035 0.24510202 0.06272017 0.42285162 0.099365726 0.24618186 0.48104408
0.2853694 0.17646429 0.41948473 -0.28496763 0.43211555 0.17341836 -0.313413 -0.043358803
0.4012425 -0.1398077 0.32183653 0.43289453 -0.053842 0.34321663 0.36971456 -0.11857377
0.30457523 0.2912746 -0.2678465 0.33162257 -0.25198713 0.1294018 -0.14346273 0.0058601387
-0.012182338 0.2549417 -0.3315603 -0.3044338 -0.110003635 -0.08972755 0.34569395 -0.1686303
-0.12682661 0.21287833 -0.11066149 0.35480413 0.37867844 0.034562394 0.22146489 0.26658553
-0.0655876 -0.16665062 0.45565772 -0.2860016 -0.26704735 -0.19541833 0.21565622 -0.024342794
-0.2498731 0.021210276 0.08281016 0.3321351 0.011211973 -0.049658988 0.2587159 -0.19780466
-0.27585223 -0.3620655 0.04733351 -0.046615373 0.28714746 0.11600003 0.3521365 0.07347632
0.40001336 0.44274086 0.20640905 0.13331713 -0.027031414 0.45944172 -0.37499285 0.25269935
0.40768543 0.4257193 0.3890075 -0.11477187 0.12413829 0.24327111 -0.2994323 0.07572929
0.19754782 -0.30800116 0.24209638 -0.054686688 -0.4367092 0.034278404 0.25088343 -0.1346094
0.3623659 0.47241038 0.13872434 0.19484949 -0.18130359 -0.13603339 -0.18427521 0.12896793
-0.35182846 0.15983248 0.32246885 0.08735287 -0.024718614 0.31274238 0.085329756 0.36656344
00000000: 7980 cd3d 21c6 c73d 56d6 1b3e 0baa 753e
00000010: ae48 e13a 1509 893e 2cb3 97be 0b31 82be
00000020: cf5f 65be 6189 4ebd c1b6 1f3e f1e5 db3e
00000030: 8009 c03d f465 c73e 06a2 5abd 8b11 5f3e
00000040: 506f bf3e 54c7 863d a1bb 9f3e a125 ba3e
00000050: d156 d4bc 28ac efbd 4e98 80be d061 e6bc
00000060: 4eb4 713e 0746 a83e 2fa9 6d3d 1577 153d
00000070: deb3 543e 2bf9 183e f72f bcbe 39fe 0dbe
00000080: 0b24 e1bd 3f21 b33d fd17 c73c 1621 7dbe
00000090: 8278 e93e d61c 4d3e 7049 a5be f0b3 503e
000000a0: 0487 cbbd 42ad 9cbe fd12 44be 32a4 bb3e
000000b0: d9f7 213d fb71 7c3e 01e1 e1bc f73d 813e
000000c0: 151f f23e a75b dc3e e49e 11bd 80af e53e
000000d0: 9dc3 9a3e 1c0e 183e af2c 04bd 8d5a 23be
000000e0: 08df e6bd c0ed 8c3e 6765 743e 0bb7 d53e
000000f0: 5ffa 7bbe 0d12 dd3e 3d53 a33d 39e3 a13e
00000100: 934a 213c 0b13 aebd d29c 22bd 8b2e d23e
00000110: 995b c23e 593f d6bb 5368 493e 2acf c23b
00000120: 8556 ba3e bf98 f13e 29a2 163e 882d 94bd
00000130: 599c 743d 52a5 703e fccf a13e 7b27 da3d
00000140: 8d3b 40bc 5156 f2bd 56ae 1b3e 68f5 d0bd
00000150: 1adb 983e db17 6c3e e4dd 013f 0abe 2d3e
00000160: 26e2 ef3e 6edc db3e 2038 ac3e 8d31 873e
00000170: 9ed7 d03e a90e 803e 9238 a9ba e251 65be
00000180: e4fc 6f3e 5726 a13e 0314 9f3e 6a2e 67be
00000190: 3e2f 68bd 7c19 ea3e cff4 293e 11f3 c13e
000001a0: 23ca e23e 9415 2d3e 77ea b23e a182 d23e
000001b0: 51d3 ad3e 537a 2ebe ab86 b83e 1f7f e33d
000001c0: c403 b93e 7305 54bd 00b4 30be 0b35 813e
000001d0: e921 11be 6319 9c3d f8f9 2f3e 5dbd a3bd
000001e0: 2178 933d 3e93 023f f3f9 fe3e 404c f4bc
000001f0: 707d 013e 8a76 073e c1b6 e8bd 9117 aebd
00000200: 4272 f9be a783 8cbe a988 5dbe 4be7 88bd
00000210: 7543 6abe 2ff6 403d 5d85 193e 57ce f43d
00000220: d00e a93e 54af d43c 037c 0d3e a069 813e
00000230: c04b 2cbd 476b cf3d 33f1 2b3e c99b d53e
00000240: 4b00 83be 4d93 2fbe 06fc 7a3e 6f73 803d
00000250: 0280 d83e 4280 cb3d 1917 7c3e 694b f63e
00000260: f01b 923e 0eb3 343e b4c6 d63e 47e7 91be
00000270: 403e dd3e 9594 313e ab77 a0be 0099 31bd
00000280: a86f cd3e c029 0fbe c2c7 a43e 5aa4 dd3e
00000290: 6e89 5cbd 17ba af3e 3a4b bd3e ced6 f2bd
000002a0: 49f1 9b3e f221 953e 2d23 89be 6fca a93e
000002b0: 7504 81be e881 043e e5e7 12be 6806 c03b
000002c0: 6e98 47bc b887 823e 46c2 a9be bfde 9bbe
000002d0: 9649 e1bd 14c3 b7bd ccfe b03e 6cad 2cbe
000002e0: d6de 01be c7fc 593e 7ea2 e2bd e3a8 b53e
000002f0: 24e2 c13e 4c91 0d3d b1c7 623e e67d 883e
00000300: cb52 86bd 76a6 2abe f84b e93e cd6e 92be
00000310: 6eba 88be be1b 48be fcd4 5c3e 8a6a c7bc
00000320: bcde 7fbe 2cc1 ad3c 6098 a93d 9d0d aa3e
00000330: 6cb2 373c 3967 4bbd 6976 843e 4e8d 4abe
00000340: 813c 8dbe a660 b9be c8e0 413d c3ef 3ebd
00000350: fe04 933e 6c91 ed3d 3c4b b43e c17a 963d
00000360: 8dce cc3e eeae e23e e55c 533e 4984 083e
00000370: fc70 ddbc f23b eb3e 10ff bfbe cf61 813e
00000380: 25bc d03e e1f7 d93e fe2b c73e 840d ebbd
00000390: 373c fe3d 101c 793e 314f 99be f517 9b3d
000003a0: fa49 4a3e 54b2 9dbe 1de8 773e 26ff 5fbd
000003b0: 5998 dfbe 8367 0c3d cb73 803e 0cd7 09be
000003c0: 0688 b93e c6df f13e c10d 0e3e a086 473e
000003d0: a6a7 39be 564c 0bbe a4b2 3cbe 2b10 043e
000003e0: dc22 b4be 20ab 233e a31a a53e 10e6 b23d
000003f0: b17e cabc c51f a03e 5ec1 ae3d 34ae bb3e

g_model.conv1.bias f4 [32]
-0.028521383 -0.23385876 -0.05514207 0.19915837 -0.028187606 0.067209914 -0.03677586 -0.1777711
-0.06836259 -0.10648008 -0.030596245 0.018001629 0.26898465 0.053405497 0.38294935 0.1474379
0.06801386 -0.08910896 -0.08953305 -0.23575437 0.3052446 0.010580552 -0.06804759 0.0072890157
-0.24009007 -0.069177024 -0.10899659 -0.043465424 -0.10745356 -0.045312084 0.2318641 -0.20174025
00000000: ada5 e9bc ac78 6fbe a7dc 61bd 2cf0 4b3e
00000010: b2e9 e6bc 5aa5 893d 49a2 16bd a109 36be
00000020: b001 8cbd 3a12 dabd faa4 fabc 2778 933c
00000030: 5bb8 893e b9bf 5a3d f011 c43e f6f9 163e
00000040: da4a 8b3d c27e b6bd 1b5d b7bd 9869 71be
00000050: 0549 9c3e 0d5a 2d3c 895c 8bbd b2d8 ee3b
00000060: 2cda 75be afac 8dbd 9b39 dfbd cd08 32bd
00000070: 9d10 dcbd 2a99 39bd c86d 6d3e ff94 4ebe

g_model.conv2.weight f4 [32, 32, 3, 3]
0.021803565 -0.004432943 -0.075957865 0.016282776 0.018983295 0.05016214 0.19107226 0.13326329
0.16619304 -0.024651956 -0.090729095 -0.014237581 -0.03295914 0.06564389 0.06346906 0.09409608
0.05702608 0.063670486 -0.058563177 -0.006893194 -0.0047542583 0.072008826 0.0406793 0.070794344
0.120526895 0.06879404 0.0622129 0.051833753 -0.029065287 -0.04578307 -0.06463364 -0.07439879
-0.0793846 -0.040976048 -0.025625695 -0.040122613 0.062684625 -0.04668 -0.06294645 0.03361721
-0.079183325 -0.09168871 0.05730406 -0.016892213 -0.0418281 -0.0407411 -0.055151973 -0.037982855
0.041672736 -0.027388735 -0.009361817 0.05065878 0.08840599 0.006966899 -0.08385458 -0.05708741
-0.014695637 0.023702173 0.0025587273 0.038455863 0.101223834 0.02623027 0.06677896 -0.09317165
-0.009620066 -0.03295119 0.024758432 0.040250506 0.004838295 0.09238482 0.047870792 0.022541763
-0.09509651 -0.013746513 -0.08276701 -0.043084238 -0.022947315 -0.021609817 0.11231899 0.04587436
0.04036378 0.0063289595 -0.07857326 -0.042109553 0.008654214 0.03811598 0.09673176 0.12535396
0.098148234 0.05184396 -0.101907186 -0.10674175 -0.034394294 0.057067282 0.05769394 -0.012497844
0.032062754 0.0096635055 0.00015706092 -0.02986066 -0.07522258 0.018724434 0.0810228 0.036538083
0.011895319 0.067364134 0.08357649 0.07704902 0.0011741928 0.020729704 -0.09551079 -0.06366523
-0.08677101 -0.0657845 -0.00035192128 -0.036400992 -0.015391755 -0.09332217 0.015691707 0.006473824
0.012757634 -0.008601678 -0.0012436579 0.117567465 0.043481473 0.08400346 0.05916079 -0.007988012
-0.06842902 -0.048693076 0.019711725 0.0026684033 -0.12084435 -0.009370988 -0.042191118 -0.042466052
0.0024155874 -0.06660724 0.027052786 0.062155735 0.010371235 0.009003695 0.010400751 0.072829746
-0.08057785 -0.056913633 0.033146825 -0.006172962 0.04322237 0.03669209 0.03825615 0.07249585
-0.008133837 -0.04727943 -0.12212637 -0.029381245 -0.02316197 -0.041288476 -0.020048253 -0.032310188
-0.034488473 -0.0052753864 -0.10059855 -0.02247637 -0.083925396 -0.0008149676 0.0149561465 0.007024894
0.06695154 0.0054170773 0.019891594 -0.030434923 -0.04129536 0.013331249 -0.07823177 -0.103493124
-0.04214924 -0.04580491 -0.023493446 -0.020573022 0.017775794 0.032121718 -0.05254099 0.04795046
-0.014479865 -0.013142238 -0.01262135 0.0092865825 -0.0032295503 -0.006117935 0.02275034 -0.06832728
-0.08182724 -0.11959323 -0.058262132 0.0914308 0.01605307 0.08841252 0.008297682 -0.025810955
-0.009076461 0.013362065 0.047588106 0.092766576 0.090356685 0.02270596 0.015186628 0.064210586
0.09058275 0.058096133 0.1266432 0.05419003 0.13379405 0.08328592 0.06782748 0.04622378
-0.115914084 -0.11364883 -0.08575079 -0.01829225 0.027020244 -0.026147518 0.056699242 0.06886754
0.025222788 -0.051166642 -0.048521973 -0.026245683 -0.10603738 -0.15239666 -0.038302857 0.0567297
-0.027880212 0.022767197 0.07343052 -0.017804895 0.0839222 0.10011135 0.031086996 0.03479223
0.13632978 -0.0051752236 0.03010186 0.1229977 0.010708481 0.06888859 0.05946965 0.048794076
-0.026507447 0.029860133 0.07115299 0.03196705 -0.04713357 -0.09391708 -0.08720789 -0.036607806
00000000: 649d b23c 3942 91bb cc8f 9bbd 7563 853c
00000010: db82 9b3c d176 4d3d 72a8 433e 2c76 083e
00000020: 822e 2a3e e6f2 c9bc 2dd0 b9bd be44 69bc
00000030: 2a00 07bd 4e70 863d 11fc 813d 72b5 c03d
00000040: 2e94 693d ac65 823d f1df 6fbd 4de0 e1bb
00000050: 9cc9 9bbb 5d79 933d 569f 263d a0fc 903d
00000060: ced6 f63d e4e3 8c3d f4d2 7e3d a14f 543d
00000070: 531a eebc 0787 3bbd a45e 84bd 655e 98bd
00000080: 6594 a2bd 80d6 27bd faec d1bc 9c57 24bd
00000090: cc60 803d 8733 3fbd 12ea 80bd 33b2 093d
000000a0: de2a a2bd 4ac7 bbbd a9b7 6a3d 8a61 8abc
000000b0: f153 2bbd 24e0 26bd 09e7 61bd e993 1bbd
000000c0: 08b1 2a3d 575e e0bc 4e62 19bc 957f 4f3d
000000d0: 330e b53d 964a e43b f3bb abbd 7dd4 69bd
000000e0: f8c5 70bc 0f2b c23c 52b0 273b e583 1d3d
000000f0: 714e cf3d dde0 d63c 68c3 883d c7d0 bebd
00000100: 7b9d 1dbc d4f7 06bd 32d2 ca3c b7dd 243d
00000110: 8f8a 9e3b 4134 bd3d 2a14 443d 81a9 b83c
00000120: f6c1 c2bd 0e39 61bc c081 a9bd 1979 30bd
00000130: 02fc bbbc 1207 b1bc 8007 e63d c1e6 3b3d
00000140: 7e54 253d 2963 cf3b 04eb a0bd 117b 2cbd
00000150: 68ca 0d3c 801f 1c3d 4d1b c63d ca5c 003e
00000160: f101 c93d 555a 543d b7b4 d0bd 6b9b dabd
00000170: 08e1 0cbd 62bf 693d 7b50 6c3d c2c3 4cbc
00000180: 3c54 033d ae53 1e3c b8b0 2439 589e f4bc
00000190: 4c0e 9abd fc63 993c 48ef a53d f5a8 153d
000001a0: 96e4 423c 35f6 893d 272a ab3d e0cb 9d3d
000001b0: 5fe7 993a 57d1 a93c 299b c3bd eb62 82bd
000001c0: 00b5 b1bd 06ba 86bd 1382 b8b9 3519 15bd
000001d0: b32d 7cbc b21f bfbd e58b 803c 5f22 d43b
000001e0: 6505 513c 0dee 0cbc 3c02 a3ba 36c7 f03d
000001f0: a119 323d 020a ac3d 9652 723d 27e0 02bc
00000200: 8424 8cbd 6472 47bd 7c7a a13c 61e0 2e3b
00000210: 3e7d f7bd c688 19bc 98d0 2cbd e2f0 2dbd
00000220: d54e 1e3b 6069 88bd ce9d dd3c 0397 7e3d
00000230: 1dec 293c 3c84 133c e967 2a3c c327 953d
00000240: 0006 a5bd 451e 69bd f7c4 073d 8f46 cabb
00000250: f109 313d 724a 163d 7bb2 1c3d b478 943d
00000260: c943 05bc 13a8 41bd 641d fabd f0b0 f0bc
00000270: 2cbe bdbc 1b1e 29bd 3c3c a4bc b057 04bd
00000280: c943 0dbd 26dd acbb 9d06 cebd 5d20 b8bc
00000290: 14e1 abbd 8da3 55ba a00a 753c 1531 e63b
000002a0: e41d 893d bd81 b13b b2f3 a23c a952 f9bc
000002b0: 5325 29bd 506b 5a3c fa37 a0bd 34f4 d3bd
000002c0: aea4 2cbd ee9d 3bbd 5475 c0bc c188 a8bc
000002d0: 8b9e 913c 1092 033d 3935 57bd b467 443d
000002e0: f53c 6dbc 8b52 57bc c7c9 4ebc c026 183c
000002f0: dda6 53bb f578 c8bb ec5e ba3c 2cef 8bbd
00000300: 0a95 a7bd 4ced f4bd 46a4 6ebd 1240 bb3d
00000310: ba81 833c a011 b53d 00f3 073c 7f71 d3bc
00000320: 70b5 14bc 90ec 5a3c bfeb 423d 67fc bd3d
00000330: ed0c b93d d901 ba3c 56d1 783c d780 833d
00000340: 7383 b93d 36f6 6d3d c1ae 013e 5df6 5d3d
00000350: 4f01 093e cf91 aa3d 22e9 8a3d 2555 3d3d
00000360: 5d64 edbd b8c0 e8bd 1c9e afbd a1d9 95bc
00000370: 8f59 dd3c 5233 d6bc 773d 683d 6d0a 8d3d
00000380: 05a0 ce3c 1d94 51bd fabe 46bd 3001 d7bc
00000390: 202a d9bd df0d 1cbe 75e3 1cbd 675d 683d
000003a0: 0b65 e4bc 4682 ba3c be62 963d 92db 91bc
000003b0: 67df ab3d 2e07 cd3d 28aa fe3c 4c82 0e3d
000003c0: 099a 0b3e ec94 a9bb 2d98 f63c 38e6 fb3d
000003d0: a072 2f3c 7615 8d3d 7396 733d 4cdc 473d
000003e0: 2526 d9bc 3d9d f43c a9b8 913d e2ef 023d
000003f0: 210f 41bd 9957 c0bd 0d9a b2bd 11f2 15bd

g_model.conv2.bias f4 [32]
-0.0015773886 0.015051383 -0.0006201231 0.06996216 -0.01773911 -0.07041194 -0.021123786 -0.035274252
-0.088206604 -0.06931083 0.027538966 -0.113022424 -0.027865393 0.0033287425 0.07188937 -0.038895205
0.041512817 0.051306345 -0.04165579 -0.060470197 -0.036898438 0.036265265 -0.043809682 -0.05813913
-0.0039960826 0.056335624 0.03569144 -0.06678803 0.022160675 -0.07535817 0.014210099 -0.022689138
00000000: 61c0 ceba 139a 763c c28f 22ba 5248 8f3d
00000010: 9c51 91bc 2334 90bd ca0b adbc bc7b 10bd
00000020: aaa5 b4bd d6f2 8dbd 6699 e13c 4d78 e7bd
00000030: f745 e4bc 0827 5a3b bc3a 933d 9450 1fbd
00000040: 5809 2a3d 9a26 523d 439f 2abd 99af 77bd
00000050: d122 17bd e38a 143d c871 33bd 4c23 6ebd
00000060: 92f1 82bb 2fc0 663d 3031 123d 2ac8 88bd
00000070: 4e8a b53c 6255 9abd 7ad1 683c 92de b9bc

g_model.fc1.weight f4 [128, 800]
0.0015227854 -0.0164678 -0.02923279 -0.010854676 0.0027833765 -0.015436238 -0.0021783502 0.057643306
0.0129741775 0.043013148 -0.039827656 0.07541275 0.032557406 -0.0010680645 0.037462585 0.0025641026
0.01708714 -0.034922667 -0.0037009837 -0.057664666 0.015246823 0.034524877 -0.023395598 -0.016649283
-0.011397978 -0.005974368 -0.012487303 -0.024614433 6.622054e-05 -0.04223314 0.029749809 0.030241348
-0.015575463 0.013185097 0.037788376 -0.018165193 -0.0076649934 0.008227438 0.008026668 -0.008337576
0.013678801 0.01383661 -0.04052449 0.01242554 0.03324307 -0.029917177 0.0017020092 -0.033996608
-0.027140655 0.00087489776 -0.017169375 0.028376844 -0.0027707086 0.021499809 -0.012913707 0.032650333
0.00071796955 0.0160205 0.020818925 -0.025287913 -0.018163811 -0.036646575 0.023321282 0.045827705
0.021391813 -0.032409474 -0.034674898 -0.04164045 -0.013651808 0.019182457 -0.03452722 -0.016416581
-0.04230249 0.021592287 -0.05654098 0.025516974 0.032097314 -0.0062661134 0.017509345 -0.026360903
0.027026657 -0.01854698 -0.019781616 -0.03481948 -0.012747601 0.026644286 -0.0057140095 0.009754582
-0.00252324 -0.034803458 0.019771174 0.0041617597 0.032388188 0.019421099 0.003907818 0.022782847
-0.024687637 0.043891344 -0.0033811128 -0.017193822 0.01703346 -0.00549629 0.03589811 0.062021215
0.05964091 -0.0152074825 -0.014786243 -0.007390133 0.0699895 0.05275097 -0.019609265 0.029802341
0.013547287 0.065370455 0.059485655 0.019781314 -0.017633878 0.025135478 0.021658082 -0.007914763
-0.03466559 0.022871243 0.044570245 0.029924357 -0.026053134 0.015924362 0.028063752 0.03496917
-0.0058914796 0.0042846203 -0.0283082 0.0319097 0.041711 0.04187037 0.037960544 -0.01693285
0.031689435 -0.010796974 0.021035556 0.0037518558 -0.031119062 0.008301654 -0.028985053 -0.0023217034
-0.010190743 0.04451498 4.3800042e-05 -0.036251817 -0.054373942 -0.0640145 0.023639435 -0.005800822
-0.01429607 -0.04843603 -0.07888161 0.032769028 0.011201614 -0.049874187 -0.006798999 -0.033390306
0.0071846116 0.022311589 0.008296789 0.024312472 0.0036474227 0.0061683 0.07030714 0.011105906
0.029352654 0.050008625 -0.015747001 -0.07057696 -0.03270727 -0.07303685 -0.05218427 -0.0017732149
0.01078897 0.028326198 -0.017959284 -0.024580907 0.021917483 -0.024831517 0.0031102225 -0.026416698
-0.028575279 -0.021237688 -0.016985606 -0.028925426 -0.027095122 -0.029457446 0.03204987 0.002788031
0.017074296 0.0065464256 -0.022582488 0.0067124674 -0.020489777 -0.001100016 -0.027140297 -0.025695333
0.032243576 0.005131467 -0.023944514 0.02991496 -0.027412105 0.02907209 -0.01663676 0.0030577078
-0.0076180696 -0.04266526 -0.044185296 0.03573358 0.00790677 0.008919226 0.016372753 -0.002351917
-0.010885964 -0.0042586816 -0.077789925 -0.04923581 0.04999356 -0.0140844835 -0.02661266 -0.043349706
-0.052407138 0.032749325 0.0039137583 -0.078796126 -0.0027903456 0.007159106 0.017435234 -0.03602707
-0.009840936 0.026331348 -0.003784749 -0.013115546 -0.0075777154 0.075510845 -0.008259168 0.05539932
-0.027109174 0.027742062 -0.046027638 0.0126067335 0.031002985 0.0075757587 -0.0034389573 -0.008615461
-0.038275395 -0.007708126 0.009808211 0.011391393 0.0032617294 -0.019617515 0.007857487 -0.0054530827
00000000: 3398 c73a 7be7 86bc 9b79 efbc d0d7 31bc
00000010: 4f69 363b 46e8 7cbc a7c2 0ebb 631b 6c3d
00000020: a591 543c 8e2e 303d 5322 23bd 0072 9a3d
00000030: ea5a 053d 4cfe 8bba 5e72 193d 810a 283b
00000040: 54fa 8b3c 120b 0fbd 348c 72bb c931 6cbd
00000050: d0cd 793c f569 0d3d 20a8 bfbc 1464 88bc
00000060: 96be 3abc a2c4 c3bb 8c97 4cbc 35a4 c9bc
00000070: e2df 8a38 a8fc 2cbd dfb5 f33c b4bc f73c
00000080: 3a30 7fbc 4e06 583c fcc7 1a3d 2ccf 94bc
00000090: a02a fbbb 60cc 063c 4982 033c 549a 08bc
000000a0: 0d1d 603c f3b2 623c 02fd 25bd 7e94 4b3c
000000b0: e329 083d de14 f5bc f415 df3a 0740 0bbd
000000c0: 1456 debc 6559 653a caa6 8cbc 8e76 e83c
000000d0: c794 35bb 5e20 b03c 0394 53bc 5bbc 053d
000000e0: 1f36 3c3a 6c3d 833c 738c aa3c 9928 cfbc
000000f0: 46cc 94bc b81a 16bd 460c bf3c d5b5 3b3d
00000100: e23d af3c ccbf 04bd 4407 0ebd 2d8f 2abd
00000110: d5ab 5fbc 8724 9d3c 6a6c 0dbd 117c 86bc
00000120: 6045 2dbd 4fe2 b03c 8497 67bd f908 d13c
00000130: 7978 033d f853 cdbb c26f 8f3c d2f2 d7bc
00000140: 0267 dd3c d6ef 97bc 0e0d a2bc df9e 0ebd
00000150: 50db 50bc 1e45 da3c 963c bbbb afd1 1f3c
00000160: f15c 25bb 128e 0ebd 28f7 a13c 5f5f 883b
00000170: 7aa9 043d ff18 9f3c 270d 803b 18a3 ba3c
00000180: ba3d cabc 69c7 333d a995 5dbb 0fda 8cbc
00000190: c189 8b3c 391a b4bb e609 133d f509 7e3d
000001a0: 074a 743d ce28 79bc 0042 72bc ee28 f2bb
000001b0: a856 8f3d 6711 583d 9ca3 a0bc 0a24 f43c
000001c0: 71f5 5d3c f2e0 853d 3ba7 733d 6c0c a23c
000001d0: ec74 90bc ebe8 cd3c 4a6c b13c ecac 01bc
000001e0: 81fd 0dbd 795c bb3c 4a8f 363d ed23 f53c
000001f0: 626d d5bc cf73 823c f4e5 e53c d53b 0f3d
00000200: 500d c1bb 0066 8c3b 99e6 e7bc bfb3 023d
00000210: 27d9 2a3d 4480 2b3d 847c 1b3d c3b6 8abc
00000220: c8cc 013d cbe5 30bc c252 ac3c b2e1 753b
00000230: 67ed febc a903 083c 1072 edbc b827 18bb
00000240: 13f7 26bc 5755 363d f0b5 3738 c97c 14bd
00000250: 36b7 5ebd 091a 83bd 7da7 c13c d214 bebb
00000260: 103a 6abc dc64 46bd ae8c a1bd d138 063d
00000270: f986 373c e048 4cbd 23ca debb 46c4 08bd
00000280: e46c eb3b cbc6 b63c 41ef 073c f32a c73c
00000290: 9909 6f3b 731f ca3b 31fd 8f3d 8cf5 353c
000002a0: fa74 f03c d8d5 4c3d dbff 80bc a78a 90bd
000002b0: 0ff8 05bd 5894 95bd 2cbf 55bd 386b e8ba
000002c0: 38c4 303c 580c e83c 591f 93bc e65d c9bc
000002d0: 4b8c b33c 776b cbbc e0d4 4b3b d567 d8bc
000002e0: b416 eabc a9fa adbc 6625 8bbc 04f5 ecbc
000002f0: 97f6 ddbc be50 f1bc b946 033d 66b7 363b
00000300: 65df 8b3c 6683 d63b e9fe b8bc 42f4 db3b
00000310: 2dda a7bc 692e 90ba 5455 debc 057f d2bc
00000320: d711 043d dd25 a83b 4927 c4bc 3810 f53c
00000330: 5a8f e0bc 9728 ee3c d149 88bc d363 483b
00000340: 00a1 f9bb c5c1 2ebd a4fb 34bd 605d 123d
00000350: 668b 013c f221 123c 2720 863c 9f22 1abb
00000360: 0b5b 32bc 698c 8bbb 5350 9fbd 7dab 49bd
00000370: 0cc6 4c3d 9bc2 66bc cb02 dabc 768f 31bd
00000380: dea8 56bd 2824 063d fc3e 803b dd5f a1bd
00000390: 3bde 36bb ef96 ea3b 56d4 8e3c 1f91 13bd
000003a0: e13b 21bc d7b4 d73c 8d09 78bb 96e2 56bc
000003b0: 7c4e f8bb 6ea5 9a3d 7651 07bc 66ea 623d
000003c0: 0f14 debc 5243 e33c 7a87 3cbd 798c 4e3c
000003d0: f9f9 fd3c 123e f83b 2160 61bb dd27 0dbc
000003e0: a9c6 1cbd 7394 fcbb 9eb2 203c f7a2 3a3c
000003f0: bdc2 553b e9b4 a0bc b0bc 003c c6af b2bb

g_model.fc1.bias f4 [128]
-0.02635797 0.033615828 0.032332785 0.008847027 -0.032184716 0.028971825 0.03941341 -0.0042928513
0.018734118 0.0041865227 0.041854214 0.01891654 -0.040251974 -0.007360917 0.032272387 -0.025972968
0.016971383 -0.03283981 -0.0067276633 0.01667815 0.00079575117 -0.028502671 0.020466851 0.023127815
-0.011325165 -0.025280459 -0.035322193 0.00018150051 0.015300202 0.0030155203 0.010574104 0.027768355
0.021305528 -0.033836618 0.016869808 0.012225857 0.017603222 0.04742475 -0.009165164 0.020031884
0.014831632 -0.01269944 0.020386206 0.022267582 -0.0033999106 -0.034148816 0.012937699 -0.010876369
-0.0545805 0.013103365 0.005757331 -0.0068242513 0.02175147 0.009636293 -0.022557944 0.048585568
0.0055146995 -0.03360123 -0.040346608 0.004201315 -0.015604211 -0.022816997 0.0012522736 0.020953938
0.03237193 -0.0071878093 -0.021857383 0.0018776138 0.014956484 -0.014201702 0.025796082 0.008068812
0.017253764 0.0083509665 0.018640751 -0.03426828 0.020513622 0.0007686194 -0.0002612106 0.033075687
0.011616131 -0.00041629194 0.030967744 -0.018498836 -0.028341541 -0.030650899 -0.010731031 0.01649193
-0.041288007 0.028729726 -0.01707843 -0.0056438805 -0.00046513698 0.012834121 0.014753247 0.011718554
0.014054074 0.030800361 0.0134123 -0.004445046 0.01906269 -0.016707174 0.04787508 0.038128316
0.027759828 0.03287594 0.021368664 -0.013358727 -0.015639931 0.026917832 0.02214986 -0.030705484
-0.016933816 0.0019655048 0.004640359 -0.038314253 0.015552655 -0.026942667 0.0115317255 -0.016215982
0.022089854 -0.024054449 0.0087707685 0.004132512 -0.017379144 0.008292695 0.018764945 -0.038701065
00000000: abec d7bc c0b0 093d 626f 043d 1ff3 103c
00000010: 1fd4 03bd 5256 ed3c f56f 213d 0cab 8cbb
00000020: 4b78 993c 192f 893b 536f 2b3d dcf6 9a3c
00000030: 41df 24bd d933 f1bb 0d30 043d 43c5 d4bc
00000040: 9207 8b3c 0983 06bd bb73 dcbb 9ea0 883c
00000050: f599 503a 6f7e e9bc 19aa a73c 8b76 bd3c
00000060: 2f8d 39bc f718 cfbc 01ae 10bd 2c51 3e39
00000070: b3ad 7a3c 09a0 453b 023f 2d3c 767a e33c
00000080: ee88 ae3c 4498 0abd 8d32 8a3c f64e 483c
00000090: a234 903c 7440 423d 7c29 16bc e819 a43c
000000a0: 6000 733c 5011 50bc f900 a73c 816a b63c
000000b0: 09d1 5ebb a1df 0bbd a5f8 533c cc32 32bc
000000c0: cd8f 5fbd 7faf 563c fea7 bc3b f89d dfbb
000000d0: 2430 b23c 8be1 1d3c 70cb b8bc a901 473d
000000e0: a7b4 b43b 71a1 09bd 7c42 25bd 2fab 893b
000000f0: cea8 7fbc b6ea babc 5423 a43a 98a7 ab3c
00000100: 6e98 043d b787 ebbb 410e b3bc 441a f63a
00000110: 0a0c 753c 41ae 68bc 4e52 d33c 0d33 043c
00000120: c457 8d3c 7ed2 083c 7db4 983c e55c 0cbd
00000130: 2f0c a83c 2d7d 493a 18f3 88b9 5f7a 073d
00000140: 9651 3e3c c241 dab9 11b0 fd3c df8a 97bc
00000150: 852c e8bc 9817 fbbc 35d1 2fbc 151a 873c
00000160: 9d1d 29bd 9a5a eb3c 10e8 8bbc 4df0 b8bb
00000170: a1dd f3b9 3446 523c 9ab7 713c 2eff 3f3c
00000180: 0f43 663c 0a51 fc3c 43bf 5b3c c0a7 91bb
00000190: 5c29 9c3c 7cdd 88bc a918 443d 702c 1c3d
000001a0: 9468 e33c eca8 063d 560d af3c 90de 5abc
000001b0: 501f 80bc c982 dc3c a073 b53c 118a fbbc
000001c0: c9b8 8abc b3cf 003b 270e 983b 68ef 1cbd
000001d0: 90d0 7e3c deb6 dcbc 90ef 3c3c 61d7 84bc
000001e0: c8f5 b43c d60d c5bc 45b3 0f3c 066a 873b
000001f0: b55e 8ebc 15de 073c f1b8 993c 0285 1ebd

g_model.fc2.weight f4 [12, 128]
0.013945328 0.045408607 0.1364007 0.04505729 -0.041302636 0.10659906 -0.10408894 0.089993
0.10544239 -0.000521205 0.020039314 0.058601853 0.044896368 -0.006282336 0.02606957 0.022151282
-0.19175878 -0.0818554 0.08019215 -0.019968836 0.037233707 -0.03229185 -0.06286045 0.070550635
-0.12342424 0.06736703 0.09543292 0.07562542 0.038671575 -0.065021686 0.1016023 -0.041930214
0.035871875 -0.010637741 -0.062338226 0.024079034 -0.057690736 -0.065805554 0.04120765 -0.0393201
0.0519284 0.03106033 -0.07518714 -0.11990624 0.05713747 -0.030789688 -0.08930344 0.024619468
-0.06892049 0.019493936 0.068804435 0.008215696 0.05228908 -0.07004186 0.036352035 0.08801296
-0.06514399 -0.085258536 -0.14530608 -0.07040142 0.087091036 0.025125079 0.07062112 0.07690747
0.23207255 -0.06234362 0.0070085065 -0.06919282 -0.0034933991 0.021511031 0.04173759 -0.07787819
0.0896771 -0.06889468 0.08951938 -0.14090136 -0.04282986 0.02498883 0.027401568 0.106347986
-0.0336456 -0.039811537 0.014085 0.02852215 0.012040966 0.10750336 -0.04828877 0.059266623
0.0009743618 -0.049085516 -0.021939794 -0.0340454 0.03535906 0.032869887 -0.1076297 0.027552813
-0.10027781 0.08633025 0.031381454 0.044823244 0.02710535 0.07594872 -0.0064211083 -0.10631036
-0.037374828 0.053670213 0.04504416 -0.002761524 -0.066825524 -0.041154955 0.102165975 0.07748772
-0.17307042 0.06224457 -0.09186787 -0.045180235 -0.09806259 -0.13576978 0.04352036 0.05949427
-0.1612123 0.024150493 0.055369463 -0.020815512 0.010536905 -0.06481601 0.11162756 0.093569115
0.0858148 -0.03200489 -0.0062155835 -0.06991505 0.04099482 -0.031562254 -0.01857316 -0.10475133
0.0745798 0.034008894 -0.09868706 0.07384284 0.020351036 0.014053355 -0.08509336 0.1103991
0.072380334 0.03935337 -0.0647869 0.0063647833 -0.09597126 -0.05199132 0.08539593 -0.09557757
0.042682167 -0.01977521 0.10035909 0.0018798311 -0.13091654 -0.07258477 -0.07808599 -0.043093592
-0.07095484 0.077011466 -0.04177796 0.101456694 -0.03394124 0.08412559 -0.11363332 -0.04485582
0.025592264 0.019157205 0.072842285 0.0012600697 0.034576714 0.0690854 0.039920248 0.14334548
-0.060047317 0.09732752 -0.07252944 0.03507711 -0.08161538 -0.04003068 -0.059511356 0.07894735
0.011197652 0.046140373 -0.033796743 -0.017687894 0.08235447 -0.06881591 -0.04630444 -0.009074041
-0.07069337 -0.095350705 -0.05861964 -0.003550771 0.004128033 0.051149026 0.12509009 -0.059978418
-0.10435441 0.12052064 -0.10504249 0.049539376 0.1249423 0.04230063 0.05309633 -0.11689117
0.028337173 0.03540982 -0.165695 -0.1189678 -0.00762052 -0.0028448026 0.068305396 0.018815814
0.13515285 0.0035455534 -0.030518604 0.056847624 -0.13619111 0.07172163 0.094212316 -0.068083614
0.041821398 -0.06200632 -0.000956752 -0.088829994 0.12609807 0.042006753 -0.14606254 -0.11819196
0.008277604 0.08683854 -0.05946062 -0.09037794 0.03417209 0.117588624 0.093598224 0.07601891
0.14802887 0.16297895 0.09235112 0.07752442 -0.052119985 0.045185603 0.08167567 -0.0036756888
0.029838331 -0.10795993 -0.0603679 -0.048511364 0.0055765263 0.089135654 0.052101605 0.09954855
00000000: f27a 643c 60fe 393d a0ac 0b3e fe8d 383d
00000010: f42c 29bd 9c50 da3d 952c d5bd 404e b83d
00000020: 2ef2 d73d 7aa1 08ba 7d29 a43c 7f08 703d
00000030: 41e5 373d 0edc cdbb da8f d53c 9b76 b53c
00000040: 6a5c 44be cea3 a7bd c83b a43d af95 a3bc
00000050: 5f82 183d 7544 04bd fbbc 80bd da7c 903d
00000060: d9c5 fcbd baf7 893d 5672 c33d 80e1 9a3d
00000070: 1666 1e3d 172a 85bd de14 d03d 04bf 2bbd
00000080: 63ee 123d eb49 2ebc 5e56 7fbd 6541 c53c
00000090: 1f4d 6cbd 10c5 86bd 5ac9 283d 1d0e 21bd
000000a0: e0b2 543d 3c72 fe3c b7fb 99bd 6791 f5bd
000000b0: fb08 6a3d a83a fcbc b9e4 b6bd c4ae c93c
000000c0: 3026 8dbd bfb1 9f3c 57e9 8c3d 209b 063c
000000d0: 132d 563d 1b72 8fbd dfe5 143d 2440 b43d
000000e0: 366a 85bd 079c aebd 1ecb 14be 9f2e 90bd
000000f0: c95c b23d 1cd3 cd3c cea1 903d aa81 9d3d
00000100: 6da4 6d3e 065c 7fbd 9da7 e53b f7b4 8dbd
00000110: 83f1 64bb e737 b03c 09f5 2a3d 9a7e 9fbd
00000120: a1a8 b73d a718 8dbd f055 b73d 7248 10be
00000130: 5d6e 2fbd 60b5 cc3c 4179 e03c f9cc d93d
00000140: f8cf 09bd 6c11 23bd c6c4 663c 49a7 e93c
00000150: 7947 453c b92a dc3d 72ca 45bd 8fc1 723d
00000160: 506c 7f3a e50d 49bd 15bb b3bc 3073 0bbd
00000170: a9d4 103d 93a2 063d f66c dcbd 70b6 e13c
00000180: 745e cdbd eacd b03d d789 003d 9498 373d
00000190: 0a0c de3c 018b 9b3d 2968 d2bb 3fb9 d9bd
000001a0: 5916 19bd 4cd5 5b3d 3a80 383d affa 34bb
000001b0: d2db 88bd 1992 28bd 653c d13d e2b1 9e3d
000001c0: 5f39 31be 2af4 7e3d 3925 bcbd e90e 39bd
000001d0: 0ad5 c8bd 3c07 0bbe 6842 323d 43b0 733d
000001e0: d614 25be 41d7 c53c 17cb 623d 4b85 aabc
000001f0: fca2 2c3c 42be 84bd fd9c e43d 2aa1 bf3d
00000200: abbf af3d 8f17 03bd 18ac cbbb 9f2f 8fbd
00000210: 2fea 273d 6c47 01bd bd26 98bc de87 d6bd
00000220: 4bbd 983d e94c 0b3d 711c cabd ea3a 973d
00000230: 37b7 a63c 0b40 663c 6d45 aebd ec18 e23d
00000240: 243c 943d 0031 213d ffae 84bd ac8f d03b
00000250: 948c c4bd daf4 54bd 10e4 ae3d 2cbe c3bd
00000260: 7fd3 2e3d 9fff a1bc 1189 cd3d aa64 f63a
00000270: fc0e 06be 53a7 94bd 8ceb 9fbd e882 30bd
00000280: c550 91bd 30b8 9d3d 5e1f 2bbd 87c8 cf3d
00000290: f805 0bbd 0a4a ac3d 96b8 e8bd bcba 37bd
000002a0: dea6 d13c 92ef 9c3c 562e 953d ec28 a53a
000002b0: 50a0 0d3d a57c 8d3d 6a83 233d 28c9 123e
000002c0: 2df4 75bd a753 c73d 518a 94bd 04ad 0f3d
000002d0: f725 a7bd 36f7 23bd 2ec2 73bd 26af a13d
000002e0: 5b76 373c b0fd 3c3d 746e 0abd 34e6 90bc
000002f0: 76a9 a83d 5bef 8cbd b9a9 3dbd 49ab 14bc
00000300: b0c7 90bd 3b47 c3bd 261b 70bd 0db4 68bb
00000310: 7344 873b a481 513d 9e17 003e eeab 75bd
00000320: c4b7 d5bd 86d3 f63d 8420 d7bd cde9 4a3d
00000330: c0e1 ff3d 6d43 2d3d 8a7b 593d a364 efbd
00000340: 5c23 e83c e309 113d f3ab 29be 64a5 f3bd
00000350: 8eb5 f9bb de6f 3abb b3e3 8b3d 9f23 9a3c
00000360: 8265 0a3e 845c 683b 2702 fabc 0ed9 683d
00000370: af75 0bbe cae2 923d 63f2 c03d 6c6f 8bbd
00000380: ea4c 2b3d 57fa 7dbd 8ace 7aba 80ec b5bd
00000390: da1f 013e 460f 2c3d 6b91 15be a00e f2bd
000003a0: ca9e 073c 68d8 b13d fb8c 73bd 1218 b9bd
000003b0: 09f8 0b3d 4ed2 f03d 6db0 bf3d cdaf 9b3d
000003c0: e194 173e f4e3 263e 9622 bd3d 20c5 9e3d
000003d0: c47b 55bd 8a14 393d 9345 a73d d3e3 70bb
000003e0: 846f f43c 191a ddbd 5544 77bd dab3 46bd
000003f0: 4bbb b63b c18c b63d 7e68 553d 1ce0 cb3d

g_model.fc2.bias f4 [12]
-0.0041665947 0.06944056 0.013164072 0.05023952 0.058587383 -0.031969633 -0.0016514144 0.04520469
0.041982874 0.0015391663 0.033725858 0.02195766
00000000: ee87 88bb da36 8e3d 1fae 573c f4c7 4d3d
00000010: 53f9 6f3d 97f2 02bd 4674 d8ba 8e28 393d
00000020: 3cf6 2b3d dabd c93a 2024 0a3d 8de0 b33c

f_model.fc1.weight f4 [32, 12]
-0.19269326 -0.2500285 -0.091627456 0.30911458 -0.035902772 -0.1959542 -0.22295293 -0.21086106
-0.047815852 0.23174934 -0.045857966 0.3352516 -0.044601887 -0.22855362 -0.03793874 0.35749263
-0.019162064 0.33122364 -0.08001952 0.056931503 0.13100477 -0.008991309 -0.24342956 -0.21692976
-0.2377631 0.397796 -0.15531392 0.3039395 0.20445937 0.29379115 -0.26721776 -0.2524526
0.4323712 -0.10996121 -0.10801123 0.2068996 0.2982947 0.16971736 -0.05190459 -0.14313507
-0.09557931 0.00534525 0.3933842 0.08119703 -0.30691433 0.06623282 -0.051634636 0.2588942
-0.1529907 -0.19516504 0.07497958 -0.15270767 0.20607303 -0.1630139 -0.23328836 0.23577781
0.36158064 0.33019373 -0.24649693 0.080215506 0.14307985 -0.04660125 -0.011835753 -0.21381988
0.12539166 -0.321134 -0.29543638 -0.2574118 -0.16830716 0.15153776 0.00665148 -0.36812925
-0.3617462 0.38928515 0.45999467 -0.13378851 0.25236192 0.06765245 -0.093753174 0.10704564
-0.15106426 -0.1570207 0.11973575 0.028488578 0.030010875 0.04663039 -0.16809785 -0.27222672
0.2879324 0.12431036 -0.053765163 0.104705185 -0.120698184 0.12566335 -0.18482324 -0.29456577
0.03355371 -0.12078763 0.055981208 -0.12006813 0.12920907 0.2158391 -0.026666785 0.054924257
0.20003174 -0.17756993 0.17149118 0.37208834 0.0730754 0.35046443 0.15151426 -0.08447815
-0.06444258 0.16588017 0.090211086 -0.017518966 0.03542228 -0.20122133 0.02890358 0.38473448
-0.15124731 -0.1960237 0.44033864 0.31390113 -0.19065613 -0.36858806 -0.12088197 0.014182671
-0.086009815 -0.10689058 -0.16732737 0.15055406 0.34815413 0.112938076 -0.27454954 0.40361872
-0.16513821 -0.21156234 -0.045974657 0.072700806 -0.063496515 0.4460224 0.17057124 0.25549605
-0.23536499 0.39208794 -0.036409725 -0.30777133 -0.14997935 -0.15695839 -0.2635437 0.019752206
-0.028961027 0.45106533 -0.14413723 -0.3234261 -0.16812581 0.040873136 -0.046370354 -0.23917288
-0.012541841 -0.36976022 -0.31403846 -0.023490682 -0.23249988 0.3268342 -0.37505984 -0.15083079
-0.052771024 0.34694743 -0.15055054 -0.0002547399 -0.102074936 -0.16966015 -0.24688284 0.2864716
-0.12860839 -0.07150809 -0.11044112 -0.013797801 -0.09403147 -0.13329703 -0.2456165 -0.014478293
0.44582957 -0.23383255 0.3642473 -0.25909817 0.3666975 -0.15772934 -0.25236496 0.07338822
-0.21077123 -0.11453785 0.39749813 0.041131638 -0.17189817 0.35180715 -0.111214906 -0.15677865
-0.31904387 -0.25148356 -0.3291135 0.065170065 -0.080780625 0.28282657 -0.073968194 0.3989411
-0.06479036 0.3934504 -0.014631671 -0.12841916 -0.25863504 0.09892841 -0.05705188 -0.12251649
-0.15192418 -0.21877408 0.28139913 0.23689821 0.11071551 0.19285117 -0.3526761 -0.20037688
0.34226218 0.17724621 0.15776004 0.04166773 0.37021083 0.20673007 0.36565906 -0.13918276
0.29705307 0.0022557387 0.041218426 0.1382635 -0.04322764 0.100799516 -0.17136316 0.30237025
-0.1911803 -0.15879531 0.42633024 0.322147 0.2629076 0.15104002 0.19623221 0.04600459
0.22006318 -0.08255787 -0.09743456 0.17924313 -0.078679726 0.11627932 0.0925125 -0.16043109
00000000: 6251 45be bc03 80be 2da7 bbbd 4444 9e3e
00000010: c90e 13bd 38a8 48be c64d 64be f6eb 57be
00000020: 8eda 43bd b34f 6d3e 90d5 3bbd 19a6 ab3e
00000030: 78b0 36bd f609 6abe a765 1bbd 4609 b73e
00000040: c3f9 9cbc 2596 a93e 46e1 a3bd 0231 693d
00000050: 1d26 063e 4950 13bc 9945 79be d622 5ebe
00000060: 2c78 73be ebab cb3e 9d0a 1fbe f59d 9b3e
00000070: cc5d 513e cb6b 963e c4d0 88be 7841 81be
00000080: c25f dd3e 5833 e1bd fe34 ddbd 7ddd 533e
00000090: 15ba 983e 63ca 2d3e e899 54bd 0092 12be
000000a0: 16bf c3bd 3527 af3b a769 c93e a14a a63d
000000b0: e023 9dbe 13a5 873d d77e 53bd c88d 843e
000000c0: 98a9 1cbe 58d9 47be e58e 993d 665f 1cbe
000000d0: cf04 533e 1eed 26be 25e3 6ebe bd6f 713e
000000e0: 1921 b93e 270f a93e b169 7cbe 0748 a43d
000000f0: 8683 123e f4e0 3ebd bfea 41bc 99f3 5abe
00000100: ac66 003e ad6b a4be 7043 97be 7bcb 83be
00000110: b658 2cbe b72c 1b3e a9f4 d93b 707b bcbe
00000120: cc36 b9be 6250 c73e 6c84 eb3e dbff 08be
00000130: 9535 813e 5e8d 8a3d aa01 c0bd bf3a db3d
00000140: 97b0 1abe 09ca 20be 0438 f53d e160 e93c
00000150: 5ed9 f53c 82ff 3e3d d821 2cbe 4d61 8bbe
00000160: e06b 933e 6e96 fe3d dc38 5cbd ac6f d63d
00000170: 9c30 f7bd e5ad 003e 4e42 3dbe 53d1 96be
00000180: 9d6f 093d 815f f7bd 8d4c 653d 48e6 f5bd
00000190: 624f 043e ed04 5d3e 4d74 dabc 42f8 603d
000001a0: 1fd5 4c3e e4d4 35be 629b 2f3e 5d82 be3e
000001b0: 8ea8 953d 1370 b33e 8e26 1b3e e102 adbd
000001c0: 79fa 83bd 7edc 293e 97c0 b83d ef83 8fbc
000001d0: f416 113d f70c 4ebe 33c7 ec3c ebfb c43e
000001e0: 93e0 1abe 70ba 48be 1174 e13e a6b7 a03e
000001f0: 5c3b 43be 93b7 bcbe f790 f7bd 6f5e 683c
00000200: ea25 b0bd 73e9 dabd de57 2bbe d82a 1a3e
00000210: 4241 b23e 144c e73d c291 8cbe 1da7 ce3e
00000220: fe19 29be cca3 58be ec4f 3cbd 29e4 943d
00000230: 760a 82bd 0c5d e43e 3aaa 2e3e 61d0 823e
00000240: 8503 71be c0bf c83e 5d22 15bd 3494 9dbe
00000250: 3094 19be b3b9 20be 33ef 86be 61cf a13c
00000260: ad3f edbc 09f2 e63e b698 13be 1b98 a5be
00000270: 2c29 2cbe 976a 273d d7ee 3dbd bce9 74be
00000280: 4b7c 4dbc 3651 bdbe a6c9 a0be 886f c0bc
00000290: 7314 6ebe d056 a73e d807 c0be 6373 1abe
000002a0: 6e26 58bd 18a3 b13e ec29 1abe 9c8e 85b9
000002b0: aa0c d1bd 64bb 2dbe dbce 7cbe 68ac 923e
000002c0: ebb1 03be d572 92bd f42e e2bd 2c10 62bc
000002d0: 9293 c0bd 047f 08be e482 7bbe 5d36 6dbc
000002e0: c643 e43e cd71 6fbe 9f7e ba3e 84a8 84be
000002f0: c6bf bb3e cd83 21be fb35 81be 904c 963d
00000300: 6ad4 57be d292 eabd e084 cb3e a679 283d
00000310: 1306 30be 1120 b43e a4c4 e3bd 958a 20be
00000320: b859 a3be 74c2 80be 9181 a8be e277 853d
00000330: 5070 a5bd a5ce 903e a37c 97bd 0242 cc3e
00000340: cfb0 84bd 5572 c93e adb9 6fbc 5080 03be
00000350: d06b 84be fa9a ca3d 3baf 69bd ede9 fabd
00000360: 0392 1bbe 5006 60be 8c13 903e 7295 723e
00000370: d0be e23d c77a 453e f691 b4be 992f 4dbe
00000380: fd3c af3e 0880 353e d98b 213e c8ab 2a3d
00000390: 468c bd3e 0cb1 533e aa37 bb3e ed85 0ebe
000003a0: 5717 983e 04d5 133b a7d4 283d f294 0d3e
000003b0: 770f 31bd fa6f ce3d d379 2fbe 46d0 9a3e
000003c0: c5c4 43be 3d9b 22be f547 da3e 74f0 a43e
000003d0: d39b 863e 3caa 1a3e 19f1 483e 4f6f 3c3d
000003e0: 3e58 613e 1a14 a9bd c58b c7bd 838b 373e
000003f0: d622 a1bd da23 ee3d 3277 bd3d 0c48 24be

f_model.fc1.bias f4 [32]
0.21754421 -0.17017023 0.10431992 -0.15998055 0.16382971 -0.16065182 0.0854055 0.17727639
-0.15448274 0.17969383 -0.12839928 0.13059066 -0.14705175 0.21940224 0.34542188 0.35455552
0.118230715 0.28268224 -0.005003006 0.1996643 -0.18824363 -0.12623306 0.0527947 -0.05861046
0.13314849 0.29785106 0.12271557 0.36802253 0.15128751 -0.26315442 0.06254785 0.19602956
00000000: e9c3 5e3e 1b41 2ebe afa5 d53d f1d1 23be
00000010: fac2 273e e981 24be 14e9 ae3d f187 353e
00000020: b930 1ebe a901 383e 1a7b 03be 8fb9 053e
00000030: bc94 16be fbaa 603e 23db b03e 4d88 b53e
00000040: f222 f23d babb 903e 42f0 a3bb cc74 4c3e
00000050: f0c2 40be 3d43 01be 413f 583d 8611 70bd
00000060: 1458 083e ef7f 983e 4d52 fb3d 736d bc3e
00000070: 1deb 1a3e 2dbc 86be 1619 803d f9bb 483e

f_model.fc2.weight f4 [10, 32]
-0.19566928 -0.1543677 -0.2861991 0.0724756 -0.24422318 -0.12831141 -0.18571106 -0.21626532
0.1429247 0.08883858 -0.12883456 0.263696 -0.0950618 -0.12565997 -0.086588606 -0.017828397
-0.14131327 -0.314558 -0.14632095 0.30768868 0.05746879 -0.26672655 -0.13740246 -0.03937172
-0.09656774 0.23432688 0.10797871 -0.11702678 0.15682481 -0.14470965 -0.15041295 -0.031520218
-0.22809765 -0.1472076 0.1651282 -0.022402342 -0.2381066 -0.16753764 0.18023665 -0.017386582
-0.22581485 0.01769413 -0.04722517 -0.08464376 0.301374 -0.11091644 0.22085947 -0.23269476
-0.0319532 0.26869562 -0.29185763 -0.06817465 0.021888725 0.108412646 0.02241439 -0.15971372
-0.018943287 -0.14523765 0.05819138 0.14142387 -0.19950296 -0.16425304 -0.18867554 -0.21943653
0.07789153 -0.3507011 -0.15608871 -0.23484828 -0.17173788 -0.15887053 0.19380711 -0.08805662
-0.07538432 0.21298681 0.29389668 -0.060052007 -0.1738241 -0.036433827 -0.20617376 -0.000977556
0.11790694 -0.28118828 0.1477289 0.12369397 0.21670443 -0.045834478 -0.3346049 -0.059425686
-0.0068983575 0.058395483 -0.2038957 -0.004780477 0.122231305 -0.24583882 0.06596345 -0.039741796
0.2850998 0.19538516 0.08969011 0.14366198 -0.17986198 -0.08531027 -0.21166782 -0.2679369
-0.08592501 -0.098304994 0.23135804 0.25945792 -0.08556505 -0.19879395 0.017495455 -0.058586515
-0.083035894 0.21254103 0.060842123 -0.060196027 0.1374916 -0.19757694 -0.299417 -0.029288342
-0.06632918 -0.25983477 -0.028451076 -0.3652883 -0.3461262 -0.03825397 -0.20135342 -0.070960045
-0.092527024 -0.24640802 0.011281547 -0.069113135 -0.07455268 0.3795234 -0.0191753 0.27942976
-0.1458801 -0.1066318 -0.00021581019 -0.3283549 0.1622856 0.2289047 0.012691125 0.13038945
-0.18494853 -0.1757578 0.04695702 -0.11420247 0.08514189 -0.18017 -0.37410346 -0.032020085
-0.18494834 -0.08105639 -0.05174075 0.03623431 -0.061868623 -0.04474836 0.1893584 -0.03669283
0.009931429 0.09848418 0.03442909 -0.22570208 -0.23604263 -0.06586245 -0.21656278 0.03174972
0.010979723 0.007933687 -0.2144069 -0.028887922 -0.029539915 -0.3125199 -0.24728931 -0.1949879
0.13867626 0.14193565 0.048459087 -0.13194662 0.07286654 -0.15612884 0.3023491 -0.15893441
-0.28603214 0.22378586 0.08774195 -0.077153385 -0.065650664 -0.062134244 0.17480913 0.11973304
0.05725225 -0.26016802 -0.113806486 0.059199587 -0.1188266 -0.06193953 -0.20105717 -0.26259595
-0.13975169 -0.029120902 -0.15022516 -0.05401578 -0.14079915 -0.0750984 -0.10767378 0.21253374
0.17859422 0.022843791 -0.12578356 -0.204404 -0.06940625 -0.007773017 0.069252364 -0.19967464
-0.2138215 -0.08888672 0.041551225 0.19654521 0.10656762 0.29888573 -0.2056727 0.26198605
-0.14587383 -0.2083477 -0.2406617 -0.03508722 0.061497368 -0.028435748 -0.0918268 0.0883385
-0.18709975 -0.29163733 0.06698302 0.15080169 -0.021173228 -0.17541486 0.23957033 -0.07975299
0.040774573 -0.15663122 0.04721871 -0.07836598 0.046216488 0.2826457 0.06963282 0.271518
0.04906327 0.20054662 -0.0570083 -0.20281254 -0.3321931 -0.13014895 -0.033363298 -0.121279046
00000000: 875d 48be 9112 1ebe b088 92be 166e 943d
00000010: a415 7abe 1164 03be 0a2b 3ebe a874 5dbe
00000020: da5a 123e 00f1 b53d 35ed 03be 2a03 873e
00000030: c3af c2bd 02ad 00be 5e55 b1bd dc0c 92bc
00000040: 6db4 10be bf0d a1be 29d5 15be 5f89 9d3e
00000050: 6564 6b3d 6290 88be 3bb3 0cbe 3e44 21bd
00000060: 4fc5 c5bd 63f3 6f3e f123 dd3d bdab efbd
00000070: af96 203e c42e 14be da05 1abe 581b 01bd
00000080: 6e92 69be 97bd 16be 5e17 293e 1e85 b7bc
00000090: 37d2 73be fd8e 2bbe f58f 383e 4e6e 8ebc
000000a0: 023c 67be 48f3 903c 2e6f 41bd b559 adbd
000000b0: b14d 9a3e 2928 e3bd fc28 623e 8947 6ebe
000000c0: 5ce1 02bd 7992 893e 5d6e 95be 279f 8bbd
000000d0: fc4f b33c 7307 de3d 629e b73c fe8b 23be
000000e0: f42e 9bbc 2eb9 14be 165a 6e3d 6bd1 103e
000000f0: 814a 4cbe f331 28be 2934 41be f8b3 60be
00000100: 9885 9f3d 188f b3be b8d5 1fbe 117c 70be
00000110: 0edc 2fbe f5ae 22be 5f75 463e 0757 b4bd
00000120: 1863 9abd 3719 5a3e a079 963e 18f9 75bd
00000130: f2fe 31be a33b 15bd 371f 53be 5621 80ba
00000140: 3279 f13d e9f7 8fbe 3f46 173e 4453 fd3d
00000150: c4e7 5d3e efbc 3bbd 5551 abbe 5968 73bd
00000160: 9e0b e2bb 1a30 6f3d 09ca 50be 8ca5 9cbb
00000170: 6854 fa3d 2cbd 7bbe d817 873d 4bc8 22bd
00000180: 9af8 913e 0c13 483e 73af b73d 201c 133e
00000190: bd2d 38be 27b7 aebd 73bf 58be 062f 89be
000001a0: 74f9 afbd 2154 c9bd 1fe9 6c3e abd7 843e
000001b0: bb3c afbd a490 4bbe a152 8f3c 6af8 6fbd
000001c0: b90e aabd 5ba4 593e 9735 793d 1c90 76bd
000001d0: 99ca 0c3e 9c51 4abe 2f4d 99be 1bee efbc
000001e0: 98d7 87bd 1009 85be 3b12 e9bc 1107 bbbe
000001f0: 7437 b1be 32b0 1cbd 972f 4ebe 8053 91bd
00000200: cf7e bdbd 6252 7cbe 3dd6 383c 308b 8dbd
00000210: 13af 98bd e450 c23e 8515 9dbc 6b11 8f3e
00000220: 9861 15be c661 dabd 1b4b 62b9 221e a8be
00000230: 322e 263e fe65 6a3e 70ee 4f3c d084 053e
00000240: 2663 3dbe daf9 33be 0156 403d fce2 e9bd
00000250: df5e ae3d 7c7e 38be 7d8a bfbe 7e27 03bd
00000260: 1963 3dbe e500 a6bd 1cee 53bd 6e6a 143d
00000270: f469 7dbd 0e4a 37bd 2be7 413e 394b 16bd
00000280: 6fb7 223c 13b2 c93d 8405 0d3d 721e 67be
00000290: 29b5 71be e4e2 86bd a2c2 5dbe ff0b 023d
000002a0: 4ce4 333c 4cfc 013c 7b8d 5bbe 5da6 ecbc
000002b0: b1fd f1bc 9c02 a0be 6939 7dbe e8aa 47be
000002c0: 2601 0e3e 9457 113e 097d 463d 041d 07be
000002d0: 0d3b 953d 3de0 1fbe 80cd 9a3e b4bf 22be
000002e0: ce72 92be 1f28 653e 0db2 b33d 9802 9ebd
000002f0: db73 86bd 7a80 7ebd 2a01 333e 9936 f53d
00000300: 5681 6a3d be34 85be 6013 e9bd 447b 723d
00000310: 5c5b f3bd 4eb4 7dbd eee1 4dbe fa72 86be
00000320: 111b 0fbe f58e eebc a0d4 19be a73f 5dbd
00000330: a72d 10be 31cd 99bd 1284 dcbd 72a2 593e
00000340: 67e1 363e e722 bb3c 68cd 00be 484f 51be
00000350: dd24 8ebd cbb4 febb 2fd4 8d3d 8277 4cbe
00000360: 06f4 5abe 3e0a b6bd 9e31 2a3d 2643 493e
00000370: 2040 da3d 8d07 993e dd9b 52be 0923 863e
00000380: f35f 15be 1959 55be 0570 76be 9eb7 0fbd
00000390: aae4 7b3d 16f2 e8bc b00f bcbd d1ea b43d
000003a0: 1497 3fbe 7d51 95be 652e 893d c26b 1a3e
000003b0: 7a73 adbc f49f 33be ed51 753e 8955 a3bd
000003c0: 3d03 273d ef63 20be 6868 413d 587e a0bd
000003d0: 804d 3d3d f0b6 903e a79b 8e3d 6804 8b3e
000003e0: 91f6 483d 185c 4d3e 8981 69bd 17ae 4fbe
000003f0: 3715 aabe c445 05be f4a7 08bd 2661 f8bd

f_model.fc2.bias f4 [10]
-0.025712606 0.19691873 0.088866994 -0.10078287 -0.016329257 0.071464546 -0.013568301 -0.08479969
0.07775425 -0.14343525
00000000: 3ea3 d2bc 10a5 493e e6ff b53d 4067 cebd
00000010: efc4 85bc 015c 923d 944d 5ebc 76ab adbd
00000020: 9f3d 9f3d b1e0 12be
