models/Adversarially trained models/robust_cnn_model_0.pt (torch, 456900 bytes, 8 tensors)

conv1.weight f4 [32, 1, 3, 3]
00000000: 70ec 4a3e 7617 bb3e 1883 423e 64c0 023a
00000010: e3bb 2bbe 8bee 9cbd c591 9c3d ed6c 8abd
00000020: f93d b63e 4447 02be 95f5 373e bc6a 133e
00000030: acb9 233e 5e9e d0bd fd9c 9fbe fd7c a93e
00000040: 5374 603e d371 58bd 59fd 42bd ca48 98be
00000050: daf5 76be 5cda 57be 9c25 6fbd 2335 e2bd
00000060: 39a8 333e 6549 323e b5ce bc3e a67b 4fbe
00000070: 5dbf ccbd fd00 0bbe ef6e 193e e80b bc3e
00000080: 8e2b b43e 5804 d53e fd11 d0bd 0fcb 4abe
00000090: f869 163e 8e3c cd3e 2616 b63e 7909 58be
000000a0: 90ae b4bc e3ab 443e b7e0 893e debe a43e
000000b0: a2c5 373e a993 8b3e 6d8f bcbd 856e a9be
000000c0: 6175 583e cd9a ba3e c0d7 90be fd57 a13e
000000d0: a622 c3bd 7c15 3ebc aaa4 65bd ab37 9abd
000000e0: 4538 b63e c1d3 14be af65 afbe e2db 40bd
000000f0: 092b 203e bed5 243e f202 873e 86e8 60be
00000100: fd83 883e 18b1 78bd fcf1 d33e 064e ce3d
00000110: 0f16 fa3d e64a a33e 1ae4 8b3e 5f25 77be
00000120: 2f07 3f3d fb65 ad3e 93f5 eebd 0a02 873e
00000130: cb62 bc3e e842 953e d0ac 61be 61c2 aebd
00000140: de29 82be dfef 6b3e bc90 b23e b64d 8c3e
00000150: 9f5a 8d3e f7ce 9d3e 26d8 063d 5494 0abd
00000160: 35bc c33e 75ce 463e f6b4 b63e af8c 9e3e
00000170: 94ae 843d 18b4 463e 681c fd3c d503 5dbe
00000180: 95dd 573e f241 bf3e e925 993e 11cd 6ebe
00000190: 576e 3a3d 9470 2fbe e531 be3e 9cc7 b03e
000001a0: 10c3 22be 161d 7abe 8d00 11bd a339 8e3e
000001b0: 314c 9bbd 0179 9d3e 95d9 e1bd c358 aebd
000001c0: bec1 b23d a4b9 c83e 5201 8ebe 9d32 b7be
000001d0: a4ec cdbe b3dd 57be e3a6 003d cefb c33e
000001e0: 8cfb eabd e9af 6f3e ec2b 9b3e b292 f43d
000001f0: cd6e 513e f89d 823e 566b 15be b38c 923e
00000200: f7fa 743e 1cdb 8cbe 9083 9f3e 2d95 b23e
00000210: 3f10 c0be 9f9b dfbd fb31 b4bd ddb2 a53c
00000220: 189f c43c 8072 37be 969c 80bd 6969 bebd
00000230: acb0 d3bd 451a 943e 5e17 bbbe 14a4 56be
00000240: 310a 803e d9a1 ab3e 7921 b53e 2b4f 2c3d
00000250: 808b 4b3e 205a d8bd 49ac 183e 0344 dd3d
00000260: 8ae5 34be 2817 023e 9937 66bd 5ee2 a1be
00000270: 5130 883d 15d9 953e ed58 91be f39d ad3e
00000280: d6c7 8ebd 5bf8 0cbe 6aae d93b 5a78 26be
00000290: 9606 c1bb 3b84 5d3e 6cd6 893e 529d bf3e
000002a0: 6aa1 723e ca92 9ebd 0a9d bc3e 7fec 82be
000002b0: 133d bdbe 4c09 91be 3068 cdbd cb9f bf3d
000002c0: e3c3 b93d c265 26be 54da bb3e b956 573d
000002d0: 1e7e b63d 4c2f 29bd e190 52bb 1ddb f6bd
000002e0: 6b6a be3e a497 c43e f1a9 813e ed71 403e
000002f0: 00ad aa3e af6a 6c3e 1a4c 21be 8fc6 75be
00000300: 3497 a3be 9ff2 89bd 9925 87be 65af c7bd
00000310: 108f 8f3e e091 5dbd 46a3 1bbd 86de 893e
00000320: 7bf2 cf3d 3492 2bbd d0f8 f3bd c1d8 893c
00000330: be5b 2dbd 4830 b33e b585 a63e 5662 a0bd
00000340: a9f9 83be d86c 1c3d a774 543e 32c6 703e
00000350: 9a79 43be a702 cd3e 3b9b 593d 3d84 a23e
00000360: 7a25 28be eaf9 1c3e c89f bf3e 9ede 043e
00000370: 45f6 ab3e de38 14bd cd13 b9be 18bf 5bbe
00000380: 51e1 39be 4d53 71be baef 87bd 2c6c 6e3e
00000390: bd14 bc3e 1ec9 353e 7c36 b63e 8ce9 b5bd
000003a0: d1ac 6bbc e752 183e 4630 813e 65d7 45bd
000003b0: 5191 aabe 88f8 31be b8dd 74be 07db 0f3d
000003c0: b51e 91be d596 7fbc 2d2e 6e3c fe55 ac3d
000003d0: 49e2 9cbd 8bd8 4e3d 8f9b bc3e 5fb4 dfbd
000003e0: 8090 46be 8df4 d73e 9a7f 1cbe 96e7 89be
000003f0: af18 b93e b5fc 27be c307 87be 47b6 a23c
0.19816756 0.36541337 0.18995321 0.0004987775 -0.16770892 -0.07662686 0.07644991 -0.06759057
0.35594156 -0.12722498 0.17964776 0.14396185 0.15988797 -0.10186456 -0.3117446 0.3310317
0.21919374 -0.052842926 -0.047604892 -0.29743034 -0.24117222 -0.21079391 -0.058385476 -0.11045291
0.1754464 0.1741081 0.36876455 -0.20262012 -0.09997437 -0.13574596 0.14983724 0.36727834
0.3518948 0.41604877 -0.10159681 -0.19804023 0.14688861 0.40085262 0.35563773 -0.21097364
-0.022055894 0.19206195 0.26929256 0.3217687 0.17946485 0.27261093 -0.09207044 -0.33092132
0.21138526 0.3644623 -0.28289604 0.31512442 -0.09528093 -0.011601802 -0.05606524 -0.07530149
0.35589805 -0.14533903 -0.34257266 -0.047084697 0.15641417 0.16097161 0.26369435 -0.219637
0.266632 -0.060715765 0.41395557 0.100734755 0.122112386 0.3189308 0.27322465 -0.2413535
0.04663771 0.33866867 -0.11667933 0.26368743 0.36794123 0.29152608 -0.22038579 -0.085331686
-0.25422567 0.23040722 0.3487605 0.2740304 0.276082 0.30821964 0.03292098 -0.033832863
0.38229528 0.19414695 0.35684937 0.30966708 0.06478611 0.19404638 0.030897334 -0.21583493
0.2108062 0.37355 0.29911736 -0.23320414 0.045515385 -0.17132789 0.37147442 0.3452729
-0.15894723 -0.24425158 -0.035400916 0.27778348 -0.07582892 0.3075638 -0.110278286 -0.08513024
0.0872836 0.39204133 -0.27735382 -0.35780802 -0.40219605 -0.21080665 0.031409156 0.3827805
-0.1147376 0.23406948 0.30306947 0.119420424 0.20452423 0.25511146 -0.14591727 0.2862297
0.2392386 -0.27510917 0.31155062 0.34879437 -0.37512395 -0.10918354 -0.087985955 0.02022689
0.024001643 -0.17914772 -0.062798664 -0.09297449 -0.10336432 0.28926292 -0.36541265 -0.20961028
0.25007775 0.33521917 0.353771 0.042067688 0.19877434 -0.10564065 0.14909472 0.10803988
-0.17665687 0.12704146 -0.056205366 -0.31618017 0.066498406 0.29267183 -0.28388157 0.33909568
-0.069717094 -0.13766615 0.006643106 -0.16256848 -0.0058906777 0.21632473 0.26921403 0.37424713
0.23694387 -0.077428415 0.3683856 -0.25571057 -0.36960658 -0.28327405 -0.10029638 0.0935665
0.090705656 -0.16249755 0.3669001 0.05257294 0.08910774 -0.04130487 -0.0032129812 -0.12053511
0.37190565 0.38396943 0.25324968 0.18793459 0.33335114 0.23087572 -0.15751687 -0.24001525
-0.31951296 -0.067357294 -0.26395872 -0.09750251 0.28038836 -0.054094195 -0.037997507 0.26927584
0.10153671 -0.041887477 -0.119126916 0.01682699 -0.04232382 0.34997773 0.32523885 -0.07831256
-0.25776413 0.03818974 0.20747624 0.23513106 -0.19089356 0.40041086 0.053126555 0.31741515
-0.16420546 0.1532971 0.3742659 0.12975547 0.33586326 -0.036187045 -0.3614792 -0.21459615
-0.18152358 -0.23566933 -0.06637521 0.23283452 0.36734572 0.17752501 0.35588443 -0.08882436
-0.014384464 0.14875375 0.25232142 -0.04830112 -0.33313993 -0.17379963 -0.23912704 0.03512099
-0.2834374 -0.015599926 0.014537376 0.08414839 -0.07660348 0.05049948 0.36837432 -0.10923075
-0.1939106 0.42178765 -0.15283051 -0.269345 0.36151645 -0.16404994 -0.2637311 0.019862307

conv1.bias f4 [32]
00000000: 5c1f ffbd 34a4 85bd db99 d33d 2be6 68bd
00000010: 94b6 dcbb faa9 afbb bc14 8a3c 4254 0ebc
00000020: a380 c0bd 7975 c9bd 0e94 5fbe 1d41 01be
00000030: 0e17 4c3e d750 5fbd b2b1 b13e 42b0 973e
00000040: acbe 7a3d d6a0 a63e eefe 5cbd 65d0 a43d
00000050: 9f88 563e cf8c 98be 052b 963e b9e0 fd3b
00000060: f455 e3bd 86e7 8d3e c476 293e 0b5f 28be
00000070: d6ae f9bd bc6a 88be 3528 f8bd 8e70 39be
-0.12457153 -0.0652546 0.1033208 -0.05686013 -0.006735632 -0.005360839 0.01685559 -0.008687081
-0.093995355 -0.09836859 -0.21833822 -0.12622495 0.1993067 -0.054520454 0.34705883 0.29626662
0.061216995 0.32544583 -0.053954057 0.080475606 0.20950554 -0.29794928 0.29329696 0.0077477363
-0.11100379 0.277157 0.16549212 -0.16442506 -0.121915504 -0.26643932 -0.12117044 -0.18109342

conv2.weight f4 [32, 32, 3, 3]
00000000: 1cb2 eebc d35c 353d 2934 573d 4df1 9c3c
00000010: 5bbe 323c fbef e03b c00f 2fbd 5513 c9bc
00000020: 1dcc 453d 2c13 933c 6dbc 913d 888d a63d
00000030: 1089 b0bb 8695 0ebd 7609 843d 61b0 95bc
00000040: 1b01 6f3b b8ff cc3d 3375 75bd 01f8 e1bc
00000050: f39c d4bc c71e a73c 265e 02bd a826 c3bd
00000060: 6659 ba3d 77d9 693c 1cd7 97bd 8009 523d
00000070: ce02 033c e294 7ebb 630b 2ebd 5592 8fbd
00000080: 48cb 803c c258 a7bb 69b7 543c 97ac 2f3d
00000090: 182b 1ebd 8872 bebc 1fc8 1f3d 5f38 063d
000000a0: 59da 803d 99aa 733d 03c0 6c3d d308 953d
000000b0: c321 853d 8a85 a13d 7e3a 923d 8cbe 943d
000000c0: ce47 46bd be19 b8bc 1855 013d f6ce 663c
000000d0: dc10 663d 06f2 913d c0be 16bd 22f2 363d
000000e0: 7ac9 92bc 9a3b 1f3d 90b1 bf3d 1de7 65bc
000000f0: d54b 403d 0950 b23d db2a 32bd 69e5 e1bc
00000100: f53b 823d a729 27bc e79c 0fbd 025d 663d
00000110: dbae 2c3d e942 8cbc 5b35 9e3d bdaa 4b3d
00000120: fedc 0f3c e541 d43b 5cf9 1a3c e3e3 4abc
00000130: 4876 d23c 4ae7 253d aa08 c4bd d235 9ebb
00000140: 0718 ebbb 732d d3bb 2f60 163d ae64 853d
00000150: 0a19 e93a 1de3 733c 06d9 613d 115f 7abd
00000160: 725b e3bb ef76 213d ea14 c03c 0aaf 353d
00000170: bd89 423d 15a6 1cbc 24ac 4fbc 3a23 5bbc
00000180: c90d ac3c eec1 acbc bc37 073d 5801 5a3d
00000190: 1dd5 163e 6447 a33d d468 103c 7362 8cbc
000001a0: 373e d13b b598 a0bc d58a 14bc 83e3 a73c
000001b0: 225c 883d c07e 9fbd 1987 13bd d234 c1ba
000001c0: addf 2fbd 8780 a9bd 15da 35bd 42da b9bd
000001d0: 65f4 92bd ba86 0f3d 160c 503d 5b1a 21bd
000001e0: c3ba 733b 5e85 bcbc 9b05 2e3b 8d61 013c
000001f0: 5e57 903d dc55 183d d6e5 ae3c ec31 a53d
00000200: 32f6 67bd c8f7 0d3d a76e 863d d402 84bd
00000210: c518 44bd 52de 10bd 6006 0bbd 4ac9 9e3b
00000220: a16c 82bc 53fb a7bc 10e5 24bd d279 12bd
00000230: 670a d2bb c9a9 f6bc eacc 10bc 9ca9 05bd
00000240: bb08 17bd 41b9 efbc 297d 4abc 8148 1ebc
00000250: fbbd 07bd e8f9 853d 2468 c53b 0059 d7bc
00000260: fc14 013d 40aa 753d b1bd 853d 9b21 c63d
00000270: e66c aebb a5e1 fdbc 5c82 4c3c b729 073d
00000280: 1cbf 0ebd 848f b83d 89a9 213d 57d5 ea3c
00000290: 4ef9 573d 1800 b23c 715a c3bc 7874 453c
000002a0: 52b0 06bd 13a4 243d ffcc bbbc bd3d 02bd
000002b0: 6e30 40bd 9033 a7bd 67c3 b6bc 8253 9dbd
000002c0: b5bb 62bd 0413 debb 3bc9 43bd 5119 50bd
000002d0: 197d 2bbb 6e9c ebbc 9de0 b1bc 78aa 11bb
000002e0: 14ca 9abc acac 893d ad05 a53c 3cf5 a13d
000002f0: 7c35 8e3d 5f1f 013d 5434 17bc 7006 123d
00000300: e516 c4bc 7f37 53bd 8c6e 793b a08b 60bd
00000310: 0a7a d03c 6e31 64bd 4d62 8e3c cb53 6f3d
00000320: cf54 ec3b c05a 383c 08ee 843c ec9c 2a3d
00000330: e28b f6bc 7d98 f33c c1ac ab3d cdc6 453c
00000340: e5bd 1b3d 84db 9e3d 61a1 bcbc 572a 6d3d
00000350: 33b1 fdbb 239c f6bc a268 0cbc 6ebe 7c3d
00000360: 3d4b 8e3c eeaa 223d f7da 75bc 1df4 98bc
00000370: e92a c8bb e774 8fbd 6568 8bbd edcb e03c
00000380: ac65 85bd 4c16 48bd 2a71 65bc 4158 843b
00000390: b37f 4a3d 321b c13c 883e 5bbd e9fe 6e3c
000003a0: f87e 563d 1e3a 12bd 20c2 38bd d289 73bc
000003b0: 4d2a 59bd 7c31 023d 8c69 8abd 21e7 8fbd
000003c0: 2726 723c 8bab c3bc 0065 29bc cbfe 943d
000003d0: 348a eb3d 7d31 203e 9d24 f4bc 8531 c63d
000003e0: 6993 1e3e 8e9f 55bd 52dd a13d 2784 223e
000003f0: cfb4 743d b1f2 ba3d 9854 8b3d b498 8b3d
-0.029137664 0.044277977 0.05253998 0.01915803 0.010909642 0.0068645454 -0.04273963 -0.024545351
0.04829036 0.017953478 0.071160175 0.08132464 -0.005387433 -0.034810565 0.06447117 -0.01827258
0.0036469165 0.10009712 -0.059926223 -0.027584078 -0.025953745 0.020400418 -0.03182807 -0.095288575
0.09099083 0.014273039 -0.07414076 0.05127859 0.007996274 -0.0038846065 -0.042491328 -0.070103325
0.015721932 -0.0051070163 0.0129831815 0.042889204 -0.038615316 -0.023247972 0.03900921 0.032768603
0.062916465 0.059488866 0.057800304 0.07277074 0.0650058 0.07886799 0.07140063 0.072629064
-0.048408322 -0.022473212 0.031575292 0.014087429 0.056168422 0.071262404 -0.036803007 0.04466451
-0.017918337 0.0388752 0.09360039 -0.0140321525 0.04694732 0.08706672 -0.0434979 -0.027575212
0.06359092 -0.010202802 -0.035061743 0.056241043 0.042158943 -0.017121749 0.077250205 0.049723376
0.008780716 0.006477582 0.009458866 -0.012383434 0.025691167 0.040503778 -0.09571965 -0.004828193
-0.007174495 -0.006444627 0.03671282 0.06513344 0.0017783951 0.014885691 0.05513861 -0.06112582
-0.0069383914 0.039420065 0.023447473 0.044356383 0.04749464 -0.009561081 -0.012675319 -0.013375098
0.021002667 -0.021088567 0.033012137 0.053223938 0.14729734 0.07972601 0.0088140555 -0.017136788
0.0063855904 -0.019604066 -0.009066303 0.020494228 0.06658198 -0.077878475 -0.03601751 -0.0014740473
-0.042937923 -0.08276468 -0.044397432 -0.090748325 -0.07175521 0.035040595 0.050792776 -0.039331775
0.0037190176 -0.023012813 0.0026553634 0.007896793 0.07047914 0.037191257 0.021349829 0.080661625
-0.056631275 0.03466013 0.06564074 -0.06445852 -0.047875185 -0.03536827 -0.033941627 0.004845773
-0.015920939 -0.020505583 -0.040257514 -0.03576071 -0.0064099315 -0.030110257 -0.008837918 -0.032632455
-0.03687356 -0.02926314 -0.012358942 -0.009660841 -0.033140164 0.065418065 0.0060243774 -0.026287556
0.031514153 0.059976816 0.065303214 0.096743785 -0.0053230403 -0.030991385 0.012482252 0.032998767
-0.034850225 0.090117484 0.039468322 0.028666181 0.05272799 0.02172856 -0.023846837 0.012051694
-0.032882996 0.040195536 -0.022924898 -0.03179716 -0.046921186 -0.08164132 -0.022309972 -0.076819435
-0.055354793 -0.006777169 -0.04779933 -0.050805394 -0.0026167093 -0.028761115 -0.02171355 -0.0022226851
-0.018895186 0.06722388 0.020144308 0.07908103 0.06943795 0.03152406 -0.009228785 0.03565067
-0.023936698 -0.051566597 0.0038060276 -0.054820657 0.025448818 -0.055711202 0.017380858 0.05842952
0.0072122584 0.011252105 0.016226783 0.04165356 -0.030095998 0.029735798 0.083825596 0.012071324
0.038022894 0.07756713 -0.02302617 0.057901707 -0.007742071 -0.030103749 -0.008569868 0.061705045
0.01736986 0.039713793 -0.015005819 -0.01867109 -0.006108631 -0.07004719 -0.06807021 0.02744099
-0.06513533 -0.04884939 -0.014004031 0.004038841 0.04943819 0.023572538 -0.05352643 0.0145871425
0.05236718 -0.035699956 -0.045107007 -0.014864402 -0.053018857 0.031785473 -0.06758413 -0.07026506
0.014779604 -0.023885509 -0.010339022 0.072751604 0.115009695 0.15643878 -0.029802615 0.09677414
0.1548592 -0.052154116 0.079035416 0.15870725 0.059742745 0.09128321 0.06803244 0.06816235

conv2.bias f4 [32]
00000000: 5ce5 4d3d 2f26 743c b9d3 463d f4c7 22bc
00000010: 2f1d 0c3d 907c 5dbd 2c87 563c bf3b 41bd
00000020: 8968 2e3c aef5 383d 0bf6 79bb 3944 87bd
00000030: 12b8 7fbd 51f5 2cbd d8c0 9cbc a866 a9bc
00000040: 6df5 babc aa32 083b cf5d 8c3d c7be 6c39
00000050: 88f7 343c bd1f 743d d0d8 e53c 26ef 1e39
00000060: 431e 26bd 94da b1bc f75f 763c 7ada e7bb
00000070: 64bf b93d 077e 323d 48f8 3a3d fee7 64bd
0.050267562 0.014901682 0.04854176 -0.009935368 0.03420752 -0.05407387 0.013093751 -0.04717612
0.01064504 0.045156173 -0.0038141038 -0.06604809 -0.062431403 -0.04222614 -0.019134924 -0.020678833
-0.022822106 0.0020782151 0.0685383 0.00022577784 0.011045344 0.05960058 0.028057486 0.00015157144
-0.040556204 -0.021710671 0.015037528 -0.007075605 0.09069708 0.04357722 0.045646936 -0.055885307

fc1.weight f4 [128, 800]
00000000: 2d95 893b bf9d 6e3c c73c 2c3c 20a5 c13c
00000010: a066 c03c 2b8d 163b 5178 31bc 499b 0fbd
00000020: 8bb3 e8bc a129 9c3c 43f8 bc3c 725e bcbc
00000030: 50c6 003c 8195 87b9 2d15 84bb 0585 053d
00000040: 74e8 db3b 83f1 1cbc 6b77 b7bc 7407 703c
00000050: 100f d03b e514 0ebb cde1 dabc 36df f73b
00000060: 841a 9f3c b8b7 eabb bb67 83bb 66f8 e63b
00000070: 4ef0 123c 4016 063d 134c 09bd fbff 713c
00000080: 79c1 34bc 8d3e afbc 5b52 1dbc d053 c03c
00000090: e9e5 603c 1fe6 4c3b cb83 febb 4b71 85bc
000000a0: 3479 f63a 15b0 c63c d24c 90ba 6649 f63c
000000b0: d602 943c 47ce 67bc 1f63 043d a433 f03c
000000c0: 0b35 fe3c 83e7 3ebc 8c6a 073d d123 8cbc
000000d0: a102 30ba 712f b4bc 1af3 d03c eb89 173d
000000e0: 7dcc 673c d2f4 83bc f592 1a3d 7d65 f83c
000000f0: ea99 0dbd 2fdd ab3c bc4f 0fbd 91d6 873a
00000100: 0acd d63b 0ef0 cc3a ad8e 0b3b e904 1b3c
00000110: 8f6e 24bc 36b6 9ebc 96ea df3c d1f4 0dbd
00000120: 4709 0e3c 20ad c43b 1283 183d 8ae1 4abc
00000130: 4630 1c3c dc71 fe3c 59ad 53bc eed5 753c
00000140: 7367 0c3b 0632 eebc 29ca 01bc 4dae 8c3c
00000150: 5ab0 edbb 7ba3 1db8 3b18 36bb 7bd2 af3a
00000160: 9a26 443c 959f 9d3c c7e5 ebbb 1578 d43c
00000170: 36a1 95bc 7ae3 9e3c f338 fdbc 795f e2bb
00000180: 3436 343b 03b5 f4bb 2688 fbbc efb0 173d
00000190: eaab 9b3c 5667 2d3c 6ad9 e3bc 81a0 bebc
000001a0: e3d1 b13c 722b a4bc 621c 0c3d 4c19 d3bc
000001b0: 31bd cd3b d0c9 8e3c 3786 ddbc 8d2b d83c
000001c0: 360e 87bc 7aba 45bc 46f8 c6bb c3b8 063d
000001d0: b064 633c f196 9f3c 912f 1dbd dd22 09bc
000001e0: 8e4e 933c 5964 a23c c114 84bc de61 6dbc
000001f0: 8955 e3bc 121c 4dbc 9345 163c a187 bc3c
00000200: 69a1 8a3c 6a3b 183d 8832 323b 0b64 213d
00000210: 968c 573c a655 fa3c 4408 dc3c 5864 3abc
00000220: 7e2b 8cbb a94d 803c add0 023d cdac 87bc
00000230: 4d95 6c3c 62d3 b9bb b577 d63b db39 a1bc
00000240: f156 7f3c 92a0 c73b f25c ecbb dbe9 42bc
00000250: 308f 88bc cea2 0bbb 9629 6e3b b480 bfba
00000260: b9b7 9abc f045 0ebd 7cd8 66bc 2134 be3c
00000270: 6514 c0bc 83a5 f03c 153d 07bd 7474 9c3c
00000280: 005e b13c 7d50 cc3c 58a4 c93b 0cc7 fabc
00000290: b1fb 733c 1f1c c23c 4cf1 bebc d717 be3c
000002a0: 6289 a1bc ef83 b73c 212c 9a3c a3ed 61ba
000002b0: b7f7 d8bc 1b26 9ebc 735a 153d 5cfe a73c
000002c0: 5415 e13c 0469 a3bc 7fac dfbc 5e3b db3c
000002d0: d1e7 02bd 7a12 cbbc b3a0 c8bc afae bfbc
000002e0: 95f9 96bc 2982 053d a27a 913c 6edd b9bc
000002f0: cd53 ef3c 0d9d ddbb 5cb2 853c f26b 773a
00000300: 9be0 b9bc f8db 17bd 766f 96bc 4c49 1b3d
00000310: 5426 0dbd bdab eb3c e303 f3bc 0fb9 bfba
00000320: 2b42 ca3c 39c6 55bc e81a 4f3c 4b55 28bd
00000330: e7df 0d3c 41d6 943c 5313 f73c 53c0 623c
00000340: e672 08bd f667 e43b 6e5d d3bb 1a68 94bc
00000350: 7020 0fbd 2e71 bebc 47dd e63c 59e5 5c3b
00000360: db71 293c dbfc 12bd 7a77 b33c c8cf ac3c
00000370: 5005 923b 5d4f 8c3a 6b91 02bd 4e4c 95bc
00000380: 1d70 0c3d 8aa5 883c a83e 933b 9856 73bc
00000390: 573f f53c 3bae d03c 2304 1a3b e59e 6bba
000003a0: 10d9 a13c 8cde 3fbc 381e 9ebc 3b14 5dbc
000003b0: c345 0cbd c0bf a1bb 9714 b8bb d8a0 313d
000003c0: 96e3 f73c c8bc d03c be4c 18ba a06e 0a3b
000003d0: 92c2 143d 0ca5 643c 6878 98bc e3bd 71bc
000003e0: e6be b03b c2ac 183d 125a b53b 3d5f 263d
000003f0: e3ca e93c 93a8 16bd 183f 5d3c c352 0bbd
0.0041986913 0.014563977 0.010512537 0.023638308 0.023486435 0.0022972326 -0.010831908 -0.0350602
-0.028405925 0.019062819 0.0230676 -0.022994254 0.007859781 -0.00025860596 -0.0040308447 0.03259756
0.00671106 -0.009579065 -0.02239581 0.014650214 0.006349452 -0.0021679935 -0.026718998 0.0075644506
0.019421823 -0.0071630143 -0.0040101684 0.0070486544 0.008968426 0.032736063 -0.033519816 0.014770503
-0.011032456 -0.021392131 -0.009602155 0.023477465 0.01372669 0.0031265093 -0.007767176 -0.016289374
0.0018804432 0.024253884 -0.0011009222 0.030064296 0.018067759 -0.014148301 0.03232109 0.0293215
0.031031152 -0.011651876 0.033060595 -0.017106922 -0.0006714259 -0.021995278 0.025506545 0.036996763
0.014147875 -0.01610795 0.037737805 0.03032183 -0.034570612 0.020979492 -0.03498815 0.0010363628
0.0065552043 0.0015635507 0.0021294758 0.00946162 -0.010036125 -0.019373994 0.027333539 -0.034657303
0.008669204 0.0060020834 0.037234373 -0.012382874 0.009532994 0.031060152 -0.012919747 0.015004618
0.0021423965 -0.029076587 -0.007921734 0.017172957 -0.0072536888 -3.758397e-05 -0.0027785439 0.0013414168
0.011972094 0.019241134 -0.0071990225 0.025936166 -0.018265348 0.019395579 -0.030910945 -0.006908354
0.0027498128 -0.0074678673 -0.03070457 0.03703397 0.019002873 0.010583719 -0.027813632 -0.023269894
0.021706527 -0.020040248 0.034206755 -0.025768898 0.006278657 0.017430216 -0.027041538 0.026387954
-0.016486268 -0.012068385 -0.006072077 0.032891046 0.013878986 0.019481154 -0.03837544 -0.008370128
0.017981794 0.01982324 -0.016123177 -0.014488665 -0.027750747 -0.0125188995 0.009171861 0.023013892
0.01692267 0.037166037 0.0027190764 0.03940205 0.013156077 0.030558418 0.02685941 -0.011376463
-0.0042776456 0.015662031 0.03193729 -0.01656189 0.014439893 -0.0056709507 0.006545032 -0.019680908
0.015584693 0.0060921395 -0.0072132284 -0.011896576 -0.01666984 -0.0021306756 0.0036340705 -0.00146105
-0.018886434 -0.034734666 -0.0140897 0.023218216 -0.023447225 0.029375797 -0.033017237 0.019098498
0.021651268 0.024940724 0.0061536245 -0.030612491 0.014891551 0.02369505 -0.023308419 0.023204727
-0.01971883 0.022401778 0.01881987 -0.00086184795 -0.026485307 -0.01930528 0.036463212 0.02050703
0.02747599 -0.019947536 -0.027303932 0.026761707 -0.03195936 -0.024789084 -0.02449069 -0.023398725
-0.018429557 0.032594834 0.017758671 -0.022688594 0.029214764 -0.0067631067 0.0163204 0.00094383874
-0.022690108 -0.037075013 -0.018363696 0.0379117 -0.03446038 0.028768415 -0.02966494 -0.0014627295
0.024689754 -0.013047748 0.012640692 -0.041096967 0.0086593395 0.01816857 0.030160582 0.013839799
-0.0333127 0.006970401 -0.0064503467 -0.018116046 -0.034943044 -0.023247328 0.028181685 0.0033706038
0.010342087 -0.035885673 0.021907557 0.021095172 0.0044561997 0.0010704804 -0.031876963 -0.018224861
0.034286607 0.016680498 0.004493553 -0.0148521885 0.02993743 0.025473705 0.0023501 -0.00089882157
0.019756824 -0.011710774 -0.019301519 -0.013493593 -0.034246217 -0.0049361885 -0.005617689 0.043366283
0.030259889 0.025480643 -0.00058097753 0.0021123067 0.03631837 0.013955366 -0.018612102 -0.014754745
0.0053938506 0.03727413 0.005534419 0.04061817 0.028539127 -0.03678186 0.013503812 -0.034014475

fc1.bias f4 [128]
00000000: 7f55 89bc 45b8 d5bb cdd8 c8bc 60a3 fd3c
00000010: a617 ddbc 6661 7439 6efa 9cbc 30d7 2ebc
00000020: 5d4c ae3b a003 133d 621d 1bbd be3c 77bc
00000030: bc55 82bb 5c5e 22ba 0e4a 173c b8a0 be3c
00000040: 4db7 cf3c b047 8f3b b2c6 c73c 0442 e8bc
00000050: 168d d93c f405 41bb 2112 11bd 6592 82bc
00000060: 2913 4a3c f5e3 be3c d9a9 9abc 0b5f 2e3c
00000070: e42f a4bc 08aa 4abc bf25 11bc 2294 9a3c
00000080: 5e6e debc 5eda cc3b 7fbe a6bb 0521 d33c
00000090: 58d7 be3b 6178 aebc d11b e93c cb2e eebb
000000a0: be65 163c c3e6 bf3c 1f54 f03c 52e9 983c
000000b0: 448f b03c b028 d43b 2734 36bb 02f2 853b
000000c0: 5777 0ebd 2213 513c 16df 0dbd a4de bf3b
000000d0: 68ee a0bb f786 313d fe37 c23b d2ce a1bc
000000e0: 428b 38bc dccc fd3c 59fc e0bc 36cb 8bbb
000000f0: 8c86 a6bc 1e69 eebc 40e2 1f3d 269f 9ebc
00000100: acf3 4f3c 3057 0e3d 58a8 063d 680c 783c
00000110: 1303 10bd be44 a5ba f382 173c c336 04bc
00000120: 6a6c 173c 0dda 083c 3dfb 4a3c 5b49 cb3c
00000130: c435 8f3c e6d0 f7bc e213 823b e62f 1abc
00000140: d239 163d c125 c33c ef51 a0bc 71ad c6bc
00000150: 1d4d fdbc 8509 693c a7ec 82bb 2fe8 623b
00000160: e953 0cbd ad85 7b3c 4c3f 59bc 1ef6 153d
00000170: c1b4 243d ea74 8e3c c584 e93b b7de 033d
00000180: 9aff 033b 4586 773a 7ecb 98bc 3497 6ebc
00000190: a771 9dbc 350e 01bd 56a3 f83c bc8e 19bc
000001a0: 0b1a 28bc 873e b1bb 5ca0 1a3d 75ba 263c
000001b0: 8148 f73c 9ba0 fdbc a3d2 9e3c 9b58 823c
000001c0: 3043 a33b 0922 c43c 0873 9ebc 5abf 523b
000001d0: 13f5 e7bc fa23 e23c 20ca a03c 5d76 053d
000001e0: da12 1e3d 17f3 7a3c a006 cbbc 9c7a 3f3c
000001f0: c14c 5a3c 4b18 0e3d cfa4 0a3d ee6f fbbc
-0.0167644 -0.006522211 -0.024517441 0.030961692 -0.026988816 0.00023305937 -0.019162383 -0.010671422
0.005319162 0.03589213 -0.03786982 -0.015090166 -0.0039775055 -0.000619387 0.009233965 0.023269996
0.02535596 0.0043725595 0.024386737 -0.028351791 0.026556533 -0.0029453011 -0.03541768 -0.015938947
0.01233367 0.023302058 -0.018879818 0.010642777 -0.020042367 -0.01236964 -0.008859097 0.018869463
-0.027152237 0.0062516173 -0.005088627 0.02577258 0.005824011 -0.021297636 0.028455647 -0.0072687618
0.009179531 0.023425465 0.029336987 0.018665943 0.02155269 0.006474577 -0.0027802081 0.0040876875
-0.03478178 0.012760909 -0.03463658 0.0058553983 -0.0049112327 0.043341603 0.005927085 -0.01975194
-0.01126367 0.030981474 -0.027464079 -0.004266168 -0.020327829 -0.029102858 0.03903413 -0.019362997
0.012692373 0.034751117 0.03287539 0.015139677 -0.03515918 -0.0012608988 0.009247529 -0.008069697
0.0092421565 0.008352769 0.012389001 0.024815252 0.017481692 -0.030250978 0.0039696554 -0.009410834
0.036676235 0.023821713 -0.019570319 -0.024252625 -0.03092056 0.014223461 -0.0039954963 0.0034623255
-0.03425971 0.015351695 -0.01325972 0.03661167 0.040211443 0.017389733 0.007126423 0.03219482
0.0020141364 0.000944231 -0.01865172 -0.014562417 -0.019219233 -0.03150769 0.030351322 -0.009372409
-0.010260115 -0.005409065 0.037750587 0.010176291 0.03018594 -0.030960372 0.019387549 0.015911391
0.0049823746 0.02394201 -0.01934196 0.0032157511 -0.028315103 0.027605046 0.01962763 0.032583583
0.038592197 0.015316746 -0.024783432 0.011686947 0.013323964 0.034691136 0.03384858 -0.03069302

fc2.weight f4 [10, 128]
00000000: cdff d43c bb85 d9bd 6873 b83d 7fcf dabc
00000010: 5cc1 403d e00c 66bd f1f9 8eba 92ee 6b3d
00000020: 4df9 a6bc fc94 9ebd f935 de3d 4077 ddbc
00000030: 0980 8fbd 5c24 69bd 1edf 2c3d 35cf 22bd
00000040: 9cfe 48bd 552e be3c 3c15 b83d 6e99 c53c
00000050: 4ba0 88bd 5171 96bd 8dd2 3bbd 0342 4d3d
00000060: bfe8 353d c7e8 973d eb7f 3abd fa19 dc3c
00000070: 40f1 293d 6346 9cbd 6853 90bd e6b6 cbbd
00000080: 246b 7abc eb0b 513c 2fcb b13d 4493 17bc
00000090: ac8a bcbc ff5a a13d 704d c73d 5a6d 0fbd
000000a0: e351 a73d ea3e e4bd 43af aabd 9ca1 e43c
000000b0: f363 5dbd 0d81 453d b5ec ccbd 86fc d63d
000000c0: 1e22 9bbd 2346 a7bd 97b3 203d 14cf b13d
000000d0: e2dd 9abd db48 cdbd 6d58 583d b23c aa3d
000000e0: dc6b aaba 5282 353c 7dab 98ba 368f 92bd
000000f0: ab72 813b a860 793c f6ba b33d ada9 cabd
00000100: b2a2 b2bc 5a13 c53d 74c2 c6bd b0e4 de3d
00000110: 564c ab3d 56de 103d 5dce afbc d5e2 afbd
00000120: 56c1 c1bd 8593 b13d 517c 5a3d 14b7 c2bc
00000130: b3c7 8fbd d16d a23c 6245 c5bd 5359 6bbd
00000140: f84e dfbd 8c9d e93b 631b 80bc c6c1 973c
00000150: 07e1 bd3c 6d29 ea3b 5d87 863d c345 993b
00000160: 05d0 d23d 870a 81bb a75e df3c f723 0e3c
00000170: 4f24 89bd dd6a b03d a85e 5bbd 5c70 ab3d
00000180: 3e67 fe3c 3f16 50bd ee77 9f3d 2b48 fcbd
00000190: 7db0 1ebd 86c2 2ebc 1638 b5bd 94d3 d83d
000001a0: 569c a1bd fff3 4dbc d1ac 5fbd ea75 9f3a
000001b0: 9d85 0a3d f5a9 b6bd 7ada cd3d 8618 ccbd
000001c0: da96 82bd 0200 3dbd 67c4 9cbd df98 b0bc
000001d0: 014f 8c3c 0017 deba 5d20 74bd 2398 9abc
000001e0: 504f debd 2fea 1b3d 2812 aabd 5a5c a83d
000001f0: 13d5 bc3d f554 bd3d 567d b23d 5769 21bc
00000200: da45 9ebd 67ec eebc e469 c5bc 5783 d43c
00000210: bc11 e6bb 44ac a43b 67a7 adbd 2662 d13c
00000220: 262f 8ebd b0e9 ce3c 55b4 b7bd 8e88 7bbd
00000230: fb93 0ebe a13e e33b b176 3abd e79b fb3c
00000240: da3a f4bc c3d1 1fbd 8c5a 653d d5be 9f3d
00000250: 317f 8b3c 2f59 a33d a105 523b 043e f03d
00000260: be03 89bd 6365 b13d 6e36 053d af3f de3d
00000270: f4c1 c5bd 88e6 823c a537 533d 5c91 31bd
00000280: 4fa7 a6bd f939 89bc 4318 2dbd 2572 edbc
00000290: 08d9 6fbc f34d 8a3b 57d7 77bd 1196 ce3d
000002a0: 26b5 c93c 2c62 03bd e386 a93d 7050 c53d
000002b0: 372c fa3d b1b9 ec3d 3a99 413b b540 e0bc
000002c0: 061c 273d c1df 0e3d 22a5 bb3c f1fc f8bc
000002d0: 9d2b 583d ae53 9c3c f585 e7bd 2673 1bbd
000002e0: 03ea 183d 5b24 a6bd b5a0 2d3c 100b 96bd
000002f0: 2779 93bd e733 e5bb b407 8dbc 44cd 5cbd
00000300: 6249 9e3d ff1a 12be 7a4d 863d 296f 7dbc
00000310: 3c69 80bd f9ef fc3c b8da eabd 6afc 4bbd
00000320: f283 973d 1375 94bd 4163 a7bd f6c2 1d3d
00000330: 6e37 babd 3122 81bd c9b9 643c 266b 483b
00000340: 5062 ee3d 3634 833d 3c08 36bd 8524 15bd
00000350: c19b 8abd aa81 223d 87a7 8fbd b3c1 963c
00000360: 6964 55bc 40b0 233b dc79 043d b021 403d
00000370: c55f 7a3d 3fc3 93bd 7837 9fbc 8701 993c
00000380: 5486 463d 1677 953c 8cd3 6fbd 9fa3 4bbd
00000390: 4019 693d 5747 e63a 047b ea3d 5730 363c
000003a0: 58e9 debd 2966 c8bd 8df0 453d 51ff 543d
000003b0: 8819 82bd 9f1d ac3d c297 2fbd 30af c1bd
000003c0: bc2f 9dbd e0f0 d6bd 0a9a bd3d 62c8 9d3d
000003d0: b027 64bb 9731 9cbd 6562 cf3d 8cfe c0bd
000003e0: 3606 8f3c 3d6b bd3d 8916 c3bd b307 acbd
000003f0: 0788 253c c6c1 f9bd 757d cf3d 41ca d0bc
0.026000882 -0.1062121 0.09006387 -0.02671027 0.047059402 -0.056164622 -0.0010908229 0.057600565
-0.020382548 -0.0774326 0.10850138 -0.027034402 -0.07006843 -0.05691944 0.04220497 -0.03974839
-0.04907094 0.023215452 0.08988425 0.024121013 -0.066711985 -0.07345832 -0.045855094 0.05011178
0.044411417 0.07417446 -0.04553215 0.026867855 0.04148984 -0.07630613 -0.070471585 -0.099469945
-0.015284333 0.012759189 0.08681332 -0.009251419 -0.023015343 0.07878684 0.09731567 -0.035016395
0.081699155 -0.111448124 -0.0833421 0.027909093 -0.054050397 0.048218776 -0.10006086 0.10497384
-0.07574867 -0.081676744 0.03923377 0.08682075 -0.07561852 -0.10023662 0.052818704 0.08312358
-0.0013002115 0.011078434 -0.0011647787 -0.071562216 0.003950437 0.015220799 0.08775894 -0.09895644
-0.021806095 0.09622832 -0.09705058 0.108834624 0.08364169 0.035368286 -0.021460706 -0.08588187
-0.09460704 0.08670715 0.053341214 -0.02376894 -0.070205115 0.019827755 -0.09632374 -0.057458233
-0.10903734 0.0071293768 -0.015638059 0.018525016 0.02317859 0.0071460516 0.06568787 0.0046775057
0.10293583 -0.0039380225 0.027266813 0.008675567 -0.066963784 0.086141326 -0.053557068 0.0837104
0.03105509 -0.050802466 0.07786547 -0.123184524 -0.03874253 -0.010666495 -0.08848588 0.1058723
-0.07891147 -0.01257038 -0.05460817 0.0012165878 0.03381883 -0.089191355 0.10051437 -0.09965615
-0.06376429 -0.046142586 -0.07654648 -0.02155727 0.017127516 -0.001694411 -0.059601177 -0.018871373
-0.108549714 0.03806513 -0.08304244 0.0822074 0.09220328 0.0924472 0.08715312 -0.009851775
-0.07728167 -0.02916546 -0.024098344 0.025941534 -0.007021157 0.0050254185 -0.08479195 0.025559496
-0.069425866 0.025257915 -0.089699425 -0.061409526 -0.13923638 0.006934956 -0.04552335 0.030713988
-0.029813219 -0.039018404 0.055994555 0.0780007 0.017028423 0.07975995 0.0032046812 0.117305785
-0.06690167 0.08661916 0.03252261 0.108519904 -0.09656134 0.015979066 0.05156674 -0.043351516
-0.0813738 -0.016751276 -0.042259466 -0.028985092 -0.014639147 0.004220718 -0.0605081 0.10087217
0.024622511 -0.032076046 0.08277681 0.09634483 0.122154646 0.11558855 0.0029540793 -0.027374605
0.04079821 0.034881357 0.02290589 -0.03039405 0.052775968 0.01908287 -0.11304847 -0.03795161
0.037332546 -0.08112403 0.010597398 -0.07326329 -0.07200842 -0.0069947126 -0.017215587 -0.053906694
0.077288404 -0.1426811 0.06557746 -0.015468397 -0.06270072 0.030876147 -0.114674985 -0.049801268
0.073982134 -0.07248893 -0.08173228 0.038516007 -0.090926036 -0.063053496 0.01396031 0.0030581444
0.11639845 0.06406443 -0.044441447 -0.03641178 -0.06767989 0.03967444 -0.07014375 0.01840291
-0.013024428 0.002497688 0.032342777 0.046907127 0.06112649 -0.072149746 -0.01943563 0.018677486
0.04846795 0.018245261 -0.058551356 -0.049716588 0.056908846 0.0017568868 0.114492446 0.011119924
-0.108843505 -0.097851105 0.04832511 0.0520013 -0.06352526 0.08404087 -0.042869337 -0.094572425
-0.0767512 -0.10495162 0.09257896 0.077042356 -0.0034813695 -0.07626646 0.10126189 -0.09423551
0.017459016 0.0924897 -0.095257826 -0.08399906 0.010103232 -0.121951625 0.10131351 -0.025487067

fc2.bias f4 [10]
00000000: 0972 a43c 1c7c 9bbd 241a de3c 9ed4 973d
00000010: eb2d ecbb a83a 17bd 02d4 983c 5852 333b
00000020: 75e4 9abd 05ba f6ba
0.020073907 -0.07592031 0.027112074 0.074136004 -0.0072076223 -0.036921173 0.01865578 0.0027362313
-0.07563106 -0.0018823749
