models/Adversarially trained models/robust_cnn_model_cons6.pt (torch, 456549 bytes, 8 tensors)

conv1.weight f4 [32, 1, 3, 3]
000000 63 50 b9 3e 15 36 0b 3d fa 25 c3 be 4a 0c d0 3d
       0.36194143 0.033987124 -0.3811491 0.10158594
000010 3c 3c a8 3d c6 cc 9c be d6 1f 65 bd bc 6f 97 3e
       0.08214614 -0.3062498 -0.055938564 0.29577434
000020 59 b6 ac 3e 4b ff 0d be 22 de 2e 3e 6e bf 69 3d
       0.3373287 -0.13866918 0.17076924 0.057067327
000030 75 94 96 be df a7 9c be 6b ce 68 bd 0c 04 f5 3e
       -0.2941014 -0.30596825 -0.05683748 0.4785465
000040 2c 8c 93 3d b3 72 d7 3a 18 be de be 37 ad c3 bd
       0.0720447 0.0016437381 -0.43504405 -0.095545225
000050 fe 92 0a be 23 40 17 be f8 2f 92 3c 3e 63 45 be
       -0.13532636 -0.1477056 0.017845139 -0.19276139
000060 2b de 72 3e aa bc 92 3e a5 b0 89 3e 42 a6 73 3c
       0.23717563 0.28659564 0.26892582 0.014871182
000070 a3 f0 9e be 65 41 81 be d3 cf 07 be 71 66 77 be
       -0.31042966 -0.25245205 -0.13262872 -0.24160172
000080 00 d2 34 3e 62 e9 e6 be 22 a5 7d 3d 3e 2e 11 bd
       0.17658234 -0.45099932 0.06192506 -0.03544449
000090 f3 96 b9 3e aa 8b 13 3e e0 e6 78 3e ad e4 5f be
       0.36247978 0.14408746 0.24306822 -0.21864577
0000a0 49 a5 5b 3e 92 f6 4a be eb 4c 0a 3e e2 ef e0 3e
       0.2144977 -0.19820622 0.13505904 0.43933016
0000b0 da 4b a2 3e 0c 19 35 bd 0b b9 de be da 75 96 3c
       0.31698495 -0.04421334 -0.43500552 0.018366743
0000c0 42 91 d4 be e8 eb 9d 3d e7 bd 26 be b7 bc 05 be
       -0.41517073 0.07711011 -0.1628338 -0.1306027
0000d0 03 28 8d 3e 9a 45 b1 3d c3 8d 9b bc 22 60 86 be
       0.2756959 0.086558536 -0.018988496 -0.2624522
0000e0 83 f6 62 3d 95 7a f6 bd 12 b1 93 be 09 cd be 3e
       0.055410873 -0.120350994 -0.2884603 0.37265804
0000f0 65 0e c8 be 46 38 9c bd 35 52 a2 3e 26 d1 21 bc
       -0.39073482 -0.07627921 0.31703344 -0.009876525
000100 63 1e 60 be d9 b1 68 3e c6 6b f0 3d 49 13 1d 3e
       -0.21886592 0.22724093 0.11739306 0.15339388
000110 cc 63 d9 be df 3c 6f 3e 49 0b 49 be c5 b6 9e be
       -0.4245895 0.23363064 -0.19633211 -0.30998817
000120 93 8e 4f be 99 39 e6 3d 0d 60 e7 3e 67 b7 bb 3e
       -0.20269231 0.11241455 0.45190468 0.36663362
000130 41 00 93 3e ae ef c8 3e 85 cb 87 b9 26 9c 57 be
       0.2871113 0.3924536 -0.0002590084 -0.2105566
000140 5a bc d3 3e ef c2 a4 3e 9a 39 ae 3e 96 10 a2 3e
       0.41354638 0.32179973 0.34028322 0.3165328
000150 e5 73 b7 bd 24 c0 b8 3d ff 70 11 bc 47 86 a8 be
       -0.08957652 0.09021023 -0.008877038 -0.32914945
000160 35 a2 d5 be d1 f1 85 be 92 84 a2 3c b7 66 13 3e
       -0.41725317 -0.26161054 0.019838605 0.14394651
000170 fd 4c ab 3e 29 50 cf bd fa d9 fe bd 89 bb 4e 3e
       0.33457175 -0.10122711 -0.124439195 0.20188726
000180 7d 28 6f be b3 0c 3f be 62 9f 99 be 1d 72 de bd
       -0.23355289 -0.18657188 -0.30004412 -0.10861609
000190 0c 55 23 be ea 2d b4 3e 9c ea 8c 3e 24 4e 9b bd
       -0.15950412 0.3519128 0.27522743 -0.075832635
0001a0 b8 a0 4f 3c a3 3f 1d 3e 1a 5e ce 3e b5 6d e9 3e
       0.012672596 0.15356307 0.4030617 0.45591512
0001b0 07 8b 49 be 3f 4f c4 3e cf b3 bd 3e 6b 12 e6 3e
       -0.19681941 0.3834171 0.37051246 0.44935927
0001c0 1d 80 71 bd 63 30 16 3e 90 2d 80 3e d5 eb b4 3e
       -0.05896007 0.14666896 0.2503476 0.35336176
0001d0 b2 08 8c bd c2 96 45 be 1a b4 bd 3e 82 69 2c be
       -0.06837596 -0.19295791 0.3705147 -0.16837123
0001e0 7f f6 be 3e 80 49 5d 3e 4f dd c9 3c 3a f6 e0 3e
       0.37297437 0.2161007 0.024641661 0.43937856
0001f0 ab 98 50 be 4a a5 d5 3c 07 05 f5 3e 3f 89 11 bd
       -0.20370738 0.026079793 0.47855398 -0.03553128
000200 24 bc 58 be 09 96 e7 3e cb 93 cf 3d 80 e7 af 3e
       -0.2116552 0.45231655 0.10135611 0.34356308
000210 5c 63 7f 3b 72 df 61 3e 2b fe 48 3d 44 52 cd 3e
       0.0038969135 0.22057894 0.04907052 0.40101826
000220 80 6a 05 bd 6c da a6 be 8b 90 81 3e e6 36 35 3c
       -0.03257227 -0.32588518 0.2530559 0.011060452
000230 77 02 83 be 6d 97 89 3e 3d 98 d7 3e 4d e2 ec 3d
       -0.25587818 0.2687334 0.42108336 0.11566601
000240 74 34 cb 3d 59 e3 87 3e 0f 9c c7 bd ab f9 f7 3d
       0.09922114 0.2654064 -0.09746563 0.12108167
000250 7d d9 b5 3e ba b2 bd be 5a 38 5e 39 f0 9e af 3e
       0.35517493 -0.3705042 0.00021192562 0.34300947
000260 22 0b 98 be a8 f5 7c 3e 5b be 78 3e c3 c9 c3 3d
       -0.29695994 0.24703085 0.24291365 0.09559967
000270 b2 df f3 bd 41 e1 95 3e 9a a8 bb 3e ae f5 6c 3e
       -0.11907901 0.29273418 0.3665207 0.23140594
000280 84 6b 7a 3e 62 ae 76 3e 2c bf 87 be 29 9d 29 bd
       0.24455076 0.2408996 -0.2651304 -0.041409645
000290 7f ce ff 3d 33 39 97 3e c2 ee 18 3e 68 49 c8 3e
       0.12490558 0.29535827 0.14934829 0.39118505
0002a0 bb c4 d1 3d e8 36 3d be bf 4d 07 be 7f fb 0f 3e
       0.102426015 -0.18477976 -0.13213252 0.14060782
0002b0 fc ec a9 3e 5d 5c 9f 3e eb d0 05 3d b5 13 c0 3e
       0.33188617 0.31125155 0.032669943 0.37515035
0002c0 b6 de 7b be fc 32 81 be 05 1b 09 3e f8 24 b5 be
       -0.24596676 -0.2523421 0.13389213 -0.35379767
0002d0 7b be 87 3e 07 16 a3 3e b2 0d 35 3e 70 a4 00 3d
       0.26512513 0.31852743 0.17681006 0.03140682
0002e0 70 ff ba 3e 68 1e e2 3e 00 57 9d 3e f1 5c dc 3e
       0.36523008 0.44163823 0.30730438 0.4303966
0002f0 9f 1a 9e 3e df 4a 53 3e 84 af 80 3c b2 81 96 be
       0.30879685 0.2063403 0.015708692 -0.29395825
000300 34 0c d7 3e 63 31 80 bd 95 d4 b4 be f8 b0 30 be
       0.42001498 -0.0625942 -0.35318437 -0.17255008
000310 19 1e d8 3e 4d 03 32 3e 97 2c 5f 3d c0 bc 8d 3e
       0.42210463 0.17384072 0.054485884 0.27683067
000320 b8 ad e9 3d 71 69 62 be dd ba bd 3e 2c bc d4 bd
       0.11410087 -0.22110535 0.37056628 -0.103874534
000330 21 dc 7f 3e a0 11 51 3e 72 d0 37 3e cb f4 b1 bd
       0.24986316 0.2041688 0.1795061 -0.08689269
000340 d4 ae 8f bd 2c 9d dd 3e 99 92 58 3e 93 98 9c 3e
       -0.07015768 0.43283975 0.21149673 0.30585155
000350 d1 ad db 3e e1 c2 90 bc cf 5e e2 3e 56 76 48 be
       0.4290605 -0.01767105 0.44212958 -0.19576392
000360 d8 35 af be 3a 41 cd 3c 9a 26 8f 3e 1c 10 57 be
       -0.34220767 0.025055517 0.27959138 -0.21002239
000370 4f 72 4d be 21 da 95 3e e1 6e b3 be 4e 41 ab bd
       -0.20063137 0.29267982 -0.3504553 -0.08362065
000380 f0 f4 8a 3e c6 81 27 be f5 ed 02 3d b4 9b 5e 3e
       0.27139997 -0.16358098 0.031965215 0.21739084
000390 78 f3 5f be a3 d7 55 be 10 75 89 3e f9 56 f0 bd
       -0.2187022 -0.2088304 0.26847124 -0.11735339
0003a0 0b 56 a5 be 47 3b 8f be bb cd 19 bd 01 eb d6 be
       -0.32292208 -0.27974913 -0.037549715 -0.4197617
0003b0 35 f3 4b be 18 b2 7c be 44 f6 2a be f9 7b ea 3d
       -0.19916995 -0.24677312 -0.16695505 0.11449427
0003c0 3e cb cb 3e 08 5f 56 3e e6 e6 8f 3e bc c1 c2 3e
       0.398035 0.20934689 0.2810585 0.38038433
0003d0 2e e0 8a 3e 45 39 3f be 35 2a 8f bc 79 49 b2 3e
       0.2712416 -0.1867419 -0.01747618 0.3482168
0003e0 4d 28 8e 3e b5 71 a3 be 5a af 23 bb 68 91 2b 3d
       0.27765122 -0.3192269 -0.0024976344 0.041886717
0003f0 a9 51 05 3e e9 85 30 be d0 76 84 bd 67 f7 12 3e
       0.13019432 -0.17238583 -0.06467974 0.14352189

conv1.bias f4 [32]
000000 b3 db 24 be e7 d4 47 3c 4d 8e 80 3e 5b 6b 98 3e
       -0.16099434 0.012196756 0.25108567 0.29769406
000010 f3 c7 33 3d 33 26 8b 3e 39 a2 a2 3d b7 b6 d0 3e
       0.04389186 0.2717758 0.07941098 0.407644
000020 23 87 50 bd 1f 9e 8a 3c 34 c8 09 3d 4c 2c 51 3d
       -0.050910126 0.016921101 0.033638194 0.051067635
000030 a1 d5 92 bc 67 1b fc bd e4 16 91 3d 52 03 fb bd
       -0.017924132 -0.12309914 0.07084444 -0.12256493
000040 92 0b 7b bb cb ae e6 bd 31 a1 72 3e 1c a3 86 bc
       -0.0038306457 -0.11263808 0.23694302 -0.016435198
000050 48 98 95 bc 94 ed d7 bd 9a 57 38 be f2 38 c1 bc
       -0.01826109 -0.10543361 -0.18002167 -0.023586724
000060 7e bc 28 3e f5 d9 6c 3e d1 06 1d 3e 20 9c 2f be
       0.16478154 0.23130019 0.15334632 -0.171494
000070 45 ce 19 3d c5 9d a3 3e e3 31 1b be 59 e6 11 3e
       0.03755023 0.31956306 -0.15155749 0.14248027

conv2.weight f4 [32, 32, 3, 3]
000000 ef 51 e5 bd ff a8 39 bd dc 38 3c 3d 33 5f f6 bd
       -0.11197268 -0.045327183 0.045952663 -0.120298766
000010 18 38 69 3c 89 35 00 3d 99 13 25 bd 70 3c 7c 3b
       0.014234565 0.031301055 -0.040301893 0.0038488172
000020 54 3c c2 3d 5f 8e c7 bd af bb d3 bd f1 07 c5 bd
       0.09484163 -0.09743952 -0.10338532 -0.09620655
000030 eb f1 b2 bd d8 33 68 be ed 84 16 be 30 0d 21 be
       -0.087375484 -0.22676027 -0.14699145 -0.15727687
000040 51 67 4a be fe 07 04 be 89 e6 f8 bc d4 93 84 3b
       -0.19765975 -0.12893674 -0.030383365 0.004045943
000050 7a be dc bd e8 c6 e7 3c 07 f3 01 bd c9 91 ea bd
       -0.10778518 0.028293088 -0.03172591 -0.114535876
000060 25 38 f0 bb 83 32 9e bd 8d 71 a3 bb e3 8d 63 3c
       -0.0073309117 -0.07724478 -0.0049879015 0.013888809
000070 d2 de 74 bd 30 5e 7b bd a2 83 8b 3d eb d3 3e bd
       -0.05978281 -0.06136912 0.06812216 -0.04658882
000080 73 22 35 bd 80 75 93 38 8e 93 a4 3c 40 a0 06 bd
       -0.044222306 7.031392e-05 0.02008989 -0.03286767
000090 5b 29 03 bd d4 08 b8 3d a0 67 49 3d e7 29 aa bb
       -0.03202186 0.08986059 0.04917109 -0.0051929834
0000a0 ca 63 b0 3d 99 f0 bd 3c 34 c7 d6 3b 29 e3 c5 3d
       0.08612783 0.023186015 0.0065545086 0.09662468
0000b0 a8 a6 8b 3c 51 28 99 bc 21 af 65 bd 93 18 51 bd
       0.017047241 -0.018695982 -0.05607522 -0.051048826
0000c0 78 98 fd 3c ab 8f 6f bd 43 7d bc 3c d2 d2 6a bc
       0.030956492 -0.05848662 0.023008948 -0.01433249
0000d0 64 52 f4 bd 58 09 51 bd ba 0f 64 3d da c7 8d 3d
       -0.11929777 -0.0510343 0.05567906 0.06922884
0000e0 90 fb 81 3d 18 bd a9 3d 4e 91 0c 3e 82 bf 17 3d
       0.0634681 0.0828802 0.13727304 0.03704787
0000f0 c7 ee be 3d 4d 38 8c 3d 33 94 fa bd dc d0 8b bd
       0.09322887 0.06846676 -0.12235298 -0.06826946
000100 79 cf 23 bd 14 7d 46 bb 22 d1 01 be 5d d0 24 3c
       -0.039992783 -0.0030286955 -0.12677434 0.010059443
000110 d1 2e 2e bd 75 f1 b4 bc ed 6d ad bd 2d a0 1c bd
       -0.042525116 -0.022087792 -0.08468232 -0.038238693
000120 9a 97 bd 3d c0 ad 97 bb c1 ae 0c bd c0 f7 47 3d
       0.09257431 -0.004628867 -0.034346346 0.048820257
000130 50 c0 bb 3d 4e 00 03 bd a4 0f cd 3c 63 c5 f3 3b
       0.0916754 -0.031982712 0.025031872 0.007439302
000140 15 7f 62 bc 09 f3 b0 bd 80 45 62 be a2 9c 32 be
       -0.013824244 -0.08640105 -0.22096825 -0.17442563
000150 8c c9 49 be 68 bf 5e be 52 9c e8 bd 28 08 58 be
       -0.1970579 -0.21752703 -0.11357941 -0.21096861
000160 f3 ba 62 be d5 da 34 be e6 a8 12 be c7 a4 22 be
       -0.22141628 -0.17661603 -0.14322242 -0.1588317
000170 af 4b 3b be c2 fc 6f be 4a 58 4f be 12 ad 2b be
       -0.1829059 -0.23436263 -0.20248523 -0.1676524
000180 0d 1f 00 be 0b 1b ec bd 5e d4 41 bd fe 66 5d 3d
       -0.12511845 -0.115285955 -0.04732167 0.0540533
000190 8b a2 b6 3d 1a 38 48 3c 16 c7 4f 3c 31 7b 9a 3d
       0.08917721 0.012220407 0.012681743 0.07543028
0001a0 cc 71 a5 3a 4c 61 08 3c ac df 3d bc e0 4c 6d bc
       0.0012622415 0.008323979 -0.011588972 -0.01448366
0001b0 c5 74 91 bd 1b a8 64 3b 7e 1d de 3d c1 69 2d bd
       -0.0710235 0.0034890238 0.10845469 -0.042337183
0001c0 ac 18 71 3d 3a ac 82 3d 96 19 57 3d 9c a0 83 3d
       0.05886142 0.06380506 0.052514635 0.06427118
0001d0 19 a9 28 bd db 71 99 bc 9f fe 4f 3d e8 89 fd 3c
       -0.04117689 -0.018731048 0.050779935 0.030949548
0001e0 89 43 85 bd 93 0e 4f 3d 46 e1 75 3d 6c da 74 3d
       -0.06507022 0.05055101 0.06002929 0.059778616
0001f0 5e 54 f1 3c b4 a4 a5 3b eb d2 e9 bc e1 db 43 3d
       0.029459175 0.0050550345 -0.028542956 0.047817115
000200 39 93 95 3d 84 d6 cf bd 1a 83 59 3d fb ab 92 3d
       0.07303471 -0.101483375 0.053103544 0.07161709
000210 44 db 6a bd 56 f9 34 bc c1 3a 94 3d 0e bf 1a be
       -0.057338014 -0.011045774 0.07237769 -0.15111944
000220 2f 73 19 3d 27 cf ac 3d 92 d8 e8 bd 69 67 b5 bc
       0.037463363 0.08437949 -0.113694325 -0.022144036
000230 ad 35 84 3d 6f 7a c0 3c df 03 c6 3d 4b e0 86 3d
       0.0645555 0.02349588 0.09668707 0.06585749
000240 97 80 e4 bd 35 7f 83 3d f3 1e b5 3d 9a 33 9b bd
       -0.11157339 0.06420747 0.08843794 -0.075782016
000250 eb ab 61 3d 58 19 91 3d d7 35 93 39 6f 37 7b 3d
       0.055095594 0.07084912 0.0002807814 0.061332162
000260 90 9f ca 3d 3a 14 1f 3d 44 5f fc 3c f5 45 c3 3c
       0.098937154 0.03883765 0.030807145 0.023837069
000270 18 d1 71 3d 70 92 43 3d a6 9c 4d bd 64 5e 4e 3b
       0.059037298 0.047747076 -0.05019822 0.0031489367
000280 ac 28 93 3d c7 9f 86 3d e7 72 d7 b7 c7 4c ad 3c
       0.07185492 0.06573444 -2.5683503e-05 0.021154774
000290 9b 34 c7 bc 15 37 21 bd 0f dc ab bd 42 88 52 bb
       -0.024317076 -0.03935917 -0.08391582 -0.0032124673
0002a0 21 c8 b9 bc 7c 0e 7d bd 3f 66 1a bc c2 08 1b bd
       -0.022678437 -0.06178139 -0.009423791 -0.03785015
0002b0 b0 21 33 3d bb 00 97 3d 80 71 0c be 10 b6 7c 3d
       0.0437333 0.07373186 -0.13715172 0.061697066
0002c0 e3 58 d7 bc 06 d2 37 bd 45 3b 60 3b dc b6 8f bd
       -0.026287502 -0.04487803 0.0034215015 -0.070172995
0002d0 31 e8 a7 bc 56 79 d4 3d f8 1c 1f b9 bf de 45 3d
       -0.02049646 0.103747055 -0.00015174213 0.04830813
0002e0 7e 59 16 bb f8 c0 37 bd 96 8b 7e 3d 76 80 c6 3d
       -0.0022941525 -0.044861764 0.06214484 0.09692471
0002f0 87 cd 64 3d 62 c2 aa bd 13 97 10 3d 26 37 be 3d
       0.05586007 -0.08337857 0.035300326 0.092878625
000300 ac ac 41 be 38 95 e0 3c d2 4f b4 3d 28 d1 ce bc
       -0.18913525 0.027414903 0.08804287 -0.025246218
000310 b4 e2 bb bb 05 28 ec 3d 09 70 66 bd 26 07 dd 3d
       -0.005733812 0.115310706 -0.05625919 0.10792379
000320 03 10 07 3e e3 9e 3a 3d 26 78 52 3d 1f 19 e0 3d
       0.13189702 0.045561682 0.051384114 0.109422915
000330 e2 26 8e 3d d3 3e 00 3d 7a 92 98 3d 3d 73 ab 3c
       0.0694101 0.031309914 0.07449813 0.020928973
000340 02 3a 3e 3d d7 a8 9d 3d 95 db f6 3c b3 ff 1d bc
       0.04644204 0.07698219 0.030134002 -0.009643483
000350 01 91 37 bc d8 44 8c 3d 07 15 1c bd ac de 03 bb
       -0.011204005 0.068490684 -0.03810599 -0.0020121736
000360 2e c2 10 3d 90 70 9e 3d 63 36 b7 bc 66 11 50 bb
       0.035341434 0.07736313 -0.0223648 -0.0031748652
000370 09 78 57 3d c7 b6 cd bb 94 60 6c bb 27 69 be 3d
       0.05260471 -0.0062778923 -0.0036068307 0.092974
000380 ab 95 b7 bd 0a a0 fc bc 06 b0 00 be 33 bc f2 bd
       -0.08964094 -0.030838031 -0.12567148 -0.118523024
000390 4c 42 cb bd 67 d1 08 bd a4 2d 15 bc 33 6a 6e bc
       -0.099247545 -0.033402827 -0.00910512 -0.014551687
0003a0 63 d4 1a 3c 13 76 e6 bc 9c ac 1b bd d5 98 03 be
       0.009450051 -0.028132474 -0.03800641 -0.1285127
0003b0 ee 23 d6 bd c1 00 dc 3c 9e 01 f9 bd 7b 12 b3 bd
       -0.10456072 0.026855828 -0.121585116 -0.08743759
0003c0 5c bb b0 bd c6 dd c3 bd 2f 3e cf 3c a6 01 e1 3c
       -0.08629486 -0.09563784 0.025298206 0.027466606
0003d0 bf ba 67 3c c1 fe 0d bd 4e 12 74 bd 08 ca a9 bd
       0.014143645 -0.03466678 -0.05958777 -0.082904875
0003e0 61 08 b1 bd 93 c2 5f bd 9e b5 a1 bd a8 93 3a 3d
       -0.08644176 -0.05462892 -0.07895969 0.045550972
0003f0 9d 4e d7 bd 94 c7 10 be f5 9e a6 b6 56 d8 1d be
       -0.10513041 -0.14138633 -4.9656906e-06 -0.15414557

conv2.bias f4 [32]
000000 3c 69 2b bd 47 04 cf 3c 37 4c 3e 3d 7a 5c 89 bd
       -0.041848406 0.025270594 0.046459403 -0.06707092
000010 33 62 80 3d 06 dc a6 3c 24 0d 8a bd c4 e0 cb 3a
       0.0626873 0.020368587 -0.067407876 0.0015554656
000020 78 d8 94 3c 7c 74 cf 3a 47 1f a2 3d 8b fa 51 bc
       0.018169627 0.0015827562 0.07916122 -0.012816082
000030 12 70 4e 3d ac 23 18 3d 89 c8 b2 3b 75 5f d3 bc
       0.050399847 0.037143394 0.0054560346 -0.025802353
000040 74 42 18 3d ae 27 e5 bc 15 95 22 3d 05 48 57 3d
       0.03717275 -0.027973022 0.039692957 0.052558918
000050 df 53 1d bd f3 a9 95 3a 55 77 19 bd 55 b7 50 3c
       -0.038410064 0.0011418447 -0.03746732 0.012739022
000060 df 11 49 3c 86 12 17 3c a6 e1 08 bd 71 19 86 3c
       0.012272327 0.009220725 -0.03341832 0.016369553
000070 d1 a3 44 3d 83 ec 85 3a 79 9d e7 bc 3d 76 12 ba
       0.04800779 0.0010217581 -0.028273331 -0.0005587077

fc1.weight f4 [128, 800]
000000 de ce 03 3d 5c 85 90 3b c2 26 29 3d ad 46 80 3d
       0.032179706 0.004410429 0.041296728 0.0626348
000010 c7 d1 6e 3d 5b db 91 bc b9 a3 fa 3a 17 2e 06 bc
       0.058305528 -0.017804792 0.001912228 -0.0081897
000020 1f 9f 89 3b 43 ec 86 3c fe 83 55 bb 2c 3f 18 3d
       0.004199877 0.01647008 -0.0032579894 0.03716962
000030 2f 6d dd b9 f3 28 a6 3c 92 72 5b bd a4 f7 c8 3c
       -0.00042233753 0.020283198 -0.05357606 0.024532147
000040 d7 09 7d bb 73 71 8c bc d9 d3 ab 3c 74 5f 50 3c
       -0.0038610601 -0.01714394 0.02097504 0.01271807
000050 cf 0f 0b bd 8a 8c d1 3c 8f a9 ba ba 2b 91 68 3c
       -0.033950623 0.02557971 -0.0014241206 0.014194767
000060 20 66 0e 3d 3a b0 d9 3b f2 fc 85 3c 3b c5 7c bb
       0.034765363 0.0066433223 0.016355965 -0.0038569707
000070 75 7a c7 3c b8 17 88 3b 6b bf 1e 3b 03 ba 59 bd
       0.024350384 0.004153218 0.002422298 -0.05315591
000080 9c 6d f9 bb f2 62 b8 bc 09 7e 9c 3c 73 5a 4f 3d
       -0.0076119434 -0.022508118 0.019103067 0.05062337
000090 b7 bd 26 bd 74 68 3b 3d e0 1a 08 bc e2 48 5b 3c
       -0.04070827 0.04575391 -0.008307189 0.013384076
0000a0 08 e7 c4 bb 7d cf fe 3b 83 07 b9 3c d4 b7 1f bc
       -0.0060089864 0.0077761994 0.02258659 -0.009748418
0000b0 ba 50 c9 bc 1e 0b 31 bb 30 5f 54 3c d5 73 ba bc
       -0.024574626 -0.0027014683 0.012962148 -0.022760311
0000c0 4f b5 f1 bc a8 4c 15 ba 75 b3 91 bc b9 27 01 bd
       -0.0295054 -0.00056953216 -0.017785767 -0.031532023
0000d0 07 a6 02 bb 8f 6b 5c 3d b1 88 4a 3d 9e 55 17 bd
       -0.0019935386 0.053813513 0.049446765 -0.036946885
0000e0 12 ba 2b bd ea f6 85 3c 7a 85 a0 ba 4d 81 bb bc
       -0.041925497 0.01635309 -0.001224681 -0.022888804
0000f0 f0 a6 51 bc 59 a8 df 3c 57 db fd bc 0e 70 7e bb
       -0.012796149 0.027301954 -0.030988378 -0.0038824114
000100 fc 50 ab 3b 89 49 56 bc aa e6 4c bb 90 63 97 bc
       0.00522816 -0.013079056 -0.0031265416 -0.018480092
000110 61 7d ce 3b e5 3f 31 3c b0 50 e5 3c 04 e0 1a bd
       0.0063015674 0.010818456 0.027992576 -0.037811294
000120 94 7a 6e 3d 0d 56 29 3d f6 0f a9 3c 73 5a 0c 3d
       0.05822237 0.04134183 0.020637494 0.034265947
000130 66 d5 4e 3c db f0 dd 3c 0c e2 8c 3d 22 58 39 3d
       0.01262412 0.027092388 0.068790525 0.045250066
000140 9d 4f 0b 3b f2 a3 a2 3c d2 f8 5d 3c c4 ce 02 3d
       0.002125717 0.019853566 0.013548093 0.03193547
000150 ce fb 20 3d 10 ce 59 3d e9 97 bb bc 1e b1 bb 3b
       0.03930264 0.053175032 -0.022899585 0.005727901
000160 bd bc 5d 3c 88 0e bb bc 22 25 9b bc 90 9c 04 bd
       0.013533768 -0.022834077 -0.018938605 -0.032375872
000170 a5 2e 75 bc 1a 1d 16 3c 12 d2 47 bc 67 5c 8b 3c
       -0.014964734 0.009162212 -0.012196081 0.017011834
000180 bb e3 32 bd 8d 08 fd bc 96 a2 cb bc 2b ad 7e 3c
       -0.043674212 -0.030887866 -0.0248578 0.015544216
000190 61 25 05 bd fc a9 93 bc b1 bd 92 3d 14 6f 50 3d
       -0.03250635 -0.01802539 0.07165087 0.050887182
0001a0 7c 98 c8 3c 11 33 8f 3c 85 60 00 bd 04 0d 39 3d
       0.024486773 0.017480405 -0.03134205 0.04517843
0001b0 cc 32 50 3d 6c a0 bf 3d 01 0a b2 3c f3 c5 e7 3c
       0.050829694 0.0935677 0.021733286 0.028292632
0001c0 52 b3 54 bb 00 a2 c3 bb e7 e4 76 3c e6 9e fd 3c
       -0.0032455516 -0.0059702396 0.015069223 0.030959558
0001d0 89 2b 1a bd d8 ae a6 3c 0c 1f 00 bd c1 ea 13 3d
       -0.037639175 0.020347044 -0.03127961 0.03611255
0001e0 2d 58 70 bc 66 f1 d4 bc d6 6e 29 bb 74 98 9a 3a
       -0.01466946 -0.025994014 -0.0025853417 0.0011794702
0001f0 88 1b 7a 3b 4e 8c ee bb 2c 3e 09 3d e1 27 eb 3c
       0.0038163383 -0.007279909 0.033506557 0.02870554
000200 0d 91 18 bc 57 77 d9 bb 80 53 8d 3b 9e 25 39 bd
       -0.009311927 -0.006636541 0.0043129325 -0.04520189
000210 99 a7 f2 3c ed 42 aa bb af e2 38 3d 30 bb e6 bb
       0.029620932 -0.0051959665 0.045138057 -0.0070413575
000220 08 76 1d bc 2a 78 51 3c 80 8e 1b bd 37 2b 65 bd
       -0.00961066 0.012784997 -0.037977695 -0.055949416
000230 fc fe a0 3c e7 5e 32 3b 44 de 24 bd 18 13 26 bd
       0.019652836 0.002721721 -0.04025103 -0.040545553
000240 05 6e 0f bd c3 22 cb bc 4a b0 b4 3c 1e a3 98 bc
       -0.035017032 -0.02479685 0.022056717 -0.018632468
000250 a4 9f 21 3c c3 74 d2 3b d7 d6 5f 3c 0c ba d5 bc
       0.009864721 0.0064226105 0.013662062 -0.02608969
000260 a8 90 9e 3c 53 5b b1 bc 5e 2a 3e bb 74 84 bc 3c
       0.019356087 -0.021649992 -0.0029016952 0.023012377
000270 af fc 1b bc e8 e2 0b bc 17 1e 3e bc 90 68 86 bc
       -0.009520694 -0.008537985 -0.011603854 -0.016407281
000280 c6 b5 75 3c 20 84 85 3c f4 d8 93 bd 74 89 e1 bc
       0.014996951 0.016298354 -0.07219115 -0.027531363
000290 66 da 8d bb c9 bb 3f bc 32 4c 8d bc 53 25 24 bd
       -0.0043290136 -0.011702486 -0.017248247 -0.040074658
0002a0 0a 9d 7f 3c 00 2b 6d ba 72 d3 72 3c a9 cf aa 3c
       0.015601406 -0.000904724 0.01482092 0.020850973
0002b0 92 03 a1 3c ea 96 c7 3a f6 87 9b bc 5b 65 00 bd
       0.019655023 0.0015227471 -0.01898573 -0.03134666
0002c0 ee 19 79 bc a6 c5 47 3b 18 ea ac 3b 5d 6d 97 3c
       -0.015203936 0.0030482798 0.0052769296 0.018484766
0002d0 f3 b1 d6 3c 01 7d 27 bd 7b 2d c5 bc d8 fc ef 3a
       0.0262079 -0.040890697 -0.024069538 0.0018309606
0002e0 8b 78 fe 3c 6c aa 2f 3d 9e bd 78 3b 49 54 15 3a
       0.031063339 0.042887136 0.0037954818 0.00056964584
0002f0 5c 31 da bc 15 73 cb 3b 86 cc 91 3c 2a b6 62 bc
       -0.026634865 0.006208787 0.01779772 -0.013837377
000300 06 11 56 bd 65 26 98 bc 0c 47 a4 bc 32 9d 4c 3d
       -0.05226233 -0.018572995 -0.020053409 0.0499546
000310 94 d5 b0 bc f0 ed 02 3c 22 85 34 3d ba a0 2e 3d
       -0.021586217 0.007991299 0.044072278 0.04263375
000320 c4 d1 af 3b 83 d6 98 3d 2a 6e 7a 3d 44 92 34 3d
       0.005365582 0.0746279 0.061140217 0.044084802
000330 42 62 15 bb fd 27 03 3d c8 7e d2 bc b7 68 96 3c
       -0.0022794162 0.032020558 -0.02569522 0.018360479
000340 f6 e1 36 bc 78 6e 6e bc 62 52 24 3d 2e 0c a5 3c
       -0.011162272 -0.014552705 0.04011763 0.02014741
000350 19 50 87 3d 5f 94 4b 3c 3f 4f d0 bb d2 4a 69 3d
       0.06607074 0.012425511 -0.006357103 0.05695612
000360 95 09 a8 3c ca b0 5c 3b 7b ef 82 bc be 8d 1f 3d
       0.020512382 0.003367471 -0.015983334 0.038953535
000370 38 04 56 3c 73 8e 29 3d 00 40 c2 ba c2 41 0f 3d
       0.013062529 0.041395616 -0.0014820099 0.03497482
000380 97 ce f6 bc 74 92 8a bc e3 35 07 bc d8 db 95 3c
       -0.030127807 -0.016915537 -0.008252594 0.018293306
000390 c1 35 a7 3c 3f 42 90 3d ad b1 00 bc 52 b1 9e bc
       0.020411374 0.070438854 -0.007854861 -0.019371662
0003a0 68 b2 bb 3c d4 d3 0d bc 7c 66 01 3d 93 60 3d 3c
       0.02291222 -0.008656461 0.031591877 0.01155867
0003b0 04 24 57 3d c3 29 5e 3c 3f e2 6a bd 0b 8b 0e bc
       0.05252458 0.013559761 -0.05734467 -0.008700143
0003c0 cd f5 e1 3c 79 26 e3 bc f6 4d 3b 3c f3 8b f0 3c
       0.027583027 -0.027728306 0.011432162 0.029363608
0003d0 d2 c3 18 3d 1e 6e b1 bc e2 91 87 b9 40 e4 25 3b
       0.037296124 -0.021658953 -0.00025857898 0.002531305
0003e0 57 2c 31 3b c4 d9 0d 3d a8 71 26 bc 45 fe b6 bc
       0.0027034485 0.034631506 -0.010158934 -0.022338042
0003f0 64 b9 41 3d 17 8f ef b9 09 ad 78 3d 7a 94 e9 3b
       0.047295943 -0.00045692243 0.060711894 0.0071282955

fc1.bias f4 [128]
000000 9a 33 13 3d f5 ea f8 bb 3c db 9d 3c 56 7b 61 3c
       0.035937883 -0.0075963684 0.019269578 0.013762316
000010 8c aa 54 bc ac 11 13 3c 48 7a ba 3b 42 0b 88 bc
       -0.012980115 0.008976381 0.0056908466 -0.01660693
000020 45 f5 38 3c eb b8 56 bc 8c 43 80 3a 26 06 ce 3c
       0.011288946 -0.013105611 0.0009785756 0.025149416
000030 2f b3 98 3c a7 60 d7 3c 8b 7e fd 3c 3f 4a b1 3b
       0.018640129 0.026291205 0.03094413 0.005410462
000040 48 a3 bf bc 46 75 de 3c 7c e0 01 bd 51 03 ff bc
       -0.023393288 0.02715553 -0.031708226 -0.031129511
000050 26 78 54 bc 79 e6 2f 3d 1e 1c 6a 3c b9 bc bd bb
       -0.012968099 0.042944405 0.01428893 -0.0057903198
000060 dc 94 09 bd 57 f7 c2 bc c9 33 a8 3c 2c 2b 09 bc
       -0.03358923 -0.023799581 0.020532506 -0.008372109
000070 ec f2 0e bc 80 7e 04 3d 40 98 0e bb a4 8e 54 3c
       -0.008724909 0.032347202 -0.0021758229 0.012973461
000080 cc e6 05 3d 3d ce 2f 3c 85 ad 6a 3c 05 10 06 3d
       0.03269081 0.010730323 0.014323597 0.03273012
000090 dd bb f5 3c bd 05 da bc af aa 3b 3c 2e a6 a4 3c
       0.029996807 -0.026614064 0.011454268 0.020098772
0000a0 9b 39 05 3d cc 0a 7d 3b bb cb fc 3c 3d a1 26 bb
       0.03252564 0.0038611172 0.030858865 -0.0025425695
0000b0 c5 a6 e6 bb d5 90 ef bc d3 15 b6 bc 72 09 93 ba
       -0.0070389234 -0.029243866 -0.022227203 -0.0011218025
0000c0 b2 1c a2 bb ae 57 3f 3c de 58 b5 39 82 bd ee bc
       -0.0049472684 0.011678619 0.00034589221 -0.029143099
0000d0 e5 eb d5 bb f2 3f b0 3a 48 dd dd 3c d9 fb d1 3c
       -0.006528365 0.0013446792 0.027083054 0.025632786
0000e0 73 24 5b bc 1e cc d1 3c 7d ef c2 bc 98 69 10 3c
       -0.013375389 0.025610026 -0.023795838 0.008814238
0000f0 c9 66 fe 3a 6d 5e 67 bc b6 02 45 3b 23 71 be bb
       0.0019409294 -0.014121634 0.003006143 -0.005811827
000100 60 73 9e 3c 0f 30 85 bc 5f 88 ca 3b de 6d b2 3c
       0.019342124 -0.016258268 0.0061808075 0.021780904
000110 db f5 34 bc b0 bf 21 3d d1 f2 0d 3d 34 6e 49 ba
       -0.011044945 0.039489448 0.034655396 -0.0007683963
000120 8f 51 10 3d bd 58 87 bb aa 0c f2 3c 76 1d 1e 3c
       0.03523403 -0.0041304515 0.029547054 0.009650579
000130 41 03 f4 bc 07 8a f4 bc a9 61 81 bc f6 77 71 ba
       -0.029786708 -0.029850973 -0.015793638 -0.0009211296
000140 6e d9 b0 3c 38 1b 2e bc 53 f3 d4 3c 97 e3 c3 3c
       0.021588054 -0.010626607 0.025994932 0.023912234
000150 86 5a c2 bc 98 7b 63 3c a5 21 d5 3c bc 90 94 bc
       -0.023724806 0.0138844475 0.02601702 -0.018135421
000160 f8 ba fc 3c 3f ba 74 bc fd 26 7e 3c 9f da 4f bb
       0.030850872 -0.014936983 0.015512225 -0.0031716002
000170 86 a9 54 bc 8f b6 96 3c bd 3e 1b bc 63 5d b8 bb
       -0.012979871 0.018397598 -0.009475407 -0.005626367
000180 c4 28 86 bb 3f 38 a5 bc a0 ec 8b 3c b7 36 dc 3a
       -0.004094215 -0.020168422 0.017080605 0.0016800974
000190 53 2b 33 3d 92 cb 42 bc 7c 70 56 3c 39 47 b4 bc
       0.04374249 -0.011889355 0.013088342 -0.022006618
0001a0 08 31 8f bb 5d 75 b3 3b c2 32 de bc dc 2a 24 bd
       -0.0043698587 0.0054766373 -0.027123813 -0.040079936
0001b0 ea f9 f2 bb a6 11 b0 bc 9f 12 09 bd 43 9d af bc
       -0.007415046 -0.02149279 -0.033465024 -0.021437293
0001c0 7a 9e c6 bb cd 7b ea bc 7a 10 e5 3b 8b 82 1e bc
       -0.0060613723 -0.028623486 0.0069904895 -0.009674679
0001d0 ba 53 cc 3c 1e c0 b4 3b 75 b0 b6 bb a8 01 4d 3c
       0.024942268 0.005516066 -0.0055752345 0.012512602
0001e0 9d 6b fe bc 6b 13 bb 3b 23 eb 17 3a 5d 58 9a 3c
       -0.031057173 0.005709102 0.0005795231 0.018840963
0001f0 88 4d c3 3c 34 a4 6b bc 5f 46 0d 3d bb 91 e1 b9
       0.02384068 -0.014382411 0.03449094 -0.00043023922

fc2.weight f4 [10, 128]
000000 37 dd ae 3d bb ce dd bc ff 6a 0f be 84 5b a8 3b
       0.08538287 -0.027076116 -0.1400566 0.0051378626
000010 b2 8d 4e 3d e2 15 8c 3b a3 b2 f2 3c a2 9e cf 3d
       0.0504281 0.0042750696 0.029626196 0.10137679
000020 50 b4 47 bd 52 d2 05 3d 06 3d 1c bc f3 a7 b7 bb
       -0.048755944 0.03267128 -0.0095360335 -0.005604738
000030 3a 0a 37 3d e1 95 92 3c 91 9f f4 bd 41 62 dc bc
       0.044687487 0.017893733 -0.119444974 -0.02690232
000040 62 8d 1a be 39 51 3a bd d7 9a 86 3c c9 a2 73 3d
       -0.15092996 -0.045487616 0.016431255 0.059481416
000050 0a b5 83 3d 2e 66 8b 3d b3 f2 a5 3c be ff 0c be
       0.06431015 0.068065986 0.02025733 -0.13769433
000060 f6 d5 04 3e f1 4c 80 bc 5f fa b9 3d 05 58 8a 3d
       0.12972245 -0.015661689 0.090809576 0.0675507
000070 d2 a1 10 3e aa f3 e9 bd bc 0f d6 bd 96 91 80 bd
       0.1412423 -0.11423428 -0.1045222 -0.06277768
000080 2e a7 ac bd f7 1d c2 bd 25 9d b1 3d 55 ab cb 3d
       -0.084303245 -0.094783716 0.08672551 0.09944788
000090 3a ee b7 3d cb 2f 97 3c 91 e8 99 3d cd 9e 37 3d
       0.08980985 0.018455407 0.07515062 0.04482918
0000a0 f8 40 79 bd 83 c8 26 3c 17 95 d6 bd 44 40 95 bb
       -0.060852975 0.010179642 -0.104776554 -0.00455478
0000b0 a9 ae 93 3c 70 dc 20 be 85 ee 02 be 88 1d 95 bd
       0.01802762 -0.1570909 -0.127863 -0.07281023
0000c0 01 57 5f 3d 9a 33 08 be ec 73 50 bd a8 0e 3f bd
       0.054526333 -0.13300934 -0.0508918 -0.046644837
0000d0 eb 75 db bd b7 89 7b 3d a4 dc 5d 3d bb 7a b2 3d
       -0.107158504 0.061410632 0.054165497 0.08714815
0000e0 28 4a ef bc 6f ad b7 bb 74 a8 23 3d 81 56 9b 3d
       -0.029210165 -0.0056053917 0.03995557 0.07584859
0000f0 db 77 84 3d cc 73 06 be e6 41 08 bd 74 ef e3 bd
       0.06468173 -0.1313011 -0.03326597 -0.111296564
000100 47 c9 43 bd e3 86 8e 3d 84 2c c4 bd 40 57 88 3d
       -0.047799375 0.06959321 -0.09578803 0.066572666
000110 df 57 46 bb b3 4c a9 bd 61 f6 86 3d fb c5 8b 3d
       -0.0030264778 -0.08266582 0.06589962 0.06824871
000120 76 ff 33 bd 54 e4 df 3d fb bd 9b 3d 84 11 e7 bb
       -0.0439448 0.10932222 0.07604595 -0.0070516486
000130 93 53 49 bb 8d 75 8e 3d 39 ec 4f 3d 88 a0 d6 3c
       -0.003071998 0.06956015 0.05076239 0.026199594
000140 e8 9c f1 bd d3 c9 ae bd 87 cd fd 3c 16 43 53 bd
       -0.117975056 -0.08534589 0.030981792 -0.05157765
000150 23 3d b3 bd c0 e4 b1 3c f0 57 a5 bd da e6 09 bd
       -0.08751895 0.021715522 -0.08073413 -0.033667423
000160 dd 43 03 bd 0d 1e da bd 66 d3 07 bd a4 e6 59 3d
       -0.03204714 -0.10650263 -0.03316059 0.05319847
000170 45 a5 22 3c 19 13 0f bd 95 e1 2a bd e8 8e a0 bd
       0.009927099 -0.034930322 -0.041719038 -0.07839757
000180 85 c9 56 bd 8a bb bf bc d9 cc dd 3d c8 af 97 3c
       -0.052438278 -0.023404855 0.10830087 0.018516436
000190 6c 9f c6 3d 84 34 80 bc 98 0d c6 3d db 1f bf 3c
       0.09698376 -0.015650041 0.096705616 0.02333062
0001a0 d1 db ae 3c e7 90 04 be bc 90 aa bd 8f 7b eb 3d
       0.021345051 -0.12945901 -0.08328387 0.11498176
0001b0 d2 35 fd 3c 85 84 ae bd 6b a9 a9 bd ee c0 da 3d
       0.030909453 -0.0852137 -0.08284267 0.1068133
0001c0 27 d2 b5 bd 4c 71 b8 bc 83 40 23 3c 3f ab 93 3c
       -0.08877974 -0.022514962 0.009964111 0.018025992
0001d0 8c cc 88 3d a2 31 3b 3d 00 6d 0f 3c 32 8c 8e 3d
       0.06679639 0.04570163 0.008754015 0.06960334
0001e0 84 0c 1a 3d 5e 3f 37 3d 7c 14 aa bc 7d 26 98 3d
       0.037609592 0.044738166 -0.02076172 0.07429216
0001f0 18 71 5d bd 1d a9 a2 bd 4d cb a4 bd 42 c3 a3 3d
       -0.054062933 -0.07942412 -0.08046589 0.07996227
000200 d5 e4 04 3e 82 88 c4 3d 29 a5 ec bc 3e b3 1e bc
       0.12977917 0.09596349 -0.028887348 -0.009686289
000210 2a 51 42 bd 55 07 b7 bd 51 cd b2 bd 64 7d 02 be
       -0.047440685 -0.08936945 -0.08730567 -0.12743145
000220 9d 71 71 bb f6 d8 a8 bd ac 3b 8a bc 90 16 a6 3d
       -0.00368414 -0.08244507 -0.016874157 0.08109772
000230 0d 9e 9a bd 7f 16 ad 3a 32 79 d8 3d a2 4d 5c 3d
       -0.07549677 0.0013205557 0.10569991 0.053784974
000240 a4 2d 13 3d a0 86 06 3d 00 55 4d bc dc 02 de bd
       0.0359322 0.032843232 -0.012532473 -0.10840389
000250 1b e3 b8 3c bb 8e a4 bd d0 98 0c be d9 26 89 bc
       0.02256923 -0.08035036 -0.13730168 -0.016742157
000260 e5 fb e5 bd 13 80 a2 3d 3a ef 15 be cd 57 0a be
       -0.11229686 0.079345845 -0.14642039 -0.13510056
000270 67 58 c3 3d 7e de 83 bd 04 88 83 bc 87 c3 38 bd
       0.09538346 -0.064389214 -0.016056068 -0.045108344
000280 47 07 f1 3c 59 9d dc bc f1 4e a4 bc 98 71 e3 bc
       0.029422415 -0.026930498 -0.020057173 -0.027764127
000290 19 63 a0 3d c4 71 c1 3d ab 8d 9d bd 45 7f 68 3d
       0.078314014 0.09445527 -0.07693037 0.056762
0002a0 7d c8 83 bd 58 27 9e 3d 4e 88 70 3d 51 a1 f3 3b
       -0.064347245 0.07722348 0.05872374 0.007435002
0002b0 93 27 99 3a e8 b9 e0 bd 98 0f e7 bc 2a c4 e5 bc
       0.0011684768 -0.10972959 -0.028205678 -0.02804764
0002c0 40 1c a7 3c 3a 8b 5a 3d 2a 8f a4 3d 9a 8a 29 3d
       0.020399213 0.053355433 0.08035119 0.041391946
0002d0 3c bd 97 3d 31 e2 d6 3d f3 63 b6 bb 0c 44 5c bc
       0.074091405 0.10492361 -0.005566114 -0.013443958
0002e0 ab df c2 bd 3d fb 98 3d cd ad 90 bc bb 59 92 3d
       -0.095153175 0.07469795 -0.017661 0.07146021
0002f0 ba e4 28 bd ef 9c 2f 3d c4 e1 ef 3d 51 fe 5c 3d
       -0.041233756 0.042874273 0.11712983 0.053953473
000300 a4 f5 0f 3d 19 ff 03 bc b8 a4 86 3d 3c 5e ae bd
       0.03514637 -0.0080564255 0.06574386 -0.085140675
000310 d5 97 15 3d 55 59 74 bd 59 48 0c be 20 13 14 bc
       0.03652175 -0.059655506 -0.13699473 -0.009037763
000320 4c 5f e1 3d 65 8c 1c bd 65 60 87 bd a6 0c 8a bd
       0.110045046 -0.03821983 -0.06610183 -0.06740694
000330 4c c3 8c 3b 4b b4 53 3c 9c 5e 16 be d8 60 dd bd
       0.004295742 0.012921403 -0.14684528 -0.10809487
000340 4d 6e a9 3d 1f 9e 85 3b 8d 08 85 bc 4a 33 a8 3d
       0.08272991 0.0040776874 -0.016239429 0.082129076
000350 ae f2 69 3d d7 f2 7c 3d 48 0d d8 3d 44 e3 5c bd
       0.057116203 0.061755028 0.10549408 -0.053927675
000360 5a 68 c0 bd 1a 22 f9 3d f2 18 e2 bd d9 cc 93 3a
       -0.093949035 0.121647075 -0.11039914 0.0011276259
000370 25 68 c3 3b d2 f2 3a 3d 56 a6 ef bd 0d 0c 71 3d
       0.0059633427 0.045641728 -0.11701648 0.058849383
000380 5f 72 1c bd 5a 62 f5 3c e8 e9 9e 3d 94 fa a5 bc
       -0.03819501 0.029954124 0.07759458 -0.020261087
000390 a0 70 c3 bd b0 90 44 3d fe 71 4a 3c 72 e5 a9 bd
       -0.09542966 0.047989547 0.012356279 -0.08295716
0003a0 e9 67 a7 bd cf ac 21 bd ce aa ab 3c e8 5b d0 bd
       -0.08174116 -0.039471444 0.02095547 -0.1017378
0003b0 70 e0 28 3d 90 2c a4 3d 19 c1 cd 3d 87 82 60 3d
       0.041229665 0.08016312 0.10046596 0.05481198
0003c0 33 f9 f1 3d fa 89 67 3d 24 73 1e 3c f3 27 24 be
       0.11815109 0.05652807 0.009671006 -0.16030864
0003d0 38 d0 96 3d f7 de 8a bd f8 d9 0a be cf 6b eb bd
       0.07363933 -0.067808084 -0.13559711 -0.11495172
0003e0 d9 88 ba 3c 90 fb 00 3d f0 fa 9e bd 64 d1 04 bd
       0.022770332 0.03148991 -0.07762706 -0.032426253
0003f0 f5 42 b4 3d 4f 71 a9 3d 14 a6 f6 bd d8 06 31 3e
       0.088018335 0.08273565 -0.12043396 0.17287767

fc2.bias f4 [10]
000000 1b 63 84 3c 6b 99 ba 3d 09 d1 9d 3c 17 47 59 bd
       0.016160538 0.091112934 0.019264715 -0.053046312
000010 73 c2 a3 bd 9f 3e f0 3c 73 33 89 3d e5 a4 58 3d
       -0.079960726 0.029326735 0.06699266 0.05289163
000020 9f bd 19 3d 22 c9 59 3d
       0.037534352 0.05317033
