models/Adversarially trained models/robust_sequential_model_0.pt (torch, 461138 bytes, 12 tensors)

g_model.conv1.weight f4 [32, 1, 3, 3]
000000 cc 83 a8 bd 10 07 72 3d 9a 20 af 3d 3e 21 8e 3e
       -0.08228263 0.059088767 0.0855114 0.27759737
000010 51 cf b5 3e e1 72 1a 3e 91 26 29 be 5c 10 be 3e
       0.35509732 0.15082885 -0.16518618 0.37121856
000020 75 7c 92 bd 49 ba 89 bd 83 42 16 3e ce 4e 21 3d
       -0.071526445 -0.06724984 0.1467381 0.039381795
000030 fb e6 8a be 82 02 e8 bd c4 23 01 be 30 32 a8 be
       -0.2712935 -0.11328603 -0.126113 -0.3285079
000040 49 5e 9b 3d e9 b6 85 be ec 26 2e 3e 89 eb 95 3e
       0.07586343 -0.26116112 0.17007035 0.29281262
000050 ff 7d 76 3b 1a aa dd bb f0 99 2b 3d 46 32 8e 3e
       0.003761172 -0.0067646625 0.041894853 0.2777273
000060 2f 09 cc 3c 32 c9 b2 bd ac 4f 22 be c7 55 75 3d
       0.024906723 -0.08729781 -0.15850705 0.059896257
000070 ce f8 d7 3d 97 36 f9 ba 45 d7 9e 3e f7 51 9d 3c
       0.105455026 -0.0019013461 0.31023613 0.019204123
000080 f4 24 ae 3e e6 98 5b bd b4 fb 4a be d0 50 e0 bc
       0.34012568 -0.053612612 -0.1982258 -0.027382284
000090 d7 66 79 be 18 33 53 be 5a 79 a5 be 5e 26 bc 3e
       -0.24355637 -0.2062496 -0.32319146 0.36748022
0000a0 ff 71 6c 3e 07 06 10 be ae f8 c1 3e 18 33 ae bd
       0.23090361 -0.14064799 0.3788504 -0.08505839
0000b0 27 e9 02 3e 6a 9e 90 3e 54 08 43 be 4d 88 a5 be
       0.12784253 0.2824586 -0.19046146 -0.32330552
0000c0 ae c4 81 bd 55 dd 53 be f3 1d 1c be 58 b9 cd 3e
       -0.06336342 -0.206899 -0.152458 0.4018047
0000d0 86 eb cf 3e 47 b9 b4 bd e9 bf e0 bd 22 78 6d 3d
       0.40609378 -0.08824401 -0.10974104 0.057975896
0000e0 10 86 06 be fd ee 2d be 9d de 56 3e 2c d4 6f be
       -0.13137078 -0.16985698 0.20983358 -0.23420781
0000f0 bd e0 a6 3e 6f b8 d5 3e 26 94 a1 3e a6 7e 0f 3e
       0.32593337 0.41742274 0.3155834 0.14013156
000100 9f 54 19 3d a8 53 aa 3e 6d de 01 be ca 62 63 be
       0.037434217 0.3326695 -0.12682505 -0.22205654
000110 87 ba b3 3d ab 2d 1e be 54 a5 95 3e 07 d4 4c 3e
       0.08775812 -0.15447108 0.29227698 0.20002757
000120 c0 11 0e be 4b 47 70 3e a6 08 3e 3e 6c f7 32 3e
       -0.13873959 0.23464696 0.18557987 0.17477196
000130 4c 03 10 bd 2c 9e 78 3e 23 e0 ac 3e af a0 b4 3e
       -0.035159394 0.24279088 0.33764753 0.35278842
000140 ab 23 d7 3e 31 90 01 3e e4 8e 26 3c df 4e 81 be
       0.420194 0.12652661 0.010165904 -0.25255486
000150 04 b2 c5 3e c8 bf 96 3d fd 34 7b be 50 83 65 bc
       0.38612378 0.07360798 -0.24531932 -0.014008358
000160 00 78 d4 3e bd 5e 53 be 7d b1 e7 3c 1e 6b a5 3e
       0.41497803 -0.20641609 0.028282875 0.32308286
000170 40 62 b3 3e a6 4d 6a 3e 06 2c 27 be a5 78 98 3e
       0.35035896 0.22881183 -0.16325387 0.29779544
000180 94 cf 3a 3b 5a 54 83 3d 4b fa 97 3e c4 6e 07 3e
       0.0028505074 0.06412573 0.29683146 0.13225847
000190 8b 6d c5 3e a0 31 93 3e 02 3c 06 be e8 0a 03 be
       0.38560137 0.28748798 -0.13108829 -0.12797129
0001a0 92 04 bc 3e c8 5e c0 3e 2e 7b b9 3e 90 7b 28 be
       0.36722237 0.37572312 0.3622679 -0.16453385
0001b0 a4 99 e0 3d 12 b7 73 be 07 76 6e be fa 2f d2 3c
       0.109668046 -0.23800305 -0.23287211 0.025657643
0001c0 68 13 88 3e 06 67 99 be 16 4a 84 be b7 9d af be
       0.26577306 -0.29961413 -0.25837773 -0.34300014
0001d0 15 aa b4 3a af 3b 33 be 40 bb d2 be 31 82 b0 be
       0.0013783599 -0.17503236 -0.41158485 -0.34474328
0001e0 93 d4 94 3e 0f aa 82 3e e8 f7 9e 3d 66 37 92 3e
       0.2906843 0.2552037 0.07762128 0.2855789
0001f0 c2 fd c3 bc 32 13 43 bd 07 e6 6a 3e d5 82 d3 bd
       -0.023924712 -0.047625728 0.22939311 -0.103276886
000200 ff 12 9c 3e 64 36 bd bc f9 83 00 3e 45 ea 0b 3c
       0.30483243 -0.023097225 0.12550344 0.008539741
000210 99 15 2f 3e 8d 5a 87 bd c1 49 9e 3e df 37 60 3e
       0.17098083 -0.06609068 0.30915645 0.21896313
000220 f6 f5 b3 3e ff 9a 69 3e dd 1b 58 be cd e3 32 be
       0.3514859 0.22813033 -0.21104379 -0.17469712
000230 2d fd 9e 3e 9c 2b ce be c2 89 5d 3d ac cd 40 be
       0.31052533 -0.40267646 0.054086454 -0.18828458
000240 c1 65 4f 3d 14 75 b2 3e c7 b0 71 be 74 ba 35 3e
       0.05063415 0.3485495 -0.23602591 0.17746907
000250 7e 49 4d bd ef ab 44 be 00 1d d7 3e 75 42 ba 3e
       -0.050118916 -0.19206212 0.42014313 0.36378828
000260 51 f5 79 3e 71 73 82 3e 50 e1 c4 3e ad 6e 04 be
       0.24409987 0.254787 0.3845315 -0.12932844
000270 70 bf 04 3e 25 36 cd 3c aa 74 b5 3e 06 c2 4e bc
       0.12963653 0.025050232 0.3544057 -0.012619501
000280 e3 6c 86 be 75 48 f3 3c b4 42 a2 3e 9f 99 2c 3e
       -0.2625495 0.029697636 0.31691515 0.16855477
000290 7d 79 ee bd 74 91 5a bc a4 7b ac 3e 04 39 1d 3e
       -0.11644266 -0.013340343 0.3368808 0.15353781
0002a0 7c 13 17 bc 42 fd 63 3e 33 a9 06 bd c4 97 f1 bd
       -0.009220954 0.22264579 -0.032876205 -0.11796525
0002b0 a8 0c a0 be 41 d4 15 bc b8 d6 88 bb fd a2 34 be
       -0.31259656 -0.009144844 -0.004175987 -0.176403
0002c0 4d d6 88 3c d0 b7 ae bd 87 7e b5 be 82 e8 08 3e
       0.01670375 -0.08531153 -0.35448095 0.13369945
0002d0 7d 21 22 be ab a5 20 be d6 4d 87 be a8 12 7a bd
       -0.15833087 -0.15688197 -0.26426572 -0.06105295
0002e0 39 1c 03 3e 1d e2 26 3e d5 81 ce 3e 52 3c 30 3a
       0.12803735 0.16297193 0.4033343 0.00067228556
0002f0 ba d9 bf 3e 0e 90 84 be da 37 bc 3d 0c fd a1 3c
       0.374708 -0.25891155 0.0919034 0.019773982
000300 45 c6 06 be 29 d7 e3 bd 6d cb 54 3e 1d e9 45 be
       -0.13161571 -0.11125023 0.20780726 -0.19327207
000310 05 49 88 3e 21 4e 24 3e d3 15 20 be 25 e2 54 3e
       0.2661821 0.16045429 -0.15633325 0.20789392
000320 e1 b6 7c 3e d8 54 8c 3e d3 77 cd 3d 7a 2c 62 3e
       0.24679138 0.2740848 0.1003262 0.22087279
000330 19 ba 0b 3d f7 07 a8 be f9 92 a1 be f5 37 2c 3d
       0.034113023 -0.32818577 -0.31557444 0.042045552
000340 17 18 a6 3e 5b af 3c 3e d1 3d e5 3c 1f 1a a9 bd
       0.32440254 0.18426268 0.027983578 -0.08256935
000350 6e 74 92 3e 42 14 6c be 30 2d 85 be 0c 27 bb be
       0.28604454 -0.23054603 -0.26011038 -0.36553228
000360 45 ca 6c bd 19 83 8d 3e a7 e1 ce be ca 28 18 3e
       -0.057810087 0.27639082 -0.40406534 0.1485931
000370 20 03 84 be 19 3c f6 3d 71 7d 4a 3e df 7e 8e be
       -0.25783634 0.120231815 0.19774415 -0.2783117
000380 82 27 b9 bc f8 0a aa 3e 62 b9 55 be 08 e7 af be
       -0.022601847 0.33211493 -0.20871499 -0.3435595
000390 da 4d c6 3e 7c 74 34 be 79 b6 a3 be 08 b7 83 3e
       0.3873127 -0.1762256 -0.31975153 0.2572558
0003a0 42 1d 8c be 23 73 8e bd 20 22 c8 3e a5 cf ce 3e
       -0.27366072 -0.06955554 0.39088535 0.40392795
0003b0 66 11 7b 3c 29 fe 95 3e 66 05 8a be 80 16 08 3e
       0.015323972 0.2929547 -0.26957244 0.13289833
0003c0 99 f2 93 be 20 32 17 3e 93 12 46 be 6f 6d 6c be
       -0.28896025 0.14765215 -0.19343023 -0.2308862
0003d0 2f 69 93 3d 74 97 c7 3e 4f f0 94 be e0 e5 82 be
       0.071977966 0.38982737 -0.2908959 -0.25566006
0003e0 02 83 cf 3d 4b a3 00 3e 4f 46 b5 3e 10 4f 11 be
       0.1013241 0.12562291 0.35405204 -0.14190316
0003f0 48 a3 a1 3e 02 64 c3 be c3 98 34 bc ba c3 60 bb
       0.31569886 -0.38162237 -0.011022749 -0.003429635

g_model.conv1.bias f4 [32]
000000 59 c3 6c bd 50 b2 2d be 23 58 0d 3e 7f 22 36 bd
       -0.057803486 -0.16962552 0.13803153 -0.04446649
000010 7c 30 93 3e 57 eb 6f 3e 79 ea 27 3e 56 f4 a3 3d
       0.28747928 0.23429619 0.16398038 0.08005588
000020 e9 1d 42 3e 26 ac 8b bd b5 bd 44 be 73 07 8a be
       0.18956722 -0.06819944 -0.19212992 -0.26958808
000030 06 32 6e be eb 02 fd 3d 00 5a bd 3d ef 53 93 3e
       -0.2326127 0.12354072 0.09245682 0.28774974
000040 14 de f6 bd 0c 5a a2 3d 69 dc 21 3c 51 b1 b0 3e
       -0.12054077 0.07927331 0.00987921 0.34510282
000050 60 35 6f be 79 cb d8 3c 16 42 a0 3d 0a c9 d0 3a
       -0.23360205 0.02646421 0.07825105 0.0015929055
000060 84 3e b3 3d c0 3b 00 3e 19 b9 8a 3e aa 1c 24 3e
       0.08752158 0.12522793 0.27094343 0.1602656
000070 97 f9 fc 3d f4 eb e2 bc f9 11 89 bc 73 47 ac 3e
       0.12352293 -0.027700402 -0.016732203 0.3364826

g_model.conv2.weight f4 [32, 32, 3, 3]
000000 d9 6b 17 be 67 0f b3 bd 78 12 83 bd 08 79 4f bd
       -0.14787234 -0.08743172 -0.06400007 -0.050652534
000010 a3 83 d6 bb ef 2c 87 3c 11 11 7e 3d 8e 1a c9 3c
       -0.006546454 0.016500918 0.062027995 0.024548795
000020 02 c2 38 3d ac 52 81 3b e0 83 cd 3d 0f d1 54 3d
       0.045106895 0.003946623 0.10034919 0.051957186
000030 b4 ed 23 3c 2d a4 e0 bc bd fb 4f 3b 16 e1 b3 3a
       0.010005403 -0.027422035 0.003173574 0.0013723697
000040 28 01 a0 3c 57 43 a6 3c 72 8a 32 bd b9 9a d6 3c
       0.019531801 0.020295782 -0.043589063 0.026196824
000050 ae 9b af bd 60 42 4a bd d5 a1 0b bd ac 20 87 bd
       -0.085746154 -0.049379706 -0.034089882 -0.065980285
000060 07 41 98 3b ed 1d 9b 3d ae 95 a4 3d 52 68 01 be
       0.0046464237 0.07574067 0.08036362 -0.12637451
000070 f5 6e 10 bd a9 79 1d be c9 3b 97 bd eb 48 a8 bd
       -0.035262067 -0.15378441 -0.0738445 -0.08217033
000080 14 dc 82 bd 67 5f ae 3d 1b 7d c8 3d 82 d7 87 3d
       -0.06389633 0.0851429 0.09789487 0.06632902
000090 67 ca eb bb f7 8b b7 3c 4c f4 fb 3c f5 19 b5 3d
       -0.007195759 0.022405608 0.030756138 0.088428415
0000a0 b8 f2 39 3d 57 3e c2 3d c5 d1 10 3d eb 33 8e 3d
       0.04539749 0.09484547 0.0353563 0.06943496
0000b0 6c bf d5 bb a7 71 2a bd fd 83 3a bc b0 30 68 3c
       -0.0065230634 -0.041612294 -0.0113840075 0.014171764
0000c0 33 a5 c0 3d 23 28 54 3d 2e 46 d2 bb 61 30 35 3d
       0.09406509 0.05179609 -0.0064170575 0.04423559
0000d0 e0 49 5e 3d bd 7a e4 bc 16 c6 30 3c 57 74 61 bd
       0.05426967 -0.027890557 0.010789415 -0.05504259
0000e0 71 89 0e bd 87 3d 57 3d 44 94 56 3c a8 ef bd 3d
       -0.034799043 0.05254891 0.013096873 0.092742264
0000f0 1d 09 b9 3c 19 b1 87 3c fe 08 c2 3c 4c d8 03 bc
       0.022587353 0.016563939 0.023685928 -0.008047175
000100 18 2b 9c bd ad 93 27 bd f9 5a 62 3d 66 bb 17 bd
       -0.07625407 -0.04091232 0.05526254 -0.03704395
000110 88 01 25 3d 8c 85 b7 3c 23 61 1e bc 2f da 52 3d
       0.040284663 0.022402547 -0.009666714 0.051477607
000120 59 83 ea bd 45 87 de bd 9b a2 86 bd ec 47 ab 3d
       -0.11450834 -0.10865644 -0.06573983 0.083633274
000130 e0 f4 ff 3b 36 e8 ae 3d 8c f6 93 3d d1 2a 38 3d
       0.007811174 0.085403845 0.072247595 0.044962708
000140 3a f3 bd 3d 67 1b 30 be 2c 18 2d be 78 39 38 be
       0.092749074 -0.17197953 -0.16903752 -0.17990673
000150 57 0c bb bc 72 39 b8 bc cd 01 44 bd 14 db 6c bd
       -0.022833033 -0.02248833 -0.04785328 -0.057826117
000160 2c f2 1d 3d 8a 3b 21 bd ad 95 8f bd 72 23 cc bd
       0.03856103 -0.03936342 -0.0701097 -0.09967698
000170 4a 48 13 bd 7e 4f 98 bd 69 a8 a4 3c 0e e7 8c 3d
       -0.035957612 -0.07437037 0.020099835 0.06880008
000180 94 df df 3d fd e7 3d 3d 43 12 a4 3d 73 d5 e2 bd
       0.10931316 0.04636382 0.08011296 -0.110758685
000190 42 26 cf bd a4 5d 00 be d3 b2 12 bd f3 6b 1d bc
       -0.10114719 -0.12535721 -0.03581507 -0.009608257
0001a0 97 01 f0 3c 7d 36 f1 3c 63 f0 b9 bb 42 d3 fa 3c
       0.029297633 0.029444927 -0.0056744083 0.030618314
0001b0 ca 2b ba bb 97 89 20 bc b0 0b c5 3b 41 65 24 bd
       -0.0056814896 -0.009798429 0.006013356 -0.040135626
0001c0 d6 56 b1 3c 39 4d d0 bb c1 c9 30 3d 19 63 c9 bc
       0.021647852 -0.006356862 0.043161158 -0.024583386
0001d0 12 90 37 3d a1 3a 1b bd 9a 47 01 3d 68 8c 3b bb
       0.04481513 -0.03789771 0.031562425 -0.0028617624
0001e0 05 6a a0 3d 88 78 db 3d da a1 5e 3d ac 22 88 3d
       0.078327216 0.10716349 0.054353572 0.06647238
0001f0 0b c3 79 3c 8f 8c c1 3c 0e b2 50 bd 21 80 a5 bd
       0.015244256 0.023626594 -0.050951056 -0.08081079
000200 99 9e b6 3c c9 fb 21 bd de 2f 97 3d c1 9a e8 3c
       0.022292422 -0.03954676 0.07382177 0.028394105
000210 cb 71 50 3d 3f 17 60 3d 44 e5 15 3c 83 fd fa 3c
       0.05088977 0.05470967 0.0091488995 0.030638462
000220 4e c8 58 3d 09 6d 03 3c af 05 8c bd 6a 61 5d bd
       0.0529254 0.0080216015 -0.068370216 -0.05404798
000230 8e 52 89 bc 50 58 f5 bb dd 7f ed 3b 8c 47 e8 3b
       -0.016762998 -0.0074873343 0.0072479085 0.007088607
000240 be 13 07 be 42 99 cb bd 34 4d 36 bd c1 f3 29 3d
       -0.13191125 -0.09941341 -0.04450722 0.041492227
000250 84 36 ad 3d 77 aa 6d 3d d7 bb 60 3d ef 68 ad 3d
       0.08457664 0.058023896 0.054866638 0.0846728
000260 62 4d bb 3d c9 d0 aa bd 39 d0 f8 bc 4e 11 db bd
       0.09145619 -0.08340604 -0.030372726 -0.1069666
000270 3a 9f 00 bd 64 fa ae bd aa 7a 3e bd 3f f1 5f 3d
       -0.03140185 -0.08543852 -0.0465037 0.05467343
000280 c5 05 b4 3d 1a 33 0c 3d c8 fc 8d bd 11 f8 b8 bd
       0.08790163 0.03422842 -0.0693298 -0.0903169
000290 20 48 03 be 93 02 6d bd f8 ef 8b 3c d5 d7 39 bd
       -0.12820482 -0.057863783 0.0170822 -0.04537185
0002a0 2c 3d 80 3c e8 9a 99 3a a6 34 c6 bb 98 85 bb bc
       0.015654169 0.0011719139 -0.0060487567 -0.02289085
0002b0 57 b5 35 3d 21 10 d2 bb c2 74 61 3d 3c e1 d9 bc
       0.044362392 -0.006410614 0.05504299 -0.026596658
0002c0 10 72 b1 3c d2 80 7d bc 81 61 8a bb c4 e8 c4 3c
       0.021660835 -0.015472608 -0.004223049 0.024036773
0002d0 d1 2d 1c 3c 03 7d 83 3d 47 ef 86 bb 4e 24 18 3e
       0.009532408 0.064203285 -0.0041178796 0.14857599
0002e0 9e f9 80 3d b9 7a 20 3e a8 ec 86 3d ab f5 2a 3d
       0.06297611 0.15671815 0.06588107 0.041738193
0002f0 f2 cb e4 3c c4 6c 21 bd 8a b9 47 bd 93 28 55 3c
       0.02792928 -0.039410368 -0.04876093 0.013010162
000300 4c 2a 20 3d ea ba 77 bc 29 34 06 3d ee 00 bc 3c
       0.039102837 -0.015120247 0.032764588 0.022949662
000310 93 b5 8b 3d 40 36 80 3c 2b e2 d8 3c 42 09 12 bd
       0.06821742 0.015650868 0.026475033 -0.03565336
000320 f0 5c 8b bb 2f 38 da bc 69 e0 3e bd 7b 7e 14 bd
       -0.0042530224 -0.026638119 -0.046600733 -0.036253434
000330 f1 66 82 3d 08 08 69 3c a3 4f 06 3d d6 42 db 3d
       0.06367291 0.014223106 0.03279079 0.10706107
000340 17 0e 85 3d 8a b5 d5 bb 23 a7 d6 bd 7f 29 31 bd
       0.06496828 -0.0065218853 -0.104810975 -0.043252464
000350 63 ab 0c be 31 1d b9 3d 68 84 3f 3d c6 ea a4 3d
       -0.13737254 0.09038771 0.04675713 0.08052592
000360 b4 78 1d bd db 13 16 3d b2 a3 da bc 18 e3 da 3c
       -0.03844519 0.03664003 -0.026689384 0.026719615
000370 20 b6 65 3d bd 6c 00 3c b3 f3 d0 bc 9b 8c 15 bc
       0.05608189 0.007838425 -0.02550683 -0.009127761
000380 6b 57 c4 bd 16 55 af bd be 02 24 bd f4 2a 6c bc
       -0.09586986 -0.08561151 -0.040041678 -0.014414538
000390 14 ad 59 bd 30 df fc bd 2d f8 d3 bc ea 9a da bd
       -0.053143576 -0.12347257 -0.025875175 -0.10674079
0003a0 cf 27 8b bd 2b ba b6 bd 90 d4 8b bd 63 5b 0b 3d
       -0.06794702 -0.089222275 -0.068276525 0.0340227
0003b0 fc b9 29 bc 0d 9c 4c bd 5d 92 33 bd f6 ed 29 bc
       -0.010359284 -0.04995351 -0.043840755 -0.010371676
0003c0 81 84 3d 3d b9 94 88 3c 7e c0 6f 3d 15 98 00 bd
       0.046268944 0.016672479 0.058533184 -0.031395037
0003d0 0f 3a f4 3b b6 07 19 3d 80 74 f0 bb 00 d1 01 bd
       0.00745321 0.03736087 -0.0073381066 -0.03169346
0003e0 fb ef 20 3d 33 ae e7 bc 44 1f 25 3d c2 83 e0 bc
       0.039291363 -0.028281307 0.04031302 -0.027406577
0003f0 7a be ef 3c 9f 48 f5 bc 39 ef b3 3d 96 f7 57 3d
       0.029265631 -0.029941855 0.087858625 0.05272635

g_model.conv2.bias f4 [32]
000000 5b 33 7c 3d c9 b3 57 3d 1b 2e 45 bd e7 bc 06 3d
       0.061572414 0.05266169 -0.048139673 0.032894995
000010 de 85 9d 3d 80 c2 4c bd a8 1a 48 bd 31 47 e3 bc
       0.07691549 -0.049990177 -0.048853546 -0.027743908
000020 5c 40 0e bd d6 3d 78 3d db 1f 44 3d 8e 9a 1e 3d
       -0.034729347 0.060605846 0.047881942 0.038721614
000030 29 65 00 3d 19 a7 4b bd 16 1f 75 bd dc 97 6b bd
       0.031346474 -0.049719904 -0.0598441 -0.05751787
000040 18 e4 34 3a 6b f5 c7 3c 20 f8 b1 bb 7d b4 6f bc
       0.00069004437 0.024409017 -0.00543119 -0.014630434
000050 4b 8d 6e bd a1 7b 61 3d b6 43 81 bc 5e 94 91 bd
       -0.058240216 0.055049542 -0.015779357 -0.07108377
000060 e5 52 43 bd e3 ad 51 bd 75 70 0c 3d 59 7e 3e bd
       -0.047686476 -0.051191222 0.034286935 -0.046507213
000070 f2 83 76 bc 99 5f e0 bb 84 38 01 3d d7 ba a4 bc
       -0.015046107 -0.0068473336 0.031548038 -0.020108623

g_model.fc1.weight f4 [128, 800]
000000 19 5f ec bc a0 9a 8d bc 48 c2 7f 3c c8 9c 6f 3c
       -0.02885394 -0.017285645 0.015610285 0.014624782
000010 6b 97 f5 bb 47 cd 68 bb 61 31 90 3c 0a 04 47 bc
       -0.007494857 -0.0035522745 0.01760167 -0.012146959
000020 43 aa 4e bc b7 8a 19 bc b8 9b d5 bb 24 a9 b0 bc
       -0.012613836 -0.009371451 -0.0065188073 -0.021565028
000030 38 60 10 bc fa b7 54 bc 4c 9c 27 bc a3 8a 86 bc
       -0.008812003 -0.012983317 -0.010230135 -0.016423529
000040 5d 45 53 3c 42 df 75 bb a8 59 96 ba 93 d3 69 3c
       0.012894955 -0.0037517105 -0.0011470811 0.014271635
000050 8b bf 0f 3d 2a 91 9c 3c 6b 9f f5 3c 45 de 86 3c
       0.03509478 0.019112188 0.029983243 0.016463408
000060 60 fd cf bc 80 72 4a 3c 1e 05 8a 3c 4a 19 68 3b
       -0.025389373 0.0123564005 0.016848143 0.0035415464
000070 44 f3 89 bc 32 c4 89 3c 08 48 d1 3c 54 6a 16 3d
       -0.01683963 0.016817186 0.025547042 0.036722496
000080 03 19 c6 3c 87 04 90 bc da 11 28 bc d7 56 08 3c
       0.024181848 -0.017580284 -0.010258162 0.0083214855
000090 16 c7 7d bc be 4d 1a bb c8 4c ca 3b 5c 33 b4 3c
       -0.01548936 -0.0023544873 0.006173704 0.021997146
0000a0 fd de 10 3c 03 e0 39 3d 62 6c 15 3c 7c 7e af 3c
       0.008842227 0.04537965 0.009120079 0.021422617
0000b0 51 ad 8f bc 24 be bc bb e7 1b c4 3c e3 0d e6 3c
       -0.017538698 -0.005759971 0.023939086 0.028082794
0000c0 98 c6 b8 bc 84 a8 8b 3c 17 3d 1a 3c 8f 7b d2 bc
       -0.022555634 0.017048128 0.009413979 -0.025693683
0000d0 83 d5 f1 bc 74 f0 11 3c 81 94 c8 bc 2b 73 8b 3c
       -0.029520756 0.008907426 -0.024484875 0.01702269
0000e0 69 a1 a4 bc 17 84 03 3d 1b ed 07 3d 0f cc d6 bc
       -0.020096498 0.032108393 0.033185106 -0.02622035
0000f0 c3 b4 e4 3c 4d 27 0f b9 ab 01 f6 3b 67 91 a6 bb
       0.027918225 -0.00013652183 0.007507523 -0.0050832513
000100 1e bf 06 3c 0c 10 a6 3c ef ce a9 3c b5 aa fc ba
       0.008224277 0.020271324 0.020728556 -0.0019276949
000110 d9 a3 c8 3c 2b b8 1a bc fe ab a1 bc 6a 1f 1a bb
       0.024492191 -0.009443323 -0.019735333 -0.002351726
000120 a1 5a 8b ba 57 89 f2 3b 20 47 86 3c e8 4b 97 bb
       -0.0010631868 0.007401626 0.016391337 -0.004617203
000130 7c bb 23 bc c5 d5 8e 3c 0f 40 4f bc 7d 27 71 bb
       -0.00999343 0.017435918 -0.01264955 -0.0036797218
000140 a3 ce fa 3c 61 a4 cb ba b8 02 35 3c 57 f8 79 3c
       0.03061611 -0.001553666 0.0110480115 0.015256963
000150 f9 f3 37 3c bd da 1b 3c f0 64 2f 3a bd 30 c8 3c
       0.011227601 0.0095126005 0.0006690761 0.024437303
000160 54 4b f6 3c 98 15 51 3c ba 6e db 3b 04 e3 28 bd
       0.030065216 0.012761496 0.0066965492 -0.041232124
000170 6c 76 9c bc b3 33 ba bc 1e 6d ce bc 13 5e a8 3c
       -0.019099437 -0.02272973 -0.025198516 0.02055267
000180 ab 05 9b bc 18 f6 21 bd 58 22 fc 3c 16 33 22 3a
       -0.018923601 -0.039541334 0.030778095 0.0006187422
000190 a2 df 89 b9 d5 6a f8 bb df a7 47 3c f5 e1 84 3c
       -0.00026297296 -0.0075810947 0.01218602 0.016221026
0001a0 98 c0 06 3d 94 30 67 bc 1c 15 7f bc 88 98 f9 3c
       0.032898515 -0.014110703 -0.015568998 0.03046824
0001b0 b3 04 3a 3b 3f 20 2b 3d 57 62 18 bc ad 93 f7 bc
       0.0028384149 0.0417788 -0.00930079 -0.030221784
0001c0 01 d0 96 3c 7f 2d 2e 3d 77 4e 95 3c 3e 56 18 3d
       0.01840973 0.042523857 0.018225892 0.037191622
0001d0 a6 75 36 3c f6 5b 8f bc d4 6c 07 bc 7a 37 95 bc
       0.011136448 -0.017499905 -0.008265693 -0.01821493
0001e0 2c 0d e1 3b a2 40 37 3c 18 cd 8b 3c 49 8a da bc
       0.0068680253 0.011184843 0.01706557 -0.026677268
0001f0 66 be a2 bc 89 5e 78 3b dd 26 17 bd 51 24 91 3c
       -0.01986618 0.0037898144 -0.036902297 0.017717512
000200 56 42 a1 3c 24 54 9e bc fe 20 d6 bc 6b a0 c5 bc
       0.019684952 -0.01932723 -0.026138779 -0.024124345
000210 05 a9 b8 bc 1b 76 ed 3c 4a 7d f4 bc 5a f7 7e ba
       -0.022541532 0.028986981 -0.029844899 -0.00097261893
000220 ce dd c7 3c b9 21 e7 bc bd 20 7d 3c f5 90 03 bd
       0.024397757 -0.028214322 0.0154497 -0.032120664
000230 2d ed a6 bc 36 e8 ed 3b 50 88 ff bc 71 9b c6 3b
       -0.020376766 0.0072603477 -0.031192929 0.0060610105
000240 3e bd 17 3c 8d 35 ec bc d3 71 b4 bc 00 15 aa 3c
       0.009261427 -0.028834129 -0.022026932 0.020761967
000250 d9 21 9d bc e0 ce be bb da ba c0 3c 48 df ed bb
       -0.019181179 -0.0058230013 0.023526598 -0.007259283
000260 ee 98 4c 3b f6 8f 8e 3c 8d 1b fe 3c 99 09 9f 39
       0.0031219083 0.01740263 0.031018997 0.00030333994
000270 33 4b 30 3c 67 5c 86 3c 23 b7 2e bd 56 7f eb bc
       0.010760116 0.016401483 -0.04265512 -0.028747242
000280 3a cf 10 3c e7 6c a6 bb 07 44 3d 3d 72 da a1 bb
       0.008838469 -0.0050789 0.046207454 -0.004939371
000290 c6 23 cb bb 15 06 22 3d 39 2f ad bc d2 f2 fa 39
       -0.006199333 0.03955658 -0.021140682 0.0004786463
0002a0 6e 42 6c bc 33 14 8d 3c 6a 5a 9e bc 04 20 75 3c
       -0.014420135 0.017221546 -0.019330222 0.014961246
0002b0 7d cf b9 bc 9d 61 03 3d f8 d2 d7 3c 46 e8 04 3d
       -0.022681946 0.032075513 0.026345715 0.032448076
0002c0 3e 36 82 bc 9c 4a f3 3c a5 43 03 bc 0f 89 4d ba
       -0.015895005 0.029698662 -0.008011733 -0.0007840553
0002d0 33 da 52 3a 39 91 9b 3b 24 5c d6 39 4d f2 b8 bc
       0.00080433785 0.0047475365 0.0004088591 -0.022576476
0002e0 14 09 b8 3c 77 05 87 3c 87 1e 22 3c 4a be b3 bc
       0.022465266 0.016482098 0.009894974 -0.021941323
0002f0 14 a1 c2 3c 5f 93 c8 bc c4 bb ec bc 99 bf 12 bd
       0.023758449 -0.024484335 -0.028898127 -0.035827253
000300 8f 17 9b bc 01 6b 92 bb fd 08 d3 3c b7 fa 0c bd
       -0.018932132 -0.0044683223 0.025761122 -0.034418788
000310 31 39 d2 3c 2b a0 d2 3c 87 b3 14 3d 20 f1 c2 3c
       0.025662037 0.02571114 0.036304023 0.023796618
000320 94 20 e6 bc d6 8c 63 3c 4b ce db bc aa 6c d9 bc
       -0.028091706 0.013888558 -0.026831767 -0.026541073
000330 9a 17 d9 3b 4f 90 93 bc 08 b8 0a 3d 07 a4 53 bc
       0.006625128 -0.018013148 0.033866912 -0.012917525
000340 3c 3d 7e bc 4d 43 0e 3d 64 33 41 3a ef 8c bb bc
       -0.015517529 0.03473215 0.00073700235 -0.02289435
000350 df f4 d3 bc ca c3 cc bc 45 14 e2 3c ec 16 6f 3c
       -0.0258736 -0.024995703 0.027597556 0.014592867
000360 48 bc 09 3d ea 37 15 3d 0b e9 e4 3c 26 3f f6 bc
       0.033626825 0.036430277 0.027943155 -0.030059408
000370 6f 4f 57 bc 00 7e 9b bc d2 0e 0c 3d b0 b4 0c 3d
       -0.013141497 -0.01898098 0.03419382 0.034352005
000380 3a d5 3f 3c 53 84 b7 3c 7a 44 24 3d b2 fd 47 3c
       0.011708552 0.022401964 0.040104367 0.012206482
000390 59 5c 74 bc 1e a1 85 3c 38 81 ef 3c d7 21 00 bd
       -0.0149145955 0.016312178 0.029236421 -0.031282272
0003a0 43 ac b1 bc ab 40 59 bc 5b 1a 64 3c a3 63 fa bb
       -0.021688586 -0.013260047 0.013922299 -0.007641272
0003b0 2a a4 93 3b 89 0b a4 3c 3b fd d7 3c 16 37 b4 3c
       0.004505654 0.020025032 0.026365867 0.021998923
0003c0 25 62 a4 3c 25 6d bf 3b 23 9f 9d bc 98 45 96 bc
       0.02006633 0.0058418685 -0.019240921 -0.018343732
0003d0 25 92 fe 3c 3a a8 9e 3a f3 5a 72 bb 1b a8 20 bd
       0.031075547 0.0012104579 -0.003698048 -0.039222818
0003e0 7a 2b c2 3b 94 36 e0 bc 79 95 57 3b 30 9f af bb
       0.005925593 -0.027369775 0.003289549 -0.005359553
0003f0 04 6d 06 3d e8 37 aa 3c cc e3 98 bb 22 a4 ef bc
       0.03281881 0.020778611 -0.0046658274 -0.02925307

g_model.fc1.bias f4 [128]
000000 17 5d 88 bc 59 f7 75 bc 71 85 e5 bc 3f 65 94 3c
       -0.016645951 -0.015012586 -0.028017731 0.018114684
000010 3b 96 b4 3b d2 1a 4f 3b 31 46 f7 3c 8b 98 6b 3c
       0.005511073 0.003160168 0.030184837 0.014379631
000020 56 c4 d5 3c f0 e8 4e 3b 32 6a ec bb 64 86 00 3c
       0.026094597 0.0031571947 -0.007214808 0.007844541
000030 10 3d cf 3c d8 3e 03 ba 9d 93 8a bc 56 f2 3c 3d
       0.025297672 -0.0005006618 -0.01691609 0.046129547
000040 58 b8 11 3c 2a 76 5b 3c c9 44 1e 3d 3c f7 01 bd
       0.008894049 0.013394872 0.038639817 -0.03172992
000050 04 94 9d bc f8 8d 54 bc 8e 14 83 bc bf dc 9e bc
       -0.019235618 -0.012973301 -0.016001012 -0.01939237
000060 42 87 8e bc 2a 45 a0 3b 1e 1b 11 bd b0 3e de bb
       -0.01739848 0.0048910575 -0.03542625 -0.0067823753
000070 19 9b 23 bb a8 cb 22 3d 68 7a 20 bc 46 bf e7 3c
       -0.0024964272 0.039745003 -0.009794809 0.028289448
000080 f2 62 b6 bc e4 6f 84 bc bc 94 86 bb 17 9f 15 3d
       -0.022263978 -0.016166635 -0.004107086 0.036528673
000090 5d d5 b0 bb 2e 03 07 3d d6 22 cb bc 72 ee 09 3c
       -0.0053965286 0.032962017 -0.024796885 0.008418666
0000a0 2a ce 47 3c a4 15 3f bc d1 2b 12 3c 9a dd 02 3d
       0.012195149 -0.011662874 0.008921579 0.031949617
0000b0 10 65 8e 3c ce cd cc 3a c9 f7 53 ba ec e9 12 3d
       0.017382175 0.00156253 -0.0008085934 0.035867617
0000c0 4d b5 75 bc 61 d4 eb bc 1d 0e 92 3c a4 40 ce bc
       -0.014996839 -0.028787794 0.017828995 -0.025177307
0000d0 99 17 0d bd e7 fb 6e bc 96 cd 33 3d 65 d3 6d bc
       -0.034446333 -0.014586425 0.043897234 -0.014515732
0000e0 13 bb 02 3d ac 10 fb 3b 85 ff 04 bd e6 0f 84 3c
       0.03191669 0.0076618996 -0.032470245 0.016120862
0000f0 76 6b 97 3c e1 16 d8 3c 2a 2a 05 3c f2 5b 93 3c
       0.018483859 0.026378097 0.0081277285 0.017988179
000100 ac f9 94 3c 2d b4 6f bc 33 d9 37 bc ac 71 c1 3c
       0.01818546 -0.01463036 -0.011221218 0.023613773
000110 68 92 a0 bc 59 d5 15 ba 43 4a 43 bc b9 de 92 3c
       -0.019601062 -0.000571569 -0.011919561 0.017928468
000120 d1 ef 73 3b c3 c3 a4 bc 61 da 84 bc 00 86 f3 bc
       0.00372218 -0.020112878 -0.016217412 -0.029726982
000130 81 97 ba bc 84 66 10 bc c2 b0 63 bc e6 d5 a6 3b
       -0.02277732 -0.008813504 -0.013897123 0.0050914166
000140 ff fa f0 3c 8e 5a 81 3c 9a 24 25 3c 66 04 04 3c
       0.02941656 0.01579025 0.010079527 0.008057689
000150 7d ff e4 3c 44 d9 b4 3c 90 92 78 3c 6b 4b e6 3c
       0.027953858 0.022076257 0.015171662 0.028112134
000160 3b d1 47 3c 1e 7c 6f 3c 66 27 4b bc fe a7 14 bc
       0.0121958805 0.014616994 -0.01239953 -0.009073256
000170 77 09 55 bc 05 db fc 3b 4d 48 c9 bc 9e 2e b2 3c
       -0.013002745 0.007716539 -0.024570609 0.021750744
000180 7f fc cd 3a 13 26 62 ba 2b 95 28 3d 73 8f 8b bc
       0.0015715508 -0.00086268893 0.041157883 -0.017036175
000190 fc 7d 92 ba 93 d1 90 bb 1f 87 54 bc 0c f2 dd bc
       -0.0011176462 -0.0044195144 -0.0129716685 -0.027092956
0001a0 10 86 c6 bb 7f 33 9a bc 49 e1 b2 3c f1 aa 28 3c
       -0.006058462 -0.018823383 0.02183594 0.010294662
0001b0 d2 fa ba bc 07 8f 06 3d c7 e3 3f 3d 51 0c d7 bb
       -0.022824679 0.032851245 0.046848085 -0.0065627475
0001c0 27 9a 89 bb 08 62 25 bc fb 6a 0a bc 6d 58 38 3c
       -0.0041992846 -0.010094173 -0.008448358 0.011251551
0001d0 0f 8f d0 3c 5c 4b 99 bc 08 44 60 3c 1c aa 0b 3d
       0.02545884 -0.018712692 0.013688095 0.034097776
0001e0 a0 65 ec bc de 2e f7 3c cc 4b 1e 3d 96 47 cc 3c
       -0.028857052 0.030173715 0.038646504 0.024936479
0001f0 96 f2 0c 3c 61 b0 8c 3c c8 eb 03 3c 70 e9 7e bc
       0.008602759 0.017173948 0.00805182 -0.0155585855

g_model.fc2.weight f4 [10, 128]
000000 3f e2 b5 3d ed 9e c3 3c be 7c a5 3d 76 32 42 3d
       0.08881044 0.023879493 0.08080433 0.047411405
000010 54 ca 7a 3c ba fb b7 bd f3 50 e9 3d 68 ed a4 bd
       0.015307028 -0.0898356 0.11392393 -0.08053094
000020 95 06 81 bd a5 e0 80 bc 1b d1 e5 bb 2c 71 66 bc
       -0.063000835 -0.015732119 -0.0070134527 -0.014065068
000030 2e f6 5b 3c f2 51 bb bd f0 02 8b 3d 74 49 e2 bc
       0.013425393 -0.09146489 0.0678767 -0.027622916
000040 56 22 ae 3b cf 6c 8e 3a 70 d1 c0 3d f8 68 9d 3d
       0.0053141518 0.0010866168 0.09414947 0.07686037
000050 17 a7 b9 bd 6e 2f b3 3d d6 c1 d8 bd 13 55 91 3d
       -0.09065073 0.08749281 -0.10583846 0.07096305
000060 79 44 f7 bd 18 21 ff bc 4f e0 18 bc 50 93 34 3d
       -0.12073607 -0.03114371 -0.009330823 0.0440858
000070 69 fd b8 bd 97 20 00 3e b0 df a2 3d 88 cb b9 bd
       -0.09032709 0.12512432 0.07952821 -0.09072024
000080 60 e2 a0 bc a5 d4 d0 3c 4f a4 47 3d b1 b8 63 bd
       -0.019639194 0.025492022 0.04874068 -0.055596057
000090 cb 1b 91 3d 2f 24 75 bd 81 c4 b6 3d 1a e1 07 bd
       0.07085379 -0.05984896 0.08924199 -0.033173658
0000a0 1b 61 a2 3d 54 e8 10 3d 29 cf c1 3c 4c eb f2 bd
       0.07928678 0.035377815 0.023658352 -0.118612856
0000b0 c7 40 9e bd fe 21 ac bb 0d 3e 03 3d 0d 99 37 bd
       -0.07727199 -0.0052530756 0.032041598 -0.044823695
0000c0 a0 fd 84 3d 42 bd 5b bd f7 1a 87 3d ad 83 b3 3d
       0.06493688 -0.053647287 0.0659694 0.087653495
0000d0 65 14 73 3d ff 8f a2 3d 57 5a 7e 3c 5e 02 e4 3d
       0.05934562 0.07937621 0.015524468 0.11133264
0000e0 1c ca 18 bd 18 c5 7d bc f4 2c 02 be d8 6b f1 bd
       -0.03730212 -0.015488885 -0.12712461 -0.11788148
0000f0 2c d2 23 3d 6d 9b ae bd 77 8a c4 bd 24 9b e1 3b
       0.039995357 -0.08525739 -0.095967226 0.0068849493
000100 3f 92 c4 3d c4 78 38 bd 13 11 fd 3c 91 12 75 3d
       0.09598207 -0.045037046 0.03089193 0.05983216
000110 15 59 2d 3d ff 5c 04 bd bb 4e af bb 07 f0 5e bc
       0.042321283 -0.03231525 -0.0053499616 -0.013607032
000120 03 1c 9d bd 7f d3 d5 bd 70 d5 36 3d e4 20 80 3d
       -0.076713584 -0.1044073 0.044637144 0.062562734
000130 1a 5d f1 bd f5 29 ce bd 46 f7 83 3d 1e fe c1 3d
       -0.11785336 -0.100665964 0.06443648 0.09472297
000140 72 4f b5 bd df ff c9 3d 07 1f 2a bc 28 6f 6a 3d
       -0.088530436 0.09863257 -0.010383374 0.057234913
000150 e1 0b 80 bd ef 31 01 3d c5 ff b9 bd 72 78 46 bd
       -0.06252266 0.03154176 -0.09081987 -0.04845471
000160 97 d8 0d 3d ec 78 0c bc 43 aa 8d 3d 45 62 c8 b7
       0.034630384 -0.008573752 0.069172405 -2.3887618e-05
000170 01 5d e9 bd fe fd 7c bd 59 11 27 3d 4a 1c b9 bd
       -0.11394692 -0.061765663 0.04078803 -0.09038599
000180 a4 b7 28 3c 62 c2 1c 3d 2a 91 9d bd 45 61 01 bc
       0.01029769 0.038271315 -0.076937035 -0.007896726
000190 dd c1 60 bd 3c 8b 81 bd 88 5e 09 3d bc ff 83 3c
       -0.054872382 -0.06325385 0.033537418 0.016113155
0001a0 df 14 11 bd 0d 1e ad 3d 03 40 c1 3d bf 92 9f 3d
       -0.035420295 0.08452997 0.094360374 0.077916615
0001b0 ac 85 01 bd 16 00 a8 3d 1b dd ae bd fc ab 1a bd
       -0.03162162 0.082031414 -0.08538266 -0.037761673
0001c0 53 a2 d9 bd 60 52 6d 3d 50 a6 83 bd c7 c1 cc bd
       -0.10626664 0.057939887 -0.06428206 -0.099978976
0001d0 46 a4 95 bd 57 82 4d 3c fe 5f 9e bd 5c 10 01 be
       -0.07306723 0.0125432825 -0.07733153 -0.12603897
0001e0 e7 02 b8 bd 7a 0f 42 bd 2c e7 e9 3d 1c fd a4 bc
       -0.089849286 -0.04737804 0.11421046 -0.020140223
0001f0 41 27 77 3d 59 d7 a2 3c 38 1e 92 bd 20 57 10 bd
       0.06034017 0.019878076 -0.0713467 -0.03523934
000200 70 e4 d8 3c b1 b0 aa bd 3a 6d 91 bc 85 15 c0 3d
       0.026476115 -0.083344825 -0.017752279 0.093791045
000210 a2 56 ac bd 78 c0 00 bd 75 a7 8a 3b be 9e 20 3d
       -0.084149614 -0.031433553 0.004231388 0.03921389
000220 89 c6 c6 bd f3 d7 a5 3d 99 17 89 bc c6 66 84 3d
       -0.09705836 0.0809783 -0.016734885 0.06464915
000230 9e dc 16 bc a0 02 95 3d fd 6d d4 bd 08 62 9e 3d
       -0.009207873 0.07275891 -0.10372541 0.07733542
000240 b2 80 fd bd 6f 1b 9a 3d 2a 51 ca 3d b6 9f 44 3d
       -0.12378062 0.07524764 0.09878762 0.048003875
000250 d5 7f e4 bd 15 e7 f8 bc 94 2d 62 3d b7 69 23 bd
       -0.111571945 -0.030383626 0.055219248 -0.03989574
000260 ca fc c0 bc 50 71 ea bc f3 2c 94 bb dd 02 89 3d
       -0.02355804 -0.028618485 -0.00452196 0.06689999
000270 42 61 27 3c d8 5a db bc f5 60 c1 bd d1 03 01 3d
       0.010216059 -0.026776716 -0.09442321 0.03149778
000280 7e 42 c1 bd 98 80 ad bd 81 86 a7 bd 72 68 4d 3d
       -0.094365105 -0.08471793 -0.081799515 0.050148435
000290 ba 0a b6 bb a9 3c 26 3d e5 ec 86 bd 4a 5c 18 3c
       -0.005555478 0.040585194 -0.06588153 0.009299347
0002a0 30 e2 6b bd 35 8a af bd f3 56 8a 3d c1 15 c6 bc
       -0.057588756 -0.08571283 0.067548655 -0.024180295
0002b0 1c 9d 35 bd 3f 02 da bd d7 45 34 bd d5 bd 07 be
       -0.044339284 -0.1064496 -0.044011917 -0.13256009
0002c0 8d 92 bc 3d bb 2e 1d 3d 4d 1a 7b bd 0c 85 59 bd
       0.0920764 0.038374644 -0.06130438 -0.0531054
0002d0 85 cf 46 bd 7d 9c b4 bc 97 3c cb bc 3d 2a 3d 3d
       -0.04853775 -0.022047276 -0.024809165 0.04618286
0002e0 29 1f dd bd 6e 81 29 3d 22 6d e1 3d 04 a5 9b 3d
       -0.10796959 0.0413832 0.110071436 0.075998336
0002f0 32 50 1f bd 20 3a 4f bd a1 a4 9d 3d 35 4f da bd
       -0.03889484 -0.05059254 0.07697416 -0.10659639
000300 b5 4b 9c 3c cb 23 02 bd e0 12 ba 3d d2 4a c7 3d
       0.019079069 -0.031772416 0.09085631 0.09731068
000310 ef 27 9a bd 86 60 49 3d 52 5d 0c 3d cb 48 a3 bd
       -0.07527148 0.049164318 0.034268685 -0.079728685
000320 f1 51 f4 3d f5 35 ce bd 99 f8 93 bd a0 40 7e bd
       0.119296916 -0.10068885 -0.072251506 -0.06207335
000330 c8 d9 94 3d bd 61 f5 bd b7 85 be 3c a9 bb f3 bd
       0.07268101 -0.11981533 0.02325712 -0.11901028
000340 d2 e3 9e 3c 0e 3e e4 bd ac 34 74 3d 7e d9 89 3c
       0.019395743 -0.111446485 0.059620544 0.016827341
000350 57 93 b8 bd ab f5 c3 3d c1 37 41 bd 8d 87 5b bd
       -0.09012478 0.09568342 -0.04717231 -0.05359607
000360 8f 27 ce bc e0 73 58 bd 23 d8 cb bd 23 d2 9e 3d
       -0.025165347 -0.052844882 -0.09953334 0.07754924
000370 d6 da e1 3d f9 e7 b4 3d 0f cc 3e bb 2f 9a 42 3c
       0.11028068 0.08833308 -0.0029113328 0.011877581
000380 a7 b1 98 3d 41 cf 06 be 55 d7 be bd f4 01 d2 bd
       0.074557595 -0.13164999 -0.09318415 -0.10254279
000390 b3 e0 4e 3d 89 bf bb 3d 38 be 91 3d 9a ea 3c 3d
       0.05050726 0.09167392 0.071163595 0.04612217
0003a0 40 3a 09 3b 55 9d 9b bd 5f 3d 35 3d 14 5d a3 3c
       0.002093926 -0.07598368 0.04424798 0.019941844
0003b0 bd ec 06 bd 88 a7 a2 bb 7a 06 a1 3d b3 88 59 3d
       -0.032940615 -0.004963819 0.078625634 0.053108882
0003c0 0f 7c 9a 3b 21 1d cc bd 5d 1d 35 bc 79 7b be 3d
       0.004714496 -0.099664934 -0.011054364 0.09300894
0003d0 8b 19 b5 3c 0e 49 b1 3b 18 75 19 3d 2a 30 8d 3d
       0.022106906 0.00541032 0.037465185 0.06893952
0003e0 49 56 e6 3c 3e 85 cd bb 8e 38 b2 bd 2a 8b a8 3d
       0.028117316 -0.006271987 -0.08702193 0.082296684
0003f0 d2 07 9b 3d 01 15 d1 bd 3c 5d f5 bc 54 73 83 3d
       0.07569851 -0.10209084 -0.029951684 0.064184815

g_model.fc2.bias f4 [10]
000000 80 1c 42 3d 88 e7 cf bb c3 a2 00 3d 4a a8 86 3d
       0.04739046 -0.0063447393 0.03140522 0.06575067
000010 d8 b3 6c 3b c2 99 89 bd 09 49 5e 3d 6c a1 8f bd
       0.0036117937 -0.0671878 0.05426887 -0.07013211
000020 e0 59 f9 3c b2 22 62 bd
       0.030438364 -0.05520887

f_model.fc1.weight f4 [32, 10]
000000 48 3c 96 be 89 13 66 be c5 3f d7 bd c7 ea 35 3e
       -0.29342866 -0.2246839 -0.1051021 0.17765342
000010 05 98 71 3d be 94 dd bd da ec b3 3d 17 ab 39 be
       0.058982868 -0.10819386 0.0878541 -0.18131672
000020 17 57 65 be 04 0e 40 3e 88 97 1e be ce d4 a6 be
       -0.22396503 0.18755347 -0.15487492 -0.32584232
000030 45 be 83 be 51 87 ad 3d 68 53 98 3e 0d 60 6f be
       -0.25731102 0.08473075 0.29751134 -0.23376484
000040 58 7c 38 3e 15 74 57 3e ed 63 9d bd 34 41 be bd
       0.18016183 0.21040376 -0.07685075 -0.0928978
000050 93 c4 62 be e6 5d 4c be 8d 80 d3 bd 4e 2c b3 3e
       -0.221453 -0.19957694 -0.103272535 0.3499474
000060 4b ad 6c bc f0 3c ba 3e 08 1e 8c 3e c7 80 97 bd
       -0.014445613 0.36374617 0.27366662 -0.07397609
000070 b9 bd 54 bd 50 33 34 3e 76 05 34 be a0 c8 ee 3d
       -0.051938746 0.17597699 -0.17580208 0.1165936
000080 8a 49 48 3e a7 0a 1b be 9d 68 26 3e e6 84 d2 bd
       0.19559303 -0.15140782 0.16250844 -0.102792546
000090 62 98 62 be 94 44 9e 3e 0f 28 9e be 9e 5d ab be
       -0.22128442 0.30911696 -0.30889937 -0.33469862
0000a0 6f ce 6d be 60 3d e3 3d 44 76 0b 3e db 54 b6 3e
       -0.2322328 0.11095691 0.13619334 0.35611615
0000b0 80 f6 9d be 38 c2 0c be 97 ad 8c be d3 00 8c be
       -0.30852127 -0.13745964 -0.2747619 -0.2734438
0000c0 62 78 e3 3d b4 8e 18 be 60 3a c8 bd d4 b8 d5 3d
       0.111069456 -0.14898187 -0.09776759 0.10435644
0000d0 4b 45 5b be 1f 81 84 be 6b 86 b4 3e 64 f0 f8 bc
       -0.21413152 -0.25879762 0.35258803 -0.030388065
0000e0 f3 b3 8c 3b 5d fa 84 bd 56 ea a2 bd d9 14 f7 bd
       0.0042939126 -0.064930655 -0.07954852 -0.12064523
0000f0 a7 7c 46 be 81 38 68 bc 02 b6 fb 3d 7f 41 b2 3e
       -0.19383489 -0.014173628 0.122905746 0.34815595
000100 4b fe 7c be 62 69 a3 3e 7f 28 1b 3e ac ef 02 3e
       -0.2470638 0.31916338 0.15152167 0.1278674
000110 7b f7 3a 3e ee 0f 1d be 60 d4 34 be e2 08 13 3e
       0.18258469 -0.15338108 -0.1765914 0.14358857
000120 59 8c 74 bc 94 7b 80 3e 29 b8 bf be 2a d8 4a be
       -0.01492604 0.25094283 -0.3744519 -0.19809023
000130 c1 63 54 be 6e 22 0e be 81 4a 7b be a9 2b 16 3e
       -0.20741178 -0.13880321 -0.2454014 0.14665093
000140 87 2b d5 3d b2 ba 72 be 8d ef 99 bc 5b 84 80 3e
       0.10408693 -0.23704031 -0.018790985 0.2510098
000150 3e 67 17 bd c4 a5 bc 3d c5 45 3e 3e 22 f0 13 be
       -0.036963694 0.09211305 0.18581302 -0.14447072
000160 8e 99 c7 bd 61 d7 a0 3d 90 01 3b be 70 86 25 be
       -0.09746085 0.0785358 -0.18262315 -0.16164565
000170 8d c3 39 be 0b 47 d8 3d bc 6f 2b be b5 3b 8f 3e
       -0.18141003 0.10560425 -0.16741842 0.2797524
000180 32 00 a6 3e 44 30 81 be cb c7 a6 3a b5 72 09 3e
       0.32422024 -0.25232136 0.0012724338 0.13422664
000190 5f f2 3d 3e a2 cd 4d be 62 53 41 bc f2 46 24 3e
       0.18549488 -0.20097974 -0.011799665 0.16042688
0001a0 2d 3d 3a be b3 76 09 bb cb c2 a8 3e a8 50 a5 be
       -0.18187399 -0.0020975291 0.32961115 -0.32288098
0001b0 9b 54 a3 3e 09 eb 3a be b8 ef 09 3e 0b 56 7c be
       0.31900486 -0.18253721 0.13470352 -0.24642198
0001c0 1d 6f 70 be 27 eb 1b 3e 4e 22 80 bd 95 7e 32 3e
       -0.23479886 0.15226422 -0.06256543 0.174311
0001d0 3c f4 11 be 1f bd 76 3e 5f 0d 35 3e 8c 51 37 be
       -0.14253324 0.24095581 0.17680882 -0.17902201
0001e0 92 a9 84 be 8e 27 d8 3d 74 17 10 be ff 22 80 be
       -0.25910622 0.105544195 -0.14071447 -0.250267
0001f0 1e 67 9d 3e 18 9d a0 bd 8b c6 87 3d ee 33 ae 3e
       0.30742735 -0.07842463 0.06629666 0.34023994
000200 db c7 ec 3b 29 47 d2 3e 5d 90 57 be f6 ba 1c be
       0.007225973 0.41069916 -0.21051164 -0.15305695
000210 38 b2 a2 be 5e 77 35 3e 70 c7 7f 3d fd 3e 22 be
       -0.31776595 0.17721316 0.062446058 -0.1584434
000220 24 34 91 be 9b f7 c4 3e 79 ad 76 bd 05 cd 78 3d
       -0.28360093 0.38470158 -0.06022403 0.060742397
000230 97 ec f3 3d 92 a4 50 be bc f1 8d be db a3 3d be
       0.1191036 -0.20375279 -0.2772349 -0.18519537
000240 b3 7f 11 be e9 63 bf 3e d2 dc e3 3d 64 06 fc bd
       -0.1420887 0.37380913 0.111261025 -0.123059064
000250 e6 19 0e be 8d ec ea bd 6d c2 5c 3b 58 c6 ce bd
       -0.13877067 -0.114709 0.0033685223 -0.10096425
000260 44 a5 4c bd d8 1a 17 3b ff 7a 9b be 26 62 83 3c
       -0.049962297 0.0023056772 -0.30367276 0.016038012
000270 8a 31 99 be fc 7a 4c bd b5 2a b5 3e ae e5 a7 3e
       -0.29920608 -0.049921975 0.35384145 0.3279242
000280 c7 68 3c 3e 77 58 04 3e 16 8a 11 3d 49 61 bf 3e
       0.18399344 0.12924372 0.03553208 0.3737891
000290 c1 6f 85 be 91 ca 57 3d d0 09 41 be dc 70 b8 be
       -0.26061824 0.052683417 -0.188514 -0.36023605
0002a0 f2 32 67 bd b3 75 02 3e 58 fa b5 3c f9 5f 9e be
       -0.05644507 0.12740211 0.0222141 -0.30932596
0002b0 f1 08 4a be 95 28 91 bc 63 b2 79 be 1e 3d a8 3d
       -0.19729973 -0.017719546 -0.24384455 0.08214782
0002c0 04 ac 43 3e 10 a9 b3 3e 55 d5 7d be e1 f5 6b be
       0.19108588 0.35089922 -0.24788411 -0.23043014
0002d0 b9 cf 12 be 2a cd 61 3d 0a b4 a3 be b1 61 be be
       -0.14337052 0.0551273 -0.31973296 -0.37183908
0002e0 18 25 94 bd ad 41 a6 be 31 e2 97 3e 0a e9 95 be
       -0.072336376 -0.32471982 0.29664758 -0.29279357
0002f0 72 55 9d 3b 5c 98 f7 3d 07 24 64 be 1b a0 95 3e
       0.0048014456 0.12089607 -0.22279368 0.29223713
000300 eb 2e 03 be ec 0c b3 be 8f 10 c7 3e 03 9e 00 3d
       -0.12810867 -0.34970796 0.3887982 0.03140069
000310 c7 a9 2d be 70 7b 45 be 2d 4b 25 3e 63 21 06 be
       -0.16959296 -0.19285369 0.16141959 -0.13098674
000320 c5 6f 22 be 5b 95 96 bb 95 63 38 be d4 ba 2f be
       -0.15862949 -0.0045954413 -0.18006738 -0.17161113
000330 b8 b2 b4 bd f3 df ab be d2 a9 95 be 02 67 a9 3d
       -0.088231504 -0.33569297 -0.29231125 0.082716
000340 55 7f 8d be c0 cc e2 bd 06 f8 af 3c 38 00 86 3d
       -0.2763621 -0.11074209 0.021480571 0.065430105
000350 c9 e1 31 be 7a 77 9a 3c b5 94 00 bd 76 97 86 3e
       -0.17371286 0.018855799 -0.031391818 0.2628743
000360 3c 5e 02 3e 59 7e 5e be 19 39 1c bd 86 e3 9a 3e
       0.1273126 -0.21727885 -0.03814039 0.30251712
000370 ab 2e 45 be 46 74 a7 be 3c 53 3c 3e b3 db 1c be
       -0.19256084 -0.32705897 0.18391126 -0.15318184
000380 8b 5e 3c be 64 54 4d be ac cb 80 3e 43 49 82 be
       -0.1839544 -0.20051724 0.2515539 -0.2544652
000390 29 64 87 3c ca 9d df 3e 8c c0 2a be de 3f fc 3d
       0.016527252 0.4367507 -0.16675013 0.12316869
0003a0 bc b3 6f be 0d 03 12 be b0 a4 c1 3d 0d df 12 be
       -0.23408407 -0.14258976 0.0945524 -0.143429
0003b0 79 30 b1 be f4 a6 3a be 72 53 da 3e b8 0b 83 3e
       -0.34607294 -0.1822775 0.4264179 0.25594878
0003c0 06 7b 17 be 1e 75 35 3e 81 68 97 3e 8e 4c c9 bd
       -0.14793023 0.17720458 0.29571918 -0.09829055
0003d0 70 87 27 be c5 2b 18 be 95 c3 9a be ab 0e 87 bd
       -0.16360259 -0.14860447 -0.30227342 -0.065945946
0003e0 70 15 3f 3d 5a 69 3c be 12 e7 63 3e 18 7c 2b be
       0.046651304 -0.18399563 0.22256115 -0.16746557
0003f0 03 0c 80 3d 1f 71 56 bd bf ca 2f 3e 4d 26 8f be
       0.06252291 -0.052353974 0.17167185 -0.2795891

f_model.fc1.bias f4 [32]
000000 e9 20 4c be 7e df 91 bd 18 b0 10 3e 03 2c f5 bc
       -0.19934429 -0.07122706 0.14129674 -0.029928213
000010 31 4f 45 be 11 c9 6f be 78 34 80 be 64 8b ec bd
       -0.1926849 -0.23416544 -0.2504003 -0.11550024
000020 af 36 29 bd a4 80 01 bb ce 9c 38 be a1 21 98 be
       -0.041311916 -0.0019760514 -0.18028566 -0.29713157
000030 b0 93 fc 3d 72 0f 7c be 6c c7 4a 3d 19 80 be 3e
       0.12332857 -0.24615267 0.04950659 0.37207106
000040 fa 2b d8 bc 8d 1a 04 be 3a e5 c3 bd 95 f4 a0 3e
       -0.026388157 -0.12900753 -0.09565206 0.314366
000050 60 2f 77 3e 3a fb c5 3d fc 30 01 be 38 43 42 3d
       0.24139166 0.09667058 -0.12616342 0.047427386
000060 6d cb 57 bd b2 08 b3 3e c3 74 9c 3d 02 f8 ce bd
       -0.052684236 0.34967571 0.07639458 -0.101058975
000070 f0 e5 d5 bc 5a 6a 19 3e 1c 18 30 be b2 16 ae 3e
       -0.02611062 0.14981976 -0.17196697 0.3400169

f_model.fc2.weight f4 [10, 32]
000000 82 d9 af bd 28 c9 0f bb 9b 3e 5f be df 65 64 be
       -0.08586408 -0.0021939967 -0.21801226 -0.22304486
000010 49 20 4d 3d 39 bb 21 be 61 21 a8 3d 03 e3 7a be
       0.050079618 -0.15794076 0.082094915 -0.2450066
000020 7e b2 27 3e 21 b8 23 be 07 0e 9f bb c4 62 2e 3e
       0.16376683 -0.15988208 -0.004853967 0.17029864
000030 33 d9 64 be 8e 37 74 bc 52 cc 19 bc 13 90 1d bd
       -0.2234848 -0.014905823 -0.009387093 -0.038467478
000040 31 c9 42 bc 19 bd 53 3e 70 60 3a be 99 30 fe bc
       -0.011888788 0.20677604 -0.1820085 -0.031029033
000050 5e 7c 08 be 2f de af bc 33 20 23 3d 96 55 7d be
       -0.13328692 -0.02146825 0.03982563 -0.2473968
000060 99 3f c9 3c fc b1 5e 3e f9 85 ca 3d 67 ab 56 3e
       0.024566459 0.21747583 0.098888345 0.20963822
000070 00 79 2c 3d 2f 45 5b 3e 11 13 98 be e0 c2 93 3d
       0.042107582 0.2141311 -0.29702047 0.07214904
000080 f9 1d 54 be ae 16 3b bd 2a 8b 25 be 73 fd 95 3c
       -0.20714559 -0.045675926 -0.16166368 0.01830933
000090 0e 59 01 3e bc ee 31 bc ab fa e6 bd 77 e9 8e bd
       0.12631628 -0.010860141 -0.1127828 -0.06978124
0000a0 31 18 2e be e5 67 84 3d 61 b6 25 bd 5a 31 82 bc
       -0.17001416 0.06465129 -0.040457133 -0.015892673
0000b0 d3 5b 9e bd 3f dd 47 be dc 94 cd bd 8c e2 71 be
       -0.07732358 -0.19517992 -0.10038158 -0.23621577
0000c0 d3 02 2d be ed 29 e1 bd ca bc e6 3c 92 37 86 3e
       -0.16895609 -0.10994325 0.028166194 0.26214272
0000d0 0c c1 09 3e 54 0e 8d bd dc f2 c5 ba cc a9 ad bd
       0.13452548 -0.068874985 -0.0015102285 -0.08479652
0000e0 c0 f4 57 3e df 35 9c be 21 fb a5 bd 1b ec f2 bd
       0.21089458 -0.3050985 -0.0810454 -0.1186144
0000f0 c8 f9 03 3e d2 a7 01 3d 18 a3 5e 3e e0 48 a2 bd
       0.12888253 0.031654187 0.21741903 -0.07924056
000100 e1 ec 37 bd 08 69 0e be c9 7a a7 be a5 04 4d 3d
       -0.04490364 -0.13907254 -0.32710865 0.050053257
000110 07 bb 05 3e 90 6b a1 bd b5 b3 a5 bc 80 99 01 3e
       0.13059627 -0.07881844 -0.020227293 0.12656212
000120 0f df dc 3b 52 ff 5b be b5 e6 87 3d a1 76 b7 bd
       0.006740458 -0.21484116 0.06635801 -0.089581735
000130 c6 8b aa bd c1 78 0e be a0 40 57 bd 48 d4 fa bc
       -0.08327441 -0.13913251 -0.052551866 -0.030618802
000140 45 57 23 3c 4c 0c bd bd 44 9d 64 be 2e 3e 40 be
       0.009969537 -0.09230861 -0.22325617 -0.1877372
000150 0a 6f 85 bb 93 56 f5 bd db 83 9b 3c d6 50 33 be
       -0.004072075 -0.11979403 0.018983772 -0.17511305
000160 ed a1 4e 3e 31 57 65 3e 14 a7 22 be 9e d2 17 be
       0.20178957 0.22396542 -0.15884048 -0.14826438
000170 3f 83 91 be 52 6f 04 3e 78 24 45 3c 63 e4 55 3e
       -0.28420445 0.1293309 0.012032621 0.20887904
000180 93 0f 13 3e 3d bc 3f be 8f 64 eb 3d b0 57 95 be
       0.1436141 -0.18724151 0.114937894 -0.29168463
000190 f7 d2 50 3e 5c d1 23 bd 6d 11 20 3e 4b e6 6c 3d
       0.20392977 -0.039994583 0.15631647 0.057836812
0001a0 87 8f 09 3e 97 cf 1b be d5 a8 0a bd 3e 4c 05 3b
       0.13433658 -0.15215908 -0.033852417 0.0020339633
0001b0 c1 ae 88 bd 3c 0b 88 3d 90 94 2a 3d a4 02 f6 3c
       -0.06673957 0.06642768 0.041645586 0.030030556
0001c0 04 34 81 3e bb 04 56 be c4 4b ea bd 8a 57 4d bd
       0.25234997 -0.20900242 -0.114402324 -0.050132312
0001d0 15 42 df bc b7 a7 96 be 9a ca fe bd a4 41 92 bd
       -0.02725319 -0.2942483 -0.12440987 -0.07141426
0001e0 48 59 c5 bb de a6 06 be 6f 20 df bb 42 35 99 3d
       -0.006022606 -0.13149592 -0.0068092863 0.07480861
0001f0 f0 ca d9 bc 86 eb 9b be ea 80 9f bd 91 20 23 3b
       -0.026586026 -0.30453128 -0.0778826 0.0024891237
000200 a5 e7 6f bd 24 d1 69 3d d1 a7 16 be 25 7e 05 3c
       -0.058570523 0.057084218 -0.14712454 0.008147751
000210 72 f1 cb bd d1 d9 2c 3d 89 f0 f5 3b 85 07 a0 bc
       -0.099581614 0.042199913 0.0075054807 -0.019534836
000220 61 5d fc bd 0f ee b7 bd 73 9b 1e be fa 50 61 be
       -0.12322498 -0.08980953 -0.15488987 -0.22003546
000230 da 68 4f 3e eb 8a 82 3d 3c b7 59 3d 21 df 97 be
       0.20254841 0.06374153 0.05315326 -0.2966242
000240 c7 35 c8 bd c0 a4 21 bd 31 bd b9 3d 84 99 87 3e
       -0.09775882 -0.03946376 0.090692885 0.2648431
000250 80 d1 ba bc 9c 3f 4b be e4 40 88 3c ce 63 45 3e
       -0.022804976 -0.19848484 0.016632505 0.19276354
000260 96 b4 90 be 40 70 22 3d c5 d9 72 bd 38 9c 35 bd
       -0.28262776 0.03965783 -0.059289712 -0.044338435
000270 91 27 aa be e8 d8 ab 3c a5 90 90 be 44 97 d8 bc
       -0.33233312 0.020977452 -0.28235355 -0.026439317
000280 7d 19 67 bc 87 b8 6c be 37 bb 48 3e 2e 04 fb bd
       -0.014105198 -0.23117267 0.19602667 -0.122566566
000290 8e 00 5b be f2 4d 98 bc 0d e9 63 3e 88 7c a9 bb
       -0.2138693 -0.018591855 0.2225687 -0.005172316
0002a0 e0 2a 8a 3d 3e da 81 3e f2 42 13 be f7 bf 06 3d
       0.06746459 0.25361818 -0.14381006 0.032897916
0002b0 ba 74 1c be 3f d7 a4 3d 4d de 74 3e 37 10 46 3d
       -0.15278903 0.080488674 0.23912926 0.048355307
0002c0 e1 73 9c bc cb 47 c1 bd d5 9b 69 bd 87 92 b8 bd
       -0.019098224 -0.094375215 -0.05703338 -0.09012323
0002d0 f7 61 02 be ce 2e 9c 3e 27 cc b3 3d ee 22 cf bd
       -0.12732683 0.3050446 0.08779173 -0.10114084
0002e0 28 f4 8b bc db a6 6f bc ee 8e f4 3b 59 4d e8 bd
       -0.017084196 -0.014627184 0.0074633276 -0.11342878
0002f0 68 22 bf bc 8e 26 a4 bd 18 0b 3a be dc f9 6f 3d
       -0.023331836 -0.08015166 -0.18168294 0.058587894
000300 58 91 24 3d ec b9 78 bb 96 a4 43 3e 2c fd 5b be
       0.040177673 -0.0037952615 0.19105753 -0.21483296
000310 84 42 7c be f0 3b d9 bd 47 ee 46 be 68 e7 63 3d
       -0.24634749 -0.10607135 -0.19426833 0.055640608
000320 a6 85 98 bd a1 d1 2c 3e d3 1a 39 3e c3 fa a7 bd
       -0.074473664 0.16876842 0.18076639 -0.08202126
000330 fa 82 59 be e5 a9 52 be 6f cd fc bc 49 aa c6 bd
       -0.2124137 -0.20572622 -0.030859677 -0.09700448
000340 fd 45 62 be 09 97 44 bd 24 5d 38 3e b8 4f 57 3d
       -0.22097011 -0.0479956 0.1800428 0.05256626
000350 12 77 11 be bc ab 3f bd bf de 10 3e 67 ed 9e be
       -0.14205578 -0.046794638 0.14147471 -0.310405
000360 1b 0d 07 3d db 5d 0b 3e 3e a6 fd bd fe c4 98 3d
       0.032971483 0.13610022 -0.12385224 0.07459448
000370 04 7e 94 be ce 4a 33 be 2c ed 20 3e 41 a7 ad bd
       -0.29002392 -0.17509004 0.15715474 -0.08479167
000380 9c 77 3c 3d 44 ed 5d bd a0 41 ec bd 4d a1 be 3d
       0.046012506 -0.054181352 -0.115359545 0.093081094
000390 57 7f 76 be d7 67 76 be c9 f3 26 be c6 05 9c 3d
       -0.24072014 -0.2406305 -0.16303934 0.07618289
0003a0 5f 85 7c be 19 cd 9f bd 1c fc 68 bc 52 22 97 3d
       -0.24660252 -0.07802791 -0.014220264 0.07379593
0003b0 0e 21 d8 3d 04 5b 25 3e 09 1e 2f 3c 33 a1 23 3e
       0.1055318 0.16148001 0.010688313 0.15979461
0003c0 07 5f fb bd 36 41 15 3e 25 20 1d be cf 32 ee 3c
       -0.122739844 0.14575657 -0.15344293 0.029076962
0003d0 8d ef 5b 3e 69 44 ab be c8 cd a2 be af 48 ea bd
       0.214781 -0.3345063 -0.31797624 -0.114396445
0003e0 6d 0d 90 3d 24 85 01 be f4 f9 d0 bd d9 9d 02 3d
       0.07033811 -0.12648445 -0.10203925 0.031888817
0003f0 5e 43 00 be e6 74 05 be db 79 6f be c7 0f fa 3c
       -0.12525699 -0.13032874 -0.23386328 0.030525101

f_model.fc2.bias f4 [10]
000000 93 67 6f 3d 91 1c e1 3d 7a 58 18 3e 6f 47 4e 3d
       0.058448385 0.10991777 0.14877501 0.050361093
000010 67 d3 a2 3d d3 9e 02 3d d7 66 5f 3d f4 31 db 3d
       0.07950478 0.031889748 0.054541435 0.10702887
000020 cd 6c e2 3d f2 90 e7 bd
       0.11055908 -0.11306943
