models/Adversarially trained models/robust_joint_model_cons4.pt (torch, 465775 bytes, 12 tensors)

g_model.conv1.weight f4 [32, 1, 3, 3]
00000000: 92a6 fb3d 0927 f1bd 0ddc cebe 995f 493e
00000010: f1cc 8c3e 4813 88be a9f1 54bd 1f16 1c3e
00000020: a5b2 983e 54db bf3e 22db eabd 9b3f 25bc
00000030: 8523 e43e 8794 40be 343b 72be b4f6 15bd
00000040: 7e2d 3bbe 1cf9 9cbe 5894 d1bd 8b66 cdbe
00000050: 9f0d 1abe a605 8b3d b58c b43e 5a6f ce3d
00000060: b811 b93e 54e0 9f3e ec85 043e d33f 9abd
00000070: c799 e5bc c4b6 abbe 6bd5 b03d 0502 c5bd
00000080: 5276 84be d345 83be 3212 aebe 6df2 fc3d
00000090: 79a1 913e 6f87 a53d 8bd3 e93e 8058 b63e
000000a0: 5e1e 7dbd 43b8 b43e 092e 393d e21c be3d
000000b0: 42c0 89be 35f2 36be bd47 b83e e83e 783e
000000c0: c4cb 79be 71a2 b83e a77b 843e 9141 9cbe
000000d0: 9470 e7bd d06d 8b3e fdd9 21bc 9d1a f93e
000000e0: a86d e33e 2a68 973d 1965 813e 7378 423e
000000f0: edd2 73be 854b 663e f852 b63d f067 8c3c
00000100: ecb2 ad3e 371e 45bd d834 ad3d 323b cbbe
00000110: 5dcf 9bbe 6a6a c8be 5fa7 923e d089 59bc
00000120: c678 353e 42e5 333e 4486 3e3e 9a58 613e
00000130: 699c 9f3e 92d1 e13e e77f c43e 38cf 883c
00000140: 7e13 5fbe a360 54bd fb69 a83e 981e b83e
00000150: 2c4b 8dbe 1847 b1be c815 7f3e 52a5 3c3c
00000160: 0c0c a7be e9a8 6cbe a442 d1bd ad08 f03e
00000170: bc71 ca3e d481 6f3e 5fb7 c23d 5181 51be
00000180: 0d1b 9dbe a961 cabe 2b96 a2be 92c6 c83e
00000190: 3a4b c63b f9c5 ab3e d9ad 903e 71e4 ac3d
000001a0: 6027 55be 67f9 13be 67f0 b63c fd1d a63e
000001b0: 6c20 acbe 7666 60be 2010 c83d 700c ea3d
000001c0: a1bd 15be 35a8 903e 1c69 4a3e 665b c13e
000001d0: 6568 64bd a679 6e3e d007 b4be b817 273d
000001e0: 64c3 d4be 3f98 fcbc 2ab8 1ebd d453 37be
000001f0: 25ff ab3e 108c 363e 7127 aabe 4299 433e
00000200: 0b00 8a3e 3142 e8be 0dac 7abe 071a 8abd
00000210: 385e 59be 0c87 24be 99fa ba3c 09f0 ae3e
00000220: 809d f93c 41d1 103e 5b02 9b3d e564 733e
00000230: 189f b43d c481 4b3d d507 b9bd ec95 fcbd
00000240: b2d3 7f3e 4cc9 103e d1e7 5e3d 4dcd 8d3e
00000250: c61b e53e 2d43 e83e 163f b33e 4391 813e
00000260: d195 9e3e 0c8b 253e b9de e63e 9a5f e03e
00000270: f2dd 9a3d 043c bb3e ed80 d03e 387c acbd
00000280: 5490 18be 9f31 3d3e 8513 07be d430 733e
00000290: e99a 87be b71b 41be 612c 99be f021 b13d
000002a0: a6c5 ca3e 17f1 3a3d ae17 243e dfbc d13e
000002b0: f528 d43e 499b 6dbe 8512 af3e 720f f93e
000002c0: 09aa 963e 193b 86bd 1089 2e3d 6465 8f3e
000002d0: c406 1b3c 21a4 cf3e aae6 943e 5cb3 d03d
000002e0: 1195 93bc 2a44 17be 05ba e0bd 841b bdbe
000002f0: b139 17be 5758 fa3e 72a8 d13e 68ca 87be
00000300: ecd6 963e b321 623c 4e95 9bbe a207 123e
00000310: 19cf e2bd df77 08bf 561e 37be 25b4 47be
00000320: 46e8 1fbe 7f43 e0bd 8c94 153d f18e b33d
00000330: f6a4 c0be dca5 253e 9779 eebd 070d 5a3e
00000340: c194 d43e 7cf3 ef3e 1b04 773e ceb7 523e
00000350: f191 98be 57b6 a0be 3470 56be acc1 d7be
00000360: e845 47be 8fc7 babc 6163 dc3d c1b5 363e
00000370: bd2d 83be 037f 82be 09a9 6fbe 4b7e 9fbe
00000380: 112a b23d d82a 35bc b143 b33d be28 8b3e
00000390: dc43 d53e bce4 6abe 34ea 333e b66f de3e
000003a0: eb06 8abe 858f 3f3e ce48 3cbe fb9d 403e
000003b0: fcff c23d 3378 ef3d 818f d83e c128 f13d
000003c0: c6f1 943e 9c3f b33e 1199 5cbe 5976 a33e
000003d0: 7bd7 683e c57c 3a3e e632 6cbd 51e8 b63d
000003e0: cb85 ad3e 1c7f 4abe 5201 87be 2d66 c73e
000003f0: 9f60 aebe 4cb9 17bd 16da 4d3e e9b6 1b3e
0.1228763 -0.117750235 -0.4040226 0.19665374 0.27500108 -0.2657721 -0.051988278 0.15242814
0.29823795 0.37472022 -0.114675775 -0.0100859655 0.4455835 -0.18806659 -0.23655397 -0.036612228
-0.18279073 -0.30658805 -0.102333724 -0.40117297 -0.15044259 0.06788187 0.352636 0.100798324
0.3614633 0.31225836 0.12941712 -0.07531705 -0.028027428 -0.33537877 0.08634456 -0.09619526
-0.2587152 -0.2563921 -0.33998257 0.123509265 0.28443506 0.080824725 0.45669207 0.35614395
-0.06179654 0.3529683 0.04520992 0.09282853 -0.26904494 -0.17865832 0.35992232 0.24242747
-0.24394137 0.36061433 0.2587559 -0.30518773 -0.113007694 0.27232218 -0.009878633 0.48653117
0.444196 0.073929146 0.25272444 0.1899126 -0.2381093 0.22489746 0.08902544 0.017139405
0.3392557 -0.04812452 0.08457345 -0.396936 -0.30431643 -0.39143687 0.2864332 -0.013277486
0.17721853 0.17567924 0.18605906 0.22006455 0.3117402 0.44105202 0.38378832 0.016700372
-0.2178478 -0.051849972 0.32893357 0.3596084 -0.27596414 -0.34624553 0.24910653 0.011514025
-0.3262638 -0.23111309 -0.10217789 0.4688162 0.39539897 0.23389369 0.095076315 -0.20459487
-0.306847 -0.39527634 -0.31755194 0.39213997 0.006051448 0.3354948 0.28257635 0.08442009
-0.20815802 -0.14450608 0.02233143 0.32444754 -0.33618486 -0.21914086 0.097687006 0.114281535
-0.14623119 0.28253332 0.19766659 0.37765044 -0.05576362 0.23288593 -0.3516221 0.040794104
-0.4155532 -0.030834315 -0.03874985 -0.17903072 0.33593097 0.17826867 -0.33233216 0.19101432
0.26953158 -0.45363 -0.24479695 -0.067432456 -0.21227348 -0.16067141 0.022824572 0.34167507
0.03047061 0.14142324 0.07568809 0.23768957 0.08819407 0.0496843 -0.09034697 -0.12333283
0.24983099 0.14139289 0.054420296 0.27695695 0.44747752 0.4536375 0.35009068 0.25306138
0.30973676 0.16166323 0.450918 0.43822938 0.07561864 0.36569226 0.40723363 -0.0842213
-0.14898807 0.1847596 -0.1319104 0.23749095 -0.26485375 -0.18858229 -0.2991667 0.08649051
0.3960392 0.045640077 0.16024658 0.4096441 0.41437498 -0.23203768 0.34193817 0.48644596
0.29426602 -0.06554241 0.04261118 0.28007042 0.009462062 0.40554908 0.29082233 0.1019046
-0.018015416 -0.14772096 -0.109729804 -0.36935055 -0.14768101 0.48895523 0.40948826 -0.2652161
0.29460847 0.01380198 -0.30387348 0.14260724 -0.11074657 -0.5330791 -0.17882666 -0.19502313
-0.15615949 -0.10950374 0.03651862 0.08767498 -0.37625855 0.16176552 -0.11644285 0.21294032
0.4151974 0.4686545 0.2412266 0.20577928 -0.29798844 -0.31389114 -0.2094124 -0.42139947
-0.19460261 -0.022800235 0.107611425 0.17842771 -0.25620833 -0.25487527 -0.23404326 -0.3115104
0.0869943 -0.011057578 0.087531455 0.2717952 0.41653335 -0.22938818 0.1756981 0.43444604
-0.26958403 0.18707092 -0.18387148 0.18810265 0.095214814 0.11692848 0.42296985 0.11775351
0.29090708 0.35009468 -0.21542765 0.3192623 0.2273845 0.18211658 -0.057665728 0.089310296
0.33891138 -0.19775051 -0.26368195 0.3894514 -0.3405809 -0.037041947 0.20102724 0.15206493

g_model.conv1.bias f4 [32]
00000000: 2787 353e ffa2 c9bd e808 56be b112 ad3e
00000010: ea97 4ebd 191e 86bc de75 35be 4f11 a13e
00000020: 4bcd 673e b535 d43d b8cb 2a3e 7aaf 80bd
00000030: 367e 78be 5c31 3a3e 55a8 a93e 90ea 9e3e
00000040: e99a 5cbe 781a c0bd e4b4 30bd af31 b2bd
00000050: 91c6 c43c 2f5b 27be 2a9c 1f3e f9b5 453e
00000060: d978 aabe 5175 37bc 51d1 42be 4e19 d33d
00000070: 69b7 24be 6766 dabd 06ff 633e d3ff a23e
0.17727338 -0.09845542 -0.20901835 0.33803323 -0.050437845 -0.016371774 -0.17720744 0.31458518
0.22636907 0.10361806 0.16679275 -0.062834695 -0.24266896 0.18182892 0.3313624 0.31038332
-0.21543469 -0.093800485 -0.04314126 -0.08700883 0.024020465 -0.16343378 0.15586916 0.19307698
-0.33295324 -0.011197404 -0.1902516 0.10307561 -0.1608559 -0.10664063 0.22265252 0.31835803

g_model.conv2.weight f4 [32, 32, 3, 3]
00000000: f38e 7f3c af27 8f3d 68f2 bf3d 30ef 26bc
00000010: c179 7f3d 103b 3b3e 022f b8bc 1a75 9dbd
00000020: 7b6b 663d 63a4 55ba 47b3 21be 0560 0bbd
00000030: af05 8dbd 52d3 27be 611d 5cbd 2e21 eebd
00000040: 6e3d 8d3c 4f59 73bd ac0c 333d 3b74 cb3d
00000050: 0ef5 903d ccbb 5bbd 4d15 fabb f217 d13d
00000060: 394d 39bd 7e16 4fbc e61b 753b a7f7 8cbd
00000070: 69ec 32be 93d9 27be 096f cebc 31f8 aabd
00000080: 9732 42be fc6a 2b3d f474 91bd 9e19 eebd
00000090: 2b4d 283d 59bf 583c 09eb edbc 2e81 7e3d
000000a0: 7721 6b3d 2b17 adbb ce0b cbbd 12c6 223c
000000b0: b5e4 b83d 2766 813d 6c13 f53d d5f7 63bd
000000c0: 7642 083d adaa d93d eb77 d33d dba5 c1bd
000000d0: 3f60 993d 8f17 e53d 9f1e 483d 5b9e b53d
000000e0: 29a5 3cbd e0b4 7e3d ee35 a33d 2f2b a93d
000000f0: 4cd9 4fbd 11ec 63bc 951f 503d 2c31 ddbb
00000100: 7c8e 9b3c e838 13bc 20c4 2bbb 2a7e 79bd
00000110: 657c 4ebd df63 063d bcd9 c9bb 1f33 e73c
00000120: ac91 973d 3869 943d 9c57 fbbc f5d2 f43c
00000130: 6841 5aba 3696 3d3d b97a c7bd 50e0 2cbd
00000140: c86e 4d3d fd43 1d3e 080e fd3d 49f1 1f3d
00000150: 00c8 8cbb 0149 043e 3b2c f93c f055 b2bd
00000160: 7efd cd3d 7bf8 213d 73eb fc3c b7a6 2cbd
00000170: 2862 81bb 6c41 19bc 85cc 003c 7eb3 01be
00000180: 2fb3 403c df3c e73c d4f7 893d 40ba 7b3d
00000190: 6b36 9c3d 6641 c2bc 3c66 7b3d 98db 543d
000001a0: 8f7d d73d a1e6 91bc fad6 87bd 8fbb 0f3d
000001b0: d2c4 923d 38a0 51bd ee8e 33ba 213c 10bd
000001c0: 91b2 5bbe dfe1 c9bd 2c69 98bc 84d5 babc
000001d0: 81ce b0bd 908d 56bc 10b1 a9bd 9c18 06be
000001e0: 033d 17bd b98c 72bd 3df4 19be 94b0 653d
000001f0: 3b99 36bd b596 02be da86 3c3d 09e2 abbd
00000200: f11d a0bd db64 303b 996b b03d 34e5 053c
00000210: b0b5 b8bc 5376 ff3b ffe5 193d 5bd0 43bd
00000220: 49fd ccbc 76af 51bd abe1 19bc ff85 a0bc
00000230: b6a8 31bd d181 60bc ef48 e3bc 64c9 ecbc
00000240: 6870 bb3b d5b1 443c 9412 19bb d7d2 37bc
00000250: f734 3c3d 1ca6 fa3c f4a6 01be 5af1 133d
00000260: a150 823d c8b4 2fbb dae7 e83d 07d9 0abd
00000270: 4be3 9a3c 0a54 da3d 1398 293d 64a5 91bd
00000280: bb18 7fbc 8129 b93d 96e4 953d f208 e43d
00000290: db35 593e 0c11 d13b 74c1 a7bc f45d 023e
000002a0: 77c4 2dbd 6f02 32be f600 3abd 0b82 a83d
000002b0: b191 043e c434 283d 2655 463d 50f3 ab3d
000002c0: 994f 4c3d 3e97 03be c7f5 fbbc 50c5 c43c
000002d0: 8aa2 8a3d c04c a4bd 30fc 93bd 1caf 843d
000002e0: a841 4a3d 91a4 94bd fa15 8dbd b4be 523c
000002f0: 01fc 933d 3d7b 2ebe a7cc 1ebe ee5a 433c
00000300: c348 813c be17 fbbd 07e6 ccbd 195d 4fbd
00000310: 8f5a 05be 21ab 51bd f0dc febd af5f 03be
00000320: e858 bbbd d0ec 89bd a6d3 93bd b58b c7bd
00000330: 0a7c 673d 3975 5ebd 426d a7bd 728a 003d
00000340: fc6c 3fbd 0ecb 7c3c 9e29 353c 240d 093d
00000350: 2914 083c 9e8d 7ebd bc8a 32bd 89e0 d73c
00000360: 9959 54bc 3d73 0b3d a1bd e7ba 6430 44bd
00000370: b6cb 25bd aa68 ce3b b382 aabc 91d4 afbc
00000380: 67f3 dbbc 9d7f 0abc 744a c73b ab6a 40bc
00000390: 2551 2e3c 8f50 09bd c614 013d 143c a6bd
000003a0: c67a fdbc 4552 9b3d 7e3e 313c ea00 ecbb
000003b0: 60db 0abd 84ca 24bd 8172 eab9 97ef 90bc
000003c0: 2f79 7ebc 39d9 a1bd 99e6 7f3d 5cc0 eb3a
000003d0: f51a 483d fcfe 64bd 5dc5 193c 7ab1 eb3d
000003e0: e508 203d 5b65 97bd 5cf4 853d e56a d73d
000003f0: 668f 19bc 2545 2d39 4bb5 5c3d 0c93 b4bd
0.015598047 0.06989991 0.09372407 -0.010188863 0.062371973 0.1828425 -0.022483353 -0.07688351
0.056254845 -0.00081498007 -0.15791045 -0.03402712 -0.0688585 -0.16389206 -0.053738955 -0.11627422
0.017241206 -0.059411343 0.043713257 0.099342786 0.070779905 -0.053645894 -0.007631934 0.10209645
-0.04523966 -0.01263964 0.0037400662 -0.068831734 -0.17472996 -0.16391592 -0.02519943 -0.0834812
-0.18964611 0.041850075 -0.07102385 -0.1162598 0.041089218 0.013229215 -0.029042738 0.062134914
0.05740496 -0.005282303 -0.09914361 0.009934919 0.090279974 0.06318312 0.11966595 -0.055656273
0.033266507 0.10628257 0.10325607 -0.094554625 0.074890606 0.11186134 0.048857328 0.088680945
-0.046055946 0.062184215 0.07969271 0.0826019 -0.05074434 -0.013911263 0.05081137 -0.0067502465
0.01898884 -0.0089857355 -0.002620943 -0.060911335 -0.0504116 0.03281009 -0.006159989 0.028222619
0.074008316 0.072466314 -0.030681424 0.029885748 -0.00083257863 0.04628583 -0.09740204 -0.04220611
0.050154477 0.15357967 0.12356192 0.039048467 -0.004296303 0.12918474 0.030416599 -0.087077975
0.100581154 0.03954361 0.03087399 -0.04215118 -0.0039484687 -0.009353977 0.007861261 -0.12666127
0.011761471 0.028227268 0.067367226 0.06145692 0.07627567 -0.023712825 0.061376795 0.051967233
0.10521995 -0.017810168 -0.066328004 0.03509098 0.07166447 -0.051178187 -0.0006849606 -0.035213593
-0.21454836 -0.098575346 -0.018604837 -0.02280689 -0.086331375 -0.013095275 -0.08285725 -0.13095325
-0.03692342 -0.059216235 -0.15034576 0.0560766 -0.044579726 -0.12752803 0.046027042 -0.08392722
-0.07818211 0.0026915583 0.086142726 0.008172322 -0.022547573 0.007796088 0.037572857 -0.047806125
-0.02502312 -0.051192723 -0.009392182 -0.019595144 -0.043373786 -0.013702826 -0.027744738 -0.028904624
0.005720187 0.012005289 -0.002335702 -0.011219702 0.04594895 0.030596785 -0.12661344 0.036118843
0.06363035 -0.0026810635 0.11372347 -0.03389838 0.01890721 0.106605604 0.041404795 -0.07111624
-0.015569861 0.09041119 0.0731899 0.11134519 0.2121195 0.006380206 -0.020477988 0.12731153
-0.04242369 -0.17383741 -0.045411073 0.08227929 0.12946202 0.041065946 0.048421048 0.083960176
0.049880598 -0.12850663 -0.030756844 0.024019867 0.06769283 -0.080224514 -0.07225835 0.06478712
0.04937902 -0.07257951 -0.06888957 0.01286285 0.072258 -0.17039199 -0.15507756 0.011923535
0.015781766 -0.12260388 -0.10004812 -0.050625894 -0.13022827 -0.051188592 -0.12444484 -0.12829469
-0.09147817 -0.067346215 -0.07218103 -0.09743444 0.056514777 -0.05431101 -0.08175136 0.03138203
-0.046734795 0.015429271 0.011057286 0.033459798 0.008305588 -0.062146775 -0.04358934 0.026352184
-0.012960815 0.034045447 -0.0017680415 -0.04789771 -0.040477477 0.006299098 -0.020814275 -0.021463664
-0.026849462 -0.008453277 0.0060818736 -0.011744182 0.010639464 -0.033524092 0.03151395 -0.08116928
-0.030942332 0.07584051 0.010818122 -0.0072022574 -0.03390062 -0.040232196 -0.0004471727 -0.01769237
-0.015531822 -0.0790276 0.062475774 0.0017986405 0.048853833 -0.055907235 0.009385434 0.1150846
0.039070982 -0.07392379 0.065407485 0.105184354 -0.009372568 0.00016524324 0.053883832 -0.088171095

g_model.conv2.bias f4 [32]
00000000: 075f ef3c 1f12 abbb cd09 d0b9 b8f0 5c3c
00000010: 6d1c 013d 995f 92bc 1cd0 b33c 68e9 6ebd
00000020: 12bb a2bb 09e0 0fbd 548e c13c 568d fabc
00000030: f01b 01bd c050 113d 04da 083d 670e 7c3c
00000040: 59d8 ba3c 16cb 363d 6f2a bf3c 10df 823c
00000050: 7293 0bbc edce 60bd c3f6 b9bc 9bd6 803c
00000060: 4b10 3cbc d6f0 8c3c a734 013d b945 1dbd
00000070: 0c23 e0bb e01d 2abd c34e 31bd a7d0 863c
0.029220117 -0.005220666 -0.00039680154 0.013485126 0.03152125 -0.01786785 0.02194982 -0.058328062
-0.004966148 -0.035125766 0.023627438 -0.030584972 -0.031520784 0.0354774 0.03341104 0.015384293
0.02280824 0.04462727 0.023335664 0.015975505 -0.00851904 -0.05488484 -0.022700673 0.015727332
-0.011478494 0.017204683 0.031544354 -0.03839657 -0.0068401154 -0.041532397 -0.043288004 0.016456915

g_model.fc1.weight f4 [128, 800]
00000000: 357b b7bc 7310 34bc a676 6abc f9ae ed3b
00000010: acc1 dfbc 43cc 2dbd 27a4 08bd 4837 4bbc
00000020: b167 24bd e18a 29bd 945c c6bc 91a9 ef3c
00000030: dbf0 07bd c7af 0ebb 0161 e9bc 8f15 2fbb
00000040: a459 1b3c a851 10bd 261c c5bb b441 26bd
00000050: 0176 9fbc 5818 253c 0e24 8abc 3122 4b3d
00000060: 0601 153d 5169 81bc b86b edbc d48d bcbc
00000070: 5f26 8c3c 286a 503b 4610 ffbc d3c9 30bd
00000080: b14a 77bc 5e23 06bd c013 f4bc 845f 07bc
00000090: 6a8b 16bc 2034 cf3c 3c51 873d 9a11 493c
000000a0: 555d f63b a642 62bc eb47 c1bc 5d0c 34bd
000000b0: cc91 46bd 3e0b 723c 43e9 c8bc 9e40 a03a
000000c0: a22f 033d b4a3 863d 5cf6 223c 11f8 1ebd
000000d0: ed8a 9dbb b451 383b b8a6 e13c 4926 70bb
000000e0: 8234 99bd 5be7 2dbd 2c7e 463c a0e7 ec3c
000000f0: 29f8 603c 5102 3b3d 462a 56ba 3d5c 30bc
00000100: 13c9 08bd 9b7a 313d f8cb e5bb fbc5 1dbd
00000110: f919 143c 5433 a3bd d0d2 d63c 4873 42bc
00000120: d0c3 323c d7ad e53c c80b 3f3d 73eb e13b
00000130: f208 613d 4f3f ad3c ac8f 793c 6609 49bc
00000140: 4453 64bb 1062 863c a4dc 4d3b c9e2 533c
00000150: f789 92bd 85d9 9fbb 84d5 90bd d7cb a6bc
00000160: e3d5 183d 2d19 9ebd fcc8 55bd 9499 77bc
00000170: bae2 a43d 82ed ad3c 230d 83bd 00ea 57bc
00000180: 81ba a93c a985 163c 968e f0ba 29c1 00bd
00000190: fe9f abbb 6eda 033d 9821 b63d db1e 513d
000001a0: a8f5 3e3d f16b 25bb 3b45 d23c 78f5 66bc
000001b0: 2571 a7bc 9a34 23bd 0869 8e3c 50ca 50bd
000001c0: f52b 54bd 728d 3e3c 1c7c 5cbd fd9d 963c
000001d0: 8735 14bd 0521 403d 2082 e23c 1d4f 383b
000001e0: 944d 6d3c ea3f 043d 3e89 053d 63a0 67ba
000001f0: e432 893b bfa5 1e3c 67db 133d bd18 893d
00000200: a548 133e 0451 8d3d e2b3 01bc a6a8 33bd
00000210: 6ccf 223d 3030 673c dae4 ad3d b475 733c
00000220: d5cc 0a3d ad42 433c ff80 013d 6aac 4e3c
00000230: 18b9 3d3d fe12 7db9 5de8 873d dffc 43bd
00000240: 9e94 3ebd 13c7 65bc fa02 483d b593 863c
00000250: 3611 503d e043 7dbc 97e7 46bc 7e98 dcbc
00000260: 834f e63b a67e e7b9 fc01 fdba 3973 a33b
00000270: ba68 18bb 3f24 da3c 3d5b babc ae38 cbbc
00000280: 81af 08bc f54e 223b f2c0 693c 2edd 7a3d
00000290: b279 8b3c 1e5a 423d a16d cabc 9556 7d3c
000002a0: 5f49 403c 609a 03bd 878c cabb 1264 593b
000002b0: 26d8 363b 3c53 c63c f521 3f3d f33b 38bb
000002c0: 9bdc 0ebd cfd5 65bc ee9a 303d 4e4b 6c3d
000002d0: 6ca5 0cbd c490 6cbd ac9a 2e3d b1ce 253d
000002e0: 9b14 243d 2cc4 61bb 8fa2 2bbd 02af d83c
000002f0: d5ed 883d 559c 2cbc ea7c 2b3c 1c25 073d
00000300: a3d3 2b39 19db 913b 6c61 61bd 7d92 9b3c
00000310: c01b ee3b a5ef c53b 17ff b03c 62ff 1abb
00000320: 0fe9 00bd 02c9 6dbc 961a 5b3c 39e1 febc
00000330: f660 4cbc 4385 d03b c149 c2bc 860e 6a3d
00000340: b3a8 4dbc 57ca 8bbd b2b6 8b3c fea0 35bc
00000350: da9a 023d 22a4 3a3d 74ec 00bd bb00 3abc
00000360: 084f 8b3c 42bb ad3c f9df a93c 4956 26bd
00000370: 48ba cdbb 8034 1dbd f46d 70bc e67e 2f3b
00000380: 43b0 293d 3663 e43c 377c 9a3a b526 a5bc
00000390: 0e4d 60bd e0e0 56bd 26fd a7bc 241c a43b
000003a0: 8820 c33b b041 333c f12e 8cbd 0e19 89bc
000003b0: 3da2 dfbc 0892 3fbd 10f5 74bc 5b9a 61bc
000003c0: 1bb6 41bd baa9 853c a827 8b3b 3d32 a9bc
000003d0: 6efc ddbc cf99 0fbd d1ef 95bc 7851 073d
000003e0: aa3b 913c 568c e73b a55b c43b 0d55 193d
000003f0: 96f4 be3c b834 62bc e1d7 c2bc 552d 943c
-0.022397617 -0.01099025 -0.014310515 0.0072535244 -0.02731403 -0.042431127 -0.033359673 -0.012403317
-0.04013795 -0.04139221 -0.024214067 0.02925566 -0.033188682 -0.0021772252 -0.028488638 -0.002671573
0.009481821 -0.035234123 -0.0060153184 -0.040590003 -0.019465448 0.010076605 -0.016862895 0.049593154
0.03637793 -0.01579729 -0.028982028 -0.023016848 0.01710814 0.0031801555 -0.03113569 -0.043161225
-0.015093491 -0.032748573 -0.029794574 -0.008262519 -0.009188512 0.02529341 0.06607291 0.012272263
0.0075184503 -0.013809836 -0.023593863 -0.043957103 -0.048478886 0.014773188 -0.02452529 0.0012226289
0.032027848 0.06574193 0.009946432 -0.038810793 -0.004807821 0.002812487 0.027545318 -0.0036643913
-0.07480718 -0.042456966 0.012115043 0.028919041 0.013731041 0.045656506 -0.00081697514 -0.010764179
-0.033394884 0.043329816 -0.0070128404 -0.038518887 0.0090393955 -0.079687744 0.02622357 -0.0118683055
0.010910943 0.028036995 0.046642095 0.006894523 0.05494017 0.021148352 0.015232008 -0.012270307
-0.003483967 0.016404182 0.003141203 0.012932488 -0.07155221 -0.0048782253 -0.07071975 -0.02036087
0.037313353 -0.07719646 -0.052193627 -0.0151122995 0.08051057 0.021231417 -0.0639899 -0.013178349
0.020718815 0.0091871405 -0.0018353041 -0.031434212 -0.0052375784 0.032190733 0.08893126 0.051054817
0.046620995 -0.002524134 0.025667777 -0.01409661 -0.020439694 -0.039845087 0.017384067 -0.05097419
-0.051799733 0.011630403 -0.053829297 0.018385882 -0.03618386 0.04690649 0.027649939 0.0028123327
0.014483828 0.032287516 0.032601587 -0.000883585 0.004186975 0.009683072 0.03609791 0.066941716
0.1438318 0.06900218 -0.007916423 -0.043862008 0.039748594 0.01411061 0.084909156 0.014859606
0.03388675 0.011917752 0.03161716 0.012614349 0.046319097 -0.00024135035 0.06636117 -0.04784858
-0.04652845 -0.014024514 0.048830964 0.016427854 0.050797664 -0.015458077 -0.012140176 -0.026928183
0.0070285215 -0.00044154114 -0.001930296 0.004988101 -0.0023255781 0.026628612 -0.022748584 -0.0248073
-0.008342625 0.00247663 0.014267193 0.06124609 0.017025802 0.047449224 -0.024710478 0.015462537
0.011736243 -0.032129645 -0.006181303 0.0033171219 0.002789983 0.024209611 0.046663243 -0.0028111904
-0.034878355 -0.014028027 0.043116502 0.057689004 -0.034337446 -0.057755247 0.042627975 0.04048032
0.040058713 -0.0034449203 -0.041903075 0.026450638 0.06685988 -0.010535319 0.010466794 0.032994375
0.00016386672 0.0044511673 -0.05502455 0.01899075 0.0072664917 0.0060405307 0.021606011 -0.0023650755
-0.031472262 -0.014513256 0.013373038 -0.031113254 -0.012474289 0.0063635423 -0.02371681 0.057142757
-0.012552428 -0.06825703 0.01705489 -0.011085747 0.03188596 0.045566685 -0.0314755 -0.011352713
0.017005458 0.021207456 0.020736681 -0.04060963 -0.00627831 -0.038380146 -0.014674652 0.0026778518
0.041427862 0.027879339 0.0011786286 -0.020160059 -0.054760985 -0.05246055 -0.020506453 0.0050082374
0.0059548058 0.010940954 -0.06844891 -0.01673558 -0.02729904 -0.046770126 -0.014951006 -0.013769711
-0.04729281 0.016316283 0.0042466708 -0.020653838 -0.027097907 -0.035058793 -0.01830283 0.03303668
0.017728645 0.00706629 0.00599237 0.037434626 0.023309987 -0.013806514 -0.02378458 0.018088022

g_model.fc1.bias f4 [128]
00000000: a282 9f3c 7460 b23c 9560 61bd 04a5 2d3c
00000010: baca 233c 1bd0 81bc d4aa 4dbc 83f5 85bc
00000020: e051 ad3c 5f1b 1c3c 6a48 7f3c 421a c6bc
00000030: 2e9c 293d 0c9e 19bd 1563 1b3d cd89 983b
00000040: efd8 163d 10a2 483c 80a2 62bc 0283 8f3b
00000050: 0f9f 14bd 74d8 1cbd 3ddc 6cbb 4f74 bd39
00000060: dc59 6cbc 9bdb 0d3d 008a 8f3c 6b62 c3bc
00000070: 0691 883c 06c7 c7bc d5c3 19bc 70e5 c9bc
00000080: ce3b c33b 9607 c93b 411e bebb f4b7 2bbc
00000090: 3b11 663b 6722 a1bc e7d4 b8bc 80dc a0bc
000000a0: 66ce b13b a231 42bb 00ba 023d e173 243c
000000b0: 41a5 ea3c 4490 10bc 401b e6bc 7a34 09bd
000000c0: 3b6d 943a 0ab1 b3bb f3ed 42bd a7bd fc3c
000000d0: 8536 1c3b 04ae ac3c 7cf1 613d 9eca 463d
000000e0: d698 e4bc 8699 94bc 7391 03bd 1d93 eb3c
000000f0: bd52 8cbc 0cac 7d3c 7401 d73c 161a 0dbd
00000100: 3cef e23c bd11 11bc 0e23 013c 05f0 77ba
00000110: b8c6 4d3b 4944 fabc 72f2 0abd e4be a5bb
00000120: 1de6 42bc 3708 0fbd 8191 9b3c 93fd 0abd
00000130: 8077 093c 5afa 4ebb 1cf7 bbbb 7381 813c
00000140: 5d0d 14bd 16aa 4d3c 4305 61bc 2d42 a43b
00000150: de6c 413b 6b28 50bb aada d43c 7a58 71bb
00000160: 8655 bfbb 6e90 9d3c b7c4 dbbc 41b1 94bc
00000170: 5bf1 6c3c 114f ba3b d687 d6bc cef5 a43b
00000180: 5158 cf3c bdc8 bbbc b3e9 e73c e043 563d
00000190: ccab a1bb 6276 5e3c cdc6 06bc 6111 0d3c
000001a0: a628 713d b3fe 2dbb 37a5 bf3c ff68 a33c
000001b0: abe1 c33c 70b0 03bd c373 cc3c d6fb c13c
000001c0: 8e9a 7b3c 5374 63bb 3017 813c 2b60 8a3c
000001d0: bfe0 a1bc 9c9f d2bc 56b1 12bd f76b 383c
000001e0: e224 99bc 0b95 ae3c 8703 783c 131b 7dbb
000001f0: cf04 393c 7625 58bc a10e 92bb cbf8 9b3b
0.01947147 0.021774508 -0.05502375 0.010598425 0.009997064 -0.015846303 -0.012552936 -0.01635242
0.021157205 0.00952801 0.01558123 -0.024182443 0.04140871 -0.03750424 0.03793629 0.004655099
0.036827978 0.01224567 -0.013832688 0.004379631 -0.036284503 -0.038292363 -0.0036142014 0.00036135546
-0.014425721 0.03463326 0.017521858 -0.02385064 0.016670715 -0.024386894 -0.009385069 -0.024645537
0.005958057 0.0061349375 -0.0058019464 -0.01048087 0.0035105485 -0.019669725 -0.022562457 -0.019636393
0.005426216 -0.0029631634 0.031915665 0.010037393 0.028643252 -0.008823458 -0.028089166 -0.03349731
0.0011324057 -0.005483751 -0.047590207 0.030852152 0.0023836207 0.02107907 0.055161938 0.048533075
-0.02790491 -0.018139612 -0.032121133 0.028756673 -0.017129296 0.015482914 0.02624581 -0.034448706
0.027701966 -0.008854327 0.007881893 -0.0009458068 0.0031398963 -0.030550139 -0.03392262 -0.0050581563
-0.011895684 -0.034919944 0.01899028 -0.033933233 0.008390307 -0.0031582327 -0.005736245 0.015808797
-0.036145557 0.012552759 -0.013734165 0.0050127716 0.0029514353 -0.0031762372 0.025983173 -0.0036826418
-0.0058390526 0.019233909 -0.0268272 -0.018150927 0.0144618405 0.005685695 -0.026187818 0.005034185
0.025310667 -0.022922868 0.028309679 0.052310824 -0.00493381 0.013578029 -0.008226109 0.0086101005
0.058876656 -0.0026549518 0.02339421 0.019947527 0.023911318 -0.032150686 0.024957543 0.023679655
0.015356673 -0.0034706786 0.015758127 0.01689156 -0.019760488 -0.025710873 -0.035813652 0.01125621
-0.018694345 0.021311304 0.01513756 -0.0038620874 0.01129265 -0.013192525 -0.0044573103 0.004759883

g_model.fc2.weight f4 [18, 128]
00000000: 5426 29be 23e6 e33d f28e 01be e7e7 b93d
00000010: 5b9e 023e 8488 7e3d de0a b7ba f849 7c3c
00000020: 7d51 643d 8e81 b43d 2956 35bc 1b20 58bd
00000030: 9602 4d3b 1040 e7bd f385 a73d 07e8 20ba
00000040: 6b89 85bd 73d1 a3bd c761 223e 4dac 2abd
00000050: 2ae1 20bd f8d6 6ebc 3842 a43d b3c8 a73c
00000060: e888 dd3d 61f9 c7bb c5ee 963c 4b56 1fbd
00000070: 24fb 27bd 6ac5 af3d e65e 943c 767e 22be
00000080: 6c54 e9bd 1854 653d ddb0 c0bd 7749 acbc
00000090: 3532 303d 46bd 8dbd 14fc 02bc 6dd2 0f3b
000000a0: 4fe8 08be a966 943c 9bab af3d 4dad d43d
000000b0: b722 f03c a2fa abbd 4db4 b83c ae01 a43b
000000c0: 0d02 143e db4a 293d e064 3d3e d2ff 263c
000000d0: 35e2 4fbd cced eabd d043 fa3c 1f52 0cbd
000000e0: 350e d3ba 57e8 c63d e586 b2bd df76 29bd
000000f0: ae77 413c ef19 59bd d7a5 7f3c df01 b93c
00000100: 576c f9bc d272 553d d900 9f3c 3c5d 8bbd
00000110: 8944 e63c 0a49 22be 69a0 a53d eddf 9c3c
00000120: aa9a c43d ec94 053d d5d6 49bd edb4 49bc
00000130: 4df0 6fbd 0c39 9f3d ca43 e0bd 170b e13c
00000140: 8495 93bd c497 84bc f88a 773d 1b44 8bbd
00000150: 0149 3c3d 4857 e9bd 2bdb 53bc a5d1 b13d
00000160: be09 46be 861f 0f3d 2738 ed3c 0464 a13d
00000170: 7954 833c 93ec 5bbd db83 ccbd 6de6 293e
00000180: 350b b8bd 041f 073d 18c7 e6bc c777 5cbd
00000190: 6717 933c 8842 a43d 7126 b73b 539b 01bd
000001a0: 2450 d1bd 14a1 08be b46a c0bd ae43 853c
000001b0: 23b1 c53d ec6f 3abc a9c0 5a3d 230b da3d
000001c0: 1cc5 85bd b380 843d 3659 27be f63d 66bd
000001d0: a825 883d 180c 6e3c ba8f 923d a895 f23c
000001e0: 201f fbbb 5011 dfbd a41b a83d 0cc3 4a3d
000001f0: 18cf 9fbd 5280 d63b a957 e63d 6ae0 9e3d
00000200: d957 a43d a47b 003d 68be 833d 3107 ae3d
00000210: 963f a0bd c165 48bd d050 583d 6491 5bbc
00000220: 0f66 a5bd 54fb 4f3d 22b3 1abd 3787 763d
00000230: e9db 343e 7a7b 0fbe b3ef 40bc a8fa 253d
00000240: 2549 3c3d a692 033d 377f fb3c a024 6dbd
00000250: 6eb2 dbbd 8304 7ebd 985a dbbd 6deb 94bd
00000260: fe67 6bbd 9f22 eebc 89f2 ae3d 7896 d73d
00000270: b0d9 04be 9b4c f3bc e5be 8a3d f2a4 073e
00000280: 4c2e 563d 73d8 2fbc 8b6a 27bd f39f 80bc
00000290: 894e 4a3c afcb fdbd 2024 923d e37a 12be
000002a0: 4a2e da3d 48d0 fb3d 1720 cabd 6f00 c5bd
000002b0: b5c6 203e dc62 033e 3978 a93d 9a69 8c3d
000002c0: 2171 26bd f646 d9bc 89c0 933d e7c2 f93d
000002d0: f356 d4bd 5bbd 0ebe 7383 e8bd 5ae6 d8bd
000002e0: 9509 98bd 5704 07be 3d09 9dbd ce69 2dbd
000002f0: cc16 72bd b6b9 0a3b e44d 89bd d6f3 003e
00000300: 4eb7 1d3c 7e72 39be bb91 273c 5d8f 17bd
00000310: 5670 643d 6d6f b03a b685 b6bd 8f40 4abc
00000320: 5f19 30be 307a 91bd 7d4f c73c 7c36 29be
00000330: eb7d 563d 0ca4 3cbd ac6e 933d f233 bc3c
00000340: 579b 93bd abb0 0abe b390 fbbc 60f2 02be
00000350: 4eaf 8dbd 5a65 613c 453d b83d 734f 0fbc
00000360: 468f 94bb 0448 4c3d 721f bfbd 1132 a83d
00000370: d558 863d 5bd0 0dbe b2c1 5fbc ef10 a0bd
00000380: 523f 8abd 38a9 30bd bfb9 a73c c318 a23d
00000390: febe 89bd ec82 8d3d 41ca 9c3d 1d07 923c
000003a0: dc0d 103e 2102 e2bd 2840 9b3d 6378 d5bc
000003b0: 6165 7c3d af2b 403a ada3 fcbd 1be5 8bbd
000003c0: 6f51 2fbe 0b2b fbbd 019e 683d 2775 3b3d
000003d0: 5fa5 433b 9c7a 1e3e 73b7 743d b847 c93d
000003e0: 90a3 703b 8530 c5bd 5618 bf3d dde6 1fbe
000003f0: 6c35 913d 185b 5abd db96 7fbc 64ad f7bd
-0.16518527 0.111278795 -0.12652186 0.09077435 0.1275572 0.06214191 -0.0013965031 0.015398495
0.055741776 0.08813773 -0.011067905 -0.052764993 0.003128206 -0.11291516 0.08179846 -0.00061380904
-0.06520351 -0.07998934 0.15857612 -0.041668225 -0.039277233 -0.01457762 0.08020443 0.020481443
0.108171284 -0.0061027263 0.018424401 -0.038900655 -0.04101099 0.085825756 0.018111657 -0.15868554
-0.11393055 0.0559884 -0.09408734 -0.021031125 0.04301663 -0.06920867 -0.00799467 0.0021945492
-0.13369869 0.018115358 0.08577653 0.10384617 0.029313428 -0.08397414 0.022546912 0.005005083
0.14453907 0.041331153 0.18495512 0.010192828 -0.050752837 -0.114711374 0.030549914 -0.034258004
-0.0016102256 0.09712284 -0.08717135 -0.04137313 0.011808319 -0.053003248 0.015603504 0.0225839
-0.030447168 0.052111454 0.019409584 -0.068048924 0.028108852 -0.15848175 0.080872364 0.019149745
0.09599812 0.032612726 -0.049277145 -0.0123112025 -0.058578778 0.07774553 -0.1095043 0.027471108
-0.07206252 -0.016185649 0.060435265 -0.068000995 0.04596806 -0.11393601 -0.012930672 0.08682565
-0.19339654 0.034942172 0.02895744 0.078804046 0.01603149 -0.05369241 -0.09986087 0.16591807
-0.089865126 0.032988563 -0.028171107 -0.053825166 0.017955495 0.08020502 0.0055892994 -0.03164227
-0.10220364 -0.13342696 -0.09395352 0.016267624 0.09652927 -0.011379223 0.05340639 0.106466554
-0.06531736 0.0646986 -0.16342625 -0.056211434 0.06647807 0.014529251 0.0715632 0.029612377
-0.0076636225 -0.10891974 0.08208397 0.049502417 -0.07803172 0.0065460587 0.112471886 0.07757647
0.08024568 0.031367913 0.064328015 0.084974654 -0.07824628 -0.048925165 0.052811444 -0.013401363
-0.08076107 0.050776795 -0.03776849 0.060187545 0.17662014 -0.14011946 -0.011775899 0.040522248
0.045968194 0.032122277 0.03070031 -0.057896256 -0.10727392 -0.06201602 -0.10710639 -0.072714664
-0.05747222 -0.029069243 0.08542354 0.105267465 -0.12973666 -0.029699614 0.067746915 0.13246515
0.052290246 -0.010732758 -0.04087309 -0.01570127 0.012347826 -0.12392365 0.071357965 -0.1430469
0.1065336 0.12295586 -0.09869402 -0.09619223 0.157008 0.1283068 0.08274884 0.068560794
-0.040635232 -0.026523095 0.072144575 0.12195378 -0.10368147 -0.13939421 -0.11353197 -0.10590811
-0.074237026 -0.1318525 -0.07667778 -0.04233723 -0.059103772 0.0021167821 -0.067043096 0.12593016
0.009626223 -0.18110082 0.010227616 -0.037001956 0.055771194 0.0013460942 -0.08912222 -0.0123444935
-0.17197178 -0.071033835 0.024329895 -0.1652469 0.05236618 -0.046054885 0.07198843 0.022973988
-0.07207363 -0.13543956 -0.030708646 -0.12787771 -0.06918202 0.013757074 0.08996061 -0.0087469695
-0.004533681 0.049873367 -0.093321696 0.082126744 0.06559912 -0.13849013 -0.01365702 -0.0781573
-0.06750359 -0.04313013 0.020474313 0.07914879 -0.06725882 0.06909737 0.07655764 0.017825658
0.14067787 -0.11035562 0.07580596 -0.026058381 0.06162012 0.0007330728 -0.12335906 -0.06830808
-0.17120908 -0.12264069 0.05679131 0.045766022 0.0029853208 0.1547646 0.059745263 0.098281324
0.0036718585 -0.09628395 0.093308136 -0.15615411 0.070902675 -0.05330953 -0.015599932 -0.120936185

g_model.fc2.bias f4 [18]
00000000: f7a1 e3bc 7496 d4bc 087b 11bd 1cdd e2bd
00000010: ac58 523d 97be 3ebd 3cdf 2ebd fe1b 26bd
00000020: a0db 893d 8b53 c03c 96b0 76bc 0805 903d
00000030: 11ac ed3c 98d1 a03d 76e5 9cbd 013e a2bd
00000040: 2390 00bd 9779 953d
-0.027787192 -0.025950648 -0.035517722 -0.110773295 0.051354095 -0.04656848 -0.04269336 -0.04055404
0.06731343 0.023477336 -0.01505675 0.0703221 0.029012712 0.07852477 -0.07660954 -0.079219826
-0.03138746 0.07298582

f_model.fc1.weight f4 [32, 18]
00000000: 21e1 e2bd 031d 283d f5b9 fbbd e4a9 803d
00000010: 0046 a63c bfc9 bb3e 91cd 3fbe 94f5 a8bd
00000020: 2efb 86be a46b cd3e 911b c6bd bdba cb3d
00000030: 8c59 763d 7002 14be d9ae c5bd d534 233e
00000040: 7497 a2be 11ab 06bd e615 0c3d bac4 af3d
00000050: 22d8 013e ff9a 2d3e 87dd c7bd e992 383e
00000060: fc20 84be ba76 c9bd 49fd 48bd d332 80be
00000070: 624e 8fbe 0bd5 383d 985a 8f3e b007 68be
00000080: eff9 e7bb e26f 9abd 5bca b43e e5fb e93d
00000090: 1447 683d 27fc 9b3e 2105 a4bd 974d 8d3c
000000a0: 28e9 2e3e 0fc1 f43b 5d2a debd 8735 bdbe
000000b0: 7e25 4dbe 5f5f e5bc d634 f83d 850b 87be
000000c0: 7184 113e da34 903c 0c7d 6c3e 8163 0e3e
000000d0: 68b1 903e 8f1e a73d d95f 61be 2062 f93d
000000e0: 9f49 8cbe 757a 06be 2b96 953e af8b 81bb
000000f0: 020d d2bc 117f 9e3d 8c40 e9bd 654f fb3e
00000100: b1df 3ebc a9a4 a5bd 50ef 10bd 0b73 b5bd
00000110: 6567 92be 34e5 0dbe 7f66 12be 4d6c 0abe
00000120: 438d 00be f129 7ebe 0edd 20be 1962 eebd
00000130: cb98 033e d8e1 2c3e 965f 3bbe 4046 e7bd
00000140: d362 e3be 338d 4b3c af08 03bb 0ee0 0cbe
00000150: 971f edbe 403e 0c3e 2bec 0c3e 2320 5b3e
00000160: aac0 27bd 8ab5 7cbe 6626 67bd 8e0e 23be
00000170: 2df5 b3bd 0dda bfbd 5f40 343c ddd0 363e
00000180: 37ab 08bd c2b8 1bbe 0565 24be d9d9 dabd
00000190: 2f40 c8bc 4d61 28be cc25 c23e 680a a2be
000001a0: 10ea 693e 9c9f 913d f0e5 93be d759 a43e
000001b0: 0806 bdbd 4e8a c7bd acf6 843d 096a 49bd
000001c0: 5767 9abc b394 133e b64d 96be 7cdd 583e
000001d0: 612a 84be 4899 603e 95ba 753d c69d b53d
000001e0: b367 343e 8d7a 32be 08e5 6e3e e657 0cbc
000001f0: 3da2 47bd d9b2 74bc 4ab4 f1bd 8c64 f53c
00000200: b19d 673e 4125 8abe 5ff0 dd3d 6c97 ebbd
00000210: d04b 27bd 06f9 81be 42a3 09be 1be0 ba3d
00000220: 8c09 9a3d 961c 24be 225c 08be c2ae eebd
00000230: f8ee 6cbe 63f3 453e 333b d33d 9e0b 92be
00000240: 9741 f9bd f313 6b3d 4e91 8d3e a92f 3ebc
00000250: 1135 edbd f43b 1b3d 8ab7 6b3e 98c3 693c
00000260: 3e75 653d 2b32 22be 4c00 803d 55e3 f4bd
00000270: 570c b8bd 38fa 833e 57b8 17bd 98fb 203d
00000280: f6e8 383e 3669 813e 82f6 1ebe 0c04 38bd
00000290: ff32 b5bd 49e5 6fbe a808 b53d 02ea 63be
000002a0: 163a 41bd ae46 b63d 1c40 0e3e b717 563e
000002b0: 78eb 38be b663 14be 1088 683e d502 64bc
000002c0: 7f35 c3be 5b1c 643e 810c 733c 98ef 16be
000002d0: 277f 203e 14d4 15be e1a4 b0bd 4463 39be
000002e0: 3ffe 34be c176 1b3c 432f 50bd 4071 233c
000002f0: 4dba 8e3d 2aad 133e 8396 9d3e bb10 5bbb
00000300: d73e 7f3e 404d a13d 198e c63e 1a62 91be
00000310: 2c9b f43d a64f eb3c e6ac dc3d 5132 44be
00000320: 772d 9bbe e5ac b53c c04f 46be 1b4e 0f3e
00000330: 8b8c 573d b97b 84bd faee 8e3d 7c39 bcbd
00000340: 491f d63d e908 fd3d bd27 0cbd abb3 853e
00000350: e6ab 8ebe abe8 48be beb8 95be 0f98 583e
00000360: f78a 3c3e 231f 94be a244 923d 61e3 793e
00000370: 6ccc 8cbe b672 e6bd b66e 49be 7cf2 49be
00000380: 82fc d83c 1050 38bc af1b 31be 8937 41be
00000390: 3c07 693d c468 c3bd 6a16 933e f7ff 9bbe
000003a0: 0701 2c3e d02d 93be 7873 52be 4d73 6f3e
000003b0: 0395 d0bd eb83 59be 56ab d93d 85e3 03be
000003c0: 3afd 2dbe d206 c6bd 59c0 0fbc 0efc 783e
000003d0: 2bc1 a73e 3799 69be 6140 d1bd 5b0b 68be
000003e0: 465e f73d 1499 adbc f2e4 8dbe e994 3f3e
000003f0: 2d85 dd3d b2af b9bc 673a 6bbe b923 20bd
-0.11078096 0.041043293 -0.12291328 0.06282404 0.02029705 0.36677358 -0.18730761 -0.08249965
-0.2636351 0.40121186 -0.096732266 0.09947727 0.060143992 -0.14454055 -0.0965249 0.15938123
-0.31756175 -0.032877985 0.03420057 0.085824445 0.12680104 0.16953658 -0.0975905 0.18024792
-0.25806415 -0.098370984 -0.049069677 -0.25038776 -0.2798949 0.04512505 0.27998805 -0.22659183
-0.007079355 -0.07540871 0.35310635 0.11424998 0.05670841 0.30465814 -0.08008791 0.017248912
0.1708113 0.0074693034 -0.10847924 -0.369549 -0.20033833 -0.027999578 0.12119453 -0.26375976
0.14210679 0.017603327 0.23094577 0.13905145 0.2826035 0.081601255 -0.22009219 0.12176919
-0.27399918 -0.13132651 0.29216132 -0.003953419 -0.025640968 0.0773908 -0.113892645 0.4908401
-0.011650012 -0.08088047 -0.035384476 -0.08859833 -0.2859451 -0.13856965 -0.14296912 -0.13517876
-0.12553887 -0.24820687 -0.15709326 -0.116398044 0.12851255 0.16883028 -0.18298182 -0.11292696
-0.44411334 0.012423801 -0.001999419 -0.13757345 -0.46313164 0.13695621 0.13761966 0.21398978
-0.040955223 -0.24678627 -0.056433104 -0.15923521 -0.08786998 -0.09367762 0.011001675 0.17853113
-0.03336641 -0.15207198 -0.16054161 -0.106860824 -0.024444668 -0.16443367 0.37919462 -0.31648564
0.22843194 0.07110521 -0.28886366 0.32099792 -0.09229666 -0.097431764 0.064923614 -0.04917339
-0.018848104 0.14412193 -0.29356164 0.2117824 -0.25813583 0.21933472 0.05999239 0.088679835
0.17617683 -0.17429562 0.23329556 -0.0085658785 -0.048738707 -0.014935219 -0.118019655 0.029955171
0.22618748 -0.26981547 0.10836863 -0.11503491 -0.040843785 -0.25385302 -0.13441184 0.09124776
0.07521352 -0.1602653 -0.13316396 -0.11654426 -0.23138034 0.19331126 0.10314026 -0.28524488
-0.121707134 0.057392072 0.2764992 -0.011608043 -0.11582387 0.037898973 0.23019233 0.014267825
0.056020014 -0.1583945 0.062500566 -0.11957423 -0.08986729 0.2577684 -0.037041035 0.03930244
0.18057618 0.25275582 -0.15523723 -0.044925734 -0.08847617 -0.23427309 0.08839542 -0.22257236
-0.047174536 0.089002 0.13891643 0.20907484 -0.18058574 -0.14491162 0.22708154 -0.013916691
-0.38126752 0.22276442 0.014834524 -0.14739835 0.15673505 -0.14631683 -0.08625198 -0.18104273
-0.17675112 0.009488762 -0.050826322 0.009975731 0.06969128 0.14421526 0.30778894 -0.003342672
0.24926315 0.078760624 0.38780287 -0.28395158 0.11943659 0.028724503 0.10775165 -0.19159819
-0.30308124 0.02217717 -0.1936636 0.13994639 0.052624267 -0.06468911 0.06979175 -0.09190652
0.10455186 0.12355215 -0.034217585 0.26113638 -0.27865523 -0.19620006 -0.2924251 0.21151756
0.18412386 -0.28930005 0.07141997 0.24403144 -0.27499712 -0.11252348 -0.19671139 -0.19721407
0.026487593 -0.011249557 -0.17295717 -0.18868841 0.056891665 -0.09541467 0.28728038 -0.30468723
0.16797267 -0.2874589 -0.2055186 0.23383828 -0.10184672 -0.21241729 0.10628383 -0.1287976
-0.1699113 -0.096692696 -0.008773887 0.24314901 0.32764563 -0.22812353 -0.102173574 -0.22660582
0.12078528 -0.021191157 -0.27713734 0.18709148 0.10816417 -0.022666786 -0.22971497 -0.039096568

f_model.fc1.bias f4 [32]
00000000: f7c2 61bd d9e5 6b3e 6a0f 1c3e e02d 0b3e
00000010: 7a22 c7bd 9c34 fdbd a797 1ebe 665e 56be
00000020: 907d 1d3e 5e57 4b3d 510e 773e b183 e6bd
00000030: cad3 fdbd deb2 19bd bbd6 4fbe 33ed 03be
00000040: 3d03 243e 60e9 6e3a 68a7 2e3e 2a5d 463e
00000050: 9ca4 833e 1c3a 0d3e 53bb 94bd a6d0 893e
00000060: 5de5 56bd ceb7 4bbe 582f b7bd d263 3dbe
00000070: 4d23 ff3d 4d42 6a3d 0d44 bf3d 93a6 e43d
-0.055117574 0.23036899 0.15240255 0.13591719 -0.09723373 -0.1236355 -0.15487538 -0.20934448
0.1537993 0.049643867 0.24126555 -0.11255587 -0.12393911 -0.037524097 -0.20296757 -0.12883453
0.1601686 0.0009113755 0.17056048 0.19371477 0.25711524 0.13791698 -0.07262292 0.26917
-0.05246483 -0.19894335 -0.08944577 -0.1849511 0.12457905 0.057192136 0.093391515 0.11164584

f_model.fc2.weight f4 [10, 32]
00000000: 587b a0bd b677 b23a ee6e d4bd 772b 3ebd
00000010: 9a28 2dbe 13f7 363e eeda 1abe 4c57 9d3c
00000020: db61 39be 6fec 25be c4cb 753e d6c0 b63d
00000030: d222 633e f7be de3c 140d 24be 9718 b03d
00000040: 67dd 97be e310 8ebd 94f6 923d 77d4 82be
00000050: 4330 043e d81d 6a3c 421f 11be 8f36 54bd
00000060: 110e 85be aecc cd3d ae93 933e 6bcb 31bd
00000070: 19f1 0fbe 0d14 3c3c 0ecf 5fbb 37c6 a7be
00000080: 6a50 26bd a7d3 43be 2a35 9d3e 93b3 01be
00000090: a014 5bbe d1df 2dbe 0b38 7bbe 2909 55be
000000a0: 48b7 183e 104a 52be 3b48 123e b358 8abe
000000b0: e0ba 99bd 0464 653e a781 47be ca74 6abd
000000c0: 6a61 25be 5df2 0a3e a625 fd3c aed6 b1bd
000000d0: 82ad 673e 497a 01be 9b35 0e3d d3e1 3d3e
000000e0: 831e 9e3d aed5 c33d 1656 fbbd 10b9 ffbd
000000f0: 1973 00bd 367a 0dbe e99f e53d e8da 193d
00000100: ea27 4bbc 3f70 b83c 0787 33be e544 47be
00000110: ca59 35bc 731b 60be 58b5 2d3c 588e 2c3e
00000120: eae3 6b3e f71e c7bc 11d5 5dbc 3fad 6fbe
00000130: 5b77 8b3d 8903 21be 1f26 86bd c4c6 313e
00000140: 23e3 82be ac46 633e 7f7e f93c ddcb 743e
00000150: 621e 40be 9cab 393e 0fd6 063d 5214 1e3d
00000160: f9c9 d6bc 1ece 9fbd 7c3e 73be 776e 22be
00000170: e0d2 713d 9394 3cbd 6fc9 05be 3b34 9bbe
00000180: 58dc 16be 5d84 7a3e c6e0 ecbc f435 87bd
00000190: b35f 25be 4ddc 2cbb ca7d 4a3d f505 07bc
000001a0: fdd9 40be b466 1abd aae7 44bc 1163 b8be
000001b0: 1868 4c3e d950 4cbe e6cc dfbd e455 61bd
000001c0: aae2 7c3d a01a 51bd 1a95 0f3e c4aa d03d
000001d0: 3b5c 24be 673a 48be 88cc b7bc c118 fa3d
000001e0: 85fd 5abe a4c5 a1bc 2705 e0bd 36ee 123e
000001f0: 691e 823d 044c 52bd 9ad3 c2be d3ab 203e
00000200: 929f 05bd e648 4fbd 1d0c f83d eaf6 543e
00000210: 2082 9d3d 2c05 2abe 4453 7cbe bf30 373e
00000220: 7891 53be d5ce 5d3e dac3 afbe 963e a0be
00000230: 0ca7 09bc ae57 0a3e 8799 ebbd 95a0 84be
00000240: 7d5a b13b e37a 7bbe cb00 193e e228 7f3d
00000250: 8876 abbc d8d5 533e 7f74 243c 0e48 6ebe
00000260: 93b8 a0be 80dc 5ebb f55f a5bc 8a21 08be
00000270: bd4b 8a3d 40da 81bd 80e6 183e f547 a43d
00000280: 7e2e c03d 3e22 bd3c de12 5cbd 9c83 a0bc
00000290: 1790 263e 02e4 05be 1514 36bd c75d 3abe
000002a0: f167 b9bd e129 48bd c0d8 37bd 9240 353e
000002b0: 8fe5 ba3d f335 99be 1661 173e 120f 5c3d
000002c0: 10e4 1c3c 9f4b c1bd 161c 81bd 4747 4bbe
000002d0: 6a08 2abe 6e00 bbbd 7bcf fe3d c90b 3f3e
000002e0: f28b 4c3e e976 31be 64e4 06bd c6ff 53bd
000002f0: 47c8 553d b25e 2bbe 7430 663d 01fe ba3d
00000300: 9144 99bd 376d afbd 9848 033e 7080 98bd
00000310: 6910 16be b30a 4c3e 20dd a9be 287b 99bd
00000320: 936e be3d 4bad 8ebd 5892 53be 586c ebbc
00000330: 5bd8 fdbd fcc5 50bd 861a 073d bc08 a03c
00000340: 1e7d 213e 1ecf 66be e495 c5be 7d1a 4abd
00000350: a9d0 85be b4f9 4c3e ec03 6d3c 6412 d23c
00000360: 0843 6cbc d5a5 73be 5a44 363d db33 04be
00000370: 0e15 013e c30a 8c3e d9ba c3bd 32dd d0bd
00000380: 8d53 02be 7d92 5ebe 61a4 abbe d770 d23c
00000390: 4870 303c f1af 11be 4e67 1d3e ae7a 4dbe
000003a0: d9ff 53bc d8ea 18bd 4c19 1b3e c2b5 74bd
000003b0: 2472 4d3c 8e0a e1bc 8434 553e fb80 84be
000003c0: 65ae 08be 70e9 353e 89ea 0a3e a805 8a3d
000003d0: f811 763e abf6 1fbe 60a4 4ebe eb54 8dbe
000003e0: 9dbd 8cbe c002 2abe f690 db3c 84c2 3ebe
000003f0: 6179 9cbc 18ca e7bc 6159 013e b752 c8bc
-0.07836026 0.0013615999 -0.10372721 -0.04642817 -0.1691002 0.17867689 -0.15122578 0.019206665
-0.18103735 -0.16203474 0.24003512 0.08923499 0.22181252 0.027190669 -0.16020614 0.0859844
-0.29661104 -0.06936815 0.07175937 -0.25552723 0.12909035 0.014289342 -0.1417208 -0.051809844
-0.25987294 0.10048805 0.28823608 -0.043406885 -0.14056815 0.01147939 -0.0034150514 -0.32768413
-0.040604033 -0.19123708 0.30704623 -0.12666158 -0.21394587 -0.1697991 -0.24533097 -0.20804276
0.14913666 -0.20536065 0.14285366 -0.27020797 -0.07506347 0.22401434 -0.19483052 -0.057240285
-0.16150442 0.13569017 0.030901741 -0.08683525 0.22624782 -0.12644304 0.03471909 0.18543176
0.077206634 0.095622405 -0.12272279 -0.1248647 -0.031359766 -0.13816151 0.11212141 0.03756228
-0.012399653 0.02251446 -0.17531978 -0.19459875 -0.011068771 -0.21885471 0.010602318 0.16851175
0.23036161 -0.024306757 -0.0135395685 -0.23405932 0.068098746 -0.15724005 -0.0655024 0.1736098
-0.25563917 0.22194928 0.030455826 0.23905893 -0.1876159 0.1813187 0.032918986 0.038593598
-0.026219355 -0.078029856 -0.23754305 -0.15862451 0.059038997 -0.04604013 -0.13065122 -0.30313286
-0.14732492 0.24464555 -0.028915774 -0.066020876 -0.16149788 -0.0026376427 0.049436368 -0.008241166
-0.18833156 -0.0376956 -0.012018124 -0.36013082 0.19961584 -0.19952716 -0.10927753 -0.055013552
0.0617396 -0.051050782 0.14021721 0.10188821 -0.16050808 -0.19553529 -0.022436395 0.12211753
-0.21385773 -0.019747563 -0.10938483 0.14348683 0.063534565 -0.051342025 -0.38052064 0.15690546
-0.03262288 -0.05060663 0.121116854 0.20797315 0.07690835 -0.16603535 -0.24641138 0.17889689
-0.2066096 0.21660931 -0.3432911 -0.3129775 -0.0084016435 0.1351001 -0.115038924 -0.25903764
0.0054123984 -0.24558596 0.14941709 0.06229485 -0.020930544 0.20687044 0.01003754 -0.23269674
-0.3139082 -0.003400594 -0.020187357 -0.13294044 0.06752727 -0.06340456 0.14931679 0.08021537
0.09383868 0.023087617 -0.05372893 -0.019594006 0.16265903 -0.1307526 -0.044452745 -0.18199836
-0.090530284 -0.048868064 -0.044884443 0.17700413 0.09125816 -0.29923972 0.14783129 0.05372531
0.009575859 -0.09438252 -0.06304185 -0.19851409 -0.16604772 -0.09130941 0.124419175 0.1865684
0.1997526 -0.17330517 -0.032932654 -0.051757596 0.052192952 -0.16735342 0.056198552 0.09130479
-0.07483781 -0.08565753 0.12820661 -0.074463725 -0.14654697 0.19925956 -0.33176517 -0.07494193
0.09298434 -0.06966647 -0.20661294 -0.028738186 -0.12394782 -0.050970063 0.03298428 0.019535415
0.15770385 -0.22539946 -0.3859092 -0.049341667 -0.26135758 0.20017129 0.014466267 0.025643535
-0.014420278 -0.23793729 0.04449878 -0.12910406 0.12605688 0.2735196 -0.09557123 -0.1019844
-0.12727185 -0.21735568 -0.3352385 0.025688572 0.010768957 -0.14227273 0.15371439 -0.2006633
-0.012939417 -0.03733334 0.15146369 -0.05974365 0.01253942 -0.027470853 0.20820814 -0.25879654
-0.13347776 0.1776483 0.1356603 0.0673936 0.24030292 -0.1562144 -0.20179892 -0.2760385
-0.27488413 -0.16602612 0.026802521 -0.1862889 -0.019100847 -0.028294608 0.12631752 -0.024453504

f_model.fc2.bias f4 [10]
00000000: c79d 4b3c fe42 803d 8769 1e3d f3ad b0bd
00000010: 105a 483b 0880 60bd 0af1 353e a6a4 ee3d
00000020: 668d ee3d f257 0abe
0.012427754 0.06262778 0.038674857 -0.08626928 0.003057126 -0.0548096 0.1776773 0.11652498
0.11648063 -0.13510111
