models/Adversarially trained models/robust_cnn_model_cons0.pt (torch, 456549 bytes, 8 tensors)

conv1.weight f4 [32, 1, 3, 3]
0.20100628 0.37497786 0.4878081 -0.1075179 0.39583787 0.49175158 -0.032026738 0.13245443
0.1429342 -0.16318099 -0.34462553 -0.37562752 -0.33584297 -0.043408193 0.014262533 -0.35365427
0.2593799 -0.12323714 -0.06392776 -0.20073643 0.36715478 0.28792086 0.36238414 -0.20157214
0.21056567 0.24871525 0.33023575 0.44903034 -0.0819474 0.29348513 -0.080682695 0.15754507
-0.08229901 -0.37993237 -0.22358917 -0.23734576 0.17821598 -0.012452007 0.21260062 -0.111009
0.47515234 0.33467495 -0.082126 0.43867385 0.06817684 -0.32997555 -0.093416154 -0.08886445
0.40333754 -0.11292748 0.4102456 0.14442557 0.3162678 -0.17095494 -0.38571596 -0.013971319
0.16388297 -0.23035945 -0.046823896 0.37569132 -0.10076291 0.10066132 0.25558394 0.231663
0.14464357 0.13461892 0.01719003 0.20671216 0.11875779 -0.2582524 -0.34249547 -0.21025476
0.22485088 0.39851627 0.37058058 0.025628446 -0.14179495 0.19119833 0.33538327 0.3083498
0.39880258 -0.10697757 -0.116782896 0.41952488 -0.22123219 0.37372598 0.106542 0.29583427
0.03235025 0.36002108 0.2482461 0.15858792 -0.08194463 -0.12710689 0.2545704 0.21568613
-0.19074102 0.5272403 0.44561002 0.4642399 0.22121748 0.30690587 -0.17809641 0.14680547
-0.18412927 -0.4103889 -0.36247623 -0.134534 0.3670912 0.36579907 0.34374726 0.397874
0.15150656 -0.056682743 0.416822 0.45547238 0.08619855 -0.0037022757 0.44573838 0.42748964
-0.15435275 0.076771885 0.05815342 -0.45849922 -0.29198822 0.0023049624 -0.07397954 -0.34724832
0.0020410093 0.031847037 -0.25622615 -0.31785366 0.531593 0.21709062 0.019791188 0.07814629
0.16483897 -0.2666394 0.09777994 -0.39770836 -0.2093683 -0.31285185 -0.10879095 0.5711828
0.46028715 0.15413372 0.51700914 0.19227414 0.20582451 0.5104424 -0.109187834 0.1365612
-0.10846972 0.11969336 -0.25885773 -0.121611245 0.48374346 0.3173691 0.17495666 0.37644702
0.08447156 0.076441586 -0.34143162 0.062935635 -0.12521362 0.070697404 -0.046413776 0.42974943
-0.1539304 0.4303967 0.33944327 -0.18392196 0.3839832 -0.14882308 0.3676299 0.4818322
0.13963765 0.15948108 0.3953766 0.0023027398 0.4510711 0.18391535 0.10483288 -0.023881033
0.0014856263 0.35679653 -0.4068095 -0.2072285 -0.24589434 0.0044646943 -0.18758212 0.06592994
0.1527731 0.39510214 0.1759384 -0.14334162 -0.014061066 -0.25442535 -0.37150595 -0.34867564
-0.13412908 0.31118628 -0.22005323 -0.1469308 0.29754338 -0.03171043 0.44903448 -0.07177646
-0.063093655 0.29697868 -0.36709732 -0.2780001 -0.33620238 -0.03044992 0.11647569 -0.22446796
0.107936084 0.1812398 -0.2793313 0.37729496 0.46284986 0.30393118 0.32404578 0.47657758
0.42468658 0.35389787 0.36688745 0.15598553 -0.018351559 0.1610456 0.29500073 0.16160241
0.43042314 0.009243215 0.32266515 0.35212517 0.12138759 -0.24012978 0.25485823 0.110703975
-0.1928916 -0.3881417 -0.024900792 -0.088568255 0.071130194 0.36855888 -0.19152036 0.08658793
0.13072652 -0.14945394 0.19051613 0.106415115 0.04803185 -0.23747012 -0.28921622 -0.1878205
00000000: 97d4 4d3e 19fd bf3e fcc1 f93e 5832 dcbd
00000010: 43ab ca3e ddc6 fb3e 782e 03bd 22a2 073e
00000020: 585d 123e eb18 27be c272 b0be 4052 c0be
00000030: 9cf3 abbe cacc 31bd 66ad 693c 2c12 b5be
00000040: 71cd 843e c163 fcbd 8fec 82bd da8d 4dbe
00000050: b6fb bb3e 5d6a 933e 6a8a b93e ed68 4ebe
00000060: 879e 573e 36af 7e3e a914 a93e 4ee7 e53e
00000070: 0ad4 a7bd af43 963e f83c a5bd 7f53 213e
00000080: 628c a8bd 7f86 c2be 8ff4 64be c40a 73be
00000090: 407e 363e 8103 4cbc fab3 593e b058 e3bd
000000a0: 2b47 f33e 845a ab3e ad31 a8bd dc99 e03e
000000b0: 4da0 8b3d 8ef2 a8be f850 bfbd 91fe b5bd
000000c0: 4282 ce3e 8646 e7bd b60b d23e 4ce4 133e
000000d0: daed a13e d00e 2fbe 907c c5be f6e7 64bc
000000e0: f0d0 273e 59e3 6bbe 6aca 3fbd 9d5a c03e
000000f0: c95c cebd 8627 ce3d e6db 823e 1139 6d3e
00000100: 721d 143e 8bd9 093e 1bd2 8c3c 5aac 533e
00000110: 4937 f33d a939 84be 915b afbe 064d 57be
00000120: 4f3f 663e 530a cc3e bdbc bd3e bff2 d13c
00000130: b232 11be 7fc9 433e 5bb7 ab3e 06e0 9d3e
00000140: da2f cc3e 0e17 dbbd df2b efbd f7cb d63e
00000150: b18a 62be 0359 bf3e b132 da3d 9777 973e
00000160: b281 043d af54 b83e 3a34 7e3e df64 223e
00000170: 96d2 a7bd 4f28 02be 0d57 823e d3dc 5c3e
00000180: 9d51 43be 38f9 063f ff26 e43e dab0 ed3e
00000190: d686 623e c422 9d3e e85e 36be 2c54 163e
000001a0: 628c 3cbe 7e1e d2be 7c96 b9be 48c3 09be
000001b0: 61f3 bb3e 044a bb3e a4ff af3e 24b6 cb3e
000001c0: 8924 1b3e 2a2c 68bd b169 d53e ad33 e93e
000001d0: de88 b03d e1a1 72bb d237 e43e ecdf da3e
000001e0: a60e 1ebe 943a 9d3d 4832 6e3d 69c0 eabe
000001f0: 7b7f 95be da0e 173b 9682 97bd 88ca b1be
00000200: 74c2 053b 0a72 023d 1330 83be b7bd a2be
00000210: 7b16 083f 014d 5e3e 2121 a23c 290b a03d
00000220: 8ccb 283e f684 88be d940 c83d 6ea0 cbbe
00000230: a564 56be 1e2e a0be cacd debd 0939 123f
00000240: c2aa eb3e 3bd5 1d3e b65a 043f 83e3 443e
00000250: a9c3 523e 5aac 023f df9d dfbd b3d6 0b3e
00000260: 5f25 debd cb21 f53d 0089 84be 510f f9bd
00000270: 39ad f73e 347e a23e d727 333e aabd c03e
00000280: 6dff ac3d 688d 9c3d 20d0 aebe 66e4 803d
00000290: 0038 00be cdc9 903d 5f1c 3ebd 1e08 dc3e
000002a0: ee9f 1dbe f55c dc3e 82cb ad3e 0a56 3cbe
000002b0: 7299 c43e 1465 18be fc39 bc3e b6b2 f63e
000002c0: 2cfd 0e3e 024f 233e cd6e ca3e 90e9 163b
000002d0: cbf2 e63e 4e54 3c3e 9fb2 d63d 28a2 c3bc
000002e0: 59b9 c23a 09ae b63e 5649 d0be b533 54be
000002f0: bacb 7bbe 924c 923b 8715 40be 4706 873d
00000300: 8d70 1c3e d44a ca3e 3229 343e 25c8 12be
00000310: 6360 66bc 0a44 82be 0736 bebe 9d85 b2be
00000320: 2259 09be cf53 9f3e a255 61be 0775 16be
00000330: 9b57 983e cce2 01bd d9e7 e53e 89ff 92bd
00000340: 3f37 81bd 970d 983e 2ef4 bbbe 0756 8ebe
00000350: b822 acbe 1c72 f9bc ce8a ee3d eeda 65be
00000360: 980d dd3d ed96 393e 8304 8fbe ce2c c13e
00000370: a8fa ec3e de9c 9b3e 54e9 a53e fa01 f43e
00000380: 8570 d93e 1a32 b53e acd8 bb3e acba 1f3e
00000390: 0256 96bc 23e9 243e 560a 973e 1a7b 253e
000003a0: 6c60 dc3e db70 173c 5e34 a53e c049 b43e
000003b0: 0f9a f83d 95e4 75be c77c 823e c4b8 e23d
000003c0: 6085 45be 82ba c6be bffc cbbc 4663 b5bd
000003d0: b5ac 913d c0b3 bc3e ea1d 44be 0355 b13d
000003e0: 2cdd 053e 740a 19be a916 433e 2bf0 d93d
000003f0: 0cbd 443d 5e2b 73be 2614 94be 0454 40be

conv1.bias f4 [32]
-0.032810498 0.22928385 0.02779829 0.15977171 -0.2117947 -0.008652592 -0.12921211 0.044320945
-0.09975344 -0.18413436 -0.0011377138 0.1327867 0.045361314 0.0023017097 0.21275976 0.026088303
-0.035706647 -0.02235574 -0.022471953 0.15432036 0.06458113 -0.00072212605 0.3636579 0.2602364
0.023350911 -0.22308509 0.29669514 0.004585516 0.24643141 0.0062063616 -0.015485219 0.2717001
00000000: 4d64 06bd 63c9 6a3e 3db9 e33c 329b 233e
00000010: b6e0 58be 9ac3 0dbc 2e50 04be e189 353d
00000020: 884b ccbd b88d 3cbe 571f 95ba 3df9 073e
00000030: c9cc 393d 48d8 163b b2dd 593e 23b7 d53c
00000040: 2241 12bd 6323 b7bc 1a17 b8bc 2806 1e3e
00000050: 1d43 843d 0f4d 3dba 5e31 ba3e b53d 853e
00000060: 694a bf3c 6b70 64be 6de8 973e 1942 963b
00000070: 8458 7c3e bc5e cb3b b7b5 7dbc 471c 8b3e

conv2.weight f4 [32, 32, 3, 3]
0.033292346 0.07657391 0.10429914 0.064247206 0.08638121 -0.10300188 0.033519167 -0.1135929
-0.014929922 0.024114374 -0.03955852 -0.073891506 0.0039527323 -0.06532764 0.056684088 -0.057616502
-0.030358678 -0.01852038 -0.025641995 0.13832794 0.090885356 0.09277964 0.07293182 -0.028074589
-0.012327732 -0.027042964 0.020868933 -0.08860555 -0.017197153 0.15864807 0.06782835 0.15088236
0.08223514 0.10616086 0.09451736 -0.006645924 0.062445953 0.14759752 0.075639844 0.052576974
-0.00052169204 -0.14206704 0.048544407 -0.17816143 -0.007729775 0.09451194 0.20992318 0.100373
0.24045818 0.058525223 -0.115585975 0.048514668 -0.022312175 0.077385865 0.088884056 0.18730564
0.010533584 0.2356151 -0.11208336 -0.13749444 0.008761395 -0.06092581 0.06893031 -0.08669084
0.03782231 0.15414523 0.07617275 0.18684295 0.10750341 0.16105084 0.09772638 -0.056257058
0.052296188 0.08378269 0.06759785 0.04453192 -0.018981937 -0.11228711 -0.039888024 -0.13828331
-0.07890785 0.115091845 0.10844094 0.033897985 0.15895836 0.034557726 -0.13432911 -0.025590787
-0.12862776 0.054815236 0.024331944 0.11583617 0.018095784 0.060208615 -0.047747184 0.002667019
-0.038437292 -0.061519805 0.048532713 -0.0016760806 0.015547303 0.18698707 0.008992899 0.13362534
0.11552932 0.11434458 0.15026568 -0.030542633 -0.065106384 0.028054817 0.09453005 0.033052277
0.0941906 -0.083119616 0.086423 -0.06958941 -0.09453497 -0.10729628 -0.036977373 0.1045544
-0.08326812 0.10548143 -0.0017943662 -0.018522544 -0.16003263 -0.16475773 0.017040854 -0.08457309
-0.12423853 -0.100747466 -0.16068314 -0.04328406 -0.092222214 -0.028560342 -0.03564358 0.26091304
0.18004493 0.05631649 0.27609152 0.16697425 0.33656916 0.12546137 0.18063438 0.21301949
-0.05599251 0.071270086 0.064818315 0.05463547 0.07087876 0.008557478 0.011906912 -0.080453694
-0.08071291 -0.070643015 0.043533944 0.074487634 0.04909531 -0.02243947 -0.13817346 -0.03629089
-0.0063807173 -0.007395894 0.14037795 0.0842882 -0.03728977 0.13305663 -0.106231645 -0.050399162
0.05351594 -0.02658029 0.13235101 0.05166033 0.018266464 0.10209603 0.077295735 0.09576919
-0.032479595 0.078821175 -0.11975441 -0.007118544 -0.09278806 0.008588137 0.08408416 0.054214213
0.11702235 0.05511345 0.10589765 0.078116395 -0.047931097 0.03718791 0.17673406 0.15906765
0.2815966 0.14305602 0.008452574 0.14772423 0.01837162 0.09164308 0.029318923 0.06603159
-0.09348116 0.04149428 -0.07983459 -0.0056932154 -0.029495774 -0.009026731 0.06414656 -0.02142706
-0.04436645 -0.09074509 -0.1569284 -0.09400983 0.01580597 -0.031873263 -0.040778168 -0.019851208
-0.012069175 0.047034938 0.027020454 0.017300202 -0.045444746 -0.1361472 -0.03781804 -0.034980595
0.014923447 -0.04801881 0.07425942 0.05894377 0.021769661 0.013198975 -0.087608576 -0.027310569
-0.14777254 -0.05182622 -0.08535788 -0.013322558 0.032987427 0.037650485 0.077641815 -0.009710377
0.0959007 -0.049850695 -0.05074381 0.07177242 0.11189313 0.06375901 0.16927646 -0.035683103
-0.021339178 0.05228485 -0.06357447 -0.060608573 -0.07318941 -0.09707305 -0.11455211 -0.1666086
00000000: 8e5d 083d c8d2 9c3d ca9a d53d 0a94 833d
00000010: a2e8 b03d a6f2 d2bd 654b 093d 65a3 e8bd
00000020: a29c 74bc 828b c53c 1d08 22bd 6e54 97bd
00000030: ec85 813b 7fca 85bd 932d 683d 48ff 6bbd
00000040: c3b2 f8bc 0db8 97bc 290f d2bc d7a5 0d3e
00000050: 1a22 ba3d 4003 be3d 475d 953d aefc e5bc
00000060: 41fa 49bc 3589 ddbc 53f5 aa3c d476 b5bd
00000070: 0be1 8cbc a474 223e 97e9 8a3d e880 1a3e
00000080: e66a a83d dd6a d93d 5192 c13d 0dc6 d9bb
00000090: 54c7 7f3d ce23 173e 10e9 9a3d f45a 573d
000000a0: 29c2 08ba 067a 11be 80d6 463d f36f 36be
000000b0: 0d4a fdbb 7a8f c13d 1af6 563e 5c90 cd3d
000000c0: ab3a 763e 25b8 6f3d 57b8 ecbd 51b7 463d
000000d0: 06c8 b6bc 7b7c 9e3d d808 b63d 0dcd 3f3e
000000e0: 0e95 2c3c 1645 713e f68b e5bd 58cb 0cbe
000000f0: f48b 0f3c 588d 79bd 562b 8d3d f88a b1bd
00000100: 91eb 1a3d 3fd8 1d3e 7500 9c3d c253 3f3e
00000110: bf2a dc3d 83ea 243e c524 c83d cd6d 66bd
00000120: 8734 563d 4296 ab3d be70 8a3d 1a67 363d
00000130: 0280 9bbc c9f6 e5bd a061 23bd 249a 0dbe
00000140: 709a a1bd 46b5 eb3d 4916 de3d 9dd8 0a3d
00000150: fbc5 223e 678c 0d3d 928d 09be c5a3 d1bc
00000160: ffb6 03be f185 603d c953 c73c 843b ed3d
00000170: 9c3d 943c 4f9d 763d 8d92 43bd 27c9 2e3b
00000180: 6c70 1dbd 31fc 7bbd 3dca 463d efaf dbba
00000190: 1dba 7e3c 8a79 3f3e f456 133c 15d5 083e
000001a0: a39a ec3d 7e2d ea3d 3fdf 193e 8b34 fabc
000001b0: 7f56 85bd 37d3 e53c f998 c13d d361 073d
000001c0: 00e7 c03d 9e3a aabd 8bfe b03d e584 8ebd
000001d0: 8d9b c1bd 27be dbbd 9675 17bd 9e20 d63d
000001e0: 7a88 aabd a606 d83d f030 ebba 97bc 97bc
000001f0: 98df 23be 40b6 28be 4399 8b3c a834 adbd
00000200: c570 febd b054 cebd 1f8a 24be a04a 31bd
00000210: 00df bcbd 61f7 e9bc 01ff 11bd 6596 853e
00000220: b35d 383e 1fac 663d de5b 8d3e 4cfb 2a3e
00000230: cb52 ac3e f278 003e 38f8 383e c821 5a3e
00000240: 6758 65bd 0df6 913d 77bf 843d 71c9 5f3d
00000250: e228 913d aa34 0c3c 3515 433c e8c4 a4bd
00000260: cf4c a5bd 49ad 90bd a650 323d f98c 983d
00000270: 2a18 493d fbd2 b7bc 587d 0dbe c2a5 14bd
00000280: 5615 d1bb 4159 f2bb 3dbf 0f3e 4b9f ac3d
00000290: 28bd 18bd ff3f 083e fa8f d9bd 5a6f 4ebd
000002a0: 8833 5b3d e9be d9bc 0687 073e c899 533d
000002b0: 8da3 953c b917 d13d 3a4d 9e3d a322 c43d
000002c0: 5309 05bd ff6c a13d cd41 f5bd ad42 e9bb
000002d0: ab07 bebd 42b5 0c3c 5134 ac3d b90f 5e3d
000002e0: 6aa9 ef3d a4be 613d dee0 d83d 7dfb 9f3d
000002f0: 6653 44bd 5a52 183d c6f9 343e a1e2 223e
00000300: 6e2d 903e 477d 123e aa7c 0a3c 0545 173e
00000310: 1480 963c 5eaf bb3d 3d2e f03c 923b 873d
00000320: 0d73 bfbd e8f5 293d 5180 a3bd 278e babb
00000330: 1fa1 f1bc dbe4 13bc 465f 833d cd87 afbc
00000340: 98b9 35bd 90d8 b9bd d7b1 20be 3a88 c0bd
00000350: 867b 813c 8a8d 02bd 0207 27bd 009f a2bc
00000360: cabd 45bc b5a7 403d 005a dd3c 27b9 8d3c
00000370: 4524 3abd 2c6a 0bbe 17e7 1abd d047 0fbd
00000380: 7981 743c 5faf 44bd 5315 983d 066f 713d
00000390: 4a56 b23c 8340 583c 206c b3bd 6aba dfbc
000003a0: af51 17be bb47 54bd 1dd0 aebd dc46 5abc
000003b0: d31d 073d 6537 1a3d ac02 9f3d 4618 1fbc
000003c0: 9667 c43d 3e30 4cbd bed8 4fbd 6bfd 923d
000003d0: 3a28 e53d 1594 823d cf56 2d3e 7228 12bd
000003e0: 80cf aebc a428 563d 5533 82bd b240 78bd
000003f0: 54e4 95bd 3cce c6bd 4c9a eabd 729b 2abe

conv2.bias f4 [32]
-0.060347773 -0.035790328 0.026306111 0.016244188 -0.067638494 -0.05161786 -0.036844905 0.002981945
-0.017965125 0.013707343 -0.030002547 0.0059202556 0.09429599 0.013405268 -0.052423995 -0.009687866
-0.03318706 -0.035191808 -0.06324199 -0.012518373 0.009375606 -0.016001714 0.051705267 0.0016780668
0.00054360245 0.040071256 -0.032351524 0.026965 -0.07621234 -0.023388008 -0.0579625 -0.027019717
00000000: 3a2f 77bd e198 12bd ea7f d73c 8812 853c
00000010: 0d86 8abd 406d 53bd afea 16bd bc6c 433b
00000020: 992b 93bc c394 603c e7c7 f5bc b4fe c13b
00000030: 421e c13d c5a1 5b3c 8bba 56bd dbb9 1ebc
00000040: 28ef 07bd 4925 10bd 0485 81bd dd19 4dbc
00000050: 249c 193c 0716 83bc e7c8 533d 94f2 db3a
00000060: 8b80 0e3a c221 243d 0883 04bd b4e5 dc3c
00000070: 3715 9cbd 3598 bfbc 166a 6dbd 7458 ddbc

fc1.weight f4 [128, 800]
-0.002873877 -0.0681293 -0.048319012 -0.06254662 -0.10270798 0.024452368 0.047007974 -0.039416928
-0.03242705 -0.06573043 0.048755925 0.05647244 -0.011912011 -0.026850196 0.03728815 -0.0060142023
-0.021881051 -0.030245667 0.008985692 -0.02544213 0.031036409 0.015376363 -0.014512634 -0.028263971
0.01479817 0.024689114 -0.021861972 0.043107744 0.03894304 0.024402533 -0.026862582 -0.0026373966
0.0010437598 0.019890236 0.03686015 0.01353909 -0.016724497 -0.029144755 0.035926357 0.0061207255
-0.04192019 0.0014820832 -0.022000587 0.019961067 0.019494876 -0.020532556 -0.02959458 0.008785794
0.027675686 -0.002741584 -0.0015757164 -0.016849797 0.023719504 0.0009403863 0.0067576068 -0.0051442976
0.010161892 0.009114625 0.004120827 0.02299627 -0.01883201 0.03003257 0.038222473 0.03492995
0.027563136 -0.018905303 -0.035248302 -0.055918925 0.023556435 -0.036029022 -0.02349782 0.02133212
-0.031609178 -0.02866623 0.020386932 0.008146927 -0.036109693 0.003060455 -0.022213377 0.019704727
0.023012796 -0.038195137 0.01055999 0.04063766 0.03005695 -0.0061356034 -0.04821038 0.008759006
0.034061603 0.031237932 -0.01334102 0.028653547 0.01987428 -0.019285243 -0.013449806 0.032808546
-0.023573922 -0.003757968 0.026870076 -0.03978079 0.037685852 -0.00770744 0.023897586 -0.016750986
-0.013009724 -0.0053947675 -0.0037497322 -0.005210295 0.013560531 -0.044431094 0.02900749 -0.0219315
-0.026827384 -0.019571545 -0.06514853 -0.039728735 -0.011517204 0.02874913 -0.04101633 -0.033823412
-0.0072218576 0.022205478 -0.034659702 0.02951873 0.021106664 -0.03313814 0.013906582 -4.8786846e-05
0.0301271 0.010964914 -0.061953284 -0.049561035 0.0028715956 -0.002918419 -0.019143837 0.005481767
-0.04600224 -0.023686571 -0.013303777 -0.006074542 0.0012748089 0.017081056 -0.0012560445 0.016656427
-0.0069556376 0.014625882 -0.024869682 -0.00275722 -0.0065639373 -0.020553606 0.027386509 0.03747958
0.004179705 0.08829565 -0.023533933 0.0067749633 0.045552872 -0.05481336 -0.063213214 -0.051360738
0.027744588 0.020031942 -0.0013311247 -0.04279022 -0.092191465 -0.006491867 -0.0034439329 0.027656982
0.015932878 -0.029385721 -0.00460421 0.013924736 -0.0018902005 0.010811764 0.00017210816 -0.063189775
0.015752545 -0.0034943959 -0.017855518 0.01358464 -0.036169678 0.017946707 0.015199778 0.06388799
0.10570071 -0.044574853 -0.026051916 0.00417507 0.068303 0.058750562 -0.02361195 0.008860131
0.017481651 0.004572308 0.01109819 -0.016750319 -0.032323133 -0.032273922 0.022119118 -0.017596118
0.007920573 -0.014836041 -0.018552262 0.010188986 0.003803139 -0.025791546 0.013629764 0.0048050066
-0.0034892014 -0.04813437 -0.013727118 0.010046914 -0.03584971 0.023437351 0.04720982 0.021053497
-0.003150423 0.015757827 0.0127941845 0.040524617 -0.0070087123 0.045326676 0.03610825 -0.039685648
-0.027023362 -0.0113380635 0.013757421 0.0051606586 0.055322636 -0.011388789 0.004445708 -0.047453728
0.00943102 0.036389623 -0.011293442 -0.00014654512 -0.033887316 0.006425063 -0.011480468 -0.029730402
-0.021839505 0.016739625 0.021780351 -0.01975351 0.02717261 -0.010975571 -0.023594335 0.0067473794
-0.02820602 0.0076182983 -0.024136648 -0.019439155 0.034406696 0.04167096 0.011085193 -0.027428674
00000000: a857 3cbb 6087 8bbd 28ea 45bd 7118 80bd
00000010: 9058 d2bd 5550 c83c 6f8b 403d a573 21bd
00000020: 3ad2 04bd ad9d 86bd 4bb4 473d a54f 673d
00000030: 982a 43bc f1f4 dbbc 76bb 183d c912 c5bb
00000040: e43f b3bc c3c5 f7bc b938 133c 046c d0bc
00000050: 1140 fe3c 24ed 7b3c 66c6 6dbc d889 e7bc
00000060: 0674 723c d340 ca3c e117 b3bc bf91 303d
00000070: bd82 1f3d d2e7 c73c eb0e dcbc 2cd8 2cbb
00000080: c4ce 883a d9f0 a23c abfa 163d 0fd3 5d3c
00000090: d001 89bc fbc0 eebc 8427 133d 5e90 c83b
000000a0: 81b4 2bbd 7642 c23a 933a b4bc 6485 a33c
000000b0: b8b3 9f3c e433 a8bc 5570 f2bc 4af2 0f3c
000000c0: 1fb8 e23c 26ac 33bb 4588 ceba 9608 8abc
000000d0: 684f c23c 4284 763a ea6e dd3b 7f91 a8bb
000000e0: 107e 263c 8255 153c 0108 873b ac62 bc3c
000000f0: 9645 9abc dd06 f63c 2b8f 1c3d b512 0f3d
00000100: 16cc e13c 4bdf 9abc 8660 10bd 3e0b 65bd
00000110: 6df9 c03c 2b93 13bd 807e c0bc b3c0 ae3c
00000120: a078 01bd 71d5 eabc 7f02 a73c b07a 053c
00000130: c2e7 13bd ea91 483b d4f8 b5bc cf6b a13c
00000140: 5585 bc3c 8172 1cbd cf03 2d3c ad73 263d
00000150: fe39 f63c 2c0d c9bb 3f78 45bd ef81 0f3c
00000160: 2e84 0b3d b1e6 ff3c 4b94 5abc d8ba ea3c
00000170: 63cf a23c 16fc 9dbc 935c 5cbc 4162 063d
00000180: 191e c1bc 3e48 76bb a21e dc3c 2ff1 22bd
00000190: 7b5c 1a3d b18e fcbb dfc4 c33c 5d39 89bc
000001a0: bd26 55bc 97c6 b0bb 11be 75bb 1fbb aabb
000001b0: fd2c 5e3c 61fd 35bd 1ea1 ed3c b0a9 b3bc
000001c0: 1ac5 dbbc 8154 a0bc 986c 85bd 99ba 22bd
000001d0: a8b2 3cbc 4c83 eb3c bd00 28bd 6b8a 0abd
000001e0: 55a5 ecbb 43e8 b53c 55f7 0dbd 43d1 f13c
000001f0: e2e7 ac3c dcbb 07bd 6fd8 633c 7aa0 4cb8
00000200: 1ccd f63c 2fa6 333c bac2 7dbd 8300 4bbd
00000210: 6131 3c3b f242 3fbb 89d3 9cbc 65a0 b33b
00000220: d86c 3cbd 570a c2bc 16f8 59bc f40c c7bb
00000230: 7d17 a73a 92ed 8b3c dca1 a4ba 0f73 883c
00000240: 1eec e3bb 65a1 6f3c 81bb cbbc 7ab2 34bb
00000250: 4c16 d7bb 0960 a8bc ac59 e03c 3084 193d
00000260: e8f5 883b 5ad4 b43d 3cca c0bc 8300 de3b
00000270: a695 3a3d f983 60bd ee75 81bd a35f 52bd
00000280: 9e48 e33c 071a a43c 2279 aeba cc44 2fbd
00000290: e1ce bcbd bab9 d4bb 9bb3 61bb e590 e23c
000002a0: ab85 823c 53ba f0bc eade 96bb 9324 643c
000002b0: 9bc0 f7ba d323 313c ef77 3439 a469 81bd
000002c0: 7b0b 813c 3c02 65bb bc45 92bc 1c92 5e3c
000002d0: a826 14bd f904 933c 7d08 793c b5d7 823d
000002e0: 9d79 d83d 1f94 36bd d46a d5bc 07cf 883b
000002f0: 71e2 8b3d 6ea4 703d d96d c1bc 152a 113c
00000300: ae35 8f3c 4dd3 953b 2fd5 353c f737 89bc
00000310: 4365 04bd a931 04bd 2733 b53c bc25 90bc
00000320: 4bc5 013c de12 73bc eafa 97bc b4ef 263c
00000330: 163e 793b cb48 d3bc 604f 5f3c 5173 9d3b
00000340: 16ab 64bb 8c28 45bd b5e7 60bc d09b 243c
00000350: 25d7 12bd b0ff bf3c 165f 413d 6278 ac3c
00000360: 5477 4ebb 8f16 813c b39e 513c 24fd 253d
00000370: 57a9 e5bb 77a8 393d 3fe6 133d 6b8d 22bd
00000380: 1960 ddbc 49c3 39bc ce66 613c be1a a93b
00000390: fd99 623d 0b98 3abc 4dad 913b d75e 42bd
000003a0: 9184 1a3c 490d 153d 2108 39bc e8a9 19b9
000003b0: 6dcd 0abd 5689 d23b 9318 3cbc 2c8d f3bc
000003c0: c3e8 b2bc 8a21 893c b56c b23c 1dd2 a1bc
000003d0: 1899 de3c e2d2 33bc e848 c1bc 1f19 dd3b
000003e0: 5010 e7bc eba2 f93b 38ba c5bc dd3e 9fbc
000003f0: 09ee 0c3d 2baf 2a3d ab9e 353c 19b2 e0bc

fc1.bias f4 [128]
-0.036779575 0.022192493 -0.007663357 -0.006602558 -0.006040081 0.025186216 0.022345545 0.0003661559
0.027987592 0.02309753 -0.027124554 0.053882938 0.024503604 -0.034478407 0.031730957 -0.042858995
0.047529545 0.028834121 -0.0020898296 0.009495686 -0.0031482961 0.033032015 -0.030198978 -0.039702322
-0.021967947 -0.021870766 0.022657929 -0.0053883805 -0.02008995 -0.01970589 0.0121206995 -0.019657396
0.027518617 -0.024783233 -0.026417494 -0.014973361 -0.016147036 0.0018297271 0.011598227 -0.02833805
0.015810765 -0.022871109 -0.01995648 0.0017048198 0.037425913 -0.035630874 -0.033779934 0.044658825
0.035901453 -0.010300493 0.007907908 0.043741897 -0.014335679 0.024618262 0.030716307 0.0010757428
0.04443492 -0.015257732 -0.028256238 0.027834378 0.025424434 -0.025372917 0.02182278 0.028419904
0.004891048 0.012706801 0.011560108 -0.0039112633 -0.0005506544 -0.00090108206 -0.031871628 -0.02898048
0.015412132 0.009919515 0.03271066 -0.018929776 0.011796676 0.027045656 0.010242986 -0.011872442
0.036987845 -0.006715597 -0.007903118 0.04276612 -0.0011034741 0.01631317 -0.040522244 -0.0023036818
-0.016196331 0.045393076 -0.034253154 -0.030117307 -0.0055384957 0.030471215 -0.006769936 0.0033631972
0.015232725 -0.014121209 -0.041585322 0.009178564 0.00857861 0.038777635 0.010316179 0.042891037
0.03159479 0.016840184 0.01014887 -0.010982021 0.034438074 0.003928901 0.01596653 0.023463912
0.014094429 -0.02343603 0.031211931 -0.01545068 0.010048028 0.023963286 -0.01705693 -0.009112804
0.023110332 0.024067387 -0.026555737 0.039461296 0.04447894 -0.022262523 0.004283395 -0.0354847
00000000: 2ea6 16bd 08cd b53c e61c fbbb 455a d8bb
00000010: dfeb c5bb 5353 ce3c 010e b73c 9df8 bf39
00000020: 3c46 e53c 0837 bd3c 5034 debc 5bb4 5c3d
00000030: c8bb c83c 3b39 0dbd 52f8 013d ea8c 2fbd
00000040: 57ae 423d 8935 ec3c 86f5 08bb cb93 1b3c
00000050: a553 4ebb 944c 073d d963 f7bc e79e 22bd
00000060: 20f6 b3bc 522a b3bc 1f9d b93c 0391 b0bb
00000070: ae93 a4bc 3f6e a1bc e695 463c 8c08 a1bc
00000080: b96e e13c 3506 cbbc 8069 d8bc d452 75bc
00000090: ca46 84bc 74d3 ef3a 7d06 3e3c 3325 e8bc
000000a0: 9485 813c 315c bbbc c67b a3bc 4374 df3a
000000b0: ea4b 193d aef1 11bd d45c 0abd 2cec 363d
000000c0: 670d 133d 66c3 28bc 2c90 013c b42a 333d
000000d0: 32e0 6abc 3dac c93c c4a0 fb3c f0ff 8c3a
000000e0: 6401 363d 91fb 79bc a079 e7bc ec04 e43c
000000f0: e746 d03c ddda cfbc b0c5 b23c dcd0 e83c
00000100: 1645 a03b 3030 503c 9b66 3d3c 0e2a 80bb
00000110: cb59 10ba 9836 6cba d38b 02bd 7968 edbc
00000120: 2b83 7c3c 7685 223c 9dfb 053d 9e12 9bbc
00000130: d846 413c da8e dd3c 32d2 273c a284 42bc
00000140: 9180 173d 830e dcbb 147c 01bc 872b 2f3d
00000150: 72a2 90ba 32a3 853c a7fa 25bd 5ef9 16bb
00000160: 2bae 84bc 17ee 393d 094d 0cbd 92b8 f6bc
00000170: 457c b5bb c59e f93c 57d6 ddbb 1669 5c3b
00000180: ae92 793c a55c 67bc 5f55 2abd b061 163c
00000190: 4c8d 0c3c 4cd5 1e3d 3105 293c 83ae 2f3d
000001a0: 8a69 013d 6df4 893c 7247 263c efed 33bc
000001b0: f00e 0d3d 03be 803b 3ecc 823c 6437 c03c
000001c0: 52ec 663c ebfc bfbc 2ab0 ff3c d924 7dbc
000001d0: 7ca0 243c a74e c43c faba 8bbc df4d 15bc
000001e0: e151 bd3c f828 c53c 6b8b d9bc 2ba2 213d
000001f0: 8d2f 363d e55f b6bc b95b 8c3b 6858 11bd

fc2.weight f4 [10, 128]
0.056636825 0.018797047 0.042460557 -0.010449815 -0.0056103496 0.070984386 -0.055784486 -0.081531875
0.066472575 -0.0642988 0.034297906 0.1076337 -0.06711237 -0.18904796 -0.12778075 -0.06349103
0.054697625 -0.0034197986 -0.059159663 -0.047068205 0.032044534 0.03409241 -0.12823597 -0.021580404
-0.08427575 -0.03202903 -0.08248377 0.08291827 -0.115155324 -0.10529604 -0.06550513 0.012452445
-0.08711212 0.009641076 0.007470358 0.000482447 -0.12213968 -0.16741112 0.09138038 0.04582823
0.05395683 0.04197722 0.050746426 -0.012633079 0.11333761 -0.07333877 0.06453246 0.0989032
-0.112478144 0.023668487 -0.097581826 -0.041195445 -0.040360823 -0.018663526 -0.079269566 -0.122449405
-0.07773061 -0.11376835 -0.12826487 -0.024868313 0.051671535 -0.17265491 0.11744169 0.08050285
-0.063105494 -0.0787292 0.14141794 0.08353593 0.015947618 -0.007681173 0.04688622 0.00128366
-0.08502705 0.0072063175 0.10924553 -5.3661937e-05 -0.09796691 0.01738625 -0.10825441 -0.005726639
0.037911255 0.03454733 -0.01586921 -0.01725044 0.04262257 -0.06922217 0.103454046 0.016794926
-0.026569603 0.063179746 0.019655127 0.028441954 -0.1284245 0.08950794 -0.07615261 -0.08025755
-0.033354763 -0.029690538 -0.1385938 -0.07727638 0.02926276 -0.09971968 0.069459416 -0.097908884
-0.029302558 -0.13403964 0.012827451 -0.050954405 -0.10262035 3.8818365e-05 0.10794793 0.04432482
0.11785985 -0.06630681 0.105508395 0.007944973 -0.00631828 0.027640494 -0.018493565 0.10699114
0.11330651 0.105563894 0.04624129 0.07653279 0.10258146 0.06858251 0.11899535 0.051174365
0.09955738 -0.077094555 -0.098828234 0.06528018 0.09535181 0.007890905 -0.14597172 -0.20843807
-0.04844174 0.0483449 0.053251952 0.13651733 0.11719413 0.045693595 0.041405734 -0.05531481
0.01760421 -0.025814993 0.053613603 0.12525944 -0.12396224 0.07470205 -0.01134899 0.15590541
0.11542477 0.102674216 0.03971748 0.04169935 -0.067280024 0.10199062 0.039037887 -0.098281555
0.019750169 -0.04147913 0.0054380824 -0.03857644 -0.015637664 0.019057043 0.03005571 0.007948031
0.024855819 0.009646706 0.037261255 -0.016697736 0.08233593 -0.024653621 0.012999274 -0.028931746
0.025011914 -0.09929133 0.08434273 0.003883689 0.00070908584 0.13945621 0.04152266 0.09835074
0.0073386235 -0.10087989 0.07188674 0.10486914 0.07862127 0.10681366 -0.022558102 -0.046809576
0.04038 0.09396043 0.08503135 -0.07509772 -0.12553766 -0.06421141 -0.12734923 0.067770876
0.026605316 -0.07180797 0.037346 -0.12312353 0.124616295 0.05108012 -0.100763075 0.04453443
0.04396884 0.053797968 0.009089906 -0.075083636 -0.12055539 -0.08918699 0.030136874 -0.09354643
0.030729389 0.06670094 0.06667981 0.06558474 0.09804688 -0.037629444 -0.06448113 0.08525204
0.0597226 0.06679921 0.15082791 -0.0016913046 0.08089459 0.004259238 0.048814125 0.0715765
-0.055639524 0.08304236 -0.092914805 -0.0069175763 -0.08860117 -0.16671905 0.05899139 -0.03397196
-0.023189286 -0.015302442 0.113215394 -0.10220378 0.056512702 0.018262956 0.053834546 0.036831044
0.062356226 0.0076593645 -0.036350444 0.07894225 -0.1002459 -0.12204501 0.0142556755 0.07428794
00000000: 04fc 673d 44fc 993c 1feb 2d3d b335 2bbc
00000010: 06d7 b7bb 4360 913d 467e 64bd 2ffa a6bd
00000020: c622 883d 17af 83bd f67b 0c3d 0f6f dc3d
00000030: 3672 89bd ca95 41be f5d8 02be 9607 82bd
00000040: 9e0a 603d b31e 60bb 6751 72bd 97ca 40bd
00000050: 2141 033d 7ca4 0b3d 4a50 03be 63c9 b0bc
00000060: c498 acbd df30 03bd 40ed a8bd 0ed1 a93d
00000070: 8ed6 ebbd 73a5 d7bd 8e27 86bd 5705 4c3c
00000080: d767 b2bd 9bf5 1d3c e8c9 f43b f1f0 fc39
00000090: 5e24 fabd d26d 2bbe a325 bb3d 62b6 3b3d
000000a0: d601 5d3d 4ef0 2b3d 7cdb 4f3d f9fa 4ebc
000000b0: 8d1d e83d a332 96bd 9829 843d c38d ca3d
000000c0: f15a e6bd 6ae4 c13c fbd8 c7bd 8ebc 28bd
000000d0: 6451 25bd 40e4 98bc 1558 a2bd c1c6 fabd
000000e0: 3a31 9fbd 61ff e8bd de57 03be a2b8 cbbc
000000f0: 88a5 533d 73cc 30be 4585 f03d aede a43d
00000100: 743d 81bd c63c a1bd ddcf 103e e314 ab3d
00000110: 94a4 823c 59b2 fbbb c40b 403d 7b40 a83a
00000120: a922 aebd f922 ec3b 1fbc df3d 1113 61b8
00000130: e0a2 c8bd 9c6d 8e3c 7db4 ddbd 88a6 bbbb
00000140: d548 1b3d 8081 0d3d 2500 82bc cb50 8dbc
00000150: 0195 2e3d 5ac4 8dbd b7df d33d 8395 893c
00000160: 7fa8 d9bc 6264 813d ca03 a13c 1aff e83c
00000170: b681 03be f04f b73d e6f5 9bbd 125e a4bd
00000180: 019f 08bd 9239 f3bc 88eb 0dbe 1443 9ebd
00000190: 75b8 ef3c d539 ccbd bd40 8e3d 7484 c8bd
000001a0: eb0b f0bc b041 09be 3b2a 523c 91b5 50bd
000001b0: 9e2a d2bd e7d0 2238 ce13 dd3d f18d 353d
000001c0: 8160 f13d ddcb 87bd c914 d83d a22b 023c
000001d0: 9309 cfbb 516e e23c d17f 97bc 2c1e db3d
000001e0: 3e0d e83d e231 d83d 8267 3d3d 39bd 9c3d
000001f0: 3a16 d23d fd74 8c3d d6b3 f33d 369c 513d
00000200: bde4 cb3d c0e3 9dbd 7566 cabd 9db1 853d
00000210: cf47 c33d db48 013c 9c79 15be ca70 55be
00000220: d96a 46bd 4d05 463d b81e 5a3d 33cb 0b3e
00000230: 7a03 f03d 3529 3b3d 0f99 293d c891 62bd
00000240: b436 903c f779 d3bc f099 5b3d 0344 003e
00000250: eadf fdbd 63fd 983d 1df1 39bc aba5 1f3e
00000260: d263 ec3d dc46 d23d ccae 223d f0cc 2a3d
00000270: 1cca 89bd 75e0 d03d 31e6 1f3d d747 c9bd
00000280: 1bcb a13c 05e6 29bd f131 b23b 5402 1ebd
00000290: 8f1a 80bc 841d 9c3c 6437 f63c 7538 023c
000002a0: 6e9e cb3c 380d 1e3c 429f 183d b1c9 88bc
000002b0: bd9f a83d 64f6 c9bc e8fa 543c 4502 edbc
000002c0: c9e5 cc3c 4159 cbbd e2bb ac3d 7d85 7e3b
000002d0: f2e1 393a 9ccd 0e3e aa13 2a3d 1d6c c93d
000002e0: d678 f03b 1e9a cebd 5b39 933d a2c5 d63d
000002f0: 3004 a13d 1fc1 da3d c5cb b8bc 66bb 3fbd
00000300: 8065 253d 536e c03d eb24 ae3d d5cc 99bd
00000310: f28c 00be 4681 83bd d667 02be 75cb 8a3d
00000320: 64f3 d93c 0f10 93bd 1ff8 183d 3028 fcbd
00000330: d436 ff3d 6339 513d df5c cebd bc69 363d
00000340: ac18 343d 425b 5c3d d4ed 143c 73c5 99bd
00000350: bfe5 f6bd aba7 b6bd 9be1 f63c 4595 bfbd
00000360: 33bc fb3c 819a 883d 6d8f 883d 4b51 863d
00000370: cdcc c83d 5521 1abd af0e 84bd 9f98 ae3d
00000380: af9f 743d 06ce 883d a272 1a3e c4ae ddba
00000390: 10ac a53d 1491 8b3b 52f1 473d b396 923d
000003a0: 45e6 63bd 1d12 aa3d 1e4a bebd d6ac e2bb
000003b0: 8874 b5bd 66b8 2abe f5a0 713d 2f26 0bbd
000003c0: 75f7 bdbc 18b7 7abc 79dd e73d 3750 d1bd
000003d0: dd79 673d 329c 953c 9d81 5c3d 26dc 163d
000003e0: 3e69 7f3d 68fb fa3b 34e4 14bd 79ac a13d
000003f0: b94d cdbd bcf2 f9bd a390 693c 4724 983d

fc2.bias f4 [10]
0.100834884 0.026928853 0.0314093 -0.019135237 -0.018016618 0.025454557 0.041898698 -0.041742723
-0.022014033 0.042069063
00000000: 8582 ce3d e699 dc3c 0aa7 003d 80c1 9cbc
00000010: 9697 93bc 1386 d03c f89d 2b3d 6bfa 2abd
00000020: c656 b4bc 9c50 2c3d
