models/Adversarially trained models/robust_sequential_model_0.pt (torch, 461138 bytes, 12 tensors)

g_model.conv1.weight f4 [32, 1, 3, 3]
000000 5a f3 2e be 0d 01 8b 3e 2d 39 63 3e 31 de b6 be
       -0.17085019 0.2714924 0.2218978 -0.35716394
000010 c3 da a0 bd 31 80 02 be db d6 bb be 33 79 bc 3e
       -0.078542255 -0.12744214 -0.3668736 0.36811218
000020 b5 94 a9 3d 7a 09 8a 3e dd 0c c2 3d b2 e2 ff 3a
       0.08280317 0.26960355 0.0947511 0.0019522517
000030 cc 0e 91 bd cc f3 99 be 86 8b 93 bd 25 ad cf be
       -0.070829004 -0.30068815 -0.07204346 -0.40561786
000040 fb 96 29 3e 31 53 9c be 3a f7 ed 3b ac e8 6c 3d
       0.165615 -0.3053222 0.0072621377 0.05783908
000050 be 4a 8c 3e cf 64 80 bd 6a 43 af 3e 68 d1 5d 3e
       0.27400774 -0.06269228 0.3423112 0.21661913
000060 79 33 1f be b7 c6 80 be 88 e2 58 3e 37 4e b6 3e
       -0.15546979 -0.25151607 0.21180165 0.35606548
000070 b6 1e 17 be 6d 76 97 be 76 9c c3 3d 60 7b eb bd
       -0.14757809 -0.2958254 0.09551327 -0.11498141
000080 45 0a 82 3e a0 68 57 3e 7f 50 aa 3e 9f 34 09 3e
       0.2539846 0.21036005 0.3326454 0.1339898
000090 ea 44 39 be 8a 7a b3 3e 51 2c 80 3e 5e a3 08 be
       -0.18092695 0.35054427 0.2503381 -0.1334357
0000a0 db ea af 3e cf ff f3 bc 4b e4 0d bd 1d 24 8e 3e
       0.34358868 -0.029785065 -0.034641545 0.27761927
0000b0 49 23 b6 bc 61 11 96 3d 32 e4 9a 3e 8b 3e e2 3c
       -0.022233622 0.073275335 0.30252224 0.027617713
0000c0 9f d8 1d 3d 30 56 15 3c 75 97 09 be ed 70 04 3e
       0.038536664 0.009114787 -0.13436683 0.12933703
0000d0 e0 10 a4 3e 4b bf 61 3e 49 aa c7 3c 81 f5 0e be
       0.32044125 0.22045629 0.02437319 -0.1396084
0000e0 27 00 d4 3e ab de 8e 3e 62 b6 32 bd a4 1a 00 3e
       0.41406366 0.27904257 -0.043630965 0.12510163
0000f0 ec 81 bb 3d 53 7d 34 3e 4a 38 84 be 9a f5 8d bd
       0.0915564 0.17625932 -0.25824195 -0.069316104
000100 6d f1 e8 bd eb fc 58 3e a2 95 b7 3e 88 3e b6 3b
       -0.11374173 0.2119023 0.35856348 0.0055616535
000110 bd 15 9b 3e c1 64 3b 3d e3 19 b9 3e 41 db e7 bd
       0.30290022 0.045750383 0.36152562 -0.11321116
000120 c2 3b bb bd ef 55 2a 3d b1 4c 8e 3e b4 65 78 be
       -0.09142257 0.04158586 0.27792886 -0.24257547
000130 ac 27 cc 3e 4f aa 86 3e d2 51 ff 3d 83 13 74 bd
       0.39874017 0.2630181 0.12466778 -0.05958892
000140 0f 3a ba 3e bc 9d 31 be a9 6c 93 be 38 76 8a 3e
       0.3637242 -0.17345327 -0.2879384 0.2704332
000150 5b c0 8a be e4 8e 5b 3e d7 75 f5 bd 4e e8 a1 3e
       -0.2709988 0.21441227 -0.11985367 0.31622547
000160 ca f2 35 be fa b6 d5 3e 15 19 b1 3e e6 d4 00 3e
       -0.17768398 0.41741163 0.3458945 0.12581214
000170 9f f2 bf 3d c6 b1 cb 3d 68 d5 82 3e f2 07 b1 3e
       0.09372448 0.09946017 0.2555344 0.34576374
000180 e3 5f bd 3e f6 e3 32 3c 2c 5a 2a 3c 01 c6 99 3e
       0.36987218 0.010918608 0.010397475 0.30033877
000190 9a f2 bf 3e db ab e4 bd ef 47 cb bd 64 e5 1b 3d
       0.37489778 -0.11165591 -0.099258296 0.03806056
0001a0 a1 fe 35 3e 78 5a 22 be ff 5a a7 3e a7 4e d2 3e
       0.17772914 -0.15854824 0.32686612 0.41075632
0001b0 76 45 2d be 9d 51 a0 3e 56 de 9d 3d b8 67 e4 3d
       -0.16921028 0.31312266 0.07708423 0.11152595
0001c0 6c 14 9c 3e 38 6d 94 3e 9b 89 b4 bd 9e c1 c7 be
       0.3048433 0.28989577 -0.08815309 -0.39014906
0001d0 2f de 8e be b5 6d 4b be 0d 24 43 bd 97 04 bd be
       -0.27903888 -0.19866069 -0.047641803 -0.36917564
0001e0 25 97 cd 3e a7 11 42 bd 3e 8c 6d be b1 0e d6 3e
       0.40154377 -0.047380116 -0.2319803 0.41808084
0001f0 35 70 ef 3d d2 7d 34 3c 8d f5 cb 3e 03 c0 c8 3e
       0.11691324 0.011016326 0.39835778 0.39208993
000200 a6 b6 de 3d fe 3c 26 be 3f 05 78 3e 06 d4 ad 3d
       0.10874681 -0.16234204 0.24220751 0.08487706
000210 8f f8 9a be 5c a1 76 3c 33 48 a8 3e a9 88 ea bc
       -0.3026776 0.0150531195 0.32867584 -0.028629618
000220 f3 ec 4b bd 89 d0 ef bc 02 72 24 3e 1f 09 b0 3e
       -0.04978652 -0.029274242 0.16059116 0.3438196
000230 2a 68 3b be 11 be 5d bc ce a1 da 3e 7e c9 e7 bd
       -0.18301454 -0.013534085 0.42701572 -0.113177285
000240 7c 0f bc bd 5c 05 04 be 54 25 de bd ab b3 90 3c
       -0.09182641 -0.1289267 -0.108469635 0.017663797
000250 47 52 98 be 72 42 ff ba d4 c6 71 be 85 41 64 be
       -0.29750273 -0.0019474758 -0.23611003 -0.22290619
000260 a3 0b 31 be d3 2d 13 3e dd 08 44 3e 1a e7 19 be
       -0.17289595 0.1437295 0.19144006 -0.15029564
000270 2d cb 9c 3d 58 49 96 3e 27 4d a5 3e f4 22 31 3e
       0.0765594 0.29352832 0.32285425 0.1729849
000280 c9 92 9d 3d 7d 93 c9 3d d8 2c 47 3e 9d 87 9e 3c
       0.07694013 0.09842584 0.194507 0.019351775
000290 60 40 85 be 5a 02 a4 3e 86 1f 62 3d 41 02 b0 3e
       -0.26025677 0.32033044 0.055205844 0.3437672
0002a0 98 77 cd 3e f5 9f d4 3d 77 b2 a2 3e 8b a9 9d bc
       0.40130305 0.10382072 0.31776783 -0.019245883
0002b0 68 f0 21 be dd 18 2e 3e 99 36 2f bc ac f2 87 be
       -0.15814364 0.17001672 -0.010694169 -0.2655233
0002c0 3b d5 af 3e c9 49 38 be 9b f0 24 bd 53 2d bf 3e
       0.3434237 -0.17996897 -0.04026852 0.37339267
0002d0 42 1c cc 3e 5c e5 8f 3d b6 5c bb be 18 3f 79 bd
       0.3986531 0.07026169 -0.3659417 -0.060851187
0002e0 13 94 7d bc 5c ae 40 3e be bf e7 3e 69 d3 6d be
       -0.015477198 0.18816513 0.45263475 -0.23225178
0002f0 8a 85 ae be bc 71 c5 3e 2a 77 42 3e 56 e4 9d ba
       -0.34086257 0.38563335 0.1899077 -0.0012046199
000300 a2 9d c9 3d b4 f2 65 3e cb bf 3a 3e 75 23 d8 bd
       0.09844519 0.22455865 0.18237226 -0.10553638
000310 ff ea 85 be 9b 51 d3 3d 69 48 21 bd e3 71 58 bd
       -0.2615585 0.103182994 -0.039375696 -0.052842986
000320 cd 73 67 3e d6 8c 7f 3b 34 29 1a 3e 2f 3a c8 3e
       0.22602768 0.0038993857 0.1505478 0.3910689
000330 20 a5 ce 3e b7 90 8f 3e 48 cd 17 3d a2 5f ed bd
       0.40360355 0.28040096 0.037061006 -0.11590506
000340 a4 34 35 3e 48 11 8f be cb 57 d1 3e 13 1c 5d 3e
       0.17695862 -0.27942872 0.40887293 0.2159274
000350 86 c4 2c bd e0 84 ad 3c c9 17 b4 3d 6f 6a 8d 3e
       -0.042179607 0.021181524 0.08793599 0.27620265
000360 84 9e d0 3c d9 f4 5a 3e e3 a4 83 be 89 67 80 bd
       0.025466211 0.21382464 -0.25711736 -0.06269748
000370 bb d2 a1 3e e4 14 24 bd 5a b8 4a bc e9 b7 88 3e
       0.31606087 -0.040058985 -0.012373054 0.26702812
000380 86 0e c4 3e b5 fe 16 3e 83 a1 36 be 68 78 a2 3e
       0.3829233 0.147456 -0.1783505 0.31732488
000390 73 83 41 3e 91 85 9b 3e 25 0c 6e be 59 ce 9c 3e
       0.188978 0.3037534 -0.2324682 0.3062618
0003a0 4a 82 35 3e 6c e0 8d be f0 f4 06 be 57 83 4c 3d
       0.17725483 -0.27710283 -0.13179374 0.049929943
0003b0 26 c5 d1 3c c1 aa e9 bd fd 9b 56 be 08 47 6c be
       0.025606703 -0.11409522 -0.20957942 -0.23073971
0003c0 02 d9 92 be 8e 60 3e be 34 f2 11 be c0 16 87 bd
       -0.2868119 -0.1859152 -0.1425255 -0.06596136
0003d0 11 2a 90 3e f8 f6 52 3e f8 87 75 3e 2b 63 60 3e
       0.28157094 0.20602024 0.23977649 0.2191283
0003e0 c7 2a 55 3e 5e fa 8c be 79 b8 a2 be d4 26 43 bc
       0.208171 -0.27534765 -0.31781366 -0.011911113
0003f0 79 2a 7e be 88 7c 99 be 17 4e 54 be b9 25 ab bd
       -0.2482089 -0.29977822 -0.20732914 -0.083568044

g_model.conv1.bias f4 [32]
000000 52 12 ce 3d d7 f4 89 3e bb e4 c7 bc c1 38 5a be
       0.10062088 0.2694461 -0.02440106 -0.21310712
000010 7a 06 3a be 84 13 a1 3e 9b 3f 87 39 bf 8a 20 3b
       -0.18166533 0.31460202 0.00025796596 0.0024496762
000020 76 5e 04 be 22 2b 7c 3c f6 02 d9 3d 5b 77 f8 bd
       -0.12926659 0.015391143 0.10596268 -0.1213214
000030 6b fe 21 be cc 6e 91 bc a8 11 50 be de 3e 26 3e
       -0.15819709 -0.017753027 -0.20319235 0.1623492
000040 c7 dc bf 3d c8 07 ee 3d d9 ed 72 3d 5c 66 5b be
       0.09368282 0.11622578 0.05930886 -0.21425766
000050 24 b0 32 be 59 84 17 be a3 f2 ac 3b 3e 76 86 3e
       -0.17450005 -0.1479658 0.005277948 0.26262087
000060 70 36 9d 3c a0 8b f4 bd 7b 53 98 3d fe 39 09 bc
       0.019190997 -0.11940694 0.07437798 -0.008375643
000070 8c f1 a6 3d e7 2a 36 be 05 c8 16 3e af a9 28 be
       0.0815154 -0.17789803 0.14724739 -0.16470979

g_model.conv2.weight f4 [32, 32, 3, 3]
000000 a1 bd 5d 3c 2b 29 94 bd e9 2a 1c bd 3c 28 95 3d
       0.013533981 -0.07234415 -0.03812686 0.07283065
000010 2b 4e 8d 3d 66 46 67 3d f0 f5 36 3d 15 22 d3 bc
       0.06899675 0.05646362 0.044668138 -0.025773088
000020 d9 93 d3 bc 5f 43 d5 bc 4e 9f 11 3d 99 db f1 bc
       -0.025827335 -0.026033102 0.035552315 -0.029523658
000030 c2 6e 17 bd 4e a9 8a bd ee db b9 bd 59 f9 d8 3c
       -0.03697086 -0.067705736 -0.090751514 0.026486086
000040 db 9c 8d 3c 75 93 d1 3c 57 5e 99 3d 97 75 30 3c
       0.017286709 0.025583008 0.07488697 0.010770223
000050 e7 33 d6 bd 31 64 6c 3d 24 3a 81 bd ba 5f 68 bd
       -0.10459118 0.057712737 -0.063099176 -0.056731917
000060 71 00 9a 3d c9 da 9a 3c d8 6d 68 3d ad c5 23 3d
       0.075196154 0.018903153 0.05674538 0.03998344
000070 87 41 b0 bc d7 e7 2f 3d 09 4a 5e 3d e0 db 16 3c
       -0.02151562 0.04294571 0.054269824 0.009207696
000080 d2 94 55 3d 50 9a 48 3d f5 02 c2 3d 0e 87 23 3c
       0.05214388 0.04897529 0.0947322 0.00998093
000090 ad db 69 3d 13 1f 76 3d 19 23 ae 3c ef e2 83 3d
       0.057094265 0.06008823 0.02125697 0.064397685
0000a0 2a c4 13 3d 06 ae 5a bd d2 da 92 3d 8a 80 c5 bc
       0.03607575 -0.053388618 0.07170643 -0.024109144
0000b0 4c cf 19 bc 8c c5 8e 3d e7 39 65 bc 48 cd 51 bc
       -0.009387802 0.06971273 -0.013990856 -0.0128052905
0000c0 96 ac 21 3d 68 29 51 3b 66 8c 25 3d 49 a8 cf bc
       0.03947123 0.003191555 0.040417098 -0.0253488
0000d0 c2 96 75 3d d9 be 65 3d 14 8d c6 3b 97 92 1f 3c
       0.059958227 0.05609021 0.0060592983 0.00973954
0000e0 65 8f 2e 3c 65 4f 19 bd f6 33 81 bd 5f 78 87 bd
       0.010654305 -0.037429232 -0.06308739 -0.06614756
0000f0 cc 7c 69 3c 9b b0 c5 bc c2 02 03 3d 4d eb be 3d
       0.014250945 -0.024132064 0.031985052 0.09322224
000100 45 17 db 3b a7 a2 06 bd 3b 60 3f bd 3f 3b d4 bc
       0.0066861236 -0.03286996 -0.046722632 -0.025907157
000110 5c 3f 35 bd 24 ef e9 3c cc f0 04 3d c4 cc b2 3d
       -0.044249877 0.028556414 0.032456204 0.08730462
000120 af b7 a5 3d c2 7d 82 3d a3 fd f8 bc 96 bf 9c 3a
       0.080916755 0.06371643 -0.03039438 0.0011958953
000130 9a 8e 06 3d 86 3f 0e 3c c5 32 6a 3c 96 f8 5b 3d
       0.03285084 0.008682137 0.014294331 0.053703867
000140 91 68 93 3d 28 4d b1 bc c4 8e 4b bd e0 76 6a bc
       0.07197679 -0.021643236 -0.0496967 -0.014310569
000150 ae 64 91 bc 10 92 be bc aa 84 d0 bc e5 ee 59 bc
       -0.017748203 -0.023263007 -0.025453884 -0.013301586
000160 07 6e bc bc dd 90 18 3d ac 93 83 ba de d6 42 3d
       -0.023001684 0.037247527 -0.0010038516 0.047568195
000170 68 92 7b bd 28 8a c2 bc 3d 77 e0 3c cf 3d b7 bb
       -0.06141892 -0.023747519 0.027400607 -0.005592085
000180 46 ca 76 3c 34 34 9a 3c 0a 4d 15 bc da 6c 91 3d
       0.015062874 0.01882372 -0.009112606 0.0710084
000190 55 e1 5f bc 40 21 88 bd a9 f6 92 3d 10 13 99 3d
       -0.013664563 -0.06646967 0.07175953 0.07474339
0001a0 53 29 a4 bc c0 c1 a5 3d 5a 6a cc 3b 99 22 ce 3d
       -0.020039236 0.080935955 0.006238264 0.10065193
0001b0 66 db 9f bd 07 91 8a bd 4c 2a e8 bd f7 49 d3 bd
       -0.07805519 -0.06765943 -0.113361925 -0.10316842
0001c0 d6 9a ed bd 8b 4c 5f bd b7 0a 99 3d 4f 7e fe 3d
       -0.11601798 -0.054516356 0.07472747 0.12426435
0001d0 49 19 87 3d 19 03 35 bd 68 69 8d bc 31 3e 09 39
       0.0659662 -0.044192407 -0.017262176 0.00013088506
0001e0 47 68 80 bd 27 ed c4 3b e5 ae e3 3b 00 37 32 bd
       -0.06269889 0.006009716 0.0069483393 -0.043509483
0001f0 97 d9 84 3d 8e e3 e6 3c c7 b5 37 bc 92 c3 d7 bc
       0.064868145 0.028184678 -0.011212773 -0.026338372
000200 1a 5a df b9 db e8 3b 3d d4 df 59 3d 0e 2f 8b bd
       -0.00042601005 0.045876365 0.053191975 -0.06796084
000210 6a 9c 4e 3d c6 e5 76 bc ab ed 4a 3d 2d f5 88 3d
       0.050442137 -0.015069431 0.049543064 0.066873886
000220 61 b0 2e 3d 39 28 9f bc c4 c8 80 3d f0 4e b6 3b
       0.042648677 -0.01942836 0.06288293 0.0055636093
000230 44 7e 03 3d de 07 3d 3d ea e6 99 3d 3e fd 3c 3d
       0.03210284 0.04615008 0.075147465 0.046139948
000240 de 5c 9f bd 1c 48 42 bc e9 bc 81 3c ee dc f3 bc
       -0.07781385 -0.0118580125 0.01583715 -0.029768433
000250 d2 65 bb 3b e7 28 0f 3d ec d6 f1 bc 57 a4 74 bd
       0.005718925 0.034951117 -0.029521428 -0.05972704
000260 67 29 bf bc b3 07 a9 3d 52 3c 98 3d af 2f 98 bd
       -0.023335172 0.08253422 0.0743338 -0.0743097
000270 14 65 a3 3d f5 4a 7f 3d 71 ec 39 bd 3a 0b ac 3d
       0.079782635 0.062327344 -0.045391504 0.08400579
000280 12 1a 44 ba 45 73 21 bb 49 10 93 3d 80 6b 91 3d
       -0.00074806914 -0.0024635356 0.071808405 0.07100582
000290 90 20 a4 bd a8 b6 0f bd 7e 18 14 3d df 18 16 3d
       -0.08014023 -0.035086304 0.03615617 0.036644813
0002a0 7c b6 f4 3c 72 2a d3 3c 21 28 9c 3d 9a d2 11 3e
       0.029872172 0.025777075 0.076248415 0.14240494
0002b0 1b 6e 93 3d f1 ae c2 bc 9e b9 4b 3d 7b b4 34 bd
       0.07198735 -0.02376506 0.049737565 -0.044117432
0002c0 44 10 55 bd 7e af 0f 3a 2e 1a dc bd 45 ee b4 bd
       -0.052017465 0.00054811675 -0.10747181 -0.08834509
0002d0 5b 1a 9f 3d e8 ed ac 3d f6 83 ec 3d e3 b2 ad 3d
       0.07768699 0.084438145 0.11548607 0.084813856
0002e0 a8 64 eb 3d 13 c2 11 3c 76 57 36 3b 56 0f c6 3b
       0.11493808 0.008896369 0.0027823127 0.0060443087
0002f0 f6 bc 19 be b4 88 02 bd b8 c3 3b 3d c0 a1 b8 bd
       -0.15013489 -0.03186865 0.04584095 -0.09015226
000300 a0 f2 88 3d 2f 4d 5e 3c ea 59 79 bd e0 be 8f bc
       0.06686902 0.013568207 -0.060876764 -0.017547071
000310 74 61 a2 3d 07 88 b2 3d 06 e2 56 bc 02 e6 78 3d
       0.07928744 0.087173514 -0.013115412 0.060766228
000320 5c 5d 82 3a cd 5e 46 3d 9f 00 c0 bc b0 21 9c 3c
       0.0009946036 0.048430253 -0.023437796 0.019059032
000330 ad 09 15 3d dd c3 b8 3c a2 cf 73 3d 91 4f f0 bc
       0.03638618 0.022554332 0.059524186 -0.029334815
000340 31 5d e4 bb 38 51 f8 3c 32 ff eb 3c 69 36 09 3d
       -0.006969117 0.030312166 0.02880821 0.033499155
000350 0f 72 4c 3d 2a 21 9f 3d ff 46 3d 3d 04 e9 89 3d
       0.049913462 0.077699974 0.046210285 0.06733897
000360 b5 8d 45 bc df ed 78 3d ac 6b ac bd 79 c0 aa 3c
       -0.012057711 0.060773727 -0.08418974 0.020843731
000370 9d eb f2 3c c2 67 bb 3d 23 20 f4 3b f2 3e 18 3d
       0.029653365 0.091506496 0.00745012 0.037169404
000380 c2 db cb 3d 75 b1 5f 3d bf 46 00 3d 17 1e 4d bd
       0.09954025 0.054612596 0.03131747 -0.050077524
000390 ad d3 12 3a be 24 47 bc 4e cc a0 bc d5 cd ca 3c
       0.0005601 -0.012154756 -0.01962867 0.024756351
0003a0 02 b1 0e bd 29 0f 47 bb 14 92 ec bc ec 31 89 bd
       -0.034836777 -0.0030374026 -0.02887825 -0.06698975
0003b0 44 ba f9 3b bb a0 87 bd 75 76 73 bd c8 aa 45 3d
       0.0076210815 -0.06622454 -0.05943914 0.048258573
0003c0 97 97 80 bc 06 15 22 bd f2 63 09 bd d0 75 9c 3d
       -0.015697284 -0.03957083 -0.03354258 0.076396585
0003d0 74 a1 06 bd f5 06 bf bd 0c d4 73 3d 84 37 9f bc
       -0.032868817 -0.09327499 0.059528396 -0.019435652
0003e0 4d 33 1a bd d5 c3 cb 3a 62 17 9b 3d 7e 10 af 3c
       -0.03764658 0.0015546033 0.07572819 0.021370169
0003f0 92 c1 fe bd ec 41 bd bd ad 3b 80 bd a5 98 c5 bd
       -0.12439264 -0.09241089 -0.06261382 -0.09648255

g_model.conv2.bias f4 [32]
000000 1f 2f 12 3d c7 c3 77 3d 2e 0c 45 3c 3e b2 28 bd
       0.03568947 0.060489442 0.01202683 -0.04118561
000010 71 aa ba 3c 86 42 40 3d 8a 35 73 bd 04 0e 30 bd
       0.02278635 0.04693844 -0.05937723 -0.042982116
000020 b4 d8 53 bd fc 03 c7 3c fe 28 ed bb 59 57 fd ba
       -0.051720336 0.024293892 -0.0072375527 -0.00193284
000030 56 cc ad 3c 0c 16 36 bc 95 bd ae 3c 07 25 8d bc
       0.021215599 -0.011113655 0.021330634 -0.01722957
000040 37 40 09 bb 51 06 61 bd 85 22 b7 bc e0 6d 5f bd
       -0.0020942816 -0.054937664 -0.022355327 -0.054548144
000050 e8 e8 14 3c 74 ce 3c bd 9d 5d d6 bc d7 cd ac 3d
       0.009088732 -0.046095327 -0.026167685 0.08437698
000060 c2 f9 f8 3c 8b f4 a4 3d 74 dd 6f 3b a2 b1 eb bc
       0.030392531 0.08054455 0.0036600502 -0.028771225
000070 c4 c2 83 3d 16 52 36 3c f9 77 c2 bc 5a ac 76 bc
       0.06433633 0.011127969 -0.023738848 -0.01505574

g_model.fc1.weight f4 [128, 800]
000000 2f c3 d7 bc 06 3d 49 3d e8 8a 3b 3d d9 ef 0e 3c
       -0.026338188 0.049130462 0.04578677 0.008724176
000010 bb 37 00 bd dc fa 05 bc e3 ce fd bb 9e 8c 84 3b
       -0.03130315 -0.008177485 -0.00774561 0.004045083
000020 35 5a 88 bc b1 af 48 3d b5 ff ad bc cf 64 7e bc
       -0.016644577 0.048995677 -0.021240095 -0.015526964
000030 cf 24 6b bc c2 85 6e 3c e4 86 4d bc 1f 6e be bc
       -0.014352038 0.014558258 -0.012544367 -0.02324587
000040 c7 d8 1e 3d c2 b9 90 bc d4 b5 51 3c 86 41 0e bc
       0.038780954 -0.017666701 0.012799699 -0.008682614
000050 db 6f 7a 3b 7f b6 19 3c e6 ce 18 bd d2 da eb bc
       0.0038213644 0.009381889 -0.03730669 -0.028790865
000060 ce dd 0d 3d 56 bc 95 3c df be 95 3b 85 ec 1c 3d
       0.034635358 0.018278282 0.0045698727 0.0383115
000070 e5 7f 02 3c 33 4c f9 bc 22 fc d8 3c f2 b8 13 3d
       0.007965063 -0.030431842 0.026487414 0.03606505
000080 98 94 ee 3b 8c 37 75 bc c6 22 19 3d c7 43 c2 bc
       0.0072808973 -0.014966857 0.03738668 -0.02371396
000090 4d e3 03 bd 18 a6 0c 3a 00 30 53 3c 03 2c 2b bb
       -0.032199193 0.0005365326 0.012889862 -0.0026118762
0000a0 8c eb dc 3b d5 d8 07 bb 7c 39 c4 3c 0d bb ad bb
       0.0067419466 -0.0020728607 0.023953192 -0.005301839
0000b0 3d e0 b1 bc d7 59 f0 3c 14 f9 a2 bc 7c 73 fb 3c
       -0.02171337 0.029339714 -0.01989416 0.030694716
0000c0 90 24 fa 3c 6f 34 ff 3c 06 70 0a 3d 17 79 8b 3d
       0.030535012 0.031152932 0.03379824 0.068102054
0000d0 a8 b4 82 3d ec 05 16 3d bb 22 66 bc 25 d5 2f 3d
       0.06382114 0.03662674 -0.014046366 0.04292788
0000e0 dd 46 be 3d 3c f5 7f 3d 60 09 0e 3d fc 7e 95 bd
       0.0929086 0.062489733 0.03467691 -0.07299611
0000f0 63 e7 cd 3c 00 23 b7 3b dd c1 fa bc 2e 92 9a 3c
       0.025134748 0.005588889 -0.03061002 0.018868532
000100 89 7f 2e bd 5e 75 9e bc c5 a5 e1 3b 28 b9 1c bd
       -0.042602096 -0.019343074 0.0068862163 -0.038262516
000110 67 ed a8 3a b7 69 ff 3c e4 d6 83 bc ed 69 6d bc
       0.0012888134 0.031178338 -0.016093679 -0.014490587
000120 44 db d8 3c cf 1a 1f 3c d5 e9 1f bc 3a ae 3f ba
       0.026471741 0.0097109815 -0.00976034 -0.00073120336
000130 01 50 16 bd e6 bd 18 bd 66 cb 41 bd ec da 1d bd
       -0.03669739 -0.037290476 -0.047313116 -0.03853886
000140 71 2f d8 3a 3d 05 62 3d a8 f1 7e 3c 6c 9e 64 bc
       0.0016493631 0.055180777 0.015560545 -0.013953786
000150 7f 0c 8b 3b db 64 54 3c fc 3d b5 bc 5a ec 7d 3c
       0.004243433 0.012963499 -0.022124283 0.015498245
000160 3e 84 41 3d 52 39 a1 3b 87 8f e7 bc 15 a4 3b 3c
       0.047245257 0.004920163 -0.028266681 0.011452694
000170 ce 04 18 3c 62 65 1c bd 02 4e 13 3d 94 6e ab 3c
       0.009278489 -0.038182624 0.035963066 0.020926751
000180 46 ab 04 3d d6 2b f8 bc 8f 9a 08 3d 60 d4 44 bc
       0.0323899 -0.03029434 0.033350524 -0.012013525
000190 ed b8 51 bd 29 09 4e bd 04 cb 20 bb eb 70 52 bd
       -0.05120175 -0.050301705 -0.002453507 -0.05137722
0001a0 63 df 07 bd d5 70 42 3d a1 26 84 bb e0 72 d7 bb
       -0.033172023 0.047470886 -0.0040329252 -0.0065749735
0001b0 56 a6 6e bd 8f a3 3d bd 06 a4 a8 3c 48 85 2c 3d
       -0.0582641 -0.04629856 0.020586025 0.042119294
0001c0 44 5b 3d 3d f6 7a 04 3d 89 98 4b 3d df 8b 7c bc
       0.046229616 0.032343827 0.049706016 -0.015414207
0001d0 04 25 8e 3b aa a6 e7 bb f7 51 e8 3c 25 3c 18 3c
       0.0043379087 -0.0070694285 0.028359396 0.009291683
0001e0 2b 54 e4 ba 14 2c 63 bc ab 92 a5 ba 08 14 97 bb
       -0.0017420104 -0.0138654895 -0.0012632211 -0.004610542
0001f0 3d 11 f4 bc 1c 13 9c 39 98 f1 ca bb a5 9d c0 ba
       -0.029793376 0.00029768876 -0.006193351 -0.0014695419
000200 82 22 4a 3d 8b 9b f9 3c 03 5f 16 3c 23 92 c5 bb
       0.049349315 0.030469676 0.009177926 -0.0060293837
000210 c3 ee 42 3d cf 80 27 3d 05 a4 eb 3b a6 1a 0a bc
       0.047590982 0.040894326 0.0071911835 -0.008429205
000220 78 10 17 3d 4d ab aa 3a 81 65 01 3c 56 c4 c3 3c
       0.03688094 0.0013021022 0.007897736 0.023897331
000230 27 8a a9 bc 62 5b db 3c 49 9a c8 bc 74 3c bb bc
       -0.020695759 0.026776973 -0.024487631 -0.022855975
000240 fe c4 32 3c 89 fe 11 bc e1 55 2e bc a5 9b 36 3c
       0.010911224 -0.008910784 -0.010640592 0.011145507
000250 96 00 94 3c 46 5d 22 bd 6d d2 d2 3c 64 74 26 3d
       0.018066686 -0.039639734 0.025735104 0.040638342
000260 e0 14 30 bc 88 38 01 bc df ef 9a bd 3f 99 65 bc
       -0.0107471645 -0.007887013 -0.07565283 -0.0140135875
000270 60 a0 a9 3c 53 cd 7c 3d 1e f0 87 3c 31 33 c1 3c
       0.020706356 0.06171925 0.016593989 0.02358398
000280 1b 8b 10 3c 15 c0 f6 bc e7 78 3e bc a5 c9 63 3c
       0.008822228 -0.030120889 -0.011625505 0.013903056
000290 0f 5b 1a 3d 71 99 9f 3a 5d a0 33 bd 0e bd b1 bc
       0.037684496 0.0012176466 -0.043854106 -0.021696594
0002a0 db 00 d4 bb 96 d4 04 bd 2c a4 17 3d b4 3f dd bb
       -0.0064698285 -0.0324293 0.0370218 -0.006751979
0002b0 2e 98 a9 3c 8d 47 ff bb 48 81 96 3b 2a 92 13 3b
       0.020702448 -0.007790512 0.0045930482 0.002251754
0002c0 8d f2 30 bc 08 33 d9 3c 8d 5d 03 bd 4b ef bb ba
       -0.010800016 0.026513591 -0.03207164 -0.0014338283
0002d0 0b 0c b7 bc 7b 21 98 3b 89 fc 00 3d 4b 5d 85 3d
       -0.02234461 0.004642663 0.031490836 0.06511935
0002e0 23 c4 63 3c 2e f5 a4 bb d1 0f c1 bb 53 e5 c5 3c
       0.013901743 -0.0050341105 -0.005891778 0.024157202
0002f0 0e b8 8e 3b a4 78 9a 3c 61 9f bc bc bd e9 43 3c
       0.004355437 0.018856354 -0.023025217 0.011957583
000300 5e dc 1d 3a 0b c0 27 3c e1 55 1d 3c 19 a5 c8 3c
       0.0006021912 0.010238658 0.009602995 0.024492787
000310 db df 71 bb 87 6b 22 bd 9e 40 16 3c 7c 18 df 3c
       -0.003690711 -0.039653327 0.009170679 0.027233355
000320 1b f6 b1 3c 0f 9f fd 3c 52 38 eb 3c 18 59 71 bb
       0.021723798 0.030959634 0.028713379 -0.0036826786
000330 eb 96 29 3c 5f b4 30 3d 50 b6 89 3c 2c 9a 63 3c
       0.010350923 0.043140765 0.016810566 0.013891738
000340 57 53 34 3d ec 5b 76 3c 08 05 ac bc 62 ba e4 3a
       0.04402479 0.015036564 -0.020998493 0.0017450566
000350 99 01 6f 3c b5 cb d7 bc 75 60 82 bc 21 38 1a 3d
       0.014587783 -0.026342252 -0.015915135 0.037651185
000360 a1 21 cd 3c be f0 33 3c ec 8d 58 bc 4b 1d 76 3c
       0.02504045 0.01098269 -0.013217431 0.015021632
000370 bd b9 f5 3a 26 8d 95 bc c9 a7 f6 3c ce d7 6a bc
       0.0018747371 -0.018255781 0.030109303 -0.014333678
000380 f2 d5 b6 bc c3 c9 b0 bb 4c ca 19 bd 60 77 1f bc
       -0.022318814 -0.0053951456 -0.03754644 -0.009733051
000390 03 43 34 3d a0 89 64 ba da d4 19 3d 9a b1 2b 3d
       0.04400922 -0.00087180175 0.037556507 0.04191742
0003a0 20 c9 36 bd e7 13 c5 3c 2a 32 3b 3c f2 bf b6 3c
       -0.0446254 0.024057342 0.011425534 0.022308324
0003b0 7c 7c 1a 3d 40 90 54 bd 00 bb 22 bd 99 e1 4b bd
       0.037716374 -0.05189538 -0.03972912 -0.049775694
0003c0 b3 9e c1 3c dd 89 d7 bc 05 3a a2 bc de 33 9c bc
       0.023635244 -0.026310856 -0.019803056 -0.019067701
0003d0 bd 76 98 3c 66 5a ac bc b6 00 29 3c 0f d6 9e bc
       0.018611306 -0.0210392 0.010315111 -0.01938918
0003e0 88 50 3c bd ad c6 39 3c d5 86 d3 bc b1 45 7b bb
       -0.045975238 0.011338872 -0.025821129 -0.00383411
0003f0 71 09 49 3d 0d 12 13 3d 3e 33 e3 3a 0e dd d4 3c
       0.04908127 0.035905886 0.0017333997 0.025984313

g_model.fc1.bias f4 [128]
000000 0d 7a a0 3c 77 01 d6 3c fb 72 7d bc 4c ef c3 3b
       0.019589448 0.026123745 -0.015469308 0.005979454
000010 06 76 4f 3b ba 2b b1 3b 3a c3 fc 3c 97 0c 81 3c
       0.003165604 0.005406824 0.03085481 0.015753074
000020 4f 1f 0e 3d ff c5 08 bd 7b 06 bf 3c 43 b4 33 bd
       0.034697827 -0.03339195 0.02331852 -0.043873083
000030 de 0d b9 3c 45 40 fe 3c 11 94 06 bd 0c 59 22 3c
       0.02258962 0.031036505 -0.03285605 0.009908926
000040 4c 31 6f bc 5c bf 73 3b 30 e9 17 3d 46 75 0d 3d
       -0.014599156 0.0037192916 0.03708762 0.03453567
000050 75 36 9d 3c 32 db d0 3b 87 00 0d 3d e4 e5 45 3d
       0.019191006 0.0063737864 0.03442433 0.048314944
000060 66 09 08 3c 74 56 b4 bc 9f 91 f3 3c 2c 91 98 bc
       0.008303022 -0.02201388 0.029732523 -0.01862391
000070 c3 c7 c7 3c a8 de d1 bb fa c7 05 bc 9e ee 13 3d
       0.024387246 -0.0064047165 -0.008165354 0.036116235
000080 3c de 17 bd e7 d9 82 bc 15 d0 ac bc e2 1c e6 bb
       -0.037077174 -0.015973045 -0.021095315 -0.007022486
000090 54 6a 40 3c 92 1b 62 3b b2 ec 28 bc ae ae b7 3c
       0.011744101 0.0034501296 -0.010310339 0.022422161
0000a0 55 8b 83 3c 1a 3f 88 3c 31 2e f4 3c a6 32 0a 3d
       0.01605765 0.016631652 0.029807182 0.03373971
0000b0 df 7a 67 3c b8 58 4d 3c 5d a2 1e bd d6 28 1e bc
       0.014128416 0.012533359 -0.03872906 -0.009653291
0000c0 49 9d 3d 3c 6d e6 14 bb cf 19 f3 bc 35 af f0 bc
       0.011573144 -0.0022720352 -0.029675392 -0.02938042
0000d0 b6 93 f9 ba 96 c8 2c bb 80 b8 8a bc 90 a9 6c bb
       -0.0019041214 -0.0026364676 -0.01693368 -0.003611181
0000e0 df f1 89 3b f1 08 16 3c 39 b3 ab 3c a6 f2 f9 3c
       0.0042097415 0.009157405 0.020959483 0.030511212
0000f0 fe 0c 90 bc ea 4e 36 bb b7 5a 1e bd f1 44 82 3c
       -0.01758432 -0.0027818033 -0.03866073 0.015902014
000100 cc 09 c8 3c c1 2a 44 3d ac 41 9e 3c db 7b da 3c
       0.024418734 0.047892336 0.019318424 0.026670387
000110 c3 15 27 3d 48 e6 7b bc 50 e2 fe bc 8b 7f 0f 3c
       0.040792238 -0.015374728 -0.031113774 0.008758436
000120 60 19 ad bc a2 ba 8b 3c ee ed d5 3c cc 38 00 bc
       -0.021130264 0.017056767 0.02611443 -0.007826041
000130 85 73 0f bd e3 3d 80 3c 68 c1 9f bc 1d a6 e5 3c
       -0.035022277 0.01565451 -0.019501403 0.02803331
000140 2e ae 87 bb 3e ad 16 3d 1e 63 af bb 11 db 48 3c
       -0.004140637 0.03678631 -0.005352392 0.012259261
000150 41 6d 9f 3c 80 fb d2 bc 66 e1 14 3d 89 a2 72 ba
       0.019461276 -0.02575469 0.03634777 -0.0009255787
000160 0e 74 5d bc 1b 73 e6 bc c3 a3 dd 3c 50 ce a3 3b
       -0.013516439 -0.028131058 0.027055627 0.0049989596
000170 7b 6a d7 bb 4f 48 d8 3c a7 64 59 3b 8e 85 ba 3b
       -0.0065739728 0.026401667 0.0033171566 0.0056921905
000180 af 44 2b 3d 58 ef 15 3d 86 cf 85 3c 1b 69 f5 bc
       0.04181355 0.03660521 0.016334306 -0.029957345
000190 4d 56 61 ba 49 3d e8 bc cb d1 8f ba 74 f7 ce 3c
       -0.00085959287 -0.028349536 -0.0010972557 0.02526448
0001a0 78 fd 08 bb f9 d9 b8 bc 4b 35 cc bc 73 25 8b 3c
       -0.0020903032 -0.022564875 -0.024927756 0.01698563
0001b0 46 81 15 3d e9 de cc 3c 62 45 bc 3c c6 d4 02 3c
       0.036500238 0.025008636 0.022982303 0.007985299
0001c0 28 4c c6 bc c1 94 51 3c a2 11 e9 3c 54 2a 0c bd
       -0.024206236 0.012791813 0.02845079 -0.034220055
0001d0 ff 95 1e bd c9 00 ce bb ff a5 56 3b 42 43 07 bd
       -0.038717266 -0.0062867147 0.003275275 -0.033023126
0001e0 91 f2 be 3c 52 86 0b 3c 6c fd 3b 3c 6d 7d 21 3d
       0.023309024 0.008515911 0.011473995 0.039426256
0001f0 64 0f 25 bd 90 90 0a bc be c5 05 3c 39 81 5c bc
       -0.04029788 -0.008457318 0.008164821 -0.013458543

g_model.fc2.weight f4 [10, 128]
000000 21 67 a2 3d df 7b 90 bc f4 80 da 3c 7b 63 9e bd
       0.079298265 -0.017637191 0.026672818 -0.07733818
000010 b0 97 5c 3d 79 8a d4 bd 11 62 15 bd ab 2c e4 3c
       0.053855598 -0.10377974 -0.036470477 0.02785333
000020 b6 e0 66 bc 86 30 ab 3d 28 a3 80 bd 01 fa f3 bb
       -0.014091661 0.083588645 -0.062811196 -0.0074455743
000030 89 c3 72 bd c6 0e c1 3d cd 0d 88 3d 4b b0 ac 3d
       -0.059268508 0.09426646 0.06643257 0.08432063
000040 0d d5 da 3c 32 ae 6d bd 1f bc f2 3d 0a c7 9d 3d
       0.026712919 -0.058027454 0.118522875 0.07703979
000050 37 87 96 3d 1e 30 6c bb 71 0f 8e bd 96 82 58 3d
       0.07350009 -0.0036039422 -0.06936539 0.05285891
000060 10 f0 05 3e 0b 61 0c 3d b6 03 93 3c f0 e9 e8 3c
       0.13079858 0.034272235 0.017946105 0.028431863
000070 a5 67 8f bd d6 98 05 3d 80 c2 5c 3d bb fc aa 3d
       -0.070021905 0.03261646 0.053896427 0.08348986
000080 fb 49 8a bc d2 79 dd 3b fb bd 49 bd 65 ec 8e bd
       -0.01688098 0.006758907 -0.049253445 -0.069786824
000090 e2 8b 0a 3c d8 a6 95 bd 4f 8a d9 3d cf 3e cc bd
       0.008456202 -0.073072135 0.106220834 -0.09972917
0000a0 a4 9b 9b 3c 64 70 05 3d ce a6 c3 bd 72 2e 8e 3c
       0.018995114 0.032577887 -0.095533 0.017356131
0000b0 4c 20 d7 bd b5 3c bc 3d 51 59 98 3d b3 a1 b9 bc
       -0.10504207 0.091912664 0.07438911 -0.022660112
0000c0 f6 7e f6 bc 4f be 9e 3d 1c 37 ff 3d c5 0d c8 3d
       -0.030089837 0.07751142 0.12461683 0.09768251
0000d0 97 16 6e 3d 3a 50 c6 bd 91 b3 c4 bd c2 b4 b6 bb
       0.058127012 -0.09683271 -0.09604562 -0.005575747
0000e0 11 46 e1 bb 96 1e 8e 3c 99 15 8d 3d 80 ee 26 3a
       -0.0068748076 0.017348569 0.06888885 0.0006367937
0000f0 62 d9 39 3d 2b 99 44 3d 1c 5f 83 3d 28 c5 5a 3d
       0.045373328 0.047997635 0.06414625 0.05341068
000100 ce 8c ea bd 20 b2 c5 bc cf 58 a3 3d 94 2c 86 3d
       -0.114526376 -0.024132788 0.07975923 0.06551471
000110 3b 47 44 bd ac 2e 0f 3b 08 96 90 bd 76 1c d0 3d
       -0.047919493 0.0021847887 -0.07059866 0.101616785
000120 77 f8 0b 3d 10 f4 06 bd 9a e9 c6 3d d1 31 f4 bc
       0.0341725 -0.0329476 0.09712525 -0.02980891
000130 c7 5f 91 bd 53 7e c2 3d a5 94 24 3c 97 af b5 3d
       -0.07098346 0.09496751 0.010045205 0.08871382
000140 ef 24 1e 3d 02 65 89 bc 5e cb d0 bd b1 ca 97 3d
       0.03860944 -0.016771797 -0.10195039 0.07411707
000150 42 c6 f3 bb 0a 64 a8 3d 65 35 60 3c f0 fa b8 3a
       -0.0074394057 0.08222206 0.013684605 0.0014112871
000160 8c 30 95 bd 1c 5d b6 3d 6f 9e b2 3d a1 08 82 bd
       -0.0728465 0.08904478 0.08721625 -0.06349302
000170 36 1a e5 bd 92 41 46 3d d5 be 9b 3d 05 52 b8 3d
       -0.1118664 0.048402376 0.07604758 0.09000019
000180 6f fc 9c bc 4c a9 7b 3d fe 8e 92 3d 7c 56 2b 3d
       -0.019163338 0.06144075 0.0715618 0.041830525
000190 60 91 53 bd f3 f8 99 bd 33 ed 3d bd 1e 74 e8 bd
       -0.051652312 -0.075181864 -0.04636879 -0.113502726
0001a0 1d a4 a0 bd d8 ef c5 bd 79 fb 06 bb aa 75 f5 bd
       -0.07843802 -0.09664887 -0.0020596667 -0.11985333
0001b0 c6 80 47 3c 7b a3 b9 bd f4 ff 09 3d 32 17 24 bb
       0.012176698 -0.090643845 0.03369136 -0.002503824
0001c0 92 47 f6 37 bc 3e d5 3c 2b ff 68 bd 35 21 ee bd
       2.9358813e-05 0.02603089 -0.056883972 -0.116274275
0001d0 10 27 46 3d da 42 81 bd dc 42 d4 bd 54 4d 2b 3c
       0.048377097 -0.06311579 -0.10364315 0.010455448
0001e0 72 60 1b bd 85 4a fd bd fa 2d c8 bd ba f9 56 3a
       -0.037933774 -0.12367729 -0.09774394 0.00082006643
0001f0 51 3a b7 bd 71 ef 99 3d 0e 8b cf bd e2 a8 ab bd
       -0.0894667 0.07516373 -0.101339445 -0.08381821
000200 3f fb 6e bc 66 26 83 3d 29 e7 b4 3d 2b e3 d0 3d
       -0.014586269 0.06403808 0.08833153 0.10199579
000210 7c 10 0c 3d e7 fa 9f bd 2c 52 e3 3d ae 3b d3 bc
       0.03419541 -0.07811528 0.110996574 -0.025785293
000220 6b 05 53 bc 86 54 40 bd db d9 0c be 3a 4a 9f bd
       -0.01287971 -0.046955608 -0.1375498 -0.077778295
000230 15 c3 b4 bd d1 5f 20 bd 19 66 b7 bd fb 3e 9e 3d
       -0.088262714 -0.039153878 -0.089550205 0.07726856
000240 ac 72 57 3d b0 01 b6 bd 23 00 6c 3d 72 e3 a9 bd
       0.052599594 -0.088870406 0.057617318 -0.08295335
000250 98 f1 27 bd b2 a6 78 3d ee 11 da 3c 29 bc 2a 3c
       -0.041001886 0.060705848 0.026619878 0.010420837
000260 f2 1c ec 3c 8b 9c c0 bc 99 34 6c bd 19 7f 5c 3d
       0.028822396 -0.023512146 -0.05766735 0.053832147
000270 a2 7a 97 bd c4 3d 31 3d a4 bb 8d 3d 05 e1 fb bd
       -0.07396437 0.043271795 0.06920555 -0.122987784
000280 0c 20 49 3d 31 8c 8e 3d de 6c 10 3d f8 56 4f 3c
       0.049102828 0.06960333 0.035260074 0.012655012
000290 0b fc f8 bd 57 e5 ba bd 27 cb 96 3d 9d 17 ee bc
       -0.121574484 -0.09125774 0.07362967 -0.029063994
0002a0 5d 06 f4 3d 39 5d b9 bc c5 5d 69 3d ca 95 d3 bd
       0.11915276 -0.02262746 0.05697419 -0.10331304
0002b0 27 5a b0 3d bd 6d e0 bd 85 3d 0f be 9e a8 8e 3c
       0.08610945 -0.10958431 -0.13988312 0.017414387
0002c0 c9 65 28 3d c9 a7 00 be 3c 7b fc bb ae e8 22 bd
       0.041112695 -0.12564005 -0.0077051204 -0.039772682
0002d0 bc ff 18 bd af 4d 8b bd fb 43 ab bb 91 55 a6 3d
       -0.037353262 -0.06801926 -0.0052266098 0.08121789
0002e0 d9 0f 3d 3d d8 c0 fc bc 7f 51 32 3d 44 51 a1 3c
       0.04615769 -0.030853674 0.043534752 0.01969207
0002f0 40 d7 34 3d ca b5 0b be 8e 27 5a bd 81 98 b5 bc
       0.04415059 -0.13643566 -0.05326038 -0.022167446
000300 fa 47 bf 3d 55 5e 27 3d 87 9d af bd 37 c9 22 bd
       0.093399 0.040861446 -0.08574968 -0.039742675
000310 fc 93 ec 3c 48 7a 81 3d 04 f2 05 3c b0 3d 86 bd
       0.028879158 0.063221514 0.008175377 -0.06554735
000320 41 46 fd 3c c7 87 ba bd 3d 96 83 3c 47 51 8f bd
       0.030917289 -0.09107929 0.01606285 -0.06997924
000330 6c bb 22 bc a2 0b 0b be d1 dc 8c 3c 38 f4 8e 3c
       -0.00993238 -0.13578656 0.017195137 0.017450437
000340 d9 a2 ec bd 1d 17 cd bd db a7 74 3b 79 26 27 bd
       -0.11554498 -0.10014174 0.0037331495 -0.040808175
000350 73 0c 8d 3d 2d a4 5f bd 0d fb 07 be 55 d3 06 3d
       0.0688714 -0.05459993 -0.13279362 0.032916386
000360 c5 92 c5 bd bf 08 72 bd 4b 7e 53 bd c2 12 87 bd
       -0.09647135 -0.059090372 -0.051634114 -0.06595375
000370 e0 81 cf bc 6c fc 65 bd 42 c8 d9 bd 36 c8 00 be
       -0.025330484 -0.05614893 -0.10633899 -0.12576374
000380 55 34 cd 3d fa 2b 2e bd 70 67 58 bd 30 3b 59 bd
       0.10019747 -0.042522408 -0.05283302 -0.05303496
000390 32 54 79 bd 5f 0d 3f bc 92 71 ae bd 25 dd 2c bd
       -0.06087131 -0.011660903 -0.085177556 -0.042203087
0003a0 51 e4 e2 3d 19 63 1c 3d 97 4f 9a 3b 74 94 2b 3d
       0.11078704 0.038180444 0.004709195 0.041889623
0003b0 57 1d c1 3d 21 7d 82 bc 17 e9 06 be 20 d2 84 3d
       0.09429424 -0.015928807 -0.13174854 0.06485391
0003c0 50 e3 95 3d 2a ab 85 bd 69 99 84 bd 02 e1 63 bd
       0.07318747 -0.065267876 -0.06474573 -0.055634506
0003d0 3e b4 8e bd 88 8d a1 3d 2d 24 e7 3d 4e fd ac bd
       -0.06967972 0.07888323 0.11286197 -0.084467515
0003e0 2d 2d d3 bc b9 a1 a7 bd de 5f 88 3d 3d 66 3b 3d
       -0.025778377 -0.08185143 0.0665891 0.0457518
0003f0 37 e5 9d bc d3 33 05 be 61 97 33 bd 66 94 b3 ba
       -0.019274337 -0.1300805 -0.043845538 -0.0013700842

g_model.fc2.bias f4 [10]
000000 3d f5 42 3c c9 90 a8 3d fd 57 06 bd 1b f3 35 bd
       0.01189929 0.082307406 -0.032798756 -0.044421297
000010 34 4f 52 bd d2 99 ab bd 98 c7 35 bc b9 bb ab 3d
       -0.051345065 -0.08378948 -0.01109495 0.08385415
000020 64 10 80 3c 79 69 82 bd
       0.015632816 -0.063677736

f_model.fc1.weight f4 [32, 10]
000000 35 82 da bd 3b 18 8a bd eb 8b 60 3b 23 5d 30 3e
       -0.10669366 -0.06742903 0.0034263085 0.17223029
000010 13 54 e1 bc 03 54 cf 3d 2b 34 3b bd 79 1e a0 bd
       -0.02750591 0.10123446 -0.045704048 -0.07818312
000020 c9 c7 b3 3d c7 9b 3a 3e e1 62 98 bc 57 e3 41 3e
       0.0877834 0.18223487 -0.018601837 0.1893438
000030 e0 75 13 3d 1f 67 da bb cd 65 8c be b5 73 b5 3c
       0.036001086 -0.006665125 -0.27421418 0.0221499
000040 7f 5d 44 be 4a d0 84 be c9 e1 56 3e 6d e4 c2 bd
       -0.19176291 -0.25940162 0.20984568 -0.09516225
000050 e2 52 ef bd 2f 37 9b be b7 c3 11 3e ac 03 d7 3c
       -0.116857305 -0.3031554 0.14234816 0.026246868
000060 da a8 95 be 7a 33 2b 3e e0 f9 f4 bd d5 c1 21 3e
       -0.29230386 0.16718856 -0.119617224 0.15796597
000070 8f 2f 28 3e 92 70 26 be 03 28 14 bd e2 74 b3 be
       0.16424392 -0.1625388 -0.03617097 -0.35050112
000080 26 6a b7 be 6f 26 5e 3b f8 9e 8e 3e 2e 70 99 3e
       -0.35823172 0.003389742 0.2785566 0.299684
000090 eb 61 1f 3e 76 40 7e be d9 5e 26 be bc 1c 4c be
       0.15564696 -0.24829277 -0.16247119 -0.19932836
0000a0 76 47 80 be 55 41 c7 bd 07 57 8d 3e ce e4 e9 3d
       -0.2505452 -0.09729258 0.2760546 0.11420594
0000b0 87 67 ae be 86 a6 3c be d1 a5 c1 be 59 2f ae be
       -0.3406336 -0.18422899 -0.3782182 -0.34020498
0000c0 af 24 5c 3e b3 6d a3 be 34 56 61 3d 3a 19 7c be
       0.21498369 -0.3191963 0.05501385 -0.24618998
0000d0 44 48 73 be 04 30 1e 3e 62 7b 86 be f1 50 b2 3e
       -0.23758036 0.15448004 -0.2626601 0.34827378
0000e0 14 58 5e 3d 09 1d 0e 3e 72 e3 32 be 52 30 91 3e
       0.054283217 0.13878264 -0.17469576 0.28357178
0000f0 56 5b c9 3d e9 f9 24 be 24 f3 92 3e 7b 77 52 be
       0.09831874 -0.16110958 0.28701127 -0.2055339
000100 c5 54 72 bd f0 64 a5 3d 57 95 91 bd 1f b5 bc 3e
       -0.059162874 0.08075893 -0.071085624 0.36856934
000110 ab 19 09 be dc 19 fe bb 5f c4 dc bd df ad d5 3e
       -0.13388698 -0.0077545475 -0.10779642 0.41734216
000120 73 fd 23 be 0f 69 8c 3a fb f6 b3 3c 26 a4 49 bd
       -0.16014652 0.0010712462 0.021968355 -0.04922881
000130 ef 84 ed bd 3f a9 b0 be 05 4f 71 3e d7 46 7e 3e
       -0.11597621 -0.34504125 0.235653 0.24831711
000140 f7 ec 47 be 37 40 0a be 83 06 7d 3e e3 a5 5c 3e
       -0.19523989 -0.13501059 0.24709515 0.21547656
000150 99 81 6c be fa 87 8b 3e e0 cf 58 3e 11 0a 76 bc
       -0.23096313 0.2725218 0.21173048 -0.015017048
000160 37 2d 45 3e 22 16 cf 3d 00 ad ce bc 42 c4 a8 bc
       0.1925553 0.101116434 -0.025228977 -0.020601396
000170 ba 49 82 be 95 ba b3 3e b6 7d 15 3e fa fc f7 3e
       -0.25446874 0.35103288 0.14598736 0.48435193
000180 b6 48 9f 3e 91 15 15 3e c2 09 30 be 21 d2 89 bd
       0.31110162 0.14559008 -0.17191222 -0.06729532
000190 38 69 b7 3e 97 e1 a7 3d 8a 5b de 3d 19 cb 3c 3e
       0.35822463 0.08197325 0.108573034 0.1843685
0001a0 d7 a0 2a 3e 84 5f 0a 3e a1 1f 1c 3e eb 52 e9 bd
       0.16662918 0.13512999 0.1524644 -0.113927685
0001b0 aa 72 4d be 2c 82 be be aa 64 aa be 8d db 8c be
       -0.20063272 -0.37208688 -0.33279926 -0.27511254
0001c0 db e5 dd 3d cd b3 f1 3c cd 0d c4 3e 03 ee ae 3e
       0.10834857 0.029504681 0.3829178 0.34165964
0001d0 db cf 80 3e e3 d0 cf bd d9 ed 2d bc dd c7 c1 3e
       0.2515858 -0.10147264 -0.010615789 0.37847796
0001e0 ae b7 86 be d8 dc 90 be 06 9e 85 be 0b cc b2 3d
       -0.2631201 -0.2829349 -0.26097125 0.08730324
0001f0 38 56 03 3e ca 91 8c 3e 14 d1 01 3e 83 97 44 be
       0.12825859 0.27454978 0.12677413 -0.19198422
000200 33 34 67 3e 35 c9 8e be 2b 47 81 be d5 b2 2e be
       0.22578506 -0.27887884 -0.2524961 -0.17060407
000210 0b 5d be 3e a5 df c6 3e be a6 43 3e 9a 9e c4 3d
       0.3718036 0.38842502 0.19106576 0.09600563
000220 b8 73 73 3e 38 d1 b4 bc de 16 82 be 1c e6 80 bd
       0.23774612 -0.02207242 -0.2540807 -0.0629389
000230 6d 0b 8d be cc dd 2f be 58 2d dd 3e 77 ce dd bd
       -0.2754778 -0.17174453 0.43198657 -0.10830396
000240 19 66 12 3e ad 88 14 be c4 af a2 bd 2d 2e 47 3e
       0.1429676 -0.14505263 -0.07943681 0.19451208
000250 12 bf 93 3e 69 1c 2a bd 26 36 ff 3d b1 c2 a9 be
       0.28856713 -0.041531 0.124615 -0.3315635
000260 f5 56 3a be 34 73 7b 3e 92 9d 3b be d3 80 6c be
       -0.18197234 0.24555665 -0.18321827 -0.23096018
000270 0f 32 42 be 94 21 17 3e 57 c8 84 bc 21 ad 83 3e
       -0.18964408 0.14758903 -0.01620881 0.25718024
000280 9f 0a 5a be d6 7e b2 3e 41 5e a7 bd d8 6a 24 be
       -0.21293114 0.34862393 -0.081722744 -0.16056383
000290 97 d7 4a be 6f 3f be be b6 b5 4b 3e 83 5e 6e 3e
       -0.19808803 -0.3715777 0.19893536 0.23278241
0002a0 6b a1 fd 3d cb f6 2c 3e 35 ae 14 bc 17 c3 04 3e
       0.12384304 0.16891019 -0.009074737 0.12965046
0002b0 e1 ae 85 3e a5 a6 5d be 08 b8 57 3c 48 fd 10 3e
       0.26109985 -0.21645601 0.013166435 0.14159119
0002c0 87 23 e2 3e f1 45 2d be 88 6b 0f be a6 af 80 bd
       0.4416773 -0.16921212 -0.14005864 -0.06283502
0002d0 15 2f 81 3c 86 69 68 3e fa e6 8f bd e6 6d 40 be
       0.01576952 0.22696504 -0.07026477 -0.18791923
0002e0 47 79 33 be 65 f5 63 be 89 31 97 be 73 4b 59 3e
       -0.17526732 -0.2226158 -0.2952998 0.21220188
0002f0 5e b6 8b be ba 56 82 3c 8e 69 a0 3e 04 78 91 be
       -0.27287573 0.015910495 0.31330532 -0.28411877
000300 5d f4 69 bd c9 29 72 3e 69 1d 63 3e bf f9 6e be
       -0.05711781 0.23648752 0.22179188 -0.23337458
000310 3a e0 87 3e 8f 32 25 bd d1 cf 2b be 76 58 2e 3d
       0.2653826 -0.04033142 -0.16778494 0.04256483
000320 06 03 2d 3e b2 de d0 3d ec 88 94 3e b0 62 05 3e
       0.16895685 0.10198726 0.29010713 0.13025928
000330 de 6d 50 3e d1 8c 1a 3e 98 3e 72 be 7a 7e 09 be
       0.20354411 0.1509278 -0.2365669 -0.13427153
000340 60 34 eb bd 30 61 8a be 2b e5 95 be 77 f6 4a bd
       -0.11484599 -0.27027273 -0.29276404 -0.049551453
000350 c2 79 89 3e 7f 17 8b 3e e4 90 24 3e b7 27 86 be
       0.26850706 0.27166364 0.16070896 -0.26202175
000360 f1 5c 2e be b8 af 21 3e e8 f2 a9 3e a4 77 7a 3d
       -0.17027642 0.15789688 0.33193135 0.061149254
000370 99 c0 01 3e 9d 5a a7 bb b7 e3 cc 3e c2 57 f1 bc
       0.12671126 -0.0051072375 0.40017483 -0.029460791
000380 df f4 bc 3d 3e 06 31 be 9f fc bf 3e 8e f4 1b be
       0.09226393 -0.17287537 0.37497422 -0.15230009
000390 f9 56 f2 bc 63 b7 01 3e a4 f8 4a 3e f8 f1 af bd
       -0.029582487 0.12667613 0.19821411 -0.08591074
0003a0 66 dd 7f bd fe d6 32 3e d1 b0 a9 3e 8b 82 86 bd
       -0.062467 0.17464826 0.33142713 -0.06567868
0003b0 99 c3 6d be 81 e1 34 be 31 1b 45 3e 83 e9 bb 3e
       -0.23219146 -0.17664148 0.19248654 0.36701593
0003c0 2a 7c 68 be 4c 2d 85 3e 20 4d 19 bd 52 99 b5 3e
       -0.22703615 0.2601112 -0.037427068 0.35468537
0003d0 76 dd 2b 3e a8 e0 be 3d 2e c1 2d be 55 55 a8 bc
       0.167837 0.093201935 -0.16968223 -0.020548502
0003e0 1f d5 05 be 28 eb 1c 3e 69 c2 62 bd b7 cb 94 3a
       -0.1306958 0.1532408 -0.055361185 0.0011352216
0003f0 fe 88 a5 3e 09 3a 0c 3d 0c 18 36 3e 49 2d a8 3e
       0.3233108 0.034235034 0.1778261 0.3284705

f_model.fc1.bias f4 [32]
000000 80 b4 ba 3d 4f 4b 65 3e ad 4b aa bd 46 3f b8 bd
       0.09116459 0.22392009 -0.08315215 -0.089964435
000010 1c aa b3 3e 53 ae ac 3e 8c 94 09 be ba 5b 89 bd
       0.3509072 0.3372675 -0.13435572 -0.067069486
000020 82 09 3c be 77 b1 13 be 97 e5 b5 3e 41 63 a8 3e
       -0.18363002 -0.14423166 0.35526726 0.32888225
000030 fa e4 5b bc 23 ea 45 3e f6 84 71 be 63 e4 40 3e
       -0.0134212915 0.19327597 -0.23585877 0.18837123
000040 d2 6e 0b 3e 2b af 89 3e 17 f0 12 3e 78 ca 6c 3e
       0.13616493 0.26891455 0.143494 0.2312411
000050 5a 07 fc 3c b4 8e 6a 3e 21 c1 3c 3e fc b5 a6 bd
       0.030765224 0.22906 0.18433048 -0.081401795
000060 a7 8c c8 3d 5b 20 35 be 3f b0 a0 bd 2d 3a 47 3d
       0.09792452 -0.17688124 -0.07846116 0.048639465
000070 72 4a 05 be 68 32 9f be ae 2e ab bd 7d 11 dd 3d
       -0.1301668 -0.31093144 -0.08358513 0.10794351

f_model.fc2.weight f4 [10, 32]
000000 7c 81 52 be 5f de 94 bd 45 2b 46 3e 56 84 6d 3d
       -0.20557207 -0.072689764 0.19352444 0.057987534
000010 dd 5e 3f bd 0b 4b 8f 3d ed 6c 51 3e f5 dd 88 be
       -0.046721328 0.06996735 0.20451708 -0.2673184
000020 0b 66 b1 3c aa e3 6c be 32 fe 12 3e 1e 41 45 be
       0.021655103 -0.23133722 0.1435478 -0.19263121
000030 1c 12 b0 bc b0 3d 2a be a0 3b 61 bd f9 92 ac 3d
       -0.02149301 -0.16625094 -0.054988503 0.0842647
000040 0a 22 dd bb f0 05 dc 3d aa dd 21 be d0 d7 85 3e
       -0.0067484425 0.1074332 -0.15807214 0.26141214
000050 64 a1 97 3d f3 cf 86 be 56 4e 9d bd 69 fe 86 bd
       0.0740383 -0.26330528 -0.07680957 -0.06591494
000060 c7 3f ee bd 0e 90 0a be c2 1c 57 3e 37 9c 30 bd
       -0.11633258 -0.13531515 0.21007064 -0.043117728
000070 29 b5 80 be b3 bc e0 bd 0d 90 70 be 75 a3 64 3d
       -0.25138214 -0.109734915 -0.23492451 0.055819947
000080 b5 ea 54 be 28 fa 92 3d cd bd 8e bd a1 c0 8e be
       -0.20792659 0.0717662 -0.069697954 -0.2788134
000090 91 ea 2e 3e 8a b5 6b be ea c3 84 be 8f 5e 76 3e
       0.17081667 -0.2301847 -0.2593072 0.24059509
0000a0 34 51 72 be 10 95 c0 3d e6 5e 39 bd 9b 6b f6 bd
       -0.23663789 0.094034314 -0.045256518 -0.12032243
0000b0 d9 6c 6c be 94 24 af 3a 52 34 0e be 1a b8 b6 bd
       -0.23088397 0.0013362342 -0.13887146 -0.08921833
0000c0 9a 70 57 3e 2a f7 b3 3d af cf 9f 3c 76 62 40 3d
       0.21039048 0.08787377 0.019508211 0.0469689
0000d0 61 4a 2e 3d d9 e5 2f 3e 33 bf d9 bd e7 44 46 be
       0.042551402 0.17177524 -0.106321715 -0.19362222
0000e0 23 1d c7 3d e7 4b 79 be 58 0d 04 3d 39 71 33 bd
       0.09722354 -0.2434536 0.032239288 -0.04380915
0000f0 3c 55 89 3e f9 d0 dd bd 97 e8 aa bd 49 91 9e 3d
       0.2682284 -0.10830874 -0.08345144 0.07742555
000100 a5 d7 51 bd 63 b8 7f 3d 7f e0 7f bd 61 a7 8e be
       -0.051231045 0.062431704 -0.062469956 -0.27862075
000110 a3 f8 6f 3e e9 50 9e bc 40 39 9f bd 52 18 d0 bc
       0.23434691 -0.01932569 -0.077745914 -0.025402222
000120 c7 1b 7c bd b3 18 60 3c 95 12 bf 3d a6 96 95 bd
       -0.061549928 0.013677764 0.09329716 -0.073041245
000130 f6 69 81 be 45 08 03 3e 44 ba 8b 3e 41 b2 77 3c
       -0.25276154 0.12796123 0.27290547 0.015118183
000140 80 b5 2f be 85 5f ac bd bf fe 1c be bb 6b 04 bd
       -0.1715908 -0.084166564 -0.15331553 -0.032329302
000150 5f 11 9b 3c e7 63 f3 ba 53 8d e0 3d dc 78 84 be
       0.018929182 -0.0018569202 0.109644555 -0.25873458
000160 bd 64 2c bd 4d 38 07 3e 37 1e 1a 3e d2 57 8c be
       -0.04208826 0.13205071 0.15050589 -0.27410752
000170 74 0a 9d 3d 47 4a be bd f6 8d 05 be 77 0b 6d 3d
       0.076680094 -0.09291511 -0.13042435 0.05787226
000180 70 97 08 3e 76 a3 c0 bc 9b c0 ad 3d 93 1d b3 bc
       0.13339019 -0.023515444 0.08484002 -0.021864688
000190 d6 91 e4 3d 7b a5 31 bd 21 a1 8b be 86 1a 32 be
       0.111606285 -0.043370705 -0.2727137 -0.1739293
0001a0 4c b8 d8 3d d7 1a 52 3c 61 ca be bc 1d a3 55 be
       0.10582027 0.012823782 -0.023289861 -0.20863004
0001b0 19 53 1a be 78 34 81 3e 06 a7 5b be f9 4a a8 3d
       -0.15070762 0.25235343 -0.21450433 0.08217425
0001c0 1a c3 33 bd 64 45 36 be 60 7f dc bd 82 c0 51 be
       -0.043887235 -0.17799908 -0.10766482 -0.20483592
0001d0 c4 80 e8 bc a8 fe 7c 3d 5a 84 0b 3d 0b 8a 54 bc
       -0.028381713 0.061766297 0.034061767 -0.012972365
0001e0 e6 7f 48 3e 75 a4 ca bd 60 5e 38 be 51 d8 78 3c
       0.1958004 -0.09894649 -0.18004751 0.015188293
0001f0 db 62 4c be 5a c4 1b 3e 51 fb 6b be 29 f7 8c bd
       -0.19959585 0.15211621 -0.23045088 -0.068830796
000200 98 66 bb 3d 3c 2b 07 be e0 e6 9d be 2f bd 5e 3e
       0.091504276 -0.13200086 -0.30840206 0.21751855
000210 ed 6c 55 be 44 e9 a4 be dc 73 7a bd e9 41 85 bd
       -0.20842333 -0.32209218 -0.06114565 -0.06506712
000220 30 74 8c be 2b 5a a7 bd 07 ce 29 be 7a 17 6c 3e
       -0.27432394 -0.08171495 -0.165825 0.2305583
000230 e9 2d b9 3d a4 c8 3c 3e 3d f1 35 3e a7 54 1d be
       0.0904196 0.18435913 0.17767806 -0.15364324
000240 23 c3 ae bd a1 3b 23 3d 72 58 32 bd 44 0f 9d bd
       -0.08533313 0.03985179 -0.04354138 -0.07668927
000250 46 b7 17 3d 45 c3 10 3e ea e3 78 bd 0c 41 2b 3d
       0.037040018 0.1413699 -0.06076423 0.04181008
000260 38 f3 32 bd 2a 3f a4 3d af 4f 00 be 1a 9d 90 be
       -0.043688983 0.0801986 -0.12530397 -0.2824486
000270 06 93 d3 bd be a8 95 bd 15 90 aa bd dc e0 5b 3d
       -0.10330777 -0.07307576 -0.08328263 0.05368124
000280 02 8b 06 3d 3a 14 3f 3d 5e 41 fa 3d 56 2c e8 3d
       0.032847412 0.04665015 0.12219499 0.113365814
000290 f9 74 e6 3b 37 aa 06 3e b3 39 f1 bd 6c 29 1a bd
       0.007032987 0.1315087 -0.117785834 -0.03763716
0002a0 b2 23 06 bc ac ad 1f 3e 84 81 64 be 70 61 06 3d
       -0.008187221 0.15593594 -0.22315031 0.032807767
0002b0 96 6d a6 3d dd 13 79 bd 20 7c c3 bc 97 ca 7e be
       0.081263706 -0.06080996 -0.023862898 -0.2488197
0002c0 4c 8b db bb c7 b4 c2 3c 3b 63 bb bd e9 16 ef bc
       -0.006699955 0.023767842 -0.09149786 -0.02918573
0002d0 7b 77 42 be df 2b 0f bd 73 54 ac bd a5 75 e3 bd
       -0.1899089 -0.034953948 -0.08414545 -0.11106423
0002e0 7c 24 76 3d 12 cb cb 3d af 1d a4 3d 14 2b 03 3d
       0.060093388 0.09950842 0.08013474 0.032023504
0002f0 3f 6b 2c be ea 37 af 3d d5 92 b8 bd 14 ef ed 3c
       -0.16837786 0.08555587 -0.09012381 0.029044665
000300 92 f8 e5 bd 65 e8 28 be 82 2e f0 bd 9f 01 b7 bd
       -0.11229052 -0.16494901 -0.11727621 -0.08935856
000310 c4 77 68 bd 7d 91 17 be d0 ad 38 be 15 d7 8d be
       -0.056754842 -0.14801593 -0.18035054 -0.27703157
000320 50 7a 8a bd 75 80 dd 3d a6 54 a5 3d a4 9d 30 3d
       -0.067616105 0.10815517 0.08072786 0.043119088
000330 63 c1 34 3d ce e8 41 3e be f6 56 be 89 ab c6 bb
       0.04412974 0.18936464 -0.20992562 -0.006062929
000340 f7 19 73 be 69 61 7a 3e 9b 90 3c bd aa c1 8e 3c
       -0.23740374 0.24451222 -0.046036344 0.01742633
000350 b6 70 60 be e3 d1 c9 bc 12 0d 1e 3e 0b a1 f9 bd
       -0.21917996 -0.024636215 0.15434673 -0.1218892
000360 6b 7d c6 39 44 6b 49 3c 83 f3 09 3e 5d df 51 3e
       0.00037858947 0.0122936405 0.13471799 0.20495363
000370 f5 a5 c6 3c 1b c8 85 be 7f c1 1d bd ee 49 39 3c
       0.024249056 -0.2612923 -0.03851461 0.01130913
000380 27 4a ed bd 40 4a 40 be 85 9e 28 3e 01 36 0d be
       -0.11586409 -0.18778324 0.1646672 -0.13790132
000390 17 df d9 bd 9e 63 ef 3d 9e de 80 3e a6 19 94 be
       -0.10638254 0.11688922 0.25169843 -0.28925818
0003a0 e9 84 32 be 27 ec 94 3d eb 00 87 3d 27 59 1e be
       -0.17433514 0.07271605 0.06591972 -0.15463696
0003b0 86 fe a4 bd f5 3d 59 bc 88 c0 4e bb 7f 9f a4 bd
       -0.08056359 -0.013259401 -0.0031547863 -0.08038234
0003c0 52 73 03 3e 2c 09 04 be cf 3f 08 3c 02 a4 82 bd
       0.1283696 -0.12894124 0.008315994 -0.06378938
0003d0 83 31 fa 3c 7a 17 2d 3e b7 26 2c bd e0 71 89 bd
       0.030541187 0.16903487 -0.04202911 -0.06711173
0003e0 9c c4 33 3c 2e 85 04 3d 25 14 81 bd 4a f3 09 be
       0.010972168 0.032353573 -0.063026704 -0.13471714
0003f0 56 b1 6a 3d 06 a5 75 bc 23 1b 5b 3e b1 4d ed bd
       0.057298027 -0.014992958 0.2139707 -0.11587084

f_model.fc2.bias f4 [10]
000000 71 64 2f 3e 11 23 30 3e d5 28 a8 3d 25 d5 38 3c
       0.17128159 0.17200877 0.08210913 0.011281286
000010 04 5c c3 bc 76 f1 7a be fe 46 87 3b c6 24 8a bd
       -0.023847587 -0.24506173 0.004128336 -0.06745295
000020 b1 bf f0 bd c8 27 ea bc
       -0.11755312 -0.028583422
