models/Adversarially trained models/robust_sequential_model_cons1.pt (torch, 462069 bytes, 12 tensors)

g_model.conv1.weight f4 [32, 1, 3, 3]
0	0x3eb18184	0.34669125
1	0x3e8fd084	0.28088772
2	0xbe5afd73	-0.21385746
3	0x3e77e0d2	0.24206856
4	0x3efa3dd5	0.488753
5	0x3dbad1f7	0.09122079
6	0x3eb0c50e	0.3452534
7	0xbe1e1e4e	-0.15441248
8	0x3e154e53	0.1458066
9	0x3ee65d06	0.44992846
10	0x3e115f7f	0.14196585
11	0xbda482cd	-0.08032761
12	0x3edd68c7	0.43244
13	0x3ed8681e	0.42266935
14	0x3dae5d4a	0.08513887
15	0x3ed69933	0.41913757
16	0x3d8936f9	0.06699938
17	0x3da8b70a	0.08238037
18	0x3e0d98d4	0.1382783
19	0x3ddb63c8	0.10712391
20	0x3d8a9de9	0.067684
21	0x3e195585	0.1497403
22	0x3e7ae936	0.24503025
23	0x3ec4c320	0.3843012
24	0xbe948d80	-0.29014206
25	0xbec2625e	-0.37965673
26	0xbea68108	-0.32520318
27	0xbe1a5f6c	-0.15075463
28	0xbea71d8a	-0.32639724
29	0xbd44c4a2	-0.048039086
30	0xbdcbdb6c	-0.09953961
31	0xbea7cac3	-0.32771882
32	0xbe6da3b6	-0.23206982
33	0x3eb78a0f	0.35847518
34	0x3e95f6d4	0.29289877
35	0x3e876458	0.26443744
36	0xbe6f0391	-0.23341204
37	0xbe327dba	-0.17430773
38	0x3ed1d3cb	0.40981898
39	0xbe9bb519	-0.30411604
40	0x3ebef46f	0.37295863
41	0x3ea4e51c	0.32206047
42	0xbda993fc	-0.08280179
43	0x3ede9cef	0.43479106
44	0x3bcc544c	0.006235635
45	0xbd8de213	-0.06927886
46	0xbdd7900b	-0.10525521
47	0xbddf4cc2	-0.10903312
48	0xbe5ee6b6	-0.21767697
49	0xbb53f0a5	-0.003233948
50	0xbe6dfb79	-0.2324046
51	0xbe69b47b	-0.22822754
52	0xbde88b85	-0.11354736
53	0xbe50bf95	-0.20385583
54	0xbe5729c6	-0.21012029
55	0xbe473708	-0.19454587
56	0x3d01bade	0.03167235
57	0xbcf2b407	-0.02962686
58	0x3e755bb1	0.23960759
59	0xbdf5c6f5	-0.12000839
60	0x3d8a061a	0.06739445
61	0xbde7afe4	-0.11312845
62	0xbe92899a	-0.28620607
63	0x3ebf779a	0.37395936
64	0x3e09b760	0.13448858
65	0xbd2feba2	-0.042949326
66	0x3e886a98	0.26643825
67	0x3e35b5a0	0.17745066
68	0x3e36ad9c	0.17839664
69	0x3eca6be4	0.3953544
70	0x3e1742bc	0.14771551
71	0xbe2fb3f5	-0.17158492
72	0x3ea18f19	0.31554487
73	0x3e9bb1b6	0.3040902
74	0xbc8fcf96	-0.01755504
75	0xbe83b6bb	-0.2572535
76	0x3d0dc63e	0.034612887
77	0x3d63b16e	0.055589132
78	0xbe976710	-0.29570818
79	0x3e323c46	0.17405805
80	0x3ec470d5	0.38367334
81	0x3d32f8f0	0.043694437
82	0x3d7214f4	0.059102014
83	0x3e86c437	0.26321575
84	0xbe94c12d	-0.2905363
85	0xbe0e9e4a	-0.1392757
86	0x3db8e2cb	0.09027632
87	0xbe822ed9	-0.25426367
88	0x3dba9dbc	0.09112117
89	0x3ec80ea2	0.39073664
90	0x3ecedd4d	0.40403214
91	0xbe2e87bc	-0.17043966
92	0xbe64fbd7	-0.22361694
93	0xbd63f2e8	-0.055651575
94	0x3c7eb2fc	0.015545603
95	0xbe8c9c97	-0.2746322
96	0x3d499b6f	0.0492205
97	0xbe96f19f	-0.29481217
98	0xbe5234ba	-0.20527926
99	0xbe8c085e	-0.27350134
100	0xbe5fc9da	-0.21854344
101	0x3e3bc198	0.18335569
102	0xbea075b7	-0.3133981
103	0xbb2d4e88	-0.0026444513
104	0x3dcbcca5	0.09951142
105	0xbda5266d	-0.0806397
106	0xbe3c4b4e	-0.18388101
107	0x3ed90b64	0.42391503
108	0xbe9c27a9	-0.30499008
109	0x3e4cb125	0.1998945
110	0x3eac5098	0.33655238
111	0x3edbf64d	0.4296135
112	0xbe07bd14	-0.13255721
113	0x3c30695b	0.010767306
114	0x3d94a54f	0.072580926
115	0x3dd6617a	0.10467811
116	0xbd808bb0	-0.06276643
117	0xbe96146a	-0.2931245
118	0x3de62cb9	0.11238999
119	0x3ea0ec56	0.3143031
120	0x3cf5adf7	0.02999018
121	0xbe7bf7a8	-0.24606192
122	0x3e0dd91f	0.13852356
123	0x3e28188b	0.16415612
124	0x3e6dd2be	0.23224923
125	0xbe96b024	-0.2943126
126	0xbe23c205	-0.15991981
127	0x3e1ada09	0.15122236
128	0x3ef8cea8	0.48595166
129	0x3eee8e63	0.46593007
130	0x3e4616a9	0.19344582
131	0x3e90cbdd	0.28280535
132	0x3e786c18	0.24259984
133	0x3e03a052	0.12854126
134	0xbde564c3	-0.112008594
135	0xbd8338c4	-0.064073116
136	0xbe4aae53	-0.19793062
137	0x3c9e8ec4	0.019355185
138	0x3dec4fed	0.11538682
139	0x3a4efd55	0.0007896026
140	0x3ec43350	0.38320398
141	0x3e430989	0.19046606
142	0x3ec8001e	0.3906259
143	0xbcd9ee07	-0.026602758
144	0xbdf8a254	-0.12140337
145	0x3e67203d	0.22570892
146	0x3e8ebec3	0.27879915
147	0xbe9f5c4f	-0.31125113
148	0xbda4278f	-0.08015358
149	0x3ea8b0a4	0.32947266
150	0xbe346c4a	-0.17619434
151	0xbe7d75c6	-0.24751958
152	0x3e2bf373	0.16792087
153	0xbe6bb421	-0.23017932
154	0xbe0cbdf2	-0.13744333
155	0x3e513cc0	0.2043333
156	0x3e99b0ed	0.30017796
157	0x3e36e5d7	0.17861114
158	0x3e91e106	0.28491992
159	0x3eba3e32	0.36375576
160	0x3ed6b470	0.41934538
161	0x3ee0428e	0.43800777
162	0x3c30cd43	0.010791126
163	0xbda14d67	-0.078760915
164	0xbe25734b	-0.16157262
165	0x3eb8f9dd	0.3612813
166	0xba8cf7ca	-0.0010754999
167	0xbe4f162a	-0.20223299
168	0xbe4ebbfe	-0.20188901
169	0x3e89e86c	0.26935136
170	0x3e75374c	0.23946875
171	0x3e1b2e95	0.15154488
172	0xbdd0bf0c	-0.10192689
173	0x3ea30044	0.3183614
174	0x3e8777d4	0.2645861
175	0x3e96e2e8	0.2946999
176	0x3ee83943	0.45356187
177	0x3e746518	0.23866689
178	0x3d9d2a40	0.07674074
179	0x3dd5e8e8	0.10444814
180	0x3ec90daa	0.39268237
181	0x3edf569f	0.43620774
182	0x3f06b004	0.5261233
183	0xbd8f952d	-0.07010875
184	0xbd9cb716	-0.07652108
185	0x3ed6e13d	0.41968718
186	0x3e5ed9d0	0.21762776
187	0xbea05687	-0.31316015
188	0x3e827f07	0.2548754
189	0x3ec0a474	0.37625468
190	0x3e1f8e9c	0.15581745
191	0x3eb50129	0.35352448
192	0x3e8181c7	0.25294325
193	0x3eee7859	0.46576193
194	0xbd7629d3	-0.06009848
195	0xbe13da08	-0.14438641
196	0x3edba49f	0.42899033
197	0x3d21c1f5	0.039491612
198	0xbeabbfa4	-0.33544648
199	0xbe164753	-0.14675646
200	0x3e874f2a	0.26427585
201	0xbe041eb1	-0.12902333
202	0xbe33a69c	-0.17544025
203	0xbe504e63	-0.20342402
204	0xbdd1b8fd	-0.10240362
205	0xbe473fe8	-0.19457972
206	0xbdf8fb6a	-0.121573284
207	0x3e38cfdc	0.18048042
208	0xbe064940	-0.1311388
209	0xbe42ba1d	-0.19016309
210	0xbe1a3baa	-0.15061823
211	0xbe40530e	-0.18781683
212	0xbe1153d1	-0.1419213
213	0x3ec6b9de	0.3881368
214	0x3edb7806	0.42865008
215	0xbc850479	-0.016237484
216	0xbd08ab23	-0.033366334
217	0x3d98a3da	0.07453127
218	0xbeb859f3	-0.36006126
219	0x3e8fb2aa	0.28065997
220	0xbe8535d5	-0.26017633
221	0xbe4b974c	-0.19881934
222	0x3e6cdf3e	0.23132035
223	0x3ee2b16e	0.44275993
224	0x3e9896a3	0.29802427
225	0xbcfc77d1	-0.030818852
226	0xbea3b7d2	-0.3197618
227	0x3eaf950d	0.34293404
228	0xbe64a1ef	-0.22327398
229	0xbe8947b4	-0.26812518
230	0x3e025b41	0.12730123
231	0xbecb0fa2	-0.39660364
232	0x3e894562	0.26810747
233	0x3e7508cf	0.23929141
234	0x3e966dda	0.29380685
235	0x3d239d24	0.039944783
236	0x3e9baaab	0.30403647
237	0xbd78c734	-0.06073685
238	0xbe5fb9ab	-0.2184817
239	0x3e2e01b8	0.16992843
240	0xbeaa1c25	-0.33224598
241	0xbe199f2e	-0.15002128
242	0xbdeb078f	-0.11476051
243	0x3eba09ff	0.3633575
244	0x3e3a190f	0.18173622
245	0xbe73c721	-0.2380643
246	0xbdb1bd71	-0.08678711
247	0x3e30de44	0.17272288
248	0xbd17072e	-0.03687208
249	0x3ea3c4ab	0.31985983
250	0x3eed7e99	0.4638565
251	0x3d8496d4	0.06474081
252	0xbdfe325c	-0.12411949
253	0xbddc3627	-0.10752516
254	0xbec36ae2	-0.38167483
255	0xbe0f750d	-0.14009495

g_model.conv1.bias f4 [32]
0	0x3c3e373e	0.01160985
1	0xbc10c24d	-0.008835387
2	0xbc2edd53	-0.010672885
3	0x3eb1dc5c	0.34738433
4	0xbe83960c	-0.25700414
5	0x3ecec50b	0.40384707
6	0xbea3b6fe	-0.3197555
7	0x3e291e5d	0.16515489
8	0xbddef064	-0.108856946
9	0xbe538e41	-0.20659734
10	0x3df8830a	0.12134369
11	0x3db2cf69	0.087309666
12	0xbcb9efa1	-0.022697272
13	0xbe380a23	-0.17972617
14	0x3e19fe13	0.15038328
15	0xbdbc5ca6	-0.09197359
16	0xbba2255e	-0.004948302
17	0x3d959bf1	0.07305134
18	0xbdec54f3	-0.1153964
19	0x3e713c97	0.2355827
20	0xbe33ff86	-0.17577943
21	0x3dfc2f2a	0.12313683
22	0x3ea387c9	0.31939533
23	0xbe0cc3a6	-0.13746509
24	0xbd05eff1	-0.03269953
25	0x3e6efa08	0.23337567
26	0x3dab46f9	0.08363146
27	0x3d6dbfd6	0.058044277
28	0x3e5b8cde	0.21440455
29	0xbc137fb8	-0.0090026185
30	0x3e8287d0	0.25494242
31	0xbe652b6c	-0.22379845

g_model.conv2.weight f4 [32, 32, 3, 3]
0	0x3dccd4f4	0.10001555
1	0x3d8c4254	0.068485886
2	0x3ce02889	0.027363079
3	0x3d234cd7	0.039868202
4	0x3d5e6cd6	0.054303013
5	0x3c7666f1	0.015039192
6	0x3b7cc90c	0.0038571982
7	0x3d227154	0.03965886
8	0x3d14587d	0.0362172
9	0x3d2e23cb	0.042514604
10	0x3bbcfb5f	0.0057672705
11	0xbd0bbb4e	-0.034114175
12	0x3da88f23	0.08230426
13	0x3d3a4353	0.04547436
14	0xb9f630f5	-0.00046957252
15	0x3c861896	0.016369145
16	0x3cb568b6	0.022144657
17	0x3d6746f5	0.056464154
18	0x3cfe191f	0.031017838
19	0xbd44a205	-0.048006076
20	0xbcf71bdc	-0.030164652
21	0x3dbbe53b	0.091745816
22	0xbc8aedb9	-0.016959058
23	0x3d140984	0.036141887
24	0x3dc38928	0.09547645
25	0x3d90a64f	0.07062971
26	0x3a859442	0.0010191279
27	0x3c88cb5c	0.016698532
28	0xbb44584b	-0.0029959853
29	0x3d4325c4	0.047643438
30	0x3d283291	0.04106385
31	0xbbbfb802	-0.005850793
32	0x3de0b8bd	0.10972736
33	0xbc48af2c	-0.0122487955
34	0xbb20cab3	-0.002453488
35	0x3d649166	0.055802725
36	0x3cc00550	0.023440033
37	0xbd62dd2c	-0.055386707
38	0x3ccbe857	0.024891062
39	0xbd315137	-0.043290343
40	0xbda9b02a	-0.08285554
41	0xbd203aad	-0.039118458
42	0xbcc98b32	-0.024602506
43	0xbca93181	-0.020653488
44	0x3c972b6a	0.018453319
45	0xbdfa0789	-0.122084685
46	0xbdc4943d	-0.09598587
47	0xbd3a5c9c	-0.045498475
48	0x3bc60d68	0.0060440786
49	0xbdc586fb	-0.09644886
50	0xbc3cc773	-0.011522162
51	0xbd7ba2ea	-0.061434664
52	0xbb828870	-0.00398355
53	0xbda38d40	-0.07985926
54	0x3b17ab05	0.0023142707
55	0xbb8998a5	-0.004199105
56	0xbcba7965	-0.022762964
57	0xbccdf898	-0.025142953
58	0xbd809449	-0.06278283
59	0x3b07357c	0.0020631244
60	0x3bdf3357	0.00681154
61	0x3ba13685	0.0049198293
62	0xbd5ecb16	-0.054392897
63	0xbb762a4a	-0.0037561827
64	0x3d915382	0.07096006
65	0xbd6beba5	-0.057597775
66	0x3d855e08	0.06512076
67	0x3c6b1228	0.0143475905
68	0xbc243ed9	-0.01002475
69	0x3c44e97e	0.0120185595
70	0xbc996018	-0.018722579
71	0xbca846f6	-0.02054165
72	0x3d8b15de	0.0679128
73	0x3ce40651	0.027835043
74	0x3d5c9aec	0.053858683
75	0x3e0da290	0.13831544
76	0x3d84f6de	0.06492399
77	0x3ccdce4f	0.02512279
78	0x3d83c92c	0.06434855
79	0x3e07042a	0.13185182
80	0x3e22fdcf	0.15917133
81	0x3da42aac	0.080159515
82	0x3d25499f	0.040353414
83	0x3e099abc	0.13437933
84	0x3dd181d4	0.10229841
85	0x3d4fef76	0.050765477
86	0x3bcf48fe	0.00632584
87	0xbd43dd92	-0.047818728
88	0x3ddafac8	0.10692364
89	0x3dbf4f2e	0.09341274
90	0xbd3a9126	-0.04554858
91	0xbd8785d0	-0.066173196
92	0xbd3e0c15	-0.04639824
93	0xbdb92d67	-0.09041863
94	0xbdf19103	-0.11795237
95	0xbdc5f9dc	-0.096667975
96	0xbdc104e8	-0.09424764
97	0xbd9d94ec	-0.0769442
98	0xbdbc4e9a	-0.091946796
99	0xbd3a9d67	-0.045560267
100	0xbcfaedbc	-0.030630939
101	0x3cd2bd0b	0.025724908
102	0x3cfb77dd	0.030696804
103	0xbdc3b8fb	-0.095567666
104	0x3affe8ba	0.0019524314
105	0xbb348996	-0.0027547828
106	0xbacc6bc0	-0.0015596077
107	0x3bf1836e	0.007370404
108	0x3dd3e2e8	0.10346013
109	0x3d9c4071	0.07629479
110	0xbd62c466	-0.05536308
111	0xbcef21ba	-0.029190887
112	0xbd123733	-0.035697173
113	0x3d4b2aaa	0.049601234
114	0x3d9eec96	0.07759969
115	0x3d7e3430	0.06206149
116	0xbc40cbcb	-0.011767338
117	0x3e1f9307	0.1558343
118	0x3db2faf6	0.08739273
119	0x3e0acdcb	0.13555066
120	0x3e26f65c	0.16304916
121	0x3e0b0c61	0.13578941
122	0x3e0ee270	0.13953567
123	0x3e080781	0.13284113
124	0x3dc1c6c8	0.09461743
125	0xbd1c7488	-0.03819707
126	0x3d861ce9	0.06548483
127	0xbc8d09a5	-0.017216513
128	0xbd2e6365	-0.04257526
129	0x3d7c0894	0.06153162
130	0xbc0ab1a6	-0.008465206
131	0x3bce3a18	0.0062935464
132	0x3c577931	0.013151453
133	0x3d2e2ac3	0.04252125
134	0x3b87a2b6	0.0041392697
135	0x3d8d957d	0.06913278
136	0x3ca6a400	0.020341873
137	0xbd4be9f9	-0.04978368
138	0xbb901d9e	-0.004398062
139	0x3d8b9a05	0.06816486
140	0x3d0e2d77	0.034711327
141	0x3d26ad76	0.04069277
142	0xbd104b0d	-0.035227824
143	0x3bcd9d30	0.0062748417
144	0x3e00cffe	0.12579343
145	0x3c9e7c42	0.01934636
146	0x3da2762c	0.07932696
147	0x3dc8f2d7	0.09811943
148	0x3d6477ff	0.0557785
149	0x3d52378a	0.051322497
150	0x3d44e88e	0.048073344
151	0x3df2843d	0.11841629
152	0x3dbc0bad	0.091819145
153	0xbc851bd5	-0.016248623
154	0xbd06f9b5	-0.032952983
155	0x3c9e5277	0.019326432
156	0xbc7c89b1	-0.015413688
157	0xbb30b263	-0.0026961796
158	0xbd164d73	-0.036694955
159	0x3c803fad	0.015655363
160	0xbbe0353b	-0.006842283
161	0x3c012e6d	0.007884604
162	0x3e60065a	0.21877423
163	0x3df20f34	0.11819306
164	0x3d232259	0.03982768
165	0x3e22c7a3	0.15896468
166	0x3e4c165a	0.19930401
167	0x3e0de971	0.13858582
168	0x3d86f685	0.065899886
169	0x3e2d63fa	0.1693267
170	0x3e54750f	0.2074778
171	0x3d27c338	0.04095766
172	0xbb271897	-0.0025496834
173	0xbdaf4cce	-0.08559571
174	0xbc9efbaf	-0.019407121
175	0x3d5e8d41	0.05433393
176	0xbd35a51b	-0.04434691
177	0x3c5222d7	0.012825689
178	0x3d0df987	0.034661796
179	0x3c78adf0	0.015178189
180	0x3db734a4	0.08945587
181	0xbd93a6fd	-0.07209585
182	0xbc12c425	-0.008957897
183	0x3dc14e3b	0.094387494
184	0x3d3e3ebb	0.046446543
185	0xbcc26910	-0.023731738
186	0xbcb68b6e	-0.022283282
187	0x3d2640ea	0.04058925
188	0x3d4863c8	0.048923284
189	0x3aa9c508	0.0012952397
190	0xbd12d9fd	-0.03585242
191	0xbd9471ac	-0.07248244
192	0xbcab88f2	-0.020939324
193	0xbd00a942	-0.031411417
194	0xbc1ace3c	-0.009448584
195	0x3c752eea	0.014964798
196	0x3d7563a1	0.059909467
197	0x3da6556a	0.0812176
198	0xbcc57b06	-0.024106514
199	0xbd975273	-0.07388773
200	0xb929ab10	-0.00016180822
201	0xbd811f4f	-0.063048
202	0xbd16e60f	-0.036840495
203	0xbd85b70b	-0.06529053
204	0x3cb7ace8	0.022421315
205	0x3cc452bf	0.023965238
206	0xbda194e1	-0.078897245
207	0x3def2ed1	0.116788514
208	0x3db0745e	0.08615945
209	0x3a952928	0.0011380063
210	0x3c5c98c4	0.013464157
211	0x3dfb8b03	0.12282374
212	0x3da5327b	0.08066269
213	0x3c440919	0.01196506
214	0x3d93967e	0.072064385
215	0x3e1e449e	0.15455863
216	0x3e05aa54	0.13053256
217	0x3cbd5d67	0.023115827
218	0x3d0c1768	0.03420201
219	0x3d25b4ae	0.040455513
220	0x3cea54af	0.028604833
221	0x3d1222e7	0.035677817
222	0xbd97a005	-0.07403568
223	0x3d1c129e	0.038103692
224	0x3e00ef31	0.12591244
225	0x3c3e5d98	0.011618994
226	0x3ca96c87	0.020681633
227	0x3d6afe9f	0.05737173
228	0x3d81134f	0.06302511
229	0x3d01c77c	0.031684384
230	0x3d0e0da0	0.034680963
231	0xbcc67e76	-0.024230223
232	0x3d483598	0.048879236
233	0x3ccd78a6	0.025081944
234	0xbb5f11ae	-0.0034037638
235	0xbc89d547	-0.016825331
236	0x3c9b86bd	0.018985147
237	0xbb07806f	-0.0020675918
238	0x3b88b08a	0.0041714357
239	0xbd9be8d4	-0.07612768
240	0x3de93eb9	0.113889165
241	0x3decfd92	0.11571802
242	0x3d58dd80	0.052945614
243	0x3c08279a	0.008310223
244	0x3d6e3f91	0.05816609
245	0xbbdf79c2	-0.0068199346
246	0xbc7b99a9	-0.01535646
247	0x3cb333c7	0.021875275
248	0x3d44b328	0.04802242
249	0x3b83bdb2	0.004020416
250	0xbd2beba5	-0.041972775
251	0x3d5dfa77	0.05419394
252	0x3d384547	0.044987943
253	0xbba4c978	-0.0050288998
254	0xbcd6ade5	-0.026205966
255	0xb9c334d9	-0.00037232673

g_model.conv2.bias f4 [32]
0	0xbd770bdb	-0.06031404
1	0xbb9c8ca7	-0.0047775093
2	0xbd196c81	-0.037456993
3	0x3c5901de	0.013245074
4	0x3cc30b24	0.023809023
5	0xbc7082e3	-0.014679643
6	0x3ca254cc	0.019815825
7	0x3ceddfb9	0.029037343
8	0xbc53da41	-0.012930454
9	0x3d1592f8	0.036517113
10	0xbcdb4225	-0.026764939
11	0xbd2b4c38	-0.041820735
12	0x3c6f4093	0.014602798
13	0xbc476391	-0.012169735
14	0xbd1d8af0	-0.03846258
15	0xbd7772f0	-0.060412347
16	0xbd821d2b	-0.063532196
17	0xbd3296b4	-0.043600753
18	0x3cbd2e83	0.023093468
19	0x3c89f9c9	0.01684274
20	0x3bdb00b4	0.0066834334
21	0xbd5acac9	-0.053416047
22	0xbc6c004b	-0.014404367
23	0xbd495732	-0.04915542
24	0xbc98cf4d	-0.018653536
25	0x3b64a1fe	0.0034886594
26	0x3c1c9108	0.0095560625
27	0x3c847918	0.016171023
28	0xbd432b91	-0.04764897
29	0x3bb4b5d1	0.0055148383
30	0xbd47f4a0	-0.048817277
31	0x3d1d45a2	0.038396485

g_model.fc1.weight f4 [128, 800]
0	0xbaeaacfc	-0.0017904337
1	0x3c8b55b8	0.017008647
2	0xbbfa5dda	-0.0076405825
3	0x3d20612f	0.03915518
4	0xbcbe7775	-0.02325032
5	0xbc1d8f2b	-0.009616653
6	0xbcc88478	-0.024477229
7	0x3c919aaf	0.017773954
8	0x3d701bdf	0.05862033
9	0x3cdf4b54	0.027257599
10	0xbb8ad3d7	-0.004236679
11	0xbc836e55	-0.016043821
12	0x3d34fbac	0.044185326
13	0x3d0825e9	0.03323928
14	0x3bf65f73	0.0075187027
15	0x3cbf9de5	0.02339072
16	0x3cb726b7	0.022357328
17	0x3d0e379d	0.034721006
18	0x3cb37da7	0.021910502
19	0x3cda104a	0.026619095
20	0x3d8d730e	0.069067106
21	0xbac56b62	-0.001506191
22	0x3d7bcd77	0.061475243
23	0x3d0b7489	0.034046683
24	0x3ba81f76	0.0051307036
25	0x3d094a21	0.03351796
26	0x3d61a3c2	0.055087812
27	0x3c49eb72	0.012324201
28	0x3cabcd06	0.020971786
29	0xbc86744f	-0.016412882
30	0x3ca15f65	0.019698808
31	0x3d1ed499	0.038776968
32	0xb9ab19d3	-0.00032634902
33	0x3d0f050a	0.034916915
34	0x3c9be44c	0.019029759
35	0x3caf81c0	0.021424174
36	0xbae81658	-0.0017706854
37	0x3d303231	0.043016616
38	0x3c3d4be1	0.0115537355
39	0xbac33a45	-0.0014894685
40	0xbba2b011	-0.0049648364
41	0x3d4d27b5	0.050086696
42	0x3a859419	0.0010191231
43	0xbbd02fa8	-0.0063533373
44	0x3cf5225a	0.029923607
45	0x3b21ab67	0.0024668814
46	0xbd2cc931	-0.04218406
47	0x3c167049	0.009182044
48	0x3d098c6a	0.033581175
49	0x3cf9d575	0.030497292
50	0xbc17e3fc	-0.009270664
51	0xbc499917	-0.012304566
52	0x3cc7d058	0.024391338
53	0x3a18641f	0.0005813259
54	0x3c315a35	0.01082473
55	0x3b7ade9a	0.0038279654
56	0xbb8ab0e6	-0.0042325137
57	0xba858908	-0.0010187933
58	0x3cac7823	0.02105338
59	0x3d917f43	0.07104351
60	0xbc9e667f	-0.019335983
61	0xbc1a7ff9	-0.009429925
62	0x3d1926cc	0.037390515
63	0xbca6d889	-0.020366924
64	0x3d5ff66b	0.054678362
65	0xbcab44c3	-0.020906812
66	0x3c4a5963	0.012350413
67	0xba518734	-0.0007992864
68	0xbca6c6d6	-0.020358484
69	0x3c8ebf13	0.017425096
70	0x3d37dc45	0.0448878
71	0x3c9293ef	0.017892806
72	0xbc2dfb12	-0.010618942
73	0x3bee6a54	0.007275859
74	0x3c721e86	0.014777785
75	0x3c93c43f	0.018037913
76	0xbc6fc82f	-0.01463513
77	0x3d54e764	0.051978484
78	0x3d56774a	0.052359857
79	0xbaa1b085	-0.0012335932
80	0x3d553cc8	0.05205992
81	0xbbedcb12	-0.007256874
82	0x3d1b8568	0.037969023
83	0x3ce2936f	0.027658192
84	0x3bfc919d	0.007707788
85	0x3cb68f95	0.022285262
86	0x3b9c3f19	0.004768264
87	0xbd316bae	-0.043315582
88	0xbc39c9c3	-0.011339608
89	0x3d74421e	0.059633367
90	0xbc086e69	-0.008327105
91	0x3c9df47d	0.01928162
92	0x3d025dab	0.03182761
93	0xbd0f17c0	-0.03493476
94	0x3c832191	0.016007217
95	0x3d6e34c6	0.058155797
96	0x3c04a81e	0.008096723
97	0x3c850a96	0.0162404
98	0x3d5e6bba	0.054301955
99	0x3cd2c761	0.025729837
100	0xbcb982c6	-0.022645365
101	0xbd9d61ab	-0.07684644
102	0xbc4aebcf	-0.012385323
103	0x3a1e5358	0.0006039641
104	0x3c8cb07f	0.017174004
105	0x3b18be38	0.0023306739
106	0x3cb6a836	0.022297006
107	0x3d28bdd9	0.041196678
108	0x3b7048d1	0.0036664496
109	0x3cf7e078	0.030258402
110	0x3cf3c3c1	0.029756429
111	0x3b8ab3f0	0.004232876
112	0x3d0772dd	0.033068527
113	0x3cb9cc72	0.022680495
114	0xbc512386	-0.012764817
115	0xbce8bc8f	-0.028410224
116	0xbccfc485	-0.025362263
117	0x3baab031	0.005208992
118	0x3c240f67	0.010013438
119	0x3ba1ca87	0.004937473
120	0x3d86806b	0.065674625
121	0x3d80ee5f	0.06295466
122	0x3cc358be	0.023846027
123	0xbc4cbef9	-0.012496703
124	0xbd169a67	-0.036768343
125	0xbbc5162d	-0.0060146064
126	0xbc800928	-0.015629366
127	0xbc6c61ca	-0.014427612
128	0x3d04d983	0.032433998
129	0x3ca3b4dc	0.019983701
130	0xbca0c544	-0.019625314
131	0xbccb8de2	-0.024847928
132	0x3d2b8dcd	0.04188328
133	0xbb1c15f1	-0.002381679
134	0x3d4b9302	0.049700744
135	0x3d18646d	0.03720515
136	0x3cd7519a	0.026284028
137	0x3d0302ec	0.03198521
138	0xbc935683	-0.017985588
139	0x3d22423d	0.03961395
140	0xbd4268fc	-0.047463402
141	0xbd30c450	-0.04315597
142	0xbd370ec9	-0.044691835
143	0xbcf75b82	-0.030195002
144	0xbca5c864	-0.020237155
145	0x3d0d3fd6	0.034484707
146	0x3cd91502	0.026499275
147	0x3d3135e9	0.043264303
148	0x3c5f1d29	0.013617792
149	0x3c83889a	0.016056348
150	0xbb45adb6	-0.0030163354
151	0xbc11d7a2	-0.0089015085
152	0x3d27a4c3	0.040928613
153	0xbc865b40	-0.016400933
154	0x3c40ef97	0.011775873
155	0xbb8784a8	-0.004135687
156	0x3cbf9a3a	0.02338897
157	0xbab012a1	-0.0013433286
158	0x3c4c14e8	0.012456156
159	0x3ca67807	0.020320905
160	0x3c8e40da	0.017364908
161	0xbc90897b	-0.01764368
162	0x3c90a28a	0.01765563
163	0x3c772714	0.015085001
164	0x3bffa84e	0.007802046
165	0xbaa0c52e	-0.0012265795
166	0x3ce840f9	0.028351294
167	0x3d901da6	0.07036905
168	0xbc98b2cc	-0.018639944
169	0xbb039cd7	-0.0020082498
170	0x3d0ce7db	0.034400802
171	0xbc7f3148	-0.015575714
172	0xbcd60ef3	-0.026130175
173	0x3c917201	0.017754557
174	0xbbace5d5	-0.0052764216
175	0xbc27efd1	-0.010250048
176	0xbd3282d2	-0.04358179
177	0xbc0871c9	-0.00832791
178	0xbaac905b	-0.001316558
179	0x3bf411aa	0.007448395
180	0x3c467bb8	0.012114458
181	0x3cd74e33	0.026282405
182	0x3ce7da8a	0.02830245
183	0x3c8ee621	0.017443718
184	0x3d036fd4	0.03208907
185	0x3b214803	0.0024609573
186	0x3d091650	0.033468544
187	0x3c5fb3d1	0.013653711
188	0xbb31892d	-0.002708982
189	0xbc2bc583	-0.010484102
190	0x3d0bd70d	0.034140635
191	0xbb22efa8	-0.0024862085
192	0x3ced6802	0.028980259
193	0x3d770545	0.06030776
194	0x3c3675f2	0.011136519
195	0x3d5678b7	0.052361216
196	0x3d261702	0.040549286
197	0x3d9a268d	0.07526884
198	0xbbf1c0c0	-0.007377714
199	0x3be05a82	0.006846727
200	0x3c85a947	0.01631607
201	0x3d6c0027	0.057617333
202	0x3cffb7e7	0.031215621
203	0xbd55c37f	-0.052188393
204	0xbceec75c	-0.029147796
205	0x3c066dd2	0.008204894
206	0xbc8a924b	-0.016915461
207	0xbb79bc7e	-0.0038106735
208	0xbc0c4251	-0.008560733
209	0xbb5d974c	-0.0033812104
210	0x3c55f143	0.01305801
211	0x3ccb647b	0.024828186
212	0xbc5ecf1e	-0.013599185
213	0x3cf99424	0.030466147
214	0x3acb2f6d	0.0015501805
215	0xbcf3dfef	-0.029769866
216	0xbb9abbca	-0.004722093
217	0x3d47a507	0.048741367
218	0xbce5ee0c	-0.028067611
219	0x3b341a2b	0.0027481418
220	0xbca5f064	-0.020256229
221	0xbcd589ce	-0.026066687
222	0x3be98413	0.00712634
223	0xbb66822c	-0.0035172803
224	0x3cb72ad5	0.022359291
225	0x3c894b2d	0.01675948
226	0x3d351107	0.04420569
227	0x3cb85015	0.022499124
228	0xbcae3a9a	-0.021268178
229	0x3cd986f9	0.026553618
230	0x3b320157	0.0027161443
231	0x3b9e19a9	0.0048248363
232	0x3d4f83b9	0.05066273
233	0x3d0f6890	0.035011828
234	0xbce03fe2	-0.027374212
235	0x3c4d3626	0.012525117
236	0xbc736354	-0.014855225
237	0xbd0a16d5	-0.03371318
238	0x3d445a1b	0.047937494
239	0x3cda9178	0.026680693
240	0xbd692468	-0.056919485
241	0x3be65f8e	0.007030434
242	0xbc390eef	-0.011295064
243	0xbd17fed7	-0.03710827
244	0x3cabf81f	0.020992337
245	0x3cc582b5	0.024110178
246	0xbd81bd8d	-0.06334982
247	0xbc316cfc	-0.010829207
248	0x3d29cf13	0.041457247
249	0xbca2d3e5	-0.01987643
250	0xbc479203	-0.012180808
251	0xbcad5dc0	-0.021162868
252	0xbce6162f	-0.02808675
253	0xbcc97b40	-0.024594903
254	0xbd3c2fcc	-0.04594402
255	0xbba1bc43	-0.0049357726

g_model.fc1.bias f4 [128]
0	0x3ce85efe	0.028365608
1	0x3cc8a431	0.024492355
2	0x3c525f30	0.012840077
3	0x3ca6e61b	0.020373395
4	0x3c906592	0.017626557
5	0xbcb6c443	-0.022310382
6	0x3cf6297c	0.030049078
7	0xbc6496aa	-0.013951937
8	0xbbc72c24	-0.00607826
9	0x3c44e092	0.012016432
10	0xbba70d56	-0.0050980253
11	0x3c8127df	0.015766082
12	0xbbe7a9e4	-0.007069813
13	0xbb9cb45e	-0.0047822436
14	0xbcc894f9	-0.024485098
15	0x3cf589b7	0.029972894
16	0xbaa5970e	-0.0012633519
17	0x3ce3c9a2	0.027806107
18	0xbc259f7a	-0.010108823
19	0x3b38a928	0.0028176997
20	0x3cccccf9	0.025000082
21	0x3c2fdd59	0.010733926
22	0x3c9cbf85	0.019134292
23	0x3caccc50	0.021093518
24	0x3ccbcd0c	0.024878047
25	0x3cdf2b4a	0.027242322
26	0x3c077d7a	0.008269662
27	0xbb992f34	-0.0046748165
28	0x3cd93aca	0.02651729
29	0xbc20d929	-0.0098174
30	0xbc4f4992	-0.012651818
31	0xbc0419b0	-0.008062765
32	0x3cb85140	0.02249968
33	0x3b9dcd25	0.004815715
34	0xbb865bbc	-0.004100291
35	0x3a1fc846	0.0006095212
36	0xbc9fb68a	-0.019496221
37	0x3c29d5f7	0.010365955
38	0x3c50f414	0.012753505
39	0x3cf1303f	0.02944195
40	0xbced7661	-0.028987112
41	0x3d10685c	0.035255775
42	0x3c920080	0.017822504
43	0x3d107898	0.035271257
44	0x3c9b9635	0.018992523
45	0x3c712bd7	0.014719925
46	0x3c2af35a	0.010433996
47	0xbb51fdb7	-0.0032042095
48	0xbbb5cb2b	-0.005547901
49	0x3c9ba5ff	0.019000052
50	0x3cff16b9	0.031138765
51	0x3ccf6896	0.025318425
52	0x3cbbf349	0.022943156
53	0x3d21f27e	0.0395379
54	0xbcfe53e6	-0.031045865
55	0x3c9878ee	0.018612351
56	0x3ce93c15	0.028471032
57	0xbce467f6	-0.027881604
58	0x3c293abf	0.010328948
59	0x3ccd212f	0.025040237
60	0xbd172295	-0.036898214
61	0x3c4f3d5e	0.012648908
62	0xbcb2777d	-0.021785492
63	0xbb9b0d9b	-0.0047318465
64	0x3ca7b8b8	0.020473823
65	0xbd145c8c	-0.036221072
66	0x3c10a75e	0.008828966
67	0x3cce8e0a	0.025214214
68	0xbd4411ca	-0.047868527
69	0x3d4b5c5c	0.049648628
70	0x3c12443a	0.008927399
71	0x3cb1c8df	0.021702228
72	0x3cdb3330	0.026757807
73	0x3c7668cc	0.015039634
74	0x3c16bd00	0.009200335
75	0x3cfa6fe6	0.030570935
76	0xbc9cedd1	-0.019156368
77	0x3d02866c	0.031866476
78	0xbc9486a2	-0.018130604
79	0xbb74cb8f	-0.0037352776
80	0x3cf2b1a0	0.029625714
81	0xbc77ad17	-0.015116951
82	0xbcc24308	-0.023713604
83	0x3bd9e821	0.0066499864
84	0xbc99c8cc	-0.018772505
85	0x3c3640b4	0.011123825
86	0x3be316ba	0.0069301995
87	0x3c97bf68	0.018523887
88	0x3cd4c23a	0.02597152
89	0xbacdb272	-0.001569344
90	0xbbee312d	-0.007269046
91	0xbcf781a7	-0.03021319
92	0x3ccf6233	0.02531538
93	0xbbfd19bf	-0.0077240164
94	0xbcf978c2	-0.03045309
95	0xbcf68a29	-0.030095177
96	0xbbcee49e	-0.0063138744
97	0x3cfc272e	0.030780401
98	0xbc957147	-0.018242491
99	0xbc826fb7	-0.01592241
100	0xbcfe17fc	-0.031017296
101	0x3cb5640b	0.02214243
102	0xbce59683	-0.028025871
103	0xbabe55d5	-0.001452143
104	0xbcd1730b	-0.025567552
105	0x3cd4c95e	0.025974926
106	0x3c97d6b0	0.018534988
107	0x3caa3f49	0.02078213
108	0x3beadda1	0.0071675335
109	0x3c50dfa1	0.01274863
110	0xbcac4c7b	-0.021032562
111	0x3cd964e2	0.026537362
112	0x3c6f3ae1	0.01460144
113	0x3d246d94	0.040143564
114	0xbbd9cc95	-0.0066467025
115	0x3c8bdd28	0.017073229
116	0xbc129d20	-0.008948594
117	0xba807198	-0.0009799479
118	0xbcba7c0b	-0.022764226
119	0xbd02c972	-0.031930394
120	0xbccd5fe5	-0.02507014
121	0x3c54e2d8	0.012993537
122	0x3cdcb2ef	0.026940791
123	0xbc96ce59	-0.018408941
124	0x3c354f0b	0.011066209
125	0xbbd6b0b9	-0.0065518287
126	0x3c2d9a37	0.01059585
127	0x3c1a8a36	0.009432366

g_model.fc2.weight f4 [12, 128]
0	0x3ddea1c7	0.108707
1	0x3d044332	0.032290645
2	0xbc453ab2	-0.01203792
3	0x3d87196a	0.06596644
4	0x3d243462	0.04008902
5	0x3d1c4b56	0.038157783
6	0xbde78ac5	-0.11305765
7	0xbd47d5a1	-0.048787717
8	0xbd0521eb	-0.03250305
9	0xbd437c97	-0.04772624
10	0x3c5cce69	0.013476946
11	0x3dd0db94	0.10198131
12	0x3ce52ff2	0.027976964
13	0x3e1fda41	0.15610601
14	0xbc84500a	-0.016151447
15	0xbceb452e	-0.02871951
16	0xbd60e59c	-0.054906473
17	0x3d4f4bc4	0.050609365
18	0xbdf7e1f9	-0.12103648
19	0xbe09820d	-0.13428517
20	0x3beea810	0.007283218
21	0xbcda7928	-0.0266691
22	0xbd2518a7	-0.040306713
23	0x3d8cc435	0.06873361
24	0xbdcd4201	-0.10022355
25	0x3da33c97	0.07970541
26	0xbe2e4fb1	-0.17022587
27	0xbb123a37	-0.002231253
28	0x3d990e85	0.074734725
29	0xbd96cb62	-0.07363011
30	0x3d619725	0.055075783
31	0xbd004422	-0.031314977
32	0x3d7ed33f	0.06221318
33	0xbd74a3f7	-0.05972668
34	0xbdf3d529	-0.119058914
35	0xbd0752b4	-0.033037856
36	0x3b155565	0.0022786495
37	0x3dde0e18	0.10842532
38	0xbd578abe	-0.05262255
39	0xbd9035fd	-0.070415474
40	0xbcedf790	-0.029048711
41	0x3dae2440	0.08503008
42	0xbce23e3c	-0.027617566
43	0xbc823745	-0.015895495
44	0xbc8e5331	-0.017373653
45	0xbd8ac8a7	-0.06776553
46	0xbc44e3e0	-0.01201722
47	0xbd3445b5	-0.04401179
48	0xbcf347d7	-0.029697342
49	0xbcb91790	-0.022594243
50	0x3c3aae67	0.01139412
51	0xbe0a7bcc	-0.13523787
52	0xbdf5e50d	-0.120065786
53	0x3dcc3134	0.09970322
54	0x3d304a4b	0.0430396
55	0x3d640bd8	0.055675358
56	0xbc944352	-0.018098507
57	0x3dcef894	0.10106006
58	0x3d583795	0.052787382
59	0xba87b70f	-0.0010354238
60	0xbaf550b1	-0.0018716065
61	0xbd93594d	-0.07194767
62	0x3d520249	0.05127171
63	0x3e03724e	0.12836573
64	0x3ceade1d	0.028670365
65	0xbc1a7803	-0.009428027
66	0xbd032d69	-0.03202573
67	0xbda90817	-0.08253496
68	0xbddd8fa8	-0.10818416
69	0x3d444dfb	0.04792593
70	0xbda4eca2	-0.080529466
71	0xbd7edd0a	-0.062222518
72	0x3ca46c04	0.020071037
73	0x3cc4d72d	0.024028385
74	0x3d23c215	0.039980013
75	0x3dbcae20	0.09212899
76	0x3d7499c4	0.059716955
77	0x3d018e87	0.031630065
78	0x3cae6f39	0.02129327
79	0xbc2aed15	-0.010432501
80	0x3d6b766d	0.057485987
81	0xbc6e83ea	-0.014557818
82	0x3cca5869	0.02470036
83	0x3d61905a	0.055069305
84	0xbe0aeda0	-0.13567209
85	0x3cea22be	0.02858102
86	0xbc9b0e11	-0.018927606
87	0x3dbb885b	0.09156867
88	0x3d8019e9	0.06254942
89	0x3d6ebd6d	0.05828612
90	0x3d9d3adb	0.076772414
91	0x3ceee430	0.029161543
92	0xbdf5b93a	-0.1199822
93	0x3e0ac06f	0.1354997
94	0x3dd92b3c	0.106039494
95	0x3de0582e	0.10954319
96	0x3d494eb8	0.049147338
97	0x3c3a9979	0.01138913
98	0xbd356ad5	-0.044291336
99	0xbdde0104	-0.108400375
100	0x3d8c5871	0.06852806
101	0xbd7185d2	-0.05896551
102	0x3da516e1	0.080610044
103	0x3d65b3f0	0.056079805
104	0xbda13007	-0.078704886
105	0x3dbf5d57	0.09343975
106	0xbd967514	-0.0734655
107	0x3d34ee7c	0.04417275
108	0x3df042c6	0.11731486
109	0xbd98e7d7	-0.07466095
110	0xbcb94375	-0.022615174
111	0x3d8a07b8	0.067397535
112	0x3c40968a	0.011754641
113	0xbd45172b	-0.048117798
114	0xbcf76fae	-0.03020462
115	0x3dc78c30	0.097435355
116	0xbdd7191c	-0.10502836
117	0xbd3a72ac	-0.045519516
118	0xbba26293	-0.0049555986
119	0x3de743cf	0.1129223
120	0xbe05f9fb	-0.13083641
121	0x3df3dc5b	0.11907264
122	0x3cd87575	0.026423195
123	0x3d8406b0	0.06446588
124	0x3c8efaaa	0.01745351
125	0x3d5a3548	0.05327347
126	0x37e097ee	2.6773629e-05
127	0xbc38b21f	-0.011272936
128	0x3cdd3721	0.027003827
129	0xbde79766	-0.11308174
130	0xbd2ea076	-0.042633496
131	0xbdadbf77	-0.08483785
132	0xbd9a6154	-0.07538095
133	0x3e01b354	0.12666065
134	0x3de0791f	0.10960602
135	0xbda1b400	-0.078956604
136	0x3b92f8b9	0.0044852165
137	0xbdef13e3	-0.11673715
138	0x3d193173	0.037400674
139	0x3df452fd	0.11929891
140	0x3d8cefa4	0.06881645
141	0x3e0ed7c9	0.13949503
142	0x3d78d95d	0.06075417
143	0xbd8fcfe8	-0.07022077
144	0xbd9f763f	-0.077862255
145	0x3dd66824	0.10469082
146	0x3cab5de5	0.020918796
147	0x3dcca23e	0.09991883
148	0xbd3cf875	-0.046135385
149	0xbda2209c	-0.07916376
150	0x3ddff629	0.10935623
151	0x3d8c9ea5	0.068661965
152	0xbd9e821a	-0.07739659
153	0xbd3bee82	-0.045881756
154	0x3e000f9b	0.12505953
155	0xbd6a8d89	-0.057263885
156	0xbe0ec42f	-0.13942026
157	0xbd9eaca6	-0.07747774
158	0xbc5b37a1	-0.013379962
159	0x3db86e54	0.090054184
160	0x3da6414e	0.08117925
161	0xbd98737d	-0.07443903
162	0xbd94d21a	-0.07266636
163	0xbdea600f	-0.11444103
164	0xbd6d35f8	-0.057912797
165	0xbdbfdbe6	-0.09368114
166	0x3d0fcb78	0.035106152
167	0x3de2db17	0.11076944
168	0xbe10ea0d	-0.14151783
169	0x3d8c988d	0.06865034
170	0x3d075004	0.033035293
171	0x3d825e7a	0.06365676
172	0xbd2287f9	-0.039680455
173	0xbd5a9176	-0.05336138
174	0x3d11fbcc	0.035640523
175	0x3d2e5b0a	0.04256729
176	0x3c151183	0.009098413
177	0xbd70d057	-0.05879244
178	0xbc578bf4	-0.013155926
179	0x3cbed264	0.023293681
180	0x3b027b78	0.001991002
181	0x3d8d83a0	0.06909871
182	0xbd07302a	-0.033004917
183	0x3d5b2e89	0.053511176
184	0x3d614414	0.054996565
185	0x3e0f9d9f	0.14024971
186	0xbcde16be	-0.027110454
187	0x3df5504e	0.119782075
188	0xbda789aa	-0.08180554
189	0x3d171c78	0.036892384
190	0x3d55780e	0.052116446
191	0x3d9e9127	0.07742529
192	0x3e094c60	0.13408041
193	0x3c9b140a	0.018930454
194	0x3d627cb0	0.055294693
195	0xbcdd9323	-0.0270477
196	0x3c88c815	0.016696969
197	0xbb6daa18	-0.0036264714
198	0xbd924832	-0.071426764
199	0x3de0884f	0.10963499
200	0xbdb7a25a	-0.08966513
201	0xbd05bb60	-0.032649398
202	0x3c9b2c72	0.018942092
203	0xbd99fd85	-0.07519058
204	0x3d60467a	0.05475471
205	0x3dab67b2	0.08369388
206	0x3cfb7bb8	0.030698642
207	0x3b9cd4b3	0.004786098
208	0xbd8a8dd2	-0.06765331
209	0x3d20049d	0.0390669
210	0xbd8f16db	-0.06986781
211	0x3d231a53	0.039820027
212	0x3d6a72ab	0.057238262
213	0xbd8949ec	-0.067035526
214	0x3cc66fe0	0.024223268
215	0xbdbc2a89	-0.091878004
216	0xbe0f4fdc	-0.13995308
217	0xbcd5b02c	-0.026084982
218	0x3df2b1b7	0.11850303
219	0x3db6a2ec	0.08917794
220	0x3c6b9fd8	0.014381371
221	0xbd77dcbe	-0.06051325
222	0x3cfa66f1	0.030566664
223	0x3d643c84	0.055721775
224	0xbd45d43a	-0.0482981
225	0xbda8a715	-0.08234993
226	0x3d1cf1bf	0.038316485
227	0xbe1001d3	-0.14063196
228	0xbe0525e2	-0.13002732
229	0x3da1fdf9	0.079097696
230	0xbc718930	-0.014742181
231	0x3db08787	0.086196
232	0x3d2f953a	0.042866923
233	0xbd8d525f	-0.06900477
234	0x3dbb20d5	0.091371216
235	0xbd26c83f	-0.040718313
236	0xbdae03d2	-0.084968224
237	0xbd0b61bd	-0.034028757
238	0xbdd47af0	-0.10375011
239	0x3e140454	0.14454776
240	0xbba7f4d2	-0.0051256204
241	0x3d26e3f4	0.040744737
242	0x3d5dd616	0.054159246
243	0xbe011ab9	-0.1260785
244	0xbd86c9e6	-0.06581478
245	0x3e0d21f7	0.13782488
246	0x3d803ecd	0.06261978
247	0x3c710cea	0.014712552
248	0xbdad65ea	-0.08466704
249	0x3d3edb04	0.04659559
250	0x3d3a7452	0.045521088
251	0xbdb9761b	-0.0905573
252	0xbd930b81	-0.071799286
253	0xbd93c736	-0.07215731
254	0xbded745e	-0.11594461
255	0x3cb475dc	0.022028856

g_model.fc2.bias f4 [12]
0	0x3c1fe692	0.009759562
1	0xbcd2a4b0	-0.025713295
2	0x3b86869e	0.004105403
3	0xbd1ba468	-0.037998587
4	0xbd3b7f8b	-0.04577593
5	0xbd326b26	-0.043559216
6	0xbd5353fb	-0.051593762
7	0xbd942d75	-0.07235233
8	0x3d314b7f	0.04328489
9	0x3c46ce36	0.012134125
10	0xbda46159	-0.0802638
11	0x3da7b042	0.081879154

f_model.fc1.weight f4 [32, 12]
0	0xbe395611	-0.18099238
1	0x3e20e1df	0.15711163
2	0xbe9fe0d7	-0.31226227
3	0x3c7851ff	0.015156268
4	0xbedee37e	-0.43532938
5	0x3eea99eb	0.45820555
6	0xbdcc162b	-0.09965166
7	0x3e32b68e	0.17452452
8	0x3e9da388	0.30788827
9	0x3e90daca	0.28291923
10	0xbda6878d	-0.08131323
11	0x3e93cff3	0.2886959
12	0xbe29172e	-0.16512749
13	0xbd6a955c	-0.057271346
14	0xbd71129b	-0.058855634
15	0xbe862549	-0.2620032
16	0xbe9c25f6	-0.30497712
17	0x3e8f743c	0.28018367
18	0x3e24ac14	0.16081268
19	0xbd31f06c	-0.043442175
20	0x3ea732b5	0.32655874
21	0xbdce93e1	-0.100867994
22	0xbe040b40	-0.12894917
23	0x3e55cd8b	0.2087919
24	0x3e6127bb	0.21987812
25	0x3e0e1e2d	0.13878699
26	0xbdc5715b	-0.096407615
27	0x3da96972	0.08272065
28	0xbe0827df	-0.1329646
29	0xbd0bc818	-0.03412637
30	0x3ed07ff7	0.4072263
31	0x3d1d4ab8	0.038401335
32	0xbe3802a4	-0.17969757
33	0x3e8c3f4d	0.27392045
34	0xbdebcc84	-0.11513618
35	0xbd89bdf7	-0.06725686
36	0x3dfea3f0	0.12433612
37	0x3efe40b0	0.49658728
38	0x3be30ad3	0.0069287806
39	0xbd9f2184	-0.077700645
40	0xbe6ede94	-0.23327094
41	0xbc72bbdb	-0.014815296
42	0x3dbc0865	0.09181289
43	0xbe243c25	-0.16038568
44	0xbe1ec6bb	-0.15505497
45	0x3e100185	0.1406308
46	0x3ecd0382	0.4004174
47	0xbe035a09	-0.12827314
48	0xbe52db96	-0.20591578
49	0xbe1eed53	-0.1552022
50	0xbdc8b036	-0.097992346
51	0x3eac9870	0.3371005
52	0xbdf25e2f	-0.1183437
53	0xbef531e6	-0.47889632
54	0x3c89bf03	0.016814714
55	0x3d790ec8	0.060805112
56	0x3f0b48af	0.5440778
57	0x3e93b585	0.28849426
58	0x3e704315	0.2346309
59	0x3e40aaf3	0.18815212
60	0xbe5422cb	-0.20716397
61	0xbe4c5e26	-0.1995779
62	0xbe21f83b	-0.15817349
63	0x3eac0525	0.33597675
64	0xbe45def2	-0.19323328
65	0x3ef3e41b	0.47634968
66	0x3e69689f	0.22793816
67	0xbe8c8c34	-0.27450716
68	0xbb18257f	-0.0023215709
69	0xbe9f8c6f	-0.3116183
70	0xbd7b89c0	-0.061410666
71	0x3d540dbf	0.05177092
72	0xbe374c09	-0.17900099
73	0x3cf0a879	0.029377209
74	0xbdf429e5	-0.11922053
75	0x3bee5372	0.007273131
76	0xbdddab25	-0.10823659
77	0x3e803219	0.2503822
78	0xbe4fe644	-0.20302683
79	0xbe679b67	-0.22617875
80	0xbeaee79c	-0.3416108
81	0x3e9b1803	0.30291757
82	0xbda8ddea	-0.08245452
83	0x3d023238	0.031786174
84	0x3dd30737	0.103041105
85	0xbdfefe3b	-0.12450834
86	0x3c5d83ed	0.013520223
87	0x3cc64ea1	0.024207415
88	0x3b68518b	0.0035448994
89	0x3e01ff3d	0.12695022
90	0x3e23594e	0.15952036
91	0x3eaeb238	0.34120345
92	0xbe6cde2e	-0.2313163
93	0x3ebad0a6	0.3648731
94	0x3ca256f3	0.019816851
95	0xbe0bf226	-0.13666591
96	0x3eaeda8b	0.3415111
97	0xbe6afc01	-0.22947694
98	0x3d9e0301	0.07715417
99	0x3e3db9cc	0.18527907
100	0x3dc34520	0.09534669
101	0xbdd2d7c8	-0.10295063
102	0xbea6a8b8	-0.32550597
103	0xbe909de4	-0.2824546
104	0xbec75a47	-0.38936064
105	0x3eb110dc	0.34583175
106	0xbe556f37	-0.20843206
107	0x3e02f894	0.12790138
108	0x3effd819	0.49969557
109	0xbe4c40c8	-0.19946587
110	0x3e80db83	0.25167474
111	0x3dc42632	0.09577598
112	0x3e60993e	0.21933457
113	0xbda9e3b1	-0.08295382
114	0x3e02ee41	0.12786199
115	0x3e760f83	0.24029355
116	0xbd16a3eb	-0.036777418
117	0xbdd43203	-0.103611015
118	0x3e2accd0	0.16679692
119	0x3e65bc76	0.22435173
120	0xbca7b33f	-0.020471213
121	0xbe4afcd7	-0.19823013
122	0xbe5dc767	-0.21658097
123	0xbcc1ae5a	-0.023642708
124	0x3ea66d32	0.32505184
125	0xbd6a1316	-0.057147108
126	0xbd62e811	-0.055397097
127	0x3dcc9703	0.09989741
128	0xbebaae2f	-0.36461017
129	0xbe1355f4	-0.14388257
130	0x3ec32343	0.3811284
131	0xbe91e1b1	-0.284925
132	0xbec72f80	-0.38903427
133	0x3cb0b968	0.021572784
134	0x3e80ce37	0.2515733
135	0xbebb39ff	-0.36567685
136	0xbe736e65	-0.23772581
137	0xbe82426d	-0.25441304
138	0x3e150148	0.1455127
139	0xbe8d31de	-0.27577108
140	0x3ed25b51	0.41085294
141	0xbe85f1fa	-0.26161176
142	0x3d9e12e8	0.0771845
143	0x3e7696c8	0.24080956
144	0xbe7bb2df	-0.24579953
145	0xbeb67fe9	-0.35644463
146	0x3e1d7bd5	0.1537927
147	0xbc3ca816	-0.011514684
148	0x3e055815	0.13021882
149	0xbd5d50e2	-0.054032214
150	0xbeadc128	-0.3393643
151	0x3e280b8f	0.16410659
152	0x3e220450	0.15821958
153	0x3e74f55e	0.23921725
154	0xbe3df361	-0.18549873
155	0x3e4fc8ee	0.20291492
156	0xbd936e65	-0.071987905
157	0x3d9f9d4f	0.07793676
158	0x3e50fac7	0.20408164
159	0xbecac27a	-0.396015
160	0x3dc0ba77	0.09410565
161	0xbeb0b675	-0.34514204
162	0x3d511231	0.05104274
163	0xbe7f13e0	-0.24909925
164	0xbe7c3cdd	-0.24632592
165	0xbe55f4aa	-0.20894113
166	0x3de1bcee	0.110223636
167	0xbd6ba072	-0.05752606
168	0x3e062bf0	0.13102698
169	0xbe1b97ba	-0.15194598
170	0xbded1b53	-0.11577477
171	0xbea4a063	-0.32153615
172	0xbe59e24d	-0.21277733
173	0xbe0be8c2	-0.13663009
174	0x3ea8dfbb	0.32983193
175	0x3b8b4c38	0.0042510293
176	0x3d0939c7	0.033502366
177	0xbe450517	-0.19240223
178	0xbe833b3a	-0.25631124
179	0x3eb277cd	0.34857026
180	0x3ec153b7	0.37759182
181	0xbc261f4f	-0.0101393005
182	0x3eb0cd6f	0.34531733
183	0x3e826ec0	0.2547512
184	0xbea2a561	-0.317668
185	0xbdc94727	-0.09828024
186	0x3d24c5cc	0.040227696
187	0x3d8336ee	0.064069614
188	0xbe019c51	-0.12657286
189	0x3dddf336	0.108374044
190	0xbe837c92	-0.25680977
191	0x3e07048a	0.13185325
192	0xbd13dcac	-0.03609912
193	0x3e30f4f8	0.17280948
194	0x3e3b0b34	0.18265992
195	0x3e91e25f	0.2849302
196	0x3e698e2a	0.22808138
197	0x3d9b85df	0.07593893
198	0xbe84d68a	-0.2594493
199	0xbe4cbdec	-0.19994324
200	0xbe59171f	-0.21200226
201	0xbdbbd7ba	-0.09172006
202	0xbe4f5827	-0.20248471
203	0x3e013090	0.12616181
204	0xbe1c95b2	-0.15291479
205	0x3ed6e824	0.41973984
206	0xbe49fcf4	-0.197254
207	0x3d7b8159	0.061402652
208	0xbec05540	-0.3756504
209	0x3d35f132	0.044419475
210	0x3dc7fa21	0.09764505
211	0xbe350d27	-0.17680798
212	0xbe833d1f	-0.2563257
213	0xbc9adb94	-0.018903531
214	0x3ecdbf00	0.40184784
215	0xbe583726	-0.21114787
216	0xbe9d9b59	-0.30782583
217	0x3d9d08dd	0.07667706
218	0xbd14f53e	-0.036366694
219	0xbe7a28ab	-0.24429576
220	0x3eccf3f3	0.40029868
221	0xbd4c6b3e	-0.04990696
222	0xbdb2d53e	-0.08732079
223	0xbe30d4b6	-0.17268643
224	0x3e454388	0.19264042
225	0xbdae917c	-0.08523843
226	0xbdeb5977	-0.114916734
227	0xbe6103ec	-0.21974152
228	0xbe8b64f7	-0.27225468
229	0xbe1f2059	-0.15539683
230	0x3e38c059	0.18042125
231	0xbe669da6	-0.22521076
232	0x3e799185	0.24371918
233	0xbe5da0bb	-0.21643345
234	0xbe91892c	-0.28424966
235	0x3da56a67	0.08076935
236	0xbe90e5fe	-0.2830047
237	0x3e37b290	0.1793921
238	0x3e226a33	0.15860824
239	0x3bc11133	0.005891943
240	0x3d89d75e	0.06730531
241	0x3cb85b93	0.022504603
242	0xbde51e34	-0.111874014
243	0xbe1275e7	-0.14302789
244	0xbdcae1cf	-0.09906351
245	0xbe14d6ba	-0.14535037
246	0x3f035ed2	0.5131656
247	0xbe63d778	-0.22250164
248	0xbe3354f2	-0.17512873
249	0xbda37c20	-0.07982659
250	0xbbd26e85	-0.0064218664
251	0xbdb60237	-0.08887141
252	0x3e551366	0.20808181
253	0x3e633372	0.22187594
254	0x3e1d087e	0.15335271
255	0x3db737c2	0.08946182

f_model.fc1.bias f4 [32]
0	0x3e8962b5	0.2683312
1	0x3deabee1	0.114621885
2	0x3d29fab4	0.041498855
3	0x3dd9ed3a	0.106409505
4	0x3bffa218	0.0078013055
5	0x3d806be5	0.06270579
6	0x3d28ff12	0.04125888
7	0x3dec2a00	0.11531448
8	0xbe3d932e	-0.18513176
9	0xbdf3c954	-0.11903635
10	0x3e479a80	0.19492531
11	0xbd321f4c	-0.04348688
12	0x3dcd36f4	0.10020247
13	0x3eba21e1	0.36353973
14	0x3e431f6e	0.19054958
15	0x3e463d3b	0.19359295
16	0xbe71ff73	-0.23632602
17	0x3eb966e5	0.36211315
18	0xbbcccf40	-0.006250292
19	0x3e097980	0.13425255
20	0x3dd42358	0.10358304
21	0xbe89f46f	-0.269443
22	0x3de6e903	0.11274912
23	0x3eece576	0.46268815
24	0x3d7d9ba1	0.061915997
25	0x3e8041fd	0.25050345
26	0xbdbf6554	-0.09345499
27	0x3e09566a	0.1341187
28	0xbcc09b58	-0.023511574
29	0xbdfacf12	-0.12246527
30	0x3e90f4b4	0.28311694
31	0x3e9c7879	0.30560663

f_model.fc2.weight f4 [10, 32]
0	0xbd913206	-0.07089619
1	0xbdb47ff4	-0.088134676
2	0x3d67170f	0.056418475
3	0xbc293fa3	-0.010330114
4	0xbe545438	-0.20735252
5	0xbe198edf	-0.14995907
6	0xbeb22dbf	-0.34800526
7	0xbd2d9aeb	-0.04238407
8	0x3e55225c	0.20813888
9	0x3e20aae6	0.15690193
10	0xbe25be60	-0.16185904
11	0xbd88d047	-0.06680351
12	0xbdfcc260	-0.123417616
13	0x3db48303	0.08814051
14	0x3e7d4a53	0.24735384
15	0x3e8b5daa	0.27219898
16	0xbe8bb008	-0.2728274
17	0xbef0408a	-0.4692424
18	0xbdfed213	-0.12442412
19	0xbe53667b	-0.20644562
20	0xbe6685a0	-0.22511911
21	0x3e4d51b1	0.20050694
22	0x3d0dbeb5	0.0346057
23	0x3e4c3451	0.19941832
24	0xbdf337ec	-0.118759006
25	0xbe6f53e3	-0.23371844
26	0xbe32a6f6	-0.17446503
27	0x3d69e01e	0.0570985
28	0xbe9fe07a	-0.3122595
29	0xbd24a1b6	-0.040193282
30	0x3eb6246f	0.35574672
31	0xbe751780	-0.23934746
32	0xbd425e3c	-0.04745315
33	0xbd64c02f	-0.055847343
34	0xbd9142fe	-0.07092856
35	0x3ec43522	0.38321787
36	0xbdc71436	-0.09720652
37	0xbe6ae337	-0.22938238
38	0xbda960f1	-0.08270443
39	0xbdda5d01	-0.1066227
40	0x3d48c7d5	0.0490187
41	0xbe218f54	-0.15777332
42	0xbdf0c21b	-0.11755773
43	0x3d89f207	0.06735616
44	0xbea063d7	-0.31326172
45	0xbde81953	-0.11332955
46	0xbe74e75f	-0.23916386
47	0xbd1d9c2a	-0.038479008
48	0x3dff7cde	0.124749884
49	0x3eb7190b	0.35761294
50	0x3d1e1fa2	0.038604386
51	0xbdadce47	-0.0848661
52	0x3dc950cf	0.09829866
53	0xbdca378c	-0.09873876
54	0x3e825aee	0.2546
55	0xbe0c3d7d	-0.13695331
56	0xbda5ca77	-0.08095258
57	0x3e33edd4	0.17571193
58	0x3dc1fa79	0.09471602
59	0x3e031790	0.12801957
60	0x3dfa38c4	0.122178584
61	0xbc2f3e66	-0.010696029
62	0xbd7fffc1	-0.062499765
63	0xbe86722c	-0.2625898
64	0xbe98add0	-0.29820108
65	0xbdfdf3e1	-0.12400032
66	0xbe2be1e4	-0.16785389
67	0xbd943f92	-0.072386876
68	0xbcaef41e	-0.021356639
69	0xbe38f2c1	-0.18061353
70	0x3c068272	0.0082098115
71	0xbe917045	-0.28405967
72	0xbba2aae9	-0.0049642217
73	0x3d689321	0.056780938
74	0xbe8c1234	-0.27357638
75	0x3e2589e6	0.16165885
76	0x3d6a87eb	0.057258528
77	0x3bf5d18a	0.0075017856
78	0xbdb3b2fc	-0.08774373
79	0x3e8941e5	0.26808086
80	0x3e0f2708	0.13979733
81	0xbd963a4e	-0.073353395
82	0xbd67dfbe	-0.05660986
83	0x3da26861	0.07930065
84	0xbe80e6e8	-0.25176167
85	0xba01c991	-0.0004950995
86	0xbdfa762a	-0.12229569
87	0xbc480671	-0.012208567
88	0x3e70c8f3	0.23514156
89	0xbd17027a	-0.036867596
90	0xbe9765c7	-0.29569837
91	0x3e55cde0	0.20879316
92	0x3dd44ec3	0.10366585
93	0x3ea25edd	0.31713
94	0xbeb5150e	-0.35367626
95	0xbe615fd5	-0.22009213
96	0xbd6420fa	-0.05569551
97	0xbeb1e1f7	-0.3474271
98	0xbe1d8fc5	-0.15386875
99	0xbe0506c7	-0.12990867
100	0x3e1f3d2e	0.15550682
101	0x3e179805	0.14804085
102	0x3ca3203c	0.019912831
103	0xbe3e6a58	-0.18595254
104	0x3c7e6a16	0.015528223
105	0xbe691d20	-0.22765017
106	0x3c93acf6	0.01802681
107	0xbe5957f2	-0.21224955
108	0x3da8fa2e	0.08250843
109	0xbeb20592	-0.34769875
110	0x3cb16df9	0.021658884
111	0x3e5f1def	0.21788763
112	0x3e14711d	0.14496274
113	0xbd939b34	-0.07207337
114	0xbd85c729	-0.065321274
115	0xbea46d33	-0.32114562
116	0x3bd18b27	0.006394762
117	0xbe9da4e1	-0.30789855
118	0xbc1a852e	-0.009431167
119	0x3e4dd950	0.2010243
120	0x3d1cb555	0.03825887
121	0xbe7d5350	-0.24738812
122	0x3ea01995	0.31269518
123	0xbcecda1c	-0.028912596
124	0x3e933bb4	0.28756487
125	0xbcbb9243	-0.022896891
126	0xbe5bb6c6	-0.21456441
127	0xbd4b959e	-0.049703233
128	0xbe79bca2	-0.24388364
129	0xbe25651d	-0.16151853
130	0x3c862242	0.016373757
131	0xbe32c11d	-0.1745648
132	0x3dd9b1e6	0.106296346
133	0xbe12e988	-0.14346898
134	0xbbacd1fb	-0.005274055
135	0xbe43a3f6	-0.19105515
136	0xbdc73a84	-0.09727958
137	0xbd861804	-0.06547549
138	0x3dcae85d	0.09907601
139	0x3c64da6d	0.013968092
140	0x3a8a270e	0.0010540204
141	0x3e8a5168	0.27015233
142	0xbe283372	-0.16425875
143	0xbdfacb64	-0.12245825
144	0x3e0c0c36	0.13676533
145	0xbe103e05	-0.14086159
146	0x3e2f2beb	0.17106597
147	0x3dae4679	0.08509535
148	0xbd276481	-0.040867332
149	0x3d6529ae	0.055947952
150	0x3e788092	0.24267796
151	0xbe399171	-0.18121888
152	0xbe717c76	-0.23582634
153	0xbed43451	-0.41446164
154	0x3d6b7e5f	0.057493564
155	0x3e231f1c	0.15929836
156	0xbe3af94c	-0.18259162
157	0xbe0b561d	-0.13607068
158	0xbe7ca7a2	-0.24673322
159	0x3e094717	0.13406025
160	0x3ea83e31	0.32859948
161	0x3e335b86	0.17515382
162	0xbd1fe88d	-0.039040137
163	0xbd4bcaec	-0.04975407
164	0xbee502eb	-0.4472879
165	0x3e895baf	0.26827762
166	0x3e9217d3	0.285338
167	0xbbe91f24	-0.007114308
168	0xbcf1967c	-0.029490702
169	0xbd22e4a0	-0.039768815
170	0xbe8267a0	-0.25469685
171	0xbd925549	-0.07145173
172	0x3dadb7a5	0.08482293
173	0xbc4ec2d9	-0.0126196975
174	0xbdd1297a	-0.10212989
175	0xbdd6a0ba	-0.10479875
176	0xbda6a72f	-0.081373565
177	0x3cd74ce6	0.026281785
178	0x3c66ce96	0.01408734
179	0xbe4d193d	-0.20029159
180	0xbd8c3ae6	-0.068471715
181	0x3d9b3abd	0.07579563
182	0x3bc341c5	0.005958768
183	0xbcf82c10	-0.030294448
184	0x3dab1bf2	0.083549395
185	0xbd8284c0	-0.06372976
186	0xbe1d265a	-0.15346661
187	0x3d2385f2	0.039922662
188	0xbd0a517d	-0.03376912
189	0xbd89519b	-0.06705018
190	0xbcd7ac2f	-0.02632722
191	0xbe14d299	-0.14533462
192	0xbe785cdc	-0.24254173
193	0x3c332e77	0.010936371
194	0x3e570a40	0.21000004
195	0x3d24b670	0.04021305
196	0x3c79d653	0.015248853
197	0x3e5c8d45	0.21538265
198	0xbe3270b0	-0.174258
199	0x3be6b0f0	0.0070401356
200	0xbdf5ae4a	-0.119961336
201	0x3c96f7f3	0.018428778
202	0x3d81920f	0.063266866
203	0x3d5740b0	0.052551925
204	0xbb1e795c	-0.0024181223
205	0x3e246133	0.16052704
206	0x3e911019	0.28332594
207	0x3d6de20f	0.058076914
208	0xbc2f6a7d	-0.010706541
209	0x3cb68f50	0.022285134
210	0xbe1c5fc8	-0.15270913
211	0xbe3de387	-0.18543826
212	0x3ebcb9c6	0.36860484
213	0xbdae8295	-0.08521
214	0xbe77b9e7	-0.2419201
215	0xbe9eb887	-0.31000158
216	0xbda843d8	-0.08216065
217	0xbe1f458f	-0.15553878
218	0xbea53188	-0.32264352
219	0xbe3333ed	-0.17500277
220	0xbdac7876	-0.084214136
221	0xbe70fb9d	-0.23533483
222	0xbee51f00	-0.44750214
223	0xbc87d1ff	-0.016579626
224	0xbe218017	-0.15771519
225	0xbe0e60fd	-0.13904186
226	0x3d5e289d	0.05423795
227	0xbe5f0952	-0.21780899
228	0x3daf76b3	0.08567562
229	0x3dceb95a	0.10093947
230	0xbe1d6f93	-0.15374593
231	0x3dafad05	0.08577923
232	0xbe7a1592	-0.24422291
233	0x3d8b4e4f	0.068020456
234	0x3dd18951	0.10231269
235	0xbd8e2648	-0.06940895
236	0x3cac17f0	0.021007508
237	0xbe8f747d	-0.2801856
238	0xbd1c34ba	-0.03813622
239	0xbe2d8767	-0.16946183
240	0xbbaf4b96	-0.0053495867
241	0xbd9a1e11	-0.07525266
242	0xbe852ebe	-0.26012224
243	0x3e11bbaa	0.14231744
244	0xbe5a237f	-0.21302603
245	0x3bd33c8a	0.006446426
246	0x3e1fea32	0.15616682
247	0x3ea96a83	0.33089074
248	0xbd53ebde	-0.051738612
249	0x3e89918a	0.2686885
250	0x3d638e7a	0.055555798
251	0x3e36f492	0.17866734
252	0xbe052a28	-0.13004363
253	0xbe4fe133	-0.2030075
254	0x3d879a76	0.06621258
255	0xbea7bc45	-0.32760826

f_model.fc2.bias f4 [10]
0	0x3e0d39fd	0.13791652
1	0xbc476c24	-0.012171779
2	0xbd973623	-0.07383373
3	0xbe1714f9	-0.14754094
4	0xbd6b1ce8	-0.057400614
5	0xbe2a7d8e	-0.16649458
6	0x3e23885b	0.15969984
7	0xbdb6fc29	-0.089348145
8	0x3e160d58	0.14653528
9	0xbe4c5d13	-0.1995738
