models/Adversarially trained models/robust_joint_model_cons0.pt (torch, 460591 bytes, 12 tensors)

g_model.conv1.weight f4 [32, 1, 3, 3]
000000 58 c1 a8 3e d6 c4 d5 3e c5 fc bf 3d e1 dd dd 3c
       0.3296001 0.41751736 0.09374384 0.02708334
000010 13 ec 55 3e dc d6 6c 3d a7 f6 ba be 8d ee e7 bc
       0.20890836 0.057822093 -0.36516306 -0.028311992
000020 d2 8b 99 3e 3c aa a5 3e 34 58 0a 3e 4d ba 61 bd
       0.29989487 0.3235644 0.1351021 -0.05510931
000030 c3 00 38 bd 3f 9f 78 be 90 bd 8e be 68 20 ea be
       -0.0449226 -0.24279498 -0.27879 -0.4572785
000040 2e 96 61 bd ab 47 e6 bd 3e be 16 3e 0b ab 0c be
       -0.055074863 -0.11244138 0.14721009 -0.13737123
000050 58 8f aa 3e 85 21 b9 3e cb 5a 9f 3e 8e 97 1b 3e
       0.33312488 0.36158386 0.31123957 0.15194532
000060 35 77 94 3b 21 5f ab 3e af 6f 10 3e 67 3b f5 bd
       0.004530812 0.33471015 0.14105104 -0.11974221
000070 ab c3 e7 3c bd da 58 3e eb ce b3 be b4 8d b3 3e
       0.028291544 0.21177192 -0.35118803 0.35069048
000080 31 be 4a 3c ad 36 46 be bf 28 9f 3e f9 ba cf 3d
       0.012374447 -0.19356795 0.31085774 0.10143084
000090 d1 7b cb 3e 7b bd 96 3e 58 b7 6f 3e 78 12 71 3e
       0.39742902 0.29441437 0.23409784 0.23542202
0000a0 21 0f bd 3e 12 cd 38 be a0 71 1c bd 6a 23 ec bd
       0.36925605 -0.18046978 -0.0381943 -0.11530192
0000b0 1d de 04 3e ad 85 1d be 7f e8 b5 3e 06 0a 46 3e
       0.12975354 -0.15383025 0.35528943 0.19339761
0000c0 8e ff af 3d 2c ab ed bd e0 17 89 3e 3d 66 1e 3e
       0.08593665 -0.11604914 0.26776028 0.15468688
0000d0 db 5c c5 3e df 8d c8 bd 80 0b ab bb 2c a3 9d bd
       0.38547406 -0.09792685 -0.0052198768 -0.07697138
0000e0 be de bf 3e 18 13 7e 3e b2 a4 f8 3d 0b 4c 9e 3e
       0.37474626 0.24811971 0.12140788 0.3091739
0000f0 8e 53 b4 be 28 7f 2a be ce bf 83 bc 5e 1c 58 bd
       -0.35219997 -0.16650069 -0.01608267 -0.052761428
000100 6f 22 28 be 79 a1 74 3e 63 26 bf 3d 67 84 fb 3e
       -0.16419385 0.23889722 0.093334936 0.49124452
000110 be 49 f6 3c be bc da 3e c2 2f d1 3e 7d 36 8c 3e
       0.03006446 0.42722124 0.4085675 0.2738532
000120 76 a5 6b 3e 2b b4 b8 3e 64 a6 4f 3e fb e2 a6 3e
       0.23012337 0.36074957 0.20278317 0.32595047
000130 d3 0d 38 3e 34 c0 3c be 5c b8 31 be 66 b4 dd 3e
       0.17974024 -0.18432695 -0.17355484 0.43301696
000140 69 82 8e bd 9b 71 9b 3e 2d 2c 36 be 1c 6a ce be
       -0.069584675 0.30360112 -0.17790289 -0.4031533
000150 cd 8d 13 be b8 a6 99 3b da 86 b0 be 6e 56 ba be
       -0.14409561 0.004689064 -0.34477884 -0.36394066
000160 99 f6 b4 be cc 12 02 be c7 0d c9 3e df 83 a0 3d
       -0.3534439 -0.12702483 0.39268324 0.078376524
000170 e9 84 95 3e f2 e6 d6 3e 72 b5 12 3e ff f4 af 3c
       0.29202965 0.41973072 0.14327028 0.021479128
000180 ee 64 5f be 61 ae 4c 3e 2b c1 95 be 25 df 12 3d
       -0.21815845 0.19988395 -0.29248938 0.03585734
000190 2e 6c 70 be bd 80 cf be 95 0a 9a 3e 22 c8 dd 3e
       -0.23478767 -0.40527907 0.30086198 0.43316752
0001a0 24 40 07 3e d8 47 0c 3e a1 7a 61 3e 4b 0f 0b 3e
       0.13208061 0.13699281 0.22019435 0.13580053
0001b0 62 1d 92 3d 2a 59 85 3c 30 c6 b0 3d f9 1d 8f 3c
       0.071345106 0.016277868 0.08631551 0.017470347
0001c0 b7 79 c7 3e c5 8a 02 3d da 17 41 3d 0d 09 a8 3e
       0.3896005 0.031870622 0.047141887 0.32819405
0001d0 1e a7 98 3d fc 0f 86 3e 73 24 48 3e 16 03 15 3e
       0.0745375 0.2618407 0.19545154 0.14551958
0001e0 07 b6 2c be 6b 24 ad bd e8 0f 2b 3e 1c 04 56 be
       -0.16866313 -0.08454212 0.16705287 -0.20900005
0001f0 eb 98 75 be b2 97 9b be d2 63 3c 3e 85 e6 b9 3e
       -0.23984115 -0.30389172 0.18397453 0.36308685
000200 c4 8b a7 be 4e 97 e8 3d 28 e0 6c 3e cd d0 d9 bd
       -0.3272382 0.11356984 0.23132384 -0.10635529
000210 20 b1 a2 be 0b c6 dd 3e e3 5d d9 3e 31 e4 8c 3e
       -0.3177576 0.43315157 0.42454442 0.27517846
000220 55 3f 8e 3e 78 58 7c 3e 60 58 43 3e 21 59 34 be
       0.27782694 0.24643123 0.19076681 -0.17612125
000230 79 41 89 3e c1 28 c9 bd c4 f6 02 3e 82 32 0a be
       0.26807764 -0.09822226 0.12789446 -0.1349583
000240 29 9e 38 be 1c 2e 68 be 05 bd ee bd e1 59 1f 3e
       -0.18029083 -0.2267384 -0.11657146 0.1556163
000250 40 29 22 3e 0a 5e 87 be ff 3d 14 3e 83 2c cd 3d
       0.15836048 -0.26438934 0.14476775 0.100182556
000260 ff 56 f2 3e a3 b0 ce 3e 54 08 9a 3e 3a 15 d2 bd
       0.47331998 0.40369138 0.3008448 -0.10257955
000270 ed a7 9c bc b5 36 48 bd fe a8 3d be 6b c2 bc 3e
       -0.019123042 -0.048880298 -0.18521497 0.3686708
000280 b9 64 a2 3e 34 ac e6 3e 8d a0 ca 3e c5 ba cc 3d
       0.3171747 0.45053256 0.39575616 0.09996561
000290 69 48 ca 3d 96 c6 ea 3e 0c 60 b8 3e 74 90 dd 3e
       0.098770924 0.45854634 0.36010778 0.4327427
0002a0 a0 f5 a9 3e fe 74 b7 3e a7 26 82 be 68 0c 94 be
       0.3319521 0.35831445 -0.25420114 -0.28915715
0002b0 ad bd 0b be b9 b9 6b bb ec c9 10 bd 72 fd ab bd
       -0.13646574 -0.0035968854 -0.035348818 -0.0839795
0002c0 b3 6b a9 be 6a 9e a7 bd 27 1f c9 3d a3 dd dd bc
       -0.3308998 -0.08184512 0.09820395 -0.027083224
0002d0 6d 45 9a 3e 88 35 5c bd 98 70 21 be 3d 5c d3 3e
       0.30131093 -0.05376199 -0.15765607 0.4128131
0002e0 13 69 73 3e 3f 07 96 3d e9 86 d9 3e ae 99 d6 3e
       0.23770551 0.07325601 0.4248574 0.41914123
0002f0 1e ad 08 be 80 44 8b be a9 de 4b 3d 72 85 c3 be
       -0.13347289 -0.272007 0.049772892 -0.38187748
000300 e9 07 88 bd 50 2e c2 be ea 35 d8 bd ce da ca be
       -0.06642134 -0.3792596 -0.10557158 -0.3962006
000310 8b 3b 8f 3d d5 e5 08 3f 8d d2 43 be a4 13 2e 3e
       0.06993779 0.53475696 -0.19123287 0.1699968
000320 c6 7e 91 3b ef 98 ea 3d 83 14 58 3e a5 91 0c 3e
       0.0044401614 0.11454951 0.21101575 0.13727434
000330 98 62 00 bd 81 ac a5 3e 32 ba ea 3e 29 61 dd 3d
       -0.031344026 0.32358173 0.4584518 0.108095475
000340 f7 c2 6c be 98 e3 80 bc f1 db 86 3e 81 e6 79 3e
       -0.23121248 -0.015733525 0.26339677 0.24404337
000350 69 66 de 3e a4 f5 dd 3e 88 12 94 bd 9d 20 97 3e
       0.43437508 0.4335147 -0.07230097 0.2951707
000360 c5 17 0f be a9 4d 0c 3e 10 0b aa 3e 61 4b d7 3e
       -0.13973911 0.137015 0.33211565 0.42049697
000370 1a 10 fd 3e fa 92 d0 3e ac 8e 03 3f 71 02 d4 3e
       0.49426347 0.40737134 0.51389575 0.41408113
000380 0c 0d 10 3e 88 0a 90 be 03 a5 32 be 84 8d 89 bd
       0.14067477 -0.28133035 -0.1744576 -0.06716445
000390 91 2f ad bd 03 06 1f be 8c da 47 bd b0 95 ed 3e
       -0.08456338 -0.15529637 -0.048792407 0.46403265
0003a0 1c ab a4 3e f6 5a 9b 3e 10 cf de be 6b d0 b6 bd
       0.32161796 0.30342835 -0.4351735 -0.08926471
0003b0 98 cf 83 3c 31 3a a2 3d 7b 27 35 be ee ba 97 be
       0.0160902 0.079212554 -0.17690842 -0.29634804
0003c0 ad cf cf 3e a7 88 28 3e bb a7 7b 3d 5b a6 1c be
       0.40588132 0.16458379 0.061439257 -0.15297835
0003d0 68 ee 0a ba 41 5a d3 bd 64 ae ae 3d 98 c4 38 be
       -0.00052998075 -0.10319949 0.08529356 -0.18043745
0003e0 31 05 c3 3b 61 8b b4 3c 24 72 ef 3d 95 30 81 be
       0.0059515466 0.022039117 0.116916925 -0.25232378
0003f0 91 c9 f0 3d 3e 8a 66 3e 4a 23 2b 3e 77 52 ac 3e
       0.11757196 0.22513673 0.1671268 0.33656666

g_model.conv1.bias f4 [32]
000000 72 f4 3a be f1 fa bb 3e d6 ef 1e 3d 39 91 fd bd
       -0.18257311 0.3671489 0.038802944 -0.12381215
000010 74 42 01 3d 2a 4c 4b 3e c4 da 11 3e b7 a5 2d be
       0.031557515 0.19853273 0.14243609 -0.16957746
000020 98 e1 4c be 56 bc ad 3e 67 e5 57 3e 2a b9 2d be
       -0.20007932 0.3393275 0.21083604 -0.16965166
000030 56 bf 3b bd 01 0f 94 3e 9c 41 12 3e 28 e0 5f be
       -0.04583677 0.28917697 0.1428284 -0.21862853
000040 b6 6a f0 bd ba 77 6b 3e e9 d3 53 bd 5c 07 a0 3e
       -0.117391035 0.22994891 -0.051715765 0.31255615
000050 50 d4 6f bd b7 0c 3e 3d 4c cd 0f 3d c7 50 b1 3c
       -0.058552086 0.046398845 0.035107896 0.021644963
000060 f6 01 2d be 16 12 fa bd 68 f3 7f 3e 89 34 ea 3d
       -0.1689528 -0.12210481 0.24995196 0.114358015
000070 82 21 8d 3e 45 49 60 bd a4 a5 0d 3c a6 90 77 bd
       0.27564627 -0.054757375 0.008645449 -0.060440682

g_model.conv2.weight f4 [32, 32, 3, 3]
000000 77 d5 9f 3d 0a c3 55 3c fc 06 b6 3c 69 d7 8c bb
       0.07804387 0.013046989 0.022220127 -0.00429814
000010 86 0a e4 bd 4e 7b ee bd 36 16 43 bd 27 7b 60 be
       -0.1113482 -0.11644612 -0.047628604 -0.21921979
000020 56 56 be bd 6a 7c 02 3d 60 67 0c 3d d7 51 df bb
       -0.09293811 0.03185693 0.034278274 -0.006815176
000030 5f 56 1a 3c 9c 72 2b 3d 38 fc 08 3d da ed 26 3c
       0.009420007 0.041857347 0.03344366 0.010188544
000040 ec d7 95 3d b0 40 66 3c 69 d3 b1 3d 14 7a b0 3d
       0.073165745 0.014053509 0.086829014 0.086170346
000050 3a 4a be bc 9d 38 ca 3d 7c bd c4 bc ab b8 a7 bd
       -0.023228753 0.098740794 -0.024016134 -0.081895195
000060 94 b8 9f bd 4c f6 0d bd 5a a9 91 3d ee 18 8a 3d
       -0.07798877 -0.034658715 0.07112379 0.06743036
000070 fe b1 c5 bb d3 3e 9f bd 52 98 5b bd d9 09 39 be
       -0.006033181 -0.07775655 -0.05361206 -0.18070163
000080 52 1e 9b bc c5 d5 03 be af c6 f9 bc c9 c9 c1 3d
       -0.018935356 -0.12874515 -0.030490248 0.094623156
000090 6a 0b a1 3d 7c ee 0f 3e fb 28 9d 3d a1 df a8 3d
       0.07863505 0.14055818 0.07673832 0.08245779
0000a0 98 e0 ab bc a2 53 a3 bc 78 3e b6 3d 1d cd ca bd
       -0.020981118 -0.01993734 0.08898634 -0.099024035
0000b0 27 03 51 ba cf 5d b0 3d 4f 3c 9b 3c 20 87 b8 bc
       -0.0007973187 0.086116426 0.018949656 -0.02252537
0000c0 e0 70 a4 3c d2 41 0f 3d ab 8a 03 3d a1 40 a2 bc
       0.020073354 0.03497488 0.032114666 -0.019806208
0000d0 fa 36 35 bd 04 19 9a 3d 57 45 c3 3d 36 fb 79 3d
       -0.044241883 0.075243026 0.0953471 0.06103059
0000e0 9d 68 26 bd bf 7c 16 3d b9 da ad bc 2f 90 01 bb
       -0.04062711 0.03674006 -0.02122246 -0.0019769778
0000f0 ba 98 58 3d ae ad 74 bc da 31 98 3c a9 1a 08 3e
       0.052880026 -0.014933987 0.018578459 0.1329142
000100 3a 65 8e bc 69 0d 0b be 63 b2 17 3d 04 7e 96 bd
       -0.017382253 -0.13579334 0.037035357 -0.07348254
000110 be c8 74 bd 39 eb 97 bd 8a 14 02 be df 11 93 3d
       -0.059761755 -0.07417912 -0.12703148 0.07181143
000120 e9 b1 27 3e 73 f0 f4 3d ba 98 dc bc 56 e7 83 3d
       0.16376461 0.119599245 -0.026928294 0.06440608
000130 97 ea 11 bd 70 df 23 be 3a b3 61 bd 57 9f 46 be
       -0.035624113 -0.16003203 -0.055102564 -0.19396721
000140 c0 bb a8 bd 60 b5 31 3a cb d2 b0 3c 2c be 51 3d
       -0.082389355 0.0006779041 0.021584889 0.051206753
000150 17 c6 86 3d 0a 37 cf 3d 1b 0e 78 3d bc 8c 3c 3d
       0.065807514 0.1011792 0.060560327 0.046032652
000160 1a 66 c3 3c 1f ae b5 bb fd 10 d0 3d 18 27 51 3d
       0.023852397 -0.0055444385 0.1015949 0.051062673
000170 74 7a 7a 3d 67 7f ba 3d ea 32 71 3c 94 dd a3 bd
       0.061151937 0.09106331 0.0147216115 -0.08001247
000180 4a b5 bb 3d 96 4b 6c bd 3d 69 53 3d 9c fb f5 3a
       0.091654375 -0.057689272 0.051614035 0.0018767002
000190 ee 10 c9 ba 2b a4 1c be 7f 06 6c bd d2 0d 3f be
       -0.0015340128 -0.15297 -0.057623383 -0.18657616
0001a0 d3 2a 6d be 74 cb d7 bd 06 32 51 be c8 ec f1 3b
       -0.23160867 -0.105368525 -0.20429239 0.007382963
0001b0 da a5 35 3d 95 33 bb 3d 1e a5 df bc 1d 24 01 3d
       0.04434762 0.09140698 -0.027300414 0.03152858
0001c0 24 1c f8 bd 04 54 48 bd df 71 8a bd 0f 49 1f be
       -0.121147424 -0.04890825 -0.067600004 -0.15555213
0001d0 8a 5b 96 bc c6 24 bc bc 01 ad 3a 3d 34 d0 23 3c
       -0.018354196 -0.022966754 0.045575146 0.00999837
0001e0 5a 80 86 3d f1 8d 78 3d bd ad e5 3b df 1f 75 3d
       0.0656745 0.06068224 0.0070092366 0.059844848
0001f0 53 f8 06 3d 33 34 4c 3d 3f d3 9e 3d 0c be 41 bb
       0.032951664 0.04985447 0.07755136 -0.002956274
000200 75 c1 27 bd f2 95 30 3d 89 49 7a 3c 2a 6f 32 bc
       -0.04095598 0.04311175 0.015276321 -0.010890761
000210 f1 50 8b bd 1f ee d5 3c ab 28 b5 3c cf f8 3f 3e
       -0.06802548 0.026114522 0.022114119 0.18747257
000220 89 28 a2 3d 91 ad 29 3d 4a c5 d9 3d ae e8 2a 3a
       0.07917888 0.04142529 0.10633333 0.00065196573
000230 0d 10 23 be ce 86 7f bd bc be 37 be 7d d3 c2 bc
       -0.15924092 -0.06238442 -0.17943853 -0.023782486
000240 41 3a 0e bc ea 93 20 be db a7 45 be 38 70 1e be
       -0.008680881 -0.15681425 -0.19302313 -0.15472496
000250 17 b5 9c be bb 9c c3 3c 85 73 0a be c3 09 4e bd
       -0.3060691 0.023878446 -0.1352063 -0.05030228
000260 66 b4 1c 3d 5a 98 84 3d 25 0d 2c 3c 29 36 70 bb
       0.03825798 0.06474371 0.010501181 -0.0036653376
000270 02 94 d0 3d bc d2 bf bb 16 a6 50 b9 bc 88 55 bb
       0.1018448 -0.005853979 -0.00019898298 -0.003258272
000280 7a 87 81 3b cc 12 bc 3d ef 56 f1 3d 97 18 84 3d
       0.0039529176 0.09183273 0.117841594 0.06450003
000290 ee ca 2f bd 68 ed ad 3d 63 7d e0 3c 0f a3 03 be
       -0.04291814 0.08492547 0.027403539 -0.1285517
0002a0 36 9e 9f 3c 0b 4e da bd 47 ed 70 bd da 97 1d 3d
       0.01948462 -0.10659417 -0.058820035 0.038474895
0002b0 4d 17 83 3d 6d ed 86 3d 99 68 c7 3b 23 85 18 3d
       0.06400929 0.06588254 0.006085467 0.037236344
0002c0 a1 b7 9e 3b ab 81 ce bc 59 78 5b 3d 96 07 25 3d
       0.0048436676 -0.025208315 0.05358157 0.040290438
0002d0 1d d8 18 3e 1b 8e 63 3d 21 06 1a 3c 29 a4 bb 3d
       0.1492619 0.055555444 0.009400875 0.091621704
0002e0 ba 37 23 3c 09 d8 e9 bd e0 ae 90 bd b0 f2 0e be
       0.009962017 -0.114181586 -0.07064605 -0.13959765
0002f0 33 28 99 bc 09 e1 a2 bb 95 75 9d bd 7d 5b 46 bd
       -0.018695926 -0.004970674 -0.076884426 -0.048427094
000300 6c cf 48 bb 69 40 f5 3d 9d f9 1d 3e 85 08 25 3d
       -0.0030641211 0.11975176 0.15427251 0.040291328
000310 7b c1 62 3e f3 f3 89 3d 91 e9 3e 3d a6 58 21 bd
       0.2214412 0.06735983 0.046609465 -0.039391182
000320 e7 b3 d2 bd 45 ac 35 3d d8 96 0a bd dd 36 1a 3d
       -0.1028822 0.044353742 -0.033835262 0.037649978
000330 16 4f 8d bd 2e 7a 61 3d 57 cf 51 3d ed 5f 19 3e
       -0.0689985 0.05504816 0.051223125 0.14977999
000340 f8 7c ae ba 9a 59 8f bd f4 d6 7a 3d b6 6c 8d bd
       -0.001331239 -0.06999512 0.06124015 -0.069055006
000350 d6 84 c2 bd aa 40 47 bd 92 bd f4 bc 58 a7 89 3d
       -0.09497993 -0.048645653 -0.02987555 0.067213714
000360 96 69 f4 3d 06 d0 9a 3d e0 71 72 bd 5a ee ed 3c
       0.119342014 0.075592086 -0.05919063 0.029044319
000370 60 a3 5c bd 76 ea 76 bd 96 11 b9 bd c1 11 d2 bd
       -0.053866744 -0.060282193 -0.090365574 -0.102572925
000380 4a 54 6a 3d 34 be 59 bd b0 af 2c be ad 3a 78 be
       0.05720929 -0.053159907 -0.16863894 -0.24241133
000390 7e 8d 0b be 06 a2 bd be e2 7d 80 bd 7d ae 20 be
       -0.13628194 -0.37037677 -0.0627401 -0.15691562
0003a0 8d f2 fb bd 80 ed 89 3d af b3 b5 bd b0 8c 4a bc
       -0.12302122 0.06734753 -0.088721626 -0.012362644
0003b0 3a 6b 87 bd 51 38 ca bc 0a e2 14 3b 43 26 2a bd
       -0.06612249 -0.024685057 0.0022717738 -0.041540395
0003c0 70 88 04 bd 60 79 43 bd f0 a7 a4 bc 51 81 71 bc
       -0.03235668 -0.047723174 -0.02009961 -0.014740304
0003d0 f7 88 59 3d 54 4d 90 3c ee 11 28 bd 0f 3e 78 3d
       0.053109135 0.017614998 -0.041032724 0.06060606
0003e0 97 21 84 bc 28 33 5a 3d e3 64 a1 3d df 5e 10 bd
       -0.016129298 0.053271443 0.07880571 -0.035246726
0003f0 f0 70 c4 3d 5a 8a 40 3d b1 05 5f bd 67 17 0a 3d
       0.095918536 0.047006942 -0.054448787 0.033713724

g_model.conv2.bias f4 [32]
000000 cd f2 d1 3c 48 50 99 bc d4 f6 d2 3c 30 15 92 bd
       0.025628472 -0.018715039 0.025752462 -0.071329474
000010 e6 b4 6e bc c5 6d 8c bc b8 c6 74 3d 80 eb 30 3d
       -0.014569497 -0.017142186 0.059759825 0.04319334
000020 0a 92 c6 3c a4 7c 5d bd 00 ed 84 bc 1d 16 38 3c
       0.024239559 -0.054073945 -0.016226292 0.011235741
000030 85 11 08 bc f9 fc 2f bd ed 66 43 3d 44 ab 03 3d
       -0.008304958 -0.042965863 0.04770558 0.032145754
000040 71 38 13 bd 6c 3d 88 bc bf e7 0e bc c7 24 28 bd
       -0.0359425 -0.01663085 -0.008722245 -0.0410507
000050 06 03 2f bd 77 58 51 bd 2b 37 fc bb d5 25 e2 3c
       -0.042727493 -0.051109757 -0.007697006 0.02760593
000060 f5 bb 9c 3c 28 c0 64 bd a3 8f 31 bd 42 06 f0 bc
       0.019132594 -0.055847317 -0.043349873 -0.029299859
000070 de bc 3e bd 97 b2 0c 3c 86 ba 05 bd c3 91 d3 3c
       -0.046566837 0.008587501 -0.032648586 0.02582634

g_model.fc1.weight f4 [128, 800]
000000 0d 02 09 bd 61 08 0b 3c b1 f6 08 3d 2d cd 08 3d
       -0.03344922 0.008485884 0.03343839 0.033398796
000010 6a f2 63 3b d7 d9 1d bc db 21 3a 3c 70 d2 a4 bc
       0.0034781941 -0.009634457 0.011360611 -0.020119876
000020 ab 79 8f 3b 11 00 ef bc 3c 78 0e bd a4 bc 3d bc
       0.0043785176 -0.029174836 -0.034782633 -0.01158062
000030 2d 36 91 3c 9a e0 5e bc f6 bc ea bc 62 77 b9 b9
       0.017726028 -0.013603354 -0.028654557 -0.00035374897
000040 9f 5e e3 bc eb c6 b6 3c 15 23 d6 3c 7a 21 7a bc
       -0.02775508 0.022311648 0.026139775 -0.0152667705
000050 4c 92 b3 3c f7 58 a2 bc 85 07 d8 bb e8 48 f7 3b
       0.021920346 -0.019817812 -0.0065926933 0.007546533
000060 f4 77 88 bc 37 97 de 3c 4e e9 00 bd e9 88 92 bc
       -0.01665876 0.027171714 -0.031472497 -0.01788755
000070 ff 8e a2 3c 81 bc fb bc fd ca 0a bd 49 64 99 bc
       0.019843576 -0.030729534 -0.03388499 -0.018724578
000080 b7 d6 cc bc a4 94 07 bd 17 84 b3 bb c0 29 29 bc
       -0.025004728 -0.03310074 -0.005478393 -0.010324895
000090 a5 63 09 bd 48 21 be bc 34 8b b1 3c 97 c1 de 3c
       -0.033542294 -0.02320923 0.021672823 0.02719192
0000a0 d1 44 cd 3c 01 10 e1 3c 85 d7 67 3c 1b 01 37 3c
       0.025057228 0.027473452 0.014150505 0.011169697
0000b0 56 fc 9a 3c 85 28 e2 3c 7a c8 6c 3c a8 fa e7 bc
       0.018919151 0.027607212 0.014452094 -0.028317764
0000c0 e9 7b ad 3c 30 a6 09 3d bb 84 cb 3c 57 02 bd 3c
       0.021177249 0.033605754 0.024843564 0.023072405
0000d0 38 8d 60 3c 63 31 aa bc 2c 1e 10 bd 3d c4 0c 3d
       0.013705544 -0.020775503 -0.035185024 0.034366835
0000e0 66 c4 52 3a 6d 33 42 bb cd 0d e1 bc 86 dc c5 bc
       0.000804013 -0.0029632703 -0.027472401 -0.024153005
0000f0 65 9a 4f bc 2d 80 4a bc 41 f5 a8 3c 03 d2 5c 3c
       -0.012671088 -0.012359661 0.020624759 0.013477805
000100 57 83 86 3b 10 26 40 3c d0 ec cc bc 6c 46 01 3c
       0.0041050124 0.011727825 -0.025015265 0.007890325
000110 14 0b 4f 3c af df a8 3c f4 d2 b1 bc f0 3a 96 bb
       0.012636919 0.020614473 -0.021707036 -0.0045846626
000120 c8 d9 a6 3c a1 63 dd bc 95 42 0b 3c fd 02 1c bc
       0.020367518 -0.027025046 0.008499761 -0.009522197
000130 ed ea 8e bb d1 23 54 3c f6 c1 9e bc 12 a6 9d 3b
       -0.0043615014 0.012947992 -0.019379597 0.004811057
000140 fa 8f a7 3a 65 00 17 bd de fb 1c bc ef 8d ff bc
       0.0012783997 -0.03686561 -0.009581534 -0.031195609
000150 a0 36 81 bc d0 97 70 bb e5 be 02 3d e2 6e ad ba
       -0.015773118 -0.003671158 0.031920332 -0.0013231898
000160 9c bb 03 3d 98 9f a8 bc 26 be 0d 3d 77 7f ba 3b
       0.03216134 -0.020583913 0.034605168 0.0056914645
000170 96 f3 d2 bc 00 ba e1 bc 5c 66 18 3b 93 86 71 bc
       -0.025750916 -0.027554512 0.002325437 -0.014741558
000180 28 26 15 bd 5b c3 7d 39 f7 ab 94 3b 6a 18 89 3c
       -0.03641334 0.00024200736 0.0045371014 0.016735274
000190 48 30 f6 bb 2d 49 55 bb 75 1c 0c bd d7 f4 16 bd
       -0.00751308 -0.0032544837 -0.034206826 -0.03685459
0001a0 2e 24 83 3c 71 e5 04 3d ed 9d 88 ba 21 7b aa 3c
       0.016008463 0.032445375 -0.0010423042 0.020810666
0001b0 89 a5 66 bc 03 80 a0 3c 1e c9 41 bc 7b 51 ad 3c
       -0.014077553 0.01959229 -0.011827735 0.021157017
0001c0 23 fd 64 bc 81 2e ff 3b c3 34 8d ba 2b d0 e6 3c
       -0.013976368 0.007787526 -0.001077317 0.028175434
0001d0 2a 69 34 3b 58 36 d6 bc 28 08 a9 3b 31 5f e6 bb
       0.0027528503 -0.02614896 0.005158443 -0.0070303907
0001e0 b8 f4 d7 bc 26 29 bc bb 20 4c b3 3a 96 a6 51 bc
       -0.026361808 -0.00574221 0.0013679303 -0.012796065
0001f0 b8 5c 00 bd 00 b4 c2 bc 2d c7 48 3b 53 4e d1 3c
       -0.031338423 -0.023767471 0.0030636296 0.025550043
000200 ff 40 f0 3c 25 6b 76 3b a0 63 db 3a 87 42 01 bb
       0.029327868 0.0037600484 0.0016738065 -0.0019723491
000210 f0 02 a5 3c 8a d9 93 ba cb 21 0b bd 1b 63 df 3a
       0.020143002 -0.0011280042 -0.033967774 0.0017043086
000220 1f 04 1e 3c 50 1a 53 bc 47 f0 35 bc 73 63 bd 3c
       0.009644537 -0.012884691 -0.01110465 0.02311871
000230 73 73 0f bb 1a 72 e2 bc 01 4c 64 3b 97 c0 1d bc
       -0.0021888881 -0.027642298 0.003483534 -0.0096284365
000240 b1 87 20 3c e7 51 bd 3c e3 62 16 bd 97 95 f0 3c
       0.009797976 0.023110343 -0.0367154 0.029368205
000250 00 38 7c 3c b0 dd d0 bc 95 22 9c 3c 47 23 b8 bc
       0.015394211 -0.025496334 0.019059459 -0.022477759
000260 f3 66 32 bc b8 55 ef 3c b7 dd 21 bc 54 11 a9 bc
       -0.010888803 0.029215679 -0.009879521 -0.020638146
000270 d9 41 f0 ba ba 65 97 bb a1 08 4d 3c ed 07 a4 3c
       -0.0018330171 -0.004620281 0.012514264 0.02002331
000280 46 ea 07 3d 8d 5d 8e 3c 60 70 c7 3c a8 08 eb bc
       0.033182405 0.017378593 0.024345577 -0.028690651
000290 f5 6e c8 bc 62 91 16 bc a3 82 a3 3c 3e 21 83 3c
       -0.024466971 -0.009189935 0.019959753 0.016007062
0002a0 d7 f8 ee bc ac 5d 8f 3a 41 a5 08 bd 72 ba 02 bb
       -0.02917139 0.001093795 -0.033360723 -0.0019947556
0002b0 be 9e 91 3c 3b 84 bf 3c 7f 86 e7 bc 2a b7 bc bc
       0.01777589 0.023378482 -0.028262375 -0.023036558
0002c0 f2 da 05 bd 37 ab 75 bc af 3b dc bb 23 72 05 3d
       -0.032679506 -0.014994434 -0.006720982 0.032579552
0002d0 e3 fa 73 3b fe b8 be bc 39 b2 22 bb d0 ac aa bc
       0.0037228398 -0.02328157 -0.0024825467 -0.020834357
0002e0 9e a1 12 bd cc a3 46 3c 12 1f 01 bd 67 aa ef 3c
       -0.03579866 0.012124013 -0.03152377 0.029256059
0002f0 f4 b0 9c 3c 66 fe 3e 3c 78 4c d6 3b 1d d8 d2 bc
       0.019127347 0.011657333 0.0065398775 -0.025737816
000300 7b 54 06 3d 91 e7 07 bd b0 75 c9 3c 1d 48 92 3c
       0.03279541 -0.033179823 0.02459225 0.017856652
000310 a3 04 89 3a 49 d8 5b 3c 9f 35 08 3d 5b 1d 64 bc
       0.0010453652 0.013418266 0.033254262 -0.0139230145
000320 35 23 06 3d 02 5f ef 3b 26 c4 dd bc 31 2b c9 3c
       0.03274842 0.007305027 -0.02707107 0.024556728
000330 4c 65 d3 3c 05 e2 f5 3c 69 d4 f3 bc 5a 91 1b 3c
       0.025805138 0.030015001 -0.029764371 0.009495104
000340 b8 5b 08 3d 08 da ff 3a f5 c4 d6 bc d1 ff 0a bd
       0.033290595 0.0019519934 -0.026216963 -0.03393537
000350 fb b9 76 bc 1b ad fd 3c b3 0c 03 bc 73 8e 77 bb
       -0.01505899 0.030966332 -0.007998633 -0.0037774115
000360 68 19 09 3d 4f 96 10 3d 78 52 77 3c e6 d3 a5 bc
       0.033471495 0.035299595 0.015095346 -0.020242643
000370 db ac 12 bb ca 9b 93 3b d7 d5 1e 3c 85 3d e4 3c
       -0.0022380862 0.0045046555 0.009694538 0.027861366
000380 0e 3e 52 3c 3a dc a1 bc f8 9d 05 3c 88 33 c6 3c
       0.012832178 -0.019758333 0.0081553385 0.024194494
000390 84 e2 54 bb 44 f0 00 3d 42 1a 6a 3c 0a ed 67 3c
       -0.0032483647 0.031479135 0.014288487 0.014155636
0003a0 9f b9 0f bd 81 10 80 bb 9b 60 ef 3b 8b 71 97 3c
       -0.03508913 -0.0039082174 0.0073052174 0.018486759
0003b0 c3 24 2b 3b 7c 71 57 bc 64 10 ee bc 4c 5f 20 bc
       0.002611444 -0.013149615 -0.02906055 -0.009788346
0003c0 b0 6c 06 bd f5 54 0f bb bb 79 70 bb 15 16 33 3c
       -0.032818496 -0.0021870707 -0.003669365 0.010930558
0003d0 63 73 90 b9 14 43 c5 bc 79 83 1f bb ea ad 23 bc
       -0.0002755179 -0.024079837 -0.0024339838 -0.009990195
0003e0 30 55 c6 bb 0f 56 14 bd 45 96 86 bc 3b b6 6a 3c
       -0.0060526356 -0.036214884 -0.016429076 0.014325674
0003f0 51 27 ed bc 66 cf 43 3c 05 b6 10 3d 72 33 e4 ba
       -0.028949412 0.011951303 0.035329837 -0.0017410351

g_model.fc1.bias f4 [128]
000000 df ba cf bc 51 38 15 bc 51 d9 08 3d 38 93 be ba
       -0.025357662 -0.009107665 0.033410374 -0.0014539724
000010 46 3b 1f b9 0d 3e 59 3d 0a 17 04 bd 7d c4 09 3d
       -0.00015185503 0.05303769 -0.032248534 0.03363465
000020 64 22 cb 3a 84 1f a1 bc 6d 69 0d bd cb b0 6f bc
       0.001549792 -0.019668348 -0.03452437 -0.014629553
000030 2d c6 a9 3c e4 ec 0a 3d 22 40 17 3d 26 0d 32 bc
       0.02072438 0.033917323 0.036926396 -0.010867393
000040 8d b7 0f 3d 69 94 30 3c 78 5a 45 3d 7c 3c 8b bc
       0.035087157 0.010777571 0.04818198 -0.016996615
000050 1e 12 e1 3a ff ef ae 3a dd 76 7d 3c 3c 92 ca bc
       0.0017171537 0.0013346671 0.015470234 -0.024727933
000060 18 ac 9e 3b 1a c4 f0 bc e3 5c c3 3c 82 19 c6 bb
       0.0048422925 -0.029390384 0.023848003 -0.0060455212
000070 c7 af b2 3c 20 a2 9a 3c 90 4e 24 3c bf b2 c5 bb
       0.021812333 0.018876135 0.010028496 -0.006033271
000080 29 82 4a bb 45 cb 22 bc c2 6e b4 bc 8c 2a ca 3c
       -0.0030900335 -0.009936159 -0.02202547 0.024678491
000090 27 ee 34 3d e2 ee 2e bd fc e6 9e bc 35 cb aa 3c
       0.044172432 -0.042708285 -0.019397251 0.02084885
0000a0 70 3f c0 bb 96 9b 61 bd 81 ee d0 3b c4 e4 19 3d
       -0.0058669373 -0.05508002 0.006376088 0.037571684
0000b0 03 d8 08 3c 71 d3 0d 3c b4 39 b1 3b ff 57 bd bb
       0.008352282 0.008656369 0.00540849 -0.005778312
0000c0 0c 0c 2f 3c ef 31 73 bc 51 e1 2a bd 79 e7 ab 3b
       0.010684025 -0.014843448 -0.041718785 0.0052460996
0000d0 63 2f 3a bb c4 67 1b 3d dd b8 8d bc 73 4b 44 3c
       -0.0028409592 0.037940755 -0.017300064 0.011980879
0000e0 73 38 b5 3c fe df 06 bc d6 62 d1 bb 66 e0 8c bc
       0.022121644 -0.008232115 -0.006389956 -0.017196845
0000f0 05 bc 29 bc 01 10 1f 3c f1 c6 e3 3c 4d 59 df bb
       -0.010359769 0.0097084055 0.027804824 -0.0068160654
000100 d3 ed 46 3b 90 14 2b 3d 5b 22 ef bb 15 be e3 bc
       0.0030354157 0.041767657 -0.0072977967 -0.0278006
000110 cf 7e 2f bd 34 2c 85 bc 75 81 41 3d 47 b8 ca 3c
       -0.042845543 -0.01625643 0.0472426 0.024746073
000120 87 94 e7 bb eb 34 b2 bb 91 07 92 3c e1 e2 1c bd
       -0.0070672664 -0.005438437 0.017825874 -0.038302306
000130 22 5b 09 bc 72 3f e0 3c 53 32 15 bc d4 b6 e2 38
       -0.008383544 0.027374003 -0.0091062365 0.00010810574
000140 94 80 0f 3d 19 b7 5e 3c 63 fa fe 3c 71 4d 36 3d
       0.03503473 0.013593459 0.031125253 0.044507448
000150 af 4e 1d 3d ca c7 03 3c b4 7e 37 bb 57 ba 54 3c
       0.038405117 0.008043239 -0.0027999105 0.01298388
000160 98 09 81 3d 8c 9e 93 bc 40 7c a5 39 34 c4 b9 3c
       0.06300658 -0.018019937 0.00031563826 0.022676565
000170 5f da 8e bc 46 3e 80 bd f9 5c 2a 3d 8d c5 38 bd
       -0.017438112 -0.06261878 0.041592572 -0.045110274
000180 c2 ed c6 bc d2 22 9a 3c 7d e1 bd bb af 14 92 3c
       -0.024283294 0.018815432 -0.0057947026 0.017832128
000190 68 07 47 3d 02 8a 1e bc 7b 3d 13 bd b5 1a 0c bd
       0.048591048 -0.009676458 -0.035947304 -0.034205157
0001a0 74 1d 17 bd 07 13 9d bb b5 8d 63 bc cf c2 18 3d
       -0.036893323 -0.004793528 -0.013888766 0.03729516
0001b0 82 ed c0 bc 3c 0e c4 3c 62 26 c3 3b 76 19 df 3c
       -0.023550753 0.023932569 0.0059555033 0.02723382
0001c0 6f 61 07 3d 3a 11 55 3d 74 36 b1 bc e9 81 06 3d
       0.033051904 0.05201838 -0.02163241 0.032838736
0001d0 61 46 bd ba e0 1f e7 bc a3 b0 47 3c 2a dd 02 3c
       -0.001444053 -0.028213441 0.01218811 0.0079873
0001e0 7b 58 54 3c 98 f6 b5 3a c9 69 1c bc f4 af 25 3d
       0.0129605485 0.0013882695 -0.0095467055 0.040451005
0001f0 38 a2 25 3c 61 f7 cf 3c b8 78 e0 3b 4e ec 0a bd
       0.010109477 0.025386514 0.0068503283 -0.033916764

g_model.fc2.weight f4 [10, 128]
000000 c6 10 e0 3b d3 14 c2 bd 07 1b c1 bd 05 7b 96 bd
       0.006837937 -0.09476628 -0.09428983 -0.07347683
000010 1b 01 e2 3d 3e 0e c8 3c 35 ac c9 bd 4e ba da 3d
       0.11035367 0.024420854 -0.09847299 0.10680066
000020 2d 1c b6 bd 12 e8 9e bd a7 c6 b2 bd 4e 9f 9f bd
       -0.08892093 -0.07759108 -0.08729296 -0.07794057
000030 09 0b d9 3c 13 81 9d 3d 39 4c a0 bd f6 5b b9 3b
       0.02649452 0.076906346 -0.07827038 0.0056567146
000040 6a 40 00 be 47 f5 c2 bd 1a ec 6c bd 7f 67 f0 bd
       -0.12524572 -0.09519439 -0.05784235 -0.1173849
000050 38 27 1b 3e bf 0a a1 bd 3f f0 17 3d d2 d0 08 3c
       0.1515168 -0.07863378 0.03709435 0.008350568
000060 d6 5a 9b bd 53 1e e5 bd 0e 2a 40 3d 1f 6d a1 3d
       -0.07585685 -0.111874245 0.046915106 0.07882141
000070 3a 86 55 3d b2 55 41 3d 27 9d 0d bd 79 43 47 ba
       0.05212996 0.047200866 -0.0345737 -0.0007601302
000080 84 cc 94 3c 88 3d 48 3c 45 12 6a 3d af cf bc bd
       0.018163927 0.012221701 0.05714633 -0.092193
000090 8a 2a d5 3d c8 af e4 bd 6c 40 37 3d d2 eb 50 3c
       0.10408504 -0.1116634 0.04473917 0.012751536
0000a0 32 59 e4 3b 48 ca 80 bd 0d ce 47 bd 08 69 c3 bd
       0.0069686407 -0.06288582 -0.04878049 -0.095415175
0000b0 b4 66 8b 3c 7d c3 04 3e cb a1 11 bd d2 da 9a 3d
       0.017016746 0.12965198 -0.03555469 0.07561268
0000c0 ff ad 5a 3d 05 f2 d3 3c 28 10 f1 bb fd 9e f4 bd
       0.05338859 0.02587224 -0.0073566623 -0.11944387
0000d0 e1 67 01 bd c5 b6 a2 3d 0e d0 ca bc 7b 5e c6 bc
       -0.031593207 0.07945017 -0.024757411 -0.024214974
0000e0 5f 7f b1 3d b4 1f b9 bb 02 e8 59 bd d6 af 80 bd
       0.08666872 -0.0056495313 -0.053199776 -0.06283538
0000f0 93 bb 10 be b5 a1 52 3d e1 4a 82 3d 27 f8 80 bd
       -0.14134054 0.051423747 0.06361938 -0.06297331
000100 8e c3 a8 3d 6e a4 e3 3d 26 44 62 bd 12 38 36 bd
       0.08240424 0.11115347 -0.055240773 -0.044487067
000110 7c b1 1f 3d 90 a3 ce 3d af 1a 0c bd 63 99 00 be
       0.03898762 0.10089791 -0.034205135 -0.12558512
000120 de a3 18 bc d8 3a d1 bd 2e 60 d5 3d 09 cb e8 bc
       -0.009316413 -0.10216302 0.104187354 -0.028417127
000130 58 bb 0b bc 79 37 48 3c 6b 2a 54 bd 56 46 a0 3d
       -0.008528553 0.012220257 -0.051798265 0.078259155
000140 17 c1 1f 3d 46 dc da bc d4 77 33 bd 5f bd eb bc
       0.039002504 -0.026716363 -0.04381545 -0.028776823
000150 7d be bf bd eb a2 b4 3c 5c 2c 16 bd 77 b8 b2 bd
       -0.09362505 0.022050342 -0.0366634 -0.0872659
000160 76 44 2e 3c 44 d6 ee 3d ca f2 af bd bf 2c e6 3d
       0.01063644 0.11661962 -0.0859123 0.112390034
000170 1b 4f 44 3d 52 1b 48 bb 85 13 b1 3d d7 a4 c7 3d
       0.047927003 -0.0030533862 0.08646301 0.097482376
000180 56 fd 44 3d 09 89 98 bd 66 e1 55 bd 1e c7 27 bb
       0.048093162 -0.074480124 -0.05221691 -0.002560086
000190 96 4d 9e 3d 7b 88 e6 3d 5f 39 32 3d 37 63 5f bd
       0.07729642 0.112565 0.043511745 -0.054537978
0001a0 94 8c 82 3d fe 9c 95 bd 1e 07 06 bc b4 56 80 bd
       0.063744694 -0.073053345 -0.008180408 -0.06266537
0001b0 e3 4e cc bd df 8c a8 3c ef b4 fd 3d ca 86 d2 bd
       -0.09975984 0.020574985 0.12388026 -0.10279615
0001c0 28 66 9f 3d d4 bc 85 bd c3 12 2d bd 0d e1 7b bd
       0.07783157 -0.06530157 -0.04225422 -0.061493922
0001d0 95 d9 64 3c 73 46 10 3e 2a 49 a5 bd ff b2 9c 3d
       0.013967891 0.14089374 -0.080705956 0.07651328
0001e0 90 e5 66 3d 03 ab c6 3c 9f 7d bd 3d 74 30 f0 3c
       0.05637127 0.024251467 0.09252476 0.02931998
0001f0 e4 5a 04 be e0 12 c5 bd e9 06 e3 b9 a0 b0 65 bd
       -0.12925297 -0.09622741 -0.00043301962 -0.056076646
000200 8f 60 df 3b f0 d5 b4 3d 41 eb e9 bc 7c 1f 9d 3d
       0.0068169306 0.08829868 -0.02855456 0.07672021
000210 e7 ed 16 3e e0 f6 81 bc aa 9b 03 be 07 c6 29 bd
       0.1473919 -0.01586479 -0.1285235 -0.04144862
000220 61 c9 54 3d 1a 63 9e bc 69 82 d0 3d 8d 6e c1 bc
       0.051949862 -0.019334365 0.10181124 -0.023612285
000230 b1 81 d6 bd 47 cb e0 bd 29 8d a5 3d 10 9c 6f 3d
       -0.104739554 -0.10976272 0.08083565 0.058498442
000240 82 6a 9a bd 70 b3 8f 3d 00 f9 db 3d 69 5c a0 3d
       -0.07539846 0.07016647 0.10740852 0.07830126
000250 04 18 94 bd 9d fe 46 bc 1c 6d dc 3d ae f5 19 bd
       -0.07231143 -0.0121456655 0.107629985 -0.037587814
000260 4c f0 3d bd 43 30 42 3d e3 8f 62 3d 4d 05 6e bb
       -0.046371743 0.047409307 0.055313002 -0.0036319077
000270 e9 25 be 3c 19 51 5b 3b 25 e5 1d bc bb 57 e5 3c
       0.023211436 0.0033465086 -0.009637152 0.027995935
000280 41 1f e2 bd aa 71 ab bd 0a 78 c9 bc 43 32 e6 bd
       -0.110411175 -0.08371289 -0.024593372 -0.112400554
000290 a5 0e aa bd 7b 3a 1d 3d 62 5f bc 3d f9 06 ba bd
       -0.083035745 0.03838585 0.0919788 -0.09083361
0002a0 c6 0b 5c bd b1 d6 4b 3d d2 2a 07 bd be 81 c6 bd
       -0.053722166 0.049765293 -0.03299982 -0.09692715
0002b0 9d 96 a9 3d 88 ed 99 3c 42 9e e2 bc ce f1 86 3d
       0.0828068 0.018790022 -0.027663354 0.06589089
0002c0 01 d6 90 bd 58 3e 9c bd 24 33 a4 bd 2c a0 16 bd
       -0.07072068 -0.076290786 -0.08017567 -0.036773846
0002d0 3c d1 e0 3d 74 03 1d be 71 82 d0 bd 08 b8 c8 3c
       0.10977408 -0.15333349 -0.1018113 0.024501815
0002e0 8f 64 51 3c 38 27 ed bd a1 8c 50 bd 8b 86 c1 bc
       0.012780323 -0.11579746 -0.050915364 -0.023623725
0002f0 03 90 8c 3b f8 3d 7a bc 79 ed 20 bc 35 b6 90 bd
       0.0042896285 -0.015273564 -0.009822243 -0.07066003
000300 45 53 37 3d 1e 63 de bd 0f 63 40 bd 82 2b d0 3c
       0.044757146 -0.10858749 -0.04696947 0.025411371
000310 de 58 04 be bb 6a da bd 5b bd 80 bd 9a 6b 82 bb
       -0.12924525 -0.106648885 -0.06286117 -0.0039801123
000320 19 0d ce bd 62 94 ae 3d 02 8f 16 be 08 c7 eb bc
       -0.10061092 0.085243955 -0.1470299 -0.028781429
000330 6f 97 ac 3d 16 28 c6 3d 5f a6 b6 3d 49 d2 39 bd
       0.08427321 0.096756145 0.089184515 -0.04536656
000340 03 a3 8c bd 3b 10 cd bd ca 3c af bd 2a d5 a6 3d
       -0.068670295 -0.10012861 -0.085565165 0.081461266
000350 37 37 14 be 5e 55 72 3c 77 78 83 3d 9e 25 b3 bd
       -0.14474188 0.014790861 0.06419461 -0.08747409
000360 87 ec 6f 3d 0d a2 f2 3c f0 f6 eb b9 b7 52 df 3d
       0.05857518 0.029618287 -0.00045006676 0.109044485
000370 4a 2b 55 bd ed 31 46 3d 5f a2 cd bd ca 34 b4 3d
       -0.052043237 0.048387457 -0.100407355 0.08799131
000380 e2 bf d0 3b 21 b0 03 be 9f 51 94 bb cb 31 18 bd
       0.0063705305 -0.12860157 -0.0045263316 -0.03715686
000390 4c fd e8 bd 32 da c2 bc 97 f7 74 bc 2a 9d 95 bc
       -0.113764375 -0.023785684 -0.014951608 -0.018263418
0003a0 cd 04 14 3d 91 8e dc 3c 72 ba d0 3d e4 1a cb 3d
       0.03613739 0.02692345 0.101918116 0.09917238
0003b0 1e f2 a6 3d e3 8f dc bd f1 80 04 bc 63 be 85 3d
       0.08151649 -0.10769632 -0.008087383 0.06530454
0003c0 4c 05 ce bd fb 86 8e 3d 2c db a4 3d 05 af 65 bd
       -0.10059604 0.06959339 0.08049616 -0.056075115
0003d0 81 6f 4c bc 97 e4 bd 3b b2 e4 4d 3d f0 f4 af bd
       -0.0124777565 0.0057950723 0.05026693 -0.0859164
0003e0 b5 d9 50 3d 5a 33 20 3d f0 98 c4 bc 88 3c 6c 3c
       0.05098887 0.039111473 -0.023998708 0.014418729
0003f0 a4 19 9f bd f9 c0 ea 3d 82 4d dc 3d 14 dc 86 3d
       -0.077685624 0.11462588 0.10756971 0.06584945

g_model.fc2.bias f4 [10]
000000 b8 6b 23 bd 43 49 33 3d ce aa 4a bd 1e ed 97 3c
       -0.03989765 0.04377104 -0.0494793 0.018545683
000010 aa e3 e4 bb 0a 0b 95 3d ad d8 5e bd 09 41 2a 3d
       -0.0069851475 0.07277496 -0.054405857 0.04156593
000020 5a 87 8d 3d d1 af 66 bd
       0.06910582 -0.056320015

f_model.fc1.weight f4 [32, 10]
000000 ac 07 66 3e c4 6f 88 be 37 80 01 3d 21 d0 97 bd
       0.22463864 -0.2664777 0.031616416 -0.07412744
000010 53 b8 2f 3d 56 5f 99 3e c7 f1 82 3d 42 08 de be
       0.042900395 0.29955548 0.063937716 -0.43365675
000020 5b d2 a3 bd 2a 8e e7 be b6 b4 ca bd c1 5b 74 be
       -0.079991065 -0.4522565 -0.09897749 -0.23863126
000030 cc 79 8c be 66 7b 9a be 73 f7 9f 3e 70 af 6f 3b
       -0.27436674 -0.3017227 0.31243476 0.0036573075
000040 f5 96 65 be 22 b3 9e be 1b 34 c9 3d 1a 93 7d 3e
       -0.22420867 -0.30996042 0.098243915 0.24763146
000050 1c cf 83 be 0b 8c 87 be 26 ae bc 3e 4a 2c 35 3d
       -0.2574395 -0.26474032 0.36851615 0.04423169
000060 85 64 ff bd 44 6b 8f be 1e 39 9c be d0 ef 2a 3e
       -0.124703445 -0.28011525 -0.30512327 0.16693044
000070 59 24 a3 be ba ae c6 3d 24 1e 8b be fa 17 85 be
       -0.3186367 0.09701295 -0.27171433 -0.25994855
000080 98 3e ad bc a6 a6 df 3d 55 a3 75 3e 70 e7 61 be
       -0.021148011 0.109204575 0.23988087 -0.22060943
000090 c8 bb 73 3c 76 a5 e2 be 7d 7b 22 3e 4e 1b 04 3f
       0.0148763135 -0.44266862 0.1586742 0.51604164
0000a0 a7 63 85 bd a8 54 4a 3d e1 ec 98 be 45 35 81 be
       -0.06513148 0.04939714 -0.29868224 -0.25235954
0000b0 81 15 1b bd 75 c3 c5 be b3 52 79 3d d6 0d 68 be
       -0.037862305 -0.38625684 0.060869884 -0.22661528
0000c0 23 1d 00 3f 3e 22 6e 3e f2 d9 a8 be ef d8 86 3c
       0.5004446 0.2325525 -0.3297878 0.016460864
0000d0 54 c4 4d 3d e7 7f 14 3e c0 ef af bd 73 84 d5 be
       0.05023606 0.14501916 -0.085906506 -0.41702613
0000e0 b5 48 16 3c 41 85 5b 3d a7 6f d3 3e 86 0a 50 be
       0.009172608 0.053593878 0.4129612 -0.20316514
0000f0 bf 99 c5 3d 11 b6 c4 3e d9 a7 00 be 82 0d 12 3d
       0.09648465 0.38420156 -0.12564029 0.035657413
000100 27 41 12 bb 26 7b 78 bc 9f 7b 9e be 89 7d 9a 3e
       -0.0022316666 -0.01516608 -0.3095369 0.301739
000110 bd 6e 37 be 72 db 66 3e 6c cf 34 3c a0 6a 80 3e
       -0.17913337 0.22544649 0.011035781 0.25081348
000120 18 f7 52 3c 7a 5d 16 3e 36 ff 46 be 48 bd b4 3e
       0.012876295 0.14684096 -0.19433293 0.3530066
000130 f6 ee cc 3d 1a 71 2d 3e b8 52 61 3e 2a f8 da 3d
       0.10006516 0.16937676 0.22004211 0.10691865
000140 da 59 06 3e 4a a8 8a 3c 1c e6 9a 3e c6 89 e2 be
       0.13120213 0.01692595 0.30253685 -0.44245738
000150 21 1c 3d be 17 ff 5b 3e f3 b9 b0 be f3 0a 1c be
       -0.18467762 0.21484028 -0.34516868 -0.15238552
000160 de 62 e1 bd 65 2e b4 3e e1 a4 ae 3d c3 61 31 3e
       -0.110051855 0.35191646 0.08527542 0.1732245
000170 f9 bd 17 3e 97 0c 02 be 92 71 19 3e d7 95 b3 be
       0.14818563 -0.12700115 0.1498473 -0.35075256
000180 80 76 37 be 43 0e a3 be 6c 18 8d be b7 92 17 be
       -0.17916298 -0.31846818 -0.27557695 -0.14802061
000190 0b ff 7b bc 30 0a 21 bd 99 8a b9 3d 68 62 25 be
       -0.015380631 -0.039316356 0.090596385 -0.1615082
0001a0 3d 1c 31 be 2d cd 50 be 93 4d ee bd 22 4a c6 3e
       -0.17295928 -0.20390768 -0.1163589 0.38728434
0001b0 04 57 25 bd aa 9a 4f 3e f6 4b 35 be f7 62 49 be
       -0.040366188 0.20273843 -0.17704758 -0.19666658
0001c0 ca 71 be bd 16 19 bf be 60 24 58 be c9 69 1d be
       -0.09299047 -0.37323827 -0.21107626 -0.15372385
0001d0 56 e1 f7 3c c8 3d a3 3e b9 5d a4 be d1 5d 2a 3e
       0.030258816 0.31883073 -0.32102755 0.1663735
0001e0 17 6c 09 be b9 7c fe 3c 14 68 75 3c 28 e5 0c 3f
       -0.13420139 0.031065332 0.014978427 0.55037165
0001f0 7d d2 1b be a2 6b 61 3e 60 6f a8 be a6 1f 8b be
       -0.15217014 0.22013715 -0.32897472 -0.27172583
000200 02 10 69 bd 2d 5e 6b 3d 1a 72 0c bd f1 33 a4 3c
       -0.056900032 0.05746286 -0.034288503 0.020044299
000210 ad 62 9d be eb 46 8e bc 9f 92 a4 3e 49 f8 b3 bd
       -0.30739346 -0.0173678 0.32143113 -0.08787591
000220 92 36 c0 3d 27 c1 27 3e 62 c8 26 be db a3 40 3d
       0.093854085 0.16382276 -0.16287377 0.047031265
000230 fd 9b f3 bd 89 2f 81 be a7 7d 89 be 8e c2 17 be
       -0.11894987 -0.2523158 -0.26853678 -0.1482031
000240 06 a0 fa bd de 07 13 be fe 02 0e 3e 15 5d 69 3d
       -0.12237553 -0.1435847 0.13868329 0.056973536
000250 cb cb ac be 3d e8 c8 3d a3 64 23 be ba 48 3a 3e
       -0.33749232 0.09809921 -0.15956359 0.18191805
000260 c0 9e e2 3e f7 a0 51 be 4d f0 82 3d 8e 4e 8e 3c
       0.44261742 -0.2047156 0.0639349 0.017371442
000270 ee 74 2f 3d 98 2e 5b be 0f c2 e9 bd 1a 12 22 be
       0.042836122 -0.21404493 -0.11413967 -0.15827218
000280 a4 c9 9e be e1 18 42 3a 5e 02 40 3e 81 1a 03 be
       -0.31013215 0.000740422 0.18750903 -0.12803079
000290 55 31 20 be 3c f8 4d be ba 46 f0 3e 6f 2a 27 3e
       -0.15643819 -0.20114225 0.4692896 0.16324781
0002a0 7d 9c 8f be 8a ac cc be 64 3e 0b be 85 e0 30 3e
       -0.2804908 -0.39975387 -0.13598019 0.17273147
0002b0 67 66 59 bd c0 30 41 3e bd 5c ab 3c dd 45 ac be
       -0.053076174 0.18866253 0.020918244 -0.3364705
0002c0 76 b9 4d be b0 e1 63 be a4 61 b2 be 15 e9 b9 3e
       -0.20090279 -0.22254062 -0.3484012 0.3631064
0002d0 63 a0 36 be e9 7e bd 3e 13 b0 06 3e 83 29 e7 bd
       -0.1783462 0.37010887 0.13153104 -0.112872146
0002e0 86 46 10 3e 29 1b 92 be b3 e7 8d 3d ce 5b 7d be
       0.14089403 -0.28536347 0.06928959 -0.24742052
0002f0 2a 89 fd be 1a 24 82 be e9 ca 07 3d dc ad 25 3e
       -0.4951871 -0.25418168 0.033152495 0.16179603
000300 2e b5 c0 be 0e 09 92 be 05 2f aa be 2a 25 97 be
       -0.3763823 -0.28522533 -0.33238998 -0.2952054
000310 e2 79 0a 3e eb 26 b4 3e 71 ff 96 3d 96 40 41 3d
       0.13523057 0.35185942 0.0737294 0.047180735
000320 99 41 f4 ba 65 a7 05 be bc c0 ab be a9 bc bc 3e
       -0.0018635272 -0.13052137 -0.33545482 0.36862686
000330 2d ba e0 be f7 59 81 3c 56 76 63 be 61 02 74 be
       -0.4389204 0.015789969 -0.2221311 -0.23829032
000340 7b 21 80 bd 1f 08 09 3d 63 20 1b be c7 60 88 3e
       -0.06256386 0.03345501 -0.15149073 0.26636335
000350 d7 c5 af be 18 3f 87 3d 19 65 f6 bd 82 b4 07 be
       -0.34330627 0.06603831 -0.120310016 -0.13252452
000360 2e de 36 3e 79 0c 73 be df 3d 53 3e 1a d2 5e be
       0.17858192 -0.23735227 0.2062907 -0.21759835
000370 8a 0b 49 be 8b 32 9b 3e a2 08 d3 3c 2a 47 c0 be
       -0.19633308 0.30312 0.025760952 -0.37554294
000380 b9 de 8b be c7 89 6f 3e 8c 07 ed bd 0c 7e f3 3c
       -0.2731836 0.23392402 -0.11573705 0.02972319
000390 21 fd 2b be 93 82 01 be 39 11 79 bd e9 4b d3 3e
       -0.1679578 -0.12647466 -0.06080744 0.41268852
0003a0 8d a7 24 3d cf 2d 80 be 78 71 e7 3d 75 86 8f be
       0.04019885 -0.2503495 0.11300939 -0.2803227
0003b0 d5 bf 9f bd 90 ba 39 3e ae f4 93 be 0a 1f 69 be
       -0.07800261 0.18137574 -0.28897613 -0.22765747
0003c0 99 91 a4 be 07 48 d3 3d da 9a 7a bc 60 6a 45 bd
       -0.32142332 0.103164725 -0.015295709 -0.04819715
0003d0 0b 75 dc 3e 33 a3 b1 bc b1 aa 2e 3e ee 07 50 be
       0.43058047 -0.021684265 0.17057301 -0.20315525
0003e0 3e 8a de be 03 96 c8 3d 3a 34 8f be 3e 97 19 be
       -0.43464845 0.097942375 -0.27969533 -0.149991
0003f0 af 1e 38 be cc 5e a5 3b 59 85 43 3e 97 b2 02 3e
       -0.17980455 0.005046701 0.19093837 0.12763439

f_model.fc1.bias f4 [32]
000000 d7 a3 29 3d 25 57 88 bc 40 c3 4a be c5 2c 80 3e
       0.041416015 -0.016643116 -0.19801044 0.25034156
000010 e0 ba 63 be 81 b7 64 bd e5 89 29 3e a4 5f 7d be
       -0.22239256 -0.055839065 0.16556509 -0.24743515
000020 cc ab 3f 3e 86 f5 91 be 96 f5 88 3d e4 39 a5 be
       0.18717879 -0.28507632 0.06687467 -0.3227073
000030 63 1b 91 3e 85 47 81 3e 80 db b8 3d 91 bf 83 be
       0.28341207 0.25249878 0.09026241 -0.2573209
000040 51 a2 12 3e b0 de 3f 3e 13 45 07 3d ef 72 22 3e
       0.14319731 0.18737292 0.03302486 0.15864156
000050 e6 fe 98 3e a9 f9 f5 bd 0f 09 6e 3e 5b 74 57 3d
       0.29881972 -0.120105095 0.23245643 0.0526012
000060 aa c4 28 be 31 47 fd 3c e9 7e 90 be 5d f4 af 3e
       -0.16481271 0.030917736 -0.28221825 0.34366122
000070 25 a4 02 3e ca 78 6a be f4 42 5d be 77 46 95 3e
       0.12757929 -0.2289764 -0.21607572 0.29155323

f_model.fc2.weight f4 [10, 32]
000000 d6 bc 22 3e 56 2f eb bd c5 67 ca 3d 3e 94 3d be
       0.15892348 -0.11483638 0.09883074 -0.18513581
000010 a6 6e 99 bd a9 3c 5b be e7 f3 88 3b ae 3a 17 be
       -0.07491808 -0.21409859 0.004179466 -0.14768478
000020 68 ba 96 3d d4 0c 14 3e bf c5 99 bd ee 6b 2d 3e
       0.07359773 0.14458019 -0.0750842 0.16935703
000030 b6 c6 77 be 5b eb 47 bc ac 10 9e 3d f1 55 35 be
       -0.24196896 -0.012202109 0.07718024 -0.17708565
000040 2b cd 93 be 7b 8e 07 be 8e 4e af bd 32 03 b2 3b
       -0.28867468 -0.13237946 -0.08559905 0.00543251
000050 a7 fd c3 3c 5a b4 14 be 0c 20 05 be 29 4f e6 3d
       0.023924662 -0.14521924 -0.13000506 0.11245567
000060 b4 a2 88 be 03 7e ae be 82 dc 6b be de 31 eb 3d
       -0.26686633 -0.34080514 -0.23033336 0.11484121
000070 67 97 30 3b f6 89 60 be ea 6b 17 3e f6 ba 4d 3d
       0.0026945712 -0.21927628 0.1478726 0.050227128
000080 01 43 c6 bd eb 90 98 be 03 d9 4f be 98 cf 2b bc
       -0.09680749 -0.29798064 -0.20297627 -0.010486506
000090 9d 1a 59 3d 66 da 07 be 56 23 30 3e e9 2b a8 bd
       0.053003896 -0.13266906 0.1720098 -0.082115
0000a0 a3 4c 67 bb 68 ec d2 3d 3a f9 df bd b4 32 4e be
       -0.0035293482 0.10298997 -0.10936208 -0.20136529
0000b0 79 7c 55 3d 6c 17 95 bd 94 d1 7b bd 5e c0 96 bd
       0.05212066 -0.07279858 -0.061479166 -0.0736091
0000c0 de ab 09 be 08 dd 3e 3e 27 20 11 3e 44 a2 87 3e
       -0.13444468 0.18639004 0.14172421 0.26490986
0000d0 cb b2 53 be 23 bb c8 3d 3f 32 60 3e 8c 50 8e 3e
       -0.20673673 0.098013185 0.21894167 0.27795827
0000e0 37 c1 f2 bd 01 17 e4 bd eb fb e5 bc 7f 0e 3a be
       -0.11853259 -0.111372 -0.028074225 -0.18169592
0000f0 08 9c 99 be 43 77 25 3d ed 9d c2 bd 5e 86 92 3c
       -0.30001855 0.04039694 -0.09502778 0.017886337
000100 37 7c 87 3d f4 0d 12 be 08 d9 6c 3e 08 1c 3f 3e
       0.06615489 -0.14263135 0.23129666 0.18663037
000110 a2 fe d6 bd 60 f1 95 3d 75 05 dd bd 5b c1 ad bc
       -0.10497786 0.07321429 -0.107920565 -0.021210363
000120 e4 b5 96 3e c7 a7 1b 3d a4 e8 f2 3c f1 2b ac 3c
       0.29435647 0.0380018 0.029651947 0.021017047
000130 2c 91 ea bd 19 0b 7a be aa 0b 2a be 38 5a c0 3d
       -0.114534706 -0.24418296 -0.16606012 0.09392208
000140 8a 71 18 3d a5 02 60 3c 0f af da 3d 41 58 41 be
       0.037217654 0.0136725055 0.10677921 -0.18881322
000150 a4 9d 51 be 8a 37 7d be 9b 9f 9a bd b4 9b 23 be
       -0.20470291 -0.24728218 -0.075499736 -0.15977365
000160 a9 c9 9f bc d5 d8 07 be 40 35 d4 3b ab 6a 6d be
       -0.019505339 -0.13266309 0.0064760745 -0.23185222
000170 9c 0b 59 3e 8a 0c 7c be 22 17 01 bb 52 79 8f 3e
       0.21195835 -0.24614158 -0.0019697626 0.28022248
000180 98 6e 68 b8 14 7f 70 be c4 c0 fe 3c eb eb 66 3d
       -5.541611e-05 -0.23485976 0.031097777 0.056377333
000190 ba b4 f9 bd b4 26 bb bc 37 7e a2 bd df e1 b6 bd
       -0.12192674 -0.022845604 -0.0793423 -0.089298
0001a0 6c 8e 95 be 60 fe bb 3b b4 13 4f bd 6b b7 88 be
       -0.29210222 0.005737111 -0.0505559 -0.26702437
0001b0 a0 85 95 3e f1 19 9e bd 08 ba 85 3d e4 f5 64 be
       0.2920351 -0.07719792 0.06529623 -0.22359425
0001c0 54 37 50 be 42 8d db 3d 8a f0 ee bc e8 f6 3e be
       -0.20333606 0.10720302 -0.029167432 -0.18648875
0001d0 7e 18 85 3e fd be fb bd 28 1e 28 be 3d e3 8e be
       0.2599525 -0.122922875 -0.16417754 -0.27907744
0001e0 b0 87 13 be 6f 7a b6 3b 4c d4 a7 3d 41 37 07 be
       -0.1440723 0.0055687944 0.08194789 -0.13204671
0001f0 e1 70 0b bc d4 43 a5 bc 34 98 1b be 0d 6a 0d 3e
       -0.008510799 -0.020173945 -0.1519478 0.13809986
000200 4f f1 5d be c1 f8 e6 3d 41 83 8a 3d d4 30 05 3e
       -0.21674083 0.11277915 0.06763316 0.13006908
000210 86 8d 09 3e 54 81 05 be 62 6f 38 3c a8 ed ef 3d
       0.13432893 -0.13037616 0.0112570245 0.11715251
000220 70 2a ac be 78 16 c4 bc 3c 9c 77 be 7b b7 c6 3d
       -0.33626127 -0.023936495 -0.24180692 0.09702965
000230 26 d7 09 be ec ff 38 3e d5 22 dd bc e4 b5 f5 3b
       -0.13460979 0.18066376 -0.026994148 0.0074984897
000240 01 6e b7 bb 2c de e8 bc ef 69 f8 3d ac 3c 12 be
       -0.0055978303 -0.028426252 0.1212958 -0.14280957
000250 74 15 8e be b7 a6 34 3d 14 b5 44 be 2b 4e 36 bc
       -0.27750742 0.044104304 -0.19209701 -0.011127035
000260 2f 0a 97 3e 10 fb c3 3d 9b 1c e3 bd 7d e5 41 3e
       0.29499957 0.09569371 -0.110894404 0.18935199
000270 43 c4 1d bb f6 b0 b9 bd 59 3b 90 be 83 19 8e 3d
       -0.002407328 -0.09066956 -0.2817028 0.0693846
000280 26 71 6c 3e 57 8a 14 3e 81 65 7d be df 5d ea 3c
       0.23090038 0.14505897 -0.24745752 0.028609214
000290 28 a5 8d be 09 31 af be c7 5a f3 bd 6c 3f c0 3d
       -0.27665067 -0.34217098 -0.11882549 0.09387097
0002a0 56 8a b4 3d 64 cf 9f be b3 9a 7f be 50 74 c5 bd
       0.08815448 -0.31212914 -0.24961357 -0.096413255
0002b0 c7 47 0d 3e de 42 e7 bd e7 a1 6b 3d f5 64 77 3d
       0.13796912 -0.11292051 0.05752745 0.060399015
0002c0 98 33 77 be da a1 94 be 97 df 58 bd f0 6a 1c be
       -0.24140775 -0.29029733 -0.052947607 -0.15275168
0002d0 86 b5 75 bc ff 35 0b bd 7a ce 90 3e bc 71 ad bd
       -0.014996892 -0.03398704 0.2828253 -0.08468959
0002e0 93 89 5c bd 21 04 84 3d a9 0e ae 3d 3a 46 3b be
       -0.05384214 0.064461 0.0849889 -0.18288508
0002f0 e6 c8 a1 bd ee 41 3a 3e 9e 3f fb bb 38 c1 da bc
       -0.078996465 0.18189213 -0.007667496 -0.026703462
000300 a9 a5 04 3e 05 d9 84 bd 43 15 48 be 48 d6 9d 3d
       0.1295382 -0.06486706 -0.1953936 0.077068865
000310 3b 7a 0b 3e 38 b3 7e be ab f9 05 bf 3b ab 03 3c
       0.13620846 -0.24873054 -0.5233409 0.00803643
000320 0d 79 1b be 94 90 37 be 4e c1 1e be a5 f9 0b be
       -0.15182896 -0.17926246 -0.15503427 -0.1366945
000330 8d 0f 11 be 19 a8 dd 3c e7 0a 0e 3d 9a 73 d2 bd
       -0.14166088 0.027057694 0.034678366 -0.102759555
000340 cd 8b 86 3e 4f 77 88 be 8e 19 8b bc f0 26 4e be
       0.26278535 -0.26653525 -0.016979959 -0.20132041
000350 18 bf c7 bd 59 44 22 3e 42 34 04 be 85 da 26 be
       -0.09753245 0.15846385 -0.1291056 -0.16294296
000360 b7 9f 5c 3a d1 54 06 be ae 7d ac bd 6e 9e 44 3e
       0.00084161334 -0.13118292 -0.08422409 0.19201061
000370 32 70 fa 3d dc 35 14 be c4 68 77 3d 19 62 02 be
       0.12228431 -0.1447367 0.060402647 -0.12732734
000380 e5 ce 3d be f8 d5 28 3d 4e c2 60 3e 61 cd 95 be
       -0.18535955 0.04121968 0.21949121 -0.29258254
000390 63 97 f4 bd 62 49 7c bd bd 04 18 3e f2 94 ee bd
       -0.11942937 -0.06159342 0.14845558 -0.11649503
0003a0 31 d1 ef bc 76 01 bc bd 48 41 12 3e d6 f2 0c 3e
       -0.029274555 -0.09179966 0.14282715 0.1376451
0003b0 7f aa 1e be 4e 47 0f 3e 37 32 03 bd 90 25 2d be
       -0.15494727 0.13992044 -0.03203031 -0.1690886
0003c0 ac 80 37 3d a3 de 3e be 37 88 83 be f9 67 4a 3e
       0.044800445 -0.18639617 -0.2568986 0.19766225
0003d0 6f 18 71 bd c0 da 8c bd c7 51 06 3e 61 4e be bc
       -0.058861192 -0.06877661 0.13117133 -0.023230733
0003e0 dd 44 a2 be cd f4 2f 3e 4c 5d 63 3e e7 1a b6 bd
       -0.31693164 0.17183228 0.22203559 -0.0889185
0003f0 e8 f3 b2 bd b1 12 23 be 82 17 86 be 5c 3c 5a bc
       -0.08737928 -0.15925099 -0.2618981 -0.013320055

f_model.fc2.bias f4 [10]
000000 2f 19 cd 3d 76 cc fc bd 6e e2 a1 3d 06 da 19 3d
       0.10014569 -0.12343685 0.07904516 0.03756144
000010 80 e4 1e 3d 3b b0 72 3e 27 cc e6 bd ea f6 b2 3d
       0.038792133 0.23700039 -0.11269408 0.08738501
000020 d6 13 79 3d bb 8a 6c 3c
       0.060809933 0.014437373
