models/Adversarially trained models/robust_joint_model_cons3.pt (torch, 464495 bytes, 12 tensors)

g_model.conv1.weight f4 [32, 1, 3, 3]
0.42452404 -0.01273609 0.4320525 0.1437483 0.34214726 0.22626992 0.14535514 0.112137765
0.30507648 0.37911734 0.017522886 0.0988702 0.53618884 0.23514448 -0.43564707 0.22080788
-0.065045334 -0.42536834 -0.28872448 0.18183714 -0.0140702175 -0.21811712 0.008414634 -0.35233408
-0.16545163 -0.31482843 0.17828375 0.1788055 0.34723276 0.048851606 0.14816988 -0.12071181
0.2487642 0.15860306 0.1498079 0.21617182 0.0881703 0.1705406 0.54076546 -0.16597302
0.037015986 -0.11689056 -0.38491997 -0.3702666 -0.454666 0.3290275 0.43944827 0.35049745
-0.022848215 0.28786677 0.13809873 0.21005963 -0.0065037296 0.41065148 -0.0051868497 -0.4715641
-0.059015494 -0.38915643 -0.36503437 0.07152303 -0.10508017 0.369757 0.47826612 0.4160434
0.11042341 -0.3196039 -0.027302971 0.3591179 0.21439643 0.022503175 -0.0012276003 0.41694617
0.2961895 -0.13703473 -0.10960079 -0.13944313 -0.06942891 -0.19471855 0.13450058 0.3156024
-0.2595518 0.14194998 0.28178474 0.27215594 0.17362645 0.29239997 0.041763254 0.065827675
-0.3927712 -0.36137563 0.4526651 0.26936266 0.34705174 0.055992696 0.5091218 0.02751746
-0.10375565 0.24892609 -0.009531296 0.32421306 -0.005496618 -0.3704403 0.11840596 -0.23767665
0.11915922 0.090767644 0.4200133 0.23389564 -0.31047568 -0.24589854 0.1693505 -0.19888636
0.07261181 -0.1564724 -0.08764155 -0.16895704 -0.33170316 0.13012318 0.1599684 -0.15463628
0.28391185 -0.04644219 -0.20899299 -0.1372882 -0.38471916 -0.22346519 0.42937797 0.095710486
0.088629715 0.245475 -0.19586985 0.4724271 0.11771594 0.15012209 0.0022747796 -0.16157323
0.10770129 0.58820933 -0.036593165 -0.39037892 0.3753785 -0.5750982 -0.1471042 -0.11338251
0.09685624 0.080845125 0.1853321 0.033081822 0.3415321 0.3947989 0.3493499 0.33146194
-0.3130708 -0.19868201 -0.409549 0.16619907 -0.38396895 -0.28702554 0.1568648 0.04804711
0.27362004 0.3679962 -0.16917463 0.2922015 -0.3047347 -0.31900284 -0.14445221 -0.3589861
-0.0029921643 -0.22966743 0.14956403 0.17258252 0.102357194 0.00817108 0.06576522 0.32404238
-0.092347346 -0.23580486 -0.2565146 -0.30573916 0.23192362 -0.09914208 -0.40712953 0.053136516
-0.13161997 -0.14149907 0.025901869 -0.35621715 -0.27051672 -0.09633074 0.4123907 -0.04644461
-0.3003465 0.1751002 -0.25483182 -0.31950524 -0.38455188 -0.28918725 0.10934724 0.22693656
-0.2640164 -0.16953786 0.30865973 -0.011027846 -0.27184454 -0.16412081 0.23640358 0.15065965
-0.20987399 -0.11722254 -0.039096672 0.29285055 0.22203043 0.30020064 0.44127098 -0.20196472
-0.23275267 0.35044795 0.3306207 0.27196404 0.33823788 0.14570993 -0.074185975 -0.119988434
-0.32605708 -0.1865929 0.061571524 -0.23189391 -0.31781057 -0.048876833 -0.1298069 -0.11786512
0.34995192 0.45882684 -0.39947996 -0.37645054 0.2223897 -0.17981634 -0.01964412 -0.18863496
-0.27787277 -0.025877532 -0.16935398 -0.47107753 0.078235574 0.18437405 -0.19948481 -0.105623916
0.32565123 -0.07564402 0.36224133 0.17905974 -0.11546179 -0.107667945 -0.25244936 -0.11381155
00000000: 375b d93e 09ab 50bc fc35 dd3e c132 133e
00000010: ed2d af3e 4db3 673e fad7 143e 7ca8 e53d
00000020: fc32 9c3e ab1b c23e 288c 8f3c 767c ca3d
00000030: ac43 093f b7c9 703e 220d dfbe 761b 623e
00000040: 7d36 85bd e1c9 d9be b2d3 93be 8433 3a3e
00000050: c586 66bc 185a 5fbe 88dd 093c 2265 b4be
00000060: 276c 29be 3131 a1be 0490 363e ca18 373e
00000070: 7ec8 b13e 9f18 483d d8b9 173e c137 f7bd
00000080: 0bbc 7e3e d768 223e 3e67 193e 255c 5d3e
00000090: a192 b43d 32a2 2e3e 9b6f 0a3f d5f4 29be
000000a0: 139e 173d 5164 efbd 3b14 c5be 9593 bdbe
000000b0: fbc9 e8be 4b76 a83e 5dff e03e 6774 b33e
000000c0: 2e2c bbbc 4663 933e c169 0d3e df19 573e
000000d0: 3d1d d5bb e940 d23e 73f6 a9bb da70 f1be
000000e0: 3bba 71bd 833f c7be c9e5 babe ab7a 923d
000000f0: 4634 d7bd ca50 bd3e 4cdf f43e a403 d53e
00000100: ab25 e23d 1fa3 a3be 7baa dfbc 4dde b73e
00000110: bd8a 5b3e 9458 b83c 6ee7 a0ba f879 d53e
00000120: 26a6 973e d552 0cbe 6176 e0bd 2eca 0ebe
00000130: bf30 8ebd 4d64 47be 85ba 093e a396 a13e
00000140: f9e3 84be 565b 113e 1746 903e 0658 8b3e
00000150: 22cb 313e 73b5 953e f20f 2b3d a9d0 863d
00000160: 4f19 c9be 3a06 b9be b8c3 e73e e7e9 893e
00000170: c4b0 b13e 9958 653d ce55 023f 4c6c e13c
00000180: d87d d4bd 7be6 7e3e 2729 1cbc 41ff a53e
00000190: f91c b4bb 5aaa bdbe d37e f23d 8261 73be
000001a0: c009 f43d 63e4 b93d fc0b d73e 5782 6f3e
000001b0: abf6 9ebe d4cc 7bbe 386a 2d3e dea8 4bbe
000001c0: 80b5 943d 4d3a 20be 6a7d b3bd 1303 2dbe
000001d0: ffd4 a9be 033f 053e c2ce 233e f958 1ebe
000001e0: e55c 913e 2a3a 3ebd 4202 56be 4795 0cbe
000001f0: e9f9 c4be 0fd4 64be 6ed7 db3e dc03 c43d
00000200: 7f83 b53d cc5d 7b3e 1b92 48be f7e1 f13e
00000210: 0e15 f13d 9bb9 193e 7814 153b 7473 25be
00000220: 7e92 dc3d e394 163f b7e2 15bd bfdf c7be
00000230: 9c31 c03e a339 13bf 7ca2 16be 1735 e8bd
00000240: 905c c63d 2192 a53d b3c7 3d3e ce80 073d
00000250: 4cdd ae3e 1523 ca3e fddd b23e 61b5 a93e
00000260: d14a a0be 4c73 4bbe 68b0 d1be 1730 2a3e
00000270: 9497 c4be 03f5 92be 2ba1 203e 0ccd 443d
00000280: ed17 8c3e ff69 bc3e 1d3c 2dbe 6f9b 953e
00000290: 3006 9cbe 5754 a3be 48eb 13be 07cd b7be
000002a0: 3018 44bb f02d 6bbe 5027 193e 79b9 303e
000002b0: a6a0 d13d fedf 053c eaaf 863d e2e8 a53e
000002c0: 9b20 bdbd d476 71be e255 83be d889 9cbe
000002d0: 637d 6d3e 010b cbbd 4873 d0be ada5 593d
000002e0: 63c7 06be 22e5 10be 2830 d43c 1862 b6be
000002f0: 2b81 8abe 0d49 c5bd e024 d33e b43c 3ebd
00000300: 04c7 99be 784d 333e 5179 82be 3196 a3be
00000310: fce3 c4be 5a10 94be 72f1 df3d 0f62 683e
00000320: 282d 87be 559b 2dbe a608 9e3e 23ae 34bc
00000330: 352f 8bbe 490f 28be c813 723e 8646 1a3e
00000340: 35e9 56be 5f12 f0bd d523 20bd 82f0 953e
00000350: f25b 633e e6b3 993e 45ee e13e d7cf 4ebe
00000360: b756 6ebe ea6d b33e 1e47 a93e df3e 8b3e
00000370: 842d ad3e fc34 153e d1ee 97bd 7fbc f5bd
00000380: f4f0 a6be 3612 3fbe 6c32 7c3d 9975 6dbe
00000390: 11b8 a2be 1333 48bd 1aec 04be 4563 f1bd
000003a0: e62c b33e 5aeb ea3e a388 ccbe 20be c0be
000003b0: 20ba 633e c621 38be b5ec a0bc 8629 41be
000003c0: 5745 8ebe 1efd d3bc 216b 2dbe 1331 f1be
000003d0: f939 a03d 8dcc 3c3e bf45 4cbe 5a51 d8bd
000003e0: c2bb a63e 41eb 9abd b277 b93e 705b 373e
000003f0: 3b77 ecbd 0381 dcbd 0b41 81be 0816 e9bd

g_model.conv1.bias f4 [32]
0.27063474 0.29793182 0.3299983 0.25873452 0.24350746 0.021166768 0.3869682 0.18506853
-0.2151784 0.13994005 -0.13218069 0.013625631 0.33255628 0.35312393 0.22187123 0.23030719
0.123035006 0.29343402 0.40949017 -0.007000767 0.35037553 0.27121013 -0.0044674864 0.03861781
-0.004430661 0.28229392 -0.123817734 -0.065617405 -0.20832075 0.23407575 0.17966925 0.0019620426
00000000: a390 8a3e 858a 983e 8af5 a83e da78 843e
00000010: 055a 793e ee65 ad3c b220 c63e 9b82 3d3e
00000020: ba57 5cbe 724c 0f3e 605a 07be 0a3e 5f3c
00000030: d144 aa3e a9cc b43e 3632 633e a6d5 6b3e
00000040: c7f9 fb3d fc3c 963e b2a8 d13e b166 e5bb
00000050: 6c64 b33e 0edc 8a3e fe63 92bb b52d 1e3d
00000060: 142f 91bb d488 903e 2794 fdbd 6b62 86bd
00000070: 0952 55be 8eb1 6f3e 37fb 373e 9d95 003b

g_model.conv2.weight f4 [32, 32, 3, 3]
-0.032232534 -0.07290674 -0.042464536 0.011465469 0.013254395 -0.024513718 -0.051348146 0.048038974
-0.0038603477 0.04861319 -0.0041808626 -0.043399382 -0.02787322 -0.026461415 -0.037670933 0.03135262
-0.019454146 0.010117188 0.04975932 -0.002180985 -0.0022230467 -0.028554237 -0.017143656 -0.021439673
0.06516543 0.05920413 0.0243138 -0.028740384 -0.059823602 -0.022220323 0.036493074 -0.010763503
-0.049185622 -0.005600509 0.018029021 0.05212477 0.06665634 0.04245664 0.013315819 -0.0023597258
0.045136873 -0.04433138 0.0011237661 0.032268953 0.015678536 -0.056286283 -0.038133096 0.0012413892
0.031691056 -0.03920813 0.009282519 -0.02255788 -0.0151500655 -0.021856 0.06871223 0.04590978
-0.014649391 0.004214854 0.011112994 0.018642826 0.0057960097 0.044906504 0.0012541347 -0.06657826
-0.022032745 0.015810043 0.039845217 0.036723964 0.021556905 0.034509297 0.00024178329 0.009399601
0.014149545 0.031620372 -0.0221743 0.07338403 -0.0017251667 -0.07239676 0.023426266 -0.015337031
-0.03281228 -0.014809978 0.026916413 0.05095114 -0.057143655 0.041519567 0.044733685 0.050677318
0.029628186 -0.031068295 -0.03134939 -0.009987782 -0.03441461 -0.04810637 0.049326036 -0.021035517
-0.03237233 0.016063899 -0.054038476 -0.02927042 -0.042975646 0.012389 0.012215601 -0.029013945
0.012568501 0.014091472 0.034099627 0.007874116 0.06730214 -0.00659581 0.07278927 -0.021094823
0.04094522 0.023637306 -0.0110649895 0.05339362 -0.012408923 0.045757998 0.07282947 -0.0076809055
0.045090947 -0.00371778 0.050963175 -0.006662773 0.064609125 -0.01793796 0.04117875 -0.039156046
-0.009690967 0.012509012 -0.008717061 0.052052744 -0.03175403 0.045439247 -0.019436529 0.04171259
0.05444159 0.072219335 0.014317877 -0.005304804 0.06916638 0.065768175 0.028168794 0.030898396
-0.04189559 -0.07298361 0.030658467 -0.011406633 -0.052994058 -0.039127905 0.054569542 -0.035257373
-0.024634331 0.010477709 0.025484214 -0.01127714 -0.020686902 0.021097878 0.013195879 0.051552586
-0.01588311 0.010186215 0.056415133 0.012088463 -0.018657684 0.010694343 0.016923176 -0.025451228
0.06726702 0.01196888 -0.0330997 0.025647206 0.017680546 -0.02916901 0.00735593 0.06368563
-0.01543256 -0.019120296 -0.019653283 -0.04225064 0.048866443 0.017741831 0.000633565 0.03149768
-0.008640838 0.021701789 0.00357777 0.0060255216 0.04543779 0.07150643 0.06131707 0.07254372
-0.023390552 0.07997236 -0.028842129 -0.013935378 0.058410253 -0.037600696 0.0044333497 0.044320054
-0.0065716202 -0.038796615 0.032697693 -0.035040103 0.021397535 0.015856184 -0.034618217 -0.038259983
-0.043238945 0.011928023 0.06479038 -0.038406637 -0.048531856 -0.020600285 -0.016941767 -0.041536402
-0.064248264 -0.057255767 0.019988563 -0.059065375 -0.026082203 -0.001239895 0.00030028546 0.06321571
0.006825719 -0.0019544854 -0.03942069 -0.04028006 0.019711895 -0.004034709 -0.038079605 0.02748279
-0.009251991 0.05783692 0.014646085 0.019260284 0.09298964 -0.02652451 0.00025508695 0.04180288
-0.04637341 -0.04041692 -0.026980303 0.014325209 0.010941418 -0.043540612 0.023000432 0.037787713
-0.024117839 0.077304624 0.06154244 -0.049736947 -0.025104653 0.007553064 0.011338443 0.083114244
00000000: 4306 04bd 2150 95bd 4bef 2dbd aad9 3b3c
00000010: f628 593c fed0 c8bc 6f52 52bd 84c4 443d
00000020: e3fd 7cbb a01e 473d 9eff 88bb 8dc3 31bd
00000030: 6156 e4bc 9cc5 d8bc d64c 1abd 9b6b 003d
00000040: 4d5e 9fbc 90c2 253c 6ed0 4b3d dbee 0ebb
00000050: 89b0 11bb 93ea e9bc da70 8cbc 41a2 afbc
00000060: 7475 853d 0880 723d bc2d c73c f470 ebbc
00000070: 9809 75bd 6507 b6bc c379 153d 6759 30bc
00000080: dd76 49bd 7984 b7bb 99b1 933c c880 553d
00000090: 1f83 883d 04e7 2d3d 982a 5a3c a1a5 1abb
000000a0: 71e1 383d d294 35bd 554b 933a 732c 043d
000000b0: 4670 803c 728c 66bd 7331 1cbd 1cb6 a23a
000000c0: 7bce 013d b498 20bd b515 183c 4ecb b8bc
000000d0: fb37 78bc 5b0b b3bc ffb8 8c3d e50b 3c3d
000000e0: 0004 70bc c21c 8a3b 4613 363c d7b8 983c
000000f0: 74ec bd3b e2ef 373d c761 a43a 2f5a 88bd
00000100: 047e b4bc 1084 813c bd34 233d de6b 163d
00000110: 1b98 b03c 9f59 0d3d 3587 7d39 c900 1a3c
00000120: 7ed3 673c 5d84 013d e1a6 b5bc 5e4a 963d
00000130: fd1e e2ba c144 94bd 71e8 bf3c 2c48 7bbc
00000140: 2b66 06bd 8da5 72bc cf7f dc3c 24b2 503d
00000150: 770f 6abd 6c10 2a3d ab3a 373d 0593 4f3d
00000160: cfb6 f23c f082 febc 3868 00bd cba3 23bc
00000170: 56f6 0cbd 2f0b 45bd 190a 4a3d ad52 acbc
00000180: d998 04bd 7098 833c 7357 5dbd 85c8 efbc
00000190: 3b07 30bd 3bfb 4a3c f223 483c a7ae edbc
000001a0: 1dec 4d3c ebdf 663c 0dac 0b3d 7002 013c
000001b0: b4d5 893d aa21 d8bb 8a12 953d 0dcf acbc
000001c0: 2db6 273d 06a3 c13c ee49 35bc 45b3 5a3d
000001d0: cc4e 4bbc bd6c 3b3d 9e27 953d 1bb0 fbbb
000001e0: 49b1 383d 00a6 73bb c3be 503d 6453 dabb
000001f0: ca51 843d a1f2 92bc 0dab 283d 1762 20bd
00000200: ddc6 1ebc 99f2 4c3c 01d2 0ebc 4235 553d
00000210: 8410 02bd 811e 3a3d 5b39 9fbc d2da 2a3d
00000220: 25fe 5e3d bbe7 933d 8795 6a3c ecd3 adbb
00000230: 1aa7 8d3d 77b1 863d 3ec2 e63c a21e fd3c
00000240: b69a 2bbd 6e78 95bd 7727 fb3c e3e2 3abc
00000250: 4c10 59bd 9544 20bd 5084 5f3d 096a 10bd
00000260: f0cd c9bc b2aa 2b3c 45c4 d03c c1c3 38bc
00000270: 9477 a9bc 75d5 ac3c 8733 583c ce28 533d
00000280: 4c1d 82bc 15e4 263c 8e13 673d b00e 463c
00000290: 00d8 98bc 5337 2f3c 79a2 8a3c 187f d0bc
000002a0: 4bc3 893d 1f19 443c 8d93 07bd 171a d23c
000002b0: cbd6 903c d9f3 eebc 030a f13b 9d6d 823d
000002c0: d9d8 7cbc 2ba2 9cbc ecff a0bc 020f 2dbd
000002d0: 2e28 483d 5157 913c d415 263a b603 013d
000002e0: 4d92 0dbc f3c7 b13c 0579 6a3b bd71 c53b
000002f0: fa1c 3a3d f771 923d 9c27 7b3d cd91 943d
00000300: 8b9d bfbc 8cc8 a33d 5446 ecbc 3651 64bc
00000310: 973f 6f3d 3003 1abd a245 913b f288 353d
00000320: bf56 d7bb 33e9 1ebd 04ee 053d 3686 0fbd
00000330: e249 af3c d4e4 813c d5cb 0dbd 80b6 1cbd
00000340: 521b 31bd c16d 433c d2b0 843d 4750 1dbd
00000350: 57c9 46bd eec1 a8bc 76c9 8abc 1322 2abd
00000360: 9894 83bd 0685 6abd 0ebf a33c 89ee 71bd
00000370: 58aa d5bc f983 a2ba a26f 9d39 3d77 813d
00000380: 48aa df3b d316 00bb 9777 21bd b4fc 24bd
00000390: d77a a13c 9835 84bb 5cf9 1bbd 9723 e13c
000003a0: aa95 17bc 68e6 6c3d 22f6 6f3c bec7 9d3c
000003b0: 5a71 be3d ee49 d9bc 31bd 8539 7f39 2b3d
000003c0: 0bf2 3dbd 368c 25bd cc05 ddbc 48b4 6a3c
000003d0: a243 333c a457 32bd 676b bc3c 4ac7 1a3d
000003e0: c692 c5bc e351 9e3d ed13 7c3d f8b8 4bbd
000003f0: 46a8 cdbc b17f f73b e0c4 393c cd37 aa3d

g_model.conv2.bias f4 [32]
0.050115705 -0.0012660731 0.027192943 0.033781953 0.0054066572 0.016093373 0.004971399 -0.03953795
-0.043867957 -0.029403301 0.07214886 -0.05573281 0.024306567 0.03886361 -0.050991673 -0.031979136
-0.058388114 0.06997453 0.024093898 0.06869406 -0.019668363 -0.01649405 0.0024753287 -0.038402982
0.023237126 -0.07033868 -0.031760648 -0.05966965 -0.005756646 0.011601365 0.019298522 -0.0087729385
00000000: 2046 4d3d 5df2 a5ba bcc3 de3c f25e 0a3d
00000010: 542a b13b 40d6 833c 1ee7 a23b 8cf2 21bd
00000020: e3ae 33bd 31df f0bc c8c2 933d 1648 64bd
00000030: 911e c73c 732f 1f3d a5dc 50bd 8efc 02bd
00000040: 6028 6fbd ce4e 8f3d 9160 c53c 79af 8c3d
00000050: 8c1f a1bc 881e 87bc 2039 223b 724c 1dbd
00000060: c95b be3c ba0d 90bd 7417 02bd 2a68 74bd
00000070: 3fa2 bcbb a713 3e3c ef17 9e3c 5fbc 0fbc

g_model.fc1.weight f4 [128, 800]
-0.016850786 0.009385472 -0.026025286 0.00962018 0.0124993045 -0.039074365 0.015264656 0.0271509
0.022304757 -0.051776882 -0.01774426 0.03266083 0.028236661 0.01462072 -0.038143583 0.0056860056
-0.026854843 -0.039157182 0.028383056 0.031238113 -0.0109573975 -0.032736532 0.0075604096 0.024333943
-0.024526617 -0.03783371 -0.01349187 0.02049205 -0.0007240217 -0.019951645 0.016917065 0.014237021
-0.0012849679 0.005998662 -0.027867468 -0.022757484 0.028338717 -0.014098873 -0.024602795 -0.10409498
0.023219595 -0.022118844 0.017528249 0.009447478 0.018526336 0.0036731951 0.038934916 -0.005495827
-0.00022951372 -0.0040849308 0.00957216 0.006130186 -0.0025294432 0.012399709 0.0031891263 -0.051177066
-0.053600494 0.0113616595 -0.03873619 -0.063510165 -0.05140786 0.024064915 0.037678584 -0.028677315
-0.04710642 0.044723455 -0.0056257844 0.001554716 0.00082129013 0.0514471 -0.03752604 0.007801655
-0.021747358 0.031011406 0.008135812 -0.023889907 -0.017346539 -0.0062424047 0.03103862 -0.008615807
-0.03092063 -0.016315207 -0.0039558155 -0.029845428 -0.00358937 -0.026009198 -0.035592154 0.030406235
-0.067287356 -0.056760147 -0.04203523 0.03832592 -0.026552971 -0.018387526 0.022709655 0.04881344
-0.02163648 0.041740842 -0.015124206 -0.0069997115 -0.002204915 -0.013904515 0.024391863 0.014430627
-0.022114363 -0.033912968 -0.030875914 0.0020117736 -0.030876365 -0.06572933 -0.050517187 0.009446713
0.040114522 0.021098187 0.002646652 -0.0014183488 0.0013559092 0.0142458035 0.045282025 -0.00045708774
-0.0073984866 0.0029440525 0.037755694 0.017913993 0.011493823 0.03948277 0.0065017054 0.015866451
-0.00027859214 0.02046391 -0.015165364 0.041124664 0.019263608 -0.043081462 -0.04870908 -0.02162706
0.038256835 -0.0374551 -0.026160073 -0.028089823 -0.029356236 -0.033983592 -0.030588556 0.034501713
-0.007156613 0.015719289 0.022292284 -0.0635327 -0.025328642 0.01946721 -0.022278702 -0.030237693
0.008619327 0.03932914 -0.025271969 0.019243205 -0.02240624 0.010477621 0.110468455 0.071577296
0.020156633 0.0027275453 0.0071543716 0.03995371 0.00022026568 0.020045454 0.005198676 -0.05121711
-0.0060781827 0.049641263 0.026555639 0.049191725 0.048224278 -0.015882175 0.021635816 -0.024668572
-0.03356383 -0.0068442863 -0.007434827 -0.024368702 -0.03411037 -0.030594375 -0.025741477 -0.04387391
-0.027315602 -0.0256604 0.006361131 0.009166642 -0.075392924 -0.08761011 0.037283055 -0.038702413
-0.0016995985 0.012764382 0.041234404 0.0035798347 0.017654208 -0.026451152 -0.030394293 -0.008524398
-0.010639078 0.028793272 -0.0388275 -0.016218808 -0.009984437 0.0061934623 -0.016301556 -0.036108978
-0.028347649 -0.056843422 -0.014244673 -0.004314326 -0.005137361 -0.06185531 -0.04643139 -0.01662719
0.0065035876 0.0010406148 0.015980763 0.022545485 -0.014194741 0.0067662913 0.012573107 0.006722681
-0.020351395 -0.007782805 0.008073568 -0.036780506 -0.028171651 -0.028124368 -0.0452616 -0.01514853
0.02509863 0.0101199625 -0.0128937755 -0.006403966 -0.028899407 0.05227634 0.024584146 0.007599053
0.008336955 0.012397446 -0.0069927736 -0.029864382 0.018812887 0.015125518 -0.053077027 -0.049138527
0.0055748248 0.0005147388 0.0003752436 -0.008316159 0.012515225 0.014621661 -0.02687803 -0.029643593
00000000: a90a 8abc 86c5 193c fb32 d5bc f69d 1d3c
00000010: e2c9 4c3c 710c 20bd 9c18 7a3c 906b de3c
00000020: 77b8 b63c ff13 54bd 695c 91bc 5dc7 053d
00000030: 9250 e73c bf8b 6f3c 723c 1cbd ac51 ba3b
00000040: b0fe dbbc 4863 20bd 9583 e83c 12e7 ff3c
00000050: a886 33bc be16 06bd 50bd f73b fa57 c73c
00000060: 0bec c8bc 85f7 1abd 010d 5dbc f2de a73c
00000070: 46cc 3dba a271 a3bc a895 8a3c 6542 693c
00000080: 5e6c a8ba 6d90 c43b 514a e4bc e76d babc
00000090: 9926 e83c f6fe 66bc cd8b c9bc c02f d5bd
000000a0: 0537 be3c 9432 b5bc 6797 8f3c 98c9 1a3c
000000b0: 8bc4 973c fdb9 703b 387a 1f3d 5716 b4bb
000000c0: 9fa9 70b9 e2da 85bb 8dd4 1c3c badf c83b
000000d0: 04c5 25bb 2628 4b3c a900 513b 0b9f 51bd
000000e0: 318c 5bbd 4126 3a3c d7a9 1ebd 9e11 82bd
000000f0: 0c91 52bd c923 c53c dc54 1a3d b0ec eabc
00000100: a9f2 40bd f12f 373d 8058 b8bb 9dc7 cb3a
00000110: d94b 573a 32ba 523d e8b4 19bd 07a5 ff3b
00000120: 8427 b2bc a20b fe3c 124c 053c c4b4 c3bc
00000130: 541a 8ebc 168d ccbb b444 fe3c 5029 0dbc
00000140: 434d fdbc 78a7 85bc c99f 81bb 667e f4bc
00000150: a33b 6bbb 3e11 d5bc 14c9 11bd 7f16 f93c
00000160: f4cd 89bd 547d 68bd 222d 2cbd a4fb 1c3d
00000170: 9e85 d9bc 70a1 96bc 9909 ba3c 9af0 473d
00000180: fd3e b1bc 72f8 2a3d 85cb 77bc d65d e5bb
00000190: 5680 10bb c3cf 63bc 72d1 c73c 706e 6c3c
000001a0: 2e29 b5bc 53e8 0abd 7cef fcbc f6d7 033b
000001b0: 6ef0 fcbc 199d 86bd 1ceb 4ebd 63c6 1a3c
000001c0: 204f 243d 1bd6 ac3c 7473 2d3b e3e7 b9ba
000001d0: c3b8 b13a 3b67 693c a579 393d 47a5 efb9
000001e0: 016f f2bb 01f1 403b b7a5 1a3d 5ec0 923c
000001f0: 9650 3c3c afb8 213d 420c d53b 5cfa 813c
00000200: 0110 92b9 eea3 a73c 2678 78bc 5672 283d
00000210: b7ce 9d3c 3076 30bd 2c83 47bd 3b2b b1bc
00000220: 33b3 1c3d 856a 19bd a64d d6bc a11c e6bc
00000230: 7d7c f0bc 6132 0bbd da94 fabc ab51 0d3d
00000240: 0582 eabb bdc5 803c 4f9e b63c 6f1d 82bd
00000250: 037e cfbc b379 9f3c d381 b6bc 0ab5 f7bc
00000260: 1438 0d3c 9817 213d 2907 cfbc eda3 9d3c
00000270: 4b8d b7bc 54aa 2b3c 493d e23d 1e97 923d
00000280: 861f a53c 9ec0 323b 386f ea3b 80a6 233d
00000290: 1ef7 6639 5d36 a43c a859 aa3b 08c9 51bd
000002a0: 7e2b c7bb a354 4b3d 368b d93c 437d 493d
000002b0: d286 453d 561b 82bc 983d b13c bf15 cabc
000002c0: 3a7a 09bd 0946 e0bb d99f f3bb dfa0 c7bc
000002d0: 51b7 0bbd 0ea1 fabc cadf d2bc 21b5 33bd
000002e0: f8c4 dfbc c235 d2bc 0971 d03b af2f 163c
000002f0: 9b67 9abd ee6c b3bd 1eb6 183d 6c86 1ebd
00000300: 10c5 deba b321 513c 68e5 283d a99b 6a3b
00000310: 8f9f 903c 16b0 d8bc 74fd f8bc eba9 0bbc
00000320: 874f 2ebc dedf eb3c 9609 1fbd 4edd 84bc
00000330: c495 23bc 87f2 ca3b d78a 85bc 02e7 13bd
00000340: 5439 e8bc a6d4 68bd 7d62 69bc 315f 8dbb
00000350: 4f57 a8bb fe5b 7dbd d72e 3ebd bf35 88bc
00000360: 0c1c d53b 3d65 883a 17ea 823c 4fb1 b83c
00000370: 0f91 68bc c4b7 dd3b 6fff 4d3c f049 dc3b
00000380: f8b7 a6bc e606 ffbb 0047 043c 28a7 16bd
00000390: 3cc8 e6bc 1365 e6bc 3a64 39bd 8a31 78bc
000003a0: a49b cd3c 33ce 253c 6a40 53bc 5cd8 d1bb
000003b0: 73be ecbc b71f 563d b164 c93c 7a01 f93b
000003c0: b997 083c a81e 4b3c a323 e5bb 26a6 f4bc
000003d0: 7c1d 9a3c 05d1 773c 4c67 59bd 7b45 49bd
000003e0: 05ad b63b 89ef 063a 58bc c439 8040 08bc
000003f0: a90c 4d3c b18f 6f3c 502f dcbc 1fd7 f2bc

g_model.fc1.bias f4 [128]
-0.023369482 -0.017977525 -0.023897346 0.0058354586 0.043432903 0.0032279303 -0.017916137 -0.029539406
0.012049424 0.03530723 -0.027399605 -0.0041059703 0.02894531 -0.04460512 -0.00021099459 -0.011686498
-0.0013019941 -0.029166074 -0.036898177 -0.0047763903 0.015758067 -0.02863192 0.023024788 -0.0151921
0.028518619 0.0036277794 0.03471306 0.01734631 0.036305968 0.0010971968 0.021726906 -0.039090887
-0.01968604 0.009213028 0.030059552 -0.014893145 0.018781627 0.01294557 0.01344444 0.036300972
0.012911498 -0.033521906 -0.04282164 0.041753978 0.024522668 -0.019021682 0.016337948 0.026406845
0.00068585016 0.0141361235 -0.034503184 0.02906002 0.00461459 0.021867687 -0.013927977 -0.0009133487
0.033005226 -0.051481392 -0.016992198 0.030004695 -5.481181e-05 0.033933416 0.019214125 0.018116113
-0.018706791 0.0011788724 -0.035218015 0.0020454847 0.007307432 -0.027320063 -0.03014601 -0.005767844
0.031317938 0.019701887 -0.004841735 0.016212963 -0.027325839 -0.020071495 -0.009908129 0.014213971
-0.0365775 0.020528976 0.008610129 0.031185843 -0.0023151855 -0.022590544 -0.039905287 -0.030385973
0.019633772 0.016791198 0.02279331 -0.029264852 -0.009543464 0.016892845 0.040260814 -0.0072298977
-0.0031956488 0.0050282762 -0.02641512 0.014434175 -0.019403443 0.033149797 0.04025139 -0.030138932
0.008249867 -0.030231046 -0.02367941 0.021424703 -0.0038869435 0.033422794 0.017068453 0.021799754
0.017572895 0.019591928 0.0066754646 0.027386807 0.008888989 -0.020157332 0.0029137882 -0.0011737669
-0.029028624 -0.027414607 0.008258394 -0.017575854 0.017934948 0.0064651966 0.021568848 -0.02231375
00000000: 5b71 bfbc 9a45 93bc 5ec4 c3bc 6037 bf3b
00000010: b3e6 313d af8b 533b ddc4 92bc a0fc f1bc
00000020: f36a 453c 509e 103d 2375 e0bc 608b 86bb
00000030: b71e ed3c dcb3 36bd 6e3e 5db9 ba78 3fbc
00000040: aca7 aaba b1ed eebc 8b22 17bd 4483 9cbb
00000050: 1017 813c 7d8d eabc 7b9e bc3c 49e8 78bc
00000060: e19f e93c 0ac0 6d3b 482f 0e3d d919 8e3c
00000070: 91b5 143d d1cf 8f3a a0fc b13c c41d 20bd
00000080: 9e44 a1bc 3df2 163c 733f f63c 6102 74bc
00000090: eddb 993c a819 543c 1246 5c3c 54b0 143d
000000a0: bf8a 533c 444e 09bd be65 2fbd 3806 2b3d
000000b0: c3e3 c83c 5cd3 9bbc 29d7 853c 2b53 d83c
000000c0: a0ca 333a 339b 673c 3653 0dbd 470f ee3c
000000d0: fd35 973b dd23 b33c 2b32 64bc cb6d 6fba
000000e0: 7d30 073d 27de 52bd 3933 8bbc 68cc f53c
000000f0: bce5 65b8 c4fd 0a3d f166 9d3c 3e68 943c
00000100: fc3e 99bc 6584 9a3a c440 10bd 8a0d 063b
00000110: 2f73 ef3b 53ce dfbc c4f4 f6bc 2f00 bdbb
00000120: 3d47 003d da65 a13c 6ba7 9ebb 0cd1 843c
00000130: 70da dfbc fa6c a4bc b555 22bc b7e1 683c
00000140: 4ad2 15bd 622c a83c 8011 0d3c 7479 ff3c
00000150: 5eba 17bb ce0f b9bc ba73 23bd 01ec f8bc
00000160: 01d7 a03c b28d 893c 09b9 ba3c d8bc efbc
00000170: 305c 1cbc dd62 8a3c 86e8 243d c7e8 ecbb
00000180: 176e 51bb 3dc4 a43b 8664 d8bc 517d 6c3c
00000190: f8f3 9ebc 15c8 073d a4de 243d ece5 f6bc
000001a0: 732a 073c 19a7 f7bc 52fb c1bc dc82 af3c
000001b0: 17bc 7ebb 57e6 083d 24d3 8b3c 6695 b23c
000001c0: 08f5 8f3c 407f a03c dbbd da3b 4c5a e03c
000001d0: 1fa3 113c fd20 a5bc 41f5 3e3b 15d9 99ba
000001e0: 70cd edbc 9994 e0bc 374e 073c 3dfb 8fbc
000001f0: 50ec 923c 00da d33b 27b1 b03c 53cb b6bc

g_model.fc2.weight f4 [16, 128]
-0.023899125 -0.005469637 -0.0947711 -0.025223574 -0.13270876 -0.035844903 0.020605795 0.043826275
-0.0773125 0.07246574 -0.030401725 -0.11101505 0.028823748 0.028522274 -0.019393204 0.028480781
-0.029385597 0.01734826 -0.044729497 -0.035921562 0.08014247 -0.005528634 0.038740817 0.026043605
-0.13333671 0.12238728 0.1148893 -0.20651843 0.06653234 0.09406522 -0.13482015 -0.11932301
-0.040253084 0.11984429 0.00091113045 0.002759636 -0.08412612 0.045778133 -0.02252374 0.097131036
-0.035594568 0.043005507 0.0044654394 -0.030816142 0.083113894 -0.010950428 0.08315102 -0.11231708
-0.1205697 0.0003007701 -0.010970805 0.039287273 0.028835513 0.10473158 -0.09030026 -0.10563449
-0.0884703 -0.15197983 -0.09443266 0.042961024 0.08502776 -0.09333039 0.11401629 0.030275593
0.03235831 -0.06709522 0.05547281 -0.0974813 0.06848951 0.040131588 -0.18053766 -0.043475788
-0.045392007 0.012624958 -0.088616006 0.042622644 -0.02457855 0.09813401 -0.053739518 0.0065092454
-0.1416874 -0.122378856 0.030946702 0.10328758 0.025157899 0.044159338 -0.021862552 -0.003982759
0.08392199 0.0074649444 0.122563 -0.094495974 0.0612494 0.06714601 0.03952264 -0.019926164
0.09197482 -0.16095628 0.007280058 0.116827436 0.031757414 0.13456874 0.020423718 -0.077475704
0.07852835 0.014402634 0.014623676 0.05785813 -0.10129529 0.010422586 -0.1036823 -0.027790422
-0.012587514 -0.048916113 0.030361438 0.018207882 0.02552418 -0.08905214 0.021977201 0.09702548
-0.08554349 -0.036197938 -0.14817885 -0.007134022 0.13059606 -0.20987737 -0.015876424 -0.06875992
0.06781367 0.053872325 0.11170277 -0.01854156 0.08611364 -0.029673304 -0.071667425 0.02077156
-0.0078688245 0.016940888 0.05589056 0.06252097 -0.0311601 -0.053393383 0.051183898 -0.11221198
-0.022355666 0.122245006 0.109441884 -0.08718442 -0.11878981 0.07676324 0.06205609 -0.09515129
-0.11224697 0.1164818 -0.14477247 -0.038924497 -0.18438798 -0.033709224 0.023229882 0.015587966
0.062179774 -0.093721695 -0.072323725 0.08447092 -0.08578079 -0.16337277 0.1255167 -0.011048922
0.06450209 -0.06821934 0.014411736 -0.1370932 0.13007033 0.054950908 -0.08531185 0.09418669
0.038081236 0.08902899 0.035343427 0.07595148 0.08375399 0.0855587 0.0842635 0.04846908
-0.052570008 -0.098153025 -0.009777963 -0.011400007 -0.019294666 0.13597117 0.1225919 -0.06746146
-0.20349152 -0.12490934 -0.006713643 0.08838447 -0.050133854 0.044609893 0.06850605 -0.0068672933
-0.08831533 -0.044396337 0.039964218 -0.12760523 -0.070842974 -0.09891645 0.09054868 -0.17577961
-0.12825015 0.04297211 0.015246937 -0.13160801 0.15767103 -0.010701628 -0.20303024 -0.1026049
0.06261921 0.018331163 -0.14115527 -0.0018132912 -0.048375733 -0.033872493 0.02378951 -0.1493289
-0.11099165 -0.07863844 0.06950326 -0.1090673 0.0101813255 -0.0053167804 0.08993895 0.07020791
-0.1146271 0.0053162877 0.066719025 -0.033626072 -0.010447942 -0.010403652 0.122961074 0.024683408
-0.059883058 -0.057745464 -0.04297103 0.06946799 -0.07364592 -0.03577877 0.04028014 -0.08938907
0.02734839 -0.030541737 -0.011578706 -0.00040284 0.15931724 0.12301046 -0.04311118 -0.09075225
00000000: 19c8 c3bc a43a b3bb 5a17 c2bd aba1 cebc
00000010: cee4 07be 1bd2 12bd 7ccd a83c 2e83 333d
00000020: 0456 9ebd eb68 943d 0a0d f9bc dc5b e3bd
00000030: c81f ec3c 8ba7 e93c 7fde 9ebc 8750 e93c
00000040: 10ba f0bc f01d 8e3c 4736 37bd 7d22 13bd
00000050: bc21 a43d 8b29 b5bb b1ae 1e3d 6659 d53c
00000060: 6b89 08be 2fa6 fa3d 154b eb3d 9179 53be
00000070: 1c42 883d 44a5 c03d 4b0e 0abe 9f5f f4bd
00000080: 6be0 24bd ec70 f53d eed8 6e3a 02db 343b
00000090: 514a acbd da81 3b3d b583 b8bc a3ec c63d
000000a0: 9ccb 11bd 8b26 303d d252 923b 2272 fcbc
000000b0: 9e37 aa3d 6d69 33bc 154b aa3d 7f06 e6bd
000000c0: 3fed f6bd aeb0 9d39 e4be 33bc b1eb 203d
000000d0: 7438 ec3c 837d d63d 58ef b8bd e556 d8bd
000000e0: eb2f b5bd 9aa0 1bbe e965 c1bd e6f7 2f3d
000000f0: 0923 ae3d 0124 bfbd 5f81 e93d 8504 f83c
00000100: 268a 043d 3869 89bd 7537 633d 47a4 c7bd
00000110: 3a44 8c3d 0561 243d ddde 38be ab13 32bd
00000120: f8ec 39bd e9d8 4e3c 4f7c b5bd 1595 2e3d
00000130: f558 c9bc 7cfa c83d f81d 5cbd 824b d53b
00000140: 8016 11be c4a1 fabd f083 fd3c 7088 d33d
00000150: f017 ce3c 6ce0 343d 1819 b3bc ce81 82bb
00000160: 4bdf ab3d 7e9c f43b 4f02 fb3d 1b87 c1bd
00000170: a7e0 7a3d d983 893d 7ee2 213d 323c a3bc
00000180: 4b5d bc3d b9d1 24be 8e8d ee3b 3943 ef3d
00000190: 1014 023d 63cc 093e a44f a73c 95ab 9ebd
000001a0: 79d3 a03d 07f9 6b3c 2598 6f3c a6fc 6c3d
000001b0: e873 cfbd 7fc3 2a3c 6357 d4bd bda8 e3bc
000001c0: dc3b 4ebc 435c 48bd 8db8 f83c b228 953c
000001d0: 1618 d13c f860 b6bd 8809 b43c 4bb5 c63d
000001e0: 6d31 afbd 4a44 14bd 32bc 17be 84c4 e9bb
000001f0: f9ba 053e 18ea 56be 460f 82bc 00d2 8cbd
00000200: e5e1 8a3d 3aa9 5c3d 6cc4 e43d 78e4 97bc
00000210: 595c b03d 6e15 f3bc 5fc6 92bd 1e29 aa3c
00000220: 3eec 00bc 9ec7 8a3c 80ed 643d ff0a 803d
00000230: 7743 ffbc 05b3 5abd 35a6 513d 65cf e5bd
00000240: 3b23 b7bc 975b fa3d 1123 e03d bf8d b2bd
00000250: 1248 f3bd 0c36 9d3d 872e 7e3d aede c2bd
00000260: bde1 e5bd 038e ee3d 3c3f 14be 4b6f 1fbd
00000270: 34d0 3cbe af12 0abd 984c be3c ab64 7f3c
00000280: 38b0 7e3d 29f1 bfbd 761e 94bd 17ff ac3d
00000290: d7ad afbd 314b 27be 7387 003e 8a06 35bc
000002a0: ac19 843d 95b6 8bbd 341f 6c3c 2962 0cbe
000002b0: 2831 053e 3414 613d fbb7 aebd f4e4 c03d
000002c0: 12fb 1b3d d554 b63d 45c4 103d 738c 9b3d
000002d0: 3687 ab3d 6639 af3d 5892 ac3d 8487 463d
000002e0: a653 57bd 7404 c9bd c033 20bc 18c7 3abc
000002f0: d90f 9ebc 073c 0b3e 7611 fb3d 3c29 8abd
00000300: 1560 50be 78d0 ffbd 1ffe dbbb eb02 b53d
00000310: 2859 4dbd ddb8 363d e64c 8c3d 0807 e1bb
00000320: abde b4bd efd8 35bd 85b1 233d f2aa 02be
00000330: 1f16 91bd b594 cabd 9671 b93d 92ff 33be
00000340: 0254 03be 8603 303d 4ace 793c 40c4 06be
00000350: 8474 213e e255 2fbc 29e7 4fbe 8522 d2bd
00000360: 803e 803d 3c2b 963c 028b 10be f5ab edba
00000370: a225 46bd e2bd 0abd 38e2 c23c ade9 18be
00000380: 974f e3bd 310d a1bd ba57 8e3d ad5e dfbd
00000390: 93cf 263c 6338 aebb ea31 b83d 2ac9 8f3d
000003a0: 9dc1 eabd 4134 ae3b fca3 883d 7ebb 09bd
000003b0: d82d 2bbc 1474 2abc 04d3 fb3d dc34 ca3c
000003c0: f047 75bd 8286 6cbd 6402 30bd 3c45 8e3d
000003d0: acd3 96bd c28c 12bd cafc 243d 9e11 b7bd
000003e0: bb09 e03c aa32 fabc 9db4 3dbc 4534 d3b9
000003f0: 0f24 233e e8ec fb3d 5995 30bd 51dc b9bd

g_model.fc2.bias f4 [16]
0.06932695 -0.04066378 0.009671577 -0.06707923 -0.00499059 0.02439962 -0.07515263 -0.019460551
0.035959166 0.013753208 -0.061894797 0.026016805 0.098825745 -0.02731215 -0.038052294 0.04030233
00000000: 4afb 8d3d 108f 26bd 8975 1e3c d660 89bd
00000010: 1a88 a3bb b6e1 c73c 9fe9 99bd bc6b 9fbc
00000020: eb49 133d 2355 613c 6685 7dbd 3221 d53c
00000030: 2765 ca3d bbbd dfbc b9dc 1bbd 0e14 253d

f_model.fc1.weight f4 [32, 16]
-0.1232126 -0.047864985 0.15355694 0.03332867 -0.11509331 -0.15884282 -0.38898435 -0.13593805
0.30828583 -0.13420586 -0.29825142 -0.22745824 0.18973638 -0.29877037 -0.1292102 0.15199253
-0.15787554 0.15544304 -0.18794765 0.42287132 0.07287627 -0.025319273 -0.33218232 0.22966877
0.15817425 0.10409211 -0.12657031 0.29455286 0.03580517 -0.024359478 0.14924663 -0.2381892
-0.034525704 -0.07428419 0.12087475 0.02719136 -0.019672863 0.20696256 -0.22101367 0.0506497
0.430101 -0.29984197 -0.22880402 0.08254725 0.07979779 -0.12110224 0.080185786 -0.1732251
-0.14219773 0.26494128 -0.020671835 -0.034081966 0.06501168 -0.10158354 0.18222189 -0.0059602554
-0.0046309275 -0.29154345 0.24237254 -0.17533922 -0.16425245 -0.14378238 0.1447368 -0.15630546
-0.04687088 0.10698501 0.0339002 -0.33753422 -0.09003867 0.12777478 0.4219799 -0.3567867
0.24713404 -0.13950323 -0.12143657 0.13001607 0.033200502 -0.17772035 0.026882693 0.09493771
-0.05137048 -0.31524625 -0.22755729 -0.22572735 0.2409607 -0.09507959 -0.12539677 0.16492787
0.16615826 -0.19932595 0.23253837 -0.05319401 0.04550286 0.25790754 0.08443435 -0.24198517
-0.15118864 0.15805015 -0.3102807 -0.17082162 -0.29910707 0.4128894 -0.17939587 -0.3397881
-0.03247369 -0.11632576 -0.3295378 -0.1535815 -0.10442035 0.28474396 0.20106636 0.08577632
0.29937863 0.13935426 -0.05751445 -0.18560608 -0.12709291 -0.007857924 0.15529285 -0.22377186
0.13020003 0.2328158 -0.05161926 -0.2675671 0.015067171 -0.1884582 0.09891125 -0.18978553
-0.08981762 -0.19554015 -0.27238962 -0.22149055 -0.1800626 0.29586267 -0.10698406 -0.14069891
0.1213132 0.28781134 -0.15569016 0.073412836 -0.38756564 0.17226681 -0.017610032 0.115176186
-0.14084259 0.113026015 0.18032646 0.19020274 0.19083545 0.23114246 0.13291861 -0.327913
-0.15521383 -0.11214332 0.01760655 0.2586281 0.14045988 -0.24945515 -0.051124312 -0.268751
-0.19933847 0.118610576 -0.046826962 -0.150817 -0.11697319 -0.048707396 -0.20187895 -0.017239181
-0.2515301 0.017554892 0.30328703 0.028359467 -0.457224 0.2744736 0.04792933 -0.30455223
-0.015382012 -0.0011968561 0.075871244 0.13008091 -0.09399495 -0.24694869 0.05051833 0.04760044
0.18779688 -0.34943604 -0.28102437 0.21346563 0.06024036 -0.30933553 -0.25032762 0.2549733
-0.070176035 -0.20946278 0.22217984 -0.09734084 -0.2558538 -0.26722056 -0.32578516 0.06613139
-0.06597294 -0.03664715 -0.09668047 0.23335971 -0.11770351 -0.24810247 -0.123488344 0.11664592
-0.11645624 0.12747523 -0.19254383 -0.13878421 0.016719636 -0.09777193 -0.21060418 -0.13333146
-0.071794495 0.35003582 -0.31246534 -0.22394261 -0.14975093 -0.24461395 -0.27129656 0.17025383
0.1650816 -0.2874424 -0.15183583 0.37063614 0.03418548 0.2658801 -0.011376819 0.15847947
-0.2681585 0.21863286 -0.20116027 -0.05558462 -0.05484997 0.09068724 -0.12934266 -0.32401386
-0.017456772 -0.21312925 -0.2795516 -0.0050560264 0.38402927 -0.14553076 -0.079003945 0.30128342
-0.2056135 0.045052983 0.23558596 -0.2825371 0.001441609 0.083814375 -0.20647225 0.013273979
00000000: e356 fcbd 130e 44bd 083e 1d3e a583 083d
00000010: 0bb6 ebbd b1a7 22be f528 c7be 5833 0bbe
00000020: a4d7 9d3e 436d 09be 69b4 98be d0ea 68be
00000030: 414a 423e 6ef8 98be ae4f 04be eea3 1b3e
00000040: 20aa 21be 762c 1f3e 5975 40be 9782 d83e
00000050: 2740 953d 5d6a cfbc cd13 aabe 4a2e 6b3e
00000060: 6ef8 213e 3f2e d53d a69b 01be a2cf 963e
00000070: 71a8 123d 878d c7bc 1cd4 183e dfe7 73be
00000080: d36a 0dbd 4f22 98bd 2e8d f73d 6ac0 de3c
00000090: fc28 a1bc feed 533e 6851 62be 0f76 4f3d
000000a0: 3336 dc3e e384 99be 9a4b 6abe 880e a93d
000000b0: 066d a33d 7404 f8bd 7238 a43d ec61 31be
000000c0: 489c 11be 62a6 873e fb57 a9bc 8899 0bbd
000000d0: d824 853d 080b d0bd 6098 3a3e 3f4e c3bb
000000e0: 09bf 97bb 2f45 95be 8230 783e 208c 33be
000000f0: cb31 28be b03b 13be e235 143e 8a0e 20be
00000100: aefb 3fbd f51a db3d f0da 0a3d 49d1 acbe
00000110: 3266 b8bd 64d7 023e c00d d83e bfac b6be
00000120: b510 7d3e efd9 0ebe bdb3 f8bd ef22 053e
00000130: 40fd 073d 53fc 35be 1839 dc3c b46e c23d
00000140: da69 52bd f567 a1be c704 69be 1225 67be
00000150: 67be 763e 17b9 c2bd 0368 00be dae2 283e
00000160: 6425 2a3e 1a1c 4cbe 8a1e 6e3e f6e1 59bd
00000170: 3561 3a3d 750c 843e ebeb ac3d f6ca 77be
00000180: 32d1 1abe e6d7 213e 1ddd 9ebe ddeb 2ebe
00000190: 9024 99be 3d66 d33e 8db3 37be b5f8 adbe
000001a0: 2203 05bd 333c eebd 2eb9 a8be 7844 1dbe
000001b0: 56da d5bd f6c9 913e 57e4 4d3e 7fab af3d
000001c0: 2848 993e e2b2 0e3e 4694 6bbd 850f 3ebe
000001d0: a524 02be 86be 00bc 1705 1f3e 7324 65be
000001e0: 2853 053e 4467 6e3e b86e 53bd 8efe 88be
000001f0: 4cdc 763c 30fb 40be fb91 ca3d 2357 42be
00000200: 4df2 b7bd ad3b 48be a776 8bbe 6bce 62be
00000210: 5562 38be 507b 973e 751a dbbd 6013 10be
00000220: 0e73 f83d 025c 933e 3e6d 1fbe 7859 963d
00000230: 016f c6be b666 303e ea42 90bc 7ee1 eb3d
00000240: 0a39 10be 2f7a e73d 80a7 383e 82c4 423e
00000250: 5e6a 433e 9cb0 6c3e d11b 083e 36e4 a7be
00000260: 60f0 1ebe 66ab e5bd 9d3b 903c e76a 843e
00000270: b7d4 0f3e 2c71 7fbe ba67 51bd bb99 89be
00000280: 621f 4cbe 1aea f23d a1cd 3fbd c66f 1abe
00000290: a48f efbd 6881 47bd 5bb9 4ebe 2f39 8dbc
000002a0: 8ec8 80be 47cf 8f3c 7048 9b3e 1d52 e83c
000002b0: 4419 eabe ce87 8c3e 8c51 443d 45ee 9bbe
000002c0: d604 7cbc d4df 9cba 6262 9b3d ee33 053e
000002d0: 6d80 c0bd 1ee0 7cbe 4fec 4e3d aef8 423d
000002e0: d34d 403e 48e9 b2be 6de2 8fbe bc96 5a3e
000002f0: 99be 763d 3a61 9ebe f12a 80be dc8b 823e
00000300: 74b8 8fbd 697d 56be 1d83 633e a25a c7bd
00000310: 45ff 82be 22d1 88be 50cd a6be e56f 873d
00000320: d21c 87bd 521b 16bd 6900 c6bd d9f5 6e3e
00000330: 8a0e f1bd 930e 7ebe 75e7 fcbd 0ee4 ee3d
00000340: 9c80 eebd de88 023e 362a 45be 731d 0ebe
00000350: 9ef7 883c a63c c8bd 9fa8 57be 0b88 08be
00000360: fe08 93bd e537 b33e 75fb 9fbe 3651 65be
00000370: 4f58 19be 147c 7abe 62e7 8abe 0557 2e3e
00000380: 270b 293e a62b 93be da7a 1bbe 05c4 bd3e
00000390: 1306 0c3d 7021 883e d665 3abc 7148 223e
000003a0: 124c 89be 4be1 5f3e f5fc 4dbe b3ac 63bd
000003b0: 5daa 60bd 3bba b93d 6772 04be 25e5 a5be
000003c0: 8101 8fbc 8e3e 5abe 6321 8fbe 06ad a5bb
000003d0: 7c9f c43e 0406 15be d2cc a1bd d241 9a3e
000003e0: 588c 52be 7a89 383d 723d 713e b4a8 90be
000003f0: 5ff4 bc3a dfa6 ab3d 766d 53be 1a7b 593c

f_model.fc1.bias f4 [32]
-0.024006827 0.017102385 0.07166955 -0.23539734 0.024669318 -0.14904901 0.18300426 -0.10241171
0.0370728 0.13045691 -0.20196784 -0.04696492 0.017398335 0.058099527 0.21370439 0.14861935
0.20176351 0.19928484 -0.08225388 0.038153432 0.12353505 0.31717262 -0.10546451 0.29099178
0.20275556 0.1706171 -0.19711627 -0.07694293 -0.13371512 0.3177945 0.2625315 -0.13955729
00000000: f7a9 c4bc 4d1a 8c3c 7cc7 923d 000c 71be
00000010: 4f17 ca3c 4ea0 18be 7865 3b3e 3bbd d1bd
00000020: a6d9 173d 7f96 053e a8d0 4ebe 4a5e 40bd
00000030: f486 8e3c c5f9 6d3d 53d5 5a3e ac2f 183e
00000040: 189b 4e3e 5311 4c3e b974 a8bd c646 1c3d
00000050: f2ff fc3d 7364 a23e c7fd d7bd e0fc 943e
00000060: 279f 4f3e 40b6 2e3e d9d8 49be 4194 9dbd
00000070: 9eec 08be f6b5 a23e 876a 863e 1be8 0ebe

f_model.fc2.weight f4 [10, 32]
-0.105948776 -0.091985084 -0.01645269 -0.10070754 0.005340673 0.13602032 -0.02136058 0.14000177
-0.27800903 -0.23157318 -0.20358604 0.09169334 0.09227459 0.048393115 0.16379334 -0.0877908
0.18132745 -0.23947845 -0.16317606 -0.20799 -0.22482589 0.27166212 0.12316384 0.13248685
-0.43483317 -0.24478504 -0.13714351 0.28876895 -0.21322395 -0.17699254 -0.2944983 -0.124931164
-0.024374561 -0.10966188 -0.24060182 0.20308201 -0.0897355 -0.21148326 0.03808787 -0.005620859
-0.33768255 0.056517296 0.082899965 -0.24416035 -0.23203345 -0.071787044 0.029824108 -0.02151765
-0.22234933 -0.22514668 0.21272583 -0.21277493 -0.26153517 -0.13241763 -0.13464971 0.18718563
0.16946554 0.31742826 -0.006606299 -0.20143817 -0.27900234 0.20490375 -0.22341034 0.14596555
-0.0131259505 -0.10227729 0.1398303 0.1414589 -0.019656248 -0.08790586 -0.3290384 -0.059243105
-0.15410875 0.025117487 0.009458749 0.011391331 0.11878862 -0.048666652 -0.069655515 -0.09313026
0.2700965 0.26509422 -0.11704564 0.11120098 -0.14308181 -0.3199047 -0.21050844 0.12993039
0.08052195 -0.10688637 -0.15198863 -0.015770456 -0.34665877 -0.11719736 0.02967107 -0.02934938
0.06550902 0.33520973 0.12545638 -0.14676186 -0.235881 -0.20316865 -0.112423554 -0.020043857
-0.32827583 0.19840053 -0.16197036 -0.041425347 -0.08983334 0.021962225 0.1831089 -0.099737994
-0.1973011 -0.08385405 -0.076599516 -0.09295589 -0.09525917 -0.14820482 0.21319397 -0.010347333
0.14057513 -0.08114671 -0.13119976 -0.12700617 -0.011792752 -0.3278602 -0.053441014 -0.1268111
-0.26146913 -0.11120275 -0.034078814 -0.07588558 -0.1860762 0.19081758 -0.3305223 -0.044812538
-0.11521845 0.059144285 -0.08282796 -0.22730708 -0.20375578 0.121080615 -0.07781045 0.24816132
0.08197208 -0.046052366 0.19630535 0.11706847 0.17757446 -0.12816687 -0.096227475 -0.05358704
-0.09086171 0.13614774 -0.16684128 -0.05038384 0.052515022 0.19855368 0.19541267 -0.36472735
-0.19402681 -0.05778312 0.232337 -0.17163216 -0.13702393 -0.02795908 0.24000931 -0.14904201
0.20387289 0.054186147 -0.079341635 -0.28557107 -0.18024525 0.033404805 0.23120168 -0.04100301
-0.045887828 -0.102477975 -0.26668757 -0.055250753 -0.11849648 -0.029716264 -0.11069841 -0.16382296
0.049782213 0.03155608 -0.095374905 -0.24201694 -0.16190039 -0.26441193 0.14644714 -0.14132127
-0.40472963 -0.14911066 -0.012237297 0.056937672 0.17515592 -0.048499435 -0.16074793 -0.019187413
-0.16720733 0.1622407 -0.08903761 0.14004159 -0.14294878 -0.3447501 -0.12358807 -0.18572931
-0.009722415 -0.26852572 -0.114065975 0.091381565 -0.08718077 0.22949336 -0.08622164 -0.30846155
-0.24766526 0.019035544 -0.06405874 -0.028961368 0.0946471 -0.024278842 0.08508112 -0.37663752
-0.04207536 0.20509095 -0.18261795 -0.14853792 -0.11570423 0.30952254 -0.33421105 -0.04534135
0.010018923 -0.23785976 0.009832839 0.05957425 -0.006548113 -0.20580843 0.09215404 0.19549638
-0.21295664 -0.0798824 0.12609257 -0.22402796 0.025376711 -0.038080525 -0.06915663 -0.042937577
-0.035943557 -0.29259196 0.07356751 0.15949824 -0.190243 -0.22507167 0.043316286 0.13881464
00000000: acfb d8bd ad62 bcbd cbc7 86bc c13f cebd
00000010: d000 af3b e948 0b3e 62fc aebc a05c 0f3e
00000020: 3357 8ebe 8521 6dbe dc78 50be b8c9 bb3d
00000030: 76fa bc3d dc37 463d 71b9 273e aacb b3bd
00000040: e7ad 393e d739 75be a017 27be 55fb 54be
00000050: c238 66be 4c17 8b3e 533d fc3d a2aa 073e
00000060: 74a2 debe eea8 7abe 596f 0cbe 86d9 933e
00000070: 6157 5abe 883d 35be 7bc8 96be e9db ffbd
00000080: 29ad c7bc 6896 e0bd 5360 76be bbf4 4f3e
00000090: 3fc7 b7bd 118f 58be 0702 1c3d 2f2f b8bb
000000a0: bae4 acbe ae7e 673d 75c7 a93d 2c05 7abe
000000b0: 2d9a 6dbe 1605 93bd b051 f43c c845 b0bc
000000c0: 8baf 63be da8c 66be cdd4 593e ace1 59be
000000d0: f0e7 85be 7d98 07be 9de1 09be 97ad 3f3e
000000e0: 6088 2d3e f585 a23e a779 d8bb cf45 4ebe
000000f0: 65d9 8ebe 4ad2 513e aec5 64be fe77 153e
00000100: 3a0e 57bc c176 d1bd ad2f 0f3e 9ada 103e
00000110: 2406 a1bc fd07 b4bd b977 a8be e6a8 72bd
00000120: afce 1dbe 30c3 cd3c def8 1a3c b5a2 3a3c
00000130: 7347 f33d af56 47bd 8da7 8ebd 14bb bebd
00000140: 174a 8a3e 6eba 873e a0b5 efbd 57bd e33d
00000150: 0a84 12be 8dca a3be 868f 57be 790c 053e
00000160: b1e8 a43d 3ee7 dabd e8a2 1bbe 0b31 81bc
00000170: 427d b1be 2b05 f0bd be10 f33c 1c6e f0bc
00000180: 9829 863d 9ca0 ab3e a377 003e be48 16be
00000190: ca8a 71be 710b 50be 523e e6bd 0433 a4bc
000001a0: c513 a8be 8229 4b3e 8fdb 25be a0ad 29bd
000001b0: 8bfa b7bd 20ea b33c e680 3b3e 6f43 ccbd
000001c0: 4d09 4abe acbb abbd 35e0 9cbd a85f bebd
000001d0: 3d17 c3bd 01c3 17be 854f 5a3e dc87 29bc
000001e0: edf2 0f3e 3f30 a6bd 3b59 06be e80d 02be
000001f0: 6336 41bc 4bdd a7be f7e4 5abd c5da 01be
00000200: 48df 85be 44be e3bd 3a96 0bbd e669 9bbd
00000210: c28a 3ebe af65 433e 383a a9be 5a8d 37bd
00000220: a7f7 ebbd 4741 723d b5a1 a9bd 30c3 68be
00000230: 5ba5 50be 1df9 f73d 165b 9fbd 001e 7e3e
00000240: fae0 a73d 68a1 3cbd 4504 493e 98c1 ef3d
00000250: 14d6 353e 2d3e 03be e912 c5bd 167e 5bbd
00000260: b415 babd 506a 0b3e 71d8 2abe 495f 4ebd
00000270: fe19 573d a851 4b3e 421a 483e 8bbd babe
00000280: f7ae 46be fead 6cbd c0e9 6d3e 57c0 2fbe
00000290: 0050 0cbe 710a e5bc 00c5 753e 789e 18be
000002a0: 0ec4 503e 4bf2 5d3d de7d a2bd 5f36 92be
000002b0: 3692 38be 7ad3 083d 22c0 6c3e c6f2 27bd
000002c0: e0f4 3bbd f9df d1bd 468b 88be 9d4e 62bd
000002d0: 48ae f2bd 866f f3bc d9b5 e2bd 35c1 27be
000002e0: 6fe8 4b3d f340 013d eb53 c3bd 4ad3 77be
000002f0: 37c9 25be 0061 87be 3df6 153e 86b6 10be
00000300: b938 cfbe 77b0 18be f27e 48bc 7a37 693d
00000310: 135c 333e 58a7 46bd 1b9b 24be ec2e 9dbc
00000320: 6638 2bbe 6d22 263e 5a59 b6bd 1067 0f3e
00000330: 2a61 12be 1683 b0be be1b fdbd d32f 3ebe
00000340: c44a 1fbc 347c 89be 6c9b e9bd 4226 bb3d
00000350: d58b b2bd 4f00 6b3e f994 b0bd acee 9dbe
00000360: f69b 7dbe 6ef0 9b3c 3b31 83bd 6440 edbc
00000370: 57d6 c13d 6ce4 c6bc 033f ae3d a2d6 c0be
00000380: 3657 2cbd 5d03 523e 3300 3bbe 531a 18be
00000390: 57f6 ecbd bd79 9e3e b61d abbe dab7 39bd
000003a0: 6926 243c 8291 73be ea19 213c 2104 743d
000003b0: 8e91 d6bb 72bf 52be 42bb bc3d 3430 483e
000003c0: 4e11 5abe 6299 a3bd 691e 013e 9667 65be
000003d0: d2e2 cf3c 53fa 1bbd fea1 8dbd 50df 2fbd
000003e0: 8d39 13bd 9dce 95be 90aa 963d 8253 233e
000003f0: 10cf 42be 3079 66be 6b6c 313d 6d25 0e3e

f_model.fc2.bias f4 [10]
-0.16191779 -0.07932722 0.023693834 -0.047028553 -0.10973048 0.13325836 0.16051179 -0.08785337
-0.11964311 0.113217704
00000000: c7cd 25be 4f76 a2bd 9219 c23c 03a1 40bd
00000010: 60ba e0bd e174 083e 345d 243e 78ec b3bd
00000020: 7207 f5bd afde e73d
