models/Adversarially trained models/robust_cnn_model_0.pt (torch, 456900 bytes, 8 tensors)

conv1.weight f4 [32, 1, 3, 3]
0	0x3ed5c8c5	0.41754737
1	0x3eef976c	0.46795213
2	0x3e2f7166	0.17133102
3	0xbe005fca	-0.1253654
4	0xbe3029d3	-0.17203455
5	0xbd8f6f9e	-0.07003711
6	0xbeb7bf44	-0.35888112
7	0xbdaa171a	-0.083051875
8	0xbe320637	-0.17385183
9	0xbdf65507	-0.120279364
10	0xbdb1e22c	-0.08685717
11	0x3eb66fed	0.35632268
12	0x3de6b2d1	0.11264575
13	0xbd5ab0f0	-0.053391397
14	0x3e1b0707	0.151394
15	0x3e2a3375	0.16621192
16	0x3e9254f4	0.2858044
17	0x3e4766d3	0.19472818
18	0x3df76e7a	0.120816186
19	0x3d6efde5	0.0583476
20	0x3eb2bbd7	0.34908935
21	0xbdd043de	-0.10169195
22	0x3ece9e9d	0.40355387
23	0xbe71f782	-0.23629573
24	0x3eb546b5	0.35405508
25	0x3dcdd10b	0.100496374
26	0xbe08e9b2	-0.13370398
27	0xbd883c7f	-0.06652164
28	0x3ecfda94	0.4059645
29	0x3ec67529	0.3876126
30	0x3e5c156e	0.2149255
31	0xbc53b7bc	-0.012922224
32	0xbdfc1c8c	-0.123101324
33	0x3eafa921	0.34308723
34	0x3e810a22	0.25203043
35	0xbce47972	-0.02788994
36	0xbda2f297	-0.079564266
37	0x3ed44a73	0.4146305
38	0x3d93bf3e	0.07214211
39	0xbe8187d2	-0.25298935
40	0x3ed57bb3	0.41695938
41	0x3e5f91d6	0.21832976
42	0x3e9d8f82	0.3077355
43	0x3e92b562	0.2865401
44	0xbe4d97cc	-0.20077437
45	0x3e8c5e44	0.2741567
46	0xbe8367eb	-0.2566522
47	0xbe53c339	-0.2067994
48	0x3e935e1b	0.28782734
49	0x3ec80dd3	0.39073047
50	0x3e167800	0.14694214
51	0xbe7492f4	-0.23884183
52	0x3e348aee	0.17631122
53	0x3d93887c	0.07203767
54	0x3d8e79f4	0.069568545
55	0x3e2104ef	0.15724538
56	0x3e04e431	0.12977673
57	0x3e34c964	0.1765495
58	0x3d4e3a74	0.050348714
59	0xbe0d7fe7	-0.13818322
60	0x3ea4543a	0.3209551
61	0xbd9af59c	-0.075663775
62	0xbda86a81	-0.08223439
63	0x3e98b0d6	0.29822415
64	0xbcaac899	-0.020847606
65	0x3ebef4ae	0.3729605
66	0xbe8aa795	-0.2708098
67	0x3e94b777	0.29046223
68	0x3ed301d1	0.41212323
69	0x3db5b5e1	0.08872581
70	0x3ecf26f9	0.4045942
71	0xbd85a1b8	-0.06524986
72	0x3dd49392	0.10379709
73	0x3e4f58c9	0.20248713
74	0x3eb6f0d1	0.35730603
75	0xbe209529	-0.156819
76	0xbdc50576	-0.09620182
77	0x3eb0a7e4	0.3450309
78	0xbeaa0f85	-0.33214965
79	0x3d0f2a0e	0.034952216
80	0x3ea9e48a	0.33182174
81	0x3eac26ce	0.33623356
82	0x3d11bd09	0.03558067
83	0x3e147de0	0.14501143
84	0x3ec81ce0	0.3908453
85	0x3d15c7aa	0.036567368
86	0x3e90f900	0.28314972
87	0xbe504bcb	-0.20341413
88	0x3de4d334	0.11173096
89	0x3cbdc166	0.023163509
90	0x3e2d9ff7	0.16955553
91	0xbe7c4c9c	-0.24638599
92	0x3dd31d66	0.10308342
93	0x3e748a69	0.23880924
94	0xbda509c5	-0.08058504
95	0xbc98c469	-0.018648343
96	0x3dac7597	0.08420866
97	0x3e67e991	0.22647692
98	0x3e83342c	0.2562574
99	0x3e9cd427	0.3063061
100	0x3e8d8dd9	0.27647284
101	0xbe6949b4	-0.22782022
102	0x3ea8778c	0.32903707
103	0x3cf56f95	0.029960433
104	0xbe32358e	-0.17403242
105	0x3b2129d9	0.0024591594
106	0x3e4dfa4c	0.20115012
107	0xbe84272e	-0.25811142
108	0x3d1efa26	0.03881278
109	0x3e7e1c3d	0.2481546
110	0xbe889b72	-0.26681095
111	0x3e8e2fab	0.27770743
112	0x3d75b41a	0.05998621
113	0xbe92fe96	-0.2870986
114	0x3e102753	0.14077501
115	0x3ed9551c	0.42447746
116	0xbc010afc	-0.007876154
117	0x3e96f89d	0.29486552
118	0x3ec72078	0.3889196
119	0xbdd33214	-0.10312286
120	0x3e87580c	0.26434362
121	0xbdd64288	-0.104619086
122	0xbe24cacd	-0.16092987
123	0xbdf0c5c0	-0.11756468
124	0xbea04e39	-0.3130968
125	0xbe7d8a48	-0.24759781
126	0xbdec3009	-0.115325995
127	0x3ea778ba	0.32709295
128	0x3ea150de	0.3150701
129	0x3e45cc99	0.19316329
130	0x3e6168cc	0.22012633
131	0x3e4c269f	0.19936608
132	0x3e939b05	0.28829208
133	0x3e893dc3	0.26804933
134	0xbc6469df	-0.013941257
135	0x3de8e413	0.11371627
136	0xbd528a34	-0.051401332
137	0xbe63c401	-0.22242738
138	0x3e47ac94	0.19499427
139	0xbe883926	-0.266061
140	0xbd5a97b0	-0.053367317
141	0xbe8dbf45	-0.2768499
142	0x3e6a3ab2	0.22873953
143	0xbd89046d	-0.06690297
144	0x3e50fcf8	0.20409
145	0xbd55afb1	-0.052169506
146	0x3ee00b66	0.43758696
147	0x3e1ab663	0.15108638
148	0xbe3c1d89	-0.18370642
149	0x3e461cc1	0.19346906
150	0xbe829ec0	-0.25511742
151	0xbe83b424	-0.25723374
152	0x3e670dd9	0.22563876
153	0xbe03f91e	-0.12888
154	0x3e3bec6f	0.18351911
155	0x3d239374	0.039935544
156	0x3ebe4f86	0.37170047
157	0x3e1dc66b	0.15407722
158	0x3daed9df	0.08537649
159	0xbe8511b9	-0.25990084
160	0x3e55242c	0.2081458
161	0x3dde5f14	0.108579785
162	0x3b83cad7	0.004021983
163	0xbcf614d5	-0.03003923
164	0x3e26926f	0.16266797
165	0x3e1be049	0.15222277
166	0xbdbf42c1	-0.09338904
167	0x3ebe26f3	0.3713909
168	0x3e4022cf	0.18763278
169	0x3ed99741	0.4249821
170	0x3e272ee2	0.16326478
171	0x3e9d6179	0.30738428
172	0x3ecf6a08	0.40510583
173	0x3ea70e8d	0.3262829
174	0xbd9f773f	-0.07786416
175	0xbe68a923	-0.2272077
176	0xbd982c14	-0.07430282
177	0xbe9c356a	-0.30509502
178	0x3eb536d5	0.35393396
179	0x3ec8ae1f	0.39195344
180	0x3ebae50a	0.36502868
181	0x3dc9d6b7	0.09855407
182	0x3e44a261	0.19202568
183	0xbe531bb5	-0.20616038
184	0x3eb60e26	0.3555767
185	0x3e281b13	0.16416578
186	0x3e668f95	0.2251571
187	0xbe229bb6	-0.15879712
188	0x3e1d303f	0.15350436
189	0x3de43e1a	0.111446574
190	0x3dd8a1de	0.10577749
191	0x3ed58efa	0.41710645
192	0xbda14aa1	-0.078755625
193	0x3d92af5b	0.07162353
194	0x3d808d27	0.06276923
195	0x3da00933	0.078142546
196	0x3eb2cac1	0.34920314
197	0xbe843af8	-0.2582624
198	0xbe0cd3be	-0.13752648
199	0xbe851246	-0.25990504
200	0xbe98c6af	-0.29839084
201	0xbd1c64b7	-0.038181987
202	0x3c3a59c0	0.011373937
203	0xbd71d144	-0.059037462
204	0x3eb4c2ae	0.3530478
205	0x3ddafb72	0.10692491
206	0x3e8fe25d	0.2810239
207	0x3ebaf94e	0.3651833
208	0x3e71ffc1	0.23632719
209	0x3e6525a8	0.22377646
210	0x3d43c782	0.047797687
211	0x3e16a249	0.14710344
212	0xbdae5c7e	-0.08513735
213	0xbe3e8ed7	-0.18609177
214	0xbe8d4fa1	-0.27599815
215	0x3e912083	0.28345117
216	0x3e31bae5	0.17356451
217	0x3e675754	0.22591907
218	0x3decc24c	0.11560497
219	0x3d6778dc	0.056511745
220	0x3ebd3886	0.36957186
221	0x3ea66498	0.32498622
222	0x3e3b6ff4	0.18304425
223	0xbe0a5016	-0.13507113
224	0xbd009275	-0.031389672
225	0x3d8876dd	0.06663296
226	0x3d9d9934	0.07695237
227	0x3e9f824a	0.3115409
228	0xbe2c13c1	-0.1680441
229	0x3e9866a5	0.29765812
230	0x3e7b7641	0.24556829
231	0xbe299b0c	-0.16563052
232	0xbd98eb32	-0.07466735
233	0x3e0c1dbb	0.13683216
234	0x3c7ba0b0	0.015358135
235	0x3d98b9a7	0.074572854
236	0x3d4c181d	0.049827684
237	0x3eae8370	0.34084654
238	0x3daf15ea	0.08549102
239	0xbe25a248	-0.16175187
240	0x3e6c9e53	0.23107271
241	0xbe6788b3	-0.2261074
242	0x3e8e89f3	0.27839622
243	0x3e943702	0.28948218
244	0x3df684eb	0.12037071
245	0x3ed3ca38	0.41365218
246	0xbe4850db	-0.19562094
247	0xbe352871	-0.17691208
248	0x3e577400	0.21040344
249	0x3e57778e	0.210417
250	0x3cce4462	0.025179092
251	0x3eb71f5a	0.35766107
252	0x3dcb1bb9	0.09917397
253	0xbe7eb15d	-0.24872346
254	0x3e3ddebb	0.18541996
255	0x3e8c2b5f	0.2737684

conv1.bias f4 [32]
0	0xbe2131e8	-0.15741694
1	0xbdf4a512	-0.11945547
2	0x3d1f17d3	0.03884108
3	0xbdb92ef0	-0.09042156
4	0x3d359925	0.044335503
5	0x3e864599	0.26224974
6	0xbc055d6f	-0.008139952
7	0x3e8ecda7	0.27891275
8	0x3ea75925	0.326852
9	0xbbfd7498	-0.0077348463
10	0x3e796616	0.24355349
11	0xbde5dd23	-0.11223819
12	0xbc30daef	-0.010794385
13	0xbd5d2209	-0.053987537
14	0x3e9ae6df	0.30254266
15	0xbe92e23e	-0.28688234
16	0xbe10f935	-0.14157565
17	0xbc0039ab	-0.007826249
18	0xbe564d96	-0.20928034
19	0x3d414dd8	0.04719338
20	0x3c4da6eb	0.012552003
21	0xbdb52af7	-0.088460855
22	0x3cc21d8c	0.02369573
23	0xbe60869b	-0.21926348
24	0xbc02564f	-0.007955148
25	0xbe143f91	-0.14477374
26	0x3e9df46d	0.30850545
27	0xbc63d072	-0.013904678
28	0xbbe1b217	-0.006887685
29	0xbd9230a7	-0.07138186
30	0x3d80861d	0.0627558
31	0x3e786384	0.24256712

conv2.weight f4 [32, 32, 3, 3]
0	0x3d591ec3	0.053007852
1	0xbd82bcfc	-0.06383702
2	0xbdc79b89	-0.09746463
3	0x3cf79415	0.030221978
4	0xbdfc25b7	-0.12311881
5	0xbe12db9f	-0.14341591
6	0x3c53b8db	0.012922491
7	0xbc59e560	-0.013299316
8	0xbdf807b4	-0.12110844
9	0xbd0141a2	-0.031556733
10	0x3c739ea6	0.014869368
11	0xbca9ca55	-0.020726362
12	0xbd30b5a3	-0.043141972
13	0x3cbf2114	0.023331203
14	0xbd21326a	-0.03935472
15	0xbc3dec80	-0.0115920305
16	0x3bf79477	0.00755554
17	0x3da2ee76	0.07955639
18	0x3d282ba1	0.041057233
19	0x3d5795d4	0.05263312
20	0xbc4e8f67	-0.012607432
21	0xbd11c15a	-0.035584785
22	0x3d4a9580	0.04945898
23	0x3da024a2	0.07819487
24	0xbdafbc66	-0.08580856
25	0x3d51cfce	0.05122357
26	0x3d1b70cd	0.037949372
27	0x3c52747b	0.012845154
28	0x3d18a080	0.03726244
29	0x3d2aedd5	0.04173072
30	0x3cd42871	0.02589819
31	0x3d43f1bc	0.047837958
32	0x3bb79b5a	0.005603236
33	0xbcd338a9	-0.025783854
34	0x3d6ed327	0.05830684
35	0x3cd7e02f	0.026352016
36	0x3d98d8cb	0.07463225
37	0x3d87bb62	0.06627537
38	0x3d22731a	0.03966055
39	0xbceb6a3a	-0.028737176
40	0x3bf43472	0.007452541
41	0xbcaa1a6b	-0.02076455
42	0xbccd0529	-0.025026875
43	0xbbc48230	-0.005996965
44	0x3cb34d6b	0.021887502
45	0xbca279d8	-0.01983349
46	0x3b9d0094	0.0047913287
47	0xbd2e8079	-0.04260299
48	0xbcc6f268	-0.02428551
49	0x3d37740a	0.044788398
50	0x3d997974	0.074938685
51	0xbcad1f28	-0.02113302
52	0xbd935774	-0.07194415
53	0x3dd75d2f	0.1051582
54	0x3d1c86ed	0.038214613
55	0x3d36847a	0.044559933
56	0x3c7f643d	0.0155878635
57	0x3c8f8ea3	0.01752407
58	0x3cd1fbca	0.025632758
59	0x3c61dccf	0.013785555
60	0xbe010a8a	-0.12601677
61	0x3c3bfde9	0.011474111
62	0xbbc1111c	-0.005891932
63	0x3cd9c857	0.026584787
64	0x3d43f266	0.04783859
65	0xbcd2b57f	-0.02572131
66	0xbd756d9e	-0.059918992
67	0x3d3daf82	0.046309955
68	0x3d82ca58	0.0638625
69	0xbd713008	-0.058883697
70	0x3d65ff5a	0.056151725
71	0x3be03aa2	0.006842927
72	0xbd09560e	-0.033529334
73	0xbaa2e548	-0.001242795
74	0x3cd2333b	0.025659194
75	0x3ccb85df	0.024844108
76	0x3d6f1d49	0.058377538
77	0xbd0baad0	-0.034098446
78	0xbb1e7059	-0.002417585
79	0x3d9872cc	0.07443771
80	0x3d9e78a9	0.07737858
81	0x3c7afe84	0.01531947
82	0x3d9b82a4	0.07593277
83	0x3cb93d7c	0.022612326
84	0xbd1fa926	-0.038979672
85	0xbcfe4984	-0.031040914
86	0x3ce67bf3	0.028135275
87	0xbd1bf444	-0.038074747
88	0xbbb87271	-0.005628877
89	0x3ce0ef4e	0.02745786
90	0x3c582f95	0.013194938
91	0x3d4519e0	0.04812038
92	0xbb85e617	-0.0040862667
93	0xbd75fa65	-0.060053248
94	0x3d11ba41	0.035578016
95	0x3cb3d247	0.021950854
96	0xbdc83598	-0.09775847
97	0x3d0c0f61	0.034194354
98	0x3c89598f	0.016766338
99	0x3d71d899	0.059044454
100	0x3c0991f6	0.008396616
101	0x3d9fcef9	0.07803149
102	0x3d3e477c	0.04645489
103	0x3d9c9d29	0.076471634
104	0x3de69e3b	0.11260649
105	0xbcbe4621	-0.0232268
106	0xbc7997ff	-0.015233993
107	0x3d8f8fd9	0.07009859
108	0xbcfe9cb8	-0.031080589
109	0x3db5aacb	0.08870467
110	0x3c62cf5a	0.013843382
111	0xbdc17029	-0.09445221
112	0x3ce5f019	0.028068589
113	0x3d93cdeb	0.0721701
114	0xbde919df	-0.11381888
115	0xbb7b32da	-0.003832987
116	0x3e088bfc	0.1333465
117	0xbd35b638	-0.04436323
118	0xbdbec97c	-0.09315774
119	0xbd351c55	-0.044216473
120	0x3d4df900	0.050286293
121	0xbda2af0c	-0.07943544
122	0xbca5d3eb	-0.020242652
123	0xbb956a2a	-0.004559775
124	0xbdb2f75d	-0.08738587
125	0xbdfc1921	-0.123094805
126	0x3d9669c9	0.07344396
127	0x3d0a6677	0.033789124
128	0x3d49079d	0.049079526
129	0xbd06435f	-0.032779094
130	0x3d739be5	0.059474844
131	0x3bfc3f5e	0.0076979836
132	0x3a2bb39e	0.00065498974
133	0x3d9f24b0	0.077706695
134	0x3d327ed3	0.04357798
135	0x3c961522	0.018320624
136	0x3d58f1e6	0.052965067
137	0x3ba418a3	0.0050078197
138	0xbcef5122	-0.029213492
139	0x3b5baadd	0.003351859
140	0xbb3d8a7f	-0.0028921661
141	0xbd69777e	-0.056998722
142	0x3d436db5	0.047712047
143	0x3c6bf333	0.014401245
144	0x3dc8ec07	0.09810644
145	0x3da70d66	0.081568524
146	0xbbf358d6	-0.0074263616
147	0x3d64021e	0.05566608
148	0x3d0301db	0.03198419
149	0xbd2a2d96	-0.04154738
150	0x3a6639d6	0.0008782422
151	0x3d9870e0	0.07443404
152	0x3d1f69ed	0.038919378
153	0x3daa0325	0.08301381
154	0x3d397678	0.045278996
155	0xbcc604ce	-0.024172213
156	0xbd1f893e	-0.038949244
157	0x3db346d9	0.087537475
158	0x3cd2b794	0.025722302
159	0x3c021114	0.007938642
160	0x3d9ce876	0.07661526
161	0x3da1392d	0.078722335
162	0xbb066722	-0.002050825
163	0x3becb4a6	0.0072236834
164	0x3b50db68	0.0031869058
165	0x398dad10	0.00027022557
166	0x3d8800f8	0.0664081
167	0x3c7e85e0	0.015534848
168	0xbc0aa11c	-0.008461263
169	0x3d771854	0.060325935
170	0xbb91e204	-0.004451992
171	0x3cb1d478	0.021707758
172	0x3da0846b	0.07837757
173	0x3cb8741c	0.022516303
174	0x3d44ed22	0.04807771
175	0x3c7fabef	0.015604957
176	0xbc51f86e	-0.012815578
177	0xbc7503a2	-0.014954479
178	0xbb8d073e	-0.004303842
179	0x3d4292db	0.047503334
180	0x3dc68248	0.09692818
181	0x3c80e0c0	0.01573217
182	0x3d4f8d63	0.050671946
183	0x3bc3ab3c	0.0059713405
184	0xbc63c701	-0.013902427
185	0x3c91fd0d	0.01782086
186	0xbd4bd4c8	-0.04976347
187	0x3aeb2a0c	0.0017941608
188	0x3d93b984	0.07213119
189	0x3d8dd844	0.06926015
190	0x3bc5f43e	0.006041079
191	0x3ccd14ac	0.025034271
192	0xbc8ee565	-0.017443368
193	0x3c16169d	0.009160665
194	0x3c763d67	0.015029288
195	0xbd00a070	-0.031403005
196	0xbd0e284a	-0.03470639
197	0x3d92b097	0.07162588
198	0xbce65e14	-0.028121032
199	0xbd6ca7a9	-0.05777708
200	0xbb97183a	-0.0046110423
201	0xbd5d919f	-0.054093953
202	0xbde5c83d	-0.11219833
203	0x3d01bb98	0.031673044
204	0x3a7a98c9	0.000955951
205	0xbc08ff0e	-0.008361591
206	0xbd1d75e9	-0.038442526
207	0x3db580fc	0.088624924
208	0x3dbafb33	0.09129944
209	0x3d824309	0.06360442
210	0x3d88aee8	0.06673986
211	0x3d8f5184	0.0699797
212	0x3d225f53	0.03964169
213	0xbc03faa3	-0.008055362
214	0xbc938946	-0.018009793
215	0x3db26447	0.08710533
216	0x3d53e63d	0.051733244
217	0x3d4af0f3	0.049546193
218	0xbca8af14	-0.020591296
219	0x3ba25cc5	0.0049549066
220	0xbcf0ac98	-0.029379174
221	0x3d33df16	0.043913923
222	0x3d003769	0.031302843
223	0xbbb6fdb4	-0.005584443
224	0x3c04ae5d	0.008098212
225	0x3d18c3a0	0.037295938
226	0x3dd10c92	0.10207476
227	0xbc77b859	-0.0151196355
228	0x3d4d3756	0.0501016
229	0x3d3d9276	0.046282254
230	0x3d855bc3	0.06511643
231	0xbc640ff9	-0.013919824
232	0x3d4099ec	0.04702179
233	0x3deb951d	0.115030505
234	0x3cfa5660	0.030558765
235	0xbd109591	-0.035298888
236	0x3d84449c	0.06458399
237	0xbd896436	-0.06708567
238	0xbd09a8af	-0.033608135
239	0x3d4d4577	0.050115075
240	0xbdbb63c8	-0.09149891
241	0x3d0f3bc3	0.034969103
242	0x3d3f2512	0.046666212
243	0x3c8e032a	0.017335493
244	0x3d00898e	0.031381182
245	0x3d2271e8	0.03965941
246	0xb97b4b28	-0.00023965223
247	0x3d19e1e4	0.03756894
248	0xbc082656	-0.008309921
249	0x3d3c7f02	0.04601956
250	0x3beccce1	0.007226572
251	0x3dc05025	0.09390286
252	0x3d95edbb	0.07320734
253	0x3d8894d2	0.0666901
254	0x3d676ac9	0.056498323
255	0xbd05b022	-0.032638676

conv2.bias f4 [32]
0	0xbc630466	-0.013856029
1	0xbce38a8d	-0.027776027
2	0x3c8d7660	0.01726836
3	0xbd2a1c1d	-0.041530717
4	0x3d2408d2	0.040047474
5	0xbd82244a	-0.06354578
6	0xbd44e4f3	-0.048069905
7	0x3cb03286	0.021508466
8	0x3d0c0072	0.034180112
9	0xbd0aa2ae	-0.03384655
10	0x3d84abc9	0.06478078
11	0xbd10b993	-0.035333227
12	0xbd0e170f	-0.03468996
13	0xbd599840	-0.053123713
14	0xbd188dd6	-0.03724464
15	0xbd2f20a4	-0.042755738
16	0xbd944332	-0.07239379
17	0xbcd73ce2	-0.026274148
18	0x3d23857b	0.03992222
19	0x3c70e907	0.014703996
20	0xbc481608	-0.012212284
21	0xbad7c9ec	-0.0016463376
22	0x3da2fbd0	0.07958186
23	0x3d1ac609	0.037786517
24	0x3bd859e0	0.006602511
25	0x3bae0192	0.005310246
26	0xbca712c1	-0.020394685
27	0x3d47ede6	0.048810862
28	0x3c4ca9ec	0.012491684
29	0xbc93321d	-0.017968232
30	0xbd6663eb	-0.056247633
31	0xbd821358	-0.06351346

fc1.weight f4 [128, 800]
0	0xbd076bb7	-0.03306171
1	0xbbabf17a	-0.005247292
2	0x3c429701	0.011876822
3	0x3c102007	0.008796698
4	0xbcfd15c7	-0.030894173
5	0xbcb20cb0	-0.021734565
6	0x3c9e5380	0.019326925
7	0x3c111057	0.008853993
8	0x3ccc126e	0.024911132
9	0xbac0c0af	-0.0014705862
10	0xbd24535f	-0.04011857
11	0xbc8064b8	-0.015673026
12	0x3d404206	0.046937965
13	0x3d0d4e73	0.034498643
14	0xbca0a6a3	-0.019610709
15	0x3c4448e7	0.011980272
16	0xbc6f5904	-0.014608625
17	0x3c6d665f	0.014489739
18	0x3d00591b	0.031334978
19	0x3c80cedb	0.015723636
20	0x3c287fb7	0.010284356
21	0x3c89f144	0.016838677
22	0xbced10f1	-0.028938742
23	0x3cef4c62	0.029211227
24	0x3d1614cd	0.03664093
25	0xbb487cff	-0.0030592082
26	0xbcac20db	-0.02101176
27	0x3bb8cf17	0.0056399214
28	0x3d0ea52c	0.03482549
29	0xbbbf87f2	-0.0058450634
30	0x3c1b6833	0.009485292
31	0x3c3ff733	0.011716652
32	0x3c776490	0.01509966
33	0xbc346c5c	-0.011012163
34	0x3ca5c04f	0.020233301
35	0x3cb4241c	0.021989875
36	0x3c8103e0	0.015748918
37	0x3b87c175	0.004142935
38	0x3ce99aa6	0.028516125
39	0x3d04425a	0.03228984
40	0xbd243df2	-0.04009814
41	0x3cd4ea36	0.025990587
42	0x3c627c32	0.013823556
43	0xbcda1982	-0.026623491
44	0xbd3a46fe	-0.04547786
45	0x3ba5a716	0.0050553186
46	0x3ca42c30	0.020040601
47	0xbb406b6b	-0.00293609
48	0xbd249b46	-0.040187143
49	0x3b94bd35	0.004539157
50	0xbbe45285	-0.006967845
51	0xbd3d1147	-0.046159055
52	0xbd8fde73	-0.07024851
53	0xbc96b076	-0.01839469
54	0xbba0cb64	-0.0049070586
55	0xbd0a1572	-0.033711858
56	0xbd323900	-0.04351139
57	0xbd7b59aa	-0.061364807
58	0xbc9519d6	-0.018200796
59	0x3a824b91	0.0009940733
60	0x3c223006	0.009899145
61	0xbd9a655e	-0.075388655
62	0xbd96d2ba	-0.07364412
63	0x3cf4a108	0.029861942
64	0x3ad751ac	0.0016427538
65	0x3b0a4630	0.0021098964
66	0xbd0f3441	-0.034961943
67	0xbc2a8908	-0.010408647
68	0xbd049fb7	-0.03237888
69	0xbd04d779	-0.032432053
70	0xbc10a1a4	-0.008827601
71	0x3d0eb7e0	0.034843326
72	0x3c4f05a5	0.012635623
73	0xbd6be70e	-0.057593398
74	0xbd06225a	-0.032747604
75	0xbc53d16b	-0.012928347
76	0x3ba866c4	0.0051392037
77	0x3d3065ba	0.043065764
78	0xbcab65f9	-0.020922648
79	0xbcddee81	-0.027091267
80	0xbc0ea308	-0.008705862
81	0xb9c5c55f	-0.0003772182
82	0xbcc2bc88	-0.02377154
83	0xbca5db69	-0.020246224
84	0xbb8160a6	-0.003948289
85	0xbc33286b	-0.010934929
86	0x3aea0819	0.0017855196
87	0xbb1cb5c0	-0.0023912042
88	0x3d200c0f	0.039074
89	0x3d420cd8	0.04737553
90	0xbcbc63c8	-0.022996798
91	0xbc903975	-0.017605523
92	0xbc0f2e3f	-0.008739053
93	0xbcb79e8b	-0.022414466
94	0x3b80fbab	0.003936251
95	0xbb58027b	-0.0032960463
96	0x3c108333	0.008820343
97	0xbca6e8c9	-0.020374672
98	0x3c3b9f8f	0.011451616
99	0x3d127308	0.035754234
100	0xbc89b10b	-0.016808053
101	0xbc5845c1	-0.013200224
102	0xbd1ed386	-0.038775943
103	0xbb6d4fb3	-0.0036210835
104	0xbb6958d1	-0.0035605917
105	0xbb98a321	-0.0046581184
106	0xbc33bf63	-0.010970923
107	0xbd676947	-0.056496885
108	0xbd3b2a1b	-0.04569445
109	0x3b8c541c	0.0042824876
110	0xbc77c066	-0.015121555
111	0xbcf382f1	-0.029725524
112	0x3cd4e986	0.025990259
113	0xbd13b7de	-0.03606402
114	0x3c9c8b84	0.019109495
115	0x3af0b384	0.0018364047
116	0x3c6a8704	0.014314417
117	0xbcfcd8db	-0.030865123
118	0xbca19317	-0.019723458
119	0xbc038d27	-0.008029259
120	0x3c843733	0.016139602
121	0xbd0566d7	-0.03256878
122	0xbd2bfeb2	-0.041990943
123	0x3c8f7d20	0.017515719
124	0x3c9c985b	0.019115617
125	0x3d16d6dc	0.036826
126	0x3cea3f08	0.028594509
127	0x3d2d7115	0.04234417
128	0x3d26f32f	0.04075926
129	0xbcc18282	-0.023621801
130	0x3d290a2d	0.04126947
131	0xbb4185ba	-0.002952917
132	0x3cca16ce	0.024669077
133	0xbc593b1e	-0.013258724
134	0xbd206764	-0.0391611
135	0x3a882176	0.0010385949
136	0x3c962e0d	0.018332506
137	0x3d792b4b	0.060832303
138	0x3b122dc4	0.002230511
139	0xbd7c36f5	-0.06157585
140	0x3d16e85f	0.0368427
141	0x3d1ee2d9	0.038790558
142	0xbcce64b5	-0.025194505
143	0x3d15061c	0.03638278
144	0x3d4ba1eb	0.049714964
145	0xbc5f9686	-0.013646727
146	0x3cd5f746	0.026118886
147	0xbd30e385	-0.04318573
148	0x3d6bf49a	0.057606317
149	0x3daf7132	0.08566512
150	0x3bdebe68	0.0067976005
151	0xbc656acc	-0.014002513
152	0xba932adc	-0.0011227983
153	0x3d0608a1	0.032723073
154	0x3aa2e091	0.0012426545
155	0x3cb6345a	0.02224176
156	0xbd493f3a	-0.049132563
157	0x3ce83abb	0.028348317
158	0x3c092319	0.008370184
159	0xbc92c376	-0.017915469
160	0xbc9e818b	-0.01934888
161	0xbcb5d01f	-0.022193966
162	0xbbfe4dd2	-0.0077607417
163	0xbc75c6e3	-0.015001032
164	0xbb7d5dc3	-0.0038660623
165	0x3b8ba7f9	0.0042619673
166	0xbd0e4207	-0.034730937
167	0x3d28ecd1	0.04124147
168	0xbcf846dd	-0.030307228
169	0xbd2636dc	-0.04057966
170	0x3c54d588	0.012990363
171	0xbc950cf7	-0.018194659
172	0x3cab6e62	0.020926658
173	0xbcd82ba9	-0.026388006
174	0x3d289c9f	0.04116499
175	0xbd0132a6	-0.031542443
176	0x3c3cb036	0.011516621
177	0x3b49bf21	0.0030784088
178	0x3d1e07c5	0.03858163
179	0xbd11d05a	-0.03559909
180	0x3c2a584c	0.010397028
181	0x3d5648b7	0.05231544
182	0x3c958b2d	0.01825484
183	0x3cbd65f3	0.023119902
184	0x3c113fa9	0.008865275
185	0xbc5b823e	-0.013397751
186	0xbcaf678e	-0.021411683
187	0xbc99aac0	-0.018758178
188	0x3c06a823	0.008218798
189	0xbc29e30f	-0.010369076
190	0x3b6b1ab7	0.0035874078
191	0x3c8dae4b	0.017295023
192	0x3d3a3de6	0.045469187
193	0x3c87db03	0.016583925
194	0xbc79893b	-0.015230472
195	0x3cd7239e	0.0262621
196	0x3cdecd1e	0.027197417
197	0x3b05fd0e	0.0020445022
198	0x3c6fc075	0.014633288
199	0x3d305944	0.04305388
200	0x3c4311f5	0.011906137
201	0x3cb88453	0.022524035
202	0xba5983c9	-0.00082975306
203	0x3cf685c2	0.030093078
204	0xbc5aebbc	-0.0133618675
205	0x3cbfd67f	0.02341771
206	0xbc9b6a0f	-0.018971471
207	0x3b0cc7d4	0.0021481412
208	0xbcc76cfe	-0.024343964
209	0x3b916bdf	0.004437908
210	0xbb43d65c	-0.0029882407
211	0xbcb49184	-0.022042044
212	0x3d0c22b5	0.034212787
213	0x3ce1a366	0.027543735
214	0x3ceb479a	0.028720666
215	0xbd38e0e7	-0.04513636
216	0xbc4dde34	-0.012565184
217	0x3c7cec9f	0.015437274
218	0xb9a3e8e5	-0.00031263303
219	0xbc6a25cc	-0.014291238
220	0xbc2fe771	-0.010736332
221	0xbbd1503a	-0.0063877376
222	0x3c98ac84	0.01863695
223	0xbb70d948	-0.0036750603
224	0x3cdef3aa	0.027215797
225	0xbc39c398	-0.011338137
226	0xbc824d56	-0.015906017
227	0xbc57e66d	-0.013177496
228	0x3d29acdc	0.041424617
229	0xbc83fe56	-0.016112488
230	0x3ca60b2b	0.020268997
231	0x3d213968	0.039361387
232	0xbc06963b	-0.008214529
233	0xbb01b30c	-0.0019790558
234	0xbb63d8e1	-0.003476672
235	0xbc8afd30	-0.016966432
236	0xbba3d056	-0.004999201
237	0xbcaacdce	-0.020850088
238	0x3a005fd0	0.00048970897
239	0xbd110fb1	-0.035415355
240	0x3c69b229	0.014263668
241	0xbd51f8ea	-0.051262774
242	0x3d46750d	0.048451472
243	0x3cc92af9	0.024556624
244	0xbc0653c7	-0.008198685
245	0x3d3e61d0	0.04648
246	0xbbfa6a91	-0.0076420982
247	0x3c9ad716	0.01890139
248	0xbce16636	-0.027514558
249	0x3c8e31f2	0.0173578
250	0x3c8a6085	0.016891727
251	0xbb131cdc	-0.0022447621
252	0xbcb6ef14	-0.022330798
253	0xbd2bd597	-0.041951742
254	0x3b5401bf	0.0032349674
255	0x3d258988	0.040414363

fc1.bias f4 [128]
0	0x3cb0878f	0.021549014
1	0x3d1e9674	0.038717702
2	0xbd121f22	-0.03567422
3	0xbcf79916	-0.030224364
4	0x3cdcdf9f	0.0269621
5	0xbc0d77cd	-0.00863452
6	0xbcc0144c	-0.023447178
7	0xbcde40b3	-0.02713046
8	0x3c176f03	0.009242776
9	0xbb96975d	-0.0045956806
10	0xbd0020af	-0.03128117
11	0x3ceac352	0.02865759
12	0xbcf2c50f	-0.02963498
13	0x3c0211a4	0.007938776
14	0x3ce97550	0.028498322
15	0xbcde33c7	-0.027124299
16	0x3d4fcf57	0.050734844
17	0x3c52ae34	0.012858916
18	0xbc9b629f	-0.018967925
19	0x3d10d2f2	0.035357423
20	0xbc0fed96	-0.008784672
21	0xbce7f8a4	-0.028316803
22	0x3c3207b3	0.010866093
23	0x3cbbc1af	0.022919504
24	0x3d2b260f	0.041784342
25	0xbc20555d	-0.009785977
26	0x3cda5444	0.02665151
27	0xbcfa1bca	-0.030530829
28	0x3ceb7896	0.028744023
29	0x3cc51739	0.024058925
30	0xbcd01f35	-0.025405506
31	0x3cd465b4	0.025927402
32	0xbbc99f01	-0.006152988
33	0xbd14bd78	-0.036313504
34	0x3cfab991	0.030606063
35	0x3d0f0ed4	0.03492625
36	0xbc928546	-0.017885815
37	0x3c3ab91d	0.0113966735
38	0x3b444857	0.0029950344
39	0x3ad7c7ac	0.0016462705
40	0xbb5e3fd7	-0.0033912563
41	0xbcb9d4d4	-0.022684492
42	0x3be52367	0.0069927457
43	0x3b41f836	0.0029597408
44	0x3c8febe1	0.01756853
45	0xbc29c671	-0.0103622535
46	0xbb34b87b	-0.002757578
47	0x3c99d5e0	0.018778741
48	0x3d0da71a	0.03458319
49	0xbc47645c	-0.012169924
50	0x3c66e7ef	0.014093383
51	0xbb8d2862	-0.0043077925
52	0x3d037cda	0.03210149
53	0xbc802ad1	-0.015645416
54	0xbc9d3846	-0.019191872
55	0x3bfaae89	0.0076502007
56	0xbce9e806	-0.02855302
57	0x3af14205	0.0018406516
58	0xbd053d2e	-0.03252905
59	0x3c7b7636	0.015348008
60	0x3d1a183e	0.037620775
61	0x3cb5c901	0.022190573
62	0xbcae9efe	-0.021316048
63	0x3ce44bae	0.027868118
64	0xbcb7de76	-0.022444945
65	0x3cbf3075	0.023338536
66	0xbd037f6b	-0.032103937
67	0xbcb8a207	-0.022538198
68	0x3c211cc9	0.009833523
69	0xbd1ed0fe	-0.03877353
70	0xbcc3ba3e	-0.023892518
71	0x3c4102f7	0.011780492
72	0xbc9d1b35	-0.019178012
73	0xbce1af49	-0.027549403
74	0x3a905122	0.0011010508
75	0xbc50f1c4	-0.012752954
76	0xbd090d87	-0.033460166
77	0x3c38e04f	0.011283948
78	0xbd19d1f4	-0.037553743
79	0x3d2bc5fd	0.041936863
80	0x3c022298	0.007942818
81	0xbcd1b065	-0.025596807
82	0x3ac8d326	0.0015321716
83	0x3be0bd3a	0.006858495
84	0xbcac4ca5	-0.02103264
85	0xbcf2fbd3	-0.029661095
86	0x3d250caa	0.04029528
87	0x3d104387	0.03522065
88	0x3d198688	0.037481815
89	0x3c9be2af	0.01902899
90	0x3ceea617	0.029131932
91	0x3be820da	0.0070839943
92	0x3d029cf0	0.03188795
93	0x3c0898c5	0.008337204
94	0x3c42b304	0.011883501
95	0xbc3c4c80	-0.011492848
96	0x3d0762c3	0.03305317
97	0x3c81751b	0.01580291
98	0xbd1eb5db	-0.03874765
99	0xbd2034da	-0.039112903
100	0x3cbc269a	0.022967625
101	0xbc40ab33	-0.011759567
102	0xbd2f8de7	-0.042859938
103	0xbce49c24	-0.027906485
104	0x3c484f76	0.012225976
105	0x3a849ece	0.0010118128
106	0x3d3d68d3	0.046242546
107	0x3be4315b	0.0069638914
108	0x3d0efbad	0.034907985
109	0x3cc78404	0.024354942
110	0x3cac39ec	0.021023713
111	0x3c993e76	0.018706542
112	0xb980565d	-0.00024478408
113	0x3b510b88	0.0031897742
114	0x3cdc7cc6	0.026914965
115	0x3d04656e	0.032323293
116	0xbc7c6a05	-0.015406136
117	0x3c9c72f1	0.019097777
118	0xbbd17642	-0.0063922713
119	0xbcfe20df	-0.031021534
120	0x3a89c09c	0.0010509673
121	0x3d0ebb58	0.034846634
122	0x3b8d7933	0.0043174266
123	0xbc8957f0	-0.016765565
124	0xbc3f2ea4	-0.011668835
125	0xbd113f46	-0.035460733
126	0x3d3abcee	0.045590334
127	0xbd07121d	-0.03297626

fc2.weight f4 [10, 128]
0	0xbd6715c8	-0.056417257
1	0xba68438f	-0.00088601647
2	0x3dada83c	0.08479354
3	0x3d88d1a0	0.06680608
4	0xbde1a06c	-0.11016926
5	0xbcd82f67	-0.02638979
6	0xbca73671	-0.020411702
7	0xbd4275a1	-0.04747546
8	0x3d3783cd	0.04480343
9	0xbb470ac9	-0.0030371419
10	0xbd54c189	-0.051942382
11	0x3cc9b719	0.02462344
12	0x3d5c88ec	0.053841516
13	0x3d268886	0.040657543
14	0xbd505f39	-0.05087206
15	0x3cb738f7	0.02236603
16	0xbd8a1b5e	-0.06743501
17	0x3aba0f6c	0.001419527
18	0x3dd41391	0.103552945
19	0xbd811213	-0.063022755
20	0x3dc0d387	0.09415346
21	0x3cc66484	0.024217851
22	0xbdd126bd	-0.10212467
23	0x3d00c243	0.031435262
24	0x3c113c47	0.008864469
25	0xbddd7293	-0.10812869
26	0x3b12242b	0.002229939
27	0xbdc9a14f	-0.0984522
28	0xbd8d166e	-0.06889044
29	0x3cf8dcb2	0.030378673
30	0xbde5dadd	-0.112233855
31	0x3d31f598	0.043447107
32	0xbd96b1f0	-0.07358158
33	0xbd852967	-0.065020375
34	0x3d68cca7	0.056835797
35	0x3d3ec0d4	0.046570614
36	0xbd33bd1e	-0.043881528
37	0x3da1b24e	0.07895337
38	0x3d5ca723	0.05387033
39	0x3bb8051d	0.005615844
40	0xbd246b6c	-0.040141508
41	0x3ca9e78d	0.020740295
42	0xbd1175ab	-0.035512608
43	0x3d19fd41	0.037595037
44	0xbc277fa4	-0.010223303
45	0xbdaab92c	-0.083361
46	0x3c6ffd82	0.014647843
47	0x3a8a2ca1	0.0010541865
48	0xbd90553c	-0.07047507
49	0xbba7ae61	-0.005117223
50	0xbd3e4b93	-0.046458792
51	0x3dade86b	0.08491596
52	0x3d1eadaf	0.038739856
53	0x3d885bf9	0.066581674
54	0xbdd359c1	-0.103198536
55	0xbd087c74	-0.033321813
56	0xbd60cea3	-0.054884564
57	0xbc54cd12	-0.012988346
58	0x3dab60ec	0.08368096
59	0x3cccb3cd	0.02498808
60	0x3d124a47	0.035715368
61	0xbdc5511c	-0.09634611
62	0x3d3d50d6	0.04621967
63	0x3da720fe	0.0816059
64	0x3de50e0e	0.11184321
65	0xbd9067f9	-0.07051081
66	0x3d39d945	0.04537322
67	0x3d1a816c	0.037721083
68	0x3cac9040	0.021064878
69	0xbd3f1dd2	-0.0466593
70	0xbdaed44c	-0.08536586
71	0xbda61e60	-0.08111262
72	0xbd68cd5f	-0.056836482
73	0x3d59ac02	0.053142555
74	0xbd3e19d8	-0.046411365
75	0x3be4b6eb	0.0069798133
76	0xbccee0bc	-0.025253646
77	0xbd69a467	-0.057041552
78	0xbd8aabbf	-0.06771039
79	0xbdf60966	-0.12013511
80	0x3d324d84	0.043530956
81	0xbd4bde2a	-0.04977242
82	0xbd874b01	-0.06606103
83	0x3dd96504	0.1061497
84	0xbd6d3bcf	-0.057918366
85	0x3d5cec77	0.053936448
86	0x3d1e900b	0.03871159
87	0x3db79ce6	0.08965473
88	0xbbb30ada	-0.00546394
89	0xbd819365	-0.063269414
90	0x3ce5dff2	0.028060887
91	0xbd3cf181	-0.046128754
92	0xbcbe2394	-0.023210324
93	0x3db637e7	0.08897381
94	0x3dd71beb	0.10503372
95	0xbda193b3	-0.078894995
96	0xbd81f632	-0.06345786
97	0x3d34cc76	0.0441403
98	0xbc4b43f7	-0.012406341
99	0x3d9398c2	0.072068706
100	0xbdc062fd	-0.093938805
101	0xbd8970e8	-0.06710988
102	0x3dccb792	0.09995951
103	0xbcd49428	-0.025949553
104	0x3d8ac942	0.06776668
105	0xbd8566c0	-0.06513739
106	0xbd95db53	-0.073172234
107	0x3d836b65	0.06416968
108	0x3d2da805	0.042396564
109	0x3c90d8a8	0.017681435
110	0xbd820d3a	-0.06350179
111	0xbd9e0874	-0.07716456
112	0x3d865cf0	0.06560695
113	0xbde8c9f2	-0.11366643
114	0x3d66cef9	0.05634973
115	0xbcb2d7d5	-0.021831432
116	0x3d0d3043	0.034469854
117	0xbce7895b	-0.028263738
118	0x3d203dc0	0.03912139
119	0x3d9f00df	0.07763838
120	0xbe02451b	-0.12721674
121	0xbdc985d4	-0.09839979
122	0x3d2699da	0.040674068
123	0x3cefaba7	0.029256655
124	0x3ddf6f6b	0.10909923
125	0xbd7002dc	-0.058596477
126	0xbd9c0ba2	-0.07619406
127	0xbcaedef0	-0.02134654
128	0x3dc885df	0.09791159
129	0x3d21ba0e	0.039484076
130	0x3d8222cb	0.063542925
131	0xbd58a8f5	-0.052895505
132	0x3d526373	0.051364373
133	0x3d708f01	0.05873013
134	0xbc9f7961	-0.019467058
135	0x3c4bb6c1	0.012433709
136	0xbd200978	-0.03907153
137	0xbd5b8759	-0.053595874
138	0xbd43423c	-0.047670588
139	0xbdd94a00	-0.106098175
140	0xbd50617e	-0.050874226
141	0xbd88b04a	-0.066742495
142	0x3d6fe68e	0.058569483
143	0x3d58c29b	0.052919965
144	0xbdc18280	-0.09448719
145	0x3d33dc67	0.043911364
146	0x3d716d9c	0.058942422
147	0x3db56f58	0.08859128
148	0x3dddf9f8	0.108386934
149	0xbd5c81a3	-0.05383457
150	0x3dd2fe30	0.10302389
151	0xbd7ca4d6	-0.061680637
152	0x3d1bfceb	0.038083
153	0x3db8a04b	0.090149485
154	0x3e2f7e3b	0.17137997
155	0xbdd63ff3	-0.10461416
156	0x3df70d30	0.12063062
157	0xbd0bf8e7	-0.03417292
158	0xbd6da541	-0.058018927
159	0xbd2e9527	-0.04262271
160	0x3d29a432	0.041416354
161	0xbdccbafe	-0.099966034
162	0xbd67e0da	-0.05661092
163	0xbd590491	-0.05298287
164	0x3d0ed1af	0.03486794
165	0xbc8adfb6	-0.016952377
166	0xbd0e1ca6	-0.03469529
167	0xbdaf0308	-0.085455
168	0x3d1635d4	0.03667243
169	0x3cdd070a	0.026980896
170	0xbd628c29	-0.05530945
171	0xbde3fd63	-0.11132314
172	0xbdc4d0a6	-0.09610109
173	0xbce7fbb3	-0.028318262
174	0xbdbd2263	-0.09235074
175	0xbddf4f69	-0.10903818
176	0x3e230116	0.15918383
177	0x3da1d8f6	0.0790271
178	0x3db1cbb8	0.086814344
179	0xbdf74cad	-0.120751716
180	0x3be17afd	0.0068811164
181	0x3daafa17	0.08348482
182	0x3d20e7ab	0.039283436
183	0x3d546fe8	0.051864535
184	0x3cd7c8cc	0.026340865
185	0xbd13d600	-0.03609276
186	0x3d1a14b0	0.037617385
187	0xbc811234	-0.01575575
188	0x3dd03fdc	0.1016843
189	0x3dc9a128	0.09845191
190	0xbbe7949b	-0.0070672757
191	0x3d8b0fea	0.06790145
192	0xbc490477	-0.012269131
193	0x3d3ff18e	0.046861224
194	0x3dbc1642	0.09183933
195	0x3c72de72	0.014823543
196	0xbdec4f68	-0.11538583
197	0xbdaa33aa	-0.083106354
198	0x3bb3a3c9	0.005482171
199	0xbd8c1106	-0.068391845
200	0xbd987aaf	-0.07445275
201	0xbd8f5743	-0.06999066
202	0xbd3ccdb6	-0.04609462
203	0xbd5cf48d	-0.05394416
204	0xbc1c6ca5	-0.009547387
205	0xbdecf1e8	-0.115695775
206	0xbde40cc9	-0.11135251
207	0x3dc75404	0.097328216
208	0xbda5d9e6	-0.080982015
209	0x3d16a606	0.036779426
210	0x3ce0cafa	0.027440537
211	0xbc3f9b1c	-0.011694696
212	0x3d074d17	0.033032503
213	0xbd84c9a9	-0.06483776
214	0xbccea2a5	-0.02522404
215	0xbd626bfb	-0.05527876
216	0xbd639e2e	-0.055570774
217	0xbd756e9a	-0.05991993
218	0x3da1dfce	0.079040155
219	0x3dd6eb8a	0.10494144
220	0x3dd107eb	0.10206588
221	0xbdea9e8c	-0.11456022
222	0xbdad6cd4	-0.08468023
223	0x3c0265c9	0.007958838
224	0xbd5a9f69	-0.05337468
225	0xbd37d25a	-0.04487834
226	0xbd4744a2	-0.048649438
227	0x3d9d207a	0.0767221
228	0xbdfc2324	-0.1231139
229	0x3d1ff0a9	0.03904787
230	0xbd983922	-0.07432772
231	0x3d0746ad	0.033026386
232	0xbc732c81	-0.0148421535
233	0xbcaf04f7	-0.021364672
234	0x3d69c664	0.057073966
235	0xbd3394fc	-0.043843254
236	0x3d95aae7	0.07307988
237	0xbcdf6840	-0.02727139
238	0x3d40139b	0.046893697
239	0xbd938415	-0.07202927
240	0x3ca8be9e	0.020598706
241	0xbd143198	-0.03618011
242	0x3d49042a	0.049076237
243	0xbd0bd961	-0.034142856
244	0xbb04fa45	-0.0020290774
245	0x3d87aa16	0.06624238
246	0x3d533c1c	0.051570997
247	0xb9a64336	-0.00031712063
248	0x3d76a71c	0.06021796
249	0x3d1aa2c8	0.037752897
250	0x3bbd2dcd	0.005773282
251	0xbd2cf082	-0.042221554
252	0x3d737217	0.059434976
253	0x3d2e23fc	0.042514786
254	0x3d315585	0.04329445
255	0xbdf15771	-0.11784256

fc2.bias f4 [10]
0	0x3d75b5c0	0.059987783
1	0xbd17bd0b	-0.03704552
2	0xbcea2184	-0.028580435
3	0xbcd27def	-0.025694815
4	0x3d2d0da0	0.042249322
5	0x3dbe8105	0.09301952
6	0x3cfe3a82	0.031033758
7	0xbc46b712	-0.012128608
8	0xbd9acc99	-0.07558555
9	0xbd6d577e	-0.057944767
