models/Adversarially trained models/robust_joint_model_cons6.pt (torch, 468335 bytes, 12 tensors)

g_model.conv1.weight f4 [32, 1, 3, 3]
0	0xbddbd092	-0.10733141
1	0x3ec154e6	0.37760085
2	0x3e87ebcc	0.26547086
3	0x3e97df60	0.2966261
4	0x3dc6f84e	0.09715329
5	0xbe6b56fe	-0.22982404
6	0xbe8ab543	-0.27091417
7	0xbe961d0d	-0.2931904
8	0xbdb8b48a	-0.0901881
9	0xbf066c27	-0.5250878
10	0xbbe046de	-0.0068443855
11	0x3e872fa7	0.26403543
12	0xbe4edc2a	-0.20201173
13	0x3deabdc0	0.11461973
14	0x3ede553e	0.4342441
15	0xbe070dce	-0.1318886
16	0x3e83a5b2	0.25712353
17	0xbe16c51a	-0.14723626
18	0xbe97db0e	-0.29659313
19	0xbf03a819	-0.5142837
20	0xbe9db150	-0.3079934
21	0xbe692698	-0.22768629
22	0xbd7fc82e	-0.062446766
23	0xbe4d4708	-0.20046628
24	0x3df76f4d	0.12081776
25	0x3f0f2a5c	0.5592401
26	0x3f09d891	0.5384608
27	0x3e398bb6	0.18119702
28	0x3d7c7ddb	0.061643463
29	0xbe07dde3	-0.13268237
30	0x3eba54fb	0.3639296
31	0xbe713001	-0.23553468
32	0xbe235b12	-0.1595271
33	0x3ea7d86e	0.3278231
34	0xbe8373e2	-0.2567435
35	0xbda15fc3	-0.07879593
36	0x3e0989b5	0.13431437
37	0x3e27e74b	0.16396825
38	0xbe4f8d05	-0.20268638
39	0xbe75a7c6	-0.23989782
40	0xbe2274bf	-0.15864848
41	0xbe7d22a5	-0.24720247
42	0xbc1aaf4c	-0.009441208
43	0x3eb1c27b	0.3471869
44	0x3e94d775	0.2907063
45	0x3ed3353b	0.4125155
46	0x3eaadb0c	0.33370245
47	0x3e64df4c	0.22350806
48	0x3f01c017	0.5068373
49	0x3f06201b	0.5239274
50	0x3e57048e	0.20997831
51	0x3e8dc5b4	0.27689898
52	0xbe2deae8	-0.16984141
53	0xbd4dcfd0	-0.050247014
54	0x3ecc424f	0.3989434
55	0x3ead8b4a	0.33895332
56	0x3e8880a7	0.26660654
57	0x3d25963f	0.04042649
58	0x3e5c388f	0.2150595
59	0x3e4de612	0.20107296
60	0xbd857633	-0.06516685
61	0x3ec90e64	0.39268792
62	0x3e89d852	0.26922852
63	0x3e350bd8	0.176803
64	0xbdfaae48	-0.12240273
65	0xbe06f7ca	-0.13180462
66	0xbdf6bc74	-0.12047663
67	0x3ed3c4fc	0.41361225
68	0x3e8aad71	0.2708545
69	0xbe1b4008	-0.15161145
70	0x3e1759ac	0.14780301
71	0xbdab9afb	-0.083791696
72	0x3ee5ee1e	0.44908231
73	0x3e2676ca	0.16256252
74	0xbe6db7b4	-0.23214608
75	0x3e6bbb5d	0.23020692
76	0xbe274993	-0.1633666
77	0x3ce115dc	0.027476244
78	0x3e06a4e9	0.13148846
79	0x3eccd1e8	0.40003896
80	0xbe793e6e	-0.24340221
81	0xbe913fd9	-0.28369024
82	0xbe15a99e	-0.14615485
83	0xbe3cd2e7	-0.18439828
84	0xbe7d5c4a	-0.24742237
85	0x3ec0457e	0.37553018
86	0x3ec32108	0.38111138
87	0x3d02f693	0.031973433
88	0x3e6e7d5d	0.2329001
89	0x3e83053c	0.2558993
90	0xbe769528	-0.24080336
91	0xbe284604	-0.16432959
92	0x3ebaf29c	0.3651322
93	0x3e8fe160	0.28101635
94	0x3e4199b2	0.18906286
95	0x3f04028b	0.5156638
96	0xbcd22e11	-0.025656732
97	0x3ed88fb2	0.4229713
98	0x3ee4dd65	0.4470016
99	0xbe08f0f0	-0.1337316
100	0x3d85fdc3	0.06542542
101	0x3ea62b3d	0.32454863
102	0x3cf9c20b	0.030488035
103	0x3ddfef55	0.10934321
104	0x3eae4660	0.34038067
105	0xbcbfb888	-0.023403421
106	0x3e68349e	0.22676322
107	0xbe0d90ac	-0.13824719
108	0xbe425125	-0.18976267
109	0xbe3c576d	-0.18392725
110	0x3d7c8f35	0.06166001
111	0x3ca88f18	0.020576045
112	0x3d76e73b	0.060279112
113	0x3e95acb9	0.2923334
114	0x3ec3c2ef	0.3823466
115	0x3f064e11	0.5246287
116	0x3e0058c0	0.12533855
117	0x3ea04d5e	0.31309026
118	0x3dc77209	0.09738547
119	0x3e96f3e6	0.29482955
120	0x3e584407	0.211197
121	0x3ed1411d	0.4086999
122	0x3ef60123	0.48047742
123	0x3d4d4c5b	0.050121646
124	0x3e98d4af	0.29849765
125	0x3d701578	0.058614224
126	0xbd9c3c8d	-0.07628737
127	0x3bc7188c	0.0060759243
128	0xbe498d8c	-0.19682902
129	0xbe4f19f7	-0.20224749
130	0xbe4e95ba	-0.20174304
131	0xbe6f4e5e	-0.23369738
132	0xbe4ddbd2	-0.20103386
133	0x3e6cfdd1	0.23143698
134	0x3ea2b2e5	0.3177711
135	0xbe22e5be	-0.15907952
136	0xbdc15b33	-0.09441223
137	0xbee69181	-0.45032886
138	0xbeb4f70a	-0.35344726
139	0xbe2ca303	-0.16859059
140	0xbc197cf5	-0.009368171
141	0x3e6cb368	0.23115313
142	0xbe586b6f	-0.21134733
143	0x3eb8b5a3	0.36076078
144	0x3e15794b	0.14597051
145	0x3f02afff	0.510498
146	0x3ed6189f	0.4181566
147	0x3eb54720	0.35405827
148	0x3e9658c6	0.29364604
149	0x3da2dfcf	0.07952844
150	0x3df9cf2b	0.12197717
151	0x3dfbb8f5	0.12291137
152	0x3c802cbf	0.015646337
153	0x3e4942fb	0.19654457
154	0xbe6e91f1	-0.2329786
155	0xbe033c58	-0.12815988
156	0x3e8c1418	0.2735908
157	0xbcad5367	-0.021157933
158	0xbee848c7	-0.45368025
159	0xbba6fb12	-0.005095848
160	0x3ea29f1e	0.31762022
161	0xbe1840cb	-0.14868467
162	0x3db52c48	0.088463366
163	0x3e13c49e	0.14430472
164	0xbe3bf678	-0.18355739
165	0x3ec33038	0.38122725
166	0x3e8b4459	0.27200583
167	0xbe8ace60	-0.27110577
168	0xbe5ea4df	-0.21742581
169	0xbdaf41a8	-0.08557445
170	0x3e785180	0.2424984
171	0x3da73bd0	0.08165705
172	0x3e9d4d8a	0.3072322
173	0x3eaf6de5	0.3426353
174	0x3e86785d	0.26263705
175	0x3e8fc8f3	0.28083
176	0xbe1676d6	-0.1469377
177	0x3d4199c1	0.04726577
178	0x3ed49c5f	0.41525552
179	0xbe8121a0	-0.25220966
180	0x3ee28a09	0.44245937
181	0x3dc88dbd	0.097926594
182	0x3e82f767	0.25579378
183	0x3eff647f	0.4988136
184	0x3d6d463b	0.057928305
185	0x3ded628b	0.11591061
186	0xbe0a5b26	-0.13511333
187	0xbe1d5354	-0.15363818
188	0xbe68d698	-0.22738111
189	0xbe780b4c	-0.2422306
190	0xbd002483	-0.03128482
191	0xbe70b0a3	-0.23504882
192	0x3e9ec3de	0.3100881
193	0xbe8bb701	-0.27288058
194	0xbd804239	-0.06262631
195	0x3ec26608	0.3796847
196	0x3e89210e	0.2678303
197	0x3e827d60	0.2548628
198	0xbec66170	-0.38746214
199	0xbeda4ea9	-0.42638138
200	0xbe2ed76d	-0.17074366
201	0x3e5025fc	0.2032699
202	0x3e15d14e	0.14630625
203	0xbe4935fa	-0.19649497
204	0xbe8c6ebc	-0.27428234
205	0xbe169211	-0.14704157
206	0x3eb7fc67	0.35934755
207	0x3ed439c8	0.41450334
208	0x3e77c158	0.24194849
209	0x3e2492ef	0.16071676
210	0xbe751ffa	-0.2393798
211	0xbe281f58	-0.16418207
212	0x3e170b0c	0.14750308
213	0xbe2af279	-0.16694058
214	0xbda57c6d	-0.08080373
215	0xbe3d06dc	-0.18459648
216	0x3e9f4b1f	0.31112
217	0x3ec16520	0.37772465
218	0xbc010f97	-0.007877252
219	0x3da53a07	0.080677085
220	0x3e8f937e	0.28042215
221	0x3ef2df20	0.47435856
222	0x3df20956	0.11818187
223	0x3e977823	0.29583845
224	0xbde609c0	-0.112323284
225	0x3eacb74c	0.33733594
226	0x3ecd3acb	0.40083918
227	0x3effdfce	0.49975437
228	0xbe5900bb	-0.21191685
229	0xbe44975f	-0.19198368
230	0x3d987b14	0.0744535
231	0xbedac243	-0.42726335
232	0xbe637e9b	-0.22216265
233	0x3d20630f	0.03915697
234	0xbe4fe9d4	-0.20304042
235	0x3d30b887	0.04314473
236	0x3e800b0d	0.2500843
237	0x3c41e9f8	0.011835568
238	0xbe0221e9	-0.12708248
239	0x3ed49c02	0.41525275
240	0x3dc88e08	0.09792715
241	0x3e4cf814	0.2001651
242	0xbe361818	-0.17782629
243	0xbcb0f6e8	-0.02160211
244	0x3ebe9035	0.37219396
245	0xbedd3ee8	-0.43212056
246	0x3e08db2b	0.13364856
247	0x3d19cc4d	0.037548352
248	0xbed51866	-0.41620177
249	0x3ec3fb8d	0.38277856
250	0x3e8a4f63	0.27013692
251	0x3dfe2a3a	0.12410398
252	0xbebc8f27	-0.36827967
253	0x3e57f1af	0.21088289
254	0x3eb63c64	0.3559295
255	0xbdcccb93	-0.09999766

g_model.conv1.bias f4 [32]
0	0xbc58c8d2	-0.013231473
1	0x3da33101	0.07968331
2	0x3e7e6a37	0.24845205
3	0xbd9d1189	-0.0766936
4	0xbd738886	-0.05945637
5	0x3e18fc7f	0.1494007
6	0xbe82a38a	-0.25515395
7	0xbdbb4904	-0.09144786
8	0xbdbfb564	-0.093607694
9	0xbdf94db4	-0.12173024
10	0x3d86c88c	0.0658122
11	0x3e89338b	0.26797137
12	0x3e63af6d	0.22234888
13	0xbd1c2374	-0.03811975
14	0x3d9b7017	0.07589739
15	0x3ea5dec8	0.3239653
16	0xbdc031e7	-0.09384518
17	0x3e30ef0b	0.17278688
18	0x3d47f70b	0.048819583
19	0x3e9d70c9	0.3075011
20	0x3de4b36e	0.11167036
21	0x3d5b8a8c	0.053598925
22	0x3eae0c5b	0.339938
23	0x3e44d7f2	0.19223002
24	0xbe3bdbd9	-0.18345584
25	0xbd6fb75f	-0.058524486
26	0xbc042461	-0.008065314
27	0xbdebd37c	-0.11514947
28	0xbe373021	-0.17889453
29	0xbe110f42	-0.14165977
30	0x3e839699	0.25700834
31	0x3e65e783	0.22451596

g_model.conv2.weight f4 [32, 32, 3, 3]
0	0xbdd0e89a	-0.10200615
1	0xbde60e3c	-0.11233184
2	0xbe53fa9b	-0.20701067
3	0x3d6b8ba5	0.057506222
4	0x3ce81280	0.028329134
5	0xbd327c2c	-0.04357545
6	0x3e1601b7	0.14649092
7	0x3dc442ea	0.09583075
8	0x3e37a34f	0.17933391
9	0xbc0f6dea	-0.008754233
10	0x3cd3bf03	0.025847917
11	0xbd69ee01	-0.057111744
12	0xbd709c2f	-0.0587427
13	0x3cd17af6	0.025571328
14	0xbcd13735	-0.02553902
15	0xbdbe4776	-0.09290974
16	0xbd8fbf46	-0.070189044
17	0x3c3a5cb7	0.011374644
18	0xbd90b601	-0.070659645
19	0xbbd71a96	-0.0065644486
20	0x3d9768a8	0.073930085
21	0xbddb27d1	-0.10700954
22	0xbc7a38d7	-0.015272341
23	0xb9b97379	-0.00035371984
24	0xbdd3b106	-0.10336499
25	0xbe420f47	-0.1895114
26	0xbd8fc4ae	-0.070199355
27	0x3cb4aa60	0.022053897
28	0x3ddcd4df	0.107827894
29	0xb9d03ffb	-0.0003972052
30	0xbdd1c1b9	-0.10242028
31	0xbdc1868a	-0.094494894
32	0xbdea0fd2	-0.11428799
33	0xbd3cf39f	-0.046130773
34	0xbda09d47	-0.07842498
35	0xbe494755	-0.19656117
36	0x3ddcf735	0.107893385
37	0x3d2b7f58	0.04186949
38	0x3e2d1d94	0.16905814
39	0x3bb7fe2d	0.005615017
40	0x3d8c49bf	0.068500035
41	0x3d7f3b26	0.062312268
42	0xbd21a672	-0.039465375
43	0x3bfe5398	0.00776143
44	0x3e17ff57	0.14843498
45	0xbc36cd5e	-0.011157362
46	0xbd53dad4	-0.051722363
47	0xbad3a41c	-0.0016146931
48	0x3bc04da1	0.005868629
49	0x3c3cdbaf	0.011526986
50	0x3dc6dcfa	0.09710117
51	0xbbdbdc83	-0.0067096367
52	0xbc836fe2	-0.01604456
53	0x3da43b2c	0.08019099
54	0x3c8d1962	0.017224018
55	0x3a129d6b	0.0005592915
56	0xbbfab3e0	-0.0076508373
57	0x3dbecde0	0.09316611
58	0x3d1eda51	0.03878242
59	0x3da8cb2f	0.08241879
60	0xbdb29947	-0.087206416
61	0xbc99ccb5	-0.01877437
62	0x3de4d021	0.1117251
63	0x3c89bb11	0.016812833
64	0xbc6d0d1e	-0.014468459
65	0x3d7f5389	0.062335525
66	0x3cd0dcbf	0.025495885
67	0x3e3e6635	0.18593676
68	0x3dfcec3b	0.12349745
69	0xbabe2b44	-0.0014508744
70	0x3d97fcb2	0.07421245
71	0x3e16c3c8	0.14723122
72	0x3dc5c91c	0.09657499
73	0x3db2af93	0.087248944
74	0x3d0eb71d	0.0348426
75	0xbbb045d6	-0.005379419
76	0x3ce5617b	0.028000584
77	0x3db54cdc	0.088525504
78	0xbd8379b5	-0.06419698
79	0xbd629290	-0.055315554
80	0x3d5cd330	0.05391234
81	0xbbf831ab	-0.0075742803
82	0x3d3629bf	0.044473406
83	0x3cb56611	0.022143396
84	0xbbc4abd0	-0.006001927
85	0xbd2d8669	-0.04236451
86	0xbca7d1fa	-0.020485867
87	0xbe1e6897	-0.15469585
88	0xbe481819	-0.19540443
89	0xbc86fed3	-0.016478932
90	0x3aa2d087	0.0012421765
91	0xbcd2de5c	-0.025740795
92	0x3c0decab	0.008662383
93	0xbccac9f4	-0.024754502
94	0x3d9c4847	0.07630973
95	0x3dea0c31	0.114281066
96	0xbe0d6a30	-0.13810039
97	0xbd38414b	-0.044984143
98	0x3bccb03a	0.006246594
99	0x3c970fb3	0.018440103
100	0xbc599dac	-0.013282221
101	0x3b7f6535	0.0038970236
102	0xbc2085c6	-0.009797519
103	0xbd13506c	-0.03596537
104	0x3c48ac38	0.012248091
105	0xbd219e44	-0.039457574
106	0x3d38ce2c	0.045118496
107	0x3d346930	0.044045627
108	0x3d24d1ed	0.040239263
109	0x3b3c353d	0.0028718256
110	0x3d4c9b5d	0.049952853
111	0x3d71d09a	0.05903683
112	0xbb1ff837	-0.0024409422
113	0x3d84e59d	0.06489108
114	0xbe28bb4d	-0.164777
115	0xbdcaab8e	-0.09896003
116	0xbd987f4c	-0.07446155
117	0x3d3a98e6	0.04555597
118	0x3d054476	0.032535993
119	0xbc8d2e8b	-0.017234107
120	0x3db19a38	0.08671993
121	0x3c82c67a	0.015963782
122	0x3d9250c4	0.07144311
123	0xb997cce1	-0.0002895361
124	0xbbc323e0	-0.0059552044
125	0x3db3f1a9	0.087863274
126	0xbdbadc60	-0.091240644
127	0xbd65020a	-0.055910148
128	0x3d4c11bf	0.04982161
129	0xbc15aaab	-0.009134929
130	0xbd7395cf	-0.05946904
131	0xbe159a96	-0.14609751
132	0xbdc610a2	-0.09671141
133	0xbde9464f	-0.113903634
134	0xbd11e1a8	-0.035615593
135	0xbd38eee3	-0.045149695
136	0xbbb1b884	-0.0054236073
137	0x3cfc539f	0.030801592
138	0xbdee9afe	-0.11650656
139	0xbcc2e97c	-0.023792975
140	0xbcaf5a95	-0.021405498
141	0xbda5e680	-0.08100605
142	0xbdd24c79	-0.10268492
143	0xbc7b8fa7	-0.015354074
144	0x3cb2b8e1	0.021816673
145	0x3ceca7a5	0.028888533
146	0xbdd66f33	-0.10470428
147	0x3de3db64	0.1112583
148	0x3d43682f	0.04770678
149	0x3db1bd5d	0.08678696
150	0xbd820246	-0.0634809
151	0xbc98430f	-0.018586664
152	0x3d116e80	0.03550577
153	0x3dbce625	0.09223584
154	0xbcabd9a0	-0.020977795
155	0x3d0c7a96	0.034296595
156	0x3cb837c1	0.022487523
157	0x3cfd7c52	0.03094307
158	0x3c73ecd5	0.014888008
159	0xbddbed06	-0.10738568
160	0xbdd46316	-0.10370462
161	0x3d2eac40	0.04264474
162	0x3d32d48b	0.043659728
163	0x3d4209c9	0.047372613
164	0x3d4f1d96	0.050565325
165	0x3d5e9284	0.054338947
166	0x3da0037d	0.07813165
167	0x3dbd5f54	0.09246698
168	0x3b3c8d0b	0.0028770592
169	0x3d4f98c9	0.050682817
170	0x3d550a4a	0.052011766
171	0x3d81e0e6	0.06341724
172	0xbc6088f1	-0.013704524
173	0xbc099f3a	-0.008399779
174	0x3d5845ef	0.05280107
175	0x3c7724ac	0.015084427
176	0x3d517545	0.051137228
177	0x3cc630c1	0.02419317
178	0xbc4ec903	-0.012621167
179	0x3c9093cd	0.017648602
180	0x3c031bd3	0.008002239
181	0xbd6728e6	-0.05643549
182	0xbc714f6f	-0.014728411
183	0x3d8fac6b	0.07015308
184	0x3d4ce37d	0.050021637
185	0x3db3683f	0.08760118
186	0x3d31e605	0.043432254
187	0x3b1a10c8	0.0023508538
188	0x3d83e887	0.064408354
189	0x3d97e755	0.0741717
190	0x3da9d7e7	0.08293133
191	0x3decd532	0.11564101
192	0x3d58d7b0	0.05294007
193	0x3dbf532e	0.09342037
194	0x3e147165	0.14496382
195	0xbe555328	-0.20832503
196	0xbe226df9	-0.15862264
197	0xbc1f6725	-0.009729181
198	0xbe0b222c	-0.13587254
199	0xbd5f4392	-0.0545078
200	0x3c0cc3d9	0.008591616
201	0xbd18ee27	-0.037336495
202	0x3ac5ddd0	0.0015096013
203	0xbdc1cebb	-0.09463259
204	0x3d127330	0.035754383
205	0xbdffd6eb	-0.12492164
206	0xbd58b3d6	-0.05290588
207	0xbc106765	-0.008813714
208	0xbdc5244c	-0.09626064
209	0xbd996c82	-0.07491399
210	0x3de6706a	0.1125191
211	0x3dccd6ee	0.10001932
212	0x3c799e34	0.0152354725
213	0x3d76b06c	0.060226843
214	0x3de96ed1	0.1139809
215	0x3e265b43	0.16245751
216	0xbcf81ab9	-0.03028618
217	0xbd0adda6	-0.033902787
218	0xbca22bb1	-0.019796224
219	0x3d912166	0.07086448
220	0x3db9987c	0.09062287
221	0x3df1c2da	0.11804743
222	0xbcac1751	-0.021007212
223	0xbbd75a09	-0.0065720123
224	0x3e074ffa	0.13214102
225	0x3ce6ad5c	0.028158836
226	0x3c6ae6be	0.01433724
227	0xbe1c7d20	-0.15282106
228	0x3e2639f7	0.1623305
229	0x3e3935fe	0.18087003
230	0x3d5d958c	0.054097697
231	0x3e4ddd8a	0.20104042
232	0x3e811e11	0.2521825
233	0x3e3ca0e4	0.1842075
234	0x3d301c71	0.042995874
235	0xbb1838b3	-0.0023227155
236	0xbdb244bd	-0.08704517
237	0x3cee17bb	0.02906405
238	0x3d6a8d60	0.057263732
239	0x3cdc4c43	0.026891833
240	0xbd6f6122	-0.058442242
241	0xbc4f0c84	-0.012637261
242	0x3d0e6a46	0.03476932
243	0x3e3cb407	0.1842805
244	0x3e0e9c7a	0.13926879
245	0x3dde47c9	0.10853536
246	0x3d295a0e	0.04134565
247	0x3ded455f	0.11585497
248	0x3de60964	0.1123226
249	0xbe2db0d9	-0.16961993
250	0xbe04215b	-0.12903349
251	0x3b80c71f	0.003929987
252	0x3d60792a	0.05480305
253	0x3c6f5312	0.014607208
254	0xbd95e34a	-0.073187426
255	0x3cb2241a	0.02174573

g_model.conv2.bias f4 [32]
0	0xbd44d37c	-0.04805325
1	0x3cb1bff2	0.021697972
2	0xbd1a866c	-0.03772585
3	0xbceafe72	-0.028685782
4	0x3d64798f	0.05577999
5	0xbc5b907a	-0.013401145
6	0x3c8fa1e3	0.017533248
7	0xbd2bfece	-0.041991048
8	0x3c1354fc	0.00899243
9	0x3b714718	0.0036816057
10	0x3d0fac52	0.035076447
11	0x3d658952	0.056039162
12	0xbd853cb0	-0.06505716
13	0xbb9221dd	-0.004459603
14	0xbd2d5e3e	-0.042326204
15	0x3d8e1f74	0.06939593
16	0x3d015b68	0.031581312
17	0xbd474eb2	-0.048659034
18	0xbd887132	-0.06662215
19	0xbcd5a4e3	-0.0260796
20	0x3cee7628	0.029109076
21	0xbd537dfd	-0.051633824
22	0xbd6c0d09	-0.05762962
23	0xbd018bb0	-0.031627357
24	0xbd34c22d	-0.044130493
25	0x3c1bfbad	0.009520453
26	0xbd163583	-0.036672127
27	0xbcb5dbb4	-0.02219949
28	0x3d2c6f1c	0.04209815
29	0x3d2f985b	0.042869907
30	0xbd6a4eda	-0.057204105
31	0x3c4c928d	0.012486112

g_model.fc1.weight f4 [128, 800]
0	0x3d380516	0.044926725
1	0x3ce333a4	0.027734585
2	0x3d121617	0.035665598
3	0xbd4511b2	-0.04811258
4	0xbc99a5e7	-0.018755866
5	0x3d2acdde	0.041700236
6	0x3c85a5a8	0.016314343
7	0x3aaa554e	0.0012995393
8	0x3d045b17	0.032313433
9	0x3b24a272	0.002512124
10	0x3b27b8c8	0.0025592316
11	0xbb01ed8a	-0.0019825422
12	0x3d7abfa4	0.06121792
13	0x3b389dd1	0.0028170238
14	0x3ced66fb	0.028979769
15	0xbc854153	-0.0162665
16	0x3d9e3df9	0.07726664
17	0x3c29e89e	0.010370402
18	0xbc518efc	-0.012790438
19	0xbcbe0fcc	-0.023200892
20	0x3c77e7fe	0.015130995
21	0xbd82e00e	-0.06390391
22	0xbd29dfca	-0.041473188
23	0xbd3ead03	-0.046551716
24	0xbc283846	-0.010267323
25	0x3d1af8a5	0.037834782
26	0xbc1813f2	-0.009282099
27	0xbd2f9932	-0.042870708
28	0xbd3970c2	-0.04527355
29	0x3b7dcdc9	0.0038727394
30	0x3c390c55	0.011294444
31	0x3c52da64	0.012869451
32	0xbcf98ac0	-0.030461669
33	0xbced8fc5	-0.028999219
34	0x3d09b4dd	0.03361975
35	0xbc4b791a	-0.01241901
36	0xbc0f8a4a	-0.008760998
37	0xbc675f17	-0.014121792
38	0x3cb73128	0.022362307
39	0x3cf4f42f	0.029901592
40	0x3b10a2b0	0.0022069626
41	0x3cd473fc	0.025934212
42	0xbc5d20f5	-0.013496627
43	0x3b90e00d	0.00442124
44	0xbcadbe90	-0.021209031
45	0xbbeec634	-0.0072868112
46	0xbc6bab21	-0.014384062
47	0xbcf401fe	-0.029786106
48	0x3cdfe3ed	0.027330363
49	0x3c993f88	0.018707052
50	0xbabe69ec	-0.0014527417
51	0xbd2f7d67	-0.042844202
52	0xbcfcfe97	-0.030883117
53	0xbc2bf023	-0.010494265
54	0xbc876208	-0.016526237
55	0x3cd356f4	0.025798298
56	0x3c890ad6	0.0167288
57	0x3ca04374	0.019563414
58	0x3d25a4f5	0.04044052
59	0x3c54bd4e	0.012984587
60	0x3d236bac	0.039897606
61	0xb9204d7d	-0.00015287656
62	0x3d5fbc34	0.054622844
63	0x3c61a50e	0.013772262
64	0x3bf65efd	0.0075186477
65	0x3cbd57a0	0.023113072
66	0x3cb1d99b	0.021710208
67	0xba23bde3	-0.0006246252
68	0xbb562507	-0.0032675879
69	0x3bd5339b	0.006506396
70	0xbbecdcc7	-0.007228467
71	0xbcb267b4	-0.021777965
72	0xbce293ed	-0.027658427
73	0x3d2f1903	0.042748462
74	0x3d224fa8	0.039626747
75	0x3ca5a797	0.020221515
76	0x3d6fb16b	0.05851881
77	0x3a321ec5	0.0006794746
78	0xbcbca94d	-0.023029948
79	0xbc76f29d	-0.015072492
80	0x3d6a3328	0.057177693
81	0x3cdab9db	0.02669995
82	0x3c236a6d	0.009974104
83	0x3d61a012	0.055084296
84	0xbc14dc0e	-0.009085668
85	0xbc64af49	-0.013957807
86	0xbc899db3	-0.01679883
87	0x3c99436d	0.018708909
88	0x3d1607ca	0.036628522
89	0xbbe734b8	-0.007055845
90	0x3bc2dfeb	0.0059471033
91	0x3d0ea3bc	0.034824118
92	0x3bd350cf	0.006448842
93	0xb8afc532	-8.381381e-05
94	0xbc04c506	-0.008103615
95	0x3c31dedc	0.0108563565
96	0xbce59bd9	-0.028028416
97	0x3d71e98c	0.05906062
98	0x3d8c918b	0.068636976
99	0xbce5ea9e	-0.028065976
100	0x3d42ece1	0.047589187
101	0x3c73326f	0.014843567
102	0x3c2dcf90	0.010608569
103	0xbd5a9163	-0.053361308
104	0x3ca44f8f	0.020057468
105	0xbb64f528	-0.0034936164
106	0xba6193bb	-0.00086050824
107	0x3d08be5d	0.03338467
108	0xbd00db55	-0.03145917
109	0xbce54e3e	-0.02799141
110	0x3cddd3c4	0.027078517
111	0x3d6a1f9f	0.057159062
112	0x3c15b875	0.009138216
113	0xbc0ad2ca	-0.008473108
114	0x3d0c6ab7	0.03428146
115	0x3d3182f4	0.043337777
116	0x3d43caae	0.047800712
117	0xbbbe3cad	-0.005805573
118	0x3ddb0ab8	0.10695404
119	0x3cecdde4	0.0289144
120	0x3ccdb642	0.025111321
121	0x3df528d5	0.11970679
122	0x3cf912ea	0.030404527
123	0xbc2d3b8b	-0.010573278
124	0x3cb22645	0.021746764
125	0x3c4a722a	0.01235632
126	0xbca7e7f0	-0.020496339
127	0x3d0b3fb4	0.0339963
128	0x3d57d6e2	0.052695163
129	0x3c8ed957	0.01743762
130	0xbc0f4b72	-0.008746015
131	0x3c4fbfe9	0.012680032
132	0x3c5239b0	0.012831137
133	0xbc0a9a18	-0.00845959
134	0x3d124be3	0.035716902
135	0x3cc10838	0.02356349
136	0xbcdb1173	-0.026741719
137	0x3bb389e3	0.005479084
138	0xbc6af703	-0.014341119
139	0xbd13d62f	-0.036092933
140	0xbb247d29	-0.0025099015
141	0x3d705bf9	0.058681462
142	0xbc868b72	-0.016423915
143	0xbc12cfd8	-0.008960687
144	0x3ce3312b	0.027733406
145	0x3d48464a	0.048895158
146	0xbc854fb6	-0.01627336
147	0xbcc8a5c8	-0.024493113
148	0xbce1e18f	-0.027573375
149	0xbc7c8fc5	-0.015415137
150	0xbbe35e89	-0.0069387597
151	0x3b61bc3d	0.0034444474
152	0x3d340763	0.043952357
153	0x3c4a917f	0.012363791
154	0xbd1b684d	-0.037941266
155	0x3c286a98	0.01027932
156	0x3d849f6b	0.06475719
157	0x3c9a58c9	0.018841164
158	0x3d746322	0.059664853
159	0x3d31bcc6	0.04339292
160	0x3c1186bc	0.008882221
161	0xbc505740	-0.0127161145
162	0x3b12d911	0.0022407214
163	0xbc308646	-0.010774201
164	0x3c253dde	0.010085551
165	0x3cf6d10f	0.030128984
166	0x3cbceb85	0.023061523
167	0x3c2b9569	0.010472634
168	0x3c99b0c4	0.018761046
169	0x3cc8d686	0.024516355
170	0x3b39dac7	0.0028359161
171	0xbb61cd25	-0.003445455
172	0x3b514855	0.0031933982
173	0xbcbc9698	-0.023021027
174	0xbbf0918c	-0.0073415693
175	0xbd296868	-0.041359335
176	0xbc918587	-0.017763866
177	0x3d4f4ad1	0.05060846
178	0x3ba2fec5	0.0049742186
179	0xbce257c2	-0.027629737
180	0x3d2fd041	0.042923216
181	0xbcba7e05	-0.022765169
182	0x3d2fc086	0.042908214
183	0x3d340c57	0.04395708
184	0x3ca53eff	0.02017164
185	0xbcdebf3e	-0.0271908
186	0x3cba13b9	0.022714483
187	0x3cf5b908	0.029995456
188	0x3c8a3a69	0.016873555
189	0x3c26287e	0.01014149
190	0xbcf3a295	-0.029740611
191	0x3c7ffc2d	0.015624088
192	0x3ae86cb3	0.001773259
193	0xba551699	-0.00081286725
194	0x3b2877f7	0.002570627
195	0xbb7791f8	-0.0037776213
196	0xbd5f657a	-0.054540135
197	0xbc8535f6	-0.016261082
198	0x3c9a0d87	0.018805278
199	0x3b20d8c9	0.0024543277
200	0x3d39038f	0.04516941
201	0x3d049cd8	0.03237614
202	0x3cd6bb3b	0.026212325
203	0xbb895d3b	-0.004192022
204	0x3d29d0a8	0.041458756
205	0xbc9dbf28	-0.01925619
206	0xbc0caa33	-0.0085855005
207	0xbc845b0b	-0.016156694
208	0xbcecab6e	-0.028890338
209	0xbd7c5a6f	-0.06160968
210	0x3d23d909	0.040001903
211	0x3d7523ed	0.059848715
212	0xbc88bfd0	-0.016693026
213	0xbd18d1d9	-0.0373095
214	0x3cc0876f	0.02350208
215	0xbc1fedb1	-0.00976126
216	0x38dc1605	0.00010494519
217	0x3cc63bf5	0.024198512
218	0x3c8bf979	0.017086731
219	0x3b7e2f2d	0.0038785443
220	0x3cd96f94	0.026542462
221	0xbc136d11	-0.008998171
222	0x3c00240a	0.007821092
223	0x3cd748e9	0.026279883
224	0xbdbb6715	-0.09150521
225	0x3cf90ac1	0.030400636
226	0xbc812827	-0.015766216
227	0x3d13722b	0.03599755
228	0x3d6ced2c	0.057843372
229	0x3b5191db	0.0031977806
230	0xbb1e33a0	-0.0024139658
231	0x3d51a746	0.051184915
232	0x3d2935fc	0.04131125
233	0x3cd80103	0.02636767
234	0x3d41a22f	0.04727381
235	0xbc1ea87b	-0.009683724
236	0x3bc0dd89	0.005885784
237	0xbd4a2467	-0.049351122
238	0xbd64b7aa	-0.05583922
239	0xbd15ade2	-0.03654278
240	0xbd144004	-0.036193863
241	0x3caa226d	0.020768369
242	0xbd0f6937	-0.03501245
243	0xbc5721b8	-0.013130598
244	0x3b63f6d6	0.0034784577
245	0x3d942b28	0.07234794
246	0x3b8c7d65	0.004287409
247	0xbd30db31	-0.043177787
248	0xbd06de65	-0.032926936
249	0xbd4a7e8e	-0.0494371
250	0x3c690bcc	0.014224004
251	0xbcaca357	-0.02107398
252	0x3d32ef1e	0.04368507
253	0xbbfc1957	-0.0076934504
254	0x3c9df067	0.019279672
255	0xbd165cfa	-0.036709763

g_model.fc1.bias f4 [128]
0	0x3d2dc7cf	0.04242688
1	0x3d2f7d2c	0.042843983
2	0xbbfaa371	-0.0076488783
3	0xbca7b6e8	-0.020472959
4	0xbc294081	-0.01033032
5	0x3cb85919	0.022503423
6	0x3d505e23	0.050871026
7	0x3caad8cc	0.02085533
8	0xbcca991b	-0.02473121
9	0x3c88c704	0.01669646
10	0x3cdbe752	0.0268437
11	0xbc8381ee	-0.016053166
12	0x3c93b896	0.018032353
13	0xbd23eaaa	-0.040018715
14	0x3ca66936	0.02031384
15	0x3b868469	0.00410514
16	0x3d035356	0.032061897
17	0xbcf35d90	-0.0297077
18	0x3ccacbc0	0.024755359
19	0x3c8cd1b8	0.017189845
20	0x3c36fb05	0.011168246
21	0x3c8aef9c	0.016959958
22	0x3b627640	0.0034555346
23	0x3b7a1770	0.0038160942
24	0x3d52b02c	0.05143754
25	0xbc1135a2	-0.008862885
26	0x3cd5dcb4	0.026106216
27	0x3b4f6876	0.0031647957
28	0x3b8fd429	0.004389305
29	0xbd3a4016	-0.045471273
30	0x3bb2a2fc	0.005451558
31	0xbced055d	-0.028933221
32	0xbca21b3c	-0.019788377
33	0xbd2dbadb	-0.042414527
34	0x3c531839	0.012884193
35	0xbae9f414	-0.001784923
36	0x3d06c298	0.032900423
37	0xbb7e86a9	-0.0038837588
38	0x3c0bdaba	0.008536035
39	0xbcc5cc4d	-0.02414527
40	0xbc537fa9	-0.0129088545
41	0xbba4ca63	-0.005029009
42	0xbd21645c	-0.03940235
43	0xbc37de4e	-0.011222435
44	0x3bd803d4	0.006592253
45	0x3d287c77	0.041134324
46	0x3ce0cc7a	0.027441252
47	0x3c6e5537	0.014546684
48	0xbcb280cd	-0.021789933
49	0x3c5dace4	0.01352999
50	0xbcb83b43	-0.022489196
51	0x3cd45c44	0.025922902
52	0x3b9be845	0.0047579133
53	0x3ba155ca	0.004923557
54	0x3846f303	4.74332e-05
55	0xbc66b7e4	-0.014081929
56	0x3c8f9d77	0.01753114
57	0x3d6c61fd	0.057710636
58	0xbca4e71c	-0.020129733
59	0x3d11b3bd	0.035571802
60	0xbcc13f35	-0.02358971
61	0xbbab9588	-0.0052363314
62	0x3d574b11	0.052561823
63	0x3ce111a5	0.027474234
64	0x3c713d80	0.014724135
65	0x3c8aba60	0.016934574
66	0xbce997c9	-0.02851476
67	0xbba716e1	-0.005099163
68	0x3cbab4b1	0.022791239
69	0x3c94bd9e	0.018156823
70	0xbb4ff8cc	-0.0031733988
71	0xbce4829a	-0.027894307
72	0xbc80fe79	-0.015746342
73	0xbcd8a46a	-0.026445586
74	0x3c98c9f3	0.018650984
75	0xbd586469	-0.052830134
76	0x3bfffac8	0.007811878
77	0xbb672b53	-0.0035273626
78	0x3ac0babe	0.0014704091
79	0x3c8e3fbb	0.017364373
80	0xbc84b35b	-0.016198805
81	0x3bcbad46	0.006215724
82	0x3ccd01bc	0.025025241
83	0xbca7d0de	-0.020485338
84	0xbc9920e1	-0.018692436
85	0xbc6fcefa	-0.014636749
86	0xbcd4c8df	-0.025974689
87	0x3c12acfa	0.008952374
88	0x3c8785d4	0.016543306
89	0xbb3810de	-0.0028086226
90	0x3cb104f3	0.021608805
91	0xba8e9588	-0.0010878304
92	0x3c22d9b5	0.009939601
93	0xbd15f87e	-0.036613934
94	0xbcc8fc93	-0.0245345
95	0xbba28d70	-0.0049607083
96	0x3baf4b4f	0.0053495537
97	0x3cc5a0ed	0.024124587
98	0xbc63748b	-0.0138827665
99	0xbb439111	-0.0029841105
100	0xbc6b61fe	-0.014366625
101	0xbc1335bb	-0.008984978
102	0x3ca18fd1	0.019721897
103	0x3c0bd536	0.00853472
104	0xbc3eaff7	-0.011638633
105	0x3d0db2ec	0.03459446
106	0x3bb04128	0.005378861
107	0x3d028443	0.031864416
108	0xbb562b8a	-0.003267976
109	0xbcc5cfe2	-0.024146978
110	0x3cc51c0d	0.024061227
111	0x3c689fdd	0.014198271
112	0x3caadb00	0.02085638
113	0xbd06d69b	-0.032919507
114	0xbc2d18b9	-0.010564976
115	0x3b4b069c	0.0030979281
116	0x3d61af4b	0.055098813
117	0xbc93a591	-0.018023284
118	0x3cd705e6	0.02624793
119	0xbcb9957d	-0.02265429
120	0xbc259771	-0.010106907
121	0x3c864cd5	0.016394058
122	0xbce12c80	-0.02748704
123	0xbcc5df6d	-0.02415439
124	0x3d020566	0.03174343
125	0x3c048468	0.008088209
126	0xbc0a67f0	-0.008447632
127	0x3c9830af	0.018577902

g_model.fc2.weight f4 [22, 128]
0	0x3dbc2860	0.091873884
1	0xbd95508c	-0.07290754
2	0xbe2548ca	-0.16141048
3	0xbcd096f6	-0.025462609
4	0x3c4feab6	0.012690237
5	0xbdb76d35	-0.089563765
6	0xbcae3100	-0.0212636
7	0x3b5b3e38	0.0033453833
8	0x3d7203ee	0.05908578
9	0x3cc69afb	0.024243822
10	0xbd0ccac6	-0.034373067
11	0xbd9ae2aa	-0.07562764
12	0x3d3a8f4d	0.04554682
13	0xbd18533e	-0.03718876
14	0x3d8b9a66	0.068165585
15	0xbde65441	-0.11246539
16	0xbd38f1b9	-0.0451524
17	0xbd7bb149	-0.06144837
18	0xbda6b906	-0.08140759
19	0xbdd6b116	-0.10482995
20	0xbd7b0031	-0.06127948
21	0xbc39f53d	-0.011349973
22	0xbe0ade96	-0.13561472
23	0x3dd717fb	0.10502621
24	0x3d5ca442	0.053867586
25	0xbd8b8d2a	-0.06814034
26	0xbd87e210	-0.06634915
27	0xbc8ad346	-0.016946446
28	0x3c6e32f7	0.014538518
29	0x3d054a1e	0.032541387
30	0x3deff31a	0.1171629
31	0xbd800e1a	-0.0625269
32	0x3e095bcd	0.13413925
33	0xbd84563c	-0.064617604
34	0x3cea59bc	0.028607242
35	0xbd198e53	-0.037489247
36	0x3dba68b0	0.09101999
37	0x3daf77fd	0.08567808
38	0x3d687e8b	0.056761306
39	0x3db25a1b	0.087085925
40	0xbd8d7aad	-0.06908164
41	0x3cd78d14	0.026312388
42	0x3c4bdf66	0.012443399
43	0x3de03095	0.10946766
44	0x3d1e47a2	0.038642533
45	0x3c87ae97	0.016562743
46	0x3bb1b131	0.005422734
47	0x3cb35105	0.021889219
48	0xbd3a6cb9	-0.045513842
49	0xbb353743	-0.0027651347
50	0x3c44454b	0.011979411
51	0x3c0b69e7	0.008509136
52	0xbddcd6d5	-0.107831635
53	0xb8b5848e	-8.655443e-05
54	0xbde247a9	-0.11048824
55	0x3c7ec2b3	0.01554935
56	0xbd85be57	-0.06530445
57	0x3e08c2fa	0.13355628
58	0xbd300afd	-0.04297923
59	0x3dca33a8	0.09873134
60	0x3d224c6b	0.03962366
61	0xbce7e39f	-0.02830678
62	0x3d8911c9	0.066928454
63	0x3c868f8f	0.016425876
64	0xbe374647	-0.17897902
65	0x3ce2811e	0.027649458
66	0xbd17f3cd	-0.03709774
67	0xbd11e6dd	-0.03562056
68	0xbd7027d5	-0.058631737
69	0xbda32acb	-0.079671465
70	0xbe08794e	-0.13327524
71	0x3d541e2a	0.05178658
72	0xbd1783c9	-0.036990914
73	0x3da19d81	0.078913696
74	0x3d8b52c9	0.068028994
75	0xbd9c3dae	-0.07628952
76	0xbc75a294	-0.014992375
77	0xbe00c0b1	-0.12573506
78	0x3c85a208	0.016312614
79	0x3d69237e	0.056918614
80	0x3d301ae6	0.042994402
81	0x3c401ff3	0.011726367
82	0xbde2a523	-0.110666536
83	0x3d3c35d5	0.045949776
84	0x3c4909a8	0.012270369
85	0xbda425a3	-0.08014991
86	0xbd3400a2	-0.043945916
87	0xbd949b77	-0.07256215
88	0xbd88898b	-0.06666859
89	0xbe096ff0	-0.13421607
90	0xbcd9254c	-0.026507042
91	0xbd75ebca	-0.06003932
92	0x3d7f4c34	0.062328532
93	0xbd4d0ee5	-0.050063033
94	0x3ce466e5	0.027881095
95	0x3ba54228	0.005043287
96	0x3d5ba6f4	0.053626016
97	0x3d2a6f7d	0.04161023
98	0xbdaad195	-0.08340756
99	0xbd365bbb	-0.044521075
100	0xbd9cd51b	-0.07657834
101	0xbdacc818	-0.08436602
102	0x3d11fbf2	0.035640664
103	0x3da17c9e	0.07885097
104	0xbcf3d301	-0.0297637
105	0x3d72fd85	0.059323806
106	0x3c7829d3	0.01514669
107	0xbd3329d2	-0.043741055
108	0xbe30e816	-0.17276034
109	0xbd8e743a	-0.06955762
110	0xbd54cff4	-0.051956132
111	0x3da4a0f9	0.080385156
112	0x3dc8cbcc	0.09804496
113	0xbd0cca06	-0.034372352
114	0x3dc3d53b	0.09562155
115	0x3d888a9f	0.06667065
116	0x3df723eb	0.12067398
117	0xbcd90c2e	-0.026495066
118	0xbd9b4261	-0.0758102
119	0x3e1183b5	0.14210398
120	0xbd2a8478	-0.04163024
121	0xbb8a3bd9	-0.00421856
122	0xbd95a156	-0.07306163
123	0x3c64b784	0.013959769
124	0xbdf72ecc	-0.12069473
125	0xbcd7c504	-0.026339062
126	0xbc8c79af	-0.017147867
127	0x3d916e75	0.07101146
128	0x3d682813	0.056678843
129	0xbc2d1a1e	-0.010565309
130	0x3d910530	0.070810676
131	0xbca5f88c	-0.020260118
132	0x3c165a3f	0.00917679
133	0x3dc7e640	0.097607136
134	0x3df09b51	0.11748374
135	0x3c033964	0.008009288
136	0x3d9dee4c	0.07711467
137	0x3d91176e	0.07084547
138	0xbc283338	-0.010266118
139	0x3dd5598b	0.104174696
140	0xbd3be2b6	-0.045870505
141	0xbc510c65	-0.012759303
142	0xbe21ed81	-0.15813257
143	0xbdbc8e62	-0.09206845
144	0x3b0e11eb	0.002167816
145	0x3c393565	0.011304234
146	0xbddf1260	-0.10892177
147	0x3df3d0c6	0.11905055
148	0xbd9529d4	-0.07283369
149	0xbe14fc0c	-0.14549273
150	0x3c8aa604	0.016924866
151	0xbdc9c621	-0.09852243
152	0x3d84925e	0.0647323
153	0x3d3c5aad	0.045984913
154	0x3d0d2dcc	0.034467503
155	0xbd6dfc63	-0.058102023
156	0x3d7fca7d	0.062448967
157	0xbe13762e	-0.1440055
158	0xbdb8105f	-0.089874975
159	0xbca4a35f	-0.020097433
160	0xbd06e920	-0.03293717
161	0x3d1759cc	0.03695087
162	0xbd485042	-0.048904665
163	0x3c83eb1c	0.01610332
164	0xbdd0cf9a	-0.10195847
165	0x3cdaa548	0.02669014
166	0x3d9d2a8e	0.07674132
167	0xbdca35ca	-0.09873541
168	0x3dc10b7d	0.09426019
169	0xbdae1dbe	-0.085017666
170	0xbcfdb5ef	-0.030970542
171	0xbd869343	-0.06571057
172	0xbda7ce09	-0.08193595
173	0xbda75733	-0.08170929
174	0xbddff612	-0.10935606
175	0xbdd327d7	-0.10310333
176	0x3dbe0c13	0.09279647
177	0x3de3dc9a	0.11126061
178	0xbd3e4d25	-0.04646029
179	0xbd921ca3	-0.07134368
180	0xbcdcf464	-0.026972003
181	0xbdc45bb0	-0.095878005
182	0xbd8f99d5	-0.07011763
183	0xbd83e6ab	-0.06440481
184	0xbe1b1913	-0.15146284
185	0xbb90a437	-0.004414107
186	0x3da9a9ba	0.08284326
187	0xbd45ba35	-0.048273284
188	0x3d3913e8	0.045185
189	0xbd0d4bb5	-0.034496028
190	0x3da49b1c	0.08037397
191	0xbd7d44a3	-0.061833035
192	0x3d7f74a8	0.06236711
193	0xbdb0cbe6	-0.086326405
194	0xbcd2471f	-0.025668679
195	0x3d9d9536	0.07694475
196	0xbdaa9e5f	-0.08330988
197	0x3cf9676c	0.030444823
198	0x3dec0ded	0.11526094
199	0x3df6453f	0.120249264
200	0xbc3a4fb2	-0.01137154
201	0x3c631e43	0.013862195
202	0x3c996f42	0.01872981
203	0xbe262587	-0.16225253
204	0x3cd36f6f	0.025809972
205	0x3da55dc9	0.08074529
206	0x3baaa896	0.0052080853
207	0x3b132b65	0.0022456285
208	0x3d964b00	0.07338524
209	0x3cbc0b82	0.022954706
210	0xbdfa4ca8	-0.12221652
211	0xbddc2b27	-0.10750418
212	0x3cef5147	0.02921356
213	0x3d21398f	0.039361533
214	0x3d09ff46	0.033690713
215	0x3d997fed	0.07495103
216	0x3d112694	0.03543718
217	0xbdc13de5	-0.094356336
218	0x3d9916eb	0.074750744
219	0xbde5fb91	-0.11229623
220	0x3d6d5896	0.05794581
221	0x3c90c441	0.017671706
222	0xbcdd5203	-0.027016645
223	0x3d2279b6	0.039666854
224	0xbc869706	-0.016429435
225	0xbdb46334	-0.08807984
226	0xbe3f8744	-0.18703943
227	0xbd97a807	-0.074050955
228	0xbe26d06a	-0.16290441
229	0x3d82eb03	0.06392481
230	0xbe2ac667	-0.16677247
231	0xbd69656f	-0.0569815
232	0x3ca6726e	0.020318236
233	0xbc77c40a	-0.015122423
234	0xbd78396b	-0.060601633
235	0xbcb83b95	-0.022489348
236	0x3dee2dca	0.11629827
237	0xbde86c9e	-0.11348842
238	0xbd5bd62f	-0.05367106
239	0xbe112c0a	-0.14176956
240	0xbdeda6eb	-0.11604103
241	0xbc2f0991	-0.010683433
242	0xbdb8ceeb	-0.090238415
243	0xbb2773e9	-0.0025551266
244	0x3c0d6336	0.008629611
245	0x3d10265e	0.03519284
246	0x3dce9cf6	0.10088532
247	0xbba5e615	-0.0050628283
248	0x3de71d2b	0.1128486
249	0xbc88b883	-0.016689545
250	0xbd170236	-0.036867343
251	0x3df7e478	0.12104124
252	0x3dd0ea24	0.10200909
253	0xbcbfb11c	-0.023399882
254	0x3da58f6c	0.08083996
255	0x3df07b98	0.11742324

g_model.fc2.bias f4 [22]
0	0x3dd1bfd4	0.102416664
1	0x3d12e486	0.03586247
2	0xbd871381	-0.06595517
3	0xbbfae791	-0.0076569994
4	0x3d87cee9	0.06631262
5	0x3d33ace3	0.04386605
6	0x3cf334bd	0.029688234
7	0x3cacce62	0.021094505
8	0xbd98082b	-0.07423433
9	0x3d649b13	0.055811953
10	0xbcc51b6b	-0.024060925
11	0x3d313421	0.043262605
12	0x3db1b88e	0.08677779
13	0x3d53d885	0.05172016
14	0x3d18cbcc	0.03730373
15	0x3d63c081	0.055603508
16	0xbd7af825	-0.061271805
17	0xbd2a936e	-0.041644506
18	0x3d896e4a	0.06710489
19	0x3c9253d7	0.017862244
20	0x3bd33698	0.006445717
21	0x3d66dad5	0.05636104

f_model.fc1.weight f4 [32, 22]
0	0xbc0adeaa	-0.008475939
1	0x3e3cf8b3	0.18454246
2	0x3e2db3e1	0.1696315
3	0x3e803b35	0.2504517
4	0x3c15c91e	0.009142188
5	0xbe686e0f	-0.22698234
6	0xbde06930	-0.10957563
7	0x3d16587c	0.03670548
8	0xbd1c5a2c	-0.038171932
9	0xbe7c5fc9	-0.24645914
10	0xbc8d417a	-0.017243136
11	0x3c8fbeb0	0.017546982
12	0xbdf85954	-0.12126413
13	0x3db27b38	0.08714908
14	0x3e8c3041	0.27380565
15	0xbd47c3fc	-0.04877089
16	0x3dbb2934	0.09138718
17	0xbe33bb5d	-0.17551942
18	0x3d9c5c26	0.076347634
19	0xbdf0fee7	-0.11767369
20	0x3e947fee	0.29003853
21	0x3e1d7818	0.15377843
22	0xbe4f4f21	-0.20245029
23	0x3d53c56d	0.05170195
24	0x3dcb483d	0.09925888
25	0xbe5b7f6a	-0.21435323
26	0x3dbc0485	0.091805495
27	0x3d467a48	0.04845646
28	0xbc2800de	-0.010254113
29	0xbe54efe5	-0.20794638
30	0x3eaf967c	0.34294498
31	0xbeb4af61	-0.35290053
32	0xbdec54af	-0.115395896
33	0xbdd77829	-0.105209656
34	0x3c048b54	0.008089859
35	0xbcd0279c	-0.025409512
36	0xbce0b140	-0.02742827
37	0xbddc08fe	-0.107439026
38	0x3d574287	0.05255368
39	0xbce9496e	-0.028477397
40	0xbe3b7462	-0.18306115
41	0xbe11e775	-0.1424845
42	0xbc0b27a8	-0.0084933415
43	0x3e396a6f	0.18107007
44	0x3e7b7fe9	0.24560513
45	0xbe88ee08	-0.26744103
46	0xbd7face1	-0.06242073
47	0x3dca6104	0.098817855
48	0xbc1c77c1	-0.009550036
49	0xbd7e3535	-0.06206246
50	0xbe438955	-0.19095357
51	0xbe8c68a3	-0.2742358
52	0xbd3c93d7	-0.04603943
53	0xbea616f6	-0.32439393
54	0x3d8d1875	0.068894304
55	0x3e2cd336	0.16877446
56	0x3c591924	0.013250623
57	0x3e0a6618	0.13515508
58	0x3e99b1ef	0.30018565
59	0xbe20e879	-0.15713681
60	0xbccf3d39	-0.025297748
61	0x3e8a93c9	0.27065876
62	0xbce37010	-0.027763397
63	0xbdcae705	-0.09907345
64	0x3db83689	0.08994777
65	0x3e5abefe	0.2136192
66	0xbe3d0d7e	-0.18462178
67	0x3cbf2385	0.023332367
68	0xbe209da5	-0.15685137
69	0x3c6e0ebd	0.014529881
70	0x3d6f9f32	0.05850143
71	0xbc263ae6	-0.010145878
72	0xbe202626	-0.15639552
73	0x3daf3fe3	0.08557107
74	0xbe27da12	-0.16391781
75	0xbdc2e2bb	-0.09515902
76	0x3e341453	0.17585878
77	0xbeb24bee	-0.34823555
78	0xbe177f27	-0.14794599
79	0x3e8320fd	0.25611106
80	0xbde33559	-0.1109416
81	0xbe77687d	-0.24160953
82	0x3c8e700f	0.017387418
83	0x3dff7a50	0.12474501
84	0x3ddb04d0	0.10694277
85	0x3e47f957	0.1952871
86	0x3d95a417	0.07306688
87	0x3d4011ed	0.046892095
88	0x3d90d0b1	0.07071055
89	0xbe4e3e61	-0.20140983
90	0xbda409c9	-0.08009679
91	0xbda14c7c	-0.07875916
92	0xbdaab6dd	-0.0833566
93	0xbe8b27ba	-0.27178746
94	0xbe961f11	-0.29320577
95	0xbcece21b	-0.02891641
96	0x3db268b4	0.08711377
97	0xbe3cfb16	-0.18455157
98	0xbe66f525	-0.22554453
99	0xbde75c4e	-0.112969026
100	0xbe129ff1	-0.14318825
101	0x3c5ffe03	0.013671401
102	0xbdab1c75	-0.08355037
103	0xbe820e7c	-0.25401676
104	0xbdec8d51	-0.115503915
105	0x3e104c45	0.14091595
106	0x3c427668	0.011869051
107	0x3ea120b4	0.31470263
108	0x3e1be511	0.152241
109	0xbe7ccf56	-0.24688467
110	0x3d58181a	0.05275736
111	0xbe50ac0c	-0.2037813
112	0xbe989f24	-0.29808915
113	0xbd448c91	-0.047985617
114	0x3c8e6d62	0.017386142
115	0xbdf9cb7c	-0.12197015
116	0xbe8b78c8	-0.27240586
117	0x39fed97d	0.00048608697
118	0x3e3267d0	0.17422414
119	0x3e6233d8	0.2209009
120	0xbe16c83c	-0.14724821
121	0xbe3b7f5c	-0.18310302
122	0xbd33e679	-0.043920968
123	0x3e06988b	0.13144128
124	0xbe6492e0	-0.22321653
125	0x3e3cafe1	0.18426467
126	0x3e860df2	0.26182514
127	0xbe4d8874	-0.20071584
128	0xbe8b957e	-0.2726249
129	0xbd1b133a	-0.037860133
130	0x3dca3d5a	0.09874983
131	0x3e2e0663	0.16994624
132	0xbe150835	-0.14553912
133	0x3df969c2	0.12178375
134	0xbe9cdfff	-0.30639645
135	0x3e56bbd8	0.20970094
136	0xbdac9caa	-0.08428319
137	0x3db20392	0.08692087
138	0xbd75ad4a	-0.059979714
139	0xbdad6627	-0.0846675
140	0x3da9fe1a	0.08300419
141	0xbd2b3178	-0.041795224
142	0x3dd5337d	0.10410211
143	0x3e2a0884	0.16604811
144	0x3dc59f29	0.09649498
145	0xbc718320	-0.014740735
146	0x3e81f2f8	0.25380683
147	0xbc1cbe54	-0.009566862
148	0xbdd1c2a3	-0.10242202
149	0xbe514d7c	-0.20439714
150	0x3d5ad2c9	0.053423677
151	0x3cf43502	0.029810432
152	0x3dbd0a31	0.092304595
153	0x3b719477	0.0036862174
154	0x3dcdecb8	0.10054916
155	0x3d4fcc0e	0.05073171
156	0xbda8ba01	-0.082386024
157	0x3c36eef4	0.011165369
158	0xbe2a23f3	-0.16615276
159	0x3e0f489c	0.13992542
160	0x3e433cca	0.19066158
161	0xbce774e7	-0.028253986
162	0x3d7b94fc	0.06142138
163	0x3e286b8d	0.16447277
164	0x3c9ab3c5	0.018884549
165	0x3e0fb4e5	0.1403385
166	0xbe297c1f	-0.16551255
167	0x3d4384dc	0.047734126
168	0x3d6fa573	0.058507394
169	0xbdaffbaa	-0.08592923
170	0xbd192eb4	-0.037398055
171	0xbcab25d7	-0.020892067
172	0xbe016de2	-0.12639573
173	0x3e198ef8	0.14995944
174	0xbc99dd7c	-0.01878237
175	0xbdcfd11c	-0.10147306
176	0x3e3bb0c3	0.18329148
177	0xbe606da1	-0.2191682
178	0xbe662e78	-0.22478664
179	0xbe5841cd	-0.21118851
180	0x3d83a3e0	0.06427741
181	0xbe8817a9	-0.2658055
182	0xbd3d71c7	-0.046251085
183	0x3e840eba	0.25792485
184	0xbe2049ce	-0.15653154
185	0x3e1121e4	0.14173084
186	0x3dae12d1	0.08499683
187	0xbd422b83	-0.047404777
188	0xbe214396	-0.15748438
189	0x3e6e564c	0.23275107
190	0x3e871d83	0.26389703
191	0xbcf1c1e9	-0.029511409
192	0x3b960020	0.0045776516
193	0x3deef772	0.1166829
194	0xbe6b5c33	-0.2298439
195	0xbdfcdf73	-0.12347307
196	0x3e252f32	0.16131285
197	0xbe514913	-0.20438032
198	0x3e2a5b23	0.16636328
199	0x3d610cb3	0.05494375
200	0xbdb84863	-0.08998182
201	0xbe7e41b4	-0.24829751
202	0xbe9ecf42	-0.310175
203	0xbd3d493f	-0.04621243
204	0x3e5481f1	0.20752694
205	0xbd9e3f22	-0.077268854
206	0xbca8bd5a	-0.020598102
207	0xbea80d31	-0.32822564
208	0xbcb44dd1	-0.022009762
209	0xbd17f9f6	-0.037103616
210	0x3e8a6cdb	0.27036175
211	0xbe01c1c4	-0.12671572
212	0x3d9c7d36	0.076410696
213	0x3dfb363d	0.122662045
214	0xbe8021b2	-0.25025707
215	0x3e764b72	0.24052218
216	0xbcf0d6a8	-0.029399231
217	0x3d21307e	0.039352886
218	0x3d2de92d	0.042458702
219	0x3d9a3646	0.07529883
220	0xbde729b0	-0.11287248
221	0xbe4446d4	-0.19167644
222	0x3cbaafc1	0.022788884
223	0x3e916dee	0.28404182
224	0xbe5b00e4	-0.21387058
225	0xbda0c6d0	-0.078504205
226	0xbe0adb14	-0.13560134
227	0x3e2cce95	0.1687568
228	0xbd01e2f3	-0.031710576
229	0x3ed3d7f5	0.413757
230	0x3cb7c769	0.022433953
231	0x3dcba37a	0.0994329
232	0x3d8c54ee	0.068521366
233	0xbd9fc89d	-0.07801936
234	0x3de8d2a9	0.11368305
235	0xbd5f746e	-0.054554395
236	0x3dd7a22a	0.10528977
237	0xbd4bb1cb	-0.049730103
238	0xbe90a700	-0.2825241
239	0xbe535bdb	-0.20640509
240	0x3e82cd8d	0.25547448
241	0xbd59b66b	-0.053152483
242	0xbe195e67	-0.14977418
243	0xbe1003e3	-0.14063983
244	0xbe106a95	-0.14103158
245	0xbe14c29f	-0.14527367
246	0xbdab3eeb	-0.0836161
247	0xbe83db7b	-0.25753388
248	0xbe05bd5f	-0.1306052
249	0xbd88a4f9	-0.06672091
250	0x3e950367	0.29104158
251	0x3db003ac	0.0859445
252	0xbd7cd163	-0.061723124
253	0xbda4d3ac	-0.08048186
254	0xbda69571	-0.081339724
255	0x3e485d6f	0.19566892

f_model.fc1.bias f4 [32]
0	0xbe298780	-0.16555595
1	0x3cf434a3	0.029810255
2	0x3e1c4b74	0.15263158
3	0xbe1e4671	-0.15456559
4	0xbbb9a7a9	-0.0056657386
5	0xbe0704f8	-0.13185489
6	0x3d7c7456	0.061634384
7	0xbd9b89f7	-0.07594674
8	0xbbbe34fe	-0.005804657
9	0xbd6b0454	-0.057377174
10	0xbc4219e2	-0.011846991
11	0xbdd3b0ce	-0.10336457
12	0xbdf926aa	-0.12165578
13	0xbd958a49	-0.073017664
14	0xbe63c4a9	-0.22242989
15	0xba8b685e	-0.0010635962
16	0x3c46e369	0.01213918
17	0x3d4af081	0.04954577
18	0xbdb4d4c2	-0.08829643
19	0x3e0969f6	0.13419327
20	0x3e63d11b	0.22247736
21	0x3d8a6cc4	0.06759027
22	0x3d23c9ce	0.039987378
23	0xbdd2d945	-0.10295347
24	0xbbc9710a	-0.0061475085
25	0x3df415fa	0.11918254
26	0x3e63430e	0.22193548
27	0x3de78211	0.11304105
28	0xbde545e3	-0.111949705
29	0x3d3dd1bc	0.046342596
30	0xbdfbf871	-0.12303246
31	0xbb61f07f	-0.0034475622

f_model.fc2.weight f4 [10, 32]
0	0xbd1f0e4f	-0.038832005
1	0xbe8ad6f7	-0.2711713
2	0x3e82c8d0	0.25543833
3	0xbe9d1d9a	-0.30686647
4	0x3e5b5b50	0.21421552
5	0xbe4c4d25	-0.19951303
6	0xbd9d2201	-0.07672501
7	0x3d845e68	0.06463319
8	0x3dc654d9	0.09684152
9	0x3e2d337e	0.16914174
10	0xbe04c1bd	-0.1296453
11	0x3c8183c2	0.015809897
12	0x3cb3b9f5	0.021939257
13	0x3d681620	0.056661725
14	0xbe2524ef	-0.1612737
15	0x3e6246fa	0.22097388
16	0xbd8f28be	-0.06990193
17	0x3e7b96db	0.24569266
18	0x3d0b86ce	0.034064107
19	0x3dd1c744	0.10243085
20	0xbe0626b7	-0.13100706
21	0xbe753b08	-0.239483
22	0x3b9f06b0	0.004853092
23	0xbd61d4b6	-0.055134498
24	0xbe084405	-0.13307197
25	0xbe35f029	-0.17767395
26	0xbe36b9dc	-0.17844337
27	0xbdae941b	-0.085243426
28	0xbe1d435b	-0.15357725
29	0xbdc6d8a9	-0.097092934
30	0xbe6ed426	-0.23323116
31	0x3d8e048d	0.06934462
32	0x3e385f8e	0.18005201
33	0xbd28851e	-0.041142575
34	0xbd8bcf93	-0.06826701
35	0x3dc8eceb	0.098108135
36	0xbe574ade	-0.21024653
37	0xbe875bb5	-0.26437154
38	0x3e2a3b5b	0.16624205
39	0xbde80287	-0.11328607
40	0x3d0ac03f	0.033874746
41	0x3d9dcf94	0.07705608
42	0xbe5c281e	-0.21499678
43	0xbe08a7ca	-0.13345256
44	0xbdf69062	-0.120392576
45	0xbe40ffe3	-0.18847613
46	0x3da39f07	0.079893164
47	0xbe364533	-0.17799835
48	0xbdae7dd4	-0.085200936
49	0x3e1285bb	0.14308827
50	0x3e382d50	0.17986035
51	0xbe4fa3d1	-0.20277335
52	0x3ccb7f8d	0.024841094
53	0xbe481c25	-0.19541986
54	0xbe12ec3a	-0.14347926
55	0x3dafd841	0.08586169
56	0x3e605f4a	0.2191135
57	0xbd40f31d	-0.04710685
58	0x3d1378b9	0.036003802
59	0x3cc6b411	0.024255784
60	0xbdfc877c	-0.12330529
61	0x3e2f13b9	0.17097367
62	0x3d69a6b4	0.057043746
63	0x3e6ef8eb	0.23337142
64	0x3e476bde	0.19474742
65	0x3dd5a249	0.10431344
66	0xbd2374fb	-0.039906483
67	0xbbe2c25a	-0.006920141
68	0x3e2b5044	0.16729838
69	0xbe23e956	-0.1600698
70	0xbe927320	-0.28603458
71	0x3dbc463e	0.09193085
72	0xbd649aed	-0.05581181
73	0xbd258195	-0.040406782
74	0x3d30c71a	0.043158628
75	0x3d86d1cc	0.06582984
76	0xbdd326e0	-0.10310149
77	0x3e312d72	0.17302492
78	0xbe83a0bf	-0.25708577
79	0xbc19898b	-0.009371172
80	0x3d33c6f3	0.043890905
81	0xbe60649d	-0.21913381
82	0x3d58d049	0.05293301
83	0x3e19b188	0.15009129
84	0xbe3eabfb	-0.18620293
85	0x3b708437	0.00366999
86	0xbc4fd218	-0.012684368
87	0xbe604bdf	-0.21903943
88	0x3c7a06eb	0.015260438
89	0xbe3428da	-0.17593709
90	0xbc9b9d3f	-0.01899588
91	0xbe8be586	-0.2732355
92	0x3ded8f39	0.11599583
93	0x3e540709	0.20705809
94	0x3e0ec646	0.13942823
95	0xbd40d4a4	-0.04707779
96	0x3e32b281	0.17450906
97	0xbe0bd569	-0.13655628
98	0x3cb0d53f	0.021586059
99	0xbe502a90	-0.20328736
100	0xbe126a37	-0.1429833
101	0xbd18ce66	-0.037306212
102	0x3e95e32e	0.29274887
103	0xbe3c4469	-0.18385471
104	0xbe58f447	-0.21186934
105	0xbdb933ca	-0.09043081
106	0x3e867bbe	0.26266283
107	0xbe0bde2a	-0.13658968
108	0xbd9a76a5	-0.07542161
109	0x3e1ba870	0.15200973
110	0xbd036f4c	-0.032088563
111	0xbd358d92	-0.044324465
112	0x3a7bdcf4	0.0009607815
113	0x3d9b30cf	0.07577669
114	0xbe6ba99a	-0.23013917
115	0x3c8debc4	0.017324336
116	0x3e7677ea	0.24069181
117	0xbd1aa1ca	-0.03775195
118	0x3d5b11e9	0.053483877
119	0xbe2b295e	-0.16714999
120	0xbe8f0f4e	-0.27941364
121	0xbe0251e4	-0.12726551
122	0xbe6c5af5	-0.23081572
123	0x3d453eef	0.04815572
124	0xbdfff3f8	-0.12497705
125	0x3e222c6f	0.15837263
126	0x3e30cd49	0.1726581
127	0xbdc287d7	-0.09498566
128	0xbe36f4a6	-0.17866763
129	0xbdd1809b	-0.10229608
130	0x3cde8308	0.02716209
131	0x3df65e47	0.12029701
132	0xbde1d4aa	-0.110268906
133	0x3e5923f4	0.21205121
134	0xbe9bf425	-0.30459705
135	0xbdbc3bd8	-0.09191102
136	0x3d4bd35b	0.04976211
137	0xbe4d765a	-0.20064679
138	0xbe042f84	-0.12908751
139	0xbd920411	-0.07129682
140	0x3cb5853e	0.022158261
141	0xbe89ff1d	-0.26952448
142	0xbcb51c9e	-0.022108372
143	0x3e04345a	0.12910596
144	0x3e5b4990	0.2141478
145	0x3d42775f	0.047477122
146	0xbe10e624	-0.14150292
147	0xbe9663c8	-0.29373002
148	0x3ca1d094	0.019752778
149	0x3e5f9d3f	0.21837328
150	0xbe524525	-0.20534189
151	0xbd083215	-0.033250887
152	0xbdcdd7c6	-0.10050921
153	0xbc2adc4f	-0.010428502
154	0x3e5b8e0f	0.2144091
155	0x3ddc32af	0.10751855
156	0x3d8608c8	0.06544644
157	0xbdc7c1a1	-0.09753729
158	0x3c4bed23	0.0124466745
159	0x3e3f7f43	0.1870089
160	0xbe6b6efb	-0.22991554
161	0x3e2871fc	0.16449732
162	0x3e11d160	0.14240026
163	0xbe4e9d68	-0.20177233
164	0xbd3c624d	-0.045992184
165	0x3d2295df	0.03969371
166	0xbcc3e696	-0.023913663
167	0xbe067630	-0.13131022
168	0xbd9c2972	-0.076250926
169	0xbe0bcac9	-0.13651575
170	0xbc045b5d	-0.008078423
171	0xbdda363e	-0.10654877
172	0xbd968b6d	-0.07350812
173	0x3d85e0f6	0.065370485
174	0x3df563b7	0.1198191
175	0xbe2c2c9e	-0.16813895
176	0x3d0efe96	0.03491076
177	0xbe235992	-0.15952137
178	0xbdc0bb06	-0.09410672
179	0x3e5947f0	0.21218848
180	0x3e6c1d19	0.23057975
181	0xbd37e834	-0.04489918
182	0xbcce55e5	-0.025187442
183	0xbe7cba9e	-0.24680564
184	0x3e629484	0.22126967
185	0x3e1cdb03	0.15317921
186	0xbe396069	-0.18103184
187	0x3deb53bb	0.1149058
188	0xbdf20fe0	-0.11819434
189	0xbe7f4cd3	-0.2493165
190	0xbc438986	-0.011934644
191	0xbe4003b0	-0.18751407
192	0xbe1d0908	-0.15335476
193	0xbd8885b8	-0.0666613
194	0x3d88c901	0.066789635
195	0xbe52ebdb	-0.20597784
196	0xbe32d95e	-0.17465732
197	0xbe5fa2e4	-0.21839482
198	0x3d9b3562	0.07578541
199	0xbda0ea94	-0.07857242
200	0xbe4a0749	-0.19729342
201	0x3df0d512	0.1175939
202	0xbe4e09cb	-0.20120923
203	0xbe2c7945	-0.16843136
204	0x3e966597	0.29374382
205	0xbe7103b8	-0.23536575
206	0xbdbaf54f	-0.0912882
207	0x3d2121ab	0.03933875
208	0x3d4e11d2	0.050309964
209	0xbd26812f	-0.040650543
210	0xbd44a141	-0.048005346
211	0xbde2ea5d	-0.110798575
212	0xbddd2260	-0.10797572
213	0x3c9a346d	0.018823827
214	0x3dbbf874	0.09178248
215	0xbdbb23eb	-0.0913771
216	0x3e0bc47f	0.13649176
217	0xbe90e150	-0.282969
218	0x3d37150b	0.044697803
219	0x3e8a06db	0.26958355
220	0x3e594889	0.21219076
221	0xbc83f000	-0.016105652
222	0x3d72c285	0.05926754
223	0xbe0051a4	-0.12531143
224	0x3da1dfab	0.079039894
225	0xbcb88e6e	-0.022528853
226	0xbdc609bc	-0.096698254
227	0x3e15958e	0.14607832
228	0x3cd491f9	0.025948511
229	0x3cb3c1d8	0.021943018
230	0xbdf0eef3	-0.11764326
231	0xbd733b97	-0.059383
232	0x3e830531	0.25589898
233	0x3ace52d1	0.0015741234
234	0x3e23dbda	0.16001835
235	0x3d04dacd	0.032435227
236	0xbe5b29ba	-0.21402636
237	0x3d2d7c91	0.042355124
238	0x3e0b74c1	0.13618757
239	0xbd9cb21f	-0.076511614
240	0x3c658375	0.014008393
241	0x3d3f319a	0.046678163
242	0xbe1fb657	-0.15596901
243	0xbde74a06	-0.11293416
244	0xbe349431	-0.17634656
245	0xbd0f765c	-0.035024986
246	0xbe982bee	-0.29721016
247	0x3e1a666f	0.15078138
248	0xbd8347fa	-0.06410213
249	0xbcc62bf6	-0.024190884
250	0xbdac8ba2	-0.0842507
251	0xbe3b7d70	-0.1830957
252	0xbe88d437	-0.26724407
253	0x3e0d58b0	0.13803363
254	0x3dcd638b	0.10028752
255	0xbeb9e327	-0.36306116

f_model.fc2.bias f4 [10]
0	0x3d4fbfec	0.05072014
1	0xbd198bd7	-0.037486877
2	0x3cabb01c	0.020957999
3	0xbe366786	-0.17812929
4	0x3dfef56f	0.124491565
5	0xbdb66b6d	-0.089072086
6	0x3da0765d	0.07835076
7	0x3c97c3dd	0.018526012
8	0xbdbe4f62	-0.09292485
9	0xbdbdd970	-0.092699885
