models/Adversarially trained models/robust_cnn_model_0.pt (torch, 456900 bytes, 8 tensors)

conv1.weight f4 [32, 1, 3, 3]
00000000: 99c9 78bd 6c0d a8bd 1d42 c7be 4fbd 9c3e
00000010: 3247 cabd 5dd4 e33e 6f9d 603e 49ba 9d3e
00000020: c848 c73e dbe9 d43e cc06 353e 1f2d d13e
00000030: 6b5a babe 7e4b 8ebe 9df9 d43e b7a8 fdbd
00000040: d70d aebe e32b d1be f985 783e 01fa 0cbe
00000050: b925 c0be 01ac fcbd 9513 cb3c e4c9 05be
00000060: 5306 373e c993 a83e e831 d13e bbf7 d53e
00000070: 86f5 b63e 7456 633e a95c 263b b1a5 4cbe
00000080: 98d8 2ebe 308c f9be b799 5cbe f6bb 8abe
00000090: 4fd3 c33e 14cd 123f f91b 033f 6d68 803a
000000a0: 17c1 243e 9841 a33e 82cc 9c3e 4058 c43e
000000b0: 84b3 85be a57d 8d3d d053 fbbe bdbb 3fbe
000000c0: 99cf b2be f53e c43c 7772 ffbd 7de9 77be
000000d0: 76df 303e 8d03 aa3e 80cd 9abd 270a a43d
000000e0: 280b a83d b7d1 56be 4275 2fba 19e7 fb3e
000000f0: 758f e9bd a432 463e 5c9f 543e 10cd 4a3e
00000100: 9b12 bd3d e15a de3c 8fb5 813e 43ce 4b3e
00000110: 5466 6cbe 1bdb de3e 612b 06be 7b19 c6be
00000120: 01b4 4cbe 443a 713d 6231 953e 8faf c1be
00000130: 56c6 5e3e 52fe 093f 5367 07be 3f4a cc3e
00000140: 0331 c03e 8c93 d3bd 4d37 353e 7346 003f
00000150: 508f fbbd 8560 a2be ff22 1e3e 27ee 0cbf
00000160: 1929 663d 6c8d 0cbe 15d9 ba3d e3f5 d43e
00000170: 7f6d 2a3e d37b 033f 87f2 f33e ca99 d6bd
00000180: 05a8 ca3e f5cd 073f 6fcf f33d 14c8 133c
00000190: ed39 7cbe 92a1 7cbe 36f0 063e 0f7e 96be
000001a0: 5c88 cebe d1fb 063f d110 b23e 3b59 d5bd
000001b0: 48b5 0abd 49b1 a13e 2a1e 87bd 22d5 a73e
000001c0: 3ff7 0c3f 6ac8 623e d6ca b83e 6fac d13e
000001d0: 6d37 0c3f daed d73e 9c23 9f3e 7f8d 803e
000001e0: b6b7 3bbe d772 543e 5ea9 863e 2c7b 33be
000001f0: 8375 b6be 9776 3abc 19f5 4f3e 1157 303d
00000200: 1ad2 d43e 9313 d43e d50b e13e 9030 1cbd
00000210: 3bfa 6cbe da82 653c bee4 923e d2b5 84be
00000220: 078d 713d 6c23 b23e 23b0 abbe bfc1 19be
00000230: e828 913e e467 8ebe a8ff 143e 1389 e33e
00000240: 478b 443e 6b48 dd3e 4b1f ba3e 2d9d 81bc
00000250: 217f 003f 5b6f dd3e e341 a73e 14dd f53d
00000260: 831a 243e 9645 773e 8842 e3bd b98c 21bd
00000270: 3b33 e63e caf6 323e f93b 9e3e 8d2b cc3e
00000280: 9299 893e 2cdc 85be 82ad 193d 2515 e0be
00000290: 3bc2 babe 4616 aebd 9b90 783e 1aa0 2d3b
000002a0: d91b 403e 0468 033e db5f a03e 9fee cfbd
000002b0: 820f 853e 9438 94bd 1999 5ebc 1078 553e
000002c0: eb3a 0f3e 49d5 043f ed77 0b3f 6ea5 81be
000002d0: 839d b3bd ef3e 2e3e 0b89 5abe 8bd6 babe
000002e0: 7006 55be ccdc 5cbe b5fc 09bd 31a0 6fbe
000002f0: 26d9 f33b 8f9a 0d3e efee e73c 8483 d73e
00000300: 7360 34be 209b 0d3f dfdc a43e 33c7 393e
00000310: 9aa0 b63d 7eda 3ebd 3bc6 e5bb 7788 a73e
00000320: 75b4 8d3e 49fe 28bd e2d1 6e3e 31f3 c43e
00000330: 47c2 e43e 5706 20bc 63a2 ec3e ef76 8b3e
00000340: 72fd 1ebe a2de fa3e 6e95 8fbd 7287 023e
00000350: 50b0 c93e 28a1 c23e 7b90 ef3d dcaf 853e
00000360: 613c df3e 154c d13e 9871 1d3e 55cf b23e
00000370: 607b 923e faed 09bc c3a2 e73e 7103 873e
00000380: 15c0 063e e5f8 843d 6861 c83e 1177 9d3e
00000390: 6c58 323e 5554 cd3e 728c 223d 70f0 3bbe
000003a0: 4e07 55be 3709 ca3e e820 243d 1484 bc3e
000003b0: d519 b73e 0a3f a23e fe97 0d3f 0455 0c3f
000003c0: 8e81 48be eae0 d43d 253d 973e 0a5d 1fbe
000003d0: 8496 803e c7f6 9e3c 3541 f93e f8c7 ad3e
000003e0: 0768 323e 3744 c3bd 84df 98be 9165 62be
000003f0: 1863 c7be 6313 76be a796 9dbb 0a54 4a3d
-0.060739134 -0.08205685 -0.38917628 0.3061318 -0.09876861 0.44497958 0.21935056 0.30806187
0.38922715 0.41584668 0.17678374 0.40854737 -0.36397108 -0.2779197 0.4159669 -0.123856954
-0.33994934 -0.40853795 0.24269857 -0.13767244 -0.3752878 -0.12337495 0.02478961 -0.13065296
0.17873506 0.3292525 0.40858388 0.41790566 0.35734195 0.22200948 0.002538482 -0.19985081
-0.17074811 -0.48739767 -0.21543013 -0.27096528 0.38247153 0.57344174 0.5121456 0.0009796746
0.16089283 0.31885982 0.30624777 0.3834858 -0.26113522 0.069087304 -0.4908738 -0.1872396
-0.3492401 0.023955802 -0.12473004 -0.24210162 0.17272744 0.33205834 -0.07558727 0.08009749
0.08205253 -0.20978437 -0.0006693193 0.4919975 -0.114043154 0.19355255 0.20763916 0.19804788
0.09232064 0.027142944 0.2533383 0.19902901 -0.2308591 0.4352654 -0.13102485 -0.38691315
-0.19990541 0.058893457 0.2913924 -0.37829253 0.21755347 0.53903687 -0.13223009 0.39900395
0.37537393 -0.10330877 0.17696877 0.50107497 -0.12283194 -0.31714264 0.15443037 -0.5505089
0.056191538 -0.13725823 0.09123436 0.41593847 0.16643332 0.51360816 0.4764597 -0.10478552
0.39581314 0.5304864 0.11904799 0.00901987 -0.24631472 -0.24671009 0.1317757 -0.2939305
-0.4033841 0.5272799 0.34778455 -0.1041741 -0.03386429 0.3158057 -0.0659755 0.32779795
0.5506477 0.22146764 0.36092252 0.4095187 0.54772073 0.42173654 0.31081855 0.25107953
-0.18331799 0.20746933 0.26301092 -0.17527455 -0.3563653 -0.011380813 0.20308341 0.043051783
0.41566545 0.41421184 0.4395434 -0.03813225 -0.2314233 0.014008248 0.2869014 -0.25919968
0.058972385 0.3479265 -0.3353282 -0.15015315 0.28351521 -0.27813637 0.1455065 0.44440517
0.19193755 0.43219313 0.36352 -0.015822018 0.50193983 0.4324902 0.32667455 0.12005058
0.16025738 0.24147639 -0.11096674 -0.039440844 0.4496096 0.17476955 0.3090513 0.39876977
0.26874977 -0.2614454 0.037518986 -0.43766132 -0.3647631 -0.08500342 0.24273913 0.0026493133
0.18760623 0.12832648 0.31323132 -0.10152935 0.25988394 -0.07237354 -0.013586306 0.20846581
0.13987319 0.5188795 0.5447987 -0.25321525 -0.08770277 0.17016195 -0.2134134 -0.36491808
-0.20803237 -0.21568602 -0.033688266 -0.23400952 0.0074416576 0.1382849 0.028312175 0.42092526
-0.17614917 0.55314827 0.3219976 0.18142395 0.08917351 -0.04659509 -0.0070121563 0.32721302
0.2767674 -0.04125813 0.23322251 0.3846679 0.44679472 -0.009767137 0.4621764 0.27239177
-0.15526369 0.4899798 -0.07010923 0.12746981 0.39392328 0.38013577 0.11697479 0.26110733
0.43600753 0.40878358 0.15375364 0.34923807 0.28609753 -0.008418554 0.45241365 0.26369813
0.13159211 0.06492785 0.39136815 0.30754903 0.17416543 0.40103403 0.03968472 -0.18353438
-0.20803568 0.39460155 0.040070444 0.36819518 0.35761896 0.3168872 0.55310047 0.54817224
-0.19580671 0.103944615 0.29538837 -0.15562835 0.25114834 0.019404782 0.48682562 0.33941627
0.17422496 -0.09534495 -0.2985803 -0.22109057 -0.3894279 -0.24030833 -0.004809219 0.049396552

conv1.bias f4 [32]
00000000: 0cc2 5ebc c84e b83d c63d 19be 0bcb ab3e
00000010: ee69 e6bc 0edc 4c3e 487d cdbc 3d20 2cbe
00000020: ebdd aa3d a971 b43e b70f b93d 7c71 983e
00000030: a228 1ebd 3765 8a3e 5290 453e b10b 833e
00000040: d359 5a3e 2458 c73d 16c7 bf3d db15 873e
00000050: ffe6 823e dccf cdbc aa60 5a3d c818 01be
00000060: fe5e 143e cccf ccbd 7f3b 3c3e 9242 31bc
00000070: 92a3 953e 8064 9f3e 4497 08be 5211 da3e
-0.013596069 0.08999401 -0.14964971 0.33553347 -0.028126683 0.20005819 -0.025084153 -0.16809173
0.08343109 0.35242966 0.090362005 0.29774082 -0.03861297 0.27030346 0.19293335 0.25594857
0.21323328 0.09733608 0.093641445 0.26383862 0.2556686 -0.02512353 0.053314842 -0.1260711
0.14489362 -0.100005716 0.18382071 -0.010819094 0.29226357 0.31131363 -0.13338953 0.4259134

conv2.weight f4 [32, 32, 3, 3]
00000000: e3f7 133c 6a2d 683c b015 0fbe f715 933d
00000010: 4f2f 953d 0fae 3b3c c8da 193e a297 0a3e
00000020: 1d5c b73d 1b38 f23c 6cf0 123d 80eb b53d
00000030: b788 843d 92af fb3c 904f 7fbd ceed 433e
00000040: db92 ce3d 2ae9 a23d 9756 323e 8b6d 4e3e
00000050: 1c45 dcbb fa92 973e 25ae 0f3e c13e 163e
00000060: dded 4f3e fd57 6c3e 04f8 973d 6e06 8abb
00000070: 5f6b 2d3d 55dc 71bc 7016 91bc 57f3 4cbd
00000080: bf64 b2bd b133 23bb e639 663d d625 d03a
00000090: b021 4dbc d0cd 88bd 1e1c cebd 086f 8c3d
000000a0: 3835 2abb 2841 c8bd a2d6 0d3d 3aa2 ae3d
000000b0: 1b51 963d 7580 8c3b c317 733d 9abb 12be
000000c0: 3e58 21bd 167c 5fbd 4280 54bd 3630 48be
000000d0: 5da9 1dbd e682 4abd 4847 78bd fb1f cebd
000000e0: b85e 2fbd b1d9 b13d 42ea 1b3d 500f 6c3c
000000f0: 05eb 053d 5acb bb3d 9f30 3e3d 5e8e cfbc
00000100: e71e 79bd 26b7 34be a53f b3bc 0b34 c7bd
00000110: 12cf 3abe 4cab f9bc e5c8 bebd 47f1 a1bd
00000120: 49de 92bd a444 f6bd e433 d4bd 5327 8e3d
00000130: 4c62 013d 0d44 233d 0d6e aa3d 388a 6e3c
00000140: 2ac8 913d f3a1 0ebd d6fe d13c f3d0 5d3d
00000150: e0ae 8fbd 1ee8 d0bb 2f76 6bbd 7246 b53d
00000160: baae 003d 606a babc c7b0 503d 1578 f9bd
00000170: a3f1 afbd 446a a03d 5aee fbb7 70c1 023d
00000180: bbc2 793d e42e 5d3d 283e 0f3d 5b09 853d
00000190: f8d9 9e3d a324 aa3d 24fe cb3d 570d ff3d
000001a0: 32cd 013e a6a9 5a3d 9856 1dbd a709 2abd
000001b0: 0467 5e3a 62e9 d1bd b3eb abbd f85f 7e3d
000001c0: c6f8 ce3d 3106 9f3d 040c 4a3d 3860 853d
000001d0: 401e 4eb9 3a9c 86bd aacd 38bc 08eb ab3b
000001e0: 93c7 a13c 91e2 1d3b c0a8 bebd 5746 633d
000001f0: 4283 913d d6f4 d63d b783 a03c 6af2 32bd
00000200: 2dd4 bfbd 00b0 4f3c 124b 8fbc 1e28 80ba
00000210: 82fc ca3d dba5 aa3d b7c7 353c f1b5 59bd
00000220: afcd d0bd f47f d63c 9dcb 843d e03f 073d
00000230: ca17 573c 49b3 ba3c 0dc7 e93c 776e 3abd
00000240: 5916 90bd b20c f9bd 3a32 d3bc e6c6 82bc
00000250: 39a7 19bd 6cf8 80bb 5a00 083d 698f 0c3d
00000260: 94c9 793d 3588 9d3d a154 70bd 8db8 21bd
00000270: 93ce 833d ad83 1e3d 0c7c 8a3d d9a6 0b3e
00000280: be60 5a3d 1a68 923d 843c ac3d 6b7e a13d
00000290: 1a71 58bd 591f 473e 6de8 a73d b9ef bc3d
000002a0: 57e0 043e 4d9d 0c3e 29cb 593d dbc7 c43c
000002b0: 5a99 90bd 83c1 94bd 493b 513d 55b7 983d
000002c0: 26b9 cdbc c4a3 853d 4a7f d53c 9223 6b3c
000002d0: 368a ca3c 7076 863d ae07 05bd b950 d6bc
000002e0: c925 a9bd 78ee 0e3d 846b 45be 0f52 dfbd
000002f0: af9f dbbb 1644 59bd 466f abbd b31e bfbd
00000300: 3e5d 893d 49be c2bd 7fdc c63b 66ac d13d
00000310: bc83 0b3e bf72 a43d c41c 9a3c 8204 bfbd
00000320: 1791 babd d76d 6b3d 7d91 b53d 1727 243d
00000330: 9444 843d 1935 3d3d 52b8 af3d ce73 97bd
00000340: 050b 5abd d4c0 65bd 33d1 7f3b c3d6 9e3d
00000350: f9a6 393c 8eb2 f33c 948b 853d a12a 8f3d
00000360: 9efe 74bd 3e45 89bd 982a efbd ebac 613c
00000370: c9c6 613c 5ba1 6b3c a201 e43d b5bf cf3d
00000380: 8287 e73c 0781 4ebd deb4 0ebe 99a4 293c
00000390: c286 4a3d f332 61bd 0197 25bd 025b ef3d
000003a0: a70b d93d 27e5 7c3d 6f55 e4ba f116 d9bd
000003b0: 6255 a2bd cf2b b03d c062 c2ba 6dcf f4bc
000003c0: a595 f83d 02e2 c13d ddca c23d ce57 3c3b
000003d0: 0d45 8abd a466 9bbd 51e8 723d 3bde 383d
000003e0: 1048 b03c 33ca 523e d9bf 383e 8722 1d3e
000003f0: f2ea dc3c c32a 9ebd 5500 01bd ced3 c43d
0.009031269 0.014170984 -0.13973117 0.07181924 0.07284414 0.011455073 0.15024865 0.13534406
0.08953116 0.029567769 0.035873815 0.08882809 0.06471389 0.030723367 -0.062331736 0.19133684
0.10086604 0.07954629 0.17415844 0.20158975 -0.0067221057 0.29604322 0.14031275 0.14672376
0.20305581 0.2308044 0.07420352 -0.0042121923 0.042338725 -0.014762004 -0.017710894 -0.050036754
-0.08710622 -0.0024902637 0.05620756 0.0015880417 -0.012520239 -0.066798806 -0.10063957 0.06857115
-0.0025971662 -0.097780526 0.034628518 0.08527036 0.073396884 0.004287774 0.059348833 -0.14329377
-0.039390795 -0.054561697 -0.05188013 -0.19549641 -0.038491596 -0.04944124 -0.060614854 -0.100646935
-0.04281494 0.086840995 0.038065203 0.014407948 0.032694835 0.091696456 0.046433087 -0.02533644
-0.060820486 -0.1764799 -0.021880934 -0.09726723 -0.18243054 -0.030477189 -0.09315661 -0.07907348
-0.07171304 -0.12024811 -0.1036146 0.06941094 0.031587884 0.03985982 0.08321772 0.014559321
0.071182564 -0.034822416 0.02563421 0.054154348 -0.07015777 -0.006375327 -0.057485756 0.08851327
0.031416632 -0.022755802 0.050949838 -0.12181107 -0.085910104 0.078327686 -3.0032523e-05 0.031922758
0.060976725 0.053999797 0.034971386 0.06495925 0.07756418 0.08307769 0.09960583 0.12453716
0.12675932 0.053384446 -0.03841266 -0.04151311 0.00084839785 -0.10249592 -0.083945654 0.06210324
0.101060435 0.07764853 0.049327865 0.06512493 -0.0001965696 -0.065727666 -0.011279503 0.005246524
0.019748485 0.0024091343 -0.0930953 0.055487003 0.071051136 0.104959175 0.019594057 -0.043688215
-0.09366641 0.012676239 -0.017491851 -0.0009777581 0.09911443 0.08332416 0.011094979 -0.05315203
-0.10195481 0.02618406 0.06484149 0.0330199 0.01312823 0.022790568 0.028537298 -0.045515504
-0.070355125 -0.121606246 -0.025780786 -0.015963983 -0.03751299 -0.003935864 0.03320346 0.034316454
0.060983256 0.07691995 -0.05867446 -0.039482642 0.06435885 0.038699795 0.06761941 0.13637866
0.053314917 0.07148762 0.0840998 0.078854404 -0.052842237 0.19445552 0.081986286 0.09225411
0.12976204 0.1373188 0.053172264 0.02402108 -0.070604995 -0.07263472 0.05108193 0.07456843
-0.0251127 0.065253764 0.026061673 0.014351742 0.024724107 0.06565559 -0.032478027 -0.026161538
-0.0825916 0.03489539 -0.19279295 -0.10904323 -0.0067023854 -0.053043447 -0.08370833 -0.09332027
0.06707238 -0.0950895 0.0060687657 0.102379605 0.13624471 0.080296986 0.018812545 -0.09327032
-0.09109705 0.0574778 0.0886564 0.04007634 0.06458393 0.046193216 0.08580078 -0.07395135
-0.053233165 -0.0560921 0.0039034605 0.07755806 0.011331313 0.029748227 0.06520763 0.06990553
-0.059813134 -0.0670266 -0.11678046 0.013774137 0.013780304 0.014381732 0.11133124 0.10143987
0.028262857 -0.05041602 -0.13936183 0.010354185 0.04944492 -0.05498023 -0.04042721 0.1168728
0.10597926 0.061741974 -0.0017420481 -0.10600079 -0.07926442 0.08602106 -0.0014830455 -0.029884065
0.121379174 0.09466936 0.09511349 0.002873886 -0.06751452 -0.075879365 0.059303585 0.04513381
0.021518737 0.20584945 0.18041934 0.15345202 0.0269675 -0.07723 -0.031494457 0.09610711

conv2.bias f4 [32]
00000000: fcd7 d3bc c615 e039 1c60 50bc 14b3 e1bc
00000010: cb7d 163d a444 23bd b711 8d3c f323 7cbd
00000020: d8d4 0c3c afcd 103d c9a8 17bc 8cac e0bb
00000030: d2b7 373d 6b35 ea3c 7b65 35bc b4aa 93bb
00000040: cfa2 8ebc 0151 863c 2f2b 4cbd 4b39 3cbd
00000050: 9312 9d3c 73ea f0bc 4884 c5bc adf8 503c
00000060: b1c4 ecba 898a e1bb e4c3 2bbd cae0 bdbc
00000070: d12f 703d ed9a da3c 30e7 66bd 2d7e 223c
-0.025859825 0.00042740832 -0.012718227 -0.027551211 0.03674106 -0.039860383 0.017220361 -0.06155772
0.008595668 0.035352405 -0.00925655 -0.0068565067 0.04485304 0.028589925 -0.011071558 -0.0045064334
-0.017411618 0.016396048 -0.04984587 -0.045953076 0.019173896 -0.02940867 -0.024110928 0.012754601
-0.001806399 -0.0068829698 -0.041934863 -0.023178477 0.05863935 0.026685202 -0.05637282 0.009917778

fc1.weight f4 [128, 800]
00000000: 755f c1bc 113d cabc 79be 453b dae2 eabc
00000010: a824 cf3c b019 0ebd 802b 2fbd cfe4 463a
00000020: 3103 3cbc 26f9 15bd 2b1a d93a 3fd3 9fbb
00000030: 0663 313d 9aac 4e3d 2192 3b3d 7799 dd3d
00000040: b810 553c 0d05 e03c e363 353d 835b 743d
00000050: dbd5 a0bb 2a65 603d 251d 4c3d cbad b3bc
00000060: 23e8 6cbc cd0f 373d fa90 d73b e67f 673c
00000070: 1181 443d cad0 713d e30b b0bc 0db8 223d
00000080: 40de 123d 2afd c83c afc2 0dbd fe0e 0bbd
00000090: 7953 2d3d da53 9e3c c0a7 54bd cc12 69bd
000000a0: 2d31 27bc 6524 19bd 23a6 a33c 6a8b 923c
000000b0: bade 643c 48cc 0dbd c4e8 46bd 7946 d33c
000000c0: abe6 243d 5cbd bd3b 6172 aa3b 2df1 163d
000000d0: a0c2 9b3d fc7b 263d 129f 06bd 23d7 69bc
000000e0: b91a 383c 8bea dd3b 773a aabd 4714 ebbd
000000f0: 74db 6dbd 5c77 a2bb 92f1 6f3c fce6 dc3b
00000100: 53c2 09bd 4716 17bc 05b3 363d ef3a 523d
00000110: 5b80 4f3d c3b8 0d3d 0a2e 5c3b 9895 0fbc
00000120: f6d6 ffbb 63cb 943d c376 143d 3ca8 323d
00000130: 1f34 273d b8ff 813c 6a8f 70bd 3d3d 03bc
00000140: 0789 b83c 56bf a7ba 4ec9 52bd b9da 1bbd
00000150: afda 86bc 156a 0d3d 52e6 f53c 2088 483d
00000160: 1f2d f93a e653 ce3c fd34 183c f1f4 a03c
00000170: e614 903d c6c6 193d 2085 573d d79d 973c
00000180: 789b edbc 5a86 a7bc 7608 12bd 0b65 db3b
00000190: 2017 cbbc 3b52 113c 189c 123d ed00 35bc
000001a0: c0ff 86bc baa7 953b 9808 7abb d316 1d3d
000001b0: 9811 88bd 5782 68bd 74af 063d 5236 1d3d
000001c0: 5a23 b4bb b078 e83b 6dcf b0bc 03ab 50bd
000001d0: fdd0 29bd ff62 e33c a422 ddbb b834 c63c
000001e0: 9cde 70bd 7b26 42bc 9bb8 2bbc 8efd ce3a
000001f0: 3227 eabb 7727 d0bc 0a2f 923c 25be 133c
00000200: 9457 033d faff 933d 8f74 79bc 2aef 5cbb
00000210: 80c0 063c 9f78 3bbd 20af d5bc 169a 42bc
00000220: 260a 5c3d e9c0 913a ada1 21bd d162 2abd
00000230: d905 2b3c 850c f63c c415 c638 d9a1 863d
00000240: 4591 3fbb 6665 f8bc e68d 8dbb 24ae e63b
00000250: 6dc5 913d 57e4 d63d 329e 923c 3c2a b6bc
00000260: 2c13 f7bc 0c49 b73c b0dc 6a3c 3e02 c03c
00000270: 12f7 08bd 9450 063c fb90 f8bc 9ca2 2f3c
00000280: 223a 05bd 0c17 f0bc 259d dabb 1ffb f4ba
00000290: 7d94 063d 849d e1bb 2266 c4bb 5cdd 083d
000002a0: 796f 26ba 086d c33b 7e1f fd3c 6a81 c53c
000002b0: fa16 723c 2b5f ca3c 72fc ce3c 47a6 b83b
000002c0: 448e dbbc 0aa2 6bb9 e6ee 513b 7cde 213d
000002d0: 49c6 2cbc 0373 5dbd 7054 2a3c ac79 a5bc
000002e0: a80c 24bd 9839 023d 4991 0f3d 700f 21bc
000002f0: 32b4 6dbd ac27 51bc 78ac 093d ba93 263b
00000300: 3bdf 163d af36 93bc 027b ed3b e7ee ec3c
00000310: f079 f4ba d97d af3c 1c06 1e3d 82cf d33c
00000320: d7c6 473b c9bc c33c 5c1d 913c 71ea e9bc
00000330: c089 98bc 8c13 293d 1ebe be3c 3e65 b93c
00000340: d7b8 8ebd b356 7bbd 0aa0 563b b45e 113b
00000350: 8815 2f3d 8488 0d3c 99de babc a932 6dbc
00000360: 47c0 ccbc 0fb2 403c 72a3 1e3d 19d3 e1bb
00000370: 92e5 443c a127 b0bc d132 9e3c d3f0 f7bb
00000380: 9526 293c e2d2 5d3c dfb6 52bd f97c f83b
00000390: ab92 233c 1189 883d 9013 be3c 5937 bbbc
000003a0: 2e01 a0bc 18dc 973d 49cc 003e c2b7 353d
000003b0: 0c1f babc 9c55 623c e8a9 5c3d 01c8 a03d
000003c0: 7aef 923c 1d8e 8ebb 4c28 4b3d a5e6 5f3c
000003d0: 596a 21bd 7417 0d3d 5e4b 833c b1dd df3c
000003e0: 88ea 933a ae8c 3abd 5280 8f3c 9410 2d3d
000003f0: d84e 0fbc 792b 38bd 60ab 7e3c 025b f53c
-0.023605088 -0.024687322 0.0030173345 -0.028672624 0.025286034 -0.034692466 -0.042766094 0.0007587196
-0.01147537 -0.03661456 0.0016563585 -0.0048774774 0.043307327 0.050457574 0.045793656 0.10820287
0.013004474 0.027346158 0.044284713 0.059657585 -0.004908306 0.054783978 0.049832482 -0.021933457
-0.014459643 0.044692803 0.006578562 0.014129614 0.04797465 0.059037007 -0.021490043 0.039726306
0.035856485 0.02453478 -0.034609493 -0.033949845 0.042315934 0.019327093 -0.05191779 -0.05690269
-0.0102045955 -0.037388224 0.019976681 0.017888743 0.013969118 -0.034618646 -0.048561826 0.02579044
0.040259045 0.0057903957 0.0052016233 0.036851097 0.07605481 0.040645584 -0.032866545 -0.014272484
0.01123684 0.0067723445 -0.083119325 -0.11478477 -0.058070615 -0.0049580764 0.014644997 0.0067414027
-0.033632588 -0.00922162 0.04460432 0.051325735 0.05065952 0.03460003 0.0033596777 -0.008763693
-0.0078076078 0.072653554 0.036246073 0.043617472 0.04082119 0.015869007 -0.05873052 -0.008010206
0.022526277 -0.0012798111 -0.05146151 -0.038050387 -0.016461698 0.034524996 0.030017052 0.048957944
0.001901064 0.02518649 0.009289977 0.019648047 0.07035236 0.03754308 0.052617192 0.018507881
-0.029004797 -0.020449806 -0.0356526 0.006695395 -0.0247913 0.008869703 0.035793394 -0.011047584
-0.016479373 0.0045671137 -0.0038152095 0.038351845 -0.06643981 -0.056764927 0.03288217 0.038381882
-0.0054973783 0.007094465 -0.021583283 -0.05094434 -0.041459072 0.027757166 -0.0067485142 0.02419506
-0.058806047 -0.011849995 -0.010481025 0.0015792118 -0.0071457857 -0.025409443 0.017844696 0.009017502
0.032065943 0.07226558 -0.015225544 -0.0033711889 0.0082246065 -0.04576933 -0.026084483 -0.011877557
0.053720616 0.0011120114 -0.039460827 -0.041598145 0.010438406 0.030035267 9.44543e-05 0.06573839
-0.0029230874 -0.030321788 -0.004319894 0.007039802 0.07117734 0.10492771 0.017897699 -0.022236936
-0.030160509 0.022373699 0.014334843 0.02343857 -0.03343875 0.008197922 -0.03034257 0.010719921
-0.032526143 -0.029307865 -0.006671565 -0.0018690563 0.032856453 -0.0068852324 -0.0059936205 0.03341423
-0.0006349008 0.0059639253 0.030898806 0.024109561 0.014775986 0.024703583 0.02526686 0.005635056
-0.026801236 -0.0002247171 0.0032033264 0.03951882 -0.010545322 -0.05406476 0.010396108 -0.02019962
-0.040051132 0.031793207 0.035050664 -0.009830341 -0.058033176 -0.012765806 0.033611745 0.0025417642
0.036833983 -0.017970411 0.0072473297 0.028922511 -0.0018652063 0.021422314 0.038580045 0.025855783
0.0030483508 0.02389373 0.017714195 -0.028554173 -0.018620372 0.041278407 0.023284014 0.022631284
-0.06968849 -0.06136198 0.00327492 0.0022181692 0.042745143 0.008638505 -0.022811221 -0.01447741
-0.024994029 0.0117612025 0.038730092 -0.00689162 0.012017624 -0.021503272 0.01931134 -0.0075665503
0.01032414 0.013539048 -0.05144393 0.0075832573 0.009983699 0.06666768 0.023202688 -0.02285354
-0.019531813 0.074150264 0.12577929 0.0443647 -0.022719882 0.013814356 0.053872973 0.07850648
0.017936457 -0.0043504373 0.049598977 0.01366583 -0.03940806 0.034446195 0.016027149 0.02732739
0.0011285106 -0.04554432 0.017517243 0.04225214 -0.008746825 -0.044963334 0.015543789 0.029950622

fc1.bias f4 [128]
00000000: d4d1 7cbc cc47 ef3c 9c51 9c3c a108 4d3d
00000010: 5f4b 2b3d 5499 e6ba f933 35bc e915 993c
00000020: f5fd 083d cc4c f83c 31f8 b43c 9e27 0cbd
00000030: 1de2 3b3d 683d c63c 6f2c f13c 15e0 6b3c
00000040: 0fc4 d2bc 6ebc eb3c 48eb 173d 8966 533d
00000050: 32c7 20bd 3670 3cbb 9d35 9dbc e74a f43c
00000060: 460a b73c 5609 52bb f239 323d 886a a03b
00000070: d0ed 763c b43e 2e3b f331 463d 9624 e7bc
00000080: 1bcc 243d b1eb 29bc 4761 54bc 803d eebc
00000090: 179f 9b3c 116e 183d b88d f43c c59d 86bb
000000a0: 8e8c b3bc f27d b1bc 89f4 42bd d623 783c
000000b0: ed0d f7bc 3318 9dbc 7adf 0d3d f93b 12bc
000000c0: a728 d53c 8406 863c 8831 babc aa30 c3bc
000000d0: 33c1 a13c 8985 f13c 6869 9abc 80a1 583c
000000e0: 2331 babb 268f 89bc 5d38 b93c efb2 f4bc
000000f0: 54e3 3abd f071 fb3a 36be b03c d749 3b3c
00000100: 2f47 643c c620 12bd f6f1 5e3b d3bc aabc
00000110: 295d 933c 241b 0c3c 993e 0f3c 66b0 f43c
00000120: 94aa 0c3d 9d1a b0bc 0218 8bbc 7d60 8a3c
00000130: 9eaa 0b3d c1ee 823d b6fa 39bc 8986 8b3c
00000140: fc46 f83b 3e7c 10bd 5c01 81bc d382 aabc
00000150: e9bb 793c b111 753d 4489 053d 035a 323d
00000160: 7131 06bb 9060 8b3c 0631 043d 1041 313c
00000170: b669 c53c 9bc7 583c 85ba 3ebc 0762 c73c
00000180: 74e6 ee3c 13bc 9aba 356b ef3c 5752 ea3b
00000190: 22a3 05bc de68 85bc f81a 5c3b 4597 d33c
000001a0: 135a 533d a485 c2bc c4b0 663c c25b 2e3d
000001b0: fe9b c33c 5d05 f4bc 5545 73ba cb89 f0bc
000001c0: fd64 6b3c 1298 1f3c c9f4 073c 5b14 34bc
000001d0: 68b6 e2bc 46e9 30bc 1ac0 07bc d566 a03b
000001e0: 2fe1 903b 5884 f63c 1524 aabb add0 a83c
000001f0: 578e 163d 0804 b73b 01dd 0bbd 9e1a 193a
-0.015430886 0.02920904 0.019081883 0.050057057 0.041819926 -0.0017593303 -0.0110597545 0.018687205
0.033445317 0.030310057 0.022091003 -0.03421747 0.045869935 0.024199203 0.029440133 0.014396687
-0.025728254 0.028776374 0.037089616 0.051611457 -0.039252467 -0.0028753406 -0.019190604 0.029820872
0.022343766 -0.0032049022 0.043512292 0.004895512 0.015071347 0.0026587667 0.04838748 -0.028215688
0.040233713 -0.010371135 -0.012962646 -0.02908206 0.018996758 0.037214343 0.029852733 -0.004108163
-0.021917608 -0.0216665 -0.04759649 0.015145263 -0.030158008 -0.019176578 0.034636952 -0.008925431
0.026020361 0.016360529 -0.022728696 -0.023826916 0.019745445 0.02948262 -0.01884909 0.013222098
-0.005682127 -0.016791891 0.022609884 -0.029870478 -0.045626953 0.0019183736 0.021575075 0.011431179
0.013932987 -0.035675786 0.0034018732 -0.020841992 0.017988758 0.008551393 0.008742952 0.02986927
0.034342363 -0.021497065 -0.016979221 0.016891712 0.03409826 0.06393195 -0.011351278 0.017031925
0.0075768214 -0.035274737 -0.015747719 -0.020814335 0.015242555 0.059831325 0.03260161 0.043542873
-0.0020476247 0.017013818 0.032273315 0.010818735 0.024098258 0.013231183 -0.011641149 0.024338735
0.029162623 -0.0011805318 0.029225925 0.007150929 -0.00815657 -0.016285356 0.003358541 0.025828967
0.051599573 -0.023745365 0.01408023 0.042567976 0.023878094 -0.029787714 -0.00092800456 -0.02936258
0.014367339 0.009740846 0.008298107 -0.010991181 -0.027674869 -0.010797804 -0.008285547 0.004895071
0.004421375 0.030092403 -0.0051922896 0.020607317 0.03675684 0.0055851974 -0.034146313 0.0005840453

fc2.weight f4 [10, 128]
00000000: 2887 03be 346a 04be fdbb 5f3d 9e10 a13d
00000010: 5bd8 1f3e bca1 15bc cb9f b63d 02c3 a63d
00000020: cce7 13be 83a9 403c 11ae 68bd bdff 1ebd
00000030: f1b4 91bc e8f4 e43d 85b1 0c3d ce28 0dbe
00000040: e4e2 c63d 5925 833d 4f9c 5f3c 6882 9e3d
00000050: d354 82bd 8a96 d6bd 4fb7 44bd b683 c23d
00000060: 7991 8ebd e13e 7b3d 49fc b63d cd5f 3fbd
00000070: 18af 5d3d 9fc3 6cbe 105e b33d 9b8f 2ebc
00000080: daaf fdbc 64c9 ae3c ddae 21be 5fa5 58bd
00000090: 4095 e43c 8a52 10be 7c3a 01bc 7237 dfbd
000000a0: 258e 29bd 039c e3bd 2063 03be 09c2 94bd
000000b0: b888 99bd f664 5f3c 5c2d 66bd 4d4e 303d
000000c0: 6b36 a3bd 5b12 21bd c46f 693d cb67 663d
000000d0: 2b3a 08be 991b 29bd 6953 2abd 750a b43c
000000e0: 5f02 92bd af84 fbbc 5a55 94bd d76c 53bd
000000f0: e2d5 aebd 22bc 523d 4e0f b5bd 0c06 dd3c
00000100: 159d ac3d da4f 853a e368 cd3a 229f aa3d
00000110: 2dfe 883d 4b46 993d 89cd b9bd ee71 22bd
00000120: 8c5f 053e 1f91 83ba 66d4 a4bd 34e7 fa3c
00000130: b4f8 c63d d866 c13d ab60 19bb b0b3 02be
00000140: d8a8 133c 8552 55bd 870a 8b3c ed77 03be
00000150: d757 00be 2b2b 893d 7395 02be bc5c b33d
00000160: 9820 77bb 995b c4bd 5c7e 8dbd a5ae 9a3d
00000170: 4c4d 813d ba4a 9f3c 0dcf d9bb 3f1a 11bb
00000180: 13f4 adbd 78d2 e6bd d800 ae3d 0066 d0bc
00000190: 8df0 223d d4b5 8b3d 7044 953d dc0b f63d
000001a0: c2a2 2e3e 5625 93bc b6f6 85bd 4124 693d
000001b0: 3252 5fba 0bfb 723d cc36 d03d e049 5dbd
000001c0: 1e49 c23d e434 293d bdaf a4bd 431f 81bd
000001d0: ea66 08be b2b6 853d 7a92 85bd 1caf 093d
000001e0: fe1f 723d be71 1d3d 0879 f2bd a464 8dbc
000001f0: 4239 28be 0294 183e b7f9 853d 5be8 1a3d
00000200: fd33 9aba 3b0b c03d 50a3 0fbe da84 293d
00000210: 0ab5 10bd b63b c2bd 0add 90bd 93bf 64bd
00000220: 3d69 4f3c a7e9 003e b82f 9abd 4db5 49bd
00000230: d412 6e3d 4436 973c fece c83d 6e83 003d
00000240: a6dd 803d c121 0bbc f55d f7bd 4ffd 8d3c
00000250: e6e0 0d3e a892 40bd 7b76 81bd 8754 c7bd
00000260: e011 b0bd d3ff 90bd b5c7 1d3e 9aa0 f1bd
00000270: 2e3b 37bd 9f77 c93d 80a5 083e aaa9 c33d
00000280: 401d 4a3d bda9 bcbc 010e 06bd 10d2 983d
00000290: 622e 8dbd f5b0 de3d e20a 3b3d b865 dcbd
000002a0: 1208 053e 935d aabc 6c93 ccbd cf89 c73d
000002b0: 4747 84bd 6cd1 92bd e381 b23c 7b0e 96bd
000002c0: cd18 8b3d a738 883d f200 c53d 75d6 4dbd
000002d0: 7c0b f83d 3178 73bd 42b6 8dbd 4bf5 b5bc
000002e0: 36a8 6ebc c010 16be 311d ed3d 3a8f 063d
000002f0: dcc1 19bd 324a 1c3c 9ea3 863d 43cf 6d3c
00000300: 3a25 cabd cb5a b43d 1e5b 1b3d fe86 d73c
00000310: 0cbd ad3d 1603 613d 1b51 e2bd f368 58bd
00000320: 3f7d 053e 938f a2bd 60c0 d1bd ba06 84bd
00000330: a03a 45bd 28cb 25bd 1142 bd3d be5e 5dbd
00000340: 0798 183c c5e8 aebd d9c4 fd3d 66dd 013e
00000350: 2276 bd3d e517 f8bc a054 44bd f297 ecbd
00000360: b9be f4bd 7204 c63d 88a2 b53d b7da f73c
00000370: 4c1c aa3d 8a4c ac3d 2682 d73d ae05 48bc
00000380: c497 743d 39d5 2c3d b169 dcbd 0983 2fba
00000390: a720 c83c 4e57 7f3d 213c 2fbc 946b 8cbd
000003a0: 6410 3a3e a80c 483c c52f 3a3d 3919 2bbe
000003b0: ad6a 083d 2830 6ebd 0e9d 903d dce9 76bc
000003c0: 4ced e3bc 4ba7 cabd 43a7 b83d 8612 d5bc
000003d0: 5cf5 f4bd 146b d73d 5691 d43d 8b49 27bd
000003e0: d2a8 77bd 3930 acbd a8f9 e13b 8f20 253d
000003f0: e249 913d 48ff 803d 914d 53bd e258 023d
-0.12844527 -0.12931138 0.05462264 0.078644976 0.15609877 -0.009132799 0.08917197 0.081426635
-0.14443892 0.011759165 -0.056806628 -0.03881811 -0.017786475 0.11179525 0.034348983 -0.13785097
0.09711245 0.06403608 0.013648107 0.07739717 -0.06363835 -0.10477932 -0.04802638 0.09497778
-0.069613405 0.061339263 0.08934838 -0.046722222 0.05412206 -0.23121499 0.087581754 -0.010654355
-0.030967642 0.021336265 -0.15789361 -0.052892085 0.0279032 -0.14093986 -0.007887479 -0.10899247
-0.041395325 -0.11113741 -0.12830782 -0.07263572 -0.0749678 0.013634911 -0.0561956 0.043043423
-0.07969364 -0.039324146 0.056991354 0.05625133 -0.1330344 -0.041286085 -0.041583452 0.021977643
-0.071293585 -0.030702917 -0.07242842 -0.05161747 -0.08536889 0.05144895 -0.0884081 0.026980422
0.084283985 0.0010170892 0.0015671517 0.083311334 0.06689105 0.074841104 -0.09072406 -0.039659433
0.1302473 -0.0010037756 -0.08048324 0.030627824 0.09715405 0.09443444 -0.0023403566 -0.12763858
0.009012423 -0.05208065 0.016972793 -0.12838717 -0.12533508 0.06697687 -0.12752323 0.08757922
-0.0037708636 -0.09587783 -0.06908867 0.07552842 0.06313571 0.019444812 -0.006646997 -0.0022140888
-0.08493819 -0.112706125 0.08496255 -0.025439262 0.03978019 0.0682179 0.07288444 0.12013981
0.17054275 -0.01796214 -0.06541197 0.05691934 -0.0008519023 0.059321444 0.10166702 -0.05402553
0.09486602 0.041310206 -0.08041332 -0.06304791 -0.13320509 0.06528987 -0.06522079 0.033614263
0.05911254 0.03843855 -0.11839491 -0.017259903 -0.16428092 0.1490021 0.0654177 0.037819248
-0.0011764761 0.09377142 -0.14027143 0.041386463 -0.035328902 -0.09484045 -0.0707341 -0.055846762
0.012659368 0.12589131 -0.07528633 -0.049245168 0.058123425 0.018458493 0.098051056 0.03137534
0.06292276 -0.008491934 -0.12078468 0.017332701 0.13855323 -0.047014862 -0.063214265 -0.09732919
-0.085971594 -0.070800446 0.15408213 -0.117982104 -0.044734173 0.09837269 0.13344383 0.09553845
0.0493443 -0.023030156 -0.0327282 0.07461941 -0.068936124 0.108735956 0.045664676 -0.10761589
0.1299136 -0.020796573 -0.09989056 0.09743082 -0.064589076 -0.0716885 0.02179045 -0.07326981
0.0679184 0.066514306 0.09619321 -0.05025335 0.121115655 -0.059440795 -0.069195285 -0.022211691
-0.014566472 -0.14654827 0.115778334 0.032851435 -0.037538394 0.009539174 0.06574176 0.014514747
-0.09870382 0.0880638 0.037928693 0.026309486 0.084833235 0.054934584 -0.11050626 -0.052834462
0.13036059 -0.07937541 -0.10241771 -0.064465955 -0.048151612 -0.040476948 0.09241117 -0.05404543
0.00931359 -0.08540491 0.12391061 0.12682113 0.09251048 -0.030284831 -0.047932267 -0.11552419
-0.1195044 0.096688166 0.08868891 0.030255659 0.083061785 0.08413036 0.10522871 -0.012208385
0.059715047 0.042195532 -0.107623465 -0.0006695246 0.024429632 0.06233912 -0.010695488 -0.068564564
0.18170315 0.012210049 0.045455713 -0.1670884 0.03330486 -0.058151394 0.07061206 -0.015070405
-0.027823113 -0.0989519 0.09016278 -0.02600981 -0.11960861 0.105184704 0.10379283 -0.04084162
-0.060463734 -0.08407635 0.0068962164 0.040314253 0.0709417 0.06298691 -0.051587645 0.031823047

fc2.bias f4 [10]
00000000: 1d1c 1fbd 6d9e 28bd aa6f 513d ac28 cabd
00000010: 4734 873d aa0a 62bd 0b42 9dbd 258b 4c3d
00000020: 9d6a f4bc 2625 8d3d
-0.03884517 -0.04116671 0.05113188 -0.09871039 0.06601768 -0.05518595 -0.07678612 0.049937386
-0.029835993 0.06891851
