models/Adversarially trained models/robust_sequential_model_0.pt (torch, 461138 bytes, 12 tensors)

g_model.conv1.weight f4 [32, 1, 3, 3]
0.3121177 0.32360703 -0.24124628 0.22288184 0.024711557 -0.38586274 0.35459855 -0.061944578
-0.34482786 -0.2323144 0.17099442 0.05979049 -0.16422483 0.40500343 -0.02933852 0.29389662
0.44707096 -0.14181128 0.059496082 0.30015156 0.33612505 0.5072365 0.07331702 -0.123733155
0.1311881 0.4951791 -0.2294233 0.31977668 0.35193986 0.05702091 0.44872305 -0.07376332
-0.083998 0.2431687 0.21476701 0.43177077 0.06262979 0.017318867 -0.085530564 0.3650071
0.14634672 -0.26301637 0.4354336 0.4844844 -0.09981329 0.29065248 0.16664445 -0.21933758
0.36148858 0.51003337 0.35500446 -0.36042017 0.24189916 0.22387685 -0.12709533 0.040759757
-0.47769925 0.40499952 -0.3185597 0.26315525 0.44544393 -0.17079972 0.053572737 0.29533532
0.23544912 -0.2210177 -0.2011038 0.5323592 0.03966695 -0.39989588 0.12832488 0.29329967
-0.081768386 0.20826468 0.09067525 -0.09318972 0.43211123 0.43671927 0.17813872 0.011618743
0.080685794 -0.14914477 0.17065789 0.014534159 -0.23644643 -0.0125032 -0.21119598 -0.12688404
-0.33196852 0.333701 -0.17265795 0.37796718 0.22362576 0.0052931434 0.12438995 0.21212007
0.016654402 0.45299524 -0.11402604 0.13717456 -0.13959086 -0.25980937 0.074909426 0.44219604
0.12852149 0.2751718 0.117772244 0.3225511 0.47211182 0.17982088 0.09475509 -0.32326114
-0.3869607 -0.4361737 0.030367581 0.06282603 -0.23633447 0.16198835 0.36841464 0.4196437
0.09055003 -0.095857985 -0.018991591 -0.35761097 -0.29348704 -0.2610293 0.15308477 -0.06187639
-0.22196785 0.022729004 0.3769331 0.2582134 0.056539346 0.26065612 0.18697667 0.3944748
0.13502228 0.32252154 0.18532202 0.13620515 0.23052736 -0.12842014 0.09574535 0.40742964
0.2023263 0.41131786 0.22216181 0.47978646 -0.044702318 -0.42007267 0.2000645 -0.3206037
-0.48145172 -0.2914004 -0.37245026 -0.23425497 0.2220199 0.017196111 -0.435697 0.35242444
0.33435673 0.08454269 -0.10097315 -0.18928297 -0.42553735 -0.03204432 -0.14746556 0.0015410114
0.21840186 0.3996264 0.41923946 -0.34597865 0.025162758 0.13494028 -0.21907474 0.23056501
-0.0011805334 -0.19982986 0.30682394 0.3144388 0.3532039 0.5370143 0.0141549 0.5471044
0.53299713 0.13768888 0.4989649 -0.17800507 -0.18861409 -0.15822333 -0.2547572 -0.2138615
0.18931259 0.21154533 0.40523237 0.10013884 0.09246018 -0.002400083 0.18959752 0.29932207
0.43475413 0.4413723 -0.0066642417 -0.28127724 0.10002055 0.39473966 -0.35923925 0.2971303
0.073314175 0.38104424 0.46926814 0.3324599 0.43434194 0.3827906 0.0778953 0.23799948
-0.31125116 -0.13578036 0.15037312 0.2070721 -0.039546072 -0.32662213 -0.31533104 0.04345493
-0.1996225 -0.21125141 -0.2380186 0.39167857 0.23474918 0.19642399 0.47387528 -0.115098074
0.44050032 0.21881758 0.097962156 -0.32277516 0.036541514 0.0038363978 0.09600758 0.29023322
0.08989923 0.14923921 -0.12869167 -0.19400021 -0.01736213 0.098370306 0.37145445 -0.013165175
0.45442525 0.49192402 0.023423895 -0.15097405 0.09120508 0.31124568 0.4729824 -0.19416732
00000000: e4cd 9f3e d2af a53e 4409 77be 233b 643e
00000010: e46f ca3c cd8f c5be f18d b53e 99b9 7dbd
00000020: 478d b0be d3e3 6dbe 2919 2f3e dfe6 743d
00000030: 8e2a 28be 9c5c cf3e 5657 f0bc 9e79 963e
00000040: 7ce6 e43e fa36 11be 2ab2 733d 77ad 993e
00000050: 9518 ac3e 40da 013f 3c27 963d cf67 fdbd
00000060: 2c56 063e 1d88 fd3e f1ed 6abe c5b9 a33e
00000070: 7631 b43e c28e 693d 07bf e53e 3911 97bd
00000080: 2507 acbd 3701 793e e2eb 5b3e 0f11 dd3e
00000090: 0c44 803d 4ce0 8d3c a62a afbd 36e2 ba3e
000000a0: eadb 153e 15aa 86be 27f1 de3e 570e f83e
000000b0: e96a ccbd 67d0 943e d8a4 2a3e 089a 60be
000000c0: 0815 b93e 8c91 023f 25c3 b53e fe88 b8be
000000d0: 6ab4 773e f93f 653e 4725 02be b4f3 263d
000000e0: ff94 f4be 195c cf3e 421a a3be 49bc 863e
000000f0: 3a11 e43e 1fe6 2ebe 166f 5b3d 3136 973e
00000100: 9319 713e 7752 62be 28ee 4dbe b148 083f
00000110: d079 223d 27bf ccbe 9967 033e 602b 963e
00000120: 2f76 a7bd 5643 553e f2b3 b93d 40da bebd
00000130: af3d dd3e ab99 df3e ff69 363e 8a5c 3e3c
00000140: 983e a53d 68b9 18be f1c0 2e3e ae20 6e3c
00000150: 031f 72be 39da 4cbc c243 58be e4ed 01be
00000160: c7f7 a9be dcda aa3e 3fcd 30be ea84 c13e
00000170: 27fe 643e 1b72 ad3b 28c0 fe3d 0136 593e
00000180: d06e 883c feee e73e 7c86 e9bd 7d77 0c3e
00000190: e8f0 0ebe bc05 85be 1d6a 993d 8567 e23e
000001a0: 239b 033e 51e3 8c3e 9332 f13d 6b25 a53e
000001b0: a4b8 f13e f722 383e f50e c23d 7c82 a5be
000001c0: b61f c6be 2952 dfbe 6fc5 f83c efaa 803d
000001d0: aa01 72be 46e0 253e d8a0 bc3e 8adb d63e
000001e0: 4b72 b93d 3151 c4bd 4194 9bbc c918 b7be
000001f0: ef43 96be a2a5 85be 41c2 1c3e 1972 7dbd
00000200: 8a4b 63be 2d32 ba3c 60fd c03e 8c34 843e
00000210: cd95 673d b874 853e d076 3f3e 9af8 c93e
00000220: 4843 0a3e 8b21 a53e 0ec5 3d3e 5d79 0b3e
00000230: 5d0f 6c3e 9280 03be 2316 c43d 9e9a d03e
00000240: a02e 4f3e 4198 d23e 637e 633e 92a6 f53e
00000250: c719 37bd c413 d7be b5dd 4c3e 2b26 a4be
00000260: d780 f6be 6f32 95be cdb1 bebe 89e0 6fbe
00000270: 2f59 633e dcde 8c3c ad13 dfbe fa70 b43e
00000280: ce30 ab3e b824 ad3d 03cb cebd 65d3 41be
00000290: 08e0 d9be e840 03bd 3601 17be c3fb c93a
000002a0: bda4 5f3e d59b cc3e 8ea6 d63e 1d24 b1be
000002b0: 2122 ce3c c92d 0a3e 2155 60be 3c19 6c3e
000002c0: 21bc 9aba 33a0 4cbe 0718 9d3e 1ffe a03e
000002d0: 24d7 b43e c579 093f f4e9 673c 090f 0c3f
000002e0: 8072 083f 50fe 0c3e 5478 ff3e f646 36be
000002f0: 0d24 41be 4c05 22be 896f 82be 82fe 5abe
00000300: 29db 413e 579f 583e 9e7a cf3e 9815 cd3d
00000310: c35b bd3d b64a 1dbb da25 423e be40 993e
00000320: 1898 de3e 8dfb e13e b65f dabb 9203 90be
00000330: 93d7 cc3d 511b ca3e 35ee b7be 7621 983e
00000340: be25 963d 3b18 c33e ea43 f03e 2f38 aa3e
00000350: 1162 de3e 21fd c33e 9287 9f3d 23b6 733e
00000360: 505c 9fbe 020a 0bbe 69fb 193e b50a 543e
00000370: 10fb 21bd 043b a7be 1273 a1be ccfd 313d
00000380: d769 4cbe 4a52 58be 26bb 73be 188a c83e
00000390: 1762 703e 5f23 493e c89f f23e 8ab8 ebbd
000003a0: 4289 e13e b711 603e 62a0 c83d c942 a5be
000003b0: 8eac 153d 136c 7b3b 9f9f c43d 7399 943e
000003c0: 161d b83d 2ad2 183e c0c7 03be fea7 46be
000003d0: 073b 8ebc 5f76 c93d 472f be3e bfb2 57bc
000003e0: 6daa e83e 77dd fb3e 78e3 bf3c f198 1abe
000003f0: bbc9 ba3d 985b 9f3e c02a f23e ccd3 46be

g_model.conv1.bias f4 [32]
-0.015966048 0.13561164 -0.09987123 0.1910877 0.059992466 -0.24554962 0.27973342 0.07021112
-0.06527701 -0.22770953 -0.10670242 0.21936116 0.45764562 -0.017312335 -0.15276968 0.17655046
0.18094264 0.33508104 -0.08315792 0.23416743 0.14998595 -0.19364905 -0.13652791 -0.22454733
-0.2287301 0.08240518 -0.19808733 0.07538574 0.2045094 -0.035446282 0.071693905 0.38301775
00000000: 3bcb 82bc c7dd 0a3e 4a89 ccbd 7eac 433e
00000010: a9ba 753d 5c71 7bbe 3839 8f3e d9ca 8f3d
00000020: f4af 85bd b02c 69be cc86 dabd 36a0 603e
00000030: 8750 ea3e 99d2 8dbc a86f 1cbe a5c9 343e
00000040: 0749 393e be8f ab3e b34e aabd 96c9 6f3e
00000050: eb95 193e f04b 46be f9cd 0bbe bcef 65be
00000060: 3938 6abe 0cc4 a83d 68d7 4abe d763 9a3d
00000070: ea6a 513e 1f30 11bd 41d4 923d e71a c43e

g_model.conv2.weight f4 [32, 32, 3, 3]
-0.084145725 -0.13725102 0.022292946 -0.14030184 0.15557228 0.14187506 0.027902283 0.14308342
0.05104033 -0.09235327 0.061400753 0.12892093 0.06421454 0.09967507 0.070253186 0.13073732
0.075984254 -0.018638926 -0.0955276 -0.0785864 0.06570401 -0.023747265 0.08520782 0.04052722
0.07758416 0.0911982 -0.04220197 -0.08310866 -0.053145546 -0.014719497 0.0007198932 0.040936153
0.0069724987 0.045751665 0.013556456 -0.026163446 -0.07965976 -0.047468614 0.033208713 -0.09296025
0.041280963 0.04712416 0.121652864 0.014662363 -0.08398546 -0.15138894 -0.025990674 0.017107494
-0.09078919 -0.038293913 -0.09449666 -0.012650434 0.006578113 -0.01117829 -0.040096592 -0.013478705
-0.078519195 0.010377837 -0.084442705 0.0072713643 -0.04433217 0.02090431 -0.043108616 -0.018015895
-0.019301154 -0.010120439 0.030920055 -0.11974929 -0.1438605 -0.054575752 -0.04190413 0.016788555
-0.10427699 0.042072773 0.09772895 -0.026334273 0.1141408 -0.012705475 0.08680471 0.02827069
-0.077359036 0.0010866101 -0.07057197 -0.08317587 0.01573231 -0.10000435 -0.11373462 -0.021099763
-0.03398214 -0.10622254 -0.14661445 0.032781344 0.102511875 0.021096358 0.13534796 0.042865533
0.1324621 0.02230233 -0.086435184 -0.06416486 0.03703952 0.08283733 -0.039886683 0.050910316
-0.03764689 -0.0052958955 0.04780693 -0.090785384 -0.041440483 -0.10007735 -0.085507505 -0.11261914
-0.17033741 0.057374865 -0.22183861 0.039341126 0.052908994 -0.025975268 -0.13155119 0.025098816
-0.31043398 -0.16650544 -0.041001193 -0.20028198 -0.07619145 -0.06605367 -0.05929924 0.054779064
0.1428522 0.0747535 0.09859962 -0.08073147 0.041152455 -0.004010538 -0.10639398 -0.06557035
0.022526218 -0.000524654 0.038873386 0.03695153 0.035619885 0.027754625 -0.008429775 -0.09105462
0.03715077 -0.13285832 0.07093196 -0.0678005 0.15467803 0.1279668 -0.026497038 0.064636685
0.06266805 -0.010937967 -0.06699588 -0.12000537 -0.14968565 -0.10099021 -0.2043433 -0.10493381
-0.15353659 -0.08878644 0.110141605 0.20166704 0.09652549 0.040968716 -0.025710441 -0.17929421
-0.027977956 -0.0718687 0.05458093 0.0012999637 0.07188821 0.044914853 0.091272816 0.103819825
-0.10955935 0.021124389 -0.10637805 -0.09048442 -0.08936815 -0.13386989 0.0779866 -0.12771763
0.040350817 0.057587393 0.034477092 0.05472926 -0.05879734 -0.092325844 0.11406133 0.2048586
0.03614368 0.07251533 -0.03786092 0.08927312 -0.014956583 -0.017356684 -0.050405305 -0.14508088
0.18174815 -0.088720016 0.14943516 0.18058306 0.08920977 0.075746 0.0031294522 -0.1689959
0.005641464 0.07570045 0.021220248 0.09442818 -0.04399141 0.14362755 0.09088966 -0.021574898
-0.05441601 0.03622485 0.02225853 -0.035548195 -0.028174236 0.0141784195 -0.008483422 0.047533493
0.027200984 -0.09163722 0.042387865 0.090890564 0.06440862 0.103359334 -0.009746703 0.080668055
0.046165038 -0.07055704 -0.06891576 0.1476556 0.19117956 0.13610888 0.14278518 -0.02231377
0.07536177 0.119857356 -0.019509785 -0.17912756 0.07494841 0.14579704 0.015565973 0.07015383
0.014735346 0.14947388 0.09099708 -0.023073722 -0.040474117 -0.04805503 0.06011293 -0.017801993
00000000: 9854 acbd 888b 0cbe b29f b63c 49ab 0fbe
00000010: 574e 1f3e b247 113e 5493 e43c 7684 123e
00000020: aa0f 513d b623 bdbd 5b7f 7b3d d903 043e
00000030: ea82 833d 7122 cc3d e7e0 8f3d 01e0 053e
00000040: a29d 9b3d a9b0 98bc f9a3 c3bd e8f1 a0bd
00000050: d38f 863d a089 c2bc 7081 ae3d dfff 253d
00000060: 72e4 9e3d 1fc6 ba3d f9db 2cbd e034 aabd
00000070: 25af 59bd 0c2a 71bc 37b7 3c3a abac 273d
00000080: 8f79 e43b 1966 3b3d e61b 5e3c b954 d6bc
00000090: a824 a3bd 736e 42bd dc05 083d f261 bebd
000000a0: 3a16 293d 4305 413d 2325 f93d 683a 703c
000000b0: 9200 acbd b405 1bbe 65ea d4bc 0425 8c3c
000000c0: afef b9bd 14da 1cbd 7787 c1bd c443 4fbc
000000d0: 368d d73b 2525 37bc 533c 24bd c9d5 5cbc
000000e0: acce a0bd ce07 2a3c 4cf0 acbd a044 ee3b
000000f0: a695 35bd 843f ab3c a992 30bd 1296 93bc
00000100: 741d 9ebc 33d0 25bc 0e4c fd3c 1e3f f5bd
00000110: 2b50 13be d38a 5fbd aaa3 2bbd 2788 893c
00000120: 2d8f d5bd 8054 2c3d 1e26 c83d f9ba d7bc
00000130: a7c2 e93d a02a 50bc abc6 b13d ef97 e73c
00000140: 6a6e 9ebd 966c 8e3a 0988 90bd 1c58 aabd
00000150: 0ce1 803c 15cf ccbd b2ed e8bd 69d9 acbc
00000160: db30 0bbd 348b d9bd 1922 16be bb45 063d
00000170: bff1 d13d 45d2 ac3c a898 0a3e c593 2f3d
00000180: 25a4 073e 60b3 b63c ee04 b1bd de68 83bd
00000190: c0b6 173d 9ea6 a93d 3860 23bd 5687 503d
000001a0: a033 1abd 3189 adbb 33d1 433d b0ed b9bd
000001b0: 7fbd 29bd 5bf5 ccbd 8f1e afbd dda4 e6bd
000001c0: ee6c 2ebe e801 6b3d a929 63be 2924 213d
000001d0: 1ab7 583d 16ca d4bc 5bb5 06be 089c cd3c
000001e0: 34f1 9ebe 6780 2abe def0 27bd b816 4dbe
000001f0: 430a 9cbd 2647 87bd c3e3 72bd 0360 603d
00000200: d947 123e 5d18 993d 99ee c93d 8a56 a5bd
00000210: 7a8f 283d d56a 83bb 16e5 d9bd bf49 86bd
00000220: e788 b83c ef88 09ba b339 1f3d 7d5a 173d
00000230: 28e6 113d ab5d e33c 0a1d 0abc d87a babd
00000240: 682b 183d 030c 08be c744 913d fdda 8abd
00000250: eb63 1e3e bb09 033e 5110 d9bc 3d60 843d
00000260: 1b58 803d 2935 33bc 2335 89bd 60c5 f5bd
00000270: 3247 19be f5d3 cebd 5f3f 51be 8ae7 d6bd
00000280: b238 1dbe aad5 b5bd ec91 e13d ce81 4e3e
00000290: 28af c53d d0ce 273d b49e d2bc e798 37be
000002a0: 0732 e5bc e62f 93bd 4190 5f3d 8b63 aa3a
000002b0: 203a 933d a3f8 373d 3eed ba3d 7d9f d43d
000002c0: a760 e0bd 0e0d ad3c bcdc d9bd e54f b9bd
000002d0: a606 b7bd 3015 09be 70b7 9f3d 69c8 02be
000002e0: e646 253d c2e0 6b3d da37 0d3d ca2b 603d
000002f0: 7bd5 70bd 5515 bdbd fd98 e93d 74c6 513e
00000300: 650b 143d eb82 943d 0d14 1bbd d3d4 b63d
00000310: 750c 75bc 9b2f 8ebc cb75 4ebd 1590 14be
00000320: 301c 3a3e d7b2 b5bd 8805 193e c4ea 383e
00000330: 9db3 b63d b820 9b3d 7f17 4d3b 430d 2dbe
00000340: 08dc b83b d608 9b3d 16d6 ad3c 9063 c13d
00000350: 5630 34bd 1a13 133e 5c24 ba3d d7bd b0bc
00000360: 52e3 5ebd 8260 143d 8557 b63c fc9a 11bd
00000370: a8cd e6bc 9a4c 683c 0dfe 0abc 7bb2 423d
00000380: 99d4 de3c 4bac bbbd e69e 2d3d d524 ba3d
00000390: abe8 833d 0fae d33d a3b0 1fbc 4b35 a53d
000003a0: 8d17 3d3d 3680 90bd b523 8dbd 0833 173e
000003b0: 93c4 433e 2060 0b3e 4736 123e 5ecb b6bc
000003c0: 4657 9a3d c677 f53d fcd2 9fbc 376d 37be
000003d0: 8d7e 993d d24b 153e 6c08 7f3c d0ac 8f3d
000003e0: 856c 713c ae0f 193e ad5c ba3d 1a05 bdbc
000003f0: 30c8 25bd 5ad5 44bd fa38 763d 7cd5 91bc

g_model.conv2.bias f4 [32]
-0.044789024 -0.05053651 -0.068863556 0.015505897 -0.068158485 -0.062269475 -0.040016804 -0.04133079
-0.037713595 -0.028346188 0.044919573 -0.038022075 0.019229032 0.025953533 -0.035793215 -0.002942251
-0.021856785 -0.07987963 -0.0854452 0.024062824 0.01655539 0.0032845712 -0.09670695 -0.02873493
-0.060918517 -0.022536367 0.008642066 -0.036869388 -0.03206997 0.004708912 -0.06429475 0.036229827
00000000: b274 37bd 5fff 4ebd 5608 8dbd 720c 7e3c
00000010: ad96 8bbd 470e 7fbd a9e8 23bd 794a 29bd
00000020: 9279 1abd 4436 e8bc 96fd 373d 09bd 1bbd
00000030: 3486 9d3c 819c d43c e89b 12bd c8d2 40bb
00000040: 000d b3bc ee97 a3bd e5fd aebd 661f c53c
00000050: 2b9f 873c f641 573b 4b0e c6bd 8465 ebbc
00000060: b285 79bd 309e b8bc 7497 0d3c 5b04 17bd
00000070: cd5b 03bd 384d 9a3b f7ac 83bd ba65 143d

g_model.fc1.weight f4 [128, 800]
0.06377633 0.010272531 0.0037798043 -0.0025223456 -0.0069503463 0.07350763 -0.00077810464 -0.049048148
0.009269695 -0.038103845 0.012497763 -1.2302137e-06 -0.043301437 0.01868985 0.015955482 0.0035389604
0.04786225 -0.0036245047 0.043228637 0.033687904 -0.063311994 -0.024979966 0.0487608 -0.008984597
-0.15400998 -0.0032102687 0.026003111 -0.0018070454 0.0047401516 0.012896664 0.028397476 0.0017005745
0.013733217 0.017909452 0.004778017 0.024409402 -0.02971032 0.0027812377 0.01617261 0.016221305
-0.004453461 -0.00057633827 0.003968948 -0.025741665 0.019330736 0.0071404264 0.0075628026 0.03149287
0.02067597 -0.009387923 -0.0110726 0.007942366 0.014747561 -0.036796995 0.018607264 0.044302598
-0.00012941964 0.013526517 -0.037546236 0.018318187 -0.02736044 0.005593064 -0.028647164 -0.10436649
0.016486695 0.027390068 0.07153617 0.038908977 0.020348413 0.042227037 -0.041099373 -0.017447574
0.008609067 -0.007294678 0.03487402 -0.025657132 -0.010772654 0.06613808 0.105268255 -0.038912807
-0.03589358 0.0004822558 0.027231859 0.025069715 0.0045854314 -0.025685363 0.003007378 -0.014142401
0.02364957 0.019285304 0.04156803 0.039808456 0.038709443 0.08508888 0.044251893 -0.020514332
0.061155725 0.048711367 0.01943 -0.051920395 -0.033796005 0.04855095 0.011025412 0.063591704
0.02930441 0.036113046 0.06058906 0.015700279 0.0039297505 0.017558353 0.026603764 -0.041583084
-0.0881888 -0.062739305 -0.030349996 0.042797204 0.044037975 -0.090917915 0.07521775 -0.014458044
-0.060862962 -0.041303724 0.01868212 0.023603464 -0.037774935 -0.011072434 -0.027245691 -0.029663663
0.026299996 -0.03030431 0.023425736 0.019516552 -0.007944156 0.0022756744 -0.058781434 0.0073145516
0.0007867059 -0.04552368 0.056398403 0.01913495 0.029724665 0.010774633 -0.023145644 0.05807117
0.0034954012 -0.03979061 0.04618633 -0.045754574 0.009672572 -0.019342994 0.029680869 0.0563963
-0.034652498 -0.01773679 0.038610697 0.05304975 0.04877699 -0.033565458 -0.081330694 0.007373248
-0.008692615 0.031819105 -0.062180214 -0.076711506 -0.042717516 0.04402095 0.060330942 -0.047411982
0.02731613 0.038706206 0.008037368 -0.021231879 -0.009574043 0.013751054 -0.02897591 -0.027213061
0.038591627 0.018048258 0.023728358 0.024698531 0.009325914 0.024475921 0.055471968 0.047552705
-0.05647339 -0.00041870392 0.0119344015 0.0045575486 -0.03395828 0.035775647 0.0037151421 -0.03769349
-0.025913736 0.028813727 -0.020083558 -0.07306196 0.069115505 -0.004330449 0.032119878 0.035277102
0.02729574 0.048617873 -0.024415256 -0.054513615 -0.013323157 0.025618682 0.011563396 0.064478055
-0.055845976 -0.073798455 -0.034345448 -0.019824373 -0.065332256 -0.09789659 -0.060512077 -0.018755542
0.029327976 -0.012490981 0.029447135 0.077483214 0.015161061 -0.0057934104 -0.0070448117 -0.046763632
-0.027146922 0.029620605 -0.014845525 -0.013503928 -0.008470961 -0.027208386 0.030036626 0.03609272
-0.005842017 0.012239641 -0.017524032 0.007890699 0.0052869064 0.01575212 -0.0048314002 0.061694082
0.015967663 0.007217332 -0.039143648 0.00969707 -0.024749316 -0.058899835 0.023751872 0.017262893
-0.013509563 0.035755325 0.010267254 -0.05604129 0.012726507 0.016932948 -0.02278128 -0.019117732
00000000: 2a9d 823d 1e4e 283c 98b6 773b f04d 25bb
00000010: bbbf e3bb 2b8b 963d b8f9 4bba b6e6 48bd
00000020: ebdf 173c c712 1cbd 6bc3 4c3c d21d a5b5
00000030: d95c 31bd 751b 993c 12b5 823c e7ed 673b
00000040: 350b 443d 1989 6dbb 8310 313d 54fc 093d
00000050: b8a9 81bd c9a2 ccbc 68b9 473d 2234 13bc
00000060: cbb4 1dbe 5f63 52bb 7a04 d53c 62da ecba
00000070: 4653 9b3b 884c 533c d3a1 e83c d0e5 de3a
00000080: 4901 613c d8b6 923c e990 9c3b 3af6 c73c
00000090: 0f63 f3bc 6d45 363b 6c7c 843c 8be2 843c
000000a0: 57ee 91bb 6815 17ba f30d 823b 2fe0 d2bc
000000b0: 7e5b 9e3c 3dfa e93b 63d1 f73b abfe 003d
000000c0: a760 a93c cecf 19bc da69 35bc b320 023c
000000d0: c19f 713c 72b8 16bd 436e 983c a476 353d
000000e0: d2b4 07b9 539e 5d3c 15ca 19bd 0610 963c
000000f0: 0023 e0bc 0546 b73b 75ad eabc 19be d5bd
00000100: 1b0f 873c 2361 e03c 8e81 923d 055f 1f3d
00000110: b7b1 a63c 42f6 2c3d d157 28bd 37ee 8ebc
00000120: 0b0d 0d3c 3208 efbb 0fd8 0e3d e82e d2bc
00000130: c97f 30bc 6773 873d e296 d73d 0963 1fbd
00000140: 2605 13bd 47d7 fc39 5915 df3c 015f cd3c
00000150: 6341 963b 1c6a d2bc 6e17 453b 87b5 67bc
00000160: bebc c13c 37fc 9d3c 3d43 2a3d 310e 233d
00000170: cb8d 1e3d 1443 ae3d 7941 353d ac0d a8bc
00000180: 6d7e 7a3d 9285 473d aa2b 9f3c 7baa 54bd
00000190: ae6d 0abd 5cdd 463d eea3 343c 5e3c 823d
000001a0: cd0f f03c 46eb 133d 3c2c 783d df9d 803c
000001b0: 23c5 803b 89d6 8f3c 23f0 d93c 0653 2abd
000001c0: 549c b4bd 777d 80bd 8ea0 f8bc 1f4c 2f3d
000001d0: 2a61 343d 2c33 babd c40b 9a3d 6fe1 6cbc
000001e0: 714b 79bd 182e 29bd 3f0b 993c 0d5c c13c
000001f0: e4b9 1abd 2769 35bc 5b32 dfbc 3601 f3bc
00000200: 1773 d73c bf40 f8bc 54e7 bf3c 2de1 9f3c
00000210: 3528 02bc 7b23 153b cdc4 70bd e8ae ef3b
00000220: f03a 4e3a 0a77 3abd 0302 673d e6c0 9c3c
00000230: 2481 f33c 1688 303c ef9b bdbc 09dc 6d3d
00000240: 1a13 653b 7bfb 22bd e12d 3d3d 2669 3bbd
00000250: b579 1e3c 3375 9ebc 4b25 f33c cfff 663d
00000260: c7ef 0dbd bf4c 91bc 4026 1e3d b24a 593d
00000270: 62ca 473d ef7b 09bd b590 a6bd 4a9b f13b
00000280: 786b 0ebc c054 023d aeb0 7ebd ec1a 9dbd
00000290: 90f8 2ebd 504f 343d 941d 773d 1133 42bd
000002a0: 14c6 df3c 668a 1e3d 2aaf 033c 7aee adbc
000002b0: 72dc 1cbc 1a4c 613c e35e edbc eded debc
000002c0: 4112 1e3d f1d9 933c f961 c23c 9354 ca3c
000002d0: b8cb 183c ba81 c83c 9336 633d a0c6 423d
000002e0: a450 67bd 7d85 dbb9 8288 433c 7d57 953b
000002f0: d617 0bbd 7c89 123d be79 733b 7d64 1abd
00000300: 0b49 d4bc c40a ec3c 4686 a4bc 82a1 95bd
00000310: 6e8c 8d3d 70e6 8dbb 2290 033d b97e 103d
00000320: 519b df3c 8923 473d 8102 c8bc ab49 5fbd
00000330: 5f49 5abc 45de d13c 6674 3d3c 120d 843d
00000340: c0be 64bd a523 97bd d0ad 0cbd b966 a2bc
00000350: ebcc 85bd 027e c8bd 83db 77bd 39a5 99bc
00000360: 3941 f03c f9a6 4cbc 1e3b f13c 85af 9e3d
00000370: 1966 783c a6d6 bdbb 2ad8 e6bb 398b 3fbd
00000380: 3963 debc e9a6 f23c a53a 73bc 943f 5dbc
00000390: c9c9 0abc 1fe4 debc 5f0f f63c f6d5 133d
000003a0: 646e bfbb c688 483c 8f8e 8fbc fe47 013c
000003b0: c93d ad3b 970a 813c b950 9ebb efb2 7c3d
000003c0: 9ece 823c 5e7f ec3b 1755 20bd 76e0 1e3c
000003d0: 14bf cabc f440 71bd 4993 c23c e96a 8d3c
000003e0: 3757 5dbc 2d74 123d fc37 283c 8d8b 65bd
000003f0: d782 503c f7b6 8a3c cf9f babc ca9c 9cbc

g_model.fc1.bias f4 [128]
-0.034929704 0.018028365 0.00734089 0.011933336 0.0125279855 0.0023304871 -0.015418192 0.019468158
0.0008249518 -0.02284129 -0.0008320974 0.0048902766 -0.015065128 -0.010696249 -0.014467958 0.0030266652
-0.0081708785 -0.021128891 0.026719367 -0.03864912 0.003107052 0.0047711055 -0.03073277 0.01022449
0.03472789 0.014329465 0.008808185 -0.020741748 -0.024844646 0.009545723 -0.0313258 0.013430926
-0.015046623 0.005682606 -0.028169377 -0.02105261 -0.0071863937 -0.00036706912 -0.013346229 0.000951579
0.016487615 0.019714475 0.018896334 0.021331046 0.0048271245 0.03185978 0.012330069 0.031756055
-0.044048406 0.027619345 0.014343841 -0.026247585 0.02218885 0.001144321 0.011846083 -0.0019102932
0.029621199 -0.01242748 0.02302419 -0.011530651 -0.00084612495 -0.0035239665 -0.027888605 0.0076370705
0.018477272 0.023431132 -0.013546014 -0.03674678 0.0299751 0.027433272 5.422983e-05 -0.0025106946
0.007965709 0.019760214 0.03922065 -0.0020921826 0.028526153 0.016777804 0.03189986 0.005918221
0.0070472895 -0.029811619 -0.012814394 -0.0034310187 0.009948747 0.027946074 -0.020436045 0.005161881
0.018343916 0.00249318 -0.0076862667 -0.041808818 0.003961977 0.035677887 -0.036244325 0.015701877
-0.030358195 -0.022214785 0.02112361 -0.028414316 -0.011265929 -0.002984128 -0.0005880554 -0.009410192
0.021841252 0.011617774 -0.014542084 0.006606478 0.0086738095 0.025599495 0.005981209 0.015272496
-0.03853942 0.010313621 0.008093702 -0.007899015 0.047808412 0.041006107 -0.0051883357 -0.03782404
-0.021211006 -0.034172382 -0.03193922 -0.013210202 0.015425443 0.015019441 0.020253025 -0.021188341
00000000: 7312 0fbd 39b0 933c d98b f03b 0a84 433c
00000010: 2e42 4d3c 16bb 183b 969c 7cbc b07b 9f3c
00000020: 9441 583a a81d bbbc 1c21 5aba 9d3e a03b
00000030: bad3 76bc 523f 2fbc 040b 6dbc 045b 463b
00000040: 26df 05bc 7f16 adbc 93e2 da3c 8a4e 1ebd
00000050: af9f 4b3b ef56 9c3b 4ac3 fbbc 9f84 273c
00000060: d53e 0e3d 22c6 6a3c 3550 103c 99ea a9bc
00000070: 0087 cbbc aa65 1c3c 7b4f 00bd 630d 5c3c
00000080: 1c86 76bc 2735 ba3b 77c3 e6bc 8676 acbc
00000090: d77b ebbb 2f73 c0b9 24aa 5abc 6373 793a
000000a0: 0911 873c 4080 a13c 7ccc 9a3c 72be ae3c
000000b0: db2c 9e3b 677f 023d 0f04 4a3c a312 023d
000000c0: 1a6c 34bd f741 e23c 6e02 6b3c 2d05 d7bc
000000d0: 64c5 b53c 0bfd 953a 1316 423c ce62 faba
000000e0: 28a8 f23c a19c 4bbc 3a9d bc3c 0eeb 3cbc
000000f0: 7cce 5dba 59f2 66bb a576 e4bc 6440 fa3b
00000100: a65d 973c a5f2 bf3c 1af0 5dbc cb83 16bd
00000110: 578e f53c bebb e03c d674 6338 778a 24bb
00000120: 9b82 023c 2ce0 a13c d5a5 203d 001d 09bb
00000130: aeaf e93c 9b71 893c 6da9 023d a3ed c13b
00000140: f3ec e63b 7f37 f4bc 77f3 51bc f1da 60bb
00000150: 1200 233c 2aef e43c 7e69 a7bc ff24 a93b
00000160: fb45 963c 9f64 233b 14dd fbbb b93f 2bbd
00000170: 79d3 813b fa22 123d ee74 14bd 39a1 803c
00000180: c0b1 f8bc c8fb b5bc 6c0b ad3c 24c5 e8bc
00000190: bb94 38bc 5c91 43bb bb27 1aba 352d 1abc
000001a0: 6dec b23c 7a58 3e3c ec41 6ebc 277b d83b
000001b0: 981c 0e3c 08b6 d13c 05fe c33b 7e39 7a3c
000001c0: 83db 1dbd 76fa 283c 729b 043c df6a 01bc
000001d0: c1d2 433d 05f6 273d ea02 aabb 61ed 1abd
000001e0: b4c2 adbc 57f8 0bbd b3d2 02bd 9a6f 58bc
000001f0: ffba 7c3c 1a14 763c ace9 a53c 2c93 adbc

g_model.fc2.weight f4 [10, 128]
-0.17329337 0.007478932 0.029515393 0.031160435 -0.10913252 -0.095602855 0.06635725 -0.039497923
-0.01034732 0.044220235 0.029675385 0.06443211 -0.19519524 0.09123606 0.07151027 -0.13325436
-0.10853916 -0.020792548 0.14011332 0.08310178 0.00808532 -0.052657455 -0.040967524 0.08549295
0.06143975 -0.1149261 0.043447137 0.018940955 -0.01697058 0.006175063 -0.025167054 -0.06355709
-0.124003805 -0.036777407 0.090299204 -0.08682162 -0.1167015 -0.031996172 -0.14228937 -0.035943
0.09976031 0.013351756 -0.06625662 0.027799584 8.076424e-05 0.086086445 0.008642942 -0.052369162
0.11118339 0.07434307 -0.19801718 -0.07309202 -0.06411927 0.078883074 0.013323541 -0.00790118
0.055533316 0.07853375 0.09053684 0.07365936 0.021736749 -0.11879618 -0.043263536 0.08645227
-0.13803186 0.07277889 0.02878785 0.03218623 0.00050157006 -0.12027031 -0.073332496 0.05753049
0.04085013 0.007404958 0.06060111 0.09858041 0.014855433 0.03520818 -0.05235406 0.05024046
0.07816834 -0.048060216 -0.11458633 -0.11792099 -0.059764467 -0.08080171 -0.069169834 0.14798172
0.076192245 -0.009484559 0.024826024 -0.10469228 0.023007954 0.10102347 0.03612778 0.07108536
0.08017373 0.09371361 -0.08539978 0.0586339 -0.057036534 -0.017665954 -0.031370707 0.12205475
-0.055798583 0.0021941243 -0.02659163 -0.01646749 0.055655517 -0.012261551 0.048683282 0.049891375
-0.032529607 0.050393183 0.08534893 0.07965105 -0.059201483 0.11805307 0.011329218 0.025394661
0.039649542 -0.13110489 0.10718529 -0.07821411 -0.037892688 -0.02297482 0.042653363 -0.046758138
-0.06682243 0.06377866 -0.12856944 -0.14549759 0.048315994 0.029625082 0.050368022 -0.038409684
-0.0760129 -0.025481647 -0.13916418 -0.08576855 0.051032025 0.0881396 -0.079862714 -0.087122254
-0.03423941 0.006626383 0.15597281 0.033273812 0.07785559 -0.09132429 -0.07391205 -0.121928744
-0.110637315 -0.056660913 -0.010911421 -0.11523555 0.09433414 0.07390975 0.0024530261 0.07946073
0.02635715 0.11140091 -0.10166671 0.0018251563 0.04344761 -0.062390186 -0.018789303 -0.06892226
0.067782536 -0.06341083 0.076422915 -0.0855738 0.017729914 0.071638994 0.06719972 0.028249664
0.058821052 -0.100741684 0.08705069 0.07741875 0.05554267 0.06116265 0.15625025 -0.05389412
-0.11052194 -0.05290868 -0.08678224 0.15691379 -0.06120903 0.08139222 0.06486686 -0.018351518
0.05036595 0.06517982 -0.11711681 -0.039648715 0.11075963 0.019925302 0.1415223 -0.114807345
-0.12840472 0.15660548 0.07756923 -0.115939476 0.03497658 0.13173369 0.011246065 -0.027616048
-0.047471087 -0.017433163 0.089468464 0.023915038 -0.075582765 -0.047233693 -0.05118121 0.13426347
-0.02112153 -0.014989237 0.026009273 0.014540207 0.0706288 -0.17124249 -0.04610492 0.09834895
0.029525934 0.124482006 0.013217426 -0.012849137 0.091052204 -0.018377312 0.05422024 0.059846498
-0.017238274 -0.0036895883 0.012021396 0.035875596 -0.027386097 0.034116805 -0.037032716 0.07393569
-0.04053772 -0.12280579 0.027364869 -0.09737977 0.051489126 -0.06112641 -0.08385405 0.012735458
0.041552223 -0.036426283 0.018326443 -0.039458092 0.037655123 0.1126125 -0.1717685 -0.040291388
00000000: d173 31be d411 f53b 44ca f13c 2b44 ff3c
00000010: df80 dfbd 6ecb c3bd 4fe6 873d 93c8 21bd
00000020: ce87 29bc 4720 353d cb19 f33c fbf4 833d
00000030: 43e1 47be f9d9 ba3d fa73 923d d573 08be
00000040: c749 debd 2255 aabc de79 0f3e 4431 aa3d
00000050: 4a78 043c 58af 57bd 90cd 27bd ee16 af3d
00000060: 3fa8 7b3d 605e ebbd a0f5 313d 102a 9b3c
00000070: e305 8bbc 2f58 ca3b 232b cebc 382a 82bd
00000080: b5f5 fdbd e8a3 16bd caee b83d 89cf b1bd
00000090: 3201 efbd 6b0e 03bd 4eb4 11be f838 13bd
000000a0: 224f cc3d 53c1 5a3c 8db1 87bd f4bb e33c
000000b0: f95f a938 174e b03d 209b 0d3c 0c81 56bd
000000c0: 1eb4 e33d 2e41 983d 04c5 4abe 45b1 95bd
000000d0: f750 83bd 738d a13d fb4a 5a3c f373 01bc
000000e0: e776 633d 4dd6 a03d 616b b93d b8da 963d
000000f0: 4411 b23c 694b f3bd 1b35 31bd e30d b13d
00000100: 3958 0dbe 190d 953d 7fd4 eb3c b5d5 033d
00000110: cc7b 033a 4850 f6bd 592f 96bd 17a5 6b3d
00000120: 7752 273d 4aa5 f23b df38 783d 87e4 c93d
00000130: 3464 733c 7436 103d 3671 56bd f1c8 4d3d
00000140: b916 a03d cada 44bd 3dac eabd 8f80 f1bd
00000150: 96cb 74bd 5e7b a5bd eaa8 8dbd 8588 173e
00000160: ae0a 9c3d 2065 1bbc f25f cb3c e868 d6bd
00000170: 2d7b bc3c 65e5 ce3d b9fa 133d 3495 913d
00000180: 2032 a43d ecec bf3d 14e6 aebd 1a2a 703d
00000190: 249f 69bd 31b8 90bc 927e 00bd d7f7 f93d
000001a0: 0e8d 64bd 4ccb 0f3b b1d6 d9bc d4e6 86bc
000001b0: 0af7 633d ace4 48bc 1f68 473d e65a 4c3d
000001c0: c43d 05bd 1569 4e3d 6bcb ae3d 1720 a33d
000001d0: 417d 72bd cfc5 f13d 2f9e 393c 7708 d03c
000001e0: 8f67 223d 5c40 06be f683 db3d b82e a0bd
000001f0: 5d35 1bbd b135 bcbc 4bb5 2e3d 7685 3fbd
00000200: 33da 88bd 639e 823d b5a7 03be 52fd 14be
00000210: fee6 453d 4db0 f23c b34e 4e3d 7953 1dbd
00000220: a7ac 9bbd e3be d0bc 0e81 0ebe 6ca7 afbd
00000230: f506 513d 8982 b43d 108f a3bd 276d b2bd
00000240: a03e 0cbd 2122 d93b 56b7 1f3e 1f4a 083d
00000250: c072 9f3d 3b08 bbbd 335f 97bd c7b5 f9bd
00000260: d195 e2bd 4615 68bd d1c5 32bc 9e00 ecbd
00000270: 4232 c13d ff5d 973d f3c2 203b 4fbc a23d
00000280: f3ea d73c 2926 e43d a336 d0bd 153a ef3a
00000290: 1ff6 313d da8c 7fbd 06ec 99bc 1d27 8dbd
000002a0: 92d1 8a3d 8add 81bd 9e83 9c3d 5141 afbd
000002b0: 533e 913c 77b7 923d 02a0 893d d76b e73c
000002c0: 58ee 703d a851 cebd a247 b23d b98d 9e3d
000002d0: b680 633d b085 7a3d 1100 203e 15c0 5cbd
000002e0: 5459 e2bd c6b6 58bd e3ba b1bd 02ae 203e
000002f0: 52b6 7abd f7b0 a63d ebd8 843d ec55 96bc
00000300: 874c 4e3d ff7c 853d f0da efbd b166 22bd
00000310: f2d5 e23d 633a a33c 39eb 103e 1d20 ebbd
00000320: 877c 03be 305d 203e 9edc 9e3d ad71 edbd
00000330: 9a43 0f3d 32e5 063e 6a41 383c 0d3b e2bc
00000340: 0b71 42bd fecf 8ebc 3e3b b73d 78e9 c33c
00000350: 23cb 9abd 1e78 41bd 63a3 51bd 5d7c 093e
00000360: 0f07 adbc 6b95 75bc 6611 d53c 0c3a 6e3c
00000370: d5a5 903d 315a 2fbe 83d8 3cbd 2d6b c93d
00000380: 5fe0 f13c 6cf0 fe3d e78d 583c 3085 52bc
00000390: 9479 ba3d 048c 96bc 0b16 5e3d 9a21 753d
000003a0: 4837 8dbc 05cd 71bb 64f5 443c 4af2 123d
000003b0: cf58 e0bc 10be 0b3d 9eaf 17bd 986b 973d
000003c0: e10a 26bd 9a81 fbbd 4a2c e03c 0b6f c7bd
000003d0: 43e6 523d b05f 7abd acbb abbd 62a8 503c
000003e0: aa32 2a3d ba33 15bd 5621 963c cf9e 21bd
000003f0: 423c 1a3d 62a1 e63d 15e4 2fbe 9508 25bd

g_model.fc2.bias f4 [10]
-0.008462925 0.051169448 -0.026109844 0.02111291 -0.027355244 0.09673069 -0.08016576 0.021841971
-0.08304865 -0.036114782
00000000: 15a8 0abc 0e97 513d 50e4 d5bc fbf4 ac3c
00000010: 1b18 e0bc bd1a c63d f22d a4bd efed b23c
00000020: 6915 aabd 18ed 13bd

f_model.fc1.weight f4 [32, 10]
-0.25371778 -0.3073426 -0.17835078 -0.17006478 0.5028734 0.12586513 0.41000476 0.012420052
-0.12889005 -0.21665496 -0.35506496 0.017015014 0.51721126 0.38827762 -0.24620596 0.0702787
0.098740295 -0.06860075 -0.10271566 0.06640398 0.19884357 0.24493209 0.31551877 -0.0824352
0.09186431 -0.26252073 -0.3967966 0.03944001 -0.20187245 -0.1553101 -0.28208297 0.4685825
-0.2545213 0.3890643 -0.2750074 -0.30565175 -0.1525275 -0.30535376 -0.30517006 0.22687493
0.14947994 -0.11743904 -0.07319563 -0.20301323 0.058033958 -0.12294782 0.030256677 0.1204124
-0.06042374 -0.08728231 -0.13665067 0.0040076254 -0.04097579 0.29484582 -0.08690954 -0.1769028
-0.1302415 0.20797269 -0.26597932 -0.32487082 -0.025109999 -0.23642042 -0.298996 -0.013959068
-0.30391678 -0.08439008 -0.088940464 0.27512172 0.34172383 -0.2586508 -0.42962348 0.16998379
-0.024983203 -0.44107607 0.20284402 0.08110739 -0.32169548 -0.3545041 0.36434212 0.14908019
0.050174247 -0.070078276 -0.14334896 -0.041587878 -0.04762819 0.16501093 0.4583299 0.016672898
0.3751235 0.25550145 -0.17502132 -0.25909853 -0.387136 0.11969107 -0.2550811 0.40320587
-0.23301369 0.49439788 -0.22884749 0.2759015 0.16962048 -0.075054914 0.56219816 -0.13457498
-0.031443197 0.07081256 -0.061505876 -0.14010565 -0.19514951 -0.05442979 0.22473863 0.048403546
0.20535626 -0.16637826 -0.247215 -0.27358463 0.08452185 0.07461402 0.42783776 -0.3049906
0.046480086 -0.359098 -0.30246016 0.5579259 0.3070702 0.012820437 -0.21822608 -0.15919732
-0.104081616 -0.28593814 -0.351364 -0.19774175 -0.28317928 -0.26302883 -0.2192709 0.3293796
0.2329129 -0.1953936 0.51047605 -0.23082599 -0.018767655 0.07083222 -0.10131009 0.08470304
-0.024832698 0.5899501 -0.0068102875 -0.0779999 -0.13408655 0.33065763 0.15202323 -0.41091523
0.27841127 -0.09830357 -0.030019889 -0.06717574 0.25200132 0.018834691 0.33342063 0.45842966
-0.31079608 0.30098727 0.03858337 -0.3848122 -0.32609004 0.29463786 0.014299436 0.18542825
-0.15928316 0.043626484 0.009398218 0.13235898 -0.09658576 -0.11235779 0.36623237 0.0809874
-0.16366664 0.507669 -0.10837083 -0.24474584 -0.16790651 -0.18728814 0.06524809 0.02085949
-0.07078126 -0.087437116 -0.27346995 0.07536837 0.6048986 -0.30157748 -0.19255754 0.37109935
-0.1857329 0.044205025 -0.00293046 -0.32077006 -0.0007324775 0.12795039 0.22353342 -0.15892498
-0.029547142 -0.10311755 -0.3488779 0.19719051 0.031895395 -0.09177082 -0.23709916 -0.30632764
0.37542847 0.23862308 0.38620222 -0.1548656 0.3032878 0.09392873 -0.072138436 -0.14887339
0.0041728597 0.054839324 -0.14183521 0.07030695 -0.32031158 0.27324942 -0.14245538 0.09518462
-0.13498019 -0.40692493 0.509627 -0.27292153 0.23232922 -0.11823636 0.35652527 0.015328454
-0.30872312 0.11535436 0.024756152 0.26634568 0.32949537 -0.2629751 -0.11359416 -0.20264181
-0.16703293 -0.30109265 -0.07870097 0.15522431 -0.1379394 -0.33596823 0.10396992 -0.161083
-0.26409537 0.16495529 -0.18984285 -0.017640969 0.4211951 -0.37096325 -0.15616432 0.23817359
00000000: 4ce7 81be 025c 9dbe 96a1 36be 7625 2ebe
00000010: 50bc 003f cae2 003e 25ec d13e 797d 4b3c
00000020: c1fb 03be ccda 5dbe 13cb b5be 1263 8b3c
00000030: f567 043f 53cc c63e 6a1d 7cbe 47ee 8f3d
00000040: 5a38 ca3d 8d7e 8cbd 975c d2bd cffe 873d
00000050: a69d 4b3e 7acf 7a3e ad8b a13e c9d3 a8bd
00000060: 5b23 bc3d 1e69 86be ed28 cbbe d98b 213d
00000070: a7b7 4ebe 9c09 1fbe 2e6d 90be 0cea ef3e
00000080: 9e50 82be 7033 c73e c5cd 8cbe 637e 9cbe
00000090: 2b30 1cbe 5457 9cbe 403f 9cbe e751 683e
000000a0: 4511 193e e183 f0bd 97e7 95bd b3e2 4fbe
000000b0: 04b5 6d3d 11cc fbbd dadc f73c c79a f63d
000000c0: e27e 77bd 11c1 b2bd 27ee 0bbe 6652 833b
000000d0: 3bd6 27bd 08f6 963e a1fd b1bd 0226 35be
000000e0: 075e 05be cbf6 543e 712e 88be 7855 a6be
000000f0: 7cb3 cdbc 3218 72be 0116 99be 93b4 64bc
00000100: fb9a 9bbe b5d4 acbd 6b26 b6bd c1dc 8c3e
00000110: 6df6 ae3e e16d 84be 9cf7 dbbe 3b10 2e3e
00000120: 93a9 ccbc b9d4 e1be 58b6 4f3e a21b a63d
00000130: 45b5 a4be 9081 b5be 0d8b ba3e 7aa8 183e
00000140: 8383 4d3d 3385 8fbd 12ca 12be 0d58 2abd
00000150: c715 43bd a0f8 283e 37aa ea3e 9a95 883c
00000160: 3010 c03e 16d1 823e ca38 33be 90a8 84be
00000170: b136 c6be 9720 f53d fd99 82be 0071 ce3e
00000180: 249b 6ebe b821 fd3e ff56 6abe f642 8d3e
00000190: feb0 2d3e 64b6 99bd 38ec 0f3f 06ce 09be
000001a0: 95ca 00bd 2d06 913d 96ed 7bbd db77 0fbe
000001b0: 46d5 47be c5f1 5ebd e221 663e cc42 463d
000001c0: e948 523e 105f 2abe ee25 7dbe 4913 8cbe
000001d0: cb19 ad3d 3ccf 983d 8d0d db3e ba27 9cbe
000001e0: e761 3e3d b1db b7be 0fdc 9abe 3bd4 0e3f
000001f0: 4e38 9d3e cf0c 523c a876 5fbe 9f04 23be
00000200: be28 d5bd 7c66 92be fbe5 b3be d07c 4abe
00000210: e0fc 90be b7ab 86be 8d88 60be 71a4 a83e
00000220: b880 6e3e 4315 48be 8fae 023f a65d 6cbe
00000230: a0be 99bc 7c10 913d aa7b cfbd ca78 ad3d
00000240: f16d cbbc f806 173f d528 dfbb 69be 9fbd
00000250: fc4d 09be f54b a93e faab 1b3e 7b63 d2be
00000260: ec8b 8e3e 6253 c9bd 45ec f5bc 6f93 89bd
00000270: 5106 813e 364b 9a3c 1cb6 aa3e 4bb7 ea3e
00000280: aa20 9fbe 011b 9a3e 9909 1e3d 1b06 c5be
00000290: 46f5 a6be c6da 963e 2e48 6a3c e7e0 3d3e
000002a0: 201b 23be afb1 323d fcfa 193c 1d89 073e
000002b0: c1ce c5bd d71b e6bd cf82 bb3e b9dc a53d
000002c0: 3a98 27be 98f6 013f 87f1 ddbd a79e 7abe
000002d0: afef 2bbe 76c8 3fbe caa0 853d 85e1 aa3c
000002e0: c4f5 90bd 3b12 b3bd 4104 8cbe bb5a 9a3d
000002f0: a2da 1a3f 5d68 9abe ce2d 45be bc00 be3e
00000300: c430 3ebe 5410 353d f60c 40bb f93b a4be
00000310: bc03 40ba 6d05 033e f2e5 643e 3bbd 22be
00000320: d90c f2bc 4b2f d3bd 20a0 b2be 4fec 493e
00000330: bfa4 023d 57f2 bbbd 1fca 72be fad6 9cbe
00000340: 2938 c03e 9c59 743e 4cbc c53e 1695 1ebe
00000350: 8a48 9b3e b55d c03d 51bd 93bd 4472 18be
00000360: 7cbc 883b 339f 603d 403d 11be 17fd 8f3d
00000370: e1ff a3be 59e7 8b3e d3df 11be 27f0 c23d
00000380: 3f38 0abe 7758 d0be ea76 023f 5fbc 8bbe
00000390: b6e7 6d3e e825 f2bd 7b8a b63e 3224 7b3c
000003a0: f510 9ebe e83e ec3d 6acd ca3c 765e 883e
000003b0: 9eb3 a83e aca4 86be 0ea4 e8bd 5681 4fbe
000003c0: ae0a 2bbe d128 9abe f92d a1bd 1ff3 1e3e
000003d0: fc3f 0dbe 0704 acbe 2eee d43d f1f2 24be
000003e0: 8237 87be 0aea 283e 2a66 42be cb83 90bc
000003f0: e2a6 d73e e5ee bdbe 8ae9 1fbe c7e3 733e

f_model.fc1.bias f4 [32]
-0.10568809 0.3984724 -0.07867458 0.15833104 0.40818334 0.22836429 0.37096903 0.4449627
-0.028815519 0.10384255 -0.059203595 -0.10131361 -0.0898325 -0.11560179 0.24746935 0.29759106
0.40078396 0.35534555 0.4634581 0.12936604 0.34476134 0.25346667 0.44038054 0.31585532
-0.15845473 0.32994914 0.5142552 0.11320077 -0.003479284 0.044083424 0.14173976 0.15970366
00000000: ff72 d8bd 9304 cc3e 2320 a1bd 8821 223e
00000010: 68fd d03e 54d8 693e a7ef bd3e 27d2 e33e
00000020: 860e ecbc 67ab d43d 787f 72bd 837d cfbd
00000030: 1afa b7bd a2c0 ecbd 9b68 7d3e db5d 983e
00000040: 8e33 cd3e daef b53e 614a ed3e 8878 043e
00000050: 8f84 b03e 62c6 813e 8f79 e13e cab7 a13e
00000060: f541 22be 18ef a83e 3ba6 033f ced5 e73d
00000070: b304 64bb d290 343d 3a24 113e 5b89 233e

f_model.fc2.weight f4 [10, 32]
-0.3845785 -0.47020972 0.03473167 -0.15715438 0.19592394 -0.026114365 0.11491836 -0.07102571
-0.12027307 -0.18628176 0.024418352 0.14837153 -0.049708784 -0.17206058 -0.10389148 0.016987592
-0.31456596 -0.045725416 -0.20011288 -0.077354416 -0.004941382 0.10669296 -0.2548196 0.11068603
0.02898884 0.04377131 -0.34943873 0.2820169 0.25227392 0.22559527 -0.21072812 0.18043225
-0.36267203 -0.12382915 -0.0019867308 0.38233206 -0.017255716 -0.057326343 -0.21583694 0.17526476
0.01256741 -0.08903841 -0.029024122 -0.03220644 -0.27848402 0.034801062 -0.34083685 -0.47231254
0.32199672 0.26816833 -0.1556 0.1487695 -0.3062526 -0.1457339 0.20058064 -0.13924941
-0.22845182 -0.012231478 -0.32975227 -0.11300848 -0.31080285 -0.22382939 0.18001445 0.27814403
-0.17207538 0.28729066 0.116505325 -0.12919389 -0.23692416 -0.0846112 0.06776143 0.09749446
-0.3233658 -0.17499684 0.44223964 0.10911604 -0.076966636 -0.12381005 -0.20736271 0.20876864
-0.0914727 -0.08933628 0.047979545 -0.08142073 -0.21357682 0.075459346 -0.029533306 -0.14959322
-0.0100885285 0.2912868 0.15738474 -0.22420576 -0.23362614 -0.09591979 -0.34383926 -0.30778697
-0.04872039 0.2722403 -0.23040125 0.2382595 -0.2322646 0.19720408 0.022367219 -0.21644925
-0.079063036 0.056707125 -0.19125472 -0.014202411 0.39321953 -0.17760028 -0.09893943 -0.09722626
-0.24067508 -0.08064009 0.048130717 -0.17722857 0.100763835 -0.11085213 0.06379472 -0.08300818
0.054045163 -0.20253946 -0.18706822 0.1894446 -0.30152288 -0.24519518 -0.071523145 -0.18569349
0.12347274 -0.3431978 -0.03494022 -0.33884314 -0.0041921507 -0.20016868 -0.27835098 0.25307697
-0.17255282 -0.258591 -0.043466832 -0.29565355 0.2433154 -0.090217255 -0.09936066 -0.16508085
-0.15200523 0.2162965 -0.099241644 -0.056770045 0.0033732855 -0.18661673 -0.11096159 -0.26605847
0.05026026 -0.19259189 0.35028774 -0.1397121 0.3058606 -0.10677493 0.1214174 -0.18117356
0.0039464594 0.013807737 -0.2933195 -0.17172348 -0.26434615 -0.04583648 -0.03224695 0.043293886
-0.07478728 0.16449593 -0.07736584 0.0644995 0.12248914 0.2821803 0.42257178 -0.15036651
0.21167524 -0.12787335 -0.21203345 -0.14413773 -0.16087858 -0.18997657 -0.38553727 0.011235081
-0.38196874 0.11405689 -0.23056637 0.15663595 -0.19008994 -0.14539438 -0.1837432 -0.13358589
0.06873816 -0.06077526 -0.241883 -0.1191265 -0.009262507 -0.12412434 -0.054645736 -0.26603925
0.16964172 -0.09012433 -0.0039077867 -0.075372234 0.006773193 0.15275018 -0.2750131 0.24629207
-0.048899885 -0.2734565 -0.43083224 -0.095784426 -0.2603856 -0.06623568 0.26364642 0.19586962
0.06712731 0.045866013 -0.061480578 -0.0607365 0.003365123 -0.35749525 -0.14685556 0.22596747
-0.059539136 -0.1075156 -0.034536056 -0.13896574 0.05564612 0.19244678 0.17739983 -0.29465863
-0.07596422 0.26399833 -0.13867007 -0.09589696 -0.28482854 -0.013232227 -0.15946391 -0.051498838
0.053260736 0.40431827 0.12834308 0.037964225 -0.51283664 -0.16763788 -0.36610523 -0.098143935
-0.07796847 -0.31333533 0.1746251 -0.042578354 -0.21470009 0.04502941 -0.100143224 0.028222311
00000000: 79e7 c4be 54bf f0be cc42 0e3d 14ed 20be
00000010: 49a0 483e cbed d5bc 515a eb3d ed75 91bd
00000020: ba51 f6bd a5c0 3ebe ff08 c83c b5ee 173e
00000030: 709b 4bbd a630 30be 0ec5 d4bd 9029 8b3c
00000040: ca0e a1be 934a 3bbd 64ea 4cbe fe6b 9ebd
00000050: 51eb a1bb d781 da3d b777 82be 5baf e23d
00000060: 017a ed3c 8c49 333d a2e9 b2be 8564 903e
00000070: 0c2a 813e 7202 673e 1dc9 57be 3bc3 383e
00000080: 26b0 b9be 239a fdbd d033 02bb 07c1 c33e
00000090: dc5b 8dbc 07cf 6abd 5c04 5dbe 9b78 333e
000000a0: 8ae7 4d3c c559 b6bd ffc3 edbc e6ea 03bd
000000b0: 7595 8ebe 8f8b 0e3d 2b82 aebe f3d2 f1be
000000c0: c1dc a43e 5c4d 893e 9b55 1fbe 0857 183e
000000d0: 24cd 9cbe 443b 15be 0365 4d3e 6697 0ebe
000000e0: 46ef 69be 8966 48bc 4ad5 a8be fd70 e7bd
000000f0: 8d21 9fbe 8833 65be b555 383e e568 8e3e
00000100: 8734 30be c317 933e 589a ee3d 674b 04be
00000110: 3f9c 72be a348 adbd 81c6 8a3d 2dab c73d
00000120: 3490 a5be 5f32 33be 3c6d e23e 3b78 df3d
00000130: afa0 9dbd 2090 fdbd e456 54be 72c7 553e
00000140: 0a56 bbbd f1f5 b6bd 3386 443d e9bf a6bd
00000150: e2b3 5abe 6e8a 9a3d d5ef f1bc f72e 19be
00000160: 5b4a 25bc 8b23 953e 7729 213e 3296 65be
00000170: b13b 6fbe 9871 c4bd b30b b0be 4196 9dbe
00000180: 088f 47bd 1563 8b3e 4eee 6bbe 4cfa 733e
00000190: c5d6 6dbe deef 493e 753b b73c dfa4 5dbe
000001a0: cdeb a1bd bb45 683d 47d8 43be 3bb1 68bc
000001b0: 1254 c93e d9dc 35be c2a0 cabd 901e c7bd
000001c0: 8773 76be a226 a5bd b724 453d 687b 35be
000001d0: 455d ce3d 7106 e3bd cea6 823d 3100 aabd
000001e0: 765e 5d3d 8166 4fbe d08e 3fbe c4fd 413e
000001f0: 3561 9abe 7214 7bbe ba7a 92bd 6f26 3ebe
00000200: 47df fc3d 9fb7 afbe 7a1d 0fbd d97c adbe
00000210: 4f5e 89bb 05f9 4cbe 0584 8ebe 4e93 813e
00000220: b0b1 30be 0a66 84be 470a 32bd e75f 97be
00000230: ac27 793e d3c3 b8bd 9a7d cbbd f40a 29be
00000240: 42a7 1bbe d47c 5d3e 343f cbbd b587 68bd
00000250: 5712 5d3b 7518 3fbe d53f e3bd d138 88be
00000260: b4dd 4d3d cf36 45be ea58 b33e b010 0fbe
00000270: c399 9c3e d1ac dabd b0a9 f83d 9085 39be
00000280: 4d51 813b d939 623c f92d 96be 48d8 2fbe
00000290: 6158 87be 08bf 3bbd 6115 04bd ee54 313d
000002a0: 132a 99bd 9f71 283e fb71 9ebd 5018 843d
000002b0: 96db fa3d f079 903e 545b d83e aef9 19be
000002c0: 65c1 583e 3bf1 02be 4c1f 59be d798 13be
000002d0: 5bbd 24be 3889 42be 2465 c5be 5813 383c
000002e0: 6891 c3be a996 e93d 9719 6cbe 2d65 203e
000002f0: f0a6 42be 44e2 14be 2d27 3cbe bdca 08be
00000300: 98c6 8c3d 7bef 78bd 2db0 77be 98f8 f3bd
00000310: c5c1 17bc e734 febd 35d4 5fbd 4c36 88be
00000320: 8fb6 2d3e 1b93 b8bd e40c 80bb c25c 9abd
00000330: a9f1 dd3b 8b6a 1c3e 84ce 8cbe fd33 7c3e
00000340: 3f4b 48bd 7e02 8cbe 0b96 dcbe a02a c4bd
00000350: 4351 85be 92a6 87bd aafc 863e 0c92 483e
00000360: 0b7a 893d 00de 3b3d 0fd3 7bbd d6c6 78bd
00000370: 6589 5c3b 9e09 b7be 4e61 16be 0464 673e
00000380: 4fdf 73bd 2431 dcbd ae75 0dbd 094d 0ebe
00000390: 30ed 633d c510 453e 4da8 353e 7fdd 96be
000003a0: 2193 9bbd ca2a 873e 87ff 0dbe a065 c4bd
000003b0: 0cd5 91be fccb 58bc 824a 23be 72f0 52bd
000003c0: ee27 5a3d ce02 cf3e 5e6c 033e 6080 1b3d
000003d0: 4349 03bf 44a9 2bbe 2572 bbbe b0ff c8bd
000003e0: efad 9fbd 7d6d a0be ecd0 323e a466 2ebd
000003f0: 57da 5bbe c270 383d e417 cdbd 7a32 e73c

f_model.fc2.bias f4 [10]
0.08902867 0.045975763 0.0058541684 0.014844513 -0.04976345 -0.019600386 0.00795716 -0.13093671
-0.1041319 -0.012702779
00000000: aa54 b63d 1551 3c3d 53d4 bf3b 6636 733c
00000010: c2d4 4bbd fd90 a0bc bf5e 023c 4614 06be
00000020: 1b43 d5bd 511f 50bc
