models/Adversarially trained models/sequential_robust.pt (torch, 471170 bytes, 12 tensors)

g_model.conv1.weight f4 [32, 1, 3, 3]
000000 53 dd e1 3d c1 16 d8 3e c7 bd 45 3e d3 de a0 bd
       0.11028542 0.4220486 0.19310676 -0.07855
000010 6e f4 bd 3e 1e e9 ad 3e 48 4d ce 3e a6 e7 fe 3e
       0.37100548 0.33966917 0.40293336 0.4978611
000020 26 50 5c 3d 5e c2 c1 bd 35 38 11 be ac 95 18 3e
       0.053787373 -0.09460901 -0.14181598 0.14900845
000030 50 51 0d be 3c 02 ba 3e f7 05 35 3d 5f a5 ea 3d
       -0.1380055 0.3632983 0.04419514 0.11457323
000040 17 65 0c be cb c3 3b be 13 38 71 3e 2a 3a d5 3e
       -0.13710438 -0.18336408 0.23556547 0.41645938
000050 82 2d d0 3e c3 df 66 bd 70 5e 9d 3e 0d 1d a2 3e
       0.4065972 -0.05636574 0.30736113 0.3166279
000060 ee 25 c2 3e c1 6b 25 3e ec 0e 0b be 4e 32 e8 3e
       0.37919563 0.16154386 -0.13579911 0.4535088
000070 84 02 d1 3d 48 fc 0d bf a7 14 a7 3e da a7 bc 3e
       0.10205558 -0.55463076 0.32632944 0.3684681
000080 c7 d1 1e be dd fb e5 3e 84 17 82 3e f0 fa 9e 3e
       -0.15509711 0.4491872 0.25408566 0.31050825
000090 1f 68 e9 3e c3 31 bd 3e 6e 15 91 bd 6f ab 23 3d
       0.4558725 0.36952028 -0.070841655 0.039958414
0000a0 2e ab 75 be 61 51 a3 3e c3 c7 fa be ca 30 c0 bd
       -0.23991081 0.31898025 -0.4898053 -0.09384306
0000b0 b9 58 9c be ec e0 70 be 83 33 a8 be 71 f0 88 3d
       -0.3053644 -0.23523301 -0.328518 0.066864856
0000c0 8a a4 a4 3e 84 0f 7f bd 8c d2 be be 00 b6 13 bc
       0.32156783 -0.062270656 -0.3727001 -0.00901556
0000d0 26 78 f9 3e 29 09 a2 bd 73 5c 98 bd df 5f d9 be
       0.48724478 -0.079119034 -0.07439508 -0.42455956
0000e0 6c 8d da be d4 f9 cf be 67 db a7 bd ff f3 3f 3e
       -0.4268602 -0.4062029 -0.081961446 0.18745421
0000f0 c9 90 d1 bd 9a af 26 3e 26 67 0f 3f c0 c7 0d 3e
       -0.10232694 0.16277924 0.5601677 0.1384573
000100 81 1a 8c 3d 67 ba 09 3f 75 1b 10 3e 98 7e 0b 3e
       0.06840993 0.5380005 0.14072974 0.1362251
000110 ed d0 8c bd de fc 3e be ad 8d 62 be 35 d4 be be
       -0.06875787 -0.18651149 -0.22124358 -0.37271276
000120 8a 5d a0 be f9 e7 88 3e c4 cb 15 be ea 6c ae be
       -0.31321365 0.2673948 -0.14628512 -0.3406747
000130 9e c1 93 be f6 45 02 3e 22 89 88 3e 3b ad d8 3e
       -0.28858656 0.12722 0.26667124 0.42319664
000140 dc 47 40 3b f6 ce d4 3e 31 4c 71 be cc 1d 06 be
       0.0029339707 0.4156415 -0.23564221 -0.13097304
000150 1d 4e d8 3e fe 4d 26 3e 86 de 28 3e 4a 85 b5 3e
       0.42247096 0.16240689 0.16491136 0.35453254
000160 cd 6f c9 3e 61 91 12 3e 45 c1 49 be 2f d7 b6 3e
       0.3934311 0.1431327 -0.19702633 0.35711047
000170 b9 81 b8 3e 5d 8e 79 3e 2a dd 0e 3f 9b 30 4d 3e
       0.3603647 0.24370714 0.5580622 0.20038073
000180 5c 5a e6 3e 09 6b 79 3e 83 37 0d 3f cb a7 8b 3e
       0.44990814 0.24357237 0.5516283 0.27276453
000190 d1 ff 30 3e 34 a2 0c 3e 66 2f dd 3e 53 3d 08 3e
       0.17285086 0.1373375 0.43200225 0.13304643
0001a0 e6 97 59 3e 2f eb 3a 3e bf d6 97 3e 1c 2c 28 3d
       0.21249351 0.18253778 0.29656026 0.04105769
0001b0 bd 94 ed 3e 08 d4 04 3e 26 dc b1 3d a7 dc ad 3e
       0.4640254 0.12971509 0.08684568 0.33957407
0001c0 c2 c0 d3 3e c2 bd b0 3e 15 29 e3 bd ba 4e 99 3d
       0.41358 0.34519774 -0.1109182 0.07485719
0001d0 f7 5a e0 3e 66 a8 87 3e f0 bf 98 3e bf 1b f1 3e
       0.438194 0.26495665 0.29833937 0.4709148
0001e0 d1 15 f5 3e 82 99 c1 3e d0 70 59 be d2 8c d1 3d
       0.47868207 0.3781243 -0.21234441 0.102319375
0001f0 a3 25 d7 3d e2 1f b6 be 12 c2 3a be 9f fc 38 3d
       0.105052255 -0.355712 -0.18238094 0.045162793
000200 73 2a a1 3e 2a b1 d4 bd 58 d4 f5 3e d5 f5 02 bd
       0.314777 -0.10385354 0.48013568 -0.031972725
000210 7e 29 9f 3d 96 6e c8 3e aa 37 a1 be 77 c9 92 be
       0.07771586 0.3914687 -0.3148778 -0.2866933
000220 4f 1d 27 be eb 4f 9b 3c be dd d7 bd 67 bb 0d 3e
       -0.16319774 0.018959006 -0.10540341 0.1384102
000230 d9 f8 d6 3e 86 49 e7 3e d7 48 94 3e 89 67 f0 3d
       0.4198673 0.4517328 0.28961822 0.11738498
000240 17 7a 91 bd f0 da 17 be ec 12 e4 3e 68 ad 56 be
       -0.07103365 -0.14829612 0.44545686 -0.20964587
000250 8b fc db 3e eb 4f 96 3e 12 7a 4c 3e 77 2d ee 3e
       0.42966112 0.29357848 0.19968441 0.46519062
000260 72 b6 63 be 10 76 d6 3e 45 a0 a2 3e cb d5 e8 3e
       -0.22237566 0.4188695 0.317629 0.4547561
000270 03 8a 48 3d c7 51 60 3e 75 3c 0a 3f 04 f8 91 be
       0.048959743 0.21906196 0.539985 -0.28509533
000280 ef 1e 62 3e 5b cf f8 3e a1 42 31 be 8e c9 b1 3e
       0.22082113 0.485957 -0.17310573 0.34724087
000290 7f f0 a8 3e d3 25 82 3e 46 36 62 be 99 42 75 be
       0.32995984 0.25419483 -0.22091016 -0.23951186
0002a0 49 0b 33 3d d9 0e 7f be bf 1b d7 bd ef 52 b9 3e
       0.043711934 -0.24908008 -0.10503339 0.36196086
0002b0 63 d3 28 be 2f e9 ad 3e 6a 46 8a 3e d6 89 c0 3e
       -0.16486888 0.33966967 0.27006847 0.3760516
0002c0 55 7e 7f bd 8a f1 9e 3e b0 25 de 3e 52 50 95 be
       -0.06237634 0.31043655 0.43388128 -0.29162842
0002d0 e7 b2 a9 be df aa 81 be e0 de 85 3e 2b 80 67 be
       -0.33144304 -0.25325677 0.26146603 -0.22607486
0002e0 d8 6e ec 3c 94 19 95 be 1d 83 23 be 84 31 9f be
       0.028861448 -0.29121077 -0.15967984 -0.31092465
0002f0 8c 7b e6 bd e3 b4 ac be cc 32 a1 be 77 66 60 3d
       -0.112540334 -0.33731756 -0.31484067 0.054785218
000300 8a 4f 78 be 51 0a 29 be 63 94 0c 3f 1e df d7 be
       -0.24249092 -0.16507842 0.5491392 -0.42162412
000310 2d 9d 2d be 8e 94 af 3e df 0b f5 3e 89 30 a3 3e
       -0.16954489 0.34293026 0.4786062 0.31872967
000320 1e d5 8d 3e 4f 51 13 3e 21 26 0e 3f 50 11 51 3e
       0.27701658 0.14386486 0.5552693 0.2041676
000330 7e 83 c1 3e ae 3b 00 3e c0 9b 68 bd 5a 78 6d 3d
       0.37795633 0.12522766 -0.05678916 0.057976104
000340 ba c1 b4 be 8d 8e 67 3e b2 4a a3 be e8 b4 f0 3e
       -0.35304052 0.22612973 -0.31892926 0.4701302
000350 0d ed 23 3e 0e 6d 3c bd eb 30 a6 3e e3 aa 81 3d
       0.16008396 -0.04600244 0.32459196 0.06331422
000360 7e 1b 06 3f ba 1b 93 bd 73 3b e3 be ff cc d4 3e
       0.523857 -0.07183023 -0.44381294 0.4156265
000370 39 81 c3 be 01 87 02 be 3b 17 b6 3d 30 13 ce be
       -0.38184527 -0.12746812 0.088911496 -0.40249014
000380 77 b9 ad bd df bd 28 3e 28 bd 9d bd c4 0d fb 3d
       -0.0848264 0.1647868 -0.07702094 0.12258485
000390 30 fc 1a 3d 78 31 b2 bd 37 1f a5 be 4b 45 be be
       0.03783816 -0.08700842 -0.32250378 -0.3716224
0003a0 ab bd 79 be 57 c6 5a be ff d1 6f bd 69 00 11 3e
       -0.24388759 -0.21364723 -0.058549877 0.14160313
0003b0 78 af b7 3e ef 25 61 3c ff ed 11 be 3a aa 31 3e
       0.3587606 0.013741954 -0.14250945 0.17350093
0003c0 6e 49 c5 3e c6 26 04 3f 31 ad 00 3f d5 f7 8a be
       0.38532585 0.51621664 0.5026427 -0.27142206
0003d0 2e 61 90 be ab c3 43 3d a2 75 b9 bc 95 74 5d be
       -0.28199142 0.047794025 -0.0226391 -0.21626504
0003e0 1a 82 b5 bd 80 a9 f3 3e 36 96 97 3e 10 f9 d1 3e
       -0.088627055 0.47590256 0.2960679 0.41010332
0003f0 3d d9 a3 be ad f6 17 bd d2 b7 88 be 61 cb 02 be
       -0.32001677 -0.037100483 -0.26702744 -0.12772895

g_model.conv1.bias f4 [32]
000000 08 74 b9 3b cb a1 fa 3b b3 cf 42 bd 5e 29 80 3e
       0.005659584 0.0076486818 -0.04756136 0.2503156
000010 ba 79 ca 3d d4 54 6f 3c c8 07 02 3d cd 7b 91 bc
       0.09886499 0.014607627 0.031745702 -0.017759228
000020 78 2a 92 bb 3e b9 6c bd 58 3a 96 bd f5 69 dd bd
       -0.004460629 -0.05779385 -0.07335347 -0.10811225
000030 e1 a3 95 bd 87 44 85 3c 1c f4 33 3e 27 02 0a 3e
       -0.07306648 0.016268028 0.17573589 0.13477384
000040 6f cf 44 3e d4 44 1d be 20 c8 54 3b 4d 67 4d be
       0.19219755 -0.15358287 0.0032467917 -0.20058937
000050 e4 bb ba 3e 1a 9d 55 bc b6 a3 42 be 6a bf 0b 3d
       0.36471474 -0.013037944 -0.19007763 0.034118094
000060 11 b5 1d 3e 34 56 c4 3e b4 79 55 bd 85 52 d3 3d
       0.15401103 0.38347018 -0.05211802 0.10318474
000070 90 71 4f 3e 36 76 8e 3e 81 ec 8b bd a7 0d f1 bd
       0.20258164 0.27824563 -0.06832219 -0.11770182

g_model.conv2.weight f4 [32, 32, 3, 3]
000000 ac cb 24 3d 34 b8 14 3d 58 3e ff bc d0 86 1a bd
       0.0402333 0.036308482 -0.031157658 -0.037726223
000010 df 5d 29 bc f4 9f d8 3c 4e 0a 89 3c b4 cd bc 3c
       -0.010337322 0.02644346 0.016728546 0.023047306
000020 05 9a cd 3d c2 02 59 bd a9 9b 1e be 94 61 7f 3b
       0.100391425 -0.052981146 -0.15489067 0.0038968073
000030 82 86 10 bd 93 4f d2 bd ac 6b 12 be a3 4c 20 3e
       -0.035284527 -0.10269084 -0.14298886 0.15654235
000040 56 01 6a 3c 97 e1 df bd 2d 43 bd 3d 0e 3b 6c 3d
       0.014282545 -0.109317 0.092413284 0.057673506
000050 28 8e 8c bd 1f ac 29 3d 16 ac ba 3a 3c 88 03 bb
       -0.06863052 0.041423913 0.001424196 -0.0020070216
000060 bb c9 85 bc 9e e9 a0 3a 20 e5 ba 3d 67 4d 16 bc
       -0.016331544 0.0012276655 0.091257334 -0.009173728
000070 bb 50 e7 3d ec e3 ee 3c 99 d1 62 bd e7 49 9f bb
       0.11294695 0.029161416 -0.05537567 -0.004861105
000080 a1 86 f9 3d a2 72 e3 bd 7b f3 19 bd 76 de e4 3b
       0.121838816 -0.11105849 -0.037585717 0.006984527
000090 92 81 74 bd 50 05 13 be 9b da 5f be 79 d3 f6 bb
       -0.05969388 -0.14357495 -0.21860735 -0.0075325337
0000a0 f2 85 ed bd c4 4d cd bd 3c 89 6f 3d 1e d8 18 bd
       -0.11597814 -0.10024598 0.058480486 -0.03731548
0000b0 95 a8 76 3d 0d f8 03 bc f7 5f 8b bc 42 4c f0 bb
       0.060219366 -0.008054745 -0.017013533 -0.0073333094
0000c0 dc be 5c bd b0 cd 7f bd 78 31 01 3d af 7c 98 bd
       -0.053892955 -0.06245202 0.031541318 -0.074456565
0000d0 f8 25 71 bd 57 a8 b8 3d b9 11 99 be d6 96 ac be
       -0.0588741 0.09016483 -0.29896334 -0.3370883
0000e0 49 c2 8f be 29 cb 87 be b9 ba c8 be 3f 5f 79 be
       -0.28077915 -0.26522186 -0.39204958 -0.2435274
0000f0 f3 6a dc bc c8 4e ff bc 22 76 d3 bc ff 12 d0 bd
       -0.026906466 -0.031165496 -0.025813166 -0.10159873
000100 59 b6 6a be 3c 29 12 be fc a2 59 bd f1 75 3d be
       -0.22921123 -0.14273542 -0.05313395 -0.18502022
000110 bd 5a 3a be f6 57 ce 3d d3 43 11 3e f8 58 8a 3d
       -0.18198676 0.10075371 0.14186029 0.06755251
000120 a7 4c 33 3d 11 5e 19 be 65 e0 f5 bd 90 77 87 bd
       0.043774273 -0.1497729 -0.120056905 -0.066146016
000130 40 79 58 be 54 73 8c bd d5 12 55 bd 38 f2 36 bd
       -0.21140003 -0.068579346 -0.052019913 -0.04466459
000140 37 26 90 bd d7 cf cf 3d 50 07 30 3e 36 46 ba 3d
       -0.07038539 0.10147064 0.1719029 0.09095423
000150 b0 ef 20 bd 70 18 4d 3d 47 78 bd 3d fd ee 18 be
       -0.039291084 0.050072134 0.09251457 -0.14934917
000160 4c 70 0f 3d a8 b3 8c 3d a0 54 e1 3d 2e 0d bd 3d
       0.035019204 0.06870204 0.11002469 0.092310295
000170 5f f8 3f bd 80 56 0d 3d ee 5a 61 3d 5c 38 3e ba
       -0.046867725 0.03450632 0.055018358 -0.0007256323
000180 f7 4b 83 bd 44 0c 36 3d 5b 8d 82 3d 7f 41 b2 3d
       -0.064109735 0.04444529 0.06374618 0.08703899
000190 f9 34 09 3e 00 52 b1 3d 51 45 02 3d 09 9b 9e 3d
       0.13399114 0.086582184 0.031804387 0.07744414
0001a0 c6 b6 0e 3c dd 12 09 bd 6d fc 65 3d 2b 5e 10 3e
       0.008710569 -0.033465255 0.056148935 0.14098422
0001b0 3c 98 6e 3d ef 1a 10 3e 89 70 8e bd 0c 21 76 3c
       0.05825065 0.14072774 -0.06955058 0.015022527
0001c0 25 fb 46 3d bf 1d 5e 3d 89 71 9c bd 65 53 a0 3d
       0.048579354 0.054227587 -0.076388426 0.07828406
0001d0 3a 8e 86 3d 1d 23 81 3d 02 6c 0d 3c a7 d0 0c 3d
       0.06570096 0.063055255 0.008631708 0.034378674
0001e0 bf 6d de 3c d9 6f 59 bd c9 de 90 bd 04 6a e6 bc
       0.02715194 -0.05308518 -0.07073743 -0.028126724
0001f0 bd 2b e5 bb fd e8 1f 3d 65 78 04 bd 30 45 bd bc
       -0.0069937394 0.039040554 -0.03234138 -0.02310428
000200 2a de bf 3c 32 3a f9 bc a6 29 7c bd 5b 87 e4 bd
       0.023421366 -0.030423257 -0.061563157 -0.111586295
000210 bc 4a 40 3d 3f ef 8a bd 58 2a 09 3c 0d 31 7c bc
       0.046946272 -0.06783914 0.008371912 -0.015392554
000220 4d bf 51 bd 90 fc 50 bc 57 0c 09 3d 07 66 bf bd
       -0.05120783 -0.012755528 0.033459034 -0.09345632
000230 82 23 fc bc 61 9e 1c ba eb 01 a4 bb 3b 24 40 bc
       -0.03077865 -0.0005974528 -0.0050051115 -0.011727388
000240 7e a7 36 3d e5 1f 07 3d b3 2e 39 3c 95 21 4e 3d
       0.044593327 0.0329894 0.011302638 0.050324995
000250 0f 5b 6e bd f8 d1 b9 bd 63 1b 19 3d f9 da 8e 3b
       -0.05819231 -0.090732515 0.037379634 0.0043595997
000260 72 f1 4d 3d 63 1b d4 3d 5b f1 15 3e 0c 43 d1 bc
       0.05027909 0.10356786 0.14642851 -0.025544666
000270 93 7a a6 3d b1 6f a1 3d 69 e5 ba 3d b4 24 f6 3c
       0.08128848 0.078826316 0.09125788 0.030046798
000280 b3 18 c5 3d 59 89 b3 3d a3 47 a4 bd bd 0a 45 be
       0.096238516 0.08766431 -0.08021476 -0.19242378
000290 85 f4 89 bd 72 af 28 bd c9 88 2b be 11 78 32 be
       -0.067360915 -0.041182943 -0.16751398 -0.17428614
0002a0 1c 6c 61 3d af e1 12 3d 66 10 9e 3b e2 cb 6a 3d
       0.05503474 0.03585976 0.004823732 0.057323344
0002b0 53 c7 ea 3d ad 89 d7 3c 82 a6 c0 bc 6b b5 55 3d
       0.11463799 0.026310766 -0.023516897 0.052174967
0002c0 5d 1f 94 3d 0d 33 52 bd b1 dc 23 3d 1f c5 a2 3d
       0.072325446 -0.051318217 0.04000539 0.07947754
0002d0 2e 15 18 be 98 be 93 bd 79 1e 7b bd 01 01 a0 3d
       -0.1485183 -0.07214087 -0.061308358 0.078126915
0002e0 d6 f6 87 bd 82 90 8d bd 7d 36 28 bd b2 e7 f1 bc
       -0.06638877 -0.06912328 -0.04106759 -0.029529426
0002f0 3a c1 29 be 53 10 27 bd 12 f8 31 bd 03 8e ea bb
       -0.16577616 -0.040787052 -0.04344947 -0.0071580424
000300 a0 e4 c5 bd 92 ab 71 be 0a e0 56 be b6 b5 d7 bd
       -0.096627474 -0.23600605 -0.20983902 -0.105327055
000310 60 b1 04 be 9d 43 34 be f8 b9 fd 3c ad 76 96 3d
       -0.12958288 -0.17603917 0.030972466 0.07346854
000320 13 52 1d 3d 33 7b 5f 3d 3a f5 ae 3d da 29 82 3d
       0.03840835 0.05456085 0.08542867 0.06355639
000330 ac fe 25 bc ca 0c 89 3d 8b f7 6f 3d ac f2 09 3d
       -0.010131519 0.066918924 0.058585685 0.033678696
000340 b1 7d 23 bd 04 de fc bc 96 cb 9a bd 37 b3 0a bd
       -0.03991479 -0.030867584 -0.07558362 -0.03386232
000350 fd bd 13 ba cb b4 7c 3c c1 b3 60 bc 0e d9 19 3c
       -0.00056359154 0.015423964 -0.013714732 0.009390129
000360 9b d6 1a be b8 36 b4 bd 1e cb dc 3d 38 c5 58 be
       -0.15120928 -0.08799499 0.10780929 -0.21168983
000370 b5 b5 2d be 77 4a 5b bd 59 3b 0a be 2e 6b f0 bd
       -0.16963847 -0.053537812 -0.13499202 -0.11739193
000380 7b 13 0d be ae 34 17 be 46 d8 22 be 1e e8 0a bd
       -0.13776962 -0.1476619 -0.15902814 -0.03391277
000390 9b f4 76 3b 01 33 95 bd ef 52 92 bd 97 0c c7 bc
       0.0037682417 -0.07285119 -0.071447246 -0.024297995
0003a0 ff 85 28 3c 3c fe a8 bd 86 07 86 3c b9 d2 b1 3d
       0.010285853 -0.08251616 0.01636101 0.0868277
0003b0 3a 78 2a bd 6d 40 7e 3d 53 ff 06 bd c4 7b 34 3d
       -0.041618563 0.06207316 -0.03295834 0.044063345
0003c0 bb 75 12 bd e0 27 94 bc 20 43 e2 3d 39 95 40 3d
       -0.035756808 -0.01808542 0.11047959 0.04701731
0003d0 9d 9d 38 bd 76 93 cb bc da d0 96 bd 3d 35 4f bd
       -0.045072187 -0.024850588 -0.07364054 -0.05058788
0003e0 ab 3b 19 3d 0c 42 b9 bc f1 1c ef bc b8 22 8b bc
       0.03741042 -0.022614501 -0.029188605 -0.016984329
0003f0 61 cf c6 bd 08 d0 b9 bd a5 d9 1f bd 4b 40 32 be
       -0.09707523 -0.09072882 -0.03902592 -0.17407338

g_model.conv2.bias f4 [32]
000000 c5 03 07 bd 5f 97 28 3d d9 54 52 3b 11 75 c8 bc
       -0.03296258 0.041159984 0.003209403 -0.024469884
000010 25 5f 17 bd 5c 17 03 bd 46 d5 4f bc 02 07 4e 3a
       -0.03695597 -0.0320047 -0.012685126 0.00078593206
000020 8e ec 12 3c ca 6a f3 bc f6 2b 3f 3c f5 a0 11 bd
       0.008967532 -0.029714007 0.011668196 -0.03555389
000030 6e ea 08 bc bb 92 64 bd 37 21 67 bd 8a 4e 4a 3d
       -0.008356674 -0.055803996 -0.05642816 0.049391307
000040 fe 56 cb 3c 8c 84 c5 bb cf c1 77 3c f2 03 02 3d
       0.024821755 -0.0060277637 0.015121891 0.031742044
000050 26 4e 22 3d 2b a4 86 bc d9 58 9d bb 32 d4 a5 3c
       0.03962531 -0.016435703 -0.004801851 0.020242784
000060 d2 14 17 3d 97 de 76 3c 18 bf 35 3d 15 5c 6f 3c
       0.03688509 0.015067718 0.044371694 0.014609356
000070 73 2d f4 bc 0f 75 6a bd f6 14 bd 3c 56 0f 47 bd
       -0.029806828 -0.057240542 0.023081284 -0.04859861

g_model.fc1.weight f4 [128, 800]
000000 ea cc ca bc c7 a7 96 bc 11 d5 82 bc f6 d2 17 bd
       -0.024755914 -0.01839055 -0.015970739 -0.037066422
000010 d8 9f e2 3c 40 cd 45 3c 41 c2 22 bb 5f 72 c5 bc
       0.02766411 0.012072861 -0.0024835023 -0.024102388
000020 88 14 7f 3c 27 76 84 bc d6 12 2f 3d 01 8b 31 3a
       0.01556886 -0.01616962 0.042742573 0.00067727274
000030 b8 d7 91 bd fe 5f e6 bc 0f 47 1f bd 34 be 50 3d
       -0.07121223 -0.028121945 -0.038886126 0.05096264
000040 2f ab 16 3d 73 13 0a bd 43 ef dd bc f1 98 af bc
       0.036784347 -0.033709954 -0.027091628 -0.021435233
000050 8f c4 e5 3c 3c 0a 14 3d e1 13 3c bd f3 a0 fa bb
       0.028047828 0.036142573 -0.045917396 -0.007648581
000060 5d 61 f6 bb 95 2a 70 3b f2 8e 2d 3c f2 50 cc 3d
       -0.007518931 0.0036646475 0.010593163 0.099763766
000070 27 e0 1c 3d 66 b0 b8 ba 6c bf 01 3d b5 b9 91 bd
       0.038299706 -0.0014090657 0.031676695 -0.07115499
000080 82 44 f3 bd 80 2d f5 bc 3f 4d 7d bd d7 b4 36 be
       -0.11878301 -0.029928923 -0.061841246 -0.17842422
000090 21 86 5a be d8 00 0d be fe f1 1d be 56 2e 14 be
       -0.21340229 -0.13769853 -0.15424344 -0.14470801
0000a0 b9 9e de bd 9a c1 37 be 71 28 d5 bd 09 3d f3 bd
       -0.10870118 -0.17944947 -0.10408104 -0.11876876
0000b0 d8 b4 12 bd 23 91 09 3c 8a 2b 67 3c 0d 05 0e bd
       -0.035816997 0.00839642 0.014109502 -0.034672786
0000c0 40 27 93 3d dd 9d 44 3d 91 4e d2 bd 50 aa f5 bc
       0.07185221 0.048002113 -0.102688916 -0.029988438
0000d0 02 80 a5 bc b4 89 eb bc 13 3a 04 3b a6 df 6a 3b
       -0.02020264 -0.028752185 0.0020176216 0.0035838871
0000e0 35 96 0d bb 28 f7 30 bc f8 58 7b bc f7 82 5f 3c
       -0.0021604423 -0.010801114 -0.015341036 0.013642064
0000f0 b6 48 c2 3c e5 32 bc bb 70 38 7c bd 9b fb 5a bd
       0.023716312 -0.005743372 -0.06157726 -0.053462606
000100 6b 69 76 bb e2 3f 02 3c ab 87 fc bb 95 39 16 bd
       -0.0037599455 0.007949801 -0.0077066026 -0.03667601
000110 58 3f 2d bb 06 56 07 3d 56 26 30 3d 17 e0 21 3d
       -0.002643546 0.033041023 0.04300531 0.03952035
000120 ec 8a 0b bc 11 35 1c 3c ae 21 90 bc f6 1c a2 3c
       -0.008517008 0.009534136 -0.017594185 0.0197892
000130 dd 69 37 3d 62 ca bb bc e6 d3 d7 bb 6c 75 6b bd
       0.044778693 -0.022923652 -0.0065865396 -0.05748503
000140 b9 99 07 bc 40 dd 03 3c b0 41 e6 bb 3a 16 11 be
       -0.008276396 0.008048356 -0.0070268735 -0.14168635
000150 9e 8b dd bd db 8b d6 bc 6f 6c b5 bd 2d a1 9a bd
       -0.108176455 -0.026189735 -0.08858573 -0.07550273
000160 a0 3c f5 bd 1a 42 f9 bd 9e 35 23 bd 00 58 ac b9
       -0.11974454 -0.12170811 -0.039846055 -0.00032871962
000170 9b c3 19 bd b4 f4 a6 bd 3b b0 27 3d dd 44 1f 3c
       -0.03754006 -0.08152142 0.04093955 0.009721008
000180 c0 fb 82 3d 99 f8 0f 3e c4 c7 bc 3d 50 62 fe bb
       0.06395674 0.14059676 0.0921779 -0.0077631846
000190 50 77 fc 3b e7 dc 79 bc b3 d9 ff bc 29 46 a7 bc
       0.007704653 -0.015250421 -0.031231737 -0.020419197
0001a0 f2 67 e7 3c 8a ea c0 3a de b5 65 3b 54 26 5d bc
       0.028247807 0.0014718336 0.0035051028 -0.013497908
0001b0 fd ce 84 3d 5e 73 da 3c 15 70 e5 3c ae 18 9a 3d
       0.064847924 0.02666634 0.028007546 0.075242385
0001c0 3c da 45 3c 7b 99 b6 3c 4b e9 ee b9 f7 ca 1b 3d
       0.012075957 0.022289982 -0.00045568714 0.03803536
0001d0 1d 8e 80 3d 7f f8 c4 bd b6 cc 96 3c 67 66 80 3c
       0.06277106 -0.09617709 0.01840816 0.01567383
0001e0 29 1d 47 3d 05 24 b6 3b 7f ec 0f bd d9 d0 1a bc
       0.048611794 0.005558493 -0.03513765 -0.009449207
0001f0 ee 3e 98 bc df 3f 6c bd 40 ac ba bc 22 21 c8 3b
       -0.018584695 -0.0576781 -0.022787213 0.0061074654
000200 b4 77 40 3d 8d e7 88 3d c5 53 38 bc cd 65 e3 bb
       0.046989158 0.0668479 -0.011250441 -0.006939626
000210 3f ec 39 bb 5a cc 86 3d de 9d 53 3d ef 22 05 bd
       -0.0028369573 0.06581946 0.051664226 -0.03250402
000220 1f 1a 15 3b 3a d7 5a bd b3 f4 8c 3d a0 4b 14 3e
       0.0022751165 -0.053427912 0.0688261 0.14481974
000230 a4 03 a3 3b f2 1c 8b 3d 10 5c b3 bd a7 fb 87 3d
       0.004974799 0.0679263 -0.08757794 0.06639796
000240 72 27 26 3d 4b 82 41 ba 77 52 32 bc 2e c7 6f 3d
       0.04056496 -0.0007381781 -0.010883919 0.058539562
000250 a0 97 05 3c 81 c2 01 3d e5 f2 20 3c fc 46 d7 3b
       0.008153826 0.031679634 0.009823536 0.0065697413
000260 10 a5 d2 ba 21 01 7c 3c 84 a1 38 3c 4f f8 2a 3d
       -0.0016070921 0.0153811285 0.011268977 0.04174071
000270 92 fe 68 bc e7 7e 4f 3d 69 0f f3 bc 5a b3 07 3c
       -0.014220851 0.050658133 -0.029670434 0.008282507
000280 1e 8f 76 3d 5f cb a0 3d 5e 44 ab bb 80 58 a8 bd
       0.06019508 0.0785129 -0.005226656 -0.08220005
000290 84 13 bf ba 8b 3b 43 3d 30 d9 f0 bc 3d 81 e1 bc
       -0.001457796 0.047664206 -0.029400438 -0.027527446
0002a0 66 04 13 3d 1a 60 ca 3b 9f 7a cb bc ba 3e 81 3c
       0.035892867 0.006176007 -0.024838744 0.01577698
0002b0 d1 65 23 3d d7 04 11 bd 63 fb e4 3c b3 f7 62 bd
       0.03989202 -0.035405006 0.027951902 -0.055412006
0002c0 09 94 05 bd 0f 2e 3a bc a8 3f c4 bb 18 77 dc bb
       -0.03261188 -0.01136352 -0.0059890337 -0.0067280643
0002d0 8e 13 8d bc 32 97 39 bc 53 f7 20 bc 43 04 d8 bc
       -0.017221238 -0.011327552 -0.009824592 -0.02636922
0002e0 d7 e9 0a bc e3 30 31 3d 6d 0f 0e 3d 31 6c c5 bc
       -0.008478603 0.043259513 0.03468268 -0.024099441
0002f0 94 68 4d bc 08 a5 2e 3d f0 05 a9 3c e4 6f 5e 3d
       -0.01253714 0.042637855 0.020632714 0.054305926
000300 96 9f 3e bd 18 65 37 bd c4 10 c7 3c ee 92 83 ba
       -0.04653891 -0.044774145 0.024299987 -0.0010038295
000310 e8 b7 3c bb 37 ab f1 bc b1 c8 8c bc 59 1e 21 3a
       -0.002879614 -0.029500587 -0.01718554 0.0006146185
000320 b5 dc d8 3c d7 f7 4e bc 0c 76 19 bc c6 3c 62 3d
       0.026472429 -0.012632332 -0.0093665235 0.05523374
000330 89 f1 87 3c 39 8c a9 3c 55 3e 51 3d d4 67 4d bd
       0.016594665 0.020696746 0.051084835 -0.050147846
000340 6c a5 f9 bc 08 96 8d bd 9a cb 86 3c 8b e4 3e bc
       -0.030474387 -0.06913382 0.016454507 -0.011651169
000350 fd 8d c5 bd f2 f0 e1 bd 5c 38 1b bd 18 59 64 bd
       -0.09646223 -0.11032285 -0.037895545 -0.05574903
000360 4b bc af bc 1d 01 12 bd 5e 13 34 bd 48 59 0c bc
       -0.02145209 -0.035645593 -0.043963782 -0.008566208
000370 e8 d9 98 3c 29 a7 07 bd 44 11 3e bd cf 91 12 bd
       0.018658593 -0.0331184 -0.046403185 -0.035783585
000380 0d a1 dd 3c 41 fb 8c bc b4 c3 2c bd 05 d2 6f 3d
       0.027054334 -0.017209651 -0.042178825 0.0585499
000390 f5 37 08 3d 6b 4b 4d bc 58 1b 91 3c 7f 4d d6 3c
       0.03325649 -0.012530188 0.017713234 0.02616
0003a0 2b 05 0b bd c9 84 0c bd 15 9f 45 be 6f 9c ad 3b
       -0.033940475 -0.03430632 -0.19298966 0.0052981894
0003b0 b8 8f 97 3c de ff 97 bd 4d 59 09 bd cf 7c c1 bc
       0.018501148 -0.0742185 -0.03353243 -0.023619084
0003c0 34 b1 82 bd 83 29 16 bd af d4 1c bd 61 dd 41 3d
       -0.06381455 -0.036660682 -0.03828877 0.047330264
0003d0 48 b3 3d 3e 86 de 07 bd 3a 9a a4 bd 5f 2f 19 bd
       0.18525422 -0.0331712 -0.08037229 -0.037398692
0003e0 98 ab 23 3d 01 71 0f 3e 26 02 66 bd 81 3d 09 ba
       0.039958566 0.14007951 -0.056154393 -0.00052353
0003f0 b7 34 fb bc 7b 57 18 3d e6 56 5d 3d 1b 92 52 3c
       -0.030664785 0.037192803 0.05403795 0.012852217

g_model.fc1.bias f4 [128]
000000 6d 38 ac 3c 3d 1c 89 3c f9 56 05 bd 0c af ae 3b
       0.021023 0.016737098 -0.032553647 0.005330926
000010 53 dd 2d bc 90 e0 ea 3a df 0a c1 3c 50 87 f2 3c
       -0.01061185 0.0017919708 0.023564754 0.029605538
000020 34 7d ce bb 0f c2 4f bc 82 36 cc 3c f6 53 41 bd
       -0.0063015465 -0.0126805445 0.024928335 -0.047199212
000030 45 01 e3 bc ac 46 3f 3d a6 66 3a 3b d3 f2 38 3c
       -0.027710566 0.046698257 0.002844253 0.011288363
000040 12 c3 87 3c 60 68 b7 bc 4b 38 ff bb 1b 27 ea b9
       0.016572509 -0.022388637 -0.007788693 -0.00044661094
000050 36 65 31 bd de b5 f3 3c e1 66 ae 3c 08 dc 47 bc
       -0.043309413 0.029749807 0.02128929 -0.012198456
000060 63 55 4d 3c 66 b8 c7 3c 3e 19 ed 3c dc b9 dc 3c
       0.012532565 0.02437992 0.0289427 0.026944093
000070 58 e7 a7 3b 80 11 b0 bc e7 41 a2 bc 91 78 98 3c
       0.005124014 -0.02149272 -0.019806815 0.018612178
000080 67 1f e1 bc 95 99 d1 3b b4 59 85 bc 46 11 ba bc
       -0.027480794 0.0063964822 -0.016278125 -0.022713315
000090 7a 88 be bc cb b4 fb 3c 46 c1 11 bc e4 d2 47 bc
       -0.023258436 0.030725857 -0.008896178 -0.012196276
0000a0 09 9c 3a 3b 98 ca 98 3a b6 8a 6a 3c 1d 61 d5 bc
       0.0028474352 0.0011657057 0.014315298 -0.026047284
0000b0 39 3f 09 bd e6 06 81 3c 35 b2 f6 bc bf db 29 bd
       -0.03350756 0.01575036 -0.030114273 -0.04146933
0000c0 d7 5a b9 3b 95 31 9f bc f7 16 71 3c 56 9e d3 3b
       0.005656581 -0.019432822 0.014714948 0.006458084
0000d0 86 3c 45 bb 33 43 b3 b8 02 70 a4 3c 3d 70 70 bc
       -0.003009589 -8.547902e-05 0.02007294 -0.014675197
0000e0 72 94 0b 3d 1a 46 1b 3c 55 1d de bc d8 25 89 3b
       0.034077115 0.009477163 -0.027113596 0.0041854195
0000f0 4d f9 1a bc 52 6e 43 bc 55 47 ed bc d8 4b 84 3c
       -0.009458852 -0.011928158 -0.028964678 0.016149446
000100 d7 4a f8 bc 27 36 65 3b 4d da bf bb 1e 4b 31 bd
       -0.030309124 0.0034974904 -0.005854881 -0.043284528
000110 52 b3 fa bc f5 83 b7 3c 09 24 e2 bb b1 41 28 3c
       -0.030603085 0.02240179 -0.0069012684 0.010269568
000120 0a 8d 20 3c 1c fa 04 bd d8 c3 b1 bc d7 75 1c bd
       0.009799251 -0.032465085 -0.02169983 -0.03819832
000130 f3 cc 1e bd fb 21 16 bd a4 db 33 3c 7c cf d8 bc
       -0.038769674 -0.0366535 0.010977659 -0.026466124
000140 75 c7 d3 3a cb ab 29 3d ac 60 94 bc df 63 b1 3c
       0.0016157465 0.0414236 -0.018112503 0.021654068
000150 41 d7 e1 bc da 92 eb bb 52 06 08 3c e6 07 1c 3d
       -0.027568461 -0.007189137 0.008302288 0.03809347
000160 5f 7c 2f 3c 02 e8 69 bd 87 f9 9a 3c f0 4c 46 3c
       0.010710805 -0.057106026 0.018917812 0.012103304
000170 27 25 e5 bc c9 33 f2 3c bd 87 14 bd 41 bd 04 3d
       -0.027971817 0.029565709 -0.036262263 0.03240705
000180 b1 13 9a bb e1 18 10 bd ee fe e4 3c 33 e6 5a 3c
       -0.0047020544 -0.035179976 0.027953591 0.013360548
000190 8b ba 75 bc 59 0e fd 3b c1 f5 10 bd d0 fe c2 bc
       -0.014998089 0.0077226576 -0.03539062 -0.023803145
0001a0 5c 1c c9 bc 42 3a bf 3c 58 b4 58 3c 1f be c6 bc
       -0.024549656 0.02334321 0.013226591 -0.024260579
0001b0 30 87 ba bb 1c 29 0a bd 02 24 1e 3d a2 a9 ca 3b
       -0.005692385 -0.03373061 0.03860856 0.0061847726
0001c0 79 59 43 bc fd 4e 50 bc 23 b4 97 3b 41 0b e4 bc
       -0.011923187 -0.012714145 0.0046296283 -0.027837398
0001d0 f5 17 2e bd d9 fa 08 bc 29 0d 1d bd 5b 41 64 3c
       -0.042503316 -0.008360588 -0.03834263 0.013931598
0001e0 c7 ef a8 3b 41 e6 02 bd 2c a3 ac bc 75 69 0b 3c
       0.005155537 -0.03195787 -0.0210739 0.00850903
0001f0 fb 6a 6e 3c 42 9a df bc fa 40 86 b9 13 ce 31 bd
       0.014551873 -0.027295236 -0.00025606883 -0.04340942

g_model.fc2.weight f4 [26, 128]
000000 d8 68 bb 3d c9 7e 8f 3d 10 3d b6 bd 0c f9 00 bd
       0.09150857 0.07006604 -0.088983655 -0.03148751
000010 48 12 14 bd 6e ea 4a 3d 92 fd 92 bc f2 f8 b4 3d
       -0.036150247 0.049539976 -0.017943177 0.08836545
000020 09 29 e0 3d 9b 35 21 bd 74 36 4e bd bd 52 36 be
       0.10945327 -0.039357763 -0.0503449 -0.17805
000030 dd 0e 8f 3d 52 01 0f 3e e2 30 85 bc e3 dd b6 3c
       0.06985257 0.13965347 -0.01625866 0.0223226
000040 ce f3 2e bc a9 5d 09 3d 3b 70 9d bd 9d 6d 89 bd
       -0.010678245 0.033536587 -0.07687422 -0.0671036
000050 fe 68 48 3c 39 3f 8c 3d 52 57 89 3d b3 7b 05 be
       0.012232063 0.06847996 0.06706108 -0.13035469
000060 ea d6 90 bc ba 67 78 bd 2a 75 36 bd 97 aa cc bd
       -0.017680604 -0.060645796 -0.04454533 -0.09993475
000070 62 d3 c6 3b c4 ae b1 3d 93 db a2 3c f7 11 7c 3d
       0.0060676793 0.08675912 0.019880092 0.06154057
000080 e7 76 4c bd c5 a8 fc bc 12 88 80 3d e5 59 fb 3d
       -0.04991808 -0.030842194 0.06275953 0.122730054
000090 eb 35 21 3c eb 8c 23 3c 1d b2 bc bd 5e 54 83 3d
       0.009839515 0.009982328 -0.0921366 0.06412576
0000a0 34 46 19 bd 6c ee e5 bc ca 96 d0 3d 2d 09 46 3d
       -0.037420467 -0.02806779 0.10185011 0.048348594
0000b0 ac 30 80 3d a1 7a a6 3c 7d 7b d4 3d db 82 8d bc
       0.062592834 0.020322146 0.10375116 -0.01727431
0000c0 52 20 35 3d e7 86 eb 3c 83 1d 51 be 63 72 59 bd
       0.044220276 0.02875085 -0.20421414 -0.053087603
0000d0 47 54 5d bd ad 30 33 3d b6 7d 18 be bc 2f 21 bd
       -0.05403545 0.043747593 -0.14891705 -0.039352164
0000e0 82 61 a6 3d b4 60 08 be d3 2b 5b 3c c8 7f 83 3c
       0.08124067 -0.1331814 0.013377148 0.016052142
0000f0 bd 8a aa 3d 32 12 68 bc 04 10 bc bd 5e ad 12 be
       0.083272435 -0.014164494 -0.09182742 -0.14323947
000100 74 2d d6 3d 9a 10 6e bb 5a ab dc bc ed 12 51 3b
       0.10457888 -0.0036325813 -0.026937176 0.003190215
000110 c8 e9 75 bd c5 78 08 3e 3a b4 93 bc 07 9e 53 bc
       -0.060037404 0.1332732 -0.018030275 -0.012916095
000120 37 d2 f9 3c a5 c8 50 3d 0f 05 ac bd ee d4 7a 3d
       0.030495746 0.0509726 -0.08399402 0.06123822
000130 21 08 aa 3d 7d 5f 13 bd 0e 44 2c 3d 69 4e 18 bc
       0.08302332 -0.035979737 0.04205709 -0.009296038
000140 2e e6 da 3d ba 82 a7 3d b1 e8 76 bd 91 88 ba bd
       0.106884345 0.08179231 -0.060280506 -0.09108079
000150 fd 79 05 3e ff 3c 2a be 5f ff 25 bd 69 93 1f 3e
       0.13034816 -0.1662483 -0.040526744 0.15583576
000160 1b db 1a be 53 ed 7e bd ae 53 33 3d b8 fc ce bd
       -0.15122645 -0.06223805 0.043780975 -0.10106796
000170 4b 4c ae 38 1a 22 53 bd 05 45 fb 3c 6c ab 50 3d
       8.311177e-05 -0.051546194 0.03067256 0.05094473
000180 8e bd 3a be f3 93 0c 3d 4a d7 05 3d 6f 59 81 3d
       -0.18236372 0.034320783 0.03267602 0.06315886
000190 e6 ca c6 3c 62 91 0a bd 9c ec cc bd 0f 97 a9 bd
       0.024266671 -0.033830054 -0.10006067 -0.08280765
0001a0 34 14 c5 bd 96 02 d2 3d 01 af 6f 3d 22 8d 87 3d
       -0.09622994 0.102543995 0.058516506 0.06618716
0001b0 75 cd 8a bd 24 d6 b1 bd fb cf 3e ba 0f 26 83 bd
       -0.06777469 -0.08683422 -0.00072789163 -0.064037435
0001c0 b3 01 fc 3c 83 e6 68 3d 45 c0 21 bd 29 02 87 3d
       0.030762529 0.056860458 -0.039490003 0.06592209
0001d0 e3 0a 1d be bc 44 82 bd 14 c5 d8 ba b3 97 36 3d
       -0.15336184 -0.06360766 -0.0016538226 0.044578265
0001e0 67 a7 17 bd b1 5c 37 3c 0f 20 d4 bd c3 5c 90 bd
       -0.03702488 0.011191533 -0.10357677 -0.07048943
0001f0 e7 5f 0d be c5 82 4a be b8 46 be bd bd cc 90 bd
       -0.13806115 -0.19776447 -0.09290832 -0.07070301
000200 16 74 cc 3d 78 cc d7 3d c5 7e 4e bd 35 01 37 3d
       0.09983079 0.10537046 -0.050413866 0.044678885
000210 da d5 24 be d8 74 3e 3d fd 64 b1 bd 3e 25 4d 3d
       -0.16097203 0.04649815 -0.0866184 0.050084345
000220 b0 57 48 bc 53 79 7d 3d 51 7a 82 3c 66 5c 97 3d
       -0.012227938 0.061883282 0.015927466 0.073906705
000230 be 74 0d bc c8 8d 2f 3b 54 72 31 be b5 65 a9 3c
       -0.008633791 0.002678739 -0.17328769 0.02067838
000240 45 9c 02 3e 55 c7 db 3d 59 2f 97 3d db fb 25 3d
       0.12754925 0.10731379 0.07382078 0.04052339
000250 50 4a 9b 3d e6 3e 71 3d d0 24 ce bc d3 99 2b 3e
       0.07582533 0.058897875 -0.025164038 0.16757898
000260 9c 41 9e bd 81 34 d3 3d cb 1f d3 bc a3 65 4f 3c
       -0.07727358 0.10312749 -0.025771996 0.012658509
000270 1b 55 1c be 1b e6 5e 3d df 47 f9 bd 4d 57 96 bc
       -0.1526684 0.054418664 -0.121719114 -0.018352175
000280 61 4c 56 bd 8a dd 15 be 56 7d 11 3e 58 d4 47 bd
       -0.052318934 -0.14635292 0.14207968 -0.04878649
000290 2c 11 28 be e7 bc e0 3d 4b 56 06 3d 2e 1e db bd
       -0.164128 0.1097353 0.03279714 -0.10699116
0002a0 bb 06 53 3e 33 8f 64 3d 48 54 b3 3d fe 43 d1 bb
       0.20608036 0.055800628 0.0875631 -0.006386279
0002b0 e8 aa 72 bd db 38 83 bd d8 eb 06 be 11 70 97 bd
       -0.05924502 -0.06407329 -0.13175905 -0.07394422
0002c0 94 3c 26 be a2 e0 b6 bd 56 7a e5 bb 56 2f e8 3d
       -0.16234046 -0.08929564 -0.007003109 0.113371536
0002d0 66 44 95 3d 9b 49 8c bc 38 43 96 3c 83 37 23 3d
       0.072884366 -0.017124942 0.0183426 0.039847862
0002e0 6a 7c 75 bd 57 9d a3 3d 93 45 55 3c 91 6b c0 3d
       -0.059933104 0.079889946 0.013017076 0.09395517
0002f0 b0 be 88 3c 92 65 8e 3d e6 7d 21 bd c9 5c 65 3c
       0.01669249 0.06952967 -0.039426707 0.0139991725
000300 bf c2 84 bd e0 40 01 be 15 52 d9 ba ac a9 7b bd
       -0.06482457 -0.12622404 -0.0016580248 -0.06144111
000310 e5 97 4b be bf e7 3a 3e ed 98 da 3c 38 51 0f bd
       -0.19882162 0.18252467 0.026684249 -0.034989566
000320 42 5e bf 3d 3e 75 99 bd d9 b7 80 bd ae 95 ce 3c
       0.0934415 -0.07493065 -0.06285066 0.025217857
000330 c1 26 47 bd d2 25 64 bc 25 22 42 3d 43 4b 89 bd
       -0.048620943 -0.013925033 0.047395844 -0.06703808
000340 3c 13 20 be dc 0e 78 bd c4 a5 8a bd 95 1a 01 be
       -0.15632337 -0.060561046 -0.067698985 -0.12607796
000350 9a 1c 55 3b 40 4a a9 bd 4f 5d b7 3d a2 c1 85 bd
       0.0032518269 -0.08266115 0.08953344 -0.06531073
000360 7e f1 db 3d b5 00 8c bd 3d 70 0a be b0 9d 02 3d
       0.1073942 -0.06836072 -0.13519378 0.031888664
000370 6e 1b ec 3c 1f 08 b6 3d df 72 94 3d 4b 52 4a bc
       0.028821673 0.08888268 0.072484724 -0.012348722
000380 06 d8 3d 3d 7d d1 98 3d c6 63 99 3d 3a a7 8a 3c
       0.046348594 0.07461832 0.074897334 0.016925443
000390 56 71 06 bd 04 79 6b 3d 23 eb af 3d 04 d2 b7 bd
       -0.03282293 0.057488456 0.08589771 -0.08975604
0003a0 2c cb cf 3d 2a 82 98 bd c2 94 d6 bd 05 f2 6d bd
       0.10146174 -0.07446702 -0.10477592 -0.058092136
0003b0 d9 6e e1 bc c5 3f c1 bb 5e 2a 81 bd c3 ef 43 be
       -0.027518677 -0.0058974945 -0.06306909 -0.1913443
0003c0 84 a2 82 3d ea 83 07 3d c4 7c fd bd 42 d5 7c bd
       0.06378654 0.033084787 -0.12377313 -0.061726816
0003d0 49 47 a0 bd 22 75 ad bd 5f b3 5c bc c7 b2 25 be
       -0.078260966 -0.08469607 -0.0134705 -0.1618148
0003e0 7c 3d a5 3d 98 14 95 3c 40 c2 98 3d ba 6a 29 39
       0.08068368 0.018198296 0.07458925 0.00016156855
0003f0 a4 85 98 bc 8d ac f4 3d bc 47 87 bd cd 20 a2 bb
       -0.018618412 0.11946974 -0.06605479 -0.004947758

g_model.fc2.bias f4 [26]
000000 27 8e 5c 3d d6 5a 9e 3c 9e d7 d4 bd 6e ac 11 bd
       0.053846505 0.019330423 -0.10392688 -0.035564832
000010 68 8f 81 bd a9 7d ad bb bd b2 86 bd a7 20 35 3c
       -0.06326181 -0.005294521 -0.0657706 0.011055148
000020 f5 0e 91 3d 15 f8 a5 bc 02 86 42 3d 79 2c 4a 3d
       0.07082931 -0.020259896 0.04749108 0.04935882
000030 26 8c ef bb af 51 81 bd 17 0c 8f bd cd a3 49 bd
       -0.007310408 -0.06314408 -0.06984728 -0.04922848
000040 34 ef d2 3c 9e fa a3 bb 14 57 b1 bd 05 ed 6e 3d
       0.025748827 -0.005004241 -0.08659187 0.05833151
000050 63 b1 c0 3c 35 3e 29 3c 3c 84 7c bd 38 2e d2 bc
       0.023522085 0.010329773 -0.061649546 -0.025656804
000060 f8 9a d4 bc c0 cb c7 bc
       -0.025952801 -0.024389148

f_model.fc1.weight f4 [32, 26]
000000 0b ff a8 3e 3c 15 48 3e 7a 78 a1 bd a8 82 04 3c
       0.33007082 0.1953935 -0.07884307 0.0080877915
000010 82 c1 6b bd 28 a1 f2 3d e2 8d 4f 3e 61 ea 40 be
       -0.05755759 0.11847144 0.20268968 -0.18839408
000020 db 95 4a 3d 39 63 f5 bd 86 54 69 be f1 0f 02 3e
       0.04945932 -0.11981816 -0.2278615 0.12701394
000030 57 be 00 3d 54 d8 15 bd d3 41 d3 bc a0 c7 a9 bc
       0.031431522 -0.03658326 -0.025788223 -0.020725071
000040 85 eb 86 bd bf 8b 76 3d da 74 dc 3d 28 61 2a 3e
       -0.065878905 0.060191866 0.10764475 0.16638625
000050 dc 78 f5 3d 5c 69 35 bd 5e 38 ce 3d 1b e6 80 be
       0.11985943 -0.04428993 0.10069345 -0.25175557
000060 49 3d c1 3d b6 cf a9 bd a0 4a 20 be 0d 33 97 3e
       0.09435517 -0.08291571 -0.15653467 0.29531136
000070 e7 d2 1f be fd 37 04 be 8f 00 67 3e 79 5a 7d be
       -0.15607797 -0.12911983 0.22558807 -0.24741544
000080 41 7a 98 bb 8b d9 3b be de cb 88 be 76 ee fc 3d
       -0.0046532457 -0.18344705 -0.26718038 0.1235017
000090 b7 1c cb 3d 46 b9 84 3d 7c be 86 be dc aa 77 3d
       0.09917586 0.064806506 -0.26317203 0.06046568
0000a0 8f 31 aa bc 4f bc 94 3e 4a 74 37 3e d0 a5 0a be
       -0.020775585 0.29049918 0.17915455 -0.13539815
0000b0 b5 6e 39 3d ce 73 6c bd 64 5c 8a be 17 33 25 3e
       0.045271594 -0.057727627 -0.27023613 0.1613277
0000c0 c4 b3 14 bd 09 d0 cb bd eb 94 da 3c bc a3 c0 3b
       -0.03630425 -0.09951789 0.026682338 0.0058788937
0000d0 b1 5f 3c be db aa 3b be eb cb a6 be cd 30 a4 3c
       -0.18395878 -0.18326895 -0.32577452 0.020042801
0000e0 01 07 46 be 6f 71 f2 bc f4 b4 0e be 51 e5 68 3e
       -0.1933861 -0.029595105 -0.13936216 0.22743727
0000f0 e1 35 f3 bc 3f 56 4c 3a d1 80 73 3b 40 e4 85 bd
       -0.029688777 0.0007794834 0.0037155638 -0.06537676
000100 a2 d8 55 3b d2 b8 3f 3d 67 42 69 3e 59 c9 09 3d
       0.0032630344 0.046807118 0.22779237 0.033639286
000110 c0 79 db bc 0d dc e9 bd 3e 78 fe bc c6 bb cb 3d
       -0.026791453 -0.114189245 -0.031063195 0.09947924
000120 ab 2e c7 3d 56 65 bc bd da 78 db bd 7d bf 84 3e
       0.09725698 -0.09199016 -0.1071641 0.25927344
000130 6a c6 70 3e 80 80 32 be 1b 44 6e 3c cf e1 21 bc
       0.23513189 -0.17431831 0.014542605 -0.009880497
000140 3f 71 53 be bb 3f 82 be 0e 1c 9b bd 83 f4 96 3c
       -0.20648669 -0.25439247 -0.075737104 0.01842714
000150 98 f7 fd 39 18 81 c6 bb 12 98 71 be 7e 86 1b bd
       0.00048440392 -0.0060578696 -0.23593166 -0.03797006
000160 c1 ed 25 be 56 e7 59 bc 89 62 c9 3d 41 25 86 be
       -0.16203977 -0.013299784 0.09833247 -0.26200297
000170 10 36 9d 3d 78 37 f8 bc 24 ed 99 be 0d 3f 01 3e
       0.07676327 -0.030299887 -0.30063736 0.12621708
000180 fa 52 30 bd 9e 4a a4 bd d1 41 3b 3e 64 72 81 3d
       -0.043047883 -0.080220446 0.18286826 0.063206464
000190 d6 6c 05 bc a4 e4 4c bd c1 62 5a 3e e2 b9 db 3d
       -0.008143624 -0.050022736 0.21326734 0.10728814
0001a0 0e 16 a7 bd 2c de 81 bd 03 2c fd 3c fa 74 38 3e
       -0.081585035 -0.06341204 0.030904775 0.18013373
0001b0 18 82 96 bd 64 f4 43 bd 76 b0 a3 bd 49 e5 01 bd
       -0.07349032 -0.04784049 -0.07992642 -0.031712804
0001c0 cf 55 05 3e b0 42 6f 3d 3c 00 21 3d bb f7 5b 3e
       0.13021015 0.058413208 0.039306864 0.2148122
0001d0 7f 8e 3f bd 9e c2 9d 3c e4 4e e1 3d 44 cb 36 be
       -0.046766754 0.01925784 0.11001375 -0.17850977
0001e0 9e 7b bb bd ec f2 44 3e 01 41 26 3e 2b 02 78 bd
       -0.091544375 0.19233292 0.16235735 -0.060548943
0001f0 02 69 63 3e c7 29 b4 3d 56 34 7d 3d 1f d3 36 3e
       0.22208026 0.08797031 0.06181749 0.17853974
000200 91 5c fa bd 3e 28 3a be e3 9a 85 bd ef 01 59 be
       -0.12224687 -0.18179414 -0.06523683 -0.21192144
000210 a9 fc 53 3e 7d df 53 be eb 04 64 bc 89 6c b8 3e
       0.20701851 -0.20690723 -0.013917188 0.36020306
000220 f1 d3 4b bd a0 28 35 bd eb 24 fe bd f0 55 e5 bd
       -0.04976267 -0.044228196 -0.12409385 -0.11198032
000230 17 ad 91 be bc 31 b2 3e 47 94 0e be 43 99 88 3e
       -0.2845237 0.3480357 -0.13923751 0.2667943
000240 a4 c8 20 3e 8e 81 e7 bd 12 75 33 3e f0 d4 2b 3c
       0.15701538 -0.113040075 0.17525128 0.01048778
000250 54 b8 1c be 2e 90 1e bd c0 2f 89 bc f7 ec e7 bd
       -0.1530469 -0.03871172 -0.016746402 -0.11324494
000260 c1 3a 92 3a 90 09 30 3d ed 3c a5 3d 74 32 a9 3d
       0.0011156426 0.04297787 0.08068261 0.08261576
000270 f8 99 7b bd 05 41 ee bd 1e 0e 92 3d 0f 7a 5e be
       -0.061426133 -0.11633495 0.07131599 -0.21726249
000280 40 a4 a0 3e 3d 93 02 be 0d 5e b3 bd 3d b8 2e 3d
       0.31375313 -0.1275148 -0.08758173 0.042656172
000290 8a 77 99 3d 9b 45 57 be d2 73 d8 3d d8 e5 18 bd
       0.074935034 -0.21022646 0.10568966 -0.03732857
0002a0 04 c1 5f bd 42 2d 11 3e 57 9c eb bd 53 c6 b4 3d
       -0.054627433 0.1417742 -0.11504429 0.0882689
0002b0 34 db c8 bd 4b 6e 57 be 50 75 2e be bc 7e 83 3d
       -0.09807435 -0.21038167 -0.17036939 0.06420657
0002c0 0d 24 81 3e bd 2a 8b bd 9d 50 fe 3c aa 4b ba 3d
       0.25222817 -0.06795261 0.031044299 0.09096463
0002d0 4d 52 12 3e 4d a3 37 be 1a a2 e2 bd 12 3a 40 be
       0.14289208 -0.17933388 -0.11066075 -0.18772152
0002e0 0c cb 90 3e 6f b2 86 3e da 63 26 3d d8 cf ab be
       0.28279912 0.2630801 0.04062257 -0.3355701
0002f0 26 52 43 3d ee e5 a7 bd c6 6b bd bc 4a d4 4e be
       0.047685765 -0.081981525 -0.02312268 -0.2019817
000300 c3 bc 11 be d6 a0 44 3e 33 46 0e be 28 6e 2a 3a
       -0.14232163 0.19201979 -0.13893966 0.00065014
000310 aa 7a 61 3d 20 ef 79 3d 84 68 d8 3d fa 31 47 be
       0.055048622 0.061019063 0.1056681 -0.19452658
000320 fc 04 4d bd f7 a5 a8 bd 64 59 54 3e ff 83 33 be
       -0.05005358 -0.0823478 0.20737225 -0.17530821
000330 ba 06 7e 3e 50 6c 14 3d 42 24 09 be 6c c7 dc 3d
       0.24807253 0.036236107 -0.13392738 0.10780224
000340 64 c9 70 3d 74 f4 74 be 09 95 0b 3d bc ac e6 bc
       0.05878581 -0.23921376 0.034077678 -0.028158538
000350 b5 1d 20 3a 5d a4 87 be 08 1e 3f bd a1 36 72 be
       0.00061079423 -0.26492587 -0.0466595 -0.23653652
000360 b5 51 12 3e c0 1e 3a bc 7e 9b 0f be 40 42 39 bd
       0.14288981 -0.01135987 -0.1402416 -0.045229197
000370 fb 97 33 3e ff 55 b3 3d 8e 29 b9 bd 96 0e 57 3e
       0.17538445 0.08756637 -0.09041129 0.21001658
000380 38 08 72 be 4a 74 5f 3e 8a 13 10 3e 99 44 ef bd
       -0.23635948 0.21821705 0.14069954 -0.11683006
000390 fe a9 1c 3d 8b 64 b5 3d 6c fa 4b be 25 a1 75 39
       0.038248055 0.08857068 -0.19919747 0.00023425052
0003a0 70 a5 51 be 5e 17 99 bd 6e c8 d9 bd 91 ef 24 3e
       -0.20473266 -0.0747516 -0.10633932 0.16107012
0003b0 22 46 24 3e 89 2a df bd cc bb cb bd 60 38 0c bd
       0.16042379 -0.10896785 -0.09947929 -0.03423345
0003c0 7c 7f 7e 3d 66 06 0d 3d 3c d3 45 bc 4c 29 18 3e
       0.062133297 0.03442993 -0.012074288 0.14859504
0003d0 43 e5 74 bd 1f e1 ce bd 1e 05 50 be ee c6 d9 3d
       -0.059788954 -0.10101532 -0.20314452 0.10633646
0003e0 2a fb 5a 3e 85 df 47 be 90 28 f2 3d 32 8b 12 bd
       0.21384874 -0.1951886 0.11824143 -0.03577728
0003f0 15 7e 17 be 29 bd bb bd 2c d4 89 bc 0a d2 a1 3d
       -0.1479419 -0.09166939 -0.016824804 0.0790139

f_model.fc1.bias f4 [32]
000000 09 80 5d 3e a8 53 bd 3d fd 95 15 3e 32 8c 87 bd
       0.21630873 0.09244472 0.14607997 -0.06618537
000010 b0 e7 0f 3e 6c 2e 79 3d f2 a5 1e 3d b0 b5 02 be
       0.14053226 0.060835287 0.038732477 -0.12764621
000020 01 b4 d8 3d 00 a6 5f 3e 0a ec 4f be 6c d4 e4 3d
       0.10581208 0.21840668 -0.20304886 0.11173329
000030 57 9a bd 3d a0 5f 79 be f1 b9 c1 3d 73 9b ec 3d
       0.092579536 -0.24352884 0.09459294 0.11553087
000040 8f 85 19 bd 51 cd b8 bd ad 21 29 3e 09 62 81 3e
       -0.037480887 -0.09023536 0.16516753 0.25270107
000050 f6 a5 33 3e fc f1 76 3e fa 4e f4 bd 1a 76 7b 3d
       0.17543778 0.24115747 -0.11929126 0.061391927
000060 48 77 38 3e 93 24 4f 3e 30 c7 fe bd bb 3d b2 bd
       0.18014252 0.20228796 -0.12440336 -0.087031804
000070 f0 97 df bd 78 bc 77 3e ce 85 45 3e 38 e0 28 3e
       -0.10917652 0.24192989 0.19289324 0.16491783

f_model.fc2.weight f4 [10, 32]
000000 e4 73 52 3e 04 13 98 be 31 49 5a be aa ec b0 3e
       0.20552021 -0.29702008 -0.21316983 0.3455556
000010 01 e8 8a 3d 5c 86 03 be 4f 19 68 bc b2 b6 25 3d
       0.067825325 -0.12844223 -0.01416619 0.040457435
000020 a0 d3 de bc 5e f6 df bd 5c d8 68 3d 03 5a 1d 3e
       -0.02720052 -0.10935663 0.05684696 0.15366368
000030 69 ca c8 bb 9d b3 5b 3d f9 68 8b 3d 2c 3e b5 bd
       -0.006127645 0.05363809 0.06807131 -0.08849749
000040 cf 33 81 3e f2 92 20 3d 4c bb aa be 55 52 19 3c
       0.2523484 0.039202638 -0.3334602 0.009358008
000050 82 4a 34 be b1 fc ce 3d 02 a3 b5 be 4c 8c 43 be
       -0.17606547 0.10106791 -0.35475928 -0.19096488
000060 34 1e 55 be c7 bb 45 be a7 d9 db bd 2f f2 58 3e
       -0.20812303 -0.19309913 -0.10734873 0.21186136
000070 e9 0e c3 bd 95 a9 00 bd 2d 8a 82 be 35 68 59 be
       -0.09524328 -0.031411726 -0.25496045 -0.21231158
000080 e5 a3 70 be ee 50 1a 3e de 51 53 3c c4 e9 de 3c
       -0.23500021 0.15069935 0.012897937 0.027211078
000090 9d 84 71 be b2 2e 86 be 25 da 81 be bd f6 3e bd
       -0.23585744 -0.262075 -0.25361744 -0.046622027
0000a0 cb d0 e4 bc c0 91 7d 3e 6b 2e 00 be d6 35 55 bd
       -0.027931591 0.2476263 -0.12517707 -0.052053295
0000b0 06 a4 6f 3e cc 63 91 be a1 f6 85 3e da 0f 1e be
       0.23402414 -0.2839645 0.26164725 -0.15435734
0000c0 58 b8 48 3d c1 e7 f3 bd f3 13 23 be 16 33 b2 bd
       0.04900393 -0.11909438 -0.15925579 -0.0870115
0000d0 37 0f 5c 3c 73 c7 75 bd 43 33 07 bd 35 46 44 be
       0.013431362 -0.060004663 -0.03300787 -0.19167407
0000e0 b8 c0 26 3e d5 54 cc bd 2f 17 3f be 37 a3 c2 bd
       0.16284454 -0.09977118 -0.18661188 -0.09503787
0000f0 69 3c d6 bc 2a bc 98 bd c5 bf e4 bb 10 3c 40 3e
       -0.026151853 -0.074577644 -0.0069808685 0.18772912
000100 17 f8 f2 bd 47 1e a2 be 71 ed 88 be 11 57 80 be
       -0.11863726 -0.31663725 -0.26743653 -0.25066426
000110 f2 e3 f5 bd 32 fa 05 3e a0 08 14 3d ae d6 85 3e
       -0.12006368 0.13083723 0.036141038 0.2614035
000120 4f 8b d4 bd 6c 72 ee 3d 80 6c 40 3e 2c 98 9b be
       -0.103781335 0.11642918 0.1879139 -0.30389535
000130 19 fe 0c be a9 91 29 bd 3b 5f 29 3d 3a 81 75 3e
       -0.13768806 -0.041398678 0.041350584 0.23975077
000140 d1 5f 20 3d 67 5e 29 3d b1 3f 3e be 85 10 6b be
       0.039153878 0.041349795 -0.18578984 -0.2295552
000150 c6 fc 13 be 43 05 00 bd 18 f2 89 bd c2 19 01 be
       -0.14451894 -0.031255018 -0.06735629 -0.12607482
000160 d9 6d 5f 3e 89 d9 0e 3e 82 17 13 be 4c cd 6d 3e
       0.21819247 0.1395017 -0.14364436 0.23222846
000170 8f 7a cf bd fb 4d e2 3d 39 d5 2f be 1f 00 49 be
       -0.10130798 0.1105003 -0.17171182 -0.19628952
000180 7e 21 77 bd 87 1f 3e be 9e 29 64 3c 35 62 51 be
       -0.060334675 -0.18566714 0.013925938 -0.2044762
000190 df 46 3c 3e de 96 f8 bd c4 86 29 be 80 80 6f 3e
       0.1838641 -0.12138151 -0.16555315 0.23388863
0001a0 d2 75 9b be 56 f0 9e bd f7 42 be bd d9 4a 5b bd
       -0.30363327 -0.07760684 -0.09290116 -0.053538177
0001b0 64 74 4f be 9c c0 3d 3e d9 58 ac bc 53 b4 97 be
       -0.20259243 0.18530506 -0.02103846 -0.29629764
0001c0 98 33 29 be 8a 93 2c bd b2 7f b2 bd a5 b9 4c bd
       -0.16523588 -0.04213289 -0.08715762 -0.049981732
0001d0 9f bc 0d be 8e f7 b4 bd ef b4 19 be 71 4f 95 be
       -0.13841484 -0.0883628 -0.15010427 -0.2916217
0001e0 ae 7f f6 3c 72 e3 c1 bc f4 80 73 be ed 1d b3 bd
       0.03009018 -0.023668025 -0.2377966 -0.08745942
0001f0 a1 a5 be bd 54 70 37 3e 84 72 9c 3e 7c 5a 6a bd
       -0.09308935 0.17913944 0.30556118 -0.0572152
000200 7f 73 10 be 88 40 88 3e 2b 42 b2 3d 2b 10 4c 3d
       -0.14106558 0.26611733 0.08704027 0.049820106
000210 14 eb 02 be ec b0 66 be ec fe 06 3e 37 12 ab 3d
       -0.12784988 -0.22528428 0.13183182 0.083530836
000220 73 88 1e 3c 0a 16 75 be 4a 2b 2e 3d 17 68 66 be
       0.009676087 -0.23934188 0.042521752 -0.22500645
000230 52 e3 11 3e 00 97 5d be a1 ad 0e be 80 fb 81 3d
       0.14246872 -0.21639633 -0.13933422 0.06346798
000240 71 24 56 bd 17 07 b0 3d ba 3f bb bd d0 ff 99 3d
       -0.052280847 0.08595102 -0.09143014 0.075194955
000250 b1 5c 06 3e d8 e6 d1 bc 8f 5f 15 3e 3d 4e 9e bd
       0.13121296 -0.02562277 0.14587234 -0.077297665
000260 84 51 aa be 5d 16 13 be 6e 4a 01 be c5 6b 69 bd
       -0.33265316 -0.14364 -0.12626049 -0.056987543
000270 d1 4a ac 3d 73 09 b2 bd ce a5 95 be a8 b0 80 be
       0.084127076 -0.086932085 -0.2922806 -0.25134778
000280 dc fa a1 3b 11 a7 a5 bc 0a a9 f2 3d ad 82 31 be
       0.004943235 -0.020221265 0.11848648 -0.17335005
000290 fa b8 f3 bd 76 fc aa 3e 3c 6d a5 be 48 35 2c be
       -0.11900516 0.33395737 -0.32309902 -0.168172
0002a0 f8 a3 74 be 54 d6 03 be 4a 6a 12 bc ed 75 a6 bd
       -0.23890674 -0.12874728 -0.008936474 -0.08127961
0002b0 5a b5 f5 bd 2b f5 63 bd a0 ad 42 bc 4f df 3f 3d
       -0.11997481 -0.055653732 -0.011882216 0.046843823
0002c0 a8 68 df bd 96 96 2a be c0 c5 7b bd b3 b8 a6 3e
       -0.109086335 -0.16659006 -0.061467886 0.3256279
0002d0 96 16 9b 3d ec 58 62 3c 5e f5 d1 bd 00 af 9b bc
       0.07572667 0.013815146 -0.10251878 -0.019004345
0002e0 99 8a 85 be 3a 42 16 3e 6e 74 c0 3d f0 b0 12 be
       -0.26082304 0.14673701 0.09397207 -0.14325309
0002f0 b9 1c 0c 3e 7b 66 9b 3c 99 11 a7 bc 38 b9 03 be
       0.13682832 0.018969765 -0.020394133 -0.12863624
000300 05 b2 22 3e 97 3c e2 3b 10 c4 a8 be df 28 82 3d
       0.15888222 0.0069041955 -0.32962084 0.06355452
000310 8e 1f d2 bc fb 5b 0b 3c 93 d3 1f bb 90 0a 9f 3c
       -0.025649812 0.008505817 -0.0024387583 0.019414216
000320 55 0e 29 be a6 0b 3a be 94 29 f3 3c d6 4a 24 be
       -0.16509373 -0.18168506 0.029682912 -0.16044173
000330 45 6c 4b bc a2 47 eb 3d ef 29 5c 3b 99 41 a3 3d
       -0.01241595 0.11488272 0.003359433 0.07971496
000340 ef 87 28 3e 47 85 1b bd 6f 1b 07 3d 95 7a b9 bd
       0.16458105 -0.0379689 0.032985147 -0.09056584
000350 11 85 34 bd b9 fd 79 be 31 d1 62 bd cf 44 48 3e
       -0.044072215 -0.24413194 -0.05537528 0.19557498
000360 15 e3 02 be cb 0a 1f 3e a6 4f e5 3d 55 76 cd 3c
       -0.12781937 0.15531461 0.11196832 0.02508084
000370 57 5d 64 3e 15 34 a7 be 93 71 13 3e 1b a8 4f 3c
       0.22301231 -0.32656923 0.14398794 0.012674357
000380 60 c3 8e be 77 1c 2b be 9b 91 44 3e 0c 9b 30 3d
       -0.27883434 -0.16710077 0.19196169 0.043116614
000390 b2 a1 cf bd 47 2f 19 bd 51 59 11 3e a2 60 b1 3d
       -0.10138263 -0.037398603 0.14194228 0.08661009
0003a0 2d 08 9a be 76 80 2e be 2d 8e 8b bc 9a a8 0a 3e
       -0.30084363 -0.17041191 -0.017035568 0.13540879
0003b0 1c cc 9d 3d 08 0e 8c bc 68 72 b9 bd 7e 3f 65 be
       0.077049464 -0.017096534 -0.090550244 -0.22387502
0003c0 f8 af b9 be e9 c4 f4 bd 0c 9f 01 be ea b9 9e 3c
       -0.36267066 -0.1195162 -0.12658328 0.01937576
0003d0 ee 6a 49 be 8c 4b 9d be b8 b3 cd bc cd 4a 0a bf
       -0.19669697 -0.307217 -0.02511011 -0.54020387
0003e0 3d 03 7d 3e e8 8a 74 be 6e e0 e9 be c6 a5 66 3e
       0.24708267 -0.23881114 -0.4567904 0.22524175
0003f0 9a 24 a1 bd b1 f1 31 be 33 04 56 be c5 4b a3 bd
       -0.07868309 -0.17377354 -0.2090004 -0.07973436

f_model.fc2.bias f4 [10]
000000 d6 30 7c bd 33 be db 3d cc 29 35 3d c1 2f 3e 3e
       -0.06157001 0.10729637 0.044229314 0.18572904
000010 e0 91 cc 3b f3 be 20 bd 0c a8 1b 3d 92 f6 91 3d
       0.0062429756 -0.039244603 0.03800206 0.07127108
000020 96 01 bb 3d a8 77 47 3e
       0.09131162 0.19479239
