models/sequential model/sequential3.pth (torch, 471154 bytes, 12 tensors)

g_model.conv1.weight f4 [32, 1, 3, 3]
00000000: a25e 063e 6cd5 dd3e b39e 593e 8c82 7ebd
00000010: c5ff c23e dc7e b63e 251f d83e e966 023f
00000020: fa8a 853d fea2 aebd 8884 0ebe 6e34 1b3e
00000030: 6083 0fbe a523 bb3e b701 2f3d 4a64 e83d
00000040: a2e9 0fbe 2aa2 3ebe 4b94 823e b724 d73e
00000050: 5254 d43e afee 34bd 443a a13e 1cd7 a33e
00000060: f510 cd3e f820 3a3e 29ac 0abe e2f6 ed3e
00000070: 8646 e73d d303 05bf 20e9 aa3e 2fb3 c33e
00000080: 8203 02be 9bd7 ed3e 4ec9 843e 9d51 a83e
00000090: feb0 ec3e 6967 bf3e dfe0 8abd af2e 223d
000000a0: 3298 7abe fb48 a63e 1ff0 01bf eb8d bebd
000000b0: dae9 9ebe bf5a 8bbe 0263 b6be 328b 8f3d
000000c0: 5920 9b3e 77d8 a1bd a087 c3be bfce d8bc
000000d0: e59a f73e 72ca adbd 046d f7bd 0c4f f3be
000000e0: 5f51 ecbe 9963 e2be 64c7 e0bd e140 323e
000000f0: ffd5 eabd da3a 1f3e c572 103f 4354 133e
00000100: f071 8d3d ecb9 0b3f 2c58 113e 9c4d 093e
00000110: 583c 99bd a371 4bbe e752 6fbe bbc6 c8be
00000120: 95be a8be 5f49 8b3e 3786 1abe 89cd aebe
00000130: ec89 96be 279b 023e 2824 8b3e b1b6 d93e
00000140: 19e7 d23b df86 de3e 62f0 5fbe 8721 b3bd
00000150: 5f62 da3e f3c9 3a3e ec46 4b3e 1c14 be3e
00000160: a0b5 ce3e cf2d 2a3e cb10 38be 64bc be3e
00000170: 096c c43e a343 873e 2b8b 103f 6138 573e
00000180: 493d f53e 936a 843e 001a 113f 1b32 933e
00000190: 5e22 3a3e 5389 233e 4c57 de3e d921 113e
000001a0: 6747 703e 0d2b 483e 57c3 9d3e 7f8f 653d
000001b0: b627 fb3e 8ef3 113e 1e38 e03d fdab b53e
000001c0: f411 d73e 504e b43e dc4b a1bd c78c bf3d
000001d0: 885b e53e 2809 923e 1356 a23e 933d fd3e
000001e0: 9aec fb3e 253e c93e 4cab 4cbe ab6e d13d
000001f0: d673 ed3d 726c b3be 9fa2 2ebe 7066 5b3d
00000200: 030b a73e 2f83 bdbd 5051 f93e 4c95 96bc
00000210: ad4f bc3d b02e cf3e 004f 98be b6f8 94be
00000220: e3e0 1fbe fedb be3c 2387 cfbd 3d65 143e
00000230: 4060 da3e 7cba ec3e c375 9a3e cd9e 063e
00000240: be71 3dbd 145d 0bbe 2082 ec3e 6bb2 45be
00000250: 5146 e23e d8df 9c3e b373 5b3e 601b f63e
00000260: d3c2 50be 8594 e33e 9e57 a43e 1b52 f13e
00000270: 67d2 b03d 5337 6c3e f719 0b3f c8bc 71be
00000280: 56e6 793e 6521 fe3e 3d41 30be a57a b33e
00000290: ebd6 ab3e fd6b 843e 350e 62be 73e6 70be
000002a0: 2691 2a3d 0647 84be a479 d4bd 57cd c13e
000002b0: 8c2a 1fbe 68bd b83e 455a 8d3e ec47 c43e
000002c0: cc57 1abd 11f9 a23e b302 e33e 5917 89be
000002d0: a62a a3be 00cc 8dbe d659 733e 926a 8cbe
000002e0: 44dd 35bd ad88 b2be bf51 6dbe 7329 c7be
000002f0: 89db 15be 3cfd c4be c5b4 a8be ebcd 603d
00000300: aeff 83be 67eb 25be 0308 0c3f ec64 d8be
00000310: 52fd 2ebe ed93 ad3e c197 003f 1d57 a93e
00000320: bd72 983e 2854 1e3e 3ddc 0f3f b61d 633e
00000330: 3a90 cb3e 89f6 123e 4d32 15bd 8c19 883d
00000340: c526 b4be e692 6e3e e78c 9dbe 3afa f23e
00000350: 07bb 283e a028 11bd 9abb a83e 7ca9 953d
00000360: b3b6 043f 8af0 a5bd 50f5 e7be 1256 d13e
00000370: 7131 c8be 8a38 0cbe a494 b43d 8c58 cdbe
00000380: 524f babd 2e04 203e 1da6 c2bd 9ba4 e03d
00000390: 8330 a43c eeba 15be aebe bfbe 5079 cbbe
000003a0: ecd9 a0be 5965 8dbe c86b 4dbd 56a3 1a3e
000003b0: f782 c13e 4d0e fc3c 87a5 08be 01d3 443e
000003c0: a82c d23e 0221 073f ea7a 033f 2cff 92be
000003d0: c48f 91be 8756 3c3d f485 04bd 1682 66be
000003e0: d109 c2bd ec60 f53e 7617 993e c31f d53e
000003f0: 8358 b1be 7e89 2fbd 9cad 8ebe b13d 0ebe
0.13122037 0.4332689 0.21251945 -0.062136218 0.38085762 0.3564366 0.4221126 0.5093828
0.06520648 -0.08527182 -0.13917744 0.15156719 -0.1401496 0.36550632 0.042726245 0.113472536
-0.14053968 -0.18616548 0.25503764 0.420202 0.4147058 -0.04417294 0.31489766 0.32000053
0.40052 0.18176639 -0.13542236 0.4647742 0.11292748 -0.5195896 0.33380985 0.38222644
-0.1269665 0.46453556 0.25934833 0.32874766 0.46228784 0.37383583 -0.06781172 0.039595302
-0.2447212 0.32477555 -0.5075702 -0.093044125 -0.3103779 -0.2721767 -0.35622412 0.07008971
0.30298117 -0.079026155 -0.3818941 -0.026465772 0.48360363 -0.08485879 -0.1208134 -0.47521245
-0.4615583 -0.44216612 -0.10975531 0.17407562 -0.11466598 0.15549794 0.56425124 0.14387612
0.069064975 0.5458057 0.14193791 0.13408512 -0.07482213 -0.19867568 -0.23371468 -0.3921412
-0.32957903 0.27204415 -0.15090261 -0.34141186 -0.294021 0.12754498 0.27176023 0.42522195
0.0064362404 0.43462273 -0.21869043 -0.08746629 0.42653176 0.182411 0.19851273 0.37124717
0.40372944 0.16619037 -0.17975156 0.37253106 0.38363674 0.2641879 0.56462353 0.210176
0.4789832 0.2586256 0.566803 0.28749165 0.18177173 0.15970354 0.43425977 0.14173068
0.23464738 0.19547673 0.30813095 0.05604505 0.49053735 0.14253065 0.109482035 0.3548278
0.42005885 0.35215998 -0.07875797 0.09353023 0.44796395 0.2852261 0.31706294 0.4946104
0.4920395 0.39305225 -0.1998722 0.10226186 0.115943596 -0.35043675 -0.17054223 0.05356449
0.3262559 -0.09253537 0.4869485 -0.018381737 0.091948844 0.40465307 -0.29747772 -0.29096
-0.15613131 0.02329826 -0.10133197 0.14491744 0.42651558 0.46236026 0.3016797 0.13146515
-0.04625105 -0.13609725 0.46193027 -0.19306342 0.44194272 0.3063953 0.21430854 0.4806776
-0.2038682 0.4444925 0.32098097 0.47132954 0.08633881 0.2306798 0.54336494 -0.2360717
0.24404272 0.49634853 -0.17212386 0.35054508 0.33562407 0.2586364 -0.22075732 -0.2352541
0.04164233 -0.25835437 -0.103747636 0.37851974 -0.15543574 0.36082006 0.27607933 0.38336122
-0.037681386 0.31830648 0.44337997 -0.26775625 -0.31868476 -0.27694702 0.23764738 -0.27425057
-0.04440047 -0.348699 -0.23175715 -0.3889881 -0.14634527 -0.38474452 -0.32950416 0.05488388
-0.25781006 -0.1620308 0.54699725 -0.42264497 -0.17088822 0.3390192 0.5023156 0.33074275
0.29775038 0.1546179 0.5619543 0.22179303 0.39758474 0.14351858 -0.036424924 0.06645498
-0.3518583 0.23298225 -0.30771562 0.47456533 0.16477595 -0.035439134 0.3295563 0.07307717
0.51841277 -0.0810252 -0.45304346 0.4088598 -0.3910022 -0.13693443 0.088174134 -0.40106618
-0.090971604 0.15626594 -0.0950434 0.10968896 0.020042663 -0.1462209 -0.37450165 -0.39740992
-0.3141626 -0.27616385 -0.050151616 0.1510137 0.3779523 0.030768538 -0.13344394 0.19221117
0.41049695 0.5278474 0.51359427 -0.28710306 -0.28429997 0.045980956 -0.03235431 -0.22510561
-0.094745286 0.47925508 0.29900712 0.41625795 -0.34637842 -0.042855732 -0.27866828 -0.13890721

g_model.conv1.bias f4 [32]
00000000: f9c7 483d 8c41 813c 97cf 963c a3c9 803e
00000010: 83f4 e03d 4941 ac3c ade7 613d 045c 3e3b
00000020: 859a 163c f2c7 39b9 0bed d8ba df1c 55bd
00000030: 608b 08bb 3153 903d 6a5d 3d3e 74e0 193e
00000040: df71 543e 217d d1bd 0e25 683c bc57 27be
00000050: 9fb6 b13e cff2 8fbc 7758 00be 80ba 3a3d
00000060: 6901 153e e911 be3e 5825 3dba d82f e43d
00000070: 64e4 513e bb15 893e 853d 2fbd 09a4 b0bd
0.049018834 0.015778325 0.018409533 0.25153837 0.10984137 0.021027224 0.055152584 0.0029046545
0.009192114 -0.0001771746 -0.0016550136 -0.052029487 -0.0020835027 0.070471175 0.18492666 0.15027028
0.20746563 -0.102289446 0.014168991 -0.16342062 0.3470964 -0.017571835 -0.12533747 0.045588017
0.14551319 0.3712304 -0.00072153425 0.11141938 0.2049728 0.26774392 -0.04278328 -0.08625037

g_model.conv2.weight f4 [32, 32, 3, 3]
00000000: 9f85 233d 38ee 193d 5254 e4bc 6b30 18bd
00000010: 79fd f9bb a424 023d b2d6 ba3c 7ebe ff3c
00000020: f872 e53d 9fd1 42bd 093f 15be 1a97 0d3b
00000030: f5af 17bd 6e89 c9bd 3a23 08be 0414 1c3e
00000040: 0353 883c 822d ccbd 6555 bd3d 1f5a 753d
00000050: 1d6d 85bd 6705 273d bfa2 4d3b 2c65 2c3b
00000060: 733d 37bc 1c45 0b3c f035 ce3d b431 01bc
00000070: 16f9 e53d 85d2 043d 8b89 4ebd 78ff 3cbb
00000080: 523f ff3d 9376 d1bd 6925 edbc 849e 803c
00000090: a842 6bbd d7dd 08be a615 54be c822 4ebc
000000a0: d254 fcbd 54e7 cfbd 46b1 5e3d 39b3 13bd
000000b0: a170 7c3d cc88 63bc f124 febc 7ea8 adbc
000000c0: adcf 34bd aa07 74bd 9f93 eb3c 2809 96bd
000000d0: 95a6 88bd 7a98 b73d 6b50 9bbe f6b1 acbe
000000e0: 62d7 93be 14e8 85be c6d9 b9be 4694 65be
000000f0: 979f 14bd 9e70 f1bc dbab babc 30f0 c9bd
00000100: 9242 5cbe 794a 0fbe a582 7dbd df52 3fbe
00000110: 53c5 39be 4089 c93d 7aaa 113e 96be 903d
00000120: 1777 2e3d 13cd 18be 15a7 f9bd d11c 82bd
00000130: fc15 43be df38 2dbd 9e33 58bd 99eb 2dbd
00000140: bca7 6abd 1c2f cd3d 3c3a 2e3e 2aed ba3d
00000150: 27a0 1cbd dbc2 533d f02c c23d 5bb4 12be
00000160: 5b92 333d 0ad8 9e3d 537e de3d 6ca9 be3d
00000170: 5d50 31bd 4090 123d bf14 6f3d 43f6 b83b
00000180: 407f 6cbd 1713 593d 1a97 9c3d 27df ad3d
00000190: 6cfa 083e e471 b53d 5e87 fe3c dbcb a03d
000001a0: 080b 3f3c 057d eabc bd7e 813d 12e7 183e
000001b0: 65de 643d 75e5 0e3e 19c3 82bd 7d2b 773c
000001c0: 8531 483d fda1 6a3d 2506 8fbd 9a4d ad3d
000001d0: 1d40 983d 03b3 813d 3ee2 543c 104b 183d
000001e0: 5e1a d93c 0a2b 51bd b4fb 8bbd 4b64 cbbc
000001f0: b18b 923a 8d25 3a3d f458 edbc 3c5e 97bc
00000200: 56da d93c 4211 e2bc 2bf2 60bd 1dfa d3bd
00000210: 3ecc 5b3d 07e6 6bbd f000 af3c eaca 67bc
00000220: 4285 49bd 2715 41bc 5e33 163d 3212 adbd
00000230: a336 a8bc 5c4a 733b 2b48 bb3b 18cc b83b
00000240: 8762 423d f828 193d f265 753c 6b67 573d
00000250: 9a0e 55bd 605d a8bd b651 2e3d f328 4d3c
00000260: e819 833d 1a67 d13d c72d 163e f8b6 93bc
00000270: 6645 a53d 2566 a23d 41e9 c23d 93d5 113d
00000280: b603 d03d 56ac c73d 6b35 9dbd 6cf5 37be
00000290: 143d 89bd 8461 3bbd e2f1 29be 0af8 2fbe
000002a0: 660c 453d 0516 f93c 69ec b43b 1e84 633d
000002b0: b119 ea3d 9007 cb3c 7b23 d4bc 9486 583d
000002c0: d77b 963d 623e 42bd 4247 443d 2332 b33d
000002d0: 01d6 11be 0fb2 80bd 543d 6bbd 588a 9d3d
000002e0: 5f8e 90bd dfda 93bd f891 2cbd 3001 20bd
000002f0: f703 32be 70a4 1bbd ad8c 0cbd c67f 6d3b
00000300: 20df c1bd 509b 67be d012 47be 7c56 d7bd
00000310: a882 01be 01b7 24be 8d97 ed3c 45f1 973d
00000320: f453 263d 3e4f 593d a37b b03d 9006 893d
00000330: c9f1 b1bb a9b1 983d 1cb3 873d d820 103d
00000340: b01a 15bd cd1a d5bc 5c64 94bd 4e48 e8bc
00000350: a4f2 223c 2e3b a83c 0a4e 81bb f71c d13c
00000360: fb59 13be 48ce 9abd da26 e43d 04ad 58be
00000370: a871 20be c3df 56bd 9592 10be 2a86 f4bd
00000380: d301 0bbe dd04 0dbe 2087 0fbe 2be3 e4bc
00000390: 8165 03bb 4e9f 83bd 9e7e 91bd 9487 f2bc
000003a0: 22f0 773b 673f adbd bc48 823c 4d3b b53d
000003b0: bb73 1bbd 7e25 823d a7a2 e5bc b201 553d
000003c0: 6121 f2bc f5dc 09bc 44f5 003e 1424 453d
000003d0: 80d6 3cbd 8e97 edbc e6ee 85bd 841e 13bd
000003e0: 8aab 483d 243f 99bc 7750 a7bc 3be4 8ebb
000003f0: 8403 c6bd 51ed bfbd 7331 36bd 73a3 23be
0.039922353 0.0375807 -0.027872238 -0.03715555 -0.0076290932 0.031773224 0.022807453 0.031218763
0.11203569 -0.04756319 -0.14574827 0.0021604956 -0.03703304 -0.09840666 -0.13294688 0.1524201
0.016641146 -0.099696174 0.09244803 0.0599004 -0.06514952 0.040776636 0.0031377522 0.002630542
-0.011184084 0.008500364 0.100688815 -0.007885385 0.1122915 0.03242733 -0.05042414 -0.0028838795
0.12463249 -0.10227694 -0.028948503 0.015700586 -0.057436615 -0.13365875 -0.20711383 -0.012581535
-0.12320866 -0.10151544 0.05436828 -0.036059592 0.06163085 -0.013887595 -0.031023474 -0.021198507
-0.044143368 -0.05957762 0.028756915 -0.07325965 -0.06672398 0.089646295 -0.30334792 -0.33729523
-0.28875262 -0.26153624 -0.3629896 -0.22419843 -0.03628501 -0.029472645 -0.022787025 -0.09860265
-0.2150977 -0.13993253 -0.06189217 -0.18683957 -0.1814168 0.098406315 0.14225188 0.070676014
0.04259404 -0.1492198 -0.121900715 -0.063531525 -0.19051355 -0.042290565 -0.0527836 -0.04246101
-0.05728887 0.10018751 0.17014402 0.09127267 -0.03823867 0.0516995 0.094812274 -0.14326613
0.043840747 0.0775605 0.10863938 0.093096584 -0.04328953 0.0357821 0.058369394 0.005644591
-0.057738543 0.05299672 0.07646008 0.084898286 0.13376778 0.088596135 0.031070407 0.07851382
0.011660345 -0.028624067 0.063230015 0.14931896 0.055876154 0.13954718 -0.06384868 0.015086052
0.04887535 0.05728339 -0.06983594 0.08462067 0.07434104 0.06332972 0.0129933935 0.03718096
0.02650183 -0.051066436 -0.06835118 -0.024828097 0.0011180547 0.045445967 -0.02897308 -0.018477552
0.026593369 -0.02759612 -0.05491845 -0.1035044 0.053661577 -0.057592418 0.021362752 -0.0141475
-0.04919935 -0.011784828 0.03667008 -0.08450736 -0.020533865 0.003712318 0.00571539 0.0056395642
0.047457244 0.037392586 0.014977919 0.05258886 -0.05201588 -0.08220935 0.042558394 0.01252197
0.064014256 0.10224743 0.146659 -0.018031582 0.08069877 0.07929639 0.09517146 0.03560407
0.10156958 0.09749667 -0.07676204 -0.17964715 -0.06701103 -0.045747295 -0.16596177 -0.17184463
0.048107527 0.030406008 0.0055213463 0.05554592 0.114306815 0.02478388 -0.025895825 0.05286272
0.07347839 -0.047422774 0.04791952 0.08749797 -0.14241792 -0.06283962 -0.057431534 0.076924026
-0.07058405 -0.07219481 -0.042131394 -0.039063632 -0.17384325 -0.037998617 -0.034313846 0.003623949
-0.09466386 -0.22617841 -0.1944077 -0.105145425 -0.12647498 -0.16085435 0.02900293 0.074190654
0.040607408 0.053054087 0.08617332 0.06690705 -0.0054304344 0.07455761 0.06625959 0.035187572
-0.036402404 -0.026013756 -0.072457045 -0.02835479 0.009945545 0.020536032 -0.0039460706 0.025526507
-0.14389794 -0.07558876 0.11140223 -0.2115975 -0.15668356 -0.05245949 -0.14118417 -0.11939652
-0.13574915 -0.13771386 -0.1401639 -0.027940353 -0.0020049515 -0.06426869 -0.071042284 -0.029605664
0.003783234 -0.08459359 0.015903823 0.08849201 -0.037952166 0.06354807 -0.02803166 0.05200357
-0.029556932 -0.008414497 0.12593561 0.04813011 -0.046103 -0.029002931 -0.06539707 -0.035917774
0.048991717 -0.018706866 -0.02042411 -0.0043607033 -0.09668639 -0.093714364 -0.044480752 -0.1598032

g_model.conv2.bias f4 [32]
00000000: 452b c5bc 4436 203d d05b ef39 a8df c6bc
00000010: 3278 27bd 2f8f f2bc f3a8 c9bb 2714 6e3b
00000020: 5402 5c3c 46dc 4dbc a465 a53c 5f33 01bd
00000030: 1d1e 923b f6bd 54bd d9cf 74bd 31ab 413d
00000040: fe56 cb3c 041c 96bb c0dd a43c d519 393d
00000050: ec39 453d 6d0c 45bc 4312 003c 32d4 a53c
00000060: 2c0c 133d 8d34 d33c 5dda 1d3d 9567 b63c
00000070: bcb1 9abc 73f7 61bd fd24 073d 4342 22bd
-0.024068484 0.03911425 0.00045654038 -0.02427657 -0.04088611 -0.02960929 -0.0061541735 0.003632793
0.013428289 -0.012564724 0.020190068 -0.031543132 0.004459156 -0.051938973 -0.05976853 0.0472824
0.024821755 -0.0045809764 0.02012527 0.04519065 0.04815094 -0.012026888 0.007816854 0.020242784
0.03590028 0.025781894 0.038538326 0.022266189 -0.018883578 -0.055167627 0.03299426 -0.039613973

g_model.fc1.weight f4 [128, 800]
00000000: 901f 0bbd 095b a7bc af49 e9bb cba9 21bd
00000010: d57b 973c 48bd 683b 41a8 2fbb 47c6 7abc
00000020: 3866 923c 02cf 84bc 3b65 0e3d 4c38 5d3b
00000030: a49a 91bd b5b8 a9bc b057 03bd 77f5 393d
00000040: 50cb 203d 6475 01bd cef2 14bd 4c4b 97bc
00000050: b4d6 bf3c 7379 073d 1527 40bd e3d0 95bc
00000060: a141 a3bc d6e4 f23b 1851 4a3c 67ef d13d
00000070: f28a 2f3d 4251 a4bb 2580 ab3c 9c0d a7bd
00000080: c501 06be c377 06bd 86a0 78bd e29b 3abe
00000090: 9e11 5abe c9a9 13be 8d48 28be 8fa4 1dbe
000000a0: dd2d e0bd aece 40be 25c1 d7bd 4ec0 00be
000000b0: bff8 53bd fd89 4b3c ea54 253c 0762 27bd
000000c0: a787 873d 28fd 1b3d 712a d1bd 2ed8 01bd
000000d0: b972 11bd bacc 04bd 96f7 e0bb 3767 133c
000000e0: e3de 44bc a9fe 25bc 963c 14bc 1f35 063b
000000f0: 2027 c53c ef58 f638 b63c 59bd 0067 59bd
00000100: 2953 4d3b 6370 433b f397 08bc c0dc 07bd
00000110: 5fa9 8a39 c5ac 303d ab54 f03c 9565 e23c
00000120: 8303 0bbc 0c4f 323c a4d6 a2bc e095 603c
00000130: d21a 243d 8eea d5bc 84b9 90bc 41c7 5ebd
00000140: 4a80 30bc e581 5d3c 934f 84bc 24d9 15be
00000150: 3e8b ebbd 9847 debc 6212 c7bd faad 79bd
00000160: 004e dabd ad18 04be abe9 64bd ed7d 7abb
00000170: 0b88 19bd 7a0b 9bbd c109 483d 8fbb 243c
00000180: 5b22 2e3d ca5a 0b3e de8a ca3d e629 0abb
00000190: 0d68 f9ba 9380 6cbc 76d9 dfbc edca 9abc
000001a0: 2df3 863c 9ac8 99bb e390 81ba 9552 3bbc
000001b0: 1602 873d 51e6 d43c cdc9 c33c 69c3 9a3d
000001c0: 11ee 6c3c 06cc 8a3c fbfc 923b 416b fd3c
000001d0: fa83 793d b226 bbbd f056 693c 1383 af3c
000001e0: 4f95 2c3d dd5d eb3a 0735 09bd 7216 b2bc
000001f0: 4f5c f1bc c77a 7ebd 7f09 b7bc 29cc 133c
00000200: 3006 1e3d 8faf 793d 102c 52bc 2979 d5bb
00000210: 46e0 dcb9 cc13 793d 195c 383d 200c f2bc
00000220: f0ce b03b 7daf 47bd 0147 8d3d 5ec7 1a3e
00000230: 0127 203a c69d 8e3d d9cd a4bd f967 853d
00000240: 7964 403d e422 9fbb a634 58bc 087a 633d
00000250: 738e 7cb9 fb1a 033d 80c0 ae3b 13fc 143c
00000260: 0950 f5bb bcee 443c 50b9 803b 606e 313d
00000270: aa73 33bc 9af8 443d c939 c5bc a50a ed3a
00000280: ff57 653d 4923 a23d 90bc 38bb a793 9dbd
00000290: ebef 1a3b 751c 273d cb14 0fbd 3edf ecbc
000002a0: 22d6 223d bd4f 423c 4d0c 0fbd 21cb 083c
000002b0: fed1 1d3d 975c 05bd b506 b73c 7d2c 5abd
000002c0: fabc 07bd 2774 95bc bfc7 3ebc 0096 8dbc
000002d0: 5c01 46bc 3755 60bc f4d1 eabb f25f 98bc
000002e0: 2270 41bc 191d 213d 3bd8 163d cb77 95bc
000002f0: 505d 46bc a720 3b3d 2581 643c 4995 5f3d
00000300: d6ec 36bd 2c4a 35bd c3f6 fc3c 37ea 30bc
00000310: 3f05 2dbc dc79 f2bc f514 8ebc 17ec e3bb
00000320: 953c b93c 6122 a4bc f270 0bbc f71a 613d
00000330: 2c77 463c c23c d33c eb09 633d a700 21bd
00000340: 0369 a6bc 399e 7dbd dccc 443c e006 5cbc
00000350: 1434 c4bd 7990 e2bd a171 0fbd 0130 87bd
00000360: d703 d8bc 7920 15bd d8be 32bd 4fcf 5bbc
00000370: ec92 623c de19 08bd fd0a 4bbd 8d56 37bd
00000380: d95d 223c bf3c 84bc a4d6 4ebd dc84 693d
00000390: b97c f03c 4469 b7bc 22c0 a53c 2180 f73c
000003a0: 53fe f0bc d3b8 fbbc cdca 34be fd74 0c3b
000003b0: 888c 1c3c a741 9abd ee89 13bd 0d54 8cbc
000003c0: 342f a1bd c4c7 34bd 8e88 0abd 90d3 403d
000003d0: 93c9 3c3e 28a5 14bd 7196 a0bd 2f7e e4bc
000003e0: fe55 273d 0036 0c3e 812f 79bd ce23 5dbb
000003f0: 7b01 04bd 8a79 143d 0e3d 4e3d 2d79 613c
-0.033965647 -0.020429151 -0.0071193795 -0.039468568 0.018491665 0.003551321 -0.0026803168 -0.015306062
0.017871007 -0.01621199 0.03476451 0.003375548 -0.071095735 -0.020717958 -0.032066047 0.04540011
0.039256394 -0.031606093 -0.03636437 -0.018468522 0.023417808 0.033074807 -0.04691227 -0.018288082
-0.019928755 0.0074125333 0.012348436 0.102507405 0.042857118 -0.0050145695 0.020935128 -0.08156893
-0.13086613 -0.032829057 -0.060699962 -0.18223527 -0.21295783 -0.14420237 -0.16433926 -0.15394805
-0.10946248 -0.18828842 -0.10534886 -0.12573358 -0.051750895 0.012423036 0.010091046 -0.04086497
0.066176705 0.038083225 -0.10213173 -0.031700306 -0.0355098 -0.032421805 -0.006865452 0.008996776
-0.012016031 -0.0101315165 -0.009047648 0.002047844 0.024066508 0.00011746759 -0.053036414 -0.053076744
0.0031330085 0.0029821626 -0.008337009 -0.033169508 0.00026447602 0.043133516 0.029337248 0.027636329
-0.008484724 0.010883104 -0.01987774 0.013707608 0.04006464 -0.026112821 -0.017666586 -0.054389242
-0.010772774 0.013519739 -0.016151225 -0.14633614 -0.11501168 -0.027133748 -0.09720303 -0.060956933
-0.106594086 -0.12900038 -0.055886906 -0.003822203 -0.037483256 -0.07570548 0.048837427 0.010054483
0.042513233 0.13608852 0.09889768 -0.0021082102 -0.0019028202 -0.014434951 -0.027325373 -0.01889559
0.016473377 -0.004693103 -0.0009885099 -0.011433263 0.06592195 0.02598873 0.023899937 0.07556803
0.014461056 0.01694299 0.004485724 0.030934932 0.06091688 -0.0913824 0.014241919 0.021424806
0.04213458 0.0017957051 -0.033497836 -0.021739218 -0.029462961 -0.06212881 -0.022343395 0.009020844
0.03858012 0.06095844 -0.012827888 -0.0065146876 -0.00042128767 0.060809895 0.045009706 -0.029546797
0.0053957626 -0.048751343 0.068983085 0.15115115 0.00061093277 0.06963687 -0.08047075 0.06513972
0.04697082 -0.004856454 -0.013196146 0.0555363 -0.00024085659 0.032008152 0.0053330064 0.009093302
-0.0074863476 0.012019809 0.003928341 0.043318152 -0.010952869 0.048088647 -0.024075406 0.0018084837
0.055992123 0.07916886 -0.0028188564 -0.07694178 0.0023641537 0.040798623 -0.03493194 -0.028915044
0.039754994 0.011859831 -0.03492384 0.008349211 0.038530342 -0.032559004 0.022342065 -0.053265084
-0.033139206 -0.018243862 -0.011644303 -0.01728344 -0.012085285 -0.013692192 -0.0071661416 -0.018600438
-0.01180652 0.03933439 0.036827307 -0.018245598 -0.012107208 0.045685437 0.013946806 0.05458573
-0.044659458 -0.04426019 0.030879384 -0.010798029 -0.010560333 -0.029599123 -0.017343977 -0.0069556343
0.022611896 -0.020035924 -0.008510815 0.054957356 0.012113374 0.025785808 0.05542938 -0.039307263
-0.020313745 -0.06191847 0.012011733 -0.0134293735 -0.095802456 -0.11062712 -0.035020474 -0.06600953
-0.026369018 -0.03640792 -0.043639034 -0.013416125 0.013828974 -0.033227794 -0.049571026 -0.044760276
0.00991007 -0.016142247 -0.050497666 0.05701147 0.029356347 -0.022389062 0.020233218 0.030212464
-0.029418146 -0.03072778 -0.17655487 0.0021432035 0.00955499 -0.075320534 -0.036020212 -0.017129922
-0.078703314 -0.044135824 -0.033821635 0.04707676 0.1843627 -0.036290318 -0.078411944 -0.0278922
0.040853493 0.13692474 -0.06083632 -0.0033743265 -0.032227974 0.03624872 0.050351195 0.013761801

g_model.fc1.bias f4 [128]
00000000: d989 963c 9afd 983c 78f5 bbbc e37b a83c
00000010: f1d7 96bb 90e0 ea3a df0a c13c 7ec2 b43c
00000020: 93e3 cebb b25d 78bb 8236 cc3c ceaa 4bbd
00000030: dd29 d6bc 70cc 423d 85a0 133c 55e8 3b3c
00000040: 21e8 b73c 598e 95bc 4b38 ffbb 1b27 eab9
00000050: 3794 19bd e1a1 b03c bce8 b13c 2333 1bbc
00000060: 6012 af3b ca65 c73c b691 e33c 9764 923c
00000070: 0b62 2a3c 8011 b0bc 165a 9cbc fe0b d93c
00000080: 671f e1bc ac84 663c 9b81 9bbc 6b84 55bc
00000090: 82d0 b1bc c100 203d d355 84bc 51c0 f3bb
000000a0: c687 3e3a 98ca 983a 1e6f fd3b 1d61 d5bc
000000b0: 7b52 fabc e413 6b3c 0660 cebc f9d3 0fbd
000000c0: 4c60 513c 70e1 8bbc c179 6a3c dccd df3b
000000d0: 3245 703a 75ee 343c 2960 aa3c 3e7e 68bc
000000e0: c030 0f3d af7a f93b 551d debc 19ee 24ba
000000f0: 4df9 1abc c956 4dbb 7215 cdbc 5162 a83c
00000100: 4588 e3bc b32a 103c ecf5 54bc 10ea 17bd
00000110: da81 dfbc d20c b73c 0924 e2bb 18d4 aa3c
00000120: 6bec 633b 1cfa 04bd 1df3 c3bc d775 1cbd
00000130: c797 09bd fb21 16bd a4db 333c 6bc7 cbbc
00000140: dcd9 033c 91d3 273d ac60 94bc 0c4f c03c
00000150: 2c0b b6bc e27b c2bb c6de 083c 57e3 283d
00000160: 4d5a ce3b 0f1b 5ebd 631e 883c 8954 bc3c
00000170: c91f edbc 922c ef3c bd87 14bd 0f76 1a3d
00000180: 6955 a53b a81e bfbc 3392 f23c 7e48 8d3c
00000190: 8bba 75bc 94e5 773c 6eff e1bc f409 59bc
000001a0: bc14 bfbc 8f5f 493c 4502 683c 1fbe c6bc
000001b0: cb14 8bbb 1c29 0abd d267 273d f34c db3b
000001c0: 96a6 22bc fd4e 50bc 7fe5 fc3b 858e 01bd
000001d0: aff6 1fbd 8c79 1ebb cd8c 0bbd ffd0 423c
000001e0: 5920 833c 41e6 02bd 987c f5bb 2984 2c3c
000001f0: ae2d bf3c a794 f2bc 8b9a 7dbb 5f63 04bd
0.018376278 0.018675614 -0.022944197 0.020566886 -0.004603379 0.0017919708 0.023564754 0.022065397
-0.00631375 -0.0037897644 0.024928335 -0.04972344 -0.026143009 0.047558248 0.009010439 0.0114689665
0.022449555 -0.018256353 -0.007788693 -0.00044661094 -0.037494864 0.021561565 0.021717422 -0.009472641
0.0053427666 0.024340529 0.027779441 0.01787023 0.010399352 -0.02149272 -0.019085925 0.026494976
-0.027480794 0.014069717 -0.0189827 -0.013032059 -0.02170587 0.03906322 -0.016154205 -0.0074386974
0.00072681566 0.0011657057 0.0077341935 -0.026047284 -0.030556908 0.014348004 -0.025192272 -0.035114262
0.012779307 -0.01707527 0.014311255 0.0068299603 0.00091655843 0.011043181 0.020797806 -0.014190255
0.0349586 0.007613502 -0.027113596 -0.0006291583 -0.009458852 -0.0031332246 -0.02503464 0.020554693
-0.02777494 0.008799243 -0.0129980855 -0.037088454 -0.027283598 0.02234498 -0.0069012684 0.020853087
0.0034778367 -0.032465085 -0.023919636 -0.03819832 -0.03359201 -0.0366535 0.010977659 -0.024875363
0.008047547 0.04097325 -0.018112503 0.023475192 -0.022222124 -0.005935178 0.008353895 0.041232433
0.006297386 -0.054225024 0.016616052 0.022989528 -0.02894582 0.029196057 -0.036262263 0.037710246
0.005045582 -0.023330048 0.029610729 0.017246481 -0.014998089 0.015130419 -0.027587619 -0.013247002
-0.023325317 0.012290849 0.014160697 -0.024260579 -0.004244422 -0.03373061 0.040870495 0.0066925227
-0.0099274125 -0.012714145 0.0077177878 -0.031630058 -0.039053615 -0.0024181334 -0.034069825 0.011890649
0.016006636 -0.03195787 -0.0074916594 0.010529556 0.023337211 -0.029611899 -0.003869685 -0.03232133

g_model.fc2.weight f4 [26, 128]
00000000: 4e9c ae3d 90c6 943d 6a4c b8bd 8534 e6bc
00000010: 52f8 bebc 6eea 4a3d 92fd 92bc a87a 893d
00000020: fc4b dc3d fcbe 81bd 7436 4ebd 9045 49be
00000030: 623a 8c3d dd2c 0f3e 77f3 0ebc 125f 183c
00000040: 6041 c2ba e94f 383d 3b70 9dbd 9d6d 89bd
00000050: 5016 403b 849e 7d3d 60ae 933d 9a35 efbd
00000060: 7ecc 18bd a438 92bd 7bfe 3cbd ba1e ebbd
00000070: 102e ac3b c4ae b13d 786c b83c 30ee 933d
00000080: e776 4cbd 38d3 0dbd 5537 723d 0496 df3d
00000090: 7649 083c c4a6 2e3b 2f75 b8bd 68ec 3d3d
000000a0: 2442 67bd 6cee e5bc f2f8 b93d 2d09 463d
000000b0: 4b0f 843d e726 503a dd1c d03d 5bf4 4438
000000c0: 59d3 1a3d 4949 d93c 2621 4cbe a15f 83bd
000000d0: 6306 7dbd 34a8 0d3d cb1b 1dbe 7548 21bd
000000e0: 8f64 8c3d c938 01be d32b 5b3c fa14 bdbb
000000f0: bd8a aa3d 39b7 0bbd c844 99bd f6b5 15be
00000100: ee9b b43d ffc7 933a edcf 28bc 3205 ebba
00000110: 296c 50bd ad47 f23d 3ab4 93bc 76c1 08bd
00000120: 67bb c73b a5c8 503d 294d a9bd eed4 7a3d
00000130: 9425 af3d 7d5f 13bd 0e44 2c3d 5ce8 c9bb
00000140: 87f7 db3d b108 9b3d b1e8 76bd 4b9b fbbd
00000150: 577d ee3d 95f5 3ebe 6fbd 33bd 46e2 1e3e
00000160: 4072 1cbe a218 9dbd 9054 003d d2b0 d6bd
00000170: 4ab2 2d3a 61dd 95bd 0545 fb3c 177d 493d
00000180: 78af 47be 8d4a 183d 3f0f be3c f59e 7a3d
00000190: e6ca c63c 2633 15bd ce62 c3bd f9c6 99bd
000001a0: 8b9c afbd 392f bb3d 3ef9 343d 228d 873d
000001b0: e159 60bd 24d6 b1bd 7802 26bd 7658 79bd
000001c0: f928 ac3c 83e6 683d 7bdf 20bd a056 5a3d
000001d0: ec9f 17be 8553 87bd 9fb8 863b 9f20 263d
000001e0: fd75 65bd b15c 373c ad38 e5bd 495a 8ebd
000001f0: b800 07be fa10 49be ff56 d2bd 20dd 71bd
00000200: 0c50 b23d e20d cf3d 846e 6ebd 8b9f 1c3d
00000210: f475 1cbe d874 3e3d fd64 b1bd d154 353d
00000220: 2ba8 03bd 1321 9d3d 517a 823c 707e 8a3d
00000230: b73b ccbb 71eb e6bc 9686 37be 9a71 d73c
00000240: a33b fe3d bc2e c93d 592f 973d dbfb 253d
00000250: abc9 9b3d 1b75 353d 70e9 693b 2e68 0a3e
00000260: 6f46 a6bd 37a7 c43d 1a7b babc 7950 2f3b
00000270: d5a0 25be 1be6 5e3d 00c0 04be 3e69 edbc
00000280: 614c 56bd c3b9 13be 7a2d 1e3e ebe4 4cbd
00000290: 8b24 36be 6ee1 db3d dbc7 d63c de10 04be
000002a0: 1442 543e 338f 643d b9ce ae3d fe43 d1bb
000002b0: a40c 6abd 7dd4 a4bd 0792 f5bd 867a a0bd
000002c0: 8ec0 2ebe 7d10 b2bd 380c f0bc de81 e63d
000002d0: d178 893d ab64 87bc c9b2 0e3b b742 233d
000002e0: eb2c 71bd 54e1 593d 9345 553c f1a0 c93d
000002f0: b0be 883c 7846 903d 5e02 10bd 7009 873c
00000300: cab6 92bd d732 f9bd a097 8fbc 4eb3 a1bd
00000310: 63c7 41be 4a2e 373e ed98 da3c f7c5 66bd
00000320: 3243 bf3d 3e75 99bd 4ec0 98bd ae95 ce3c
00000330: 47d0 84bd d225 64bc 2522 423d c2fd 82bd
00000340: e78d 24be fd5b 84bd c4a5 8abd 2c75 fbbd
00000350: 809b 1e3b 265e a8bd 419b be3d bcfc 97bd
00000360: 346f b63d 44c1 8ebd b86c 19be 191c 0b3d
00000370: 5cd4 e23c 4516 c73d df72 943d 783c 42bc
00000380: 5bc0 4e3d 5a5c 953d 14bf 9d3d 22e3 643c
00000390: 5671 06bd 690b 8d3d ae6a 8c3d 2ba8 bebd
000003a0: aba1 d43d 14ce 7cbd 5def febd 05f2 6dbd
000003b0: d4aa 43bd c53f c1bb b082 92bd 6d0e 44be
000003c0: 23df 4c3d ea83 073d 1e67 26be 10e0 8dbd
000003d0: 376d 95bd edee a8bd 2426 a5bc 8aea 2ebe
000003e0: 8966 b03d 9814 953c 8966 b23d dd26 3139
000003f0: c553 73bc f6e1 c13d 8855 9dbd 4d39 bb39
0.085259065 0.07264435 -0.0899895 -0.028101215 -0.023311768 0.049539976 -0.017943177 0.06712848
0.1075668 -0.063352555 -0.0503449 -0.19655442 0.06847073 0.13981958 -0.008725039 0.00930001
-0.0014820509 0.044998083 -0.07687422 -0.0671036 0.0029310174 0.06191875 0.07210994 -0.116801456
-0.037304394 -0.071397096 -0.04614113 -0.1148047 0.0052545145 0.08675912 0.02251266 0.07223165
-0.04991808 -0.034625262 0.0591348 0.10917285 0.008318296 0.0026649693 -0.09006726 0.046368033
-0.05645956 -0.02806779 0.09080686 0.048348594 0.064482294 0.0007940367 0.10161755 4.6957615e-05
0.037799213 0.026524203 -0.1993452 -0.06414724 -0.06177367 0.03458424 -0.15342633 -0.03937574
0.068551175 -0.12619318 0.013377148 -0.005770323 0.083272435 -0.03411028 -0.07483822 -0.14620194
0.08818804 0.0011274813 -0.01030348 -0.0017930625 -0.0508844 0.11830077 -0.018030275 -0.033387624
0.006095338 0.0509726 -0.0826667 0.06123822 0.08552089 -0.035979737 0.04205709 -0.0061617326
0.107405715 0.07570017 -0.060280506 -0.12285479 0.116450004 -0.1864837 -0.04388183 0.15516004
-0.15277958 -0.07670714 0.031330645 -0.104829445 0.00066259934 -0.07317615 0.03067256 0.04919156
-0.1950053 0.037180472 0.02320063 0.06118675 0.024266671 -0.036425732 -0.0954033 -0.07508654
-0.0857478 0.091398664 0.04418301 0.06618716 -0.054773215 -0.08683422 -0.040529698 -0.06087538
0.021015631 0.056860458 -0.039275628 0.05330527 -0.14807099 -0.06607727 0.004111364 0.040558454
-0.056020726 0.011191533 -0.11192451 -0.06950814 -0.13183868 -0.19635382 -0.102704994 -0.05904877
0.08706674 0.1011007 -0.058210865 0.03823809 -0.1527937 0.04649815 -0.0866184 0.04427034
-0.0321428 0.07672324 0.015927466 0.06762397 -0.0062327045 -0.02818844 -0.17922434 0.026299287
0.124137186 0.09823367 0.07382078 0.04052339 0.076068245 0.044301134 0.0035692118 0.13516304
-0.08118903 0.09602206 -0.022763778 0.0026750846 -0.16174634 0.054418664 -0.12963867 -0.028980847
-0.052318934 -0.14426331 0.15447035 -0.050023 -0.17787378 0.10736357 0.026218345 -0.1289706
0.20728332 0.055800628 0.08535523 -0.006386279 -0.05714096 -0.080483414 -0.11990743 -0.078358695
-0.17065641 -0.08694551 -0.029302701 0.11255239 0.06712497 -0.016527494 0.0021774045 0.039858546
-0.058880728 0.053193405 0.013017076 0.0984515 0.01669249 0.07044691 -0.035158508 0.016483992
-0.071637705 -0.121679 -0.017528355 -0.07895528 -0.18923716 0.17888752 0.026684249 -0.056341138
0.09338988 -0.07493065 -0.07458554 0.025217857 -0.06485038 -0.013925033 0.047395844 -0.06396057
-0.16069756 -0.06462858 -0.067698985 -0.12278208 0.0024201572 -0.082210824 0.09306956 -0.07421252
0.08907929 -0.06970456 -0.14982879 0.033962343 0.027689151 0.097210445 0.072484724 -0.011855237
0.050476413 0.07293005 0.07702461 0.013970168 -0.03282293 0.06886942 0.06856285 -0.09309419
0.10382398 -0.06171997 -0.12447999 -0.058092136 -0.047770336 -0.0058974945 -0.07153833 -0.19146128
0.050017487 0.033084787 -0.16250274 -0.06927502 -0.07296222 -0.082486965 -0.020159788 -0.17081657
0.08613307 0.018198296 0.08710963 0.00016894513 -0.014851515 0.09466927 -0.076823294 0.00035710112

g_model.fc2.bias f4 [26]
00000000: edc9 253d c488 e73b 88fe d1bd c6c8 3bbd
00000010: 4ff2 91bd 29cc 94bc f403 8dbd 795a 2cbb
00000020: 99fd 8d3d 10ef c0bc 60e9 093d 4534 533d
00000030: 6541 f7bb 0227 37bd c5a2 7abd a2e6 5cbd
00000040: 3380 e03c 0508 6bbc c76a aabd 9659 473d
00000050: 176f 0b3d 2e45 32bb 9dc2 46bd 7d4b 1abd
00000060: 76d1 21bd 76df 7dbc
0.040475775 0.0070658643 -0.10253626 -0.04584577 -0.07126295 -0.018163757 -0.068855196 -0.0026299043
0.069331355 -0.023551494 0.03366983 0.05156352 -0.0075456374 -0.044714935 -0.061190385 -0.053930886
0.02740488 -0.014345174 -0.083211474 0.04866942 0.03404149 -0.002720188 -0.04852544 -0.037669647
-0.0395064 -0.015495172

f_model.fc1.weight f4 [32, 26]
00000000: 2ea1 a73e 5410 453e 5f29 a7bd adea 2cbb
00000010: 5449 3bbd b44c e83d 3372 5e3e e24c 4cbe
00000020: b818 2c3d 19f9 f8bd 175f 6cbe ddab 033e
00000030: b3c6 0b3d f48d 43bd d61c 2fbd 46e7 c6bb
00000040: d803 9dbd dfdd 8c3d 8bbf ed3d 316c 193e
00000050: 58bb 043e a997 49bd e060 df3d ae25 84be
00000060: 4577 b93d f432 a9bd a8e1 23be dc11 983e
00000070: 13ad 21be 482e 0dbe 8d9f 6f3e 632c 63be
00000080: 1b58 3b3c 59b1 43be 13b1 80be da80 e63d
00000090: 7095 d23d ac96 673d dacf 88be 6ba2 993d
000000a0: a4eb e4bc 9d3f 963e c1dc 3e3e d8f9 13be
000000b0: 9f86 0c3d 7a55 51bd a7ec 9bbe 1bd1 3b3e
000000c0: 1ae9 31bd df7d c3bd 27f7 6d3c aaa4 683c
000000d0: 511b 3dbe 121a 40be 5612 a8be eb4d bb3c
000000e0: a85c 41be b2d4 06bd 1e3d 0ebe e7b1 683e
000000f0: 9bcd 1bbd d621 fb3a a089 943c a229 8fbd
00000100: e329 c3ba 0b8b 453d aee8 6c3e df7f df3c
00000110: d105 b8bc f6e2 eebd ac86 09bd af81 d63d
00000120: 4c41 cb3d 6ed2 b6bd 0d40 f1bd 7a4d 8a3e
00000130: 7ed9 7d3e 56bd 45be 660f e93c e1b5 20bc
00000140: 47e2 52be c819 83be 6149 9cbd 91d6 3b3c
00000150: 5d2e a13b 31ae 4fba 8c78 79be f38e 42bd
00000160: a38f 21be 5c69 8fbc 10ed c53d 4198 88be
00000170: 86ac a63d 0df4 19bd 30a5 9bbe 35b9 fd3d
00000180: 185f 26bd bc60 adbd 853c 413e a347 803d
00000190: a75c 83ba f358 62bd 2a0d 673e 4d8d be3d
000001a0: d364 9dbd 5363 a5bd fde6 223c 1275 373e
000001b0: 99c8 67bd c767 84bd 7da3 a0bd e53b 51bd
000001c0: 6f2d 0a3e 1612 913d ef11 033d 6ab0 583e
000001d0: 2d7b 10bc bcea 4abc 7e06 bb3d 0903 17be
000001e0: 369d f2bd 8983 623e 3342 4c3e dc86 d4bd
000001f0: fb57 6f3e 2236 9e3d a5b9 7e3d 7e0c 333e
00000200: 0ca7 f3bd e27c 3dbe 8c94 94bd 5296 5cbe
00000210: 2ff3 4d3e 1bd2 4bbe 563b 97bc 4f08 bb3e
00000220: 886d 7fbd 595f 17bd a8c3 0fbe da0e cfbd
00000230: 6f0b 93be 3e0b b53e 8749 10be f4e7 873e
00000240: fb36 263e a2b5 ffbd 0d52 3a3e fe74 b13b
00000250: 35ab 1bbe b491 1ebd e49b a5bc 1791 e9bd
00000260: ad91 6fb9 226b 263d f6d0 c43d c6b2 913d
00000270: ec0f 81bd 11ac c7bd 22c0 973d ff01 69be
00000280: 2a51 9d3e e6b9 fabd e12e bebd b7dd 4b3d
00000290: f4ce 793d c0ee 56be 8e0a e83d 7eb0 1dbd
000002a0: 664e 8ebd 1bc2 193e aff0 d8bd 1286 a03d
000002b0: 1626 b8bd d374 61be 8a1b 3abe 8934 a23d
000002c0: 3836 803e 326a 7fbd 8bf5 b33c 7791 ca3d
000002d0: 6abf 1d3e 645c 3cbe c841 d4bd 0bbf 3abe
000002e0: 30e4 8d3e b4a9 843e 1df1 f03c 555a a3be
000002f0: 1948 473d 210d aebd f151 5cbc 0371 54be
00000300: 24db 1cbe 2c4f 483e ae5e 0dbe 6564 38ba
00000310: ab60 723d 7d7d 643d eb74 d23d c3ee 46be
00000320: 5e21 3dbd 2e9b a3bd 04ff 4b3e 67ca 2ebe
00000330: 038f 833e c96c bf3c 8a96 0ebe 9a07 f03d
00000340: 88d5 033d ee8e 86be 4c0a 283d 87dd 51bc
00000350: da55 95bb 2459 94be 4bba 97bd 58b9 68be
00000360: 57d8 273e e8c2 143b 4144 f9bd f81a 05bd
00000370: 1822 323e 91de 873d cdf3 fabd 5b8a 743e
00000380: dac1 78be c364 7a3e f5de 1c3e 403b edbd
00000390: bf06 6d3d 6b8e a53d 1be8 7bbe 4721 433d
000003a0: d5b9 47be 153f c9bd 8bef f6bd c49c 2c3e
000003b0: e669 343e add3 c9bd e53c ccbd 1a5b 38bd
000003c0: dcd0 3d3d cf9a 6f3d 1f12 45ba 8bb1 083e
000003d0: 1bad 29bd 5176 e1bd 30fc 5fbe 161b e83d
000003e0: 2810 623e 87a3 53be dee5 0b3e 8f0c 3cbd
000003f0: a92e 25be b617 93bd 93c9 f2bc a07c ca3d
0.32740158 0.1924451 -0.08162188 -0.0026384995 -0.045724228 0.11342755 0.21723251 -0.19951203
0.04201576 -0.121568866 -0.23083149 0.1285853 0.03412504 -0.0477428 -0.04275211 -0.0060700504
-0.07666749 0.06878256 0.116087995 0.14982678 0.12962091 -0.0492169 0.10907149 -0.25809997
0.09055952 -0.08261672 -0.1600405 0.29701126 -0.15788679 -0.13787186 0.23400708 -0.22184901
0.01143458 -0.19110622 -0.25135097 0.11255045 0.10282409 0.056540176 -0.26721078 0.07501682
-0.027944393 0.29345408 0.18638898 -0.14450777 0.034308072 -0.051106907 -0.3045399 0.18341486
-0.043435194 -0.095454924 0.014524258 0.014199415 -0.18467452 -0.18759945 -0.3282649 0.022864303
-0.18883002 -0.032917686 -0.13890502 0.22724114 -0.038037878 0.0019159864 0.018132031 -0.06990363
-0.0014889803 0.048228305 0.23135635 0.027282653 -0.022463711 -0.11664383 -0.0335757 0.10473954
0.09924564 -0.08926855 -0.11779795 0.27012235 0.24789998 -0.19310507 0.028449725 -0.009808988
-0.2059413 -0.25605607 -0.076311834 0.011464731 0.004918857 -0.000792238 -0.24362391 -0.04749961
-0.1577745 -0.017506294 0.09664357 -0.2667866 0.08138375 -0.03758626 -0.30399466 0.12388841
-0.040618032 -0.08465716 0.18870743 0.062636636 -0.0010022119 -0.05526061 0.22563615 0.09304295
-0.07685246 -0.08075585 0.009942767 0.17915753 -0.05658779 -0.064651065 -0.07843683 -0.05108251
0.13493894 0.07083528 0.031999525 0.21161047 -0.00881843 -0.012385067 0.09132098 -0.14747252
-0.11846392 0.22120489 0.19947128 -0.10377285 0.23373406 0.07725169 0.062188763 0.17485234
-0.11897096 -0.1850467 -0.072548956 -0.21541718 0.20112298 -0.19904368 -0.01846091 0.36529776
-0.062360317 -0.036956165 -0.1403948 -0.101102546 -0.2871966 0.3536014 -0.14090548 0.26544154
0.16231911 -0.124858156 0.18195362 0.005415558 -0.15202029 -0.038713172 -0.020215936 -0.11404627
-0.00022847085 0.040629514 0.09610169 0.071141765 -0.06301865 -0.09749616 0.07409693 -0.22754668
0.30725986 -0.122424886 -0.09286285 0.04977199 0.06098838 -0.20989513 0.11330138 -0.038498394
-0.06948547 0.15015452 -0.10592782 0.07838072 -0.08991639 -0.22017221 -0.18174568 0.079201765
0.25041366 -0.062357135 0.02196767 0.098910265 0.1540505 -0.18394619 -0.10364109 -0.1823694
0.27713156 0.25910723 0.029411847 -0.31904855 0.048652742 -0.08498598 -0.013447271 -0.20746236
-0.1531797 0.19561452 -0.13805649 -0.0007034003 0.05917422 0.055783737 0.102762066 -0.19427018
-0.0461744 -0.079885826 0.199215 -0.17069398 0.25695047 0.023367302 -0.13924614 0.117202
0.03218606 -0.26280922 0.041025445 -0.012809164 -0.0045573534 -0.2897426 -0.074085794 -0.22726953
0.16391121 0.002269918 -0.121712215 -0.032496423 0.17395818 0.06634248 -0.122535326 0.23880903
-0.24292699 0.244525 0.15319426 -0.11583567 0.05786776 0.08083805 -0.2460026 0.047639158
-0.19504483 -0.09826485 -0.12057408 0.16856676 0.17618522 -0.09854827 -0.09972552 -0.045008756
0.046341762 0.058497246 -0.0007517654 0.13348977 -0.041424852 -0.11008895 -0.21873546 0.11333291
0.22076476 -0.2066785 0.13661906 -0.045910414 -0.1613108 -0.07182257 -0.029637134 0.098870516

f_model.fc1.bias f4 [32]
00000000: 746e 5f3e fb94 a83d d162 183e 49b4 85bd
00000010: 0caa 113e 8ad1 833d 8add 3e3d b6f7 f1bd
00000020: 9a39 0d3e bceb 7b3e c68c 3cbe 002d fe3d
00000030: 0c34 cf3d bf9c 6abe 75f6 df3d e943 063e
00000040: 429b 03bd 0707 b3bd 0963 363e c8d7 7f3e
00000050: 965f 4f3e 2c9c 783e 6fe9 f3bd 02a3 6e3d
00000060: a667 523e 93e7 4d3e 3564 04be 0de4 c0bd
00000070: b37f d9bd b135 803e 1a48 523e 2e45 183e
0.21819478 0.08231541 0.14881445 -0.06528527 0.14225024 0.06436451 0.046597995 -0.11814825
0.13791505 0.24601644 -0.18413076 0.12410927 0.10117349 -0.22911356 0.1093568 0.13111843
-0.032130487 -0.08741575 0.17811216 0.24984658 0.20251307 0.24278325 -0.11909758 0.058260925
0.20547351 0.2010787 -0.12928851 -0.09418497 -0.1062006 0.25040963 0.20535317 0.1487014

f_model.fc2.weight f4 [10, 32]
00000000: 6597 563e e621 83be 8344 4dbe 4a60 b43e
00000010: af43 9d3d 3bc5 0bbe 890e 85bb a874 823d
00000020: f063 cfbc a007 cfbd 0e54 9d3d aa99 1b3e
00000030: 3815 463c 0c9c 753d 06b7 853d 7767 b4bd
00000040: a51d 843e a39c 333d a160 a9be 04ee 493c
00000050: e08b 2abe 3ef3 c33d 37f6 afbe 99dc 3dbe
00000060: 0d27 52be fb69 39be e339 b1bd e465 553e
00000070: c77f babd 48a7 c9bc 39bb 6fbe 0462 56be
00000080: 1bbf 81be ec6a 1c3e ea88 9a3c 5175 cc3c
00000090: f8c6 73be ce5e 81be b18e 74be 0aa2 10bd
000000a0: c119 28bd 4c73 823e 4518 cfbd d57f 5fbd
000000b0: 710b 743e bdf7 84be c5bd 833e b481 26be
000000c0: dddd 1a3d 9996 e7bd b2e7 36be fa7e 9abd
000000d0: c0d3 ae3c 300b 68bd 2f95 33bd a448 46be
000000e0: dc56 2f3e e1ee e3bd 90bc 2cbe 8c76 abbd
000000f0: 4688 3cbd 8dd0 a9bd c4c4 d5bb f9f3 253e
00000100: e1e2 01be 3283 a3be c910 8dbe 09ea 85be
00000110: 178f febd 0c88 073e 014b f03c fc22 833e
00000120: 4034 02be a875 f33d bfa9 363e 233a 9dbe
00000130: 010f 08be 45b7 4ebd 14ec 2e3d d9e4 793e
00000140: 3d42 cd3c 5b38 eb3c c312 3ebe 3e6e 5dbe
00000150: 1306 18be 167d d8bc 88eb bcbd 4864 05be
00000160: b118 653e d4a0 183e adaa 00be 8b64 663e
00000170: 9cd5 e4bd 917f db3d 2943 36be b22b 3abe
00000180: dd20 0ebd 6a01 44be 1164 b13c bd4f 47be
00000190: 1d23 453e bc26 f1bd beeb 34be e3c4 6e3e
000001a0: d1cd 9cbe aa04 a9bd 61c8 e1bd 82a0 23bd
000001b0: 7252 53be 5e71 4c3e 1d81 71bc de51 96be
000001c0: 2291 0cbe 20da 47bd 0c60 c3bd e031 4ebd
000001d0: 17e3 20be b17d 98bd af2a 16be 0993 8dbe
000001e0: a91c e63c 164d 10bd b13e 74be 1918 b3bd
000001f0: 856c bebd f24c 423e bbe9 a23e 9626 7dbd
00000200: 3fc6 1abe d1b1 913e a185 c53d db94 443d
00000210: cfad 08be acb6 60be 6b50 0e3e 4433 923d
00000220: aa5a 313b cd5e 76be fd39 0f3d 3d62 5ebe
00000230: 1d98 1c3e a7a5 60be 4210 13be 38a4 573d
00000240: 1647 8ebd 58b8 ca3d 5770 bdbd 172c cb3d
00000250: e1f8 153e 2cce dabb 0607 1a3e f410 a9bd
00000260: 795c a9be 60d5 0cbe b3d7 c9bd ae03 6ebd
00000270: 83e5 923d deb4 b6bd e1ca 8dbe cb25 7fbe
00000280: 9a5b 93b9 6a00 9dbb b6dd 043e 4da1 4ebe
00000290: 2fa7 03be 24f1 ae3e 414b a8be c2ad 24be
000002a0: dedb 84be 60a0 f4bd cc54 97bb 1cf9 a5bd
000002b0: 4ac1 d9bd d82d 8bbd dc14 5a3b 3f1b 103d
000002c0: 53c2 f1bd 1485 34be 115d a3bd 1650 a93e
000002d0: 89d0 9d3d 78d7 33ba 7a7f bfbd b646 01bd
000002e0: a765 83be 7623 073e 25eb d43d 10db 24be
000002f0: 68bb 043e 7c37 8e3c 5110 d7bc 2671 13be
00000300: 9239 253e 7c66 30bc 90bc a5be 1717 923d
00000310: 0ba9 63bc 76d5 c03a 2f01 6dbc f18f 863c
00000320: 4281 1cbe 7b9a 4cbe d428 2d3c df56 1abe
00000330: 25bf 12bd 1168 f73d c07f 3ebc 61ed a63d
00000340: 267e 2d3e 11ef 2ebd 3377 283d 4ee4 d7bd
00000350: e4f9 7bbd d965 79be bda5 2bbd 05ab 493e
00000360: 0247 0ebe 2c4b 1a3e 9fce bd3d 98b1 ef3c
00000370: 8e25 683e d360 a5be 9489 0c3e d918 4b3c
00000380: cfa7 6fbe 46f3 22be ccab 453e f04d 3a3a
00000390: a773 e8bd 6e35 c5bc 6037 183e c796 b93d
000003a0: 3e04 a8be 8324 2bbe 3d34 acbb cbef 0a3e
000003b0: a61a 943d 8c65 0fbd d4ba 9fbd 742e 68be
000003c0: eba1 b8be e98c f9bd 110d 0bbe bb0a 8a3c
000003d0: 6db3 47be 230a 9ebe 2b2d ebbc 8823 c3be
000003e0: c799 813e f882 7ebe 8749 e3be a3f8 703e
000003f0: 3884 aabd fc4e 3abe a3f9 5ebe 9ed2 c0bd
0.2095619 -0.256118 -0.20045666 0.35229713 0.07678925 -0.13649456 -0.0040605706 0.06369907
-0.025316209 -0.10108876 0.07682048 0.15195337 0.01209002 0.05996327 0.065290496 -0.08808797
0.25803867 0.043850552 -0.33081535 0.012324814 -0.1665492 0.09567879 -0.34367535 -0.18541183
-0.20522709 -0.18106835 -0.08653619 0.2083965 -0.09106403 -0.024615899 -0.23411264 -0.20935827
-0.25341114 0.15275162 0.018864114 0.024958285 -0.2380637 -0.25267643 -0.23882557 -0.035310782
-0.041040186 0.2547859 -0.10112051 -0.05456527 0.2383249 -0.2597026 0.2573072 -0.16260415
0.03780924 -0.11308021 -0.17861822 -0.0754375 0.021341205 -0.056651294 -0.043843444 -0.19363648
0.17122978 -0.11129547 -0.16868806 -0.083722204 -0.046028398 -0.08291731 -0.0065237004 0.1620635
-0.12684204 -0.31936032 -0.2755187 -0.26155117 -0.12429636 0.13235492 0.02933264 0.25612628
-0.12715244 0.118876755 0.1783819 -0.30708417 -0.13286974 -0.05046775 0.04270561 0.24403705
0.025055999 0.028713396 -0.18561845 -0.21624085 -0.14846067 -0.026426833 -0.092246115 -0.13026536
0.223727 0.14905101 -0.12565108 0.22499292 -0.11173555 0.10717691 -0.17799057 -0.18180731
-0.03469931 -0.19141164 0.02165416 -0.19464011 0.19251676 -0.11774966 -0.17668054 0.23317294
-0.30625775 -0.08252843 -0.11024547 -0.039947994 -0.20636919 0.19965121 -0.014740256 -0.29359335
-0.13727239 -0.048792005 -0.09539804 -0.050340533 -0.15711628 -0.07445849 -0.1466472 -0.2765124
0.028089838 -0.035229765 -0.2385204 -0.08744831 -0.09298042 0.18974665 0.31818947 -0.061804377
-0.15114687 0.28455976 0.09644628 0.047993522 -0.13347553 -0.21944684 0.13897865 0.071386844
0.0027062097 -0.24059601 0.03496741 -0.21717162 0.15292402 -0.21938191 -0.1436167 0.052646846
-0.06947152 0.09898442 -0.09249943 0.09920519 0.14645721 -0.0066774096 0.15041742 -0.08255187
-0.33078364 -0.13753271 -0.098555945 -0.058108978 0.07172682 -0.089212164 -0.27693847 -0.2491676
-0.00028106273 -0.004791309 0.12975201 -0.20178719 -0.12856744 0.3416835 -0.32869914 -0.16081908
-0.25948995 -0.119446516 -0.004618263 -0.081041545 -0.1063257 -0.067958534 0.0033276593 0.035182234
-0.118046425 -0.1762889 -0.079767354 0.33068913 0.077057905 -0.00068604155 -0.09350486 -0.031561576
-0.25663492 0.13197121 0.10396413 -0.1609919 0.12962115 0.017360441 -0.026252897 -0.14398631
0.16135243 -0.010766622 -0.32370424 0.0713331 -0.013895283 0.0014712054 -0.014465614 0.016426058
-0.15283683 -0.19980805 0.010568816 -0.15072201 -0.03582682 0.12080396 -0.011627138 0.08150745
0.16942653 -0.04270846 0.041129302 -0.105415925 -0.06151761 -0.24355258 -0.041906107 0.19694145
-0.13894275 0.15067738 0.092679255 0.029259488 0.22670576 -0.32300434 0.13724357 0.012396061
-0.23403858 -0.15913114 0.19303817 0.00071069505 -0.11350184 -0.024073329 0.14864874 0.090619616
-0.32815737 -0.16713147 -0.0052552507 0.13568036 0.07231645 -0.035008952 -0.077993065 -0.2267397
-0.36061034 -0.121850796 -0.13579203 0.01685082 -0.19502039 -0.3086711 -0.028708061 -0.38113046
0.25312635 -0.24854648 -0.44392034 0.23532347 -0.08326 -0.18194193 -0.21774916 -0.09415172

f_model.fc2.bias f4 [10]
00000000: 8045 6dbd 28f5 e23d 2a0f 5b3d a027 4a3e
00000010: 89c7 8e3c ac43 30bd 868d 0f3d 6bec 943d
00000020: c834 8c3d 5a8d 403e
-0.05792761 0.11081916 0.05348126 0.19741678 0.01742913 -0.043033287 0.035047077 0.07271656
0.06846005 0.18803921
